navigation/checkpoint.pth (torch_old, 28417 bytes, 6 tensors)

fc1.weight f4 [64, 37]
00000000: ce10 073e d41a e6bd e1ff 94be 3934 a9bd
00000010: f3e5 94be 26e6 db3c 2757 053d 1883 81be
00000020: 4565 503e 3a61 07be 27b3 e93d 7db0 3fbe
00000030: 45db 4ebe 0b25 b0be e3ff d3be ab22 96bc
00000040: c4e7 e3bb c635 0e3e 26cd 4ebe f9ae 2d3e
00000050: a01f 893e 9883 9abc 7a24 713d 16c3 89be
00000060: 14aa 87be f790 c4bd 8f17 103d d6c2 323d
00000070: 9227 86be af8f 93bd 1b34 3fbe 41e8 2f3e
00000080: e05b d2bc 593e 663c 9362 bbbd 5c41 a4bc
00000090: dbf5 8abd e511 593e 4552 203e de3c 7bbd
000000a0: 145a 04bc 6e87 89be 8e65 163e c130 5ebe
000000b0: 1eba 17be 0e80 07be 926c 28bf f6e0 bb3b
000000c0: fba5 0abd 141e 553d 3c2f 973e 674e 483e
000000d0: bc4c 1b3e 93d0 c7bd 9b6e 8b3d 2f0c 023d
000000e0: 4d82 2fbc 0f59 b9bc 386d b3bc d4b9 07be
000000f0: af7f dbbd 0e69 f239 7262 cbbd d312 7b3d
00000100: 4be5 2a3e a2b6 3ebd ae2d 8cbc 2dba 32bd
00000110: 23db 813e 7510 a03d 5d98 433e e4d8 723e
00000120: eea8 8d3d 14f3 893b 7c5f 6abd 8b69 d63d
00000130: 5dfa c13d 715a 503e 7cf9 003e fc8f 22bf
00000140: 43bd 333e 476b 723e 962f bc3d 780b 79be
00000150: 3a48 a63c ef54 87bc 8845 d73b e3ea 753c
00000160: 54c0 e9bc 06c8 12bd 504b a0bb 31a4 2e3e
00000170: a639 663e 6a4b 523e 2966 573d 489b 14be
00000180: 67af 8cbd e9fd 4b3c 46dc 093d a8cf ecbe
00000190: 51ff 7d3e 7d6f 423e 7ea6 dd3d dfb3 29be
000001a0: 78d4 38be f4ea 353d 100c d6bd 6dde eebd
000001b0: 0479 fdbc 9ed1 983c 44ba ac3c a9d3 983d
000001c0: d81e 52bc f673 2e3e b0b5 b63d a6a7 25be
000001d0: 6f45 3fbd 11a5 b53c 11fc a33d ed01 a13d
000001e0: 1101 38bd 0db3 41bc 3c00 d83d bea2 05bc
000001f0: f6bf 8f3d 18ee 723d b5a9 22be f69d 2b3d
00000200: 2611 713d 103d 61be dcae 79be ea04 2b3d
00000210: e162 a33d 77aa 543d ab58 063d 6e52 8e3d
00000220: 9562 b5bd ea24 dc3d 7dc2 113e 0569 6d3d
00000230: d7e1 f9bb ccd0 ad3e f44a 24be c25f 85be
00000240: 2d2e d9be b726 a8bf ac49 bc3c c835 033c
00000250: 7206 b4bc a469 84be 5934 4ebe 2d99 88bd
00000260: cfa3 7bbd 99a9 863d 9cf4 253e b59c 48bd
00000270: 124f 58be f63f 74be 61ee 1c3e 1c71 0dbe
00000280: fb40 30be a71f 43be 5040 05bf 54d3 27bd
00000290: 204b bebd e041 e5bd d2db a03b 6959 953d
000002a0: a538 e53d 6ff0 47be 1e60 c43c e1b2 6dbe
000002b0: f393 08be 1108 26bd b31e 81bc 4d43 253d
000002c0: e737 dd3d 9aec 3d3e e5fd 0f3e 9127 0bbe
000002d0: dc5d 37bd 064e 873d b14c 563e dfe1 943d
000002e0: 6ee7 103d 50e8 ca3c eca7 03be af91 0c3e
000002f0: 34ba 5fbe 7bdf 373e 58e1 dcbb 9dca 7b3e
00000300: 3cbb 12bd 5baa 51bd afea dcbe 487a abbe
00000310: 6794 a33d 4ef7 f2b9 03c5 82bc 8a5b 333e
00000320: 4d7b 10be 6626 643e 0888 68bd 1ce8 1fbe
00000330: d8a6 6fbc d226 b93d 4a6e b3bd 353a 163e
00000340: 9879 8e3d c317 1a3e d013 47bd e790 0cbd
00000350: d4d5 b63d 1987 a4bd 8eeb c73d 593a d53d
00000360: fd27 44be 07fa 20be c291 f03d def5 1abf
00000370: 7770 53bd 6a19 0d3b 6541 48be 0580 1e3e
00000380: 8972 9cbc cda8 f9bd 6cd2 42be 330a 993b
00000390: cd21 0abe 6c02 64bc 0457 88bd 4b2b ac3e
000003a0: fe53 bdbd 9905 3e3d 0be7 103e 6c07 943d
000003b0: 7c79 543e dd4a 55be 99e7 7f3c 5561 3b3d
000003c0: 5840 07bc 9bba aebd 8e72 afbd 3a57 17be
000003d0: 0bc7 4f3d 0569 803d b51b a93e 61e0 a8be
000003e0: 422f 5dbd b6d7 b33d aac2 353d 6302 8abd
000003f0: 73d5 d03d 3c08 f9bd e1ff 15be f8ca 883d
0.13190004 -0.11235586 -0.2910147 -0.08261914 -0.29081687 0.026843142 0.032553818 -0.2529533
0.20351131 -0.13220683 0.11411124 -0.18719669 -0.20200832 -0.34403262 -0.41406164 -0.018327078
-0.006955119 0.138877 -0.20195445 0.16961278 0.2678194 -0.018861577 0.058872677 -0.2690665
-0.26496947 -0.09597962 0.035178717 0.04364284 -0.26202065 -0.0720514 -0.1867222 0.17178442
-0.025678575 0.014052951 -0.09149661 -0.020050697 -0.067851745 0.21198232 0.15656383 -0.061337344
-0.008078117 -0.26861137 0.14687178 -0.21698286 -0.14817092 -0.13232443 -0.65790665 0.0057336045
-0.033849698 0.052030638 0.29528224 0.19561158 0.1516599 -0.09756579 0.06808206 0.0317499
-0.0107122185 -0.022625474 -0.021902665 -0.13254482 -0.10717713 0.0004623611 -0.09930886 0.06129725
0.16689031 -0.04656089 -0.017111626 -0.043634582 0.253625 0.07815639 0.1910109 0.2371555
0.069169864 0.0042098854 -0.057219967 0.104693495 0.09471581 0.20347 0.1259517 -0.6350095
0.17552666 0.23673736 0.09188764 -0.24320781 0.020298112 -0.016519992 0.006569568 0.015009615
-0.028534092 -0.03583529 -0.0048917904 0.17054822 0.22482929 0.2053658 0.052587662 -0.1451236
-0.06869393 0.012450674 0.033657335 -0.4625218 0.24804427 0.18987842 0.108227715 -0.16572522
-0.180498 0.044413522 -0.104515195 -0.11663518 -0.030941494 0.01865464 0.021084912 0.07462246
-0.012824737 0.17036423 0.08921373 -0.16177234 -0.046697076 0.022173436 0.08007062 0.078616954
-0.044922892 -0.011822474 0.1054692 -0.008156477 0.070190355 0.059309095 -0.1588505 0.04189869
0.058854245 -0.2199595 -0.2438311 0.041752733 0.07977844 0.05192038 0.032799404 0.06949316
-0.08856694 0.10749228 0.14234348 0.057961483 -0.007625799 0.33948362 -0.16044217 -0.2604962
-0.42418042 -1.3136815 0.022984348 0.008008428 -0.02197573 -0.25861847 -0.20137157 -0.06669841
-0.061435517 0.06575317 0.16206592 -0.048977572 -0.21123913 -0.23852524 0.1532531 -0.13812679
-0.17212288 -0.19055043 -0.5205126 -0.040973023 -0.09291673 -0.11194205 0.004909017 0.07292444
0.11192445 -0.19525312 0.023971613 -0.23212768 -0.13337688 -0.040535036 -0.015761709 0.040347386
0.10801678 0.18547288 0.14061697 -0.13589312 -0.044767246 0.06606679 0.20927693 0.07269644
0.03537696 0.024768978 -0.12857026 0.13727449 -0.21848375 0.17956345 -0.0067407303 0.2458901
-0.035823092 -0.051187854 -0.431478 -0.3349173 0.0798729 -0.00046342093 -0.015963083 0.17515388
-0.14109536 0.22280273 -0.056770355 -0.15615886 -0.014627181 0.090406075 -0.0876127 0.14670642
0.06956786 0.15048127 -0.04860288 -0.034317877 0.08927503 -0.0803358 0.09761725 0.104115196
-0.1915588 -0.15720378 0.11746551 -0.60531414 -0.051620927 0.002153004 -0.19556196 0.15478523
-0.019097583 -0.12190399 -0.19025582 0.0046704053 -0.13489456 -0.013916593 -0.06657222 0.3362678
-0.09244536 0.046392057 0.14150636 0.07227978 0.20749468 -0.2082934 0.015619182 0.04574712
-0.008255087 -0.08531686 -0.085667714 -0.14779368 0.05072693 0.06270031 0.3302895 -0.32983688
-0.054000147 0.08781378 0.0443751 -0.067387365 0.10196962 -0.12159774 -0.14648391 0.06679338

fc1.bias f4 [64]
00000000: efa2 eb3d 4f8b 85bb ad6c 31be c56d a7bc
00000010: 0de7 313e d7e2 7abd 42dd eabd 7e23 aa3d
00000020: 2d6f 933d 8aec 36be c6b0 123e 58f9 373e
00000030: 5bb9 8b3e ccdc 283e 4a0a 95bd 2a19 1bbc
00000040: 1e3d 023c 3aee ce3c 1bed 443d d02c 2bbe
00000050: 37e1 b0bd 2481 393d be23 a63b 41bc 05be
00000060: c390 08be 70a0 e03c acfe cbbd 5e67 6dbe
00000070: 1ed1 073e 4c1b 043e 2689 9cbd a557 23be
00000080: 22fa fb3d 528a 0abd 2793 b1bd 1d9f 563d
00000090: d187 5abd d635 ce3c 13db 68bc e45c 51bd
000000a0: fd4d 22bd fbef c13b 9a1f 04be ff56 103e
000000b0: 17e6 c03c bf6a 47bd b618 803d ef61 05be
000000c0: 5e42 04be 2a5e c3bb eb95 18be 290b ba3d
000000d0: 38d1 00bd c160 2fbd e9c6 32be df1f 7a3d
000000e0: 7d5b 873d 44d4 00be 4b6a 96bd e7c2 9dbd
000000f0: 60d9 e0bc 1adb 0f3e 1cce 863d ac31 b53d
0.115056865 -0.004075445 -0.17326613 -0.020438084 0.17373295 -0.061251488 -0.11467983 0.08307551
0.071989395 -0.1786367 0.14325246 0.17966211 0.27289852 0.16490477 -0.07277353 -0.009466449
0.007949142 0.02526008 0.048077684 -0.16716313 -0.08636706 0.045289174 0.005070179 -0.13060094
-0.13336472 0.027420253 -0.09960684 -0.23183963 0.13263366 0.12901038 -0.076433465 -0.15951402
0.123035684 -0.03382332 -0.08670645 0.052397836 -0.05335218 0.025172155 -0.014212388 -0.051113978
-0.039625157 0.0059185005 -0.1290268 0.14095686 0.023547215 -0.048685785 0.06254713 -0.1302564
-0.12915942 -0.005962153 -0.14900939 0.0908416 -0.031449527 -0.04281688 -0.1745869 0.06106555
0.06609247 -0.12580973 -0.073444925 -0.0770319 -0.027447402 0.14048424 0.06582281 0.08847365

fc2.weight f4 [64, 64]
00000000: 4b15 9a3d 429f fa3d bc05 1bbd 4e23 2e3c
00000010: 4aff 2c3e 4321 30bd f20e e53c 1db7 90bd
00000020: 1095 3e3d 8e24 43bd b79e c13d 540f 883e
00000030: c8d5 07be 5be9 503d da3a 56be 9200 a9bd
00000040: fc04 8cbd 6344 2dbe d0dc a1bd 1404 19bd
00000050: db08 613d 3e51 21bd d761 443e 46f9 233d
00000060: 77d0 3fbe ae18 a6bd 885c 8e3e 0c0f 513e
00000070: 2690 2cbd a2ad 5f3e 2939 223e 197e 2a3c
00000080: b965 90bd 3a19 7dbd 697d c9bd 3f82 7e3c
00000090: fa07 fdbc 57c1 a63e 20bf cdbe ad3c 8dbd
000000a0: 73aa 8cbe 64a6 2ebc ab18 333d c74f d5bd
000000b0: 5025 d836 2b89 61be 69fb cabd 9b84 34bd
000000c0: 0a89 59bd 75f3 2fbe 31bc 09be 7856 773c
000000d0: 125c cfbd 8700 20bf 7143 0dbd d10c f3bd
000000e0: 9b90 bd3d ceaa 14ba 87f1 bbbc 14f5 6f3c
000000f0: 3da7 853c 9415 2c3e 2e98 25be f8d8 32be
00000100: ff64 7e3e df24 093e 3e3e 103d 97a6 18bd
00000110: 6d6a a73d c257 5c3d 27ce 63be 171d c1bd
00000120: 53eb 5c3b 467d 29be e214 ae3c dae9 dc3e
00000130: 693e e3bd 8d84 ce3c f19e 9cbd 970d c0bc
00000140: b294 083e 3c3f 35bc a929 af3b e945 6dbd
00000150: df68 2f3e f92d 753d 5ba8 3a3e fadc 35bc
00000160: 5cc8 7cbe 5c1d 7ebd 6758 31be 66ee e13c
00000170: ea96 b4bc 5dca e2bd e711 2d3d f45c 82be
00000180: bb97 69bc 3d34 a8bd af2b 5abe f3b4 633d
00000190: 84f7 863d 08f7 813e 99eb fdbc 3584 17be
000001a0: 2a69 42be c1a9 e83d 0f16 0dbe ef3b f0bd
000001b0: 368e 0dbe a551 eabd 4ade a0bd 780d 4ebe
000001c0: 7435 47be 45d1 5bbe fb06 dbbd 6e0b 283d
000001d0: 0fdc 8dbd b823 8ebe 6433 89be 5896 8abd
000001e0: ab4f f1bd c9fa 4fbe c7f4 8e3e b8a4 dabd
000001f0: 9669 1fbe b6c0 333d 92ec 063e 75c4 0dbe
00000200: 471a 2fbe 2b19 50be 3efa 79ba a6a8 953e
00000210: f98f 86bd 4155 0d3e cdd7 47bd 47fe 6dbd
00000220: a5bb 8b3e de1f ebbd d578 873d 1486 f0be
00000230: e9f2 3e3e 8a1f a03c 5fe2 3bbe b3ca 8abc
00000240: 2e87 c23d 7992 9e3e 80aa af3d f141 2abe
00000250: 2647 7dbe 76b9 96bc 46aa cabe 10d7 eb3d
00000260: 2db8 07bd d3c9 9a3d b1cd 553d 4c2a 0dbd
00000270: a41a b7bd 98ff b83e bf18 053b d87b 28be
00000280: d20b 8b3d cd8f d63d 4739 b0bd eed3 a23d
00000290: a312 d93d 5caf bfbe 006f 05be 09aa 3e3d
000002a0: b001 293e c926 cebe dce9 afbd 4502 c3bd
000002b0: f798 2bbc 366e 663b 080e 243d 578d 103e
000002c0: 56f9 40be dbe3 a4bd 2a70 57bd 2302 973c
000002d0: 77c9 b6bd 4818 ccbe 6692 c2bc 6122 a83d
000002e0: e774 1b3d 6b9b 6ebc 3634 1ebe 0c9b 5b3d
000002f0: d967 c23d c1a4 41be ed60 ed3b 85da ee3c
00000300: 94d9 fabd b2a4 27be 90ce 193e 3a56 95bd
00000310: 3d72 7e3e 53e7 7f3b 63ca f03b 1348 da3c
00000320: d449 183e f829 de3c 3aa2 23be 21d7 c5be
00000330: 33cd 14be eeb6 203d c992 e4bd d638 e6bd
00000340: e3af 93bd ffd3 593d 71c9 9abd acdb 90bc
00000350: 187d 3c3c 2831 acbc dec4 52be bda5 883d
00000360: 204f a0bd 9635 1cbd e4ca 013e 43b2 31be
00000370: a977 fbbc 11ed 423e a1a0 b7bd 86e5 613d
00000380: 26a7 d43d 7f71 6f3c d301 8c3d c2fd 4fbc
00000390: 5487 d1be a053 cbbd 1b3a 663f 0a61 d539
000003a0: 7f4a fcbe d029 56be 69f1 233e 0f65 9dbd
000003b0: e7b9 8c3c dd02 0ebc fd17 87bc 73c3 893d
000003c0: fa91 e03d 901c 38be 1d23 56bd eecc f43c
000003d0: f11a 7a3c 0a49 00bf 4f52 afbe e4a7 4e3d
000003e0: b65f 75be aac4 16ba a27d 94be 1967 e83d
000003f0: 8a4a ddbe 5a64 323d c49f d43b fe41 dabc
0.075235926 0.12237407 -0.037847266 0.0106285345 0.1689426 -0.04300047 0.027961228 -0.07066176
0.046528876 -0.047642283 0.094541006 0.26574194 -0.13265145 0.051003795 -0.20920888 -0.08252062
-0.06836888 -0.16920619 -0.07903445 -0.037357405 0.054940086 -0.03938412 0.19177948 0.040032648
-0.18731867 -0.08110176 0.2780497 0.20415896 -0.04212966 0.2184358 0.15842117 0.010406041
-0.07050652 -0.061791636 -0.09838373 0.015533983 -0.030887593 0.32569382 -0.4018488 -0.068963386
-0.27473792 -0.010659788 0.043724697 -0.10415607 6.4416454e-06 -0.22024982 -0.09911234 -0.044071775
-0.053109206 -0.17182715 -0.13450696 0.015096299 -0.10124983 -0.62500805 -0.034488145 -0.11867679
0.09256097 -0.0005671204 -0.022942318 0.0146458335 0.016315097 0.16805106 -0.16171333 -0.1746558
0.24843214 0.13392971 0.03521561 -0.037268247 0.08174596 0.05379463 -0.2224661 -0.094293766
0.00337096 -0.16551694 0.021250192 0.43147165 -0.11095888 0.02520969 -0.07647503 -0.02344398
0.13337973 -0.0110624395 0.0053455424 -0.057928 0.17129849 0.059858296 0.18228285 -0.011100048
-0.24685806 -0.062039718 -0.17318879 0.027579498 -0.022044618 -0.11073754 0.0422534 -0.25461543
-0.014257367 -0.08213089 -0.21305726 0.05559249 0.065901786 0.25383782 -0.03099613 -0.14796527
-0.1898543 0.11360503 -0.13777946 -0.117301814 -0.1382378 -0.11441354 -0.07854898 -0.20122325
-0.19453984 -0.21466549 -0.10694691 0.041026525 -0.069267385 -0.27761626 -0.2679702 -0.06766957
-0.117827736 -0.2031051 0.27921125 -0.10675949 -0.15567622 0.043884955 0.13176182 -0.13844474
-0.17099868 -0.20322101 -0.0009535885 0.2923023 -0.06570429 0.13802053 -0.048789788 -0.058103826
0.272916 -0.114806876 0.06614844 -0.46977293 0.1864735 0.019546289 -0.18348072 -0.016942358
0.0949844 0.30971125 0.08577442 -0.16626717 -0.24734172 -0.018398982 -0.39583033 0.11515629
-0.033134628 0.07558026 0.052198116 -0.034464166 -0.08940628 0.36132503 0.002030894 -0.16453493
0.06789364 0.104766466 -0.08604675 0.07950579 0.10599258 -0.37438476 -0.13030624 0.046548877
0.1650455 -0.40263966 -0.08589527 -0.09521917 -0.010473481 0.0035160906 0.040052444 0.14116417
-0.18845114 -0.080512725 -0.052597202 0.018433636 -0.08925145 -0.39862275 -0.023751449 0.08209682
0.037953284 -0.014563422 -0.15449604 0.05361466 0.094924636 -0.18910505 0.0072442205 0.029156933
-0.12248531 -0.1637142 0.15020204 -0.07291837 0.24848266 0.0039047792 0.007348345 0.026645696
0.14871913 0.027119622 -0.15979853 -0.38640693 -0.14531402 0.039236955 -0.111608095 -0.11241309
-0.07211282 0.05318069 -0.07557953 -0.017682873 0.011504434 -0.021019533 -0.20582911 0.06672237
-0.07827592 -0.03813704 0.12675053 -0.17353158 -0.030696707 0.19035746 -0.089661844 0.05515053
0.103834435 0.014614462 0.068362854 -0.012694778 -0.4092356 -0.099280596 0.8993241 0.00040698826
-0.49275586 -0.20914388 0.1601006 -0.07685291 0.017178489 -0.008667675 -0.01649093 0.06726732
0.10965343 -0.17979646 -0.05227958 0.029882874 0.015265212 -0.5011145 -0.34242484 0.05045308
-0.23962292 -0.0005751351 -0.290021 0.11347789 -0.4322093 0.043552734 0.006488772 -0.026642796

fc2.bias f4 [64]
00000000: a59b 24bd 11a5 8cbd c66c 6c3d 10cf c73d
00000010: adc2 443e 063e 05be e43b 5bbd 107f 903d
00000020: c060 713e 4ead ca3e 07f7 dcbd 389a 3d3e
00000030: 0779 a03d a139 01bd 189e 28bd 2c31 67bb
00000040: e366 0d3e 5c67 35bd 71e0 9dbd 5461 1f3e
00000050: 89bd 8e3e 682c d93e 14ee 32be 62c5 c6bd
00000060: f1a2 a5bd be64 05be 6377 043e a3f6 47bd
00000070: 66c9 9ebd 953d 753d 12f2 f13c 490c 6fbd
00000080: dd6e 1f3d c0fb 753d 9fe5 5ebd 2ee7 bebd
00000090: a087 87bd 525c a3bd 1680 5e3d 59a8 c13c
000000a0: b83a 13be 2afa de3e 02cc 873e b8e2 22bd
000000b0: d40d 673d e7bd 0dbe e034 893e a562 89bd
000000c0: 7d8d 3d3d 8b51 a1bd 6784 3cbc 8fc3 d03e
000000d0: fcf0 393d ef0f 54be 5e83 c53d d139 21be
000000e0: c24f fcbd e6ed c1bd f7f8 bf3c 0190 2ebd
000000f0: 0557 5b3d 7732 973e 02bc 3a3d 7ce0 a1bd
-0.040187497 -0.068674214 0.057720922 0.09756291 0.19214888 -0.13011941 -0.053523913 0.07055485
0.23572063 0.39585346 -0.10789304 0.18515861 0.07835584 -0.0315491 -0.041166395 -0.0035277111
0.1380878 -0.044288024 -0.077088244 0.15564471 0.2787898 0.42416692 -0.17473632 -0.097056165
-0.08087719 -0.13026711 0.12936167 -0.048819195 -0.077532575 0.059873182 0.029534373 -0.058361325
0.038924087 0.06005454 -0.054418202 -0.09321438 -0.06617665 -0.07976593 0.05432137 0.023639845
-0.14377868 0.43550235 0.26522833 -0.039766997 0.056409672 -0.13841973 0.26798153 -0.06708268
0.046277512 -0.07876881 -0.011506177 0.407742 0.045395836 -0.20709203 0.09644197 -0.15744711
-0.123199 -0.09469204 0.023434145 -0.0426178 0.053549785 0.2953069 0.045589454 -0.07904145

fc3.weight f4 [4, 64]
00000000: 1277 8c3e 28a5 0f3e 8ce9 963e f0d1 853e
00000010: 6aad 343e 6945 f63d 0973 973e db17 8abe
00000020: d9a1 983d c877 fc3d 781f 4bbe be87 d93c
00000030: 1651 f23e 988a b03d 1680 563e 91a9 ddbd
00000040: 7c05 4b3e 75e9 2abd 90cd 86be ceef 143e
00000050: 598b 093e c447 1d3e c203 0ebe fc43 9abe
00000060: cbea afbc 777e 95be 93b8 f0be 66e8 cebe
00000070: a001 e23e 4e2a f83e aca2 4bbe 1e24 9d3d
00000080: b3f7 813e 2d71 8e3c 9758 a03e 0b89 2fb9
00000090: 6981 aa3e 163f b2be 3407 c9bd 0b46 443e
000000a0: 78e3 803e 2ba5 1f3e f0b0 a63d 704a fabd
000000b0: fdad 393e 9109 403c 1ac4 4b3e 6378 c63e
000000c0: e820 4cbd e055 ad3d f5a8 383e 8447 053e
000000d0: 6f09 8a3e 74a2 b9bd 12e4 993d 1935 25be
000000e0: 5a2b d2bd 58b0 82be 98d8 d8bc ea40 0c3e
000000f0: 0171 a53d 55c3 443e 2b64 24be c5f2 be3d
00000100: 6803 c93e efd2 d33d d937 823e 12ed 8a3e
00000110: 1298 c03d b8f7 8d3e aba6 af3e 5ae8 8dbd
00000120: a32a 753d ee2d 1e3e 73ae 83be bc04 cf3d
00000130: a93f a43e ae90 aa3d c391 083f 10ed d23d
00000140: 81be 1a3e 0b03 f43d d734 14be c651 f63d
00000150: cb6a 193e 857d 743e 0893 3ebe 728c edbd
00000160: 6e59 273e aa32 f5bd f6a3 d2bb 7f3b 61be
00000170: 35a9 963e af85 b83e bccc 13be 4fa9 273e
00000180: 11b6 653e 9646 9dbc f275 b73e 2499 73bd
00000190: 7e2c 9e3e 34d4 94be 6128 cb3e 5f5f 953e
000001a0: a59b 24bd fb29 313e 51f6 743d d359 3e3d
000001b0: 38d6 e43e 41b3 26bc 9c47 2f3e 6549 313e
000001c0: 25de c13d 35b1 503e 88e1 453e 3623 943d
000001d0: 8ee2 5b3e d3ad 51be 69a2 143e 24bf 23be
000001e0: 9e08 59be e951 d1bd 2ccc 173e 6ec1 a53d
000001f0: f5ab d73d c93a 0e3d b4ce 0fbe 22e2 15bc
00000200: 5d72 603e 2aa1 9f3e 5cc6 3d3e fd87 e23e
00000210: 5dad 203e 3972 cc3e be59 de3e 5107 68be
00000220: 0f00 d13d a9e2 ea3d dfec 9bbe f3f4 c43e
00000230: 5d55 d13e c5a9 1cbf cd94 ecbd a7c4 433e
00000240: 9670 3d3e 9978 043d 0e52 933d 3588 9d3d
00000250: df40 ef3d 935a 623e 7196 2ebe a414 c23d
00000260: f11c 9e3e e9a1 f7bd 3410 8abd c725 48be
00000270: 233d ad3d 1c82 f13e 5a41 1d3c 1bd9 0bbc
00000280: 7997 843d 0928 c2be 5670 0b3f 8f4f ce3d
00000290: 7bca 403e c761 9ebe beff c83d 6799 1b3e
000002a0: 7189 ccbe 2459 203e c20b 363e 40f9 b3be
000002b0: ae4a f33d fe26 623e 18f5 283e d80b d03e
000002c0: 0893 e03d 53f6 743d 1dae 423c ca58 563e
000002d0: 48aa 953d 96f6 a63d 2899 343e 1dbd b73c
000002e0: 17dc 3dbe 8aba fcbe 2836 703e 2214 863d
000002f0: ac0d 9ebe 20b6 ec3d 5947 15bf 9800 9a3d
00000300: 4fda 743e 77b9 fc3e 8263 543e 524d 263e
00000310: 680a 053d b406 c2be 80e0 d33e d37e aabd
00000320: e5f9 8e3d 1811 483e 98b1 d3bd 9993 34bd
00000330: 3c42 403f 008f a73d f8d0 1a3f a274 64bd
00000340: 60df 903e e38b d13e 8658 c33d bac0 113e
00000350: 7db8 c83c 91ab 633e 4568 87be e48a 323c
00000360: 3f8c f33d 09e2 cfbe 1eb3 72bd d379 b03d
00000370: b1ac 3e3f ee9d c83c a38b 58be 410b 1b3e
00000380: 35ad ce3d 6d78 d539 9e23 cf3e 74e3 3a3c
00000390: 89af 07bd 1a9b 1fbe d140 cd3e 3ea6 983e
000003a0: 2126 e6be 3333 3b3e 8ab9 163e 7aee aebe
000003b0: 3b87 1e3f 22ed 58be 8d12 ee3d a727 34be
000003c0: a5a5 8c3b f7d6 ce3d aaeb f63d 19ad 303e
000003d0: c218 f93d b1e5 0ebe 0931 a53d e50a dd3d
000003e0: d669 81be be0a 00be 539f dfbe 5fc7 6abd
000003f0: ebc5 19be 7d00 ef3d c1da f83d e7e0 8e3e
0.27434593 0.14027846 0.29475057 0.26136732 0.17644277 0.12024958 0.29579952 -0.26971325
0.07452745 0.12327534 -0.19836223 0.026553985 0.4732749 0.08620185 0.20947298 -0.10823358
0.19826311 -0.04172655 -0.26328707 0.14544603 0.13432063 0.15359408 -0.13868621 -0.30129993
-0.021474263 -0.29198048 -0.4701582 -0.4041168 0.44141865 0.48469776 -0.19886273 0.076729044
0.25384292 0.01738795 0.3131759 -0.00016740353 0.33301857 -0.34813756 -0.09815827 0.19167344
0.25173545 0.1559035 0.08139217 -0.12221229 0.18132778 0.011721031 0.19899026 0.38763723
-0.04983607 0.08463645 0.18033202 0.13015562 0.26960322 -0.090641886 0.07514204 -0.16133536
-0.10262175 -0.25525165 -0.026470467 0.13696638 0.080781944 0.19215138 -0.16053836 0.09323648
0.3926041 0.10342967 0.25433233 0.27133995 0.09404005 0.27728057 0.34306845 -0.06929083
0.059855115 0.15447208 -0.25719032 0.10108325 0.3207982 0.08328377 0.53347415 0.10299122
0.15111734 0.11914643 -0.14473282 0.12027316 0.14982145 0.23876007 -0.18610775 -0.115990534
0.16342708 -0.11972554 -0.006428237 -0.21995352 0.2942597 0.36039492 -0.14433569 0.1637318
0.22432734 -0.019198697 0.35832173 -0.05947222 0.3089332 -0.29068148 0.39679244 0.29174325
-0.040187497 0.1730117 0.059805218 0.04647238 0.44694686 -0.010174573 0.1711716 0.17313154
0.09466199 0.20380099 0.19324315 0.072332785 0.21473143 -0.20476465 0.1451508 -0.15990883
-0.21194693 -0.10220701 0.14823979 0.080935344 0.10530845 0.03472403 -0.14043695 -0.009148153
0.21918626 0.31177646 0.185327 0.44244376 0.15691133 0.39930895 0.43427843 -0.22659041
0.10205089 0.11469013 -0.30454156 0.3846813 0.4088544 -0.6119655 -0.11551819 0.19117986
0.1849998 0.032341573 0.07193385 0.07691995 0.11682295 0.22104864 -0.17049576 0.09476593
0.30881456 -0.12091429 -0.06741372 -0.19545661 0.084589265 0.47169578 0.009598101 -0.008535649
0.064742036 -0.3792117 0.54468286 0.10073768 0.1882724 -0.30933973 0.09814404 0.15195237
-0.3994861 0.15659004 0.17777923 -0.351511 0.118794784 0.22085187 0.16499746 0.40634036
0.10965544 0.059805226 0.011882332 0.20932308 0.07307869 0.08152501 0.1763655 0.022429043
-0.18540989 -0.49361068 0.23458159 0.06546809 -0.30869806 0.11558175 -0.5831199 0.075196445
0.23911403 0.49360248 0.20741084 0.16240433 0.032480627 -0.3789574 0.41382217 -0.08324971
0.06981257 0.19537771 -0.10336608 -0.044086073 0.75101066 0.08181572 0.6047511 -0.055775292
0.28295422 0.40927038 0.09538369 0.14233676 0.024502033 0.22233416 -0.2644674 0.010897372
0.11891984 -0.4060214 -0.05925285 0.08616986 0.74482256 0.02448937 -0.21147017 0.15141012
0.1009163 0.0004071625 0.4045686 0.011406768 -0.033126388 -0.1558651 0.40088513 0.29814333
-0.44950965 0.1828125 0.14719215 -0.34166318 0.61925095 -0.21184209 0.11624632 -0.17593251
0.0042922073 0.10099595 0.12056668 0.17253532 0.12162925 -0.13954808 0.08065993 0.107930936
-0.2527606 -0.12504098 -0.43676242 -0.05731904 -0.15016906 0.11670015 0.12151099 0.27905962

fc3.bias f4 [4]
00000000: 101d 903e d62c 7c3e 2072 0e3e 6318 323e
0.28147173 0.24626479 0.13910723 0.17392115
