collaboration_competition/outputs/exp_5/actor_1000.pth (torch_old, 536747 bytes, 14 tensors)

fc1.weight f4 [400, 24]
000000 73 25 17 3d 2a 49 89 3c 93 03 d4 3c cd df 08 bc
       0.03690095 0.01675852 0.02588061 -0.0083541395
000010 e1 94 32 bd f0 b3 6a 3b 77 d9 fb bc c0 29 c2 3b
       -0.043599013 0.0035812818 -0.030743344 0.005925387
000020 97 45 cd 3c ab 12 de bc aa 97 2e bc 8b 47 32 bc
       0.025057597 -0.027108511 -0.010656277 -0.010881315
000030 af 91 82 3d c8 1a 17 3d 73 ad 24 3d cf b5 eb b9
       0.06375443 0.036890775 0.040204477 -0.0004495815
000040 0e fb 6c 3b 8b 49 c4 3b 0a af ed bc 68 c9 ff bc
       0.0036160382 0.0059902123 -0.02901413 -0.031223968
000050 67 6f fc 3d 65 36 62 bc 58 8b f5 bc 17 25 2a 3d
       0.12325936 -0.013806914 -0.02997367 0.041539278
000060 0e dc 42 3c 18 f5 17 3d 87 de a3 3c ab 9e d5 3c
       0.011893285 0.037098974 0.02000357 0.026076635
000070 a7 87 82 3d 5e ba a1 3c da 5a 48 3d ef 1e d5 bc
       0.0637353 0.019742187 0.048914768 -0.026015727
000080 ba 60 fb 3c c0 fa 1c 3d 58 ec 55 3d 4f d6 14 3d
       0.030685771 0.03832507 0.052227348 0.036337193
000090 05 70 eb 3b 55 89 f6 3b c6 ce 43 3d 33 26 28 3d
       0.0071849846 0.0075236955 0.047804616 0.041052055
0000a0 1c c0 34 3d 31 0f 2f 3d 06 2a 9e 3c 83 c7 b3 3c
       0.044128522 0.042739097 0.019307148 0.02194572
0000b0 fe 8d 56 3b d5 f7 1b 3d 39 c6 8e 3b 5c e5 5d bd
       0.0032738443 0.038078148 0.004357126 -0.054173812
0000c0 43 fe 05 3d 09 8c 70 3d 4c a2 1a 3c 0f 94 33 bd
       0.032713186 0.058727298 0.009438109 -0.04384237
0000d0 62 7b c4 3c 41 9b 13 3d 79 4d 90 3c 58 33 63 3c
       0.023984615 0.036036734 0.017615067 0.013867222
0000e0 5a 27 a4 3c 21 85 11 3d 3e b5 59 bd 79 ed a4 bb
       0.020038296 0.035527352 -0.05315136 -0.0050331918
0000f0 33 4e 4a 3b 97 8e 97 bc 6b c1 8e 3c 00 43 cf 3c
       0.0030869364 -0.01850061 0.017426213 0.025300503
000100 e6 e3 94 3c d3 e9 1c 3c 27 13 9d bc 59 18 99 3c
       0.018175077 0.009577232 -0.019174172 0.018688368
000110 29 2d 5b bc 93 9f 35 bd 3d 48 a5 3c 1d 82 31 bb
       -0.013377466 -0.044341635 0.020176047 -0.002708561
000120 4e 40 82 3d c7 30 5b 3d a8 14 5e bc 0c 48 dd bc
       0.063599214 0.053513315 -0.0135547295 -0.027011894
000130 76 0d e0 bc 9c 16 a4 bc 01 c4 81 bd bf e3 24 3d
       -0.027350169 -0.020030312 -0.06336213 0.040256258
000140 ae 44 15 bd 21 39 46 3c 3b 0a a1 3b d2 12 0e 3c
       -0.03644245 0.0120985815 0.0049145496 0.008671479
000150 c6 fd 40 bd 96 31 3f bd 66 0b b6 bc 52 ce f5 3c
       -0.047117017 -0.04667815 -0.022222232 0.030005608
000160 8f 51 13 bd 0c 3c a3 3c 32 2e 8a bd 4a 2c 93 3c
       -0.035966452 0.019926094 -0.06747092 0.017965455
000170 7d b6 46 bd f3 9a 39 3d 40 85 82 bd 9f 69 80 bc
       -0.048513878 0.045313787 -0.06373072 -0.015675364
000180 20 10 46 3c 9e 59 35 3d a7 99 6e 3c 83 c7 86 3c
       0.012088805 0.04427492 0.014563001 0.016452556
000190 ef 7e 03 3c de f0 60 3d 57 fa b2 bc 6d 7f 52 3c
       0.008025869 0.05491721 -0.021847887 0.0128477635
0001a0 ad 34 97 bb 35 8a f7 3c 07 95 22 39 e7 51 18 bd
       -0.0046144337 0.03021727 0.00015505041 -0.037187483
0001b0 9b cd 4a 3d cb e3 a0 3d 26 9f 96 bd a8 78 ec 3c
       0.049512487 0.07855948 -0.07354574 0.028866127
0001c0 b0 b8 40 3d 65 3e bd bc a8 bf 8f 3b 3d 1c 1f 3b
       0.04705113 -0.023101041 0.004386861 0.0024278306
0001d0 57 e3 bc 3c f5 3c 6d 3d cd ae 27 bd 25 4c 94 39
       0.023057623 0.05791946 -0.040938187 0.00028285492
0001e0 e6 ac 67 3c b6 1d 13 3d bc 62 6e bd d2 6f 35 bd
       0.014140343 0.035917006 -0.05819963 -0.044296093
0001f0 75 22 d1 3c 6d e7 0c 3d 4f bb d4 bc 85 b5 d1 3a
       0.025529126 0.034400392 -0.025968222 0.0015999532
000200 a1 3f 0b 3d b9 94 c8 bc da 40 bf bc ff 44 87 3c
       0.033996228 -0.024484979 -0.023346353 0.016512392
000210 2b 9f c1 bb 71 07 ce 3c 48 45 57 3c 29 74 1a bd
       -0.005908867 0.025150033 0.0131390765 -0.037708435
000220 59 3a ab ba 97 d4 ca bc 16 58 e7 bc c0 6d fd 3a
       -0.0013063654 -0.024759574 -0.028240245 0.0019335076
000230 92 66 c0 3d 38 61 0f bc f9 b7 56 bd 94 3c 9c bc
       0.09394564 -0.008751206 -0.052421544 -0.019071855
000240 ff 84 1c 3d 9a f2 61 3d 19 89 f2 3c cc ff f4 3c
       0.038212772 0.055163004 0.029606389 0.02990713
000250 77 e8 67 3d 3a ec ab bb ff 4b a9 bc 1c a5 92 bc
       0.05661818 -0.0052466663 -0.02066612 -0.017900996
000260 7a 67 3e 3c a2 a6 c6 3c 19 18 25 3c f7 f5 11 bd
       0.01162135 0.024249379 0.010076546 -0.03563496
000270 4b 4e 83 bb 11 d4 fa bc 6a 20 83 bd 9f e6 00 3d
       -0.004007136 -0.0306187 -0.06402667 0.031469937
000280 cb 6b 57 3c f1 13 69 bc 72 91 2a bd 80 ed 3e 3c
       0.013148258 -0.014225946 -0.041642614 0.011653304
000290 c4 03 14 bd 9a 98 6a bd 95 fe 61 bb 09 a9 e2 3c
       -0.036136404 -0.05727444 -0.0034484018 0.027668493
0002a0 48 26 e9 3c a2 fd 76 3d 70 e8 61 3c f3 63 10 3d
       0.028460637 0.060300477 0.013788328 0.03525157
0002b0 1f 6e f0 bc 43 3c 8d 3d 91 0b 9e bc 6b 18 b8 bc
       -0.029349385 0.0689626 -0.019292625 -0.02247258
0002c0 a6 c8 3a bd cd 82 d9 3c a7 0a 88 bc c0 2e 62 3d
       -0.04560151 0.026551628 -0.016606642 0.055220366
0002d0 db 70 12 b9 c5 e5 77 3d b5 07 ec 3b 11 78 ce 3c
       -0.00013965687 0.06052186 0.007203067 0.025203736
0002e0 ac 69 be 3c 67 b3 ab 3d 72 c2 61 bc c9 29 0f 3d
       0.023243748 0.08383828 -0.0137792695 0.03495196
0002f0 47 1e b3 bb ea 5a 48 bc 90 b5 61 bd ab 2a 04 bd
       -0.005466256 -0.012228707 -0.055104792 -0.032267254
000300 fd 48 5e 3d 41 5d 37 bc d2 27 ab bc 19 9a bb bc
       0.054268826 -0.011191667 -0.020893011 -0.022900628
000310 c0 eb f6 3b 58 5c 06 3d b0 a3 e3 bc 6c f6 34 bd
       0.007535428 0.03280291 -0.027788013 -0.04418032
000320 10 2a 87 3d 6d 46 b9 3c 44 d9 0b bd 0d 98 7f 3c
       0.0659982 0.02261659 -0.034142748 0.015600217
000330 8f dd 89 3c 55 b3 b3 bb 5b ae a9 3b 88 42 9e bc
       0.01682928 -0.0054840245 0.0051782555 -0.019318834
000340 c8 0b f7 bc ee 44 19 3d 85 4e 2a 3b 73 f5 c4 bc
       -0.030156985 0.037419252 0.0025986743 -0.02404282
000350 b6 43 94 3d df fa 70 3c b0 cf b1 3c 2e ee 65 bc
       0.07239477 0.01470825 0.021705478 -0.014033837
000360 f5 a4 b7 3c 88 39 55 3d b4 91 41 bd 0d a8 99 bc
       0.022417525 0.05205682 -0.047258094 -0.01875689
000370 c4 4a 14 3d a3 51 7b 3b 36 a9 fd 3c 71 64 32 bd
       0.036204115 0.003834822 0.030964475 -0.04355282
000380 4d a3 d5 3c a5 48 5c 3c 49 d6 5e bc a2 3a df 3c
       0.026078844 0.013445054 -0.013600894 0.027249638
000390 6f 5f dd bb a2 8c b1 bc 91 a1 6f bc cc 5f 80 bc
       -0.0067557613 -0.021673504 -0.014625923 -0.01567068
0003a0 15 c8 c4 3c 06 27 d2 bc 45 21 1d 3c b9 df 34 3d
       0.024021188 -0.025653373 0.009590452 0.04415867
0003b0 53 69 de bc 2e 4d 5f 3c ef 06 0a 3c 5e e2 21 bd
       -0.027149832 0.013629241 0.008424505 -0.03952252
0003c0 9d 8b ac bc d5 40 24 bc 72 98 d0 3c f5 9e a0 3c
       -0.021062667 -0.010025223 0.025463317 0.019607047
0003d0 f9 0d 0a bb bf 50 cc bc d8 6a d4 bc c1 ad 0e bd
       -0.0021065457 -0.024940846 -0.025929853 -0.034833673
0003e0 fb 05 6d bd 40 fa d2 bb f8 26 32 3c 37 e3 23 bd
       -0.05786703 -0.0064385235 0.010873549 -0.04001161
0003f0 e8 42 a3 3d 92 0b 78 3b 13 f1 d6 bc e4 06 fc bb
       0.07971746 0.0037848693 -0.026238 -0.007691251

fc1.bias f4 [400]
000000 ce 12 11 3e dd d3 4e 3d 96 81 4f bd 65 9a 05 3e
       0.1416733 0.050495017 -0.050660692 0.13047178
000010 3f 09 2a bd 76 81 ac bc 53 3c 57 bd a9 26 e9 bd
       -0.041512724 -0.021057826 -0.052547764 -0.11384327
000020 cc aa b0 bd fe db 49 be 53 5b 0e bd 82 da 56 be
       -0.08626327 -0.19712827 -0.034755062 -0.20981792
000030 22 45 c3 3c 73 69 ba bc ad 4b 7d 3d cd 7d 03 be
       0.023836676 -0.02275536 0.06183975 -0.12840958
000040 e4 3d ae 3a 5a b3 61 bd dc 56 d9 bd 5d 12 0f 3e
       0.0013293591 -0.055102684 -0.1061227 0.13971849
000050 1e 17 4a be 5e 2f 0d 3e 60 1b 40 bd 28 bf 20 be
       -0.19735381 0.137876 -0.046901107 -0.1569792
000060 4b 9f 6e be d8 76 5a be cc 06 b8 bd 2d f8 03 3e
       -0.23302953 -0.21334398 -0.089856714 0.1288764
000070 bd 63 f3 3c a9 bc 22 be 8f 4f 51 3e ae cc 1a 3e
       0.029710645 -0.1589228 0.20440505 0.15117142
000080 af 12 1d 3d 5a 51 6c 3e 82 78 1a 3e ff f3 d9 ba
       0.038347896 0.23077908 0.15085033 -0.0016628503
000090 62 4b 11 3e f5 8b f5 bd 38 ef 26 bd bd f0 0a be
       0.14188913 -0.11989585 -0.04075548 -0.13568397
0000a0 de 66 d4 bd 6a 8c 5d be 50 29 17 3e 58 41 b2 bd
       -0.10371183 -0.21635595 0.14761853 -0.087038696
0000b0 c2 2c 17 3d 12 ee e2 3d c3 05 ca 3d 5c 07 93 bb
       0.03690792 0.110805646 0.0986438 -0.0044869613
0000c0 a3 de 44 3e 30 74 49 be 20 ca 25 3e 57 0d 3d be
       0.19225554 -0.19673228 0.16190386 -0.1846212
0000d0 40 33 43 3e f1 0a 5f 3c e2 82 13 be ba 91 93 bd
       0.19062519 0.0136134485 -0.14405397 -0.072055295
0000e0 9e 42 d4 bd 8c 55 f0 3d c3 cc 03 3e a0 e7 01 3e
       -0.10364269 0.11735067 0.12871079 0.12686014
0000f0 f3 b2 f3 3d 06 2b 56 3e 1f 93 55 be 1b 79 a0 3d
       0.11899366 0.2091485 -0.20856903 0.07835599
000100 c7 9e b4 bc 7e 36 d6 3d 21 6f 0e 3d a7 fc 22 3c
       -0.022048367 0.10459612 0.03477395 0.009947932
000110 91 ec 0f 3e cd 27 b2 bd ac b1 5e be fc 95 14 be
       0.14055087 -0.08698998 -0.21747464 -0.1451034
000120 14 f2 06 3e 83 65 af bb f1 27 39 be 8b 54 91 3d
       0.13178283 -0.0053526773 -0.18081643 0.070962034
000130 d3 66 60 bc e9 d1 22 be 4a 57 3f 3e cc bc c0 3d
       -0.01369639 -0.15900387 0.18685642 0.0941101
000140 02 07 29 3e 5c b6 e8 bc 05 55 31 be 96 69 26 be
       0.1650658 -0.028407268 -0.17317589 -0.16251215
000150 80 8d 0b 3d 0b c8 30 be 60 62 ec 3d 4c 75 41 be
       0.03407049 -0.1726381 0.11542201 -0.18892401
000160 d0 d8 0f be 86 7c b7 3c 94 b5 26 3d 23 b8 55 bd
       -0.14047551 0.022398245 0.04070051 -0.05217756
000170 ef 37 42 bd c8 5f 03 be be 74 b5 bd e3 86 0c 3c
       -0.047416624 -0.12829506 -0.088601574 0.008577081
000180 d9 5b 73 be 44 32 08 bd a6 55 67 bd 1e 00 be ba
       -0.23765506 -0.033251062 -0.056478165 -0.0014495885
000190 3b 6f 13 3e c5 09 48 be 07 df bf 3d 26 5d 91 3d
       0.143979 -0.19534977 0.09368711 0.07097845
0001a0 c4 3e 54 3d 19 73 8e bd 39 ab db 3d 20 b7 37 be
       0.05181767 -0.06955547 0.107260175 -0.1794095
0001b0 71 46 e5 bd 54 cf eb bc 40 6b a2 bd d3 23 64 be
       -0.11195076 -0.028785385 -0.079306126 -0.22279291
0001c0 8e d9 0d 3e 9c ea 0a 3e c0 7e 4c be 34 b6 ff bc
       0.13852522 0.13566059 -0.19970226 -0.03121481
0001d0 9c 29 5b be b5 8a 30 bd bb eb 39 3d 0b 15 3c 3e
       -0.21402591 -0.04310103 0.045390826 0.18367402
0001e0 e0 1a de 3d 36 13 c5 3d ba a5 0e bb 2c 8d 52 be
       0.1084497 0.09622805 -0.0021766261 -0.20561665
0001f0 87 71 bd bd 60 26 23 3e 99 fd e3 3c dc 5a 0b bd
       -0.09250169 0.15932608 0.027830886 -0.034022197
000200 7d 79 8d bd bd 98 c7 3d 5b f3 d6 3d a9 07 1e bc
       -0.06907938 0.097459294 0.10495635 -0.009645381
000210 90 d8 72 3d cb fc 2a 3e 0e a9 09 3e 79 a2 e6 3d
       0.05928856 0.16697995 0.13443395 0.11261458
000220 b1 08 02 3e 97 e5 b5 3d c4 d3 70 3d 9d 4e 5c be
       0.12698628 0.088816814 0.058795705 -0.21514364
000230 8e b1 33 bd c6 ac 92 bd 5e 04 9d 3c 99 55 99 bd
       -0.0438705 -0.0716186 0.019167121 -0.074870296
000240 29 f6 37 be 47 de 25 3e af 14 c0 bd bd a2 48 be
       -0.17964996 0.16198073 -0.09378945 -0.1959333
000250 10 80 8d bd a5 64 95 3d ef f1 b2 bd 74 87 77 be
       -0.069091916 0.07294587 -0.087375514 -0.24172765
000260 1a 51 4e 3d d5 af b5 3d c1 4d 40 3e 4d 3f 60 be
       0.050370313 0.08871428 0.18779661 -0.21899147
000270 bf 2c 0c bd 3d 23 98 bd c6 1b a7 bd 1e c4 27 3c
       -0.03422236 -0.07428596 -0.08159594 0.010239629
000280 6d 3a 17 3e f9 20 d5 bc 23 1c 28 3e fd fd 89 bc
       0.14768381 -0.0260167 0.16416983 -0.016844744
000290 e5 f1 d8 bd cb 10 49 bd 42 e4 5a 3d 8b 5e b3 3d
       -0.10593013 -0.04908828 0.05344034 0.08758267
0002a0 fa d3 ab bd 13 19 a7 bc 82 f7 29 be d0 9d 36 be
       -0.08390041 -0.020397699 -0.16598323 -0.17833638
0002b0 4d e2 80 bd f3 ae 0a 3e 09 30 d3 ba f0 25 dd 3d
       -0.062931634 0.135433 -0.0016112338 0.10798252
0002c0 4d 19 51 be 1a 50 d6 3c e1 a7 41 be 6f 99 63 bd
       -0.20419808 0.026161242 -0.18911697 -0.055566248
0002d0 37 0f 2d 3e 8f 25 f0 bc b4 8e 24 be 56 d8 4d be
       0.16900335 -0.029314784 -0.16070062 -0.20102057
0002e0 4d 77 a0 bd de 0d 9c bd 7e 18 51 be e3 ec e0 3d
       -0.07835255 -0.076198325 -0.204195 0.109826826
0002f0 ca f3 11 bb 42 5d f1 bb 1a 0c 2e 3e 13 c1 68 be
       -0.0022270554 -0.0073658535 0.16996804 -0.22729902
000300 5e 55 39 3d 71 f1 30 3e d8 2e 81 3d 38 a4 bb 3d
       0.045247428 0.17279603 0.06307763 0.091621816
000310 32 cc a8 bd 00 9d 58 be 73 4e 27 3e 16 fd 61 be
       -0.08242072 -0.21153641 0.1633852 -0.22069201
000320 02 e8 ba bd 7d bb 55 3e 9b 09 f5 bd 1d 49 31 bd
       -0.09126283 0.20872302 -0.11964723 -0.043282617
000330 c5 7b 28 be b2 85 5f 3c c5 3c ad bd 6a d3 40 3d
       -0.16453464 0.013642715 -0.084588565 0.04707662
000340 f8 4c 3b 3e 92 e8 3c be 6f c0 e7 3d 77 2b df bd
       0.1829108 -0.18448094 0.11316001 -0.10896962
000350 19 23 56 be e3 9f 9b 3d f6 df 15 be c7 71 0e 3e
       -0.20911826 0.07598855 -0.14636216 0.1391059
000360 ce c0 6c bd 7a c5 f3 bd 22 90 40 be 65 50 57 3d
       -0.05780106 -0.119029 -0.18804982 0.052566905
000370 a9 80 7b be 8c 8f d1 3d 95 d8 1c 3d 2e 38 3e be
       -0.24560799 0.102324575 0.038292486 -0.18576118
000380 7f e5 b5 3d 64 99 3d be 3f 79 44 3b 5e 32 87 bd
       0.088816635 -0.18515545 0.0029979495 -0.06601404
000390 8a 00 e9 3d ea fd 45 be 56 1d 58 bd 48 0a a8 bd
       0.11377056 -0.19335142 -0.052762352 -0.08205086
0003a0 f4 74 67 bd e1 41 9a bc f3 1f 13 be df 35 37 bb
       -0.05650802 -0.018830242 -0.14367656 -0.0027955694
0003b0 0b 9f 5a bb 72 c4 e5 bd 5c f9 3b 3d 2d 94 16 3e
       -0.0033358957 -0.112191096 0.045892105 0.14704962
0003c0 4b 21 c8 3d 86 d6 88 3d 08 ba b5 bd 20 c3 0d be
       0.09771975 0.06681542 -0.08873373 -0.13843966
0003d0 4d ec e5 3d 3d 0b f2 3c 25 2b 52 3c b6 c9 ee 3d
       0.112267114 0.029546374 0.012827669 0.11659567
0003e0 74 00 ba bd 16 a3 6e be ee ef 3c be c5 4f 3f be
       -0.09082118 -0.233044 -0.18450901 -0.18682773
0003f0 d4 5b 09 3e 4d 6d c2 3d bb cb d5 bd c1 60 b4 bd
       0.13413936 0.09493504 -0.10439249 -0.08807517

fc2.weight f4 [300, 400]
000000 e7 1d 3c bd 2a 8a fa 3c ca 4e 24 bd c2 ba b0 3c
       -0.045926955 0.03058346 -0.0401142 0.021573428
000010 65 3f 09 bc 20 a9 b4 3c cb be 5b 3d 85 2e ab bc
       -0.008376931 0.022053301 0.05364875 -0.020896206
000020 d8 26 41 bc 85 29 21 bd 23 13 da bc ee 77 89 3a
       -0.011789046 -0.039346237 -0.026620453 0.0010488012
000030 8d 27 9e bc 37 6f 58 bd 65 01 d4 bc be f5 6d bd
       -0.019305969 -0.052840438 -0.025879571 -0.058095686
000040 94 52 5a bc 56 c4 67 3d 2d a0 c1 bc 7e f2 fd bb
       -0.013325352 0.056583725 -0.023635948 -0.0077498546
000050 cd cc 5c 3d 95 f7 28 bd 38 84 c1 bc 02 cc 51 3d
       0.05390625 -0.041251738 -0.023622617 0.051219948
000060 e3 bc 28 bc 8a 44 45 bd e9 b7 bb bc 05 6b 8d bc
       -0.01029894 -0.048161067 -0.022914844 -0.017262945
000070 98 7c a9 3c 8a 98 6f bc 84 2f 00 3d c3 c9 6a 3d
       0.020689294 -0.0146237705 0.031295314 0.05732132
000080 1d e8 02 3d 00 74 fc 3b 34 de 05 3b 66 05 40 3d
       0.03195964 0.007704258 0.0020426633 0.04688015
000090 bd 0d 1c 3b 6e ec 98 3c 4f 07 c5 3b 78 2b 1b bc
       0.00238119 0.018667426 0.006012834 -0.009470813
0000a0 2f cf 3d 3d 92 35 38 bd c9 e6 3f 3a 51 29 01 bd
       0.046340164 -0.044972964 0.00073204614 -0.031533543
0000b0 92 72 38 bc a8 9f 8b 3b be d0 5e bd a5 f7 68 3b
       -0.011257784 0.004260976 -0.05439829 0.0035547998
0000c0 87 80 0f bd bb 82 a2 bc 2a 24 50 bb 86 fd de 3c
       -0.035034683 -0.019837728 -0.0031759837 0.027220499
0000d0 07 85 43 bd ab d2 51 bd a3 2f 5c bd 22 21 c9 bc
       -0.047734287 -0.0512263 -0.053756367 -0.024551932
0000e0 2b 53 18 3d 41 5f 4e 3d 10 f9 a3 3c 1f 8b 03 bd
       0.03718869 0.05038381 0.020016223 -0.032115098
0000f0 2b 22 4f bd 79 57 01 3d 0a ad 7b 3c eb 27 05 bd
       -0.050569694 0.03157756 0.01536108 -0.032508772
000100 31 f0 24 3c bd b0 3b 3d 83 35 10 bd 1a 5f 08 3c
       0.010067032 0.045822848 -0.035207283 0.008323455
000110 f5 34 57 3d 3a 52 61 3d 94 b1 00 3d 2b 25 68 3d
       0.052540738 0.055010058 0.03141935 0.05667607
000120 71 80 1f bd 9a 08 ce 3c 6a 73 8a bc 07 59 00 bd
       -0.03894085 0.025150586 -0.016900737 -0.031334903
000130 c5 d1 5a bd 04 42 40 3d d5 b0 08 3d 36 64 19 3d
       -0.053422708 0.046937957 0.033371765 0.037449084
000140 b3 0f 48 bd e0 35 df 3b c4 10 95 3c 5d 1b 1f 3d
       -0.048843097 0.0068118423 0.018196471 0.038844455
000150 e2 7b b9 ba 2f a4 6b 3c 5a 16 d7 bc e8 a6 37 bd
       -0.00141513 0.014382406 -0.026255775 -0.04483691
000160 98 24 9c 3c ee e8 ba 3b 99 ab 6a bd da 28 60 bd
       0.019060418 0.005704037 -0.057292555 -0.05472646
000170 fc 2c 1f 3d bd fa bf 3c 6d ad 62 bc 81 8d 86 3c
       0.03886126 0.023434991 -0.013835293 0.016424896
000180 a0 d6 55 3d d2 ec 2c 3c 00 bd 8c ba 05 15 a9 3b
       0.052206635 0.010554509 -0.0010737479 0.0051599764
000190 81 0a 85 3b 52 3d 5c bd bf fb 64 3d 06 77 f7 3c
       0.00406009 -0.053769417 0.055904146 0.030208122
0001a0 d7 7b bb bc 39 fc 2b 3c 23 d7 52 3d 1f 55 60 3c
       -0.0228862 0.010497146 0.0514747 0.013692169
0001b0 f4 61 26 3d 9a 81 31 3d eb 57 54 3d d4 b7 5a 3d
       0.04062076 0.04333649 0.051841658 0.05339797
0001c0 86 90 81 3c 1c c6 57 bd cd 56 55 3b 80 74 e1 bc
       0.015815984 -0.052679166 0.0032552958 -0.027521372
0001d0 4d 78 20 bd a8 8e 20 3d fc 5b 6f bc 98 60 23 3d
       -0.039177228 0.039198548 -0.014609333 0.03988704
0001e0 ce 71 ef bc 2d 78 1c bc 3c 82 69 bd 61 fa 62 3d
       -0.029229071 -0.0095501365 -0.057008967 0.05541456
0001f0 43 10 64 3d 8f bd 35 bc 39 ea fd 3c fd a5 13 bd
       0.05567957 -0.011092558 0.030995475 -0.03604697
000200 d5 fd 15 3d 8f 8c 8e bc 40 38 60 bd 4f 8c 13 3c
       0.036619026 -0.017401008 -0.054741144 0.00900562
000210 8f ca ec ba 5a e0 3e bd 0f 18 25 3d 7d cc 27 bd
       -0.0018065738 -0.046600677 0.040306147 -0.0409665
000220 94 2d 41 bd af 0f 33 3c 3a 7d 42 3c b7 87 27 3c
       -0.047162607 0.010929032 0.011870677 0.010225228
000230 b7 41 85 bc c7 46 d8 3b e5 be 19 bb 29 4a 32 3d
       -0.016266687 0.006600234 -0.002345973 0.043527756
000240 f0 fc 67 3d ab 97 18 bd 23 7a 35 3c 40 04 2e 3c
       0.056637704 -0.037254017 0.011076483 0.0106211305
000250 99 f7 c3 bc cb cf 0f bd 90 29 49 3d d7 42 21 3d
       -0.023921775 -0.035110276 0.049111903 0.039370384
000260 06 8d a6 3c 07 30 82 3c 57 18 68 bd 1f aa 4a 3d
       0.020330917 0.015892042 -0.056663837 0.049478646
000270 44 45 36 bd 4f 21 21 bd a8 19 4f 3d de 2a fe bc
       -0.04449965 -0.039338406 0.050561577 -0.0310263
000280 06 d4 bf 3c c9 31 7f ba 3d f1 50 3d 8c fe b7 bc
       0.02341653 -0.00097348966 0.051011313 -0.022460245
000290 f1 cf 9b bc 90 df 3b bd 39 b4 99 3c a5 fe cc 3c
       -0.019020053 -0.045867503 0.018762695 0.025023768
0002a0 52 b0 36 bd 63 c8 45 bc c4 21 64 3d 90 0c 84 3b
       -0.044601746 -0.012071702 0.055696264 0.004029818
0002b0 5c a3 88 3c 46 4e 44 bb 47 e8 d2 b9 2a 85 e1 3c
       0.016679458 -0.0029953881 -0.0004022738 0.027529318
0002c0 7b 67 5f 3d 4f e1 4b 3d c3 41 75 bc f1 47 be 3c
       0.054542046 0.049775418 -0.014969292 0.023227664
0002d0 94 a4 19 bb 91 76 17 3d f4 20 2d bd b5 aa fe bc
       -0.0023444043 0.036978308 -0.042267755 -0.031087259
0002e0 b2 64 a8 bb d1 da 12 3d 2b b9 0b bd 13 fd 42 3d
       -0.005138957 0.03585321 -0.034112137 0.04760463
0002f0 1a dd 0c 3c 7d 1c c3 bc 76 ce 23 3d e9 20 b6 bc
       0.008597637 -0.023817295 0.03999182 -0.02223249
000300 3b 4f b1 3c 07 66 b4 bc 1a 9d ac 3c 60 c4 50 3a
       0.021644225 -0.022021307 0.021071006 0.00079638325
000310 bb de 0c 3c 79 c0 65 bd 25 e5 40 3d 44 43 64 3d
       0.008598025 -0.05609176 0.04709353 0.055728212
000320 56 39 31 3d 3c 18 29 bd 8d 4e f6 3c 22 46 f2 bc
       0.04326757 -0.041282877 0.030066753 -0.029574458
000330 3f 67 0c 3d b6 e9 ca 3c 13 86 75 3b f0 e4 4e bd
       0.03427815 0.024769645 0.0037463948 -0.0505113
000340 81 98 f6 bc 42 3a 36 bd 2e 9f 41 3d 8f ab 42 3d
       -0.030102016 -0.044489153 0.047270946 0.047526892
000350 11 13 34 bd 8d 8c b8 3c c1 2d 63 3b d9 58 37 bd
       -0.043963496 0.022527957 0.0034664723 -0.044762466
000360 74 a7 3a 3d 2e 2b 2f 3d 09 a3 41 3d 5a df c0 3c
       0.045569852 0.04276579 0.047274623 0.023544002
000370 5b 76 90 3b 9e cf 65 bc 84 d9 4a bd 30 39 1f bd
       0.0044086403 -0.014026551 -0.049523845 -0.038872898
000380 f3 e4 ed 3a 6e bf b3 bb 99 e0 46 3c 9c 5c 5b 3c
       0.0018149897 -0.0054854667 0.012138509 0.013388779
000390 76 fc 59 bd a9 03 4a bd 8b 75 90 3c 82 e5 78 bc
       -0.05321928 -0.049319897 0.017634174 -0.015191438
0003a0 ac 67 2c 3d e9 b3 52 bc f9 83 00 bd a1 69 58 bc
       0.042091057 -0.012860277 -0.03137586 -0.013208778
0003b0 4d 73 63 bc 8e 5f 20 bc d4 f7 6b bd 41 ce ce bc
       -0.01388247 -0.009788407 -0.057609394 -0.025244834
0003c0 82 bf 46 bd 4f c8 2a bd 7c ca a7 bc bb ae ca 3b
       -0.04852248 -0.041694935 -0.020482294 0.0061853803
0003d0 c4 fe 9c 3c 9d 98 ff bc 52 90 34 3d d2 e2 82 bc
       0.01916445 -0.031200701 0.044082947 -0.015977297
0003e0 2b bb 2f 3d 64 dc 58 3d 25 52 d2 bc 8e 5a ce bc
       0.042903107 0.052944556 -0.025673935 -0.025189664
0003f0 d7 d4 86 bc ce e8 6f bc 50 44 6b 3d 3f 3d 23 3d
       -0.016458912 -0.014642907 0.057438195 0.03985333

fc2.bias f4 [300]
000000 19 f7 8e 3b 07 e6 0a 3d ac 8e c1 3c 4e 05 3f bb
       0.0043629524 0.033910777 0.023627602 -0.002914745
000010 43 e9 89 bd 05 4e 4a 3d 56 23 d2 bb ec a8 09 bd
       -0.06733944 0.04939081 -0.006412904 -0.033608362
000020 dc 7c 0b 3a c0 c1 d1 bd e2 93 9d bc 57 29 ad bd
       0.00053210347 -0.10242033 -0.019235555 -0.084551506
000030 5b 7b 50 bd ef 7c cf bb 7a ce 43 bc 6c 37 48 bd
       -0.05089889 -0.006332032 -0.011951083 -0.04888098
000040 ab 68 46 bd b6 b4 bc 3c 3e 2b f4 bd 28 e2 44 bc
       -0.048439663 0.023035388 -0.1192231 -0.0120168105
000050 b6 c9 7d bd 00 df ae bd 5f 7f 5e bc 01 c9 c1 bc
       -0.061959945 -0.085386276 -0.013580172 -0.023655416
000060 d7 f0 b7 3c f9 92 e6 bb df ed fd bc 2e 9b 0c be
       0.022453709 -0.0070365635 -0.030997215 -0.13731071
000070 d4 de 42 3c 24 be 47 bd 6a c7 91 bb 22 a4 ea bd
       0.011893947 -0.048765317 -0.004448821 -0.11457087
000080 dd 30 a0 bd ab 6e fc bc 2f f6 fb 3c a6 0b 1f 3b
       -0.0782182 -0.03081449 0.030757038 0.0024268418
000090 28 10 a6 bd 1d 72 28 3a 82 75 e8 bd 17 2e 9e bc
       -0.0810855 0.00064256956 -0.11350538 -0.019309087
0000a0 9a 6f 66 bd b2 3c 1e bd 35 5c 9a bd ec 86 dc bd
       -0.056258775 -0.038632102 -0.07537118 -0.10767922
0000b0 05 d7 22 bd 36 78 33 bd 88 80 d3 bc df 30 fa bd
       -0.03975584 -0.043815814 -0.025818124 -0.12216353
0000c0 d2 12 62 bd e2 7b 38 bd d7 0d 85 bd e0 30 59 bd
       -0.05519373 -0.04504002 -0.0649678 -0.053025126
0000d0 56 e1 86 bd 86 17 94 bd 3a ec 8d bd 5f 2e 7d bc
       -0.06585948 -0.07231049 -0.06929822 -0.01545295
0000e0 e3 df 60 bc a1 6a b1 3c c2 53 04 3d 39 54 55 bd
       -0.013725254 0.02165729 0.03230644 -0.052082274
0000f0 74 8d d9 3b 88 5f c4 bd ad de 75 bd 94 ad 0a bd
       0.006639177 -0.09588534 -0.060026813 -0.033856943
000100 c3 85 2f bd 02 8b 0d bd 6c 54 28 bd ff df ad bd
       -0.042852174 -0.034556396 -0.041096136 -0.084899895
000110 b5 5c f5 bc be b5 1f 3d 4d ce 18 3d 90 84 8b bd
       -0.029951433 0.038991682 0.03730612 -0.06812394
000120 ab ab 8f bd 6b 5d d8 bc a5 5c 06 bd 49 5e 0e 3c
       -0.07015165 -0.026411733 -0.032803196 0.0086894715
000130 e7 df fc bd ad c0 2f bc 07 b3 07 bd 9b 48 2c bd
       -0.123473935 -0.01072709 -0.03312972 -0.04206143
000140 28 b7 31 bc 2d 76 04 be 7d fb 07 be ac f3 d4 bd
       -0.0108468905 -0.12935705 -0.13279529 -0.10398039
000150 69 58 1d bd ec 17 3b bd 85 67 ec bc c7 da ba bd
       -0.038414393 -0.04567711 -0.028857956 -0.0912376
000160 14 69 ae bd fb 16 92 bc fe a5 64 bd c6 0b 8c bb
       -0.08516136 -0.017833224 -0.055822365 -0.0042738644
000170 6f 92 16 bd f0 a0 03 be fa 0d 97 bb b3 f0 46 bd
       -0.036760744 -0.12854362 -0.0046098204 -0.048569392
000180 01 d8 87 3c 79 28 2a bc 2b a9 cc bb a9 e4 f2 3a
       0.01658249 -0.010385626 -0.0062457523 0.0018531281
000190 34 a5 e5 bd 98 c2 e7 bd 41 06 03 be ca 20 c5 bd
       -0.112131506 -0.11316413 -0.12795354 -0.09625395
0001a0 ab 54 89 bd d1 47 68 3c 47 56 1e be 98 d1 b6 bc
       -0.06705602 0.014177279 -0.154626 -0.022316739
0001b0 b3 87 ec ba 91 a2 2e bd 0e 7e 81 bb aa a3 c4 bc
       -0.0018045813 -0.042635504 -0.0039517945 -0.024003822
0001c0 d6 6a 93 3c 01 5c 42 bd 77 04 87 bd bb 2a a1 bd
       0.01799528 -0.047451023 -0.065926485 -0.07869478
0001d0 b3 5f c6 3b 37 54 2e bd c6 27 dc bc 77 6b 8e bd
       0.0060538887 -0.042560782 -0.026874434 -0.06954091
0001e0 5c 9b 0b 3c 45 c0 71 bd c0 68 d7 bd a9 b0 b6 bc
       0.008520927 -0.059021253 -0.10518026 -0.022301035
0001f0 f0 99 00 bd 9a ec 99 bd 7e 47 a6 bd 6b 24 47 bd
       -0.031396806 -0.07515831 -0.08119105 -0.048618715
000200 79 ef 04 bd da 8d 3c 3d 88 51 56 3d 21 b1 b1 bc
       -0.03245494 0.046033718 0.052323848 -0.021690907
000210 74 b7 af bd 2c 9d 8e bd e0 49 d9 bc ab 77 1c 3d
       -0.08579913 -0.06963572 -0.026524484 0.03820006
000220 2e f8 a0 bb ca b8 18 be 2e 81 b2 3c ba 49 8b bd
       -0.004912398 -0.14914241 0.021790113 -0.068011716
000230 82 7e 80 bd f9 10 90 bd 2a 76 31 bd 50 07 6e 3c
       -0.062741295 -0.07034487 -0.04332558 0.014528111
000240 b5 f4 0c be 98 87 3d 3d 3b 23 f7 bd 76 f8 2d bc
       -0.13765223 0.04627189 -0.120672666 -0.01061832
000250 e7 d2 5b bd a2 2e 93 bd 33 f7 03 3d 97 1c 1a bd
       -0.05366793 -0.07186629 0.03221817 -0.03762492
000260 7e 4d f7 bd 3d 67 34 bd 1a 12 d5 bb 63 59 3f bd
       -0.12075327 -0.04404377 -0.006502402 -0.046716105
000270 31 69 47 bd 69 de 62 bd 94 40 8c bd e6 09 be 3d
       -0.048684303 -0.055387888 -0.06848255 0.09279232
000280 67 90 56 bd b6 5d f8 3b 2a 2a ad bd 0c da 3e bd
       -0.052383807 0.0075795306 -0.08455308 -0.046594664
000290 ca 46 04 bd 49 b1 f7 bc 31 3f 5f 3b 62 fb 63 bd
       -0.032294072 -0.030235903 0.0034064765 -0.05565966
0002a0 a0 54 07 bd 57 e6 41 bc f3 ee 90 bc 1e 36 b5 bd
       -0.03303969 -0.011834702 -0.017692065 -0.08848213
0002b0 30 62 1f bd 71 75 25 3d fd 05 de bc 16 d5 2c bd
       -0.038912 0.040395204 -0.027102465 -0.042195402
0002c0 63 98 49 3d a8 74 2d bc 43 82 ce bc 7d f9 c9 bd
       0.049217593 -0.010586895 -0.025208598 -0.09862039
0002d0 d2 65 1c 3d 12 93 c7 3d 18 82 14 bd de 58 1e 3c
       0.03818304 0.09744848 -0.03625688 0.009664742
0002e0 e2 64 48 3c a1 5b 83 bc e2 25 95 bd 70 2f ec bd
       0.012231084 -0.016034903 -0.07282616 -0.115324855
0002f0 88 ae 23 bd 14 07 4d bd 16 c1 e5 3c 95 dc 09 bd
       -0.039961368 -0.05005558 0.028046172 -0.03365763
000300 df 75 9d 3c f0 d6 40 bd f3 5b e7 bb c5 49 5c bd
       0.019221244 -0.04707998 -0.0070605217 -0.05378129
000310 68 e7 8c bd bc 0e e5 3b 1f 2e a2 bc 6b 7a 04 bd
       -0.06880075 0.006990282 -0.019797383 -0.03234331
000320 7f 6f 96 bc 40 e1 0e 3d 9d 9a 40 bc 42 3f 17 3d
       -0.018363712 0.034882784 -0.011755613 0.03692556
000330 09 a4 34 bd 04 bc f1 bc 3c 5a f2 bb 48 5c 76 bd
       -0.04410175 -0.029508598 -0.0073960107 -0.0601466
000340 9f 93 01 bd aa 85 f6 bb 1a 27 cf bd 75 86 1d 3c
       -0.031634923 -0.007523258 -0.1011488 0.009614577
000350 78 e7 da bd 9a 8f a4 bd fe 22 a3 3d 68 1b 5b 3d
       -0.106886804 -0.08035202 0.079656586 0.053492934
000360 70 d4 0f be c5 10 82 3c ba fc 92 bd da 06 b4 bd
       -0.14045882 0.015877137 -0.0717711 -0.08790369
000370 22 54 38 bc a1 a6 81 bd be 7a 2f bc 06 f9 67 3c
       -0.011250528 -0.0633061 -0.010710416 0.014158493
000380 36 1f 25 bd e6 94 b6 bd 4c f3 78 bd fa 64 dd bc
       -0.04031297 -0.08915119 -0.0607789 -0.027025688
000390 ab 3c 9f ba 72 d7 74 3b a5 f8 a6 ba 89 4f 04 be
       -0.0012148818 0.003735986 -0.0012738897 -0.12920965
0003a0 45 b9 21 bd 05 62 8c bd 0c 11 83 3d 81 77 a0 3d
       -0.039483327 -0.06854633 0.06399736 0.078352936
0003b0 dd 8c ee bd a1 3d 98 bd 05 f5 90 3c 4a 13 d2 bc
       -0.11647961 -0.0743363 0.01769496 -0.025643963
0003c0 bf 9c 12 be 54 fd cd bc b8 f0 a3 3d 64 3a a1 bd
       -0.14317606 -0.02514521 0.08004898 -0.07872465
0003d0 c3 8b ec 3b 68 97 80 bd 20 a6 9b 3b d6 5e ef bd
       0.0072188093 -0.062788785 0.0047500283 -0.116880104
0003e0 ff 9a 8f bd a2 6d df bd 39 6a b6 bd 8f df 90 bc
       -0.07011985 -0.10909583 -0.08906979 -0.017684726
0003f0 74 11 a4 3b 9c 41 ca ba ac 01 e8 bd 83 f8 5f 3b
       0.0050069634 -0.001543093 -0.11328444 0.0034175224

fc3.weight f4 [2, 300]
000000 97 1a 80 ba d3 11 e0 3a b5 bd 4d bb 92 c6 ad 3a
       -0.0009773549 0.0017095156 -0.0031393592 0.0013258031
000010 da a6 92 3b 2c f5 b8 3a 1a 56 cc b9 7d f3 8d bb
       0.0044754567 0.0014111153 -0.00038974063 -0.0043320046
000020 2b b0 db ba c7 16 28 3a a0 83 9a 3b bf db d1 3b
       -0.0016760876 0.00064120855 0.004715398 0.0064043696
000030 3f eb 1f 3a fa 5f 7a bb fb 5d 4a 3a 2a 3c a1 b9
       0.0006100423 -0.003820418 0.00077196927 -0.0003075314
000040 d9 20 42 ba cb af 36 3b dd db e2 bb 6d a3 ee 3a
       -0.00074054074 0.0027875777 -0.0069231824 0.0018206664
000050 33 d0 9e 3b 5d 32 d2 b9 d8 0b f5 ba 3b 1a a6 3a
       0.0048465966 -0.00040091845 -0.0018695546 0.0012672612
000060 c6 43 63 3b a7 85 e0 b8 ef 42 4a bb 95 73 16 bb
       0.0034677847 -0.00010706047 -0.003086265 -0.0022957076
000070 b9 54 ee b9 ba cd 47 3b 4e b6 33 3b e0 ac 00 bb
       -0.0004545802 0.0030487613 0.0027421894 -0.0019634292
000080 b1 52 0a bb 22 b9 85 39 0a df c0 3a 0e 9f 84 3a
       -0.0021106417 0.00025505672 0.0014714908 0.0010118203
000090 ff 21 e4 ba 54 e4 c1 39 f1 07 17 bb 26 66 18 bb
       -0.0017405151 0.00036981946 -0.0023045505 -0.0023254245
0000a0 01 a9 a7 3b 39 8a dc 3a f2 97 e6 bb f4 13 c4 ba
       0.0051165824 0.0016825862 -0.0070371563 -0.001495956
0000b0 af 99 6f bb 21 73 fc b8 89 9c 3d bb d4 3f 61 3a
       -0.0036560108 -0.00012037741 -0.0028932414 0.000859258
0000c0 61 d4 96 ba bb 55 b0 bb b5 7e 03 bc f3 4a 93 3b
       -0.0011507386 -0.0053813136 -0.008025815 0.0044950186
0000d0 e8 58 5a ba 43 23 75 bb 90 10 8d 3a 2f 8e 38 bb
       -0.0008329288 -0.003740505 0.0010762382 -0.002816092
0000e0 9c a3 dc 3a b3 c6 96 bb 44 db f7 3a 59 3b b7 ba
       0.0016833427 -0.0046013235 0.0018909951 -0.0013979479
0000f0 d5 b3 e7 3a c1 f2 0a ba 4f a5 80 ba d4 da 9f bb
       0.0017677495 -0.00053004554 -0.0009814891 -0.0048783813
000100 e6 35 d4 37 54 e9 17 3b 83 c5 b7 3b 5f c8 64 ba
       2.5297468e-05 0.0023179846 0.005608262 -0.00087273674
000110 65 ac e4 bb 92 30 67 bb 50 f9 74 3b ab 25 10 3b
       -0.006978559 -0.0035276753 0.0037380047 0.0021995108
000120 b3 b1 6c ba d4 6b 0d bb f1 1e f7 39 16 6e 84 bb
       -0.0009029165 -0.0021579163 0.00047134564 -0.0040414436
000130 29 fd f3 3a f3 e0 22 bb e2 46 d1 3a 59 31 7b bb
       0.0018614876 -0.0024853318 0.0015966559 -0.0038328974
000140 cd 5f 1c bb 0f 86 00 3b af 0a cb 3b 45 2e d3 3a
       -0.0023860813 0.0019611155 0.006196342 0.0016111812
000150 4e c9 9c 3a 6d 9f 0c ba 98 aa 16 ba f9 47 63 bb
       0.0011961849 -0.00053643325 -0.00057474663 -0.003468035
000160 22 8e da 3b bd 07 d9 ba 92 92 af bb 8c 8e 40 bb
       0.0066697756 -0.0016558092 -0.0053580487 -0.002938184
000170 32 94 29 ba 6e f0 9e bb 7e 94 c8 3b 4b 16 28 ba
       -0.0006468921 -0.004850439 0.0061212173 -0.00064120133
000180 2b 6a 59 ba 42 32 be 3a 2b e6 de ba a6 6c a6 bb
       -0.00082937133 0.0014510828 -0.0017005851 -0.00507887
000190 62 1a c5 ba ea 8e 34 3b 0b 98 82 3b d0 0c 24 3b
       -0.001503777 0.0027551004 0.00398541 0.002503205
0001a0 73 70 97 bb 5f dd b3 ba 3d e3 2b 3b 46 b7 da 39
       -0.0046215593 -0.001372259 0.0026227974 0.0004171675
0001b0 c6 db e6 b9 3d bf ab ba 36 b0 1e bb 26 d0 6c b9
       -0.00044032763 -0.0013103258 -0.0024213917 -0.00022584255
0001c0 00 be ce b9 98 95 26 3b 48 9a ed 3a 40 ca 99 39
       -0.00039432943 0.0025418755 0.0018127644 0.00029333122
0001d0 13 4e d1 3b 74 c4 98 3a 4b bb ee ba c0 02 c6 bb
       0.006387481 0.0011655227 -0.0018213777 -0.0060428083
0001e0 f7 03 13 bb 3b 50 3a 3b bf 50 13 bb 3b ea b3 3b
       -0.0022432783 0.0028429169 -0.0022478548 0.005490569
0001f0 cd a3 aa 3b a4 b2 cd 39 16 b4 d2 3a 52 5f 80 ba
       0.005207515 0.00039233745 0.0016075398 -0.0009794033
000200 29 b0 af ba 5b e4 8b bb ae df ae bb fb 99 0b 3a
       -0.001340394 -0.0042691655 -0.0053367233 0.0005325374
000210 fb aa b6 ba 70 7b 2d 3b 58 da f6 ba 62 de 42 bb
       -0.0013936454 0.002647128 -0.0018833382 -0.0029734601
000220 82 a3 dc 3a 69 b4 9d b9 72 e5 9c 38 92 cd 89 bb
       0.0016833397 -0.0003007979 7.481397e-05 -0.004205414
000230 d2 12 b8 3b c3 f9 20 3b 7e 36 ae bb 88 72 87 3b
       0.005617478 0.0024562932 -0.0053165546 0.0041335262
000240 20 48 94 3a 10 f4 0f 3b c6 7c 99 3b 7f 3c 83 bb
       0.0011312999 0.002196554 0.0046840636 -0.0040050144
000250 10 67 24 3b b2 e0 4a 3a 96 ab 8a bb 5e fb 6f ba
       0.0025085844 0.00077391707 -0.0042318804 -0.0009154583
000260 5f ac 1f 3a f7 80 95 ba 19 56 58 ba fe d3 34 3a
       0.0006091054 -0.0011406232 -0.00082525756 0.00068980444
000270 b8 fd 57 bb a5 61 43 3b 50 bd 79 bb 99 6f fe 3a
       -0.0032957625 0.002981284 -0.0038107224 0.0019411921
000280 2a 9a a3 3a cb 7f 03 bb f4 15 0b 3a 34 24 0b bb
       0.0012481858 -0.0020065184 0.00053057005 -0.0021231296
000290 89 79 d2 3a 13 f8 d4 ba b1 fa 8c ba 3d 29 8b ba
       0.0016057949 -0.0016248248 -0.0010755864 -0.0010617148
0002a0 43 91 29 3b 45 e4 e5 ba 55 ee 42 3a ec c5 24 ba
       0.0025873936 -0.0017539343 0.0007436027 -0.0006285596
0002b0 de 15 18 bb c9 2f c2 39 b1 e1 82 3a 8f bc 66 38
       -0.0023206393 0.00037038166 0.0009985474 5.5011882e-05
0002c0 c0 b0 e6 ba 64 82 13 ba 08 cb 24 3b 7a 87 0c 3b
       -0.0017600283 -0.00056270347 0.002514543 0.0021443055
0002d0 ca 33 96 ba 22 42 2a bb 94 ef 20 bb 6d 61 34 bb
       -0.0011459526 -0.002597936 -0.0024556862 -0.002752389
0002e0 cb 26 80 3a 6d b4 bc b9 77 84 aa 3a 24 e6 82 3a
       0.0009777186 -0.00035992582 0.0013009448 0.00099868
0002f0 13 f3 8f 39 f3 0c 28 bb 05 9f a5 3b d2 69 73 3b
       0.0002745619 -0.0025642484 0.005054357 0.0037141931
000300 97 d2 8c ba 20 af fe b8 1a c2 51 3a 9c 15 11 3b
       -0.0010743913 -0.000121442834 0.00080016407 0.0022138124
000310 15 be 42 3a de b4 38 bb 94 66 16 bb 5a 78 0a 3b
       0.0007428837 -0.0028183977 -0.0022949325 0.0021128864
000320 f1 ab df ba 5a 80 03 bb 29 26 06 3b b1 f7 8e bb
       -0.0017064792 -0.0020065517 0.0020469523 -0.004363023
000330 5b 1a 81 3a 66 23 e0 ba bf db f9 38 78 2e 7a 3b
       0.0009849773 -0.0017100393 0.00011914176 0.003817467
000340 6e c2 ae b8 34 67 0e bb 59 8c 9e bb ce 63 83 bb
       -8.333182e-05 -0.0021728994 -0.004838508 -0.0040097004
000350 aa f6 21 3b ee fa 85 bb 6e 90 17 ba 1a 3a 61 bb
       0.0024713674 -0.004088751 -0.00057817146 -0.0034366907
000360 45 42 83 3b 2f ab ec 3a 7d 4f 0b bb d7 61 35 ba
       0.0040057027 0.0018056388 -0.0021257096 -0.00069191813
000370 76 75 18 bb 2e 0a 02 3a ee 2d 2a 3b 0e 4c c2 bb
       -0.0023263372 0.00049606233 0.0025967318 -0.0059294766
000380 b8 2a 60 bb a0 2c 2f 39 85 1b 1c bb fd 0b 85 bb
       -0.003420515 0.00016705925 -0.0023820114 -0.004060267
000390 94 9a e3 3a 32 a9 7c 39 1b 0f 67 ba ac b7 76 ba
       0.0017364793 0.00024095623 -0.00088142016 -0.00094115245
0003a0 1d 00 ef 39 9c 96 95 ba ba 63 f4 3a 3a c4 8f 3a
       0.00045585717 -0.0011412683 0.0018645443 0.0010968514
0003b0 7e 4c 00 3a c5 e5 0e bb 98 18 c0 3a 95 eb 03 3b
       0.0004894211 -0.0021804434 0.0014655767 0.0020129432
0003c0 39 c7 35 ba ee 11 75 ba 6e 7b c9 3a 48 7d ae 3a
       -0.00069342885 -0.000934868 0.0015371868 0.0013312483
0003d0 65 61 0f bc bf f1 94 3a 8c 74 02 3a 75 f5 16 3c
       -0.008751248 0.001136355 0.0004976473 0.009213795
0003e0 e9 ca 76 bb 04 66 22 bb ae d9 6d bb 0c 84 30 3a
       -0.0037657565 -0.0024780044 -0.0036293077 0.00067335437
0003f0 5b d3 ad b8 49 19 13 bb ab 5d 6f ba 02 0d 84 bb
       -8.288651e-05 -0.002244549 -0.0009131084 -0.004029871

fc3.bias f4 [2]
000000 4b 53 a4 3c 6b 1a 7f 3e
       0.020059248 0.24912421

bn1.weight f4 [400]
000000 8e 56 f8 3e 9f ce e6 3e 92 47 e7 3e 06 49 25 3e
       0.48503536 0.45079514 0.4517179 0.16141137
000010 92 3e 55 3e 2e 42 00 3e 44 b5 36 3e 8a ff 29 3f
       0.2082465 0.12525246 0.17842585 0.66405547
000020 7c cf fa 3e 3b 1b 00 3f 48 fd 15 3f 0f b7 da 3e
       0.48986423 0.5004155 0.585896 0.42717788
000030 cf d2 34 3f 41 51 0c 3f ba a4 23 3f 66 3c 12 3f
       0.7063417 0.54811484 0.6392323 0.5712341
000040 6a 7a 5e 3c 59 02 33 3e 6b ba 5f 3f e4 7f 35 3f
       0.0135789905 0.17481364 0.87393826 0.7089827
000050 a9 26 55 3f c4 64 cb 3e 41 27 da 3e ed e0 1f 3e
       0.83262116 0.39725316 0.42608073 0.15613146
000060 5d 18 4f 3f 60 b3 eb 3e 24 73 f3 3e 61 22 92 3e
       0.8089655 0.4603529 0.47548783 0.28541854
000070 4a bc 37 3f 1c d7 42 3f 5b 03 21 3f 08 84 3b 3f
       0.7177168 0.7610948 0.62895745 0.7324834
000080 0e f8 0c 3f 10 cd 2c 3f f9 96 98 3d 74 39 71 3f
       0.55066 0.675004 0.07450671 0.9422829
000090 d7 78 14 3f fb 71 33 3c 27 37 e1 3e c0 ad 45 3f
       0.57996887 0.010952468 0.4398739 0.77218246
0000a0 d4 c0 07 3f cb 5e 5b 3f d7 e7 c0 3e 1a 3f 19 3f
       0.5302861 0.8569152 0.3767688 0.5986191
0000b0 3d b6 f9 3e 37 45 1c 3f 05 7b 51 3f 83 b5 b8 3e
       0.4877185 0.61043113 0.8182834 0.36075982
0000c0 7f 75 21 3f 3f 0b d6 3d 4a 75 dc 3d 0e 45 29 3f
       0.6306991 0.10451364 0.107645586 0.66120994
0000d0 db 19 39 3f 44 0a 5d 3e 56 ba c3 3e 29 6e 3e 3f
       0.7230508 0.21585947 0.382281 0.7438684
0000e0 5f 12 72 3f 42 41 3d 3f 26 1a 74 3f b2 c3 f4 3c
       0.9455928 0.739277 0.953524 0.029878471
0000f0 ac 08 40 3f 82 a2 ba 3e a6 0a 5f 3e 97 fd 4e 3e
       0.7501323 0.3645211 0.21781406 0.20213924
000100 76 fc 08 3f e8 5f 78 3f a4 56 e7 3e 9a c8 03 3f
       0.53510225 0.9702134 0.4518329 0.5147797
000110 98 18 2e 3f 7c 06 5b 3c d7 20 52 3f 4c 7c 00 3e
       0.6800628 0.013368245 0.8208136 0.12547415
000120 0e 82 08 3f 2f a6 07 3f df 15 19 3e a8 5f ce 3e
       0.5332345 0.5298795 0.1494975 0.40307355
000130 17 42 65 3d 9d b2 0a 3e 5f 56 37 3e b8 6e ca 3e
       0.05597123 0.13544698 0.17904042 0.39537597
000140 da 30 20 3f d4 cb 43 3f 8d ac 20 3e 27 95 a9 3e
       0.6257454 0.7648289 0.15690823 0.33121607
000150 b4 29 57 3f 3d d6 53 3f f6 a0 1e 3f a9 8e 13 3f
       0.8404801 0.82748777 0.61964357 0.5763956
000160 70 b4 f0 3e 15 e8 81 3c 64 bc 4b 3f 34 a5 7e 3f
       0.47012663 0.015857736 0.79584336 0.9947083
000170 78 77 56 3f b5 d3 16 3f d0 ac 76 3f ba d1 62 3f
       0.83776045 0.5891679 0.9635744 0.8860127
000180 fd 0c 01 3f 24 01 5f 3f 44 df 31 3f 26 8c 02 3e
       0.50410444 0.87111115 0.694813 0.12748775
000190 aa 25 32 3f 33 c6 3c 3f e1 34 84 3e 59 29 1e 3f
       0.6958872 0.7373993 0.25821593 0.6178184
0001a0 e4 45 65 3e dd 14 22 3f de d9 07 3e 47 7c 37 3f
       0.22389942 0.63313085 0.13266703 0.7167401
0001b0 ef 77 44 3f e8 c2 df 3d e5 af 1b 3e 22 7e 9d 3e
       0.76745504 0.10925847 0.15203817 0.30760294
0001c0 25 a5 66 3f c1 ee c7 3e df 56 99 3e b9 2b 0b 3f
       0.9009574 0.39049342 0.2994909 0.5436359
0001d0 1a 88 31 3f 9d 67 26 3f 52 58 b0 3d 89 ad 97 3e
       0.693483 0.6500185 0.08610596 0.29624584
0001e0 5c f6 6c 3f 89 a5 fa 3e a7 63 8f 3e 65 65 35 3f
       0.92563415 0.48954418 0.28005716 0.7085784
0001f0 c6 42 6e 3f 08 e0 89 3e ec 61 49 3e 35 d5 f5 3d
       0.9307064 0.26928735 0.1966626 0.12003557
000200 77 99 ed 3e ad 68 db 3e af b0 35 3f d0 98 43 3f
       0.46406147 0.428533 0.7097272 0.7640505
000210 52 17 4d 3f 69 af 66 3e f9 63 4e 3e e8 a5 36 3f
       0.8011371 0.22527851 0.20155324 0.713469
000220 d3 d5 21 3f 77 59 6d 3f 9d 0d 78 3e 8c ad 77 3f
       0.63216895 0.9271464 0.24223943 0.96749187
000230 d4 f1 4a 3f 7c 28 3a 3f cd 72 a2 3e 9b a0 68 3e
       0.7927525 0.72718024 0.3172821 0.22717516
000240 87 9b fe 3e 46 68 3c 3f 35 78 ae 3e d0 ce 36 3e
       0.49728033 0.7359661 0.34076086 0.1785233
000250 40 bd 3b 3e ae 4e 4c 3f 7f 5f 2a 3f 79 5b 44 3f
       0.18333912 0.79807556 0.66551965 0.76702076
000260 4d a2 69 3f 1f 8c d4 3d 49 12 9f 3d 1d 08 76 3f
       0.91263276 0.103782885 0.077671595 0.9610613
000270 79 01 95 3e 14 c3 66 3f f6 b5 10 3f 5a 94 53 3f
       0.29102686 0.90141416 0.5652765 0.8264824
000280 a8 66 62 3f f6 9d a4 3e 55 55 e1 3e 44 68 69 3f
       0.8843789 0.32151765 0.44010416 0.9117472
000290 4a 82 a9 3e 42 be 39 3e 31 8f 30 3f ef e2 4d 3f
       0.33107215 0.18138984 0.6896849 0.804244
0002a0 a0 96 39 3e 93 3c 45 3f 5e 77 32 3f 74 c2 74 3f
       0.18123865 0.77045554 0.6971339 0.9560921
0002b0 13 4f 19 3f 2e a0 02 3e 2e ec 52 3e 1f 40 d5 3e
       0.5988628 0.12756416 0.20597908 0.41650483
0002c0 2f 70 1d 3d c3 9d 61 3f ac 7a af 3d 11 7b 2d 3b
       0.038437065 0.8813135 0.0856832 0.0026471058
0002d0 2e 33 22 bc 00 77 28 3e 88 22 c6 3e 34 1a 7d 3f
       -0.0098998975 0.16451645 0.3869822 0.9886811
0002e0 f0 db 1f 3f e6 5f 58 3f 3a dc 3e 3f 36 88 09 3f
       0.62444973 0.8452133 0.7455479 0.53723466
0002f0 66 51 ef 3e de 6f 37 3f b0 a9 11 3f 80 4f 40 3f
       0.4674179 0.7165507 0.5689955 0.7512131
000300 1e 82 68 3f e4 77 0a 3f e9 79 45 3f 28 15 6c 3f
       0.90823543 0.5408919 0.77139145 0.9221978
000310 d1 58 bb 3e c6 d6 80 3e 37 ef 39 3f f1 8d 00 3f
       0.365912 0.2516386 0.7263064 0.50216585
000320 cd cf 16 3e 70 00 49 3f 71 3f 10 3f 20 b8 a7 3e
       0.14727707 0.7851629 0.56346804 0.32757664
000330 d6 26 40 3f 60 ec 28 3e 6c b0 fa 3e 95 d0 f7 3e
       0.7505926 0.1649642 0.48962724 0.48401323
000340 a6 32 32 3f 07 b8 28 3f f9 22 e6 3e a4 c2 72 3e
       0.69608533 0.65905803 0.44948557 0.23707062
000350 3b 8f 48 3f be 2e c1 3e f6 fe f6 3e da 97 b4 3e
       0.7834355 0.37730974 0.48241395 0.35272104
000360 52 88 ab 3e 90 d1 05 3f 08 a0 4f 3f d7 50 53 3f
       0.33502442 0.5227289 0.81103563 0.82545227
000370 40 e5 29 3f 98 9a 15 3d 72 c9 08 3f be 65 00 3f
       0.6636543 0.036524385 0.5343238 0.50155246
000380 05 c1 06 3e 21 f3 ef 3e 0e 06 60 3e a6 18 71 3d
       0.13159569 0.4686518 0.2187731 0.058861397
000390 14 0c 30 3d a0 f7 1f 3e a5 86 2e 3e 2d b8 1d 3e
       0.04298027 0.15621805 0.1704355 0.15402289
0003a0 0a 70 0a 3f f3 e6 79 3f e7 3f 2c 3f cc 94 0a 3f
       0.5407721 0.97618026 0.6728501 0.54133296
0003b0 e9 ed c9 3d bf 5b 84 3e ec 46 24 3e b1 97 40 3f
       0.09859831 0.25851247 0.1604268 0.7523146
0003c0 0c f1 6f 3f f3 b7 24 3e 0c 04 b7 3e 0b d9 42 3f
       0.93727183 0.16085796 0.35745275 0.7611243
0003d0 d2 09 1d 3f 18 0a 07 3d ac 95 12 3e 8e 2e 69 3e
       0.6134311 0.03296861 0.14314908 0.22771665
0003e0 2c c1 b4 3e 61 d0 2e 3f 23 85 3d 3f d3 c0 a9 3d
       0.35303628 0.6828671 0.74031276 0.082887314
0003f0 d5 16 2e 3f 3f fa 70 3f bf e4 4a 3e b6 ac 1b 3f
       0.6800359 0.94131845 0.19813822 0.6081041

bn1.bias f4 [400]
000000 c4 ca e7 bd 8f 5d af bd b0 4d a6 bd 32 25 3a 3d
       -0.11317971 -0.08562767 -0.081202865 0.04544563
000010 6b 92 66 bd 30 08 2f 3b 13 07 ec 3d 57 c1 6b 3d
       -0.05629198 0.002670776 0.11524787 0.05755743
000020 d0 05 72 bd c3 bc f5 bc 02 fe 49 3c 65 a2 0e 3b
       -0.059087574 -0.029997235 0.012328627 0.0021764275
000030 f0 5d 11 bd 5c 6e d8 bc 4c c5 a3 bb 05 a3 2d 3c
       -0.035489976 -0.026419811 -0.004997885 0.010597949
000040 22 47 03 3e 2c 80 00 bd d4 69 35 bc 43 69 69 bc
       0.12820104 -0.031372234 -0.011072595 -0.014246288
000050 1a 89 25 3c a5 53 8a 3d 27 23 f2 bc f3 43 22 3c
       0.010103488 0.06754235 -0.029557778 0.009903896
000060 3e 09 00 3d a7 4b 09 be c6 a5 4c bd 72 f6 83 3c
       0.031258814 -0.13407765 -0.04996278 0.016108725
000070 2d 28 1c 3d b0 38 a6 bd 62 48 1e 3d 55 29 e6 3c
       0.038124252 -0.08116281 0.03864325 0.02809588
000080 ff 51 0c 3d de aa 1c bd fd 39 e2 3d 10 ab e5 3d
       0.034257885 -0.03824889 0.11046217 0.11214268
000090 6a 7f 24 bd 8b 08 e3 3d 88 5b cd bd 9e de b2 bd
       -0.040160574 0.11085614 -0.10027224 -0.08733867
0000a0 98 b3 ac bc c1 ed 4f 3d af c5 cf bb 81 38 53 bd
       -0.02108173 0.05076385 -0.0063407044 -0.05156756
0000b0 dd 16 78 bd 55 a6 ba bd 57 b2 a4 3d 05 36 33 3d
       -0.06056868 -0.091137566 0.08041828 0.04375269
0000c0 77 6b 33 3d a3 86 01 be f0 e0 a4 bd 4b cf 3a 3d
       0.04380366 -0.12649016 -0.08050716 0.045607846
0000d0 5c 34 a6 bd f2 95 80 3d 84 39 03 3e 62 fd cd bb
       -0.081154555 0.062786 0.12814909 -0.006286309
0000e0 33 29 92 bd d0 1a b3 3c 48 20 67 bd ee 35 23 bb
       -0.071367644 0.021863371 -0.05642727 -0.002490397
0000f0 59 36 1f 3c 36 ce 2d 3d b0 4a b4 3b 95 5c e8 bd
       0.009717547 0.042432986 0.0055020675 -0.113457836
000100 08 6a fe 3d 24 a2 5a bd 74 63 15 3d 51 ae 12 bd
       0.124225676 -0.053377286 0.0364718 -0.035810772
000110 39 0b 16 bd 8c c4 94 bc bc f7 2e 3d 86 5b 10 be
       -0.036631797 -0.018160127 0.042716727 -0.14097413
000120 11 ef ed 3c 51 66 14 bd 03 7c e5 39 39 59 c7 bc
       0.02904466 -0.03623039 0.0004377068 -0.024334537
000130 97 a0 01 be fa 0c ef 3d 53 e3 0c 3e 45 15 2e bd
       -0.12658916 0.11672397 0.13758592 -0.042500753
000140 d0 10 c0 3d 56 18 b8 bd 15 1f e8 3a a2 f8 1d be
       0.09378207 -0.08989017 0.0017709458 -0.15426877
000150 b6 3b 06 3c 66 53 e2 bc 64 77 aa bc 88 b1 85 3d
       0.008192947 -0.027627658 -0.020808883 0.06528002
000160 3c 50 0e bd 41 57 d4 bd be 5c d3 bd 2b 31 27 bd
       -0.034744486 -0.10368205 -0.103204235 -0.040818375
000170 6c b1 b0 bd 00 3d 14 ba 16 0f 82 bd be ca c3 3c
       -0.086275905 -0.00056548417 -0.06350534 0.023900386
000180 e4 cd 1c bd 7d 3f 2d 3d 3f 6c b9 bd 4a 0a 2f 3e
       -0.03828229 0.042296875 -0.090538494 0.17093769
000190 d6 58 5c 3d fc 15 4e bd a0 c8 a7 3d 6d c9 b3 3d
       0.053795658 -0.050313935 0.08192563 0.08778653
0001a0 d1 51 98 3c 1b 78 e1 3c ea a3 14 3e 00 4d ef 3b
       0.0185937 0.027523091 0.14515653 0.0073028803
0001b0 48 50 c5 bc a0 b2 7c bd 83 a5 70 3d e2 96 39 3c
       -0.024086133 -0.061693788 0.058751594 0.011327477
0001c0 18 96 94 3d 3b 13 b0 3d 39 97 18 3c a6 60 a1 3d
       0.072551906 0.08597418 0.009313398 0.07879762
0001d0 3b ed 03 3d 6b cf 8c bc 26 4b fa 3d 4e 2d 83 bd
       0.032208662 -0.017188748 0.12221365 -0.064051256
0001e0 b3 ce 85 bc e1 3a f8 3c 74 90 14 3d 51 9f 81 3c
       -0.016333913 0.030301513 0.036270574 0.015823038
0001f0 30 40 36 bd 2b ab a1 bd 54 10 45 3d dd 39 97 bd
       -0.044494808 -0.07893976 0.048111275 -0.073840834
000200 36 0f 7b bd 01 e9 b2 3d 32 a9 f8 bc 36 75 a6 bb
       -0.061293803 0.08735848 -0.030354116 -0.0050798906
000210 fe 62 f5 3c d8 9f d9 3d 8e 5a 72 3d 11 cd 90 3d
       0.02995443 0.10626191 0.05916839 0.07070363
000220 f2 22 4c bd 92 ca 83 3d 94 2b 81 bd 78 e1 b7 bd
       -0.049838014 0.064351216 -0.0630714 -0.089785516
000230 4a f1 01 3d be 04 35 bc be ab 0c 3d 50 1a cb bc
       0.03172425 -0.011048494 0.034343474 -0.02479282
000240 b5 9b 0e bd b8 35 3d 3b da c3 bb bb 5a e2 9c 3d
       -0.034816463 0.002887113 -0.0057301344 0.07660361
000250 bf f7 21 3d ba 29 15 bd 36 ec 9f bd 3d 70 8a 3d
       0.03954291 -0.036416747 -0.078087255 0.06759689
000260 f3 e4 18 bd 40 04 a9 bc c1 d3 55 bd a8 75 2d be
       -0.037327718 -0.02063191 -0.052203897 -0.16939414
000270 bc ce 93 bd c9 4b d8 bc eb 2b ad bd a1 37 82 3a
       -0.07217166 -0.026403325 -0.08455642 0.0009934792
000280 1a 25 0a bd 08 50 b3 3c 84 3f 9f 3d 61 8c ae bd
       -0.03372679 0.021888748 0.077757865 -0.08522869
000290 e2 66 90 3d 31 f3 4b bd 33 c9 f0 3d 2d ff 8d 3c
       0.07050873 -0.049792472 0.11757126 0.017333591
0002a0 48 d4 ea 3c 23 fd fb 3c b5 36 f2 3c d2 db ba bd
       0.028665677 0.030760353 0.029567102 -0.09123959
0002b0 42 a8 b5 bc 69 0a 1c be 77 fa ef 3c a1 3a be bd
       -0.022174958 -0.15238346 0.029294236 -0.09288526
0002c0 a7 05 4d be 7d cf 7e bd c0 3c 1f 3e db 9f ed 3d
       -0.20021687 -0.062209595 0.15550518 0.11602756
0002d0 0b 9b 15 3e f8 36 a0 bc 81 67 20 bd 8e 5e 0f be
       0.14609925 -0.019557461 -0.03916121 -0.14000914
0002e0 68 2e ac 3c 1e 08 2f bd 39 62 36 3e 0e 02 79 3d
       0.021018222 -0.04273235 0.17810906 0.060792975
0002f0 48 08 82 bd 89 5f 72 bd cf fd 2c bd ef 4e 97 3c
       -0.06349236 -0.05917314 -0.04223424 0.018470256
000300 b7 e2 19 bc 40 9e 34 3d 5a a9 42 3a b9 ec f3 bc
       -0.009392432 0.04409623 0.0007425748 -0.029775964
000310 d4 7a 15 3e 97 96 ed bc f9 3e 31 3d 14 fe 5b bc
       0.14597636 -0.02900247 0.043272946 -0.013427276
000320 a7 e3 90 bb bd 89 79 3c a5 87 a0 bc 92 e1 10 3e
       -0.0044216695 0.015230593 -0.01959593 0.14148548
000330 05 d0 dd bc c8 55 9d bd 26 0f b4 bc 0f a9 e3 bc
       -0.02707673 -0.07682377 -0.02197988 -0.027790574
000340 55 4f 4f bb e0 df db 3d e1 e4 c4 bd bc 3e b1 3d
       -0.003163298 0.1073606 -0.09613968 0.08654544
000350 91 21 aa 3d 60 6a 2d 3d eb f8 ea bd df df 12 bd
       0.083071835 0.042337775 -0.114732586 -0.03585803
000360 b9 c3 68 bc 4f c5 1f bd 56 60 c4 3d 6d 05 d4 bc
       -0.01420682 -0.039006528 0.09588687 -0.025881493
000370 dc 27 09 bb f9 d2 47 3d 65 f9 93 3c f4 86 52 bd
       -0.00209283 0.048785184 0.018063257 -0.051398233
000380 f2 6c 11 3e 0b ef 52 bd b0 12 fe 3c c1 b8 16 3e
       0.14201716 -0.0514975 0.03101477 0.14718916
000390 76 91 94 bd 4d b6 12 3e 90 a7 c6 bc df 5f 39 bd
       -0.07254307 0.14327355 -0.024249822 -0.045257445
0003a0 1a 49 ef bd 42 ae 82 3b 72 90 39 bd 11 af a3 3d
       -0.11683865 0.0039880583 -0.04530377 0.07992376
0003b0 55 f8 f1 bc 56 8e 42 bd a5 26 22 bd 80 78 9c bc
       -0.02953736 -0.047499023 -0.039587636 -0.019100428
0003c0 70 1a b7 3d 70 49 69 bd 7f e0 04 3c 00 85 fb bb
       0.089405894 -0.0569548 0.008110165 -0.007675767
0003d0 7c cf 20 bc 9b 14 d2 3d 94 91 51 3c 4a 51 1e bc
       -0.009815093 0.102578364 0.012791056 -0.0096629355
0003e0 a4 2a 2e 3e 67 68 41 bd 7e c0 89 bc 1f 6d 2b be
       0.17008454 -0.047218706 -0.01681542 -0.16740845
0003f0 fe 86 23 be e2 45 9b bc 44 44 24 bd e6 6b 1e bd
       -0.15969464 -0.018954221 -0.040104166 -0.03867712
