collaboration_competition/outputs/exp_5/critic_1000.pth (torch_old, 545385 bytes, 21 tensors)

fcs1.weight f4 [400, 24]
00000000: 4577 c680 045c 0f01 8919 1800 157f 9580
00000010: f383 c280 c610 9900 c178 2400 ab36 9980
00000020: c2ec b280 7b85 a881 d876 c300 e32a cd00
00000030: d5bb c200 23ff d180 9d46 cd00 e32a cd00
00000040: f48d 9180 18cc 1f81 bea9 3281 fb47 0e00
00000050: 8ddb 7000 fd87 bf80 2f64 2e81 fb47 0e00
00000060: 8513 f080 034c 7f01 e574 4600 c6c8 3081
00000070: 7e3c 0981 583b 6e00 98c8 4800 b10c 2381
00000080: 9a8b ed00 4097 e400 0102 2600 db1c 6101
00000090: 5ee3 1381 3c78 9500 edd0 1b00 0375 6501
000000a0: bdbf 8400 b615 2500 7f30 f500 e8bf 2a01
000000b0: 0e7d 2981 751b 7e00 f7bb df00 e8bf 2a01
000000c0: 9955 b481 a2bf d500 7a9d 4601 080e 4480
000000d0: 87ec 1700 9285 2600 c52d ac01 d0d8 d080
000000e0: 48f7 9f81 0ec5 b900 1878 7901 60e3 0c00
000000f0: 6c23 a680 2a3d 8981 06b0 6d01 9c9a 2e01
00000100: 9914 8b81 a31a 6d81 632d 3101 c446 5b81
00000110: dc58 4c81 87c4 3901 de28 4201 a884 2a00
00000120: ca55 7c01 9a14 7a80 149d 6a81 e161 0480
00000130: f09e 5a00 584f 4080 5fcb d680 27e8 8380
00000140: 714e 0981 3efc e580 d35f 8601 0c63 b801
00000150: 5be0 0481 3d8d ea80 14bc 3381 ce3e 0e81
00000160: 0c12 a900 d6e9 6b80 3986 5a01 169f 0a01
00000170: 8a53 3581 a4e5 0a81 1cc8 4281 f341 f680
00000180: baf9 3401 6e5e 1281 8661 8581 8259 3900
00000190: 14f3 4481 ee08 9100 1d97 3381 8ee1 6400
000001a0: 410e 4001 0a00 ce00 a875 5780 b6ff c100
000001b0: 7278 2881 984b 3a80 2f98 b180 80f6 fe00
000001c0: 42c8 f400 810e 5581 24f0 4080 a618 eb00
000001d0: 24a3 4b81 666b 0981 ec44 2b00 34cc c700
000001e0: 10e6 1681 e1ea 7580 a079 4d01 b260 3d80
000001f0: ca8b 3200 bb23 0781 9691 c300 6649 6880
00000200: eab8 0700 7603 7280 3051 ed80 b9e5 2d81
00000210: 7630 2180 f017 5600 a578 3080 ad34 4880
00000220: cc6e 7080 dda4 6d80 426e 7301 7aba 3181
00000230: 5a09 8680 e4ff a880 80a4 5401 5fc4 1201
00000240: 8b1b f780 bc35 8e01 2811 a381 7d2e b901
00000250: 3740 3700 dcc2 ad81 526f 9f81 aacd 5201
00000260: d4da 6780 c8f0 7101 7b4f 3201 e436 9600
00000270: 8fa9 7681 5a45 9781 dad7 1200 652d 8b01
00000280: b0f8 4b00 7ef8 0e01 0477 4101 9c6c 6400
00000290: b8ea 2c81 15bd 3f81 80da 1701 90ee bf80
000002a0: c61d 2581 08ea 4d00 18ca 0481 ecd1 5b01
000002b0: 00fd 5900 03e9 b901 9ca0 0b81 a84d 4901
000002c0: dd1f b181 5142 b280 53b3 b881 44b5 5880
000002d0: ef82 8a81 426c 5201 3471 9e81 4635 0081
000002e0: 2730 8481 4494 2681 05c3 ae81 b6c4 9580
000002f0: 45ce e280 be4e e000 9767 b581 02e7 6d81
00000300: 2947 1480 a482 9b80 4034 3580 9e63 9180
00000310: 60f6 1200 1241 ba80 333a 2581 bc67 1680
00000320: 4244 0981 acbf 5300 ab78 a901 edd5 0581
00000330: 370c 0b00 fa4a 8181 a45d 8401 8d7e ff80
00000340: 26d4 0781 5ebf 5901 de9e 4500 8856 ab00
00000350: 5987 2e01 74e4 d380 d0e3 5380 e190 4601
00000360: 108c a201 6705 7d01 bb91 4080 6d58 9381
00000370: 602f 0401 06a3 0401 4f94 4380 f9e8 b481
00000380: f698 7501 239b 2701 af78 1881 1430 7d81
00000390: 1527 be01 70c6 8a01 9ed8 2681 289f 9581
000003a0: c8e4 0901 08db 6c01 6e77 4801 18dd 6a81
000003b0: 1636 be80 5b4f 9401 59a1 6401 592c 4481
000003c0: 98d1 aa00 3392 4600 f869 9101 5726 8501
000003d0: a167 a281 9f19 0b00 0450 8601 5e34 4d01
000003e0: a1a1 3d80 10f2 7780 5c3e f100 7e77 ad81
000003f0: 03aa 6600 99d8 af01 05db c700 0698 b781
-1.8226214e-38 2.633097e-38 2.213212e-39 -1.3729077e-38 -1.7863421e-38 1.4056848e-38 3.349396e-39 -1.4070442e-38
-1.6431651e-38 -6.190499e-38 1.7950555e-38 1.8841662e-38 1.7883468e-38 -1.9285145e-38 1.8851608e-38 1.8841662e-38
-1.336707e-38 -2.9350118e-38 -3.281522e-38 1.311519e-39 1.0364336e-38 -1.7589363e-38 -3.203063e-38 1.311519e-39
-2.2047521e-38 4.689064e-38 6.470419e-39 -3.2470143e-38 -2.5206327e-38 1.0123193e-38 6.684115e-39 -2.9947477e-38
2.1815092e-38 2.0992751e-38 3.490468e-39 4.1346676e-38 -2.7162764e-38 1.3726621e-38 2.554507e-39 4.214461e-38
1.2191068e-38 3.405702e-39 2.2517094e-38 3.1361755e-38 -3.113012e-38 1.1581122e-38 2.0546745e-38 3.1361755e-38
-6.6244384e-38 1.9629706e-38 3.647984e-38 -6.249847e-39 2.197066e-39 3.537665e-39 6.32485e-38 -1.9179561e-38
-5.8762207e-38 1.7060257e-38 4.582024e-38 1.183593e-39 -1.52574e-38 -5.041362e-38 4.3656316e-38 3.206968e-38
-5.109009e-38 -4.3549136e-38 3.254233e-38 -4.027472e-38 -3.7532636e-38 3.4120135e-38 3.5661493e-38 3.904679e-39
4.634664e-38 -1.1211321e-38 -4.309171e-38 -4.02454e-40 8.32221e-39 -5.905935e-39 -1.9725752e-38 -1.211373e-38
-2.5219205e-38 -2.1120816e-38 4.9361327e-38 6.773305e-38 -2.4405538e-38 -2.1540173e-38 -3.3012047e-38 -2.612634e-38
1.5526673e-38 -9.910283e-39 4.0136576e-38 2.5460736e-38 -3.3304386e-38 -2.5511356e-38 -3.5775744e-38 -2.261519e-38
3.323995e-38 -2.6883715e-38 -4.8996423e-38 5.266733e-39 -3.6173914e-38 1.331935e-38 -3.2985526e-38 9.264463e-39
3.5275057e-38 1.8918126e-38 -8.031895e-39 1.7815983e-38 -3.0943142e-38 -5.353577e-39 -1.6309476e-38 2.3414644e-38
2.24797e-38 -3.9132327e-38 -5.963618e-39 2.1590184e-38 -3.740226e-38 -2.523998e-38 3.973651e-39 1.8348518e-38
-2.771571e-38 -1.0829012e-38 3.7739815e-38 -5.636653e-39 4.641922e-39 -2.482122e-38 1.7960148e-38 -9.577222e-39
7.09183e-40 -1.0470488e-38 -2.1794137e-38 -3.19399e-38 -3.047956e-39 7.90644e-39 -4.451383e-39 -6.631052e-39
-1.0325322e-38 -1.0069211e-38 4.4711157e-38 -3.2643556e-38 -1.2309311e-38 -1.552016e-38 3.9056273e-38 2.6956854e-38
-2.2693248e-38 5.2239667e-38 -5.990136e-38 6.8024975e-38 5.073988e-39 -6.3829773e-38 -5.856711e-38 3.8718465e-38
-9.537557e-39 4.443746e-38 3.275046e-38 1.3795015e-38 -4.5304716e-38 -5.5568154e-38 1.730472e-39 5.1125674e-38
6.976874e-39 2.6259565e-38 3.553389e-38 9.222511e-39 -3.1759813e-38 -3.521682e-38 2.7891086e-38 -1.762616e-38
-3.0327075e-38 7.155288e-39 -2.4389566e-38 4.037456e-38 8.264118e-39 6.829262e-38 -2.56455e-38 3.6973585e-38
-6.5065253e-38 -1.6370508e-38 -6.7848243e-38 -8.14655e-39 -5.0881074e-38 3.864858e-38 -5.820247e-38 -2.354811e-38
-4.8558237e-38 -3.059576e-38 -6.4197345e-38 -1.3754056e-38 -2.0828818e-38 2.0599399e-38 -6.6637543e-38 -4.3695765e-38
-1.862237e-39 -1.4281367e-38 -4.886025e-39 -1.3351883e-38 1.741422e-39 -1.7104745e-38 -3.034747e-38 -2.057594e-39
-2.5211899e-38 7.691105e-39 6.2253945e-38 -2.4581726e-38 1.014572e-39 -4.74947e-38 4.862351e-38 -2.346345e-38
-2.4947793e-38 3.9993905e-38 6.39364e-39 1.5734911e-38 3.205586e-38 -1.9459243e-38 -7.70407e-39 3.6470802e-38
5.971038e-38 4.6472637e-38 -5.92975e-39 -5.4126157e-38 2.427856e-38 2.4361535e-38 -6.206181e-39 -6.6455857e-38
4.5109137e-38 3.078436e-38 -2.8004577e-38 -4.6503255e-38 6.9851057e-38 5.097794e-38 -3.06448e-38 -5.4962334e-38
2.5327068e-38 4.3503501e-38 3.6819885e-38 -4.313764e-38 -1.7468147e-38 5.4480483e-38 4.1992748e-38 -3.6031332e-38
1.5687222e-38 6.480931e-39 5.3416645e-38 4.89115e-38 -5.96581e-38 1.019382e-39 4.933864e-38 3.7690125e-38
-5.659947e-39 -1.101526e-38 2.2154725e-38 -6.3721626e-38 9.42821e-39 6.459565e-38 1.8353833e-38 -6.7441726e-38

fcs1.bias f4 [400]
00000000: df64 c980 db2a 8c00 7c98 a180 34ca b001
00000010: 43c4 4301 2aef 7b01 a05b 3601 8ef4 9e01
00000020: b8db ad80 7e4f 1f81 f40c ae01 ebb5 e6b3
00000030: c57c a581 d2bc 3abc 3804 9901 6b71 6481
00000040: 47bc 1500 2cca a281 57f3 4a81 e09d 7880
00000050: 4abf 2a00 178e a401 3eba f000 28f2 5d81
00000060: 8a66 a800 f808 9f00 417d be00 c2a0 2b81
00000070: a3ce 1001 661c 7101 a8c1 8701 2234 3800
00000080: 3444 c100 59db 9880 d653 b301 aa6a 3e01
00000090: bf90 3501 f08c 4c81 fb8a d880 dc76 b600
000000a0: 73ab 9b01 4b2d 2000 4378 fd80 c4c1 6181
000000b0: 6efb 7b80 b2f1 6c01 2386 6e80 a914 dd00
000000c0: 04d0 8780 0574 9681 c8c3 6101 9da5 6480
000000d0: 06bd 1301 e747 5380 789a 1480 ff3d 8e81
000000e0: 7c1f f400 1126 4801 54dc 5881 1a67 7b80
000000f0: eafa 0481 a865 1480 8dad 4780 d811 1e01
00000100: e68f 5d01 78b4 7c01 f3cc b000 4ea9 4101
00000110: ffd2 8001 bc7d 8d81 6cd4 b181 fa32 2381
00000120: 12ea 8301 1aa6 8480 5c02 0b01 3261 1380
00000130: 169e 6680 4d15 3d81 cc68 35b7 b194 2901
00000140: 50f7 4580 6947 1681 e0ac af81 ada5 8681
00000150: a70e a180 3fe5 8281 befb 5e01 ded0 9881
00000160: ba6f f180 3a5f 5a80 180e c700 866c b301
00000170: e084 15a7 4593 1781 3b7e dc80 acdc a980
00000180: f985 cda8 3336 d880 a756 d339 3620 5b81
00000190: d1fd 1180 506a 9381 72ee 7c80 08fe 2c01
000001a0: bf5d a480 faf0 1881 d4e1 2701 a99e 9c01
000001b0: 5c33 f5bb f048 5e00 c5d7 7801 58f4 1f80
000001c0: affe 4180 8714 0e81 77d1 8601 84b2 6800
000001d0: 3e9d fb80 e440 5a00 52a3 5a00 1387 1980
000001e0: b5ba b081 140b 1001 fa85 3400 828d a801
000001f0: 4608 1681 8e0c 4980 51e7 1101 a885 1f00
00000200: c115 2700 44b1 2000 dc83 3381 ccd8 8380
00000210: 38ff 9f00 172f b080 ba71 0881 60cf 1e01
00000220: 880c 5981 6901 5c00 e8f3 0480 e951 2300
00000230: ddd6 ad81 1cb1 f180 a2dd 2101 991f 7f80
00000240: d2f7 6801 bfe1 f680 2065 f187 2d14 2d00
00000250: 7cd4 7700 516c 5880 706f 9581 e804 4481
00000260: e710 8601 be37 8980 96e8 a701 8aa1 b301
00000270: 26a1 0101 c51c 7580 8f98 9481 dce2 8e81
00000280: 94d4 6301 043e 6f81 d864 6c01 981e 0380
00000290: a873 a300 3c1e 8b00 5c67 4001 0897 f180
000002a0: 9821 5c01 e9a8 1b01 d6bd 03bb 0cd9 de00
000002b0: a89b 8f00 3914 5a01 8a3f 6381 18e8 1701
000002c0: 4845 9781 dcad 8a01 d196 4ebc 4818 0401
000002d0: 8ed6 b901 38e6 8e00 e9fd c800 31c6 7500
000002e0: 5806 6501 8a6a 9a80 1a01 da00 01af 3901
000002f0: b414 8281 e404 3700 9b5f b301 9145 5401
00000300: 58ce af01 fb8d b701 9dbc 1701 f253 6781
00000310: 484c 5901 6e10 6881 00c4 6601 ecaa 5b38
00000320: 7092 3a00 3855 7801 32af 9501 0baf a281
00000330: c0c2 d600 55ff 2801 a48d 0e80 74ce 5081
00000340: be5a 713a fb5f 8600 0e2e 6e01 d312 9e81
00000350: 2659 5d81 f76a 7b00 e80f 8981 e70a 2501
00000360: 4796 69bc b681 5381 1512 8781 aaaa 3001
00000370: 9f1c a781 fed6 fd84 3e62 7301 5e25 9580
00000380: f4eb 3b80 f38a 0600 2a7c 5781 a837 6e81
00000390: ee9f b501 9495 9181 2327 0500 addb 6700
000003a0: e43d 6200 cc0e 0d01 dadd b700 b42d 1080
000003b0: 45f1 fa80 3a82 3d80 10cb 4d01 4643 ad80
000003c0: 3a27 0d01 4702 2401 960e f000 be99 9a81
000003d0: 620a 3901 0ab8 bb01 4870 7781 1256 1501
000003e0: e3db 0481 a44d 5c81 4387 9681 a345 3981
000003f0: 1eec 7c01 5285 4501 e087 6d81 0225 0900
-1.849512e-38 1.2872343e-38 -1.4840216e-38 6.4942337e-38 3.5956654e-38 4.627301e-38 3.3493858e-38 5.839095e-38
-1.5966361e-38 -2.926072e-38 6.393609e-38 -1.07433e-07 -6.0790463e-38 -0.011397557 5.620938e-38 -4.195836e-38
1.996087e-39 -5.9799504e-38 -3.7276128e-38 -1.1076894e-38 3.925712e-39 6.0447974e-38 2.210733e-38 -4.0765028e-38
1.5465147e-38 1.4605061e-38 1.7493677e-38 -3.1523078e-38 2.6596877e-38 4.4285084e-38 4.986905e-38 5.16149e-39
1.7748717e-38 -1.4037683e-38 6.5874514e-38 3.4974016e-38 3.33483e-38 -3.757e-38 -1.9886324e-38 1.6756699e-38
5.7184025e-38 2.954984e-39 -2.3277522e-38 -4.1464993e-38 -1.1385962e-38 4.3519762e-38 -1.0150024e-38 2.0303056e-38
-1.2472414e-38 -5.526778e-38 4.146644e-38 -9.24296e-39 2.7135254e-38 -7.64814e-39 -1.892123e-39 -5.225152e-38
2.2419156e-38 3.676151e-38 -3.9831012e-38 -1.1332752e-38 -2.4424593e-38 -1.873177e-39 -6.582579e-39 2.903282e-38
4.069453e-38 4.641457e-38 1.6236569e-38 3.5569972e-38 4.732254e-38 -5.197564e-38 -6.532434e-38 -2.9974946e-38
4.8457674e-38 -1.2181872e-38 2.553196e-38 -1.779742e-39 -9.423931e-39 -3.47291e-38 -1.0812841e-05 3.1147079e-38
-6.425368e-39 -2.7601883e-38 -6.453291e-38 -4.946156e-38 -1.4790771e-38 -4.808341e-38 4.0955576e-38 -5.613569e-38
-2.2172435e-38 -8.299356e-39 1.828032e-38 6.590994e-38 -2.0749936e-15 -2.783998e-38 -2.0249092e-38 -1.5599361e-38
-2.2817673e-14 -1.985591e-38 0.00040309617 -4.0247058e-38 -1.652256e-39 -5.415182e-38 -1.147314e-38 3.177367e-38
-1.5094651e-38 -2.8090883e-38 3.083508e-38 5.7533016e-38 -0.007482929 8.658702e-39 4.5705213e-38 -2.934554e-39
-6.06067e-39 -2.6096009e-38 4.9524393e-38 9.614931e-39 -2.3107117e-38 8.288473e-39 8.323783e-39 -2.344343e-39
-6.49201e-38 2.645657e-38 4.823508e-39 6.1916507e-38 -2.7556585e-38 -6.708495e-39 2.6798255e-38 2.894847e-39
3.589388e-39 3.002327e-39 -3.2971712e-38 -1.2108222e-38 1.4693399e-38 -1.617994e-38 -2.506085e-38 2.91688e-38
-3.9865596e-38 8.449372e-39 -4.54839e-40 3.243626e-39 -6.3858477e-38 -2.219589e-38 2.9730044e-38 -1.1674443e-38
4.2789473e-38 -2.2672514e-38 -3.6321086e-34 4.139835e-39 1.1004649e-38 -8.12038e-39 -5.489386e-38 -3.6003035e-38
4.924808e-38 -1.260146e-38 6.1679856e-38 6.598601e-38 2.3809176e-38 -1.0755074e-38 -5.4585525e-38 -5.248809e-38
4.1845833e-38 -4.394186e-38 4.3418706e-38 -2.86481e-40 1.5010676e-38 1.277598e-38 3.5338987e-38 -2.2186534e-38
4.043172e-38 2.859019e-38 -0.0020102165 2.0465342e-38 1.3188315e-38 4.0054785e-38 -4.1738902e-38 2.790084e-38
-5.5568053e-38 5.094267e-38 -0.0126092 2.4261992e-38 6.826614e-38 1.3123227e-38 1.8458185e-38 1.0815851e-38
4.206521e-38 -1.4180885e-38 2.0020533e-38 3.4104693e-38 -4.7784166e-38 5.052707e-39 6.58914e-38 3.8988162e-38
6.4580936e-38 6.7427315e-38 2.7869643e-38 -4.2488227e-38 3.9911334e-38 -4.2623458e-38 4.238495e-38 5.2372852e-05
5.37899e-39 4.5611548e-38 5.498535e-38 -5.9760576e-38 1.972266e-38 3.1039918e-38 -1.336508e-39 -3.835169e-38
0.0009206942 1.2340388e-38 4.374674e-38 -5.8067045e-38 -4.065525e-38 1.1334138e-38 -5.0348676e-38 3.0313536e-38
-0.01425702 -3.8847642e-38 -4.9617114e-38 3.244854e-38 -6.138718e-38 -5.9677453e-36 4.4702536e-38 -1.3696894e-38
-5.502938e-39 6.00859e-40 -3.9578347e-38 -4.3753628e-38 6.6718387e-38 -5.347922e-38 4.73217e-40 9.537861e-39
9.022081e-39 2.5908226e-38 1.6885481e-38 -1.485763e-39 -2.3045425e-38 -5.648682e-39 3.7798244e-38 -1.5911674e-38
2.5925754e-38 3.0123677e-38 2.2045752e-38 -5.6791275e-38 3.3986583e-38 6.8957034e-38 -4.5447293e-38 2.742873e-38
-2.4402332e-38 -4.0463323e-38 -5.529539e-38 -3.4029095e-38 4.6454496e-38 3.6278838e-38 -4.362751e-38 8.39795e-40

fc2.weight f4 [300, 402]
00000000: f81c 6b80 6f5b 2181 46cd 4081 882d ed00
00000010: 87ea 1d01 d658 9801 c880 5700 8124 5c01
00000020: aea4 9d81 8fac dc00 5a1c 3001 adf7 0601
00000030: b5e5 6101 64af 3000 6c2a ca00 a88e f300
00000040: 36d0 cb80 74a4 af01 8853 7981 d245 f180
00000050: 161c 3781 c951 9a81 5400 b800 8266 0101
00000060: 2618 2d00 a277 7380 502d 4401 2783 a980
00000070: de62 1f81 d91f 8801 0daf 1a80 df23 de80
00000080: d0e6 5101 40ed 5081 139c 1401 3704 7b80
00000090: 44d7 9e01 b077 3100 c44c aa81 f273 bb00
000000a0: b8d0 b880 a763 dd00 4b36 6d80 24fa 5d80
000000b0: e83d 7c81 0f02 a981 2ff2 2a01 9d72 9b00
000000c0: 9ae5 1a01 a47e fa00 52a8 9e81 1fe6 3880
000000d0: 8c78 0a00 0425 f000 b00a 2980 a88a 6980
000000e0: 97d6 6001 a2ea 1580 37c6 0481 10ba 6001
000000f0: 1020 6d80 6755 1e01 137e 5a01 f8d4 3501
00000100: a27c 8481 4664 0d81 3416 e380 8c69 5c80
00000110: 2c57 8600 d143 3f81 9a22 7200 0e45 2300
00000120: a05e c200 6e3a 5481 a4bb 5c00 1259 8201
00000130: 409e 3d81 1ad2 3380 4440 8980 1e58 5700
00000140: 70dc ce80 74b6 1600 a82d fc00 3127 1a81
00000150: 14d1 1581 561d 3701 04a2 7e00 eb89 4c81
00000160: 3464 4981 ca0c ab00 f096 4f00 f053 0f00
00000170: 0d1b 2e81 a1bb 2501 be52 a700 724d f400
00000180: 25ab 4580 c746 cc00 48a1 a680 6809 2601
00000190: 876e 2601 5a06 0a01 cb53 4981 6ead 3a81
000001a0: dd62 0a00 04cb 4681 529f 0f81 8695 d300
000001b0: 923d c080 c84e 2300 4c97 ab80 32f9 a480
000001c0: d310 9000 c004 8981 6c9f 3880 a440 6b80
000001d0: 66f7 3b01 d416 a580 a862 2b01 9072 b100
000001e0: 544e 0780 3ec0 6b01 66a0 ae80 1a43 4280
000001f0: ec3b ba80 46bf 5c01 3c14 d400 454b 3801
00000200: d5d7 7201 6e82 5601 7a24 2501 65a1 4d01
00000210: 9b51 6581 0a5e a780 3f25 2b01 8c47 7581
00000220: 0c6d 8d81 a24d 0001 323f bd00 cef5 c400
00000230: d038 1b81 7e75 e100 0738 ac81 7e39 8e00
00000240: da9e 3300 1266 7c00 a6e5 a980 08d2 cc80
00000250: 6212 9501 3a1a 6c00 a0ba 8800 03d3 1c01
00000260: b538 4900 e06b 0401 8629 8b00 5185 5e01
00000270: 6c26 5281 433a 3a80 9858 9500 1cbb 9801
00000280: d08d 6f00 1caa 5a80 2e33 4c01 759d ce80
00000290: 9658 bf00 7ef8 7f80 3019 cb80 4853 8b01
000002a0: 2b69 8a81 5271 ac01 7410 6e80 0ce3 a100
000002b0: c617 3381 5494 3600 2ed9 4f01 88e4 1e01
000002c0: 0a6f 8c01 6890 7780 fe6e 3601 65de 4481
000002d0: 93b3 1181 8cc7 3e01 9a26 0101 14cb 2e80
000002e0: 4469 7400 b9e5 ed00 f811 0500 449c 6380
000002f0: 2ab1 ad80 4e6b 6381 c8fc b400 43d5 6100
00000300: 8eff 1080 8879 2180 50a1 e400 f00c 8c80
00000310: 78d3 1200 ce4b 5380 aed6 7780 645c 4d00
00000320: 20d5 8c01 1cc4 a001 514c 0c81 c954 fd00
00000330: 533b 3581 2a78 2d81 12f5 6400 f419 9c81
00000340: 3b33 6e81 46ed 3281 3a61 b401 9801 4001
00000350: 4ed1 d400 ed6d 7900 b4b4 7181 1644 6f01
00000360: dcab 1181 05b6 2d01 4033 4480 d2fa 5e00
00000370: 6c40 0500 bbc5 7900 e8e3 3801 94f3 0000
00000380: 19a0 0a00 3b09 b700 c8d2 e200 f8bd 9b81
00000390: 4be0 3581 7285 5981 f7bc cf80 8ce8 0b01
000003a0: 80dc fc00 4e73 be00 5735 d180 38f0 0181
000003b0: e353 4801 f409 8580 4d4a a700 84c6 9580
000003c0: d739 9781 dbbc 9701 68b7 4181 f828 6480
000003d0: 800d 2881 e19f a081 e036 da80 dc41 3501
000003e0: ecef 9a01 ff86 4981 aaee b181 00b1 9e80
000003f0: 0d3b 2501 2c8a 0b01 861a 5400 3461 1000
-9.83679e-39 -2.963663e-38 -3.5412107e-38 2.1781346e-38 2.900461e-38 5.5963455e-38 8.035886e-39 4.0433809e-38
-5.7908995e-38 2.0265712e-38 3.2346436e-38 2.4789612e-38 4.149078e-38 4.471022e-39 1.8565988e-38 2.2367201e-38
-1.8717298e-38 6.4520826e-38 -4.5794008e-38 -2.2157401e-38 -3.3631942e-38 -5.668802e-38 1.6897849e-38 2.3767104e-38
4.14126e-39 -1.0603998e-38 3.6032025e-38 -1.5567247e-38 -2.9274622e-38 5.000421e-38 -2.450519e-39 -2.0400348e-38
3.8552837e-38 -3.8373785e-38 2.7295285e-38 -1.1297278e-38 5.8348925e-38 4.542875e-39 -6.255829e-38 1.7214831e-38
-1.6972605e-38 2.0331393e-38 -1.0029546e-38 -8.630435e-39 -4.6329506e-38 -6.208375e-38 3.1397827e-38 1.4275617e-38
2.8450064e-38 2.3004304e-38 -5.828156e-38 -5.22534e-39 9.61599e-40 2.2053798e-38 -3.769089e-39 -9.692468e-39
4.1296263e-38 -2.012716e-39 -2.4386783e-38 4.1275796e-38 -1.0021571e-38 2.908129e-38 4.013073e-38 3.3397247e-38
-4.866798e-38 -2.5969553e-38 -2.0854623e-38 -8.486729e-39 1.2337228e-38 -3.5129815e-38 1.0481659e-38 3.239015e-39
1.7850031e-38 -3.8980172e-38 8.516178e-39 4.788227e-38 -3.4827356e-38 -4.75898e-39 -1.2604517e-38 8.021299e-39
-1.899719e-38 2.085833e-39 2.3158923e-38 -2.831345e-38 -2.7516984e-38 3.363284e-38 1.1629393e-38 -3.7567834e-38
-3.6989762e-38 1.5708458e-38 7.30915e-39 1.407644e-39 -3.197816e-38 3.044033e-38 1.536621e-38 2.2435643e-38
-6.398044e-39 1.8759831e-38 -1.5302549e-38 3.0496133e-38 3.0568684e-38 2.5351154e-38 -3.6977988e-38 -3.4287234e-38
9.5382e-40 -3.6512513e-38 -2.637926e-38 1.9430929e-38 -1.7654503e-38 3.242504e-39 -1.5758145e-38 -1.5150416e-38
1.3230347e-38 -5.033267e-38 -5.199978e-39 -9.849587e-39 3.4523975e-38 -1.5161046e-38 3.1478522e-38 1.629598e-38
-6.70947e-40 4.330061e-38 -1.6036916e-38 -6.085214e-39 -1.7102898e-38 4.054485e-38 1.9476384e-38 3.3849466e-38
4.4603232e-38 3.939917e-38 3.0331884e-38 3.7768348e-38 -4.2119206e-38 -1.5370263e-38 3.1434462e-38 -4.5050725e-38
-5.1951694e-38 2.3565586e-38 1.7379579e-38 1.8087935e-38 -2.8509765e-38 2.0705135e-38 -6.3263217e-38 1.3061265e-38
4.740596e-39 1.1424217e-38 -1.5602581e-38 -1.8809786e-38 5.4760334e-38 9.927642e-39 1.2556576e-38 2.8804068e-38
6.724334e-39 2.4321968e-38 1.278003e-38 4.087061e-38 -3.8598475e-38 -5.347359e-39 1.371527e-38 5.610447e-38
1.0244613e-38 -8.326218e-39 3.7505602e-38 -1.8974597e-38 1.7572358e-38 -1.175225e-38 -1.8651641e-38 5.118004e-38
-5.08441e-38 6.334543e-38 -1.0107807e-38 1.4866964e-38 -3.2894164e-38 5.012327e-39 3.8175714e-38 2.918398e-38
5.158721e-38 -1.0980227e-38 3.3507754e-38 -3.6159075e-38 -2.6761132e-38 3.5040656e-38 2.3721253e-38 -4.297284e-39
1.069068e-38 2.1847422e-38 4.65623e-40 -9.147772e-39 -1.5951095e-38 -4.1770303e-38 1.662107e-38 8.984547e-39
-1.561044e-39 -3.074169e-39 2.0996361e-38 -1.286161e-38 1.7289e-39 -7.64954e-39 -1.1005437e-38 7.104477e-39
5.17337e-38 5.905612e-38 -2.5768693e-38 2.3264796e-38 -3.3287013e-38 -3.1861295e-38 9.271464e-39 -5.734259e-38
-4.3750452e-38 -3.2863672e-38 6.626107e-38 3.5265974e-38 1.954421e-38 1.1151529e-38 -4.4394357e-38 4.3946216e-38
-2.6755597e-38 3.1905674e-38 -6.263199e-39 8.722514e-39 4.82288e-40 1.1183027e-38 3.3958977e-38 8.738e-41
9.75787e-40 1.6809207e-38 2.0830436e-38 -5.72106e-38 -3.3405372e-38 -3.9952348e-38 -1.9077736e-38 2.5697112e-38
2.3221646e-38 1.7490108e-38 -1.9212753e-38 -2.3865907e-38 3.6794384e-38 -1.2217691e-38 1.5363182e-38 -1.3754703e-38
-5.5551636e-38 5.5739634e-38 -3.558009e-38 -9.198246e-39 -3.0866412e-38 -5.900413e-38 -2.0039824e-38 3.32917e-38
5.6914937e-38 -3.7014724e-38 -6.5362e-38 -1.4573504e-38 3.034808e-38 2.56294e-38 7.723696e-39 1.504238e-39

fc2.bias f4 [300]
00000000: 835d 3d81 f568 c5ab 6bac 853b 3d78 4d89
00000010: 22eb d880 9684 abb5 5ca3 5f95 33f5 4e81
00000020: fb3e f280 cbd6 e680 967b 2b93 8a69 1b81
00000030: de73 5381 ba7e 2b81 bc2b cc3b d87b 0681
00000040: 269b 7881 7255 1081 72ea 5d81 9dc5 ce3b
00000050: 1110 011e d3cf 9e81 d2e2 9281 10f8 1081
00000060: 61a2 9581 2c03 f43b 26c2 9f81 564b 1d81
00000070: 846b 7d81 e709 6481 bcb1 2181 f8b9 3c81
00000080: b90a 2981 3ef4 2681 5696 86b2 895c 6a81
00000090: 72d7 a281 408b ef80 342e 9581 8b92 a781
000000a0: 8f34 a93b ea40 73ab 3a89 7481 0aaf 95b0
000000b0: 3728 933b c2c0 fa3b 2c4a 2581 02fd 1011
000000c0: 5617 bc80 fc86 2781 b7d5 af81 3a90 62a6
000000d0: 0815 bb81 c33e 3a3b 6682 9481 b00e a481
000000e0: 3f6c e580 dd89 953b 40dd bbb5 ecd3 8281
000000f0: 1a6d 2f81 bcef 979f be6a 9cb5 2c6e 4981
00000100: ee06 7d81 52dd 4e81 9dc9 a581 645d 8a81
00000110: f3bf 7681 56f3 8b81 76cd ce80 3e69 233b
00000120: 1841 2681 f260 4a81 82b5 3581 a649 f380
00000130: 2f9d 3aa7 0571 4b3c 1e3c 3281 4cc5 9d81
00000140: f223 9e3b 43c5 9981 1dff 9981 27f4 0b3b
00000150: e963 4e81 bc76 043c ba22 9881 09ed 2181
00000160: a589 a281 a2af 9a81 a400 d5a1 4c55 5381
00000170: 6ceb b480 d32c 9e3b 0c41 9381 660c 273b
00000180: 8224 0b81 c2c1 8381 ecea 8381 af82 b33b
00000190: 24c5 1f81 1f7a 1a3c 6cee 2281 96e9 3181
000001a0: c8dd 8c81 742b 8381 0272 5681 5078 473b
000001b0: 186a b83b fef7 9080 d71c b280 4496 a081
000001c0: 8e0f cb3a a834 7e3b e2d9 e580 503e 1caa
000001d0: aee6 19a3 9de1 b181 d0bf 7581 12f2 513b
000001e0: d33f 1e81 8ad9 e00e 5204 8481 60ee a281
000001f0: c47e f823 26d8 9e81 9ed6 9a3a 6181 38a3
00000200: dc86 0e3b 4ceb 9981 5591 8581 c3d3 e5a9
00000210: 65e0 8c81 af41 9c3b e260 993a 6890 a0b4
00000220: 558a fc2f 5f1d 8781 3041 1db6 ae04 b181
00000230: 9601 a081 58b5 6481 4e6e 1790 f644 bc80
00000240: 4a7e 8580 c837 3f81 88b4 78a9 e203 9b81
00000250: 19c5 ad81 3f60 6681 c65e 8781 041c 3981
00000260: 7e76 3681 6dec 7e81 e7a6 7f81 841e 8c3b
00000270: b538 8935 7555 9b3b 4234 4b81 ecf7 a097
00000280: 16e8 a581 8c1a 9181 5c27 8881 e4a4 4628
00000290: 8f85 ac3b 868e 9281 28a5 c780 78e0 5b81
000002a0: 88a2 8481 6bd7 8181 92f0 5981 6e8c d737
000002b0: ee8b 50b1 699e 97b5 f4c3 f190 5a6c 5981
000002c0: f2ed 033c ca49 8081 b58d 1481 befd 9f81
000002d0: 646a 8a81 fe51 1681 d8b6 fa1e cb74 063c
000002e0: d48f b83b 69a3 6581 92ac 0081 8db6 7c81
000002f0: 06a9 ca3b 0807 a681 c4f6 5c81 5289 8a81
00000300: 7edd a781 9e6b c23b 0700 9280 3242 0681
00000310: 53c7 4d9a 7021 0481 b233 b581 7c1e 2281
00000320: ba13 18aa 2825 5eba 436a c180 b303 f53a
00000330: 2fa0 7ca5 6c6e a03b 8cd3 b63b 4c65 8581
00000340: a066 1b81 c58e 7781 89da 1190 6aba 4581
00000350: a91c 303c faa2 4e81 7896 2c81 7cc5 8e81
00000360: c71c ba80 0b12 8281 b8a9 402f a031 0881
00000370: aabc 5181 28ed f980 8233 be99 ac30 8b81
00000380: 11f5 02ae 8c63 a281 fcc9 e980 2b14 b53b
00000390: 6efd de3b 22a0 1581 2fa2 7881 a55a b4a5
000003a0: b728 5b81 da67 1d81 feb8 fb16 840e b581
000003b0: 6c25 0c3b 6e04 2f81 9508 a83b c0f5 0081
000003c0: 5f8c 1681 d013 b0b1 7ccf 0a81 de24 4581
000003d0: ee7f 723b c0c3 2281 68b7 2381 6c26 7d81
000003e0: c2bf 9981 666a 1f81 5ed2 9281 01b1 1d81
000003f0: 89fe 2b81 468d 8781 97cd 2881 5c6d 9c81
-3.478091e-38 -1.4026823e-12 0.0040793917 -2.4732513e-33 -1.9920817e-38 -1.277908e-06 -4.516336e-26 -3.8012146e-38
-2.2246783e-38 -2.1199217e-38 -2.1644167e-27 -2.8544724e-38 -3.883771e-38 -3.1498662e-38 0.0062307995 -2.4700767e-38
-4.566172e-38 -2.6509927e-38 -4.0759496e-38 0.0063101784 6.8325256e-21 -5.8338247e-38 -5.39574e-38 -2.66266e-38
-5.496696e-38 0.007446667 -5.8685965e-38 -2.8890397e-38 -4.65459e-38 -4.188409e-38 -2.9698548e-38 -3.4663573e-38
-3.104809e-38 -3.066462e-38 -1.5668018e-08 -4.3045403e-38 -5.981855e-38 -2.1998637e-38 -5.4800254e-38 -6.155639e-38
0.005163736 -8.642103e-13 -4.4914177e-38 -1.0890926e-09 0.004490878 0.007652373 -3.035893e-38 1.1437561e-28
-1.7273445e-38 -3.0769902e-38 -6.4591513e-38 -7.8604965e-16 -6.872313e-38 0.0028418757 -5.4553726e-38 -6.026516e-38
-2.106916e-38 0.0045635537 -1.3996978e-06 -4.805855e-38 -3.22207e-38 -6.4347595e-20 -1.1653972e-06 -3.6996914e-38
-4.6473733e-38 -3.7995014e-38 -6.090073e-38 -5.0827203e-38 -4.532078e-38 -5.1409706e-38 -1.8991818e-38 0.0024934555
-3.0536087e-38 -3.7171095e-38 -3.3374675e-38 -2.2342446e-38 -2.5897895e-15 0.012417083 -3.273657e-38 -5.79558e-38
0.0048260624 -5.648638e-38 -5.6569393e-38 0.0021355243 -3.7907906e-38 0.008084949 -5.588581e-38 -2.9741094e-38
-5.970691e-38 -5.6822686e-38 -1.4433611e-18 -3.8815777e-38 -1.6614843e-38 0.004827121 -5.409261e-38 0.0025489568
-2.555646e-38 -4.839983e-38 -4.8458896e-38 0.005478225 -2.934513e-38 0.00942853 -2.992576e-38 -3.2677355e-38
-5.174612e-38 -4.818415e-38 -3.938739e-38 0.0030436702 0.0056278817 -1.3313274e-38 -1.6357064e-38 -5.899034e-38
0.0015492307 0.003878871 -2.110849e-38 -1.3877202e-13 -8.342995e-18 -6.534327e-38 -4.5137012e-38 0.0032035154
-2.9065808e-38 5.5429746e-30 -4.849534e-38 -5.9851453e-38 2.6941901e-17 -5.835019e-38 0.0011813228 -1.0002057e-17
0.0021747863 -5.654096e-38 -4.9065025e-38 -1.0206378e-13 -5.174987e-38 0.0047685723 0.0011701847 -2.9907392e-07
4.5936824e-10 -4.9633313e-38 -2.3432767e-06 -6.5026246e-38 -5.8776993e-38 -4.2007094e-38 -2.9864475e-29 -1.7289812e-38
-1.2259425e-38 -3.512118e-38 -5.5223648e-14 -5.694358e-38 -6.3832985e-38 -4.2313381e-38 -4.972716e-38 -3.3999234e-38
-3.3513135e-38 -4.682206e-38 -4.695585e-38 0.0042760987 1.0223799e-06 0.004740412 -3.7322705e-38 -1.0402342e-24
-6.0944454e-38 -5.330268e-38 -5.001499e-38 1.1026963e-14 0.005264945 -5.383644e-38 -1.833451e-38 -4.0384996e-38
-4.8722363e-38 -4.7696226e-38 -4.0029206e-38 2.569539e-05 -3.0347524e-09 -1.129648e-06 -9.535965e-29 -3.9934344e-38
0.008052336 -4.7125656e-38 -2.7284977e-38 -5.877148e-38 -5.0845857e-38 -2.7609475e-38 2.6545402e-20 0.008206557
0.00563238 -4.2177898e-38 -2.36337e-38 -4.6416064e-38 0.0061847 -6.098886e-38 -4.0584664e-38 -5.089024e-38
-6.1663937e-38 0.005933239 -1.3407992e-38 -2.4659406e-38 -4.255402e-23 -2.426856e-38 -6.656308e-38 -2.9776572e-38
-1.3507156e-13 -0.00084741646 -1.776237e-38 0.0018693119 -2.1911788e-16 0.004895976 0.0055794176 -4.900184e-38
-2.8542634e-38 -4.5469167e-38 -2.876456e-29 -3.631693e-38 0.010749021 -3.7953154e-38 -3.1699367e-38 -5.244594e-38
-1.7091726e-38 -4.778035e-38 1.7522594e-10 -2.501486e-38 -3.8522597e-38 -2.2952114e-38 -1.9666343e-23 -5.1130377e-38
-2.977624e-11 -5.9652244e-38 -2.1470129e-38 0.005526086 0.0068051135 -2.7481868e-38 -4.5666767e-38 -3.1286446e-16
-4.025316e-38 -2.8910856e-38 4.0667984e-25 -6.650973e-38 0.002138461 -3.2145602e-38 0.005127976 -2.3686204e-38
-2.765136e-38 -5.1245266e-09 -2.549546e-38 -3.6209636e-38 0.0037002522 -2.9895144e-38 -3.006996e-38 -4.6496327e-38
-5.647848e-38 -2.9280025e-38 -5.393379e-38 -2.896334e-38 -3.159036e-38 -4.9793885e-38 -3.100423e-38 -5.746227e-38

fc3.weight f4 [1, 300]
00000000: 12ad 3880 46f5 6480 d3a7 c83c fdd5 3f89
00000010: ad33 1701 0050 abb4 2086 3c94 e94b 8500
00000020: d56b 0400 a9e3 1800 e66d 4693 20fa 6d80
00000030: 4c22 9800 eae2 8181 207b 223d 11e7 3100
00000040: e606 1080 d599 a300 b577 1881 f308 223d
00000050: b6a0 ee9d 5925 1d00 e166 8a01 c1ca 2b00
00000060: 8ce6 8f01 e996 453d 881e 1700 c8b3 5381
00000070: 62c4 3081 9c1f 5c01 865d 3501 9102 0081
00000080: 730a 0981 6c16 3100 21bd 6bb2 8883 2500
00000090: ff37 4080 22f3 9001 982f dd80 4366 1800
000000a0: a3d5 003d d37a 1400 1176 fa80 7093 80b0
000000b0: 05ba de3c c2b8 433d ed89 0581 f073 8b90
000000c0: e2a7 4100 1499 4700 d0c4 ab80 2730 ea25
000000d0: 9e49 0381 8ff2 853c 604d 1c80 b2cf 0f80
000000e0: 54e5 1f81 35ca e13c 4594 b734 28cf 5380
000000f0: 62a8 8d81 3a40 8f9e 9e6d 3db5 0897 0580
00000100: 099e 5c80 e494 1b01 b379 1681 40c9 7881
00000110: 171c 3a00 0e19 a680 94d6 1481 d7fd 673c
00000120: 6854 7001 b8f6 4b00 e2e3 7300 7e8a 9a80
00000130: b34d 4d27 f2df 8b3d ee3e 6700 11fa 2300
00000140: ba1c f13c 35d7 5180 68b5 2881 b4bc 423c
00000150: 2c93 2701 c4f0 553d f90b 1700 8c13 1081
00000160: a0c5 7601 bac9 0881 6669 dea1 f7dc 5680
00000170: 27cf 5c00 f71b eb3c 7630 a801 a2b1 6d3c
00000180: c113 4400 0202 4a80 f00c 1001 5a08 093d
00000190: 20af bc80 5908 7d3d 9969 e100 9d10 4801
000001a0: f2e0 c980 c051 af80 ac04 2381 e6c9 903c
000001b0: 2f95 113d cdfa 5f00 b97a 2300 a5a6 3b01
000001c0: 2e39 093c 8594 1dbc 040d f780 083d 1e01
000001d0: 4c53 baa2 0621 7581 d0aa 8200 b742 993c
000001e0: 2832 8700 aa0f 810d da0c 6281 5fd2 9701
000001f0: 7f9c eda4 82bc ad81 02e1 c93b 5f0d 3da3
00000200: e5b7 463c 1f00 8d81 54f8 8401 dc47 75aa
00000210: ec66 9201 7c96 42bc e4b4 c73b 66cf ceb4
00000220: ae07 8530 6bab 3180 3f5b 0e36 3bec 1300
00000230: c6d6 ae01 1113 0081 29f8 4901 e151 0601
00000240: 7d18 8381 0a68 0381 554d d128 657c 0a00
00000250: 73d7 0100 23fc 2380 57cb 0900 a34d 8281
00000260: b638 5681 787b 0b00 5097 3001 6867 d33c
00000270: 5565 c3b5 aa2a ec3c f21e 1780 8216 7b01
00000280: 02a2 2100 0376 d900 084c 0580 526c 20a9
00000290: d3ba 043d 0bf4 8b81 c48b 2480 6ebf b481
000002a0: b545 0d80 9ecb 0900 bc47 1900 334e cc38
000002b0: e4df 4bb1 5dc5 5bb5 e369 0491 b60e 1200
000002c0: 69c6 533d 2c56 0201 0d4f d780 126f 5880
000002d0: aba1 9e80 e1b6 6000 013e e31e 268e 443d
000002e0: b914 0c3d ff66 2500 5f22 1280 5bdb 6000
000002f0: 8d62 1b3d 3d3d 4680 fbb2 2200 208a 7481
00000300: be10 6581 2855 163d 78c2 a000 bff8 9480
00000310: c121 4d9a 5817 7681 1431 5481 ed95 9800
00000320: b668 142a 5720 3aba 954f 0e80 4c34 283c
00000330: dcb0 1e24 578e 49bc 743c 0f3d 3c86 c200
00000340: 5271 4e80 f759 4e00 cf85 c58f cedd 3d80
00000350: 971e 843d f2d3 9281 5d98 b280 984b 1a81
00000360: d83f 5400 f74c 2c80 e989 afaf 12c6 d480
00000370: 5dc9 5a81 1656 1080 b8ed be99 d1e8 0280
00000380: 4f18 06ae ed17 b301 46fb 1e01 91dd 0b3d
00000390: 4b93 2b3d 9e25 7d81 f931 6580 bd61 a501
000003a0: 0f20 5480 7e37 1381 12bf 5f96 4bbc 0b00
000003b0: 1c0c 433c 3f05 6100 ccce 003d a639 f080
000003c0: 19c7 3c00 b28c 9fb1 f01e db80 f2eb 4401
000003d0: a1f0 15bc 74ae 7581 f4fb 4780 86c8 2b01
000003e0: dcd4 a481 ba43 1980 fa3e 6201 5046 0d81
000003f0: 9257 1f01 6180 b581 ae80 3580 1a83 7e81
-5.204874e-39 -9.271537e-39 0.024494087 -2.3091406e-33 2.7771395e-38 -3.190944e-07 -9.518026e-27 1.2241352e-38
4.06025e-40 2.285721e-39 -2.5045298e-27 -1.0099797e-38 1.3971299e-38 -4.771272e-38 0.039668202 4.58283e-39
-1.471843e-39 1.502437e-38 -2.8003876e-38 0.039559316 -6.3164247e-21 2.676627e-39 5.084082e-38 4.021661e-39
5.286072e-38 0.048239622 2.123169e-39 -3.8883566e-38 -3.2466992e-38 4.0430297e-38 3.331155e-38 -2.3511728e-38
-2.5170423e-38 4.507983e-39 -1.3721803e-08 3.445098e-39 -5.89756e-39 5.3246124e-38 -2.0312718e-38 2.240737e-39
0.03145374 1.880771e-39 -2.3001228e-38 -9.35513e-10 0.02718831 0.04778362 -2.45272e-38 -5.500446e-29
6.029532e-39 6.575234e-39 -1.5774473e-38 4.0625159e-16 -2.4113718e-38 0.016351013 -2.599151e-39 -1.45204e-39
-2.9368223e-38 0.02756224 3.4194287e-07 -7.69666e-39 -5.203684e-38 -1.5167277e-20 -7.05675e-07 -5.13357e-40
-8.505558e-39 2.8575828e-38 -2.7637964e-38 -4.5694796e-38 5.336536e-39 -1.525368e-38 -2.733726e-38 0.014159641
4.4141597e-38 6.976168e-39 1.0642831e-38 -1.4192348e-38 2.8491586e-15 0.068298236 9.481631e-39 3.303949e-39
0.029432643 -7.515877e-39 -3.098688e-38 0.011885811 3.0778646e-38 0.052231565 2.116511e-39 -2.6462647e-38
4.5324853e-38 -2.5123987e-38 -1.5071204e-18 -7.97712e-39 8.523178e-39 0.028699858 6.178299e-38 0.014507683
6.2519e-39 -6.796547e-39 2.6457905e-38 0.03345523 -1.7327896e-38 0.06177554 2.0700868e-38 3.6746118e-38
-1.853963e-38 -1.6100538e-38 -2.9941724e-38 0.017674398 0.035542663 8.814343e-39 3.258267e-39 3.4466037e-38
0.008375449 -0.009617929 -2.2688037e-38 2.9063805e-38 -5.0503595e-18 -4.5023086e-38 1.199989e-38 0.01870857
1.2415785e-38 7.95401e-31 -4.1518865e-38 5.577051e-38 -1.0304748e-16 -6.382066e-38 0.006160856 -1.0248542e-17
0.012128805 -5.1795394e-38 4.8845475e-38 -2.1785303e-13 5.3779615e-38 -0.011876699 0.006094562 -3.8521392e-07
9.679206e-10 -4.561432e-39 2.121276e-06 1.829618e-39 6.422569e-38 -2.3523566e-38 3.7095916e-38 2.4670658e-38
-4.815694e-38 -2.4135544e-38 2.3237199e-14 9.6298e-40 1.69124e-40 -3.304692e-39 8.99464e-40 -4.786586e-38
-3.934628e-38 1.054483e-39 3.2434656e-38 0.025806144 -1.4558124e-06 0.028828938 -2.123317e-39 4.6117568e-38
3.088689e-39 1.9970637e-38 -4.86452e-40 -3.562109e-14 0.032404732 -5.141072e-38 -3.356216e-39 -6.6396245e-38
-1.218868e-39 8.99564e-40 2.321621e-39 9.742044e-05 -2.9667655e-09 -8.187106e-07 -1.0445593e-28 1.658316e-39
0.05170289 2.3939054e-38 -1.977299e-38 -8.121368e-39 -1.4568004e-38 8.881812e-39 2.4060204e-20 0.047987126
0.03419945 3.434861e-39 -1.665369e-39 8.894898e-39 0.037935782 -6.450453e-39 3.186613e-39 -4.4914822e-38
-4.207267e-38 0.036702305 1.4763442e-38 -1.3680887e-38 -4.2420273e-23 -4.5199812e-38 -3.8973462e-38 1.4012779e-38
1.318137e-13 -0.0007100156 -1.314246e-39 0.010266375 3.4410594e-17 -0.012302003 0.034969762 1.786424e-38
-7.20382e-39 7.195442e-39 -1.9477241e-29 -5.681534e-39 0.06451147 -5.3936056e-38 -1.6401376e-38 -2.833957e-38
7.737084e-39 -4.068372e-39 -3.1930306e-10 -1.954018e-38 -4.0184747e-38 -1.50025e-39 -1.9741553e-23 -2.6719e-40
-3.0489663e-11 6.5788547e-38 2.9200297e-38 0.03414685 0.041888516 -4.649575e-38 -9.293312e-39 6.0751675e-38
-7.725682e-39 -2.703945e-38 -1.8074088e-25 1.077737e-39 0.011904743 8.909925e-39 0.031447217 -2.20612e-38
5.581553e-39 -4.6435042e-09 -2.0123072e-38 3.6168797e-38 -0.009151609 -4.5124557e-38 -6.610704e-39 3.1551608e-38
-6.0549524e-38 -2.320183e-39 4.1554828e-38 -2.5948057e-38 2.9266516e-38 -6.6673114e-38 -4.913443e-39 -4.6746493e-38

bn1_state.weight f4 [400]
00000000: e5f0 dc80 d018 2201 f587 de00 ca1e 6501
00000010: 1427 a000 f4e2 2001 aaca d200 4b62 bc00
00000020: a5f2 a300 453f a900 c8b1 b600 4131 0735
00000030: c85b 5301 3e78 813c 1c13 bf00 76fd d800
00000040: 0ddd 5900 8e2b e100 04e2 b700 f941 7881
00000050: 74c3 d900 47b6 e500 c41f 1401 1d87 ee00
00000060: 51b8 a700 bdd1 dd00 7426 1501 8974 8b81
00000070: ea1d 1601 046e ea00 e038 1201 f936 a400
00000080: e93f 9601 34b4 d000 2e90 8701 0956 d700
00000090: 0f73 4400 180f 5c01 8403 f700 9a60 9681
000000a0: cc44 9201 8ceb d400 1993 5201 73eb af00
000000b0: d5f2 3f00 0784 cc00 7095 1c01 2126 1500
000000c0: 569e 3e01 a56f 3301 cfa8 9f01 45cc 8380
000000d0: ce79 3401 8466 8601 acf2 bb00 0036 ae01
000000e0: 22dd 7c01 c7c8 8c01 e7a4 ad00 ecb5 b800
000000f0: d1d5 c200 69f2 7e80 83f8 ad80 58a2 0101
00000100: 51a2 cb00 86be a100 24f4 1301 5e7f d000
00000110: 2fa9 b200 7c1c ce00 4166 1701 35af a200
00000120: c6c9 3f01 bdb0 db00 f401 c000 8ed8 dd00
00000130: b846 6001 c4d1 c300 f5fe ee1e 8cab ed00
00000140: eac6 d600 110e 0701 d58b 1201 d2ff c800
00000150: 1dab 5601 6d46 a700 de47 bb00 c51b ce00
00000160: fc0e b800 628e 4201 5843 cb00 b52e 9c01
00000170: eb9c b719 b896 d480 4b23 ca00 ea56 d800
00000180: 4b89 d01a 6afd 0f80 0c20 393c 8135 b600
00000190: a00b 9481 113a fc00 05f0 6c01 099a b200
000001a0: 3a98 3101 c691 6d01 29d6 3f00 35cb a800
000001b0: db41 673c 1400 c500 89c7 d100 c2f7 2b01
000001c0: 63bf e700 cd56 ab00 8d80 d500 bf0f a600
000001d0: 70a6 3701 b0c3 0e01 bcfb 9700 34f7 e700
000001e0: 8ae5 0701 0a7c b500 1733 af00 2530 4281
000001f0: c121 a481 2894 d600 d568 cb00 fa87 8780
00000200: 34ba b800 94f7 9800 a627 1981 001e e100
00000210: fa7f 2180 b82c 5e01 df1e c300 2690 b180
00000220: ebf0 df00 cd66 4200 8388 c500 0247 3000
00000230: 8d2b ea00 554b bb00 86e6 c400 cb8e c800
00000240: 81c4 bc00 d541 8900 69bf a423 c6c4 3b01
00000250: 0a8a 1400 747e fc00 ab27 b400 fcde 3e01
00000260: 9207 ae81 75c2 6500 658e b500 2d93 ba00
00000270: a93c ca00 1439 fa00 402b 6501 76c0 a100
00000280: e28e 0801 758c a000 1e44 4801 10cd 3001
00000290: 78ec bc00 3286 cb00 025c 1b00 f289 8d00
000002a0: 456f 5500 96a3 da00 b6f9 1f3c 6d80 1a00
000002b0: 4517 3c00 7a0a a001 917b c400 e44a 0d01
000002c0: 636e c900 751a 2f01 f203 8b3c 96d9 b800
000002d0: a897 8481 7ec9 bf00 ff22 d000 ce96 b281
000002e0: 2468 a801 2acb 0500 6c9f 5101 bc65 b401
000002f0: 3e61 b100 79c5 bc00 a7c5 c400 a109 1c01
00000300: 4e8f 8101 95bb e000 2eb4 d700 4109 9401
00000310: 5e56 d000 09d3 3b81 3832 ac00 f6be 6035
00000320: 232b 0681 cb73 d100 294a af80 a7c5 8d01
00000330: 4422 a600 79c5 1601 744d c700 bb79 ad00
00000340: 98c9 563c 2d36 ae00 895a 6580 023a 5980
00000350: 98f1 7601 1bfd 2101 e0d2 d600 661e d800
00000360: d57c 6f3c a96a 5b01 1ba5 e900 69d6 b500
00000370: 92c2 9681 9f2c 6f00 5751 b400 2caf 1d81
00000380: 6020 ce00 490e ea00 d822 0680 1aa5 a800
00000390: 79a2 d600 c44a 5601 3157 1300 421c c100
000003a0: cbe9 ed00 8441 b300 bc05 7980 7543 a500
000003b0: 52ce 6100 eaf4 db00 92d3 b700 1710 c200
000003c0: a2e7 e400 9a63 8d80 fd6c c900 270a 0e01
000003d0: 2283 9500 c515 cf00 afd9 9400 b6ab ba00
000003e0: d18a f000 3c00 eb00 cfb5 ca00 14d4 ae81
000003f0: 2fc2 2201 42e4 b500 ec8d 4901 8687 7701
-2.0290226e-38 2.9772503e-38 2.0436252e-38 4.2082747e-38 1.4707698e-38 2.955019e-38 1.9358156e-38 1.7300334e-38
1.505623e-38 1.5542896e-38 1.6777836e-38 5.0363093e-07 3.882043e-38 0.015804406 1.7547435e-38 1.9927392e-38
8.252657e-39 2.0678611e-38 1.6886975e-38 -4.559774e-38 1.9998418e-38 2.1095717e-38 2.7206098e-38 2.1905318e-38
1.5402648e-38 2.0370885e-38 2.7394567e-38 -5.1227756e-38 2.757211e-38 2.1528972e-38 2.685677e-38 1.5080742e-38
5.5193004e-38 1.9166428e-38 4.9798056e-38 1.9775495e-38 6.286089e-39 4.0418448e-38 2.2684629e-38 -5.5239914e-38
5.373065e-38 1.9553623e-38 3.8676446e-38 1.6155675e-38 5.872748e-39 1.8781804e-38 2.875989e-38 1.942223e-39
3.501109e-38 3.295721e-38 5.8649604e-38 -1.2103728e-38 3.314817e-38 4.937093e-38 1.7260292e-38 6.399499e-38
4.6443745e-38 5.171598e-38 1.5946697e-38 1.6962993e-38 1.7892789e-38 -1.1658233e-38 -1.597669e-38 2.3810034e-38
1.8700834e-38 1.4853862e-38 2.7174798e-38 1.9147474e-38 1.640741e-38 1.892833e-38 2.7807683e-38 1.4940203e-38
3.5225925e-38 2.0175375e-38 1.7633116e-38 2.037333e-38 4.119304e-38 1.7983171e-38 2.5304678e-20 2.1826552e-38
1.9724153e-38 2.4805676e-38 2.691629e-38 1.845887e-38 3.942836e-38 1.5361792e-38 1.7199019e-38 1.8928074e-38
1.6903107e-38 3.5734327e-38 1.8666764e-38 5.737237e-38 1.8985135e-23 -1.9523193e-38 1.8563431e-38 1.9867646e-38
8.624859e-23 -1.46844e-39 0.0112991445 1.6733254e-38 -5.4383295e-38 2.3163375e-38 4.351856e-38 1.6401976e-38
3.2618983e-38 4.3634612e-38 5.862462e-39 1.550126e-38 0.014114822 1.8091621e-38 1.9265198e-38 3.1585497e-38
2.1282656e-38 1.5735008e-38 1.9607076e-38 1.5250341e-38 3.3731205e-38 2.622168e-38 1.3957465e-38 2.130268e-38
2.496027e-38 1.6666722e-38 1.608954e-38 -3.5666715e-38 -6.029252e-38 1.9705945e-38 1.8680212e-38 -1.2446571e-38
1.6964528e-38 1.404781e-38 -2.8130108e-38 2.0673749e-38 -3.076481e-39 4.0807044e-38 1.7918996e-38 -1.6306594e-38
2.0565741e-38 6.098021e-39 1.8140564e-38 4.433577e-39 2.1505129e-38 1.7200262e-38 1.8082453e-38 1.8418324e-38
1.7335566e-38 1.2605079e-38 1.7861981e-17 3.4487654e-38 1.886229e-39 2.3187908e-38 1.654462e-38 3.5057472e-38
-6.392837e-38 9.345143e-39 1.6673306e-38 1.7134199e-38 1.8572531e-38 2.297935e-38 4.2091688e-38 1.4854557e-38
2.5081768e-38 1.4744066e-38 3.678307e-38 3.247322e-38 1.7349902e-38 1.8690746e-38 2.512565e-39 1.299829e-38
7.845933e-39 2.0078822e-38 0.009764126 2.433793e-39 5.518477e-39 5.878975e-38 1.8044085e-38 2.595134e-38
1.8498534e-38 3.2161406e-38 0.016969655 1.6975786e-38 -4.870676e-38 1.7612862e-38 1.9114337e-38 -6.560327e-38
6.186289e-38 5.32059e-40 3.8501617e-38 6.626754e-38 1.6289767e-38 1.7335913e-38 1.8070662e-38 2.8659583e-38
4.759275e-38 2.0638443e-38 1.9809268e-38 5.437989e-38 1.9132766e-38 -3.4497886e-38 1.581372e-38 8.372439e-07
-2.4642862e-38 1.9235157e-38 -1.6097815e-38 5.2078837e-38 1.5256985e-38 2.7692329e-38 1.8303049e-38 1.593121e-38
0.013109587 1.5998811e-38 -9.307863e-39 -8.194168e-39 4.53564e-38 2.9752624e-38 1.9728444e-38 1.9847372e-38
0.014617165 4.0300472e-38 2.1456899e-38 1.669914e-38 -5.538049e-38 1.0209747e-38 1.6559569e-38 -2.8962025e-38
1.8929726e-38 2.149463e-38 -5.63513e-40 1.548759e-38 1.971108e-38 3.9359234e-38 1.776153e-39 1.7734388e-38
2.1848882e-38 1.6462056e-38 -1.1114152e-38 1.5177056e-38 8.982057e-39 2.0199832e-38 1.6881793e-38 1.7821858e-38
2.1021587e-38 -1.2984535e-38 1.8498032e-38 2.6088565e-38 1.373053e-38 1.9017757e-38 1.3669744e-38 1.7143e-38
2.2090317e-38 2.1581426e-38 1.8615991e-38 -6.422182e-38 2.989402e-38 1.6704108e-38 3.7019693e-38 4.5463968e-38

bn1_state.bias f4 [400]
00000000: e43c 4f81 f485 5601 c03d 9481 00c1 0e00
00000010: 8008 4080 2891 5381 b0d4 8100 507a 8000
00000020: 8826 2381 a0dc 8a01 c0b0 0a00 aec3 4525
00000030: fc3a 3e81 e2a9 1733 8080 b781 b018 3800
00000040: bc30 1981 78e7 5101 b04e e380 90ee 7000
00000050: acc8 ac01 8842 7f01 400f 4681 80c6 6001
00000060: c095 9100 e811 2f01 70b8 1780 c082 0f01
00000070: 04d6 0a81 feec 9d01 98cb 1901 6047 6001
00000080: eaf1 8201 e894 e780 7878 5d81 484d 2281
00000090: 701c 2600 e8e5 7d81 9cc1 8381 b0d7 6880
000000a0: 787b 7d81 987d 5c01 f415 0081 b09d 9781
000000b0: 8808 3580 00ab cd80 001b 3081 f0a4 fa00
000000c0: 40bf bd01 307d 0381 705b 5400 c895 2681
000000d0: 528b 9101 0891 2c80 4ec6 9401 f01c 8d00
000000e0: 8806 4a81 2a86 8c81 00cf 9680 407f 3d80
000000f0: 4007 b701 f8b4 3501 c8c5 0581 38c9 7901
00000100: f432 aa01 f8ab 1f81 d8e3 ab01 8077 9a80
00000110: 8053 3201 ec63 be81 8811 9701 8ca8 5e01
00000120: 94b1 8d01 004a 5380 00b3 1780 0082 9281
00000130: ae92 8f81 f8ff 8881 4814 8718 f046 4e00
00000140: c0b6 b481 cc6b 2401 a80c 0e81 0054 3f01
00000150: 98e8 5181 4073 9901 ac12 9d01 d09b ec80
00000160: 20d9 5181 c067 4600 003a 3181 00f7 1601
00000170: 4ebb 2710 204e 0501 6814 ab80 0080 b700
00000180: ee34 9c81 0cc3 8281 e412 bfb1 3090 4300
00000190: 8006 8600 30e0 e800 f0fc 9c81 00bf 2580
000001a0: 52d2 b501 58bf 0c00 fabd a601 d876 0201
000001b0: 46c1 da32 000c 2880 ac68 a601 a440 0401
000001c0: e0aa 1480 d87a 5c81 a0c6 8081 50ef 8401
000001d0: 506d 1300 326b a981 c8ea 3b01 2822 2181
000001e0: 80e4 9380 007f a081 c050 9e81 f407 b381
000001f0: 767c b201 0011 0e00 c88a 4701 90c8 2e80
00000200: 0063 6581 1839 4181 b874 4c81 b47f ac01
00000210: 0c7a 9d01 ec65 3f81 40dd 8b81 a82f 5800
00000220: de8f af81 9c80 9a81 403c 9f81 006d e100
00000230: 10ae ff00 8080 2301 10b8 a800 1081 e800
00000240: 10cc 1e01 10b4 7e01 fc7f 9f90 f8a4 8381
00000250: 0051 ae81 4863 4700 f88d 0801 3046 9180
00000260: b45f b801 e8cf 1f80 8015 3881 806e 5501
00000270: aacd ba81 40de 8081 1cfd b681 187b 0581
00000280: 8065 1881 f431 b301 b01d 0180 d422 8901
00000290: 8038 1d81 d8d3 7681 9817 6401 c89f 4800
000002a0: 5805 0201 f834 6281 ba3d 22b0 5004 b980
000002b0: 3041 ff00 b073 0780 0079 db80 28ef 2401
000002c0: 5059 db80 0038 0381 b2dc 4232 484e 9381
000002d0: 64ce 4e01 78fa 6b81 0c10 a081 f210 a301
000002e0: 3080 f980 4496 9e01 c46a 5d81 50f4 9b00
000002f0: 68bc 6c01 1021 3800 94ca a701 6056 a080
00000300: 4448 ae01 52b7 a581 3c2d 9f01 30ff a281
00000310: d033 6100 5c0b 5301 78a5 3081 c1a8 f225
00000320: 32c3 b801 0066 b001 70cb e680 d678 9f81
00000330: ac7e 8201 f083 7000 f207 8c01 d0fc 3080
00000340: 1c8b af32 8015 5301 38fc d080 fe5f ab81
00000350: 0097 6581 bca1 b801 305d 3180 dc05 8e81
00000360: 42cd 7032 b88a a401 4004 7d80 c800 2e01
00000370: e89d 1401 f071 8000 be05 a181 a038 2901
00000380: 0092 9700 d087 9601 80b9 b300 627e bd81
00000390: 9868 2e01 58f8 2481 a65e b101 b046 8180
000003a0: 803d 9881 30b7 5c00 fc3f b781 00b3 8581
000003b0: 02c4 9181 50df cd00 0066 1981 802f 0181
000003c0: 880f 6a01 0083 9480 9077 8580 0015 4b80
000003d0: 7442 9401 8018 0981 d08a 4800 00de 8a01
000003e0: 9cc8 5681 6448 9601 c88f 1281 c8ad 8381
000003f0: d0d8 8000 0009 7e01 c8f2 4301 4083 6a81
-3.8063582e-38 3.94017e-38 -5.445522e-38 1.354932e-39 -5.880521e-39 -3.8858724e-38 1.1923077e-38 1.1798821e-38
-2.9966017e-38 5.1009775e-38 9.81761e-40 1.7153325e-16 -3.4939808e-38 3.5311935e-08 -6.740797e-38 5.151644e-39
-2.8136627e-38 3.8553308e-38 -2.0874885e-38 1.0371156e-38 6.347077e-38 4.6883837e-38 -3.6377798e-38 4.128472e-38
1.3369867e-38 3.215527e-38 -2.17838e-39 2.635876e-38 -2.5500146e-38 5.801276e-38 2.8247733e-38 4.119351e-38
4.810159e-38 -2.1267417e-38 -4.067772e-38 -2.9810147e-38 3.49995e-39 -4.663371e-38 -4.8399616e-38 -9.628266e-39
-4.6557346e-38 4.0497727e-38 -2.3525638e-38 -5.569491e-38 -4.870342e-39 -1.888762e-38 -3.2345466e-38 2.3018042e-38
6.9702065e-38 -2.4150718e-38 7.746983e-39 -3.0596848e-38 5.34645e-38 -4.092789e-39 5.4651167e-38 1.2959186e-38
-3.7106226e-38 -5.1620394e-38 -1.3849582e-38 -5.647614e-39 6.7233986e-38 3.3374288e-38 -2.4570143e-38 4.5878444e-38
6.252125e-38 -2.932707e-38 6.314242e-38 -1.4185535e-38 3.2753345e-38 -6.993836e-38 5.5493796e-38 4.0895887e-38
5.205003e-38 -7.648892e-39 -2.17643e-39 -5.381847e-38 -5.274038e-38 -5.0325807e-38 3.491716e-24 7.188616e-39
-6.638379e-38 3.0199383e-38 -2.609036e-38 3.5141427e-38 -3.8554115e-38 5.63687e-38 5.7699484e-38 -2.1729072e-38
-3.8543017e-38 6.465703e-39 -3.255138e-38 2.7727863e-38 3.3079237e-29 2.4484294e-38 -1.571119e-38 1.6851814e-38
-5.73813e-38 -4.8034337e-38 -5.5609792e-09 6.204703e-39 1.2308288e-38 2.1386258e-38 -5.7668297e-38 -3.466431e-39
6.6790694e-38 1.170667e-39 6.125137e-38 2.3962495e-38 2.546643e-08 -3.677725e-39 6.1128966e-38 2.4290948e-38
-1.898008e-39 -4.0495754e-38 -4.7304787e-38 4.883254e-38 1.784088e-39 -6.2234613e-38 3.4514923e-38 -2.9595536e-38
-1.3581788e-38 -5.8956954e-38 -5.8155904e-38 -6.576563e-38 6.5565466e-38 1.291795e-39 3.6650098e-38 -4.296381e-39
-4.2131686e-38 -3.5489464e-38 -3.7552624e-38 6.3366066e-38 5.784782e-38 -3.5154285e-38 -5.1378014e-38 8.09862e-39
-6.4491287e-38 -5.675521e-38 -5.849383e-38 2.0702088e-38 2.3480493e-38 3.0030566e-38 1.5494393e-38 2.1352134e-38
2.9166424e-38 4.678162e-38 -6.2911633e-29 -4.835852e-38 -6.4033735e-38 6.555936e-39 2.5081113e-38 -1.3341325e-38
6.772825e-38 -2.921483e-39 -3.3810888e-38 3.92012e-38 -6.862072e-38 -4.7338687e-38 -6.7219435e-38 -2.4516557e-38
-2.7990814e-38 6.5825894e-38 -1.02485e-40 5.037583e-38 -2.8876883e-38 -4.5335055e-38 4.1893914e-38 6.669474e-39
2.3881063e-38 -4.1547647e-38 -5.9022975e-10 -1.6991114e-38 2.3441436e-38 -6.8435e-40 -2.015538e-38 3.029363e-38
-2.0144013e-38 -2.4101078e-38 1.13424665e-08 -5.41116e-38 3.7984302e-38 -4.3342386e-38 -5.8797744e-38 5.990106e-38
-2.2913024e-38 5.8255654e-38 -4.066789e-38 1.4322145e-38 4.348153e-38 5.154648e-39 6.1636797e-38 -1.4724665e-38
6.40212e-38 -6.087448e-38 5.8472284e-38 -5.987558e-38 8.92663e-39 3.876273e-38 -3.2444813e-38 4.209466e-16
6.7871017e-38 6.479855e-38 -2.1195144e-38 -5.8580767e-38 4.7936223e-38 1.0332906e-38 5.143928e-38 -4.498796e-39
2.0435941e-08 3.8770005e-38 -1.9192262e-38 -6.295322e-38 -4.2168994e-38 6.7823e-38 -4.533369e-39 -5.217097e-38
1.4016509e-08 6.0443137e-38 -1.1480962e-38 3.1959313e-38 2.72966e-38 1.1795817e-38 -5.91503e-38 3.1081024e-38
1.3919535e-38 5.529618e-38 1.6505099e-38 -6.9608986e-38 3.2033795e-38 -3.030022e-38 6.5155345e-38 -1.1872137e-38
-5.592423e-38 8.514581e-39 -6.7315396e-38 -4.9113336e-38 -5.3545845e-38 1.8906386e-38 -2.8174843e-38 -2.3727638e-38
4.2990155e-38 -1.3638647e-38 -1.2257012e-38 -6.895196e-39 5.446197e-38 -2.5180504e-38 6.661952e-39 5.101175e-38
-3.9449523e-38 5.5205173e-38 -2.6919123e-38 -4.8371164e-38 1.1832721e-38 4.665889e-38 3.599003e-38 -4.307318e-38
