continuous_control/actor_100.pth (torch_old, 553555 bytes, 14 tensors)

fc1.weight f4 [400, 33]
00000000: 0aa3 713a 2d54 47bd e5dc 93bd ff0e 993c
00000010: 626b f3b9 10ba 58bd 4d59 b0bc dc93 81bc
00000020: 2614 9d3d a6aa e3bc a6bc 23bd 6d28 9ebc
00000030: 8016 5a3d 2035 86bd 738c 6e3c a4ec 873d
00000040: c862 2a3d 3539 50bd 838e 5dba dc57 dbbd
00000050: ea16 5f3d 3231 93ba f6a2 13bd bf39 e0bd
00000060: 8e3e 363d bfa7 1b3d 7530 aebd 875e 6fbd
00000070: f6dd 2abe d899 d53b 75db d03c d4cb 6d3c
00000080: 2451 c23c aa7a 92bd 8b85 793d 5c1d 343d
00000090: c00b 653d 2788 2a3d ece5 92bd 7766 a4b9
000000a0: 5051 283d 5fb5 d33b 9ced a93d a7c1 a83d
000000b0: 84df 2ebc a79d cebd 88e2 03bc d7f8 0b3d
000000c0: d180 edbd ab73 ea3c 61bb 05bd 10f8 2f3a
000000d0: 2501 1a3d ae7b 673d 17a5 363d db86 6abd
000000e0: 97e2 a83c 1f82 713d 8783 abbb e30f 9e3d
000000f0: 1daf e13c d282 91bd b367 b7bc 3800 5a3d
00000100: 186f 3cbd f6a5 87bb 14e1 29bd c312 83bd
00000110: 851e 9e3d fca0 15bb d1a1 6cbd 870e 2d3d
00000120: 4a8f cd3c 0605 1cbe 7218 29bd cd2b d1bc
00000130: caf2 33bd d230 b83d 3862 823d 8612 793c
00000140: 042a 29bc e9cd 2e3e 4819 82ba 13a0 02bc
00000150: 1fee 7dbd 00d7 b03c 1521 d9bc c7c0 4f3d
00000160: 7419 94bc 6045 5dbc b068 6fbd 2464 de3d
00000170: 4296 efbc 9aa8 fe3c 7491 4abd 52a9 ed3c
00000180: 6053 5abc d0f8 abbb 9d26 65bc fd65 0b3d
00000190: 1907 683b 026b 05bd 4eed 97bc 2e0a a3bd
000001a0: 32d6 a43c c6f2 b63c 1012 a4bb 73a2 143d
000001b0: c471 393d c7e7 9c3a b6bf 2fbd 8062 62bc
000001c0: 6838 6dbd 640d f4bc ed76 753e 8a0c 5e3d
000001d0: 8132 993c b008 313d 1806 dfbc 8920 54bc
000001e0: bbec ce3b 923f 92bc 95cd 0abc 96ba 033d
000001f0: 4ef2 c23d 20a9 8d3d 6afa 323b 8d38 35be
00000200: 5910 223d 01ec 2fbd 3400 0dbc 837a 1ebe
00000210: 9ba8 0abc fb57 353d 1e90 2dbd d265 363b
00000220: 2232 5bbd ce1d 21bd 60c7 113b 4a42 a2ba
00000230: 367a 84bb 496c bdbd d91b 62bd 00ef f23d
00000240: 4a60 26bc ced7 80bc 5677 e23d 1e30 a63c
00000250: 3161 b03c 6b9e cfbc 0a63 3c3d 8e6f 17bd
00000260: c84d ac3d 3230 bb3d b565 7e3d 6fa7 dfbd
00000270: da31 7d3d 01e8 a53d fe4c d2bc fd83 0e3d
00000280: e0b1 af3c 1456 2c3c 2c00 94bd b9f5 2d3d
00000290: 442a fe3b b9c1 4cbd 6470 dbbd 8ec0 4bbd
000002a0: b9f1 0f3b 9c85 8cbb d334 c13d d487 e13d
000002b0: 6968 09bc 0374 8bbd 2858 043d fe1a c03c
000002c0: 214f 2abd c8cd 49bc 607a 37be 57be e5bd
000002d0: 9ac1 40be bba0 1b3c 286c 1bbd d4d7 fa3c
000002e0: 73c2 de3c 83f1 f53c 45d6 823b 9ac2 59b8
000002f0: be74 afbc 3fa4 01be 4daa abbd de5a 0f3e
00000300: bc6a 823c e275 473e f068 c7bb 07a1 b53b
00000310: d3d3 323d 6b5d f8bc c9b3 b6bd b641 13bd
00000320: c69e 8a3a 723e dc3c 4bad 50bc 4b5d 3ebc
00000330: 54d0 efbc 2fda 99bd 261f a7bc 4bab 953d
00000340: d882 c3bc 44cd 66bd fc50 003d 7ae1 e4bd
00000350: 6087 76bc ab54 5b3d 6792 483b 1cfe 8ebd
00000360: 51e8 333c 526e 93bd 38a7 3e3d 754e 23bd
00000370: 443a ccbb 6833 65bd 39f7 033d ca9c ab3b
00000380: 6ab2 2dbd 7673 5b3c e3e6 71be d01a 77bb
00000390: ed1f 4a3d 0c46 35bc 76de bd3d 128b 323d
000003a0: 0fb2 d83d 34da bc3c 4765 dc3c 4631 cfbc
000003b0: dc49 32bc 1a59 bebd 3bd3 363d 75a7 02bd
000003c0: 2ed0 0c3c c428 55bb 3a74 553d f9a7 7e3d
000003d0: 7ea7 8d3d ba52 573d 7f08 bc3c e1d6 1cbd
000003e0: 6f40 abbc ed2b 533d f774 b83d 5e0c 503d
000003f0: cb5f b2bb 5d8f fe3c d570 e03d 01bb 833d
0.0009217715 -0.04866426 -0.07219867 0.018683909 -0.00046428578 -0.052911818 -0.021526957 -0.015817575
0.07669859 -0.027791332 -0.03997483 -0.019306386 0.053244114 -0.065531015 0.014559853 0.066369325
0.04159811 -0.050835807 -0.0008451717 -0.10710117 0.054465212 -0.0011229871 -0.036044084 -0.10948514
0.04449325 0.038001772 -0.08505336 -0.058439758 -0.16686234 0.0065185837 0.02549527 0.014513928
0.023720331 -0.071523026 0.060918372 0.04397331 0.05591941 0.04163375 -0.0717276 -0.0003135686
0.04109317 0.00646083 0.082972735 0.08240061 -0.010673407 -0.100886635 -0.008049615 0.03417286
-0.115968354 0.028619608 -0.0326494 0.00067126844 0.037598748 0.056514435 0.044591036 -0.057257514
0.020615859 0.058961984 -0.005234185 0.07717874 0.02754932 -0.0710503 -0.022388315 0.053222865
-0.046004385 -0.004139657 -0.041474417 -0.06400063 0.07720665 -0.002283155 -0.057771508 0.042250182
0.02509274 -0.15236291 -0.04128308 -0.025533581 -0.043932714 0.08993687 0.0636639 0.01520217
-0.010324959 0.17070736 -0.0009925747 -0.007972735 -0.061994668 0.021586895 -0.026505033 0.050720956
-0.018078543 -0.01350531 -0.058449447 0.10858944 -0.029246453 0.031086255 -0.04945512 0.029011402
-0.013325542 -0.0052481666 -0.013986257 0.03403281 0.003540462 -0.032572754 -0.018545773 -0.07960926
0.020121668 0.02233256 -0.005007036 0.036287736 0.04527451 0.001197093 -0.04290744 -0.01381743
-0.05791512 -0.029791541 0.23971148 0.054211177 0.01870084 0.043221176 -0.027224585 -0.01294721
0.0063148416 -0.017852578 -0.008471866 0.032160364 0.09518872 0.06917024 0.0027309903 -0.17697354
0.03956637 -0.04294968 -0.008606005 -0.15476422 -0.00846305 0.044273358 -0.04237377 0.0027831686
-0.053514607 -0.039335065 0.002224408 -0.0012379375 -0.004042889 -0.092491694 -0.05520234 0.11861992
-0.010154793 -0.015727904 0.11057918 0.020286616 0.02153072 -0.025344094 0.04599289 -0.03697162
0.08413273 0.09140052 0.062108714 -0.10920607 0.06181512 0.08100892 -0.025671478 0.034793843
0.021447122 0.0105185695 -0.07226595 0.042470668 0.0077565033 -0.049989436 -0.10714796 -0.04974418
0.0021964146 -0.0042883884 0.094339035 0.11012235 -0.00838671 -0.06809237 0.032310635 0.02345037
-0.04157937 -0.0123171285 -0.17917776 -0.11217945 -0.18823853 0.00949877 -0.037944943 0.030620493
0.02719233 0.030022388 0.003992828 -5.191807e-05 -0.021417972 -0.12660311 -0.08382092 0.13999507
0.015920036 0.19478562 -0.0060855076 0.0055428776 0.043659043 -0.030317983 -0.0892101 -0.03595134
0.0010575883 0.026885245 -0.012736629 -0.011618922 -0.029274143 -0.07512318 -0.020400595 0.07308062
-0.023866102 -0.0563481 0.031327233 -0.11175819 -0.015046924 0.053547543 0.003060484 -0.06982061
0.0109806815 -0.07198776 0.04654619 -0.039869744 -0.0062325317 -0.055957228 0.03221819 0.0052371966
-0.042406477 0.013394227 -0.23623233 -0.003770519 0.049346853 -0.011064064 0.09270947 0.04358966
0.10580837 0.023053266 0.026903762 -0.02529205 -0.010881867 -0.092943385 0.04463504 -0.03189798
0.008594556 -0.003252552 0.052112795 0.06217191 0.06916712 0.05256913 0.02295327 -0.038290862
-0.020904748 0.051555563 0.09006684 0.050793044 -0.0054435483 0.03107422 0.10959021 0.064321525

fc1.bias f4 [400]
00000000: 913d 27bd f2d0 61bd de95 3e3e ed31 10bc
00000010: f386 3dbe 55d0 3abe 5da7 f0bd 0db8 16be
00000020: 3965 61bd 0c41 d1bd 476a 9d3d 661b 48bc
00000030: 2a00 203e 3fba 44bc b6ce 35be 0ae4 26be
00000040: 7688 9fbd 05ba 42bd 2c4d 6bbe 93ae 683c
00000050: aa6c 09be 0dab 4fbd bd73 f93b 5e39 bebd
00000060: a1f8 4abe 51bc f7bd 3e7a 74bd 57d3 213e
00000070: 8df4 fb3d aacb 09bd 917d d83d b991 5c3e
00000080: fc03 243e e59e 3abd 6bb5 aa3d 5702 a3bc
00000090: 8b92 16be b9e2 c13d 7a77 193e e87c 623d
000000a0: aa86 5d3e 06e5 e03d 772d df3d ed31 bc3d
000000b0: ad7e 0b3d 8053 703d 3fcf ae3d 21c5 123e
000000c0: b44c 3c3e 1bf5 6dbd bf8f b13d 49f8 293e
000000d0: 81c5 343e bc5d f23d c353 37bd 4035 ee3d
000000e0: b170 523d 25dc dfbd 0e0e 823d a495 1a3e
000000f0: a0d4 e7bd cb94 d3bd ba82 4d3e 0569 42bc
00000100: 8247 1f3d ba73 e2bc 3e71 1b3b 3003 d6bd
00000110: a3fd 483c 90e4 ac3d b291 21bd 1115 a1bc
00000120: 928f 2e3e 3162 01bd d97b 213e 7190 8c3d
00000130: d314 00be 5d32 4cbd aa1a 043e d0e4 60bd
00000140: 47c9 a3bd 13d9 3c3d 5986 01bd 2e24 1bbd
00000150: cdbf c13d 082e 4b3e cd59 be3d 95d3 8b3d
00000160: 426e 9e3d 9efc 5bbd 4542 80bd 30b1 c2bc
00000170: accd 9a3d 718d 313d c083 8abd 1d70 2ebe
00000180: ef57 5f39 b66f 2d3e 8600 693d 1e95 2e3e
00000190: aa63 49bd 655b 343e cb19 2abe eda9 d83d
000001a0: 33af 233c 9f24 3b3e d3ed d73d 4526 61bd
000001b0: 99b2 1a3b d629 94bd feab fa3d 0237 ddbd
000001c0: ed7a 4dbc f18b e6bd 923c 013e 3feb 383e
000001d0: 4855 513d d3b1 783c 06af 8abd f338 53be
000001e0: fd23 34be 9d77 a9bd 1782 fabd 9a6d 223e
000001f0: 756e d7bd e74c 173e f9c6 f73d 12c8 52bc
00000200: 0061 8b3d 79de 523e 495c 14be a0f6 d93d
00000210: 192f 0c3e 884b 023e 921a 8abd eb1f c43d
00000220: 1562 9dbd 7898 443c 5002 4c3e 1687 7b3b
00000230: bc23 cb3d ca66 563c 3bdb d9bd ba14 543e
00000240: 2af4 53bd 5211 9d3d 8ff3 3c3d ae73 3bbc
00000250: 0eff 45be 2e13 97bd 0b89 ccbd a241 593c
00000260: f112 873d 39db 5bbe 6ca9 3ebd 1f7e 38be
00000270: 385f f63d 87cc e3bd dada 713c e310 42bd
00000280: 9e22 6dbd 3633 323e b867 dd3d b4f9 b33d
00000290: 76e2 cb3d 2e83 99bd 88f3 213d 3e10 3a3e
000002a0: e011 00bd 57d6 703c fed6 343d 9fb3 26be
000002b0: a393 43bd c626 6c3d 1a6a 63be d387 ed3d
000002c0: b5c2 4bbe 642b a1bb bc9e 093e 5939 bd3d
000002d0: e99e 9a3d bf64 8fbd 31ec 2abe e92b f3bd
000002e0: 09d9 fdbc cd80 d6bd f5fd c0bd 1e94 483d
000002f0: edaa 583e 1e0a 1c3e 9afe 4b3d b5b5 12bd
00000300: 5f11 45be bc0f 3a3e 4c98 04bd 5b14 3cbb
00000310: 1f25 11be eb9c e0bd 45dc 1a3d f02f c13d
00000320: 42cb c8bb 3f34 a8bd 8d22 29be 5157 dbbd
00000330: bd22 19be 72d0 4a3e 1177 27bd cc4f 1c3d
00000340: a238 be3d 3f21 bd3d aa71 1dbd 3f45 a63d
00000350: 87c9 183d ed35 50be 4091 8e3d 2e03 0dbe
00000360: aa78 dcbd c3c3 8c3c fe12 103e f899 123e
00000370: 94fc 59be c7d7 23be 2636 84bb d6af 93bd
00000380: a434 133e bf64 90bd e395 0d3e 09b2 b03d
00000390: ee1a 4e3d eacf c4bd feed b1bb 8d96 643d
000003a0: f442 4b3e b5db f7bd 9c87 10bc 19a7 763e
000003b0: 79dd d9bd fe02 54be ee51 15be e750 703c
000003c0: b4fe fe3d 2264 bfbd 50ce 3a3e 1f8a 303d
000003d0: 8af3 f7bd 2c98 233c c1bc 343e 9527 ed3d
000003e0: 7349 fbbc c3c7 a7bd b73d f43b c07f a43d
000003f0: cfef 2bbd d36c 00be 2a04 4c3e 046a 1e3d
-0.0408302 -0.055130906 0.18611857 -0.008800966 -0.1850851 -0.18243535 -0.11750672 -0.14718647
-0.055028174 -0.10217485 0.076862864 -0.012213564 0.15625063 -0.012007295 -0.17754635 -0.16297927
-0.077897 -0.047540683 -0.22978657 0.014201778 -0.13420358 -0.050700236 0.007612674 -0.09288286
-0.19821407 -0.120964654 -0.05968689 0.15803276 0.12302504 -0.033641495 0.10570825 0.21539964
0.16017145 -0.04556169 0.08335384 -0.019898577 -0.14704339 0.09467072 0.14986983 0.0552949
0.21633402 0.10981183 0.108973436 0.0918921 0.034056354 0.05867338 0.08535623 0.14333011
0.18388635 -0.05809508 0.086699955 0.1659862 0.17653467 0.11834285 -0.044757616 0.116312504
0.051377002 -0.10930661 0.06350337 0.15096146 -0.11319852 -0.103311144 0.200694 -0.011865859
0.038886555 -0.027643073 0.002371862 -0.10449827 0.012267503 0.08442032 -0.039445587 -0.019663366
0.17046955 -0.031587783 0.157699 0.068634875 -0.12507944 -0.049852718 0.12900797 -0.054905713
-0.07997375 0.046105456 -0.031622265 -0.0378763 0.09460411 0.19841778 0.09294472 0.068274654
0.07735874 -0.05370771 -0.0626264 -0.02376613 0.0755876 0.04334778 -0.067634106 -0.17034955
0.00021299695 0.16937146 0.056885265 0.17049071 -0.049167313 0.17612989 -0.16611402 0.10579286
0.009990501 0.18275689 0.10543408 -0.054968137 0.0023604988 -0.07234542 0.12239836 -0.108015075
-0.012541515 -0.112571605 0.12620762 0.1805849 0.05110672 0.015179115 -0.06771664 -0.20627193
-0.17591853 -0.082747675 -0.12231844 0.15862122 -0.10519115 0.1477543 0.12098498 -0.012865083
0.06805611 0.20592679 -0.14488329 0.10642743 0.13689841 0.12724125 -0.06743349 0.095764
-0.07684723 0.011999242 0.19922757 0.0038380078 0.09918925 0.01308603 -0.10637518 0.20711032
-0.051746525 0.07669319 0.046130713 -0.011441154 -0.19335577 -0.07376705 -0.09987076 0.013260277
0.0659541 -0.21470346 -0.046548292 -0.18016861 0.1202988 -0.11122995 0.014761651 -0.047379386
-0.05789434 0.17402348 0.108107984 0.087878615 0.09955303 -0.07495724 0.03953889 0.18170258
-0.031267047 0.01469954 0.044150345 -0.16279458 -0.04774822 0.057654165 -0.22208443 0.11598172
-0.19898494 -0.0049185026 0.13439459 0.09239454 0.07549841 -0.07001638 -0.16691662 -0.118736096
-0.03098728 -0.104737855 -0.094234385 0.04896938 0.21158953 0.15238234 0.049803354 -0.03581782
-0.19244908 0.18170065 -0.032371804 -0.0028698656 -0.14174317 -0.1096743 0.03780772 0.094329715
-0.006127746 -0.0821309 -0.16517086 -0.10710014 -0.14954658 0.19806078 -0.040885035 0.038162038
0.092881456 0.09234857 -0.038438477 0.081186764 0.037301566 -0.20333071 0.06961298 -0.13770744
-0.10765202 0.01718319 0.14069745 0.14316547 -0.21287757 -0.16000281 -0.0040347753 -0.072112724
0.1437555 -0.07050466 0.13826708 0.086277075 0.05031865 -0.09609969 -0.005429982 0.05580764
0.1984976 -0.12102453 -0.008821394 0.2408718 -0.10637946 -0.20704266 -0.14582035 0.014667726
0.124509245 -0.09345271 0.18242764 0.043100473 -0.12106998 0.009985011 0.17650129 0.11579815
-0.030674672 -0.081923984 0.007453646 0.08032179 -0.041976746 -0.12541513 0.19923463 0.038675323

fc2.weight f4 [300, 400]
00000000: f01c bcbb 752d 463b cd15 f7bc 16a3 83ba
00000010: 846c e0bd 3b7a d7bd 0f7c bdbd 5d34 1b3e
00000020: d968 623d c0b7 683d 636b da3d 06c5 6c3d
00000030: a3e2 abbd 867a d83d 67a9 9a3c 3066 11be
00000040: e1dd b43b 3d10 8bbd a50d 09be db0e 113b
00000050: ea42 973d 193f 78bd cd1b 883d 1dc7 edbb
00000060: 116a 4e3d 0868 11bc 1bdb 0dbe 5900 31bd
00000070: 955a 5ebc 3502 0ebd f48f 883d ad1d 973c
00000080: ad4f 20bc 84aa 763d 146e 723c 0580 8bbd
00000090: b1c1 143e aeec 59bd fbba ce3d 8188 143d
000000a0: c13c 093d 8802 45bd 87e5 a73d 130a c2bc
000000b0: f45e 0dbe b499 1d3c 7148 2ebe b8bc 8abd
000000c0: 4314 123d b910 9b3c 903f c93b 1a02 aa3d
000000d0: 99c2 fdbc 23ed 393d 1159 7abd 83cd 08bb
000000e0: 7e23 92bc fe5b 06bd bf89 eebb a38d 3fbe
000000f0: fe97 04bc 68dd d9bd 57e7 0a3e 7d79 f53c
00000100: a1d0 cebb 5cb0 5c3d 2a1a 21be c5f6 13be
00000110: e7fc 453e cb7b acbc 0644 1ebe adde babd
00000120: 3b19 383d 18d7 8ebd c18f 053d 9ac7 9abd
00000130: d852 0ebe 1287 57bd ae4b 26ba 2504 6c3d
00000140: 794b 913c 7439 bd3c 3eee 8bbd 8794 30bd
00000150: 79c8 d03c dda1 203d 715c 14be ff1f 8d3d
00000160: 1f0b 33bd f7de f2bb 1ab1 b8bd 7b9c a43c
00000170: cba1 2b3d 265d 0c3e c65b 71bb d5ab b43d
00000180: 1fb1 42ba 0aae 1d3d ec15 cbbd 4e4d 8dbc
00000190: ba81 30be 1a16 fc3d 26c7 1ebd 02df 623d
000001a0: 87f5 d3bd e880 4b3d 7d98 3fbd 9ccc 08bd
000001b0: 24ed de3c 7edc 743c 8945 d53d 78f4 573d
000001c0: 9791 2ebd a672 fb3c 09bb 833d 9280 b23d
000001d0: df1e 703d 108c 283c f274 b8bc 0667 26bd
000001e0: db6c 8dbd 0161 cfbd 7bca 393d 44de d5bd
000001f0: 4aa3 0a3e 9786 d23d 67f0 29bd c7e0 5abd
00000200: 6e9f 34bd 62c6 bf3d 244e 3ebe 4d43 db3c
00000210: e5cc 743d ff8d 10be 6771 e93c 2b6e 18be
00000220: cff2 bcbd 94ae 8cbc aa39 c93d fe5f a73d
00000230: f0ae a0bd 91ca 093e 7a2c 343d b16f 24bd
00000240: 07e5 a73d bcd0 28be 365b 8dbc fde4 81bc
00000250: a433 893d 8c06 debd aeaa 6cbd 6bb7 f1bd
00000260: 64bf f53b 7ca3 42bc 1de9 013d 95a1 15bd
00000270: ffbb 363d bd2c 4cbc 680b cbbc 4fe9 9fbd
00000280: def7 a4bc 5a9b 2a3d 4962 25ba f2f5 0ebe
00000290: 31e5 01be d1b1 94bc 5f30 00bd a73e ffbc
000002a0: 393b 18bd 54cd 083c 967f 2b39 04f7 33bc
000002b0: 3c0c 29be 6990 e23d c263 85bc 052e 113d
000002c0: 7685 953d 1885 ef3d 7051 d33d 98c2 663a
000002d0: 2e1a 7b3d 21b4 c4bd f64e 95bc c469 953d
000002e0: 12b5 d1bd c7df e43d d9ee f0bd 2280 d93c
000002f0: a108 3dbc 62b1 eb3d daeb 5c3d c429 2ebd
00000300: 95ad 043d 6030 a83d 7869 233d 37c4 8fbd
00000310: fb36 03be da64 44bd f5f7 92bd 8389 c8bd
00000320: 37cf ab3d 46be 9f3d 4acb 6dbd 8c25 e53d
00000330: 3fd2 2cbd fa6b 1f3d 655e 023d a8ca 2e3d
00000340: b3ff a83c a52f 27bd a3b3 90bd fd79 b33d
00000350: 8778 acbb 4f39 b6bd 6839 483c d445 b33d
00000360: fdac 98bc b42c 89bd 80a8 7e3d b947 94bd
00000370: 00dd 15bd f4fe d73c 6713 a23c bfb6 b93d
00000380: 1653 96bc e7e6 9c3d bd36 a63c 6bc0 643d
00000390: 2e76 00be 187e 683d f34d 72bd a0fd 683d
000003a0: 4330 fb3d 55c1 6cbd 25be 5ebc 704a 9e3c
000003b0: 8918 953d ccc5 52be 21e7 39bd e360 2abd
000003c0: d895 9a3c f290 c43c e06e bc3d 4bb7 77bd
000003d0: ea96 be3d 241b ac3d 76db ea3d 90e0 243e
000003e0: b6de f9bc 4e04 ccbd bed5 373e 9386 f43b
000003f0: 11c3 2f3d 7782 17bd 617c 033e 4de0 053d
-0.0057407543 0.0030239497 -0.030161763 -0.001004311 -0.10958198 -0.105213605 -0.09252178 0.15156694
0.05527577 0.056815863 0.10665014 0.057805084 -0.08392837 0.105702445 0.018879605 -0.14199138
0.005519614 -0.067902066 -0.13384111 0.0022134099 0.0738581 -0.06060705 0.066459276 -0.007256402
0.05039412 -0.008874901 -0.13853113 -0.043213222 -0.013571401 -0.034670074 0.06668082 0.018446768
-0.009784621 0.06022121 0.0147967525 -0.06811527 0.14527012 -0.05320423 0.100942574 0.036262993
0.033505205 -0.048098117 0.08198076 -0.023686444 -0.13805753 0.009619165 -0.17019822 -0.067742765
0.035663854 0.018928872 0.0061416104 0.08301182 -0.03097658 0.045392167 -0.061120097 -0.0020874448
-0.01783919 -0.032802574 -0.007279604 -0.18706374 -0.008092878 -0.10637933 0.13564812 0.029965157
-0.0063114916 0.053879127 -0.15732637 -0.14449604 0.19334756 -0.021055123 -0.15455636 -0.09124503
0.044945937 -0.069746196 0.032607798 -0.07557602 -0.1389879 -0.052619047 -0.00063436746 0.05762114
0.017736183 0.023098685 -0.068325505 -0.043110397 0.025486218 0.039216865 -0.14488389 0.068908684
-0.043711778 -0.0074118334 -0.090181544 0.020094147 0.041902345 0.13707408 -0.0036828383 0.08821837
-0.0007426906 0.038496055 -0.09916291 -0.017248776 -0.17236987 0.12308903 -0.03876414 0.055388458
-0.10349565 0.04968348 -0.046776284 -0.033398256 0.027212687 0.014945148 0.104136534 0.052723378
-0.042619314 0.030694317 0.064321585 0.08715929 0.05862319 0.0102873 -0.022516701 -0.040625595
-0.06905528 -0.10125924 0.045359116 -0.104427844 0.13538852 0.10279577 -0.04148903 -0.05343702
-0.044097356 0.093640104 -0.18584496 0.02676549 0.059765715 -0.14116667 0.028496457 -0.14885776
-0.092259996 -0.01717309 0.09825452 0.08172606 -0.07845867 0.13456179 0.04398773 -0.04014558
0.081979804 -0.16485876 -0.017255407 -0.01585626 0.06699303 -0.108410925 -0.05777996 -0.11802562
0.007499622 -0.011879798 0.031716455 -0.03653105 0.04461288 -0.012461838 -0.024785712 -0.07808172
-0.020137724 0.04165206 -0.0006308896 -0.13961008 -0.12685086 -0.018151196 -0.03129613 -0.031157805
-0.037165854 0.008349735 0.0001635536 -0.010984186 -0.16508573 0.110627 -0.01628292 0.03544428
0.07300846 0.116953075 0.10318267 0.00088028004 0.061304264 -0.09604669 -0.018226128 0.07295564
-0.102396145 0.11175495 -0.117643066 0.026550356 -0.011537702 0.115084425 0.053935863 -0.0425203
0.032392103 0.08212352 0.039895505 -0.07019847 -0.12813942 -0.047947742 -0.071762 -0.09791853
0.083891325 0.07799964 -0.0580552 0.11188802 -0.042192694 0.038921334 0.031828303 0.042673737
0.02062974 -0.04081692 -0.07065513 0.08763502 -0.0052633914 -0.088976495 0.012220718 0.08753553
-0.018637175 -0.066979796 0.062172413 -0.072402425 -0.036587715 0.026366688 0.019784642 0.09068059
-0.018350165 0.076612286 0.020289773 0.055847567 -0.12545082 0.056760877 -0.05915637 0.0568825
0.122650646 -0.057801563 -0.013595139 0.019322604 0.0728007 -0.20583266 -0.045386437 -0.041596305
0.01887028 0.023994897 0.09200835 -0.060477536 0.09306128 0.08403614 0.1146764 0.16101289
-0.030501705 -0.099617586 0.1795263 0.0074623316 0.04291064 -0.036989655 0.12840416 0.032684613

fc2.bias f4 [300]
00000000: 94a9 913d 3d2c 903d d55f f93c 4a49 0c3e
00000010: 69cb a9bb a061 153d 513a 58bc 0054 253d
00000020: eda2 b33d 6421 8b3c 5ad4 18bd 9063 2c3b
00000030: d03d 053d 211a ba3d 3dec 223d 8c23 0cbd
00000040: bf67 60bd 3ad8 703d 0aad c33d ab35 0c3d
00000050: f054 fe3d 4321 993a 099f 633d cd5d 4c3d
00000060: d8bb ef3d 97cf 1d3d 503b 84bc 4d3e c33d
00000070: 8d6c 623d d3ce 063e 6a12 8f3d dc2d 663c
00000080: cdce ec3d 8521 aa3d 0806 1e3d 65fa 673d
00000090: 803f 63bc 44e4 03bd 68fb bc3c f392 e83d
000000a0: 87c1 953c f568 9d3d f94f 963c 5ef4 ba3d
000000b0: 654f 943d fc85 fcbb f348 5b3d fe13 22bd
000000c0: 7c2f 8a3d 43ae 9bbd 26ec cf3c 11c9 223d
000000d0: 4a6b 0abc b3c1 973c c960 883d d0fe d53c
000000e0: 8d01 a0bb f798 9e3c ee74 aebb c76f 8ebc
000000f0: 00cb a83c 011d cd3c 508d 9abb d90e 21bd
00000100: 4430 363d d128 733c b669 a83b a450 3e3c
00000110: 0d31 2fbc 2282 45bc 931f 9e3d 50fc 08bd
00000120: 1f07 da3d 12cb d3bc 401c a13d 0aee eebc
00000130: 188f 27bd 5430 8f3b cecc 783d f23f 59bc
00000140: 7ff3 4ebd 006e 753d ab7d 99bd f57c d73d
00000150: c16d fa3c b1f6 aa3d a55a 7fbc 5241 803c
00000160: f39e f0bb 18e5 e53d 861f 593c 92ae 5ebd
00000170: 6cd8 8f3d 8490 903d c657 513d 7416 013d
00000180: f37d ac3c 5300 7f3d 5124 afbb c860 0c3e
00000190: 7030 5f3d f3e6 e53c 8f01 373d aad2 523d
000001a0: 99ac db3c 3d2d 36bd ca5d 9bbc ef8a cb3c
000001b0: b2ae 653d 114f a33c 8569 a43d 6f83 813d
000001c0: ac2f 1f3a 4d93 c2bc 11dd 2bbd 7724 6e3d
000001d0: 2d4a 933d 5825 883d ff5c 983c 7b69 273d
000001e0: 7c50 803c 6ba8 90bd 5594 d93d f630 4e3d
000001f0: d41e 063d eefc ca3d 93db 1a3d 87d8 1e3d
00000200: 1679 b83c 7e9c a63d 9e3d ee3c 94ba 9b3d
00000210: d8fc c338 545f 14bd 941e de3d 98d7 d43d
00000220: 4004 8d3d d7ae b43d 2cd8 f13b f343 773c
00000230: f4f6 c4bc 66c4 ffbc ce0a 2fbd 86a2 bb3c
00000240: 711d eb3c 8932 373d 64aa 3a3d 8259 713d
00000250: 4f77 43bc 1563 ad3d 4386 abbd ad3a 313d
00000260: dcd6 b13d 4178 e63d c8f7 ccbc ee39 a63d
00000270: 7c67 583c 7955 5c3d 1972 0abe 3aed 77bb
00000280: 1824 533d 153f d73d 0a27 17bd f86e 4c3c
00000290: beea 253d 96c1 bebc a1d9 12bd c0f3 833d
000002a0: 604f 87bc 3847 3e3d 158a c03d e843 99bc
000002b0: a760 c0bc 3115 9f3d 47e6 2d3d 7c99 d13c
000002c0: 7873 19bd 5777 953d 21a7 783d 590b 823c
000002d0: 828b 5c3d d0f8 b83d 19fc f93d c673 2bbd
000002e0: a122 373d b36b 603d b6c0 5b3d 8548 a93c
000002f0: 52f7 9f3d 0860 7f3d 68d6 f13c 91dd 5a3d
00000300: 4c08 173d 6b87 06bb 972b ff3d 7343 303d
00000310: c001 9ebc 09dc 6c3d 49d2 79bc 47c1 6b3d
00000320: ebe4 4cbc 15d8 903d c6b9 dcbd e230 9c3d
00000330: a573 ae3d bef8 d5bb f2a3 953d d36f 6fbd
00000340: 00a2 74bd 02d6 913c 313f 07bb 33cc 1a3d
00000350: 8297 78bd f490 643d 396d 533d b2b9 143e
00000360: 23d9 44bd 35f9 95bb d0d0 ea3c a50d 083c
00000370: fcb0 a3bc a160 873d 9577 17bd 8fb7 013d
00000380: 9afa 003e 764d 0e3c 4f51 823d ed57 b43d
00000390: 9f99 e0bc 9def 9c3d c22e cd3c c3e7 9c3d
000003a0: 2425 ab3c 8553 803d 78c7 603d 6775 9f3c
000003b0: 9a76 f8bc db08 c83d d608 bebc 7523 223d
000003c0: 95e9 a73d 1129 f93d f946 603c 38ad 41bc
000003d0: 30ed 013e 7b40 6fbb 06e6 903d d80b 45bc
000003e0: f89e 6d3d 730f d23c 771e c23a 7e0e b53d
000003f0: 1cb2 aebc a3b1 a43d dc1a fc3c 9c78 1dbb
0.071124226 0.07039688 0.030441204 0.13699833 -0.005181719 0.036470056 -0.013197497 0.04036331
0.0877131 0.016983695 -0.03731189 0.002630446 0.032529652 0.09087015 0.039776076 -0.034213588
-0.05478644 0.05879996 0.09554489 0.03423087 0.12418544 0.0011682886 0.05557159 0.049894143
0.1170575 0.03852805 -0.016141564 0.09533367 0.055279303 0.13164835 0.06985934 0.01404902
0.115628816 0.083071746 0.03857997 0.05663528 -0.01387012 -0.032200113 0.023069099 0.11356153
0.018280758 0.076860346 0.01834868 0.091286406 0.07241706 -0.007706402 0.053536367 -0.039569847
0.06747338 -0.07601597 0.025381159 0.039742533 -0.008448431 0.01852498 0.06659085 0.02612248
-0.0048829974 0.019360049 -0.0053239977 -0.017387284 0.02060461 0.025038244 -0.004716553 -0.0393208
0.044479623 0.014841274 0.005139555 0.011615906 -0.010692847 -0.012054952 0.07720866 -0.03344375
0.106458895 -0.025853667 0.078667164 -0.02916624 -0.04090795 0.004369775 0.060742192 -0.013259875
-0.050525185 0.059919357 -0.074946724 0.105218805 0.030569913 0.08347834 -0.015585576 0.015656147
-0.007343167 0.11225337 0.013252145 -0.054365702 0.07023701 0.07058814 0.051109098 0.031515554
0.021056151 0.06225617 -0.0053449054 0.13708794 0.054489553 0.028064227 0.04467922 0.051470436
0.0268157 -0.044476736 -0.01896562 0.024846522 0.056074806 0.019935163 0.08027939 0.06323897
0.00060724723 -0.02375188 -0.041958872 0.058140244 0.07191882 0.06647748 0.018599031 0.04087208
0.015663378 -0.07063373 0.10623995 0.05033966 0.032744244 0.09911524 0.03780706 0.038780715
0.022518676 0.08135317 0.029082116 0.07603946 9.3454204e-05 -0.036223724 0.10845676 0.10392684
0.06885576 0.088224106 0.007380506 0.015091884 -0.024043538 -0.03122158 -0.042734914 0.022904646
0.028700562 0.04472593 0.045572653 0.058923252 -0.011930301 0.08466164 -0.08375218 0.04326885
0.08683559 0.11253405 -0.025020495 0.08116518 0.013208266 0.05379245 -0.13520087 -0.0037830607
0.051548094 0.10510079 -0.036902465 0.012477629 0.04050707 -0.023285668 -0.03585208 0.06442976
-0.016517341 0.04645464 0.09401337 -0.018709138 -0.023483587 0.07767714 0.042455938 0.025585882
-0.037463635 0.07298153 0.06070626 0.015874552 0.053843983 0.09031832 0.12206287 -0.041858457
0.04471076 0.05479021 0.05365058 0.020664463 0.078108445 0.062347442 0.029521182 0.05343396
0.036873147 -0.0020527493 0.12459486 0.043033075 -0.019287944 0.05782703 -0.01524789 0.05755737
-0.01250575 0.070724644 -0.10777621 0.07626511 0.08518151 -0.0065298965 0.07306661 -0.058456253
-0.059724808 0.017802242 -0.002063703 0.037792396 -0.060691364 0.0558023 0.051617835 0.14523962
-0.04805864 -0.004576827 0.028664023 0.008304034 -0.019981854 0.066102274 -0.036979277 0.031669196
0.12595597 0.00868546 0.06363165 0.08805833 -0.027417002 0.0766289 0.02504671 0.076613925
0.020891733 0.0626593 0.05487773 0.019465161 -0.030329991 0.09767314 -0.023197573 0.039584596
0.08198849 0.12166036 0.013688796 -0.011821084 0.12688136 -0.003650694 0.070751235 -0.01202675
0.058012933 0.025642132 0.0014810105 0.08840655 -0.021325164 0.08041694 0.030774526 -0.0024028188

fc3.weight f4 [4, 300]
00000000: c665 9d3b ff9a d63c a389 34bc 9abd e7bd
00000010: f943 4b3c 70e9 2f3e 8e8a 31be a9e3 343e
00000020: a6db 33be 6cc3 e03c c387 9f3d fad2 fcbd
00000030: 2a65 c03c 4530 0fbe ca18 10be 368e 1d3c
00000040: 6d08 933e dc61 3fbd 8397 3bbe ab9b debd
00000050: 08f6 f93c 73e7 26be fefe 18be 8ed4 413d
00000060: bdad b6bc 4256 8dbe e48e c03e a3ec bbbd
00000070: 1480 713b f35c e9bd 4379 2939 5c91 373c
00000080: 800b 91bd c120 00bd ccfc c3bb 6fed b63d
00000090: 2ee5 02bc 7815 0bbd e8d5 30be a4ee 123d
000000a0: 15c5 8a3e 4b00 463d bbcd 75be 30b3 1fbe
000000b0: 1b1a ffbc ba5b 933d 5082 7d3c 8784 0d3e
000000c0: 6f70 7cbe 7f8e 603e f8b4 f8bd 1daa a13d
000000d0: f4d8 88bd e61f 173e d5ae f2bd a47a 44be
000000e0: 1167 15be 6a40 873c 0c5e 9cbd 4270 2ebe
000000f0: 8184 8fbd 88a9 1cbc 0d2d a83e 1a42 afbd
00000100: 6a85 c23d 0837 b1bd 3f7a 1dba 9302 553c
00000110: ab70 1b3d b777 2bbe 9c33 063e c1d2 6bbd
00000120: 8f26 14bd 6c72 13be e0cb 1dbd 44b3 8d3e
00000130: 2ef3 ec3c d28c 8b3d 7368 613c 6d4b 8abd
00000140: 6f70 87bd aad2 723d 677a 993d 577e 72be
00000150: 6e78 86bd 63d9 06bd 98d5 9f3d 67fd c33d
00000160: 414d 253d 88ce 85be a30e 053b 9d6d 4f3b
00000170: 4641 f7bd 5ff4 9dbd ac09 bb3d 4956 e0bc
00000180: dc6f 1bbc 36c4 a2bd dde2 26be 28a8 cebd
00000190: b05b a7bb bf5c cf3d fce8 f03d 20be 853d
000001a0: 6c7b 543e 80d8 4dbd edf7 44bd 1b4e c2bd
000001b0: 072a 3dbd 7ca7 4a3d 197a 6dbe f8e3 343c
000001c0: d435 4f3e 2386 c33c 0dbd c2be 2833 b8bc
000001d0: f47c a3bd 3664 35bc 9a17 97be 7c33 98bd
000001e0: 9a88 4ebd 2ee2 913d e585 f7bd 1a36 e8bb
000001f0: 9d86 2b3d 313e 83be 71f5 b23d e8ab ecbd
00000200: 99e2 7abc 346b 19be 460d e0bc 4b6c 863d
00000210: 1506 1bbd ad51 763d bde3 763d d1de c6bc
00000220: 5ed2 4d3c ff2c 5abe a833 9d3d e299 863d
00000230: dec4 6abd 7531 01bc 5441 2b3d 2423 22be
00000240: e690 953b 65b5 ca3b bad4 cf3d 4387 ac3d
00000250: 4614 22bb d32b 0f3d ccb2 0a3e 47fb 49bd
00000260: de16 a5bd c441 81be 6be8 1d3e 3d6d 2fbd
00000270: af6b f4bb 8ff6 c53d daa7 ab3e 5f01 c6bc
00000280: 836f 1bbe 789e f5bd b2ee a73d ef7f 20bd
00000290: eba4 a6bd 7bff 543d 95f0 b13d 0685 fa3d
000002a0: 7b6d 3d3c fc05 e93c 7e83 b9ba 3036 48bd
000002b0: aec9 1f3d db27 4fbb f236 8e3d 15a0 a23d
000002c0: 270c 003c 0d56 9cbd c9a9 25be 5751 a83d
000002d0: 8e01 64be c7c3 b0bd 20af 2ebe b291 053e
000002e0: e1dc 8cbc 9679 6bbe f29e 2d3d 6d68 843b
000002f0: 599e e7bd 325c 76be f42b 60be 01d5 dcbc
00000300: 6d46 c43c b6bc 1bbd 6042 61bd 283b 5f3d
00000310: 31b5 8bbc 1a5d ad3c 2959 85bd 2a5c f7bd
00000320: 3fcd a13e 8901 81be 03de 513e 5b8a 0e3b
00000330: e8e2 e7bd eb4c d73d 8e17 7bbc 326a 0c3e
00000340: c1b6 753e 467d dbbd 4c35 afbc 5928 d43d
00000350: 9144 30bb 85cb a2bd 2ef5 4cbe 39ac 64be
00000360: 488a ddbd 257c 1a3e bc54 bd3d 908c 7a3e
00000370: 015f 28be a63c 7abe 5942 443e 8038 22be
00000380: a029 90bd 5cd3 fcbd 8133 9d3d 7a73 8cbd
00000390: a493 c23d da1b 773a 4919 e3bd 32fc b1bd
000003a0: 613c f53d 0e5e 40bc 9b73 333e 4916 b53d
000003b0: 360d f2bd 363a a9bd 6b2f 233d 96ca 893d
000003c0: b05a 96bd 558e 5abd 9897 4abd b8e9 ce3c
000003d0: ccdd 12be af86 3ebd 131b 2e3d 71ca 17bd
000003e0: 7441 553e 0946 f2bc 14f3 dbbd e964 2ebe
000003f0: 4a83 983d bb5f c6bd 4ff5 4d3d e61a cf3c
0.004803392 0.026196955 -0.011019143 -0.113154605 0.012406343 0.17178893 -0.1733801 0.1766497
-0.17564258 0.027436934 0.07789566 -0.12344928 0.023485739 -0.13983257 -0.14071956 0.009616425
0.28717366 -0.046724185 -0.18319516 -0.10869535 0.030512825 -0.16299228 -0.14941022 0.04732185
-0.022299642 -0.27604872 0.37609017 -0.09175994 0.0036850022 -0.11394682 0.0001616227 0.01120409
-0.070822716 -0.031281237 -0.0059810635 0.089320056 -0.007989211 -0.03395602 -0.17269099 0.035872117
0.27103487 0.048340123 -0.24004261 -0.15595698 -0.031140378 0.0719523 0.015472963 0.13820086
-0.24652265 0.21929358 -0.12143892 0.07893775 -0.066820055 0.14758262 -0.11849753 -0.19187409
-0.14590098 0.016510207 -0.076351255 -0.1703501 -0.07007695 -0.009561904 0.3284687 -0.0855753
0.09498103 -0.086530745 -0.0006007291 0.013001102 0.037949245 -0.16744886 0.13105625 -0.057574037
-0.036169585 -0.14399117 -0.03852451 0.2767583 0.02892455 0.06813969 0.013757813 -0.067526676
-0.06613242 0.059282936 0.074940495 -0.23681007 -0.06565939 -0.03292216 0.07804412 0.09569817
0.04035688 -0.26134133 0.0020302914 0.0031651028 -0.12072997 -0.07712626 0.09132704 -0.027384894
-0.009487119 -0.079475805 -0.16297479 -0.10090667 -0.0051073655 0.10125112 0.11763188 0.06530404
0.20750207 -0.0502553 -0.048088003 -0.09487554 -0.04618266 0.04947613 -0.23191108 0.01104068
0.20235378 0.023867672 -0.3803486 -0.02248533 -0.07982817 -0.011071255 -0.29510194 -0.07431695
-0.050423242 0.071232185 -0.12086085 -0.0070865275 0.041876424 -0.25633386 0.087382205 -0.11556226
-0.015312814 -0.14982301 -0.02735008 0.06563624 -0.037847597 0.060136486 0.060275782 -0.024276169
0.0125623625 -0.21306227 0.07675868 0.065723196 -0.057316653 -0.007885327 0.04181035 -0.15833718
0.0045643924 0.0061861747 0.10147996 0.084242366 -0.0024731322 0.034953903 0.13544768 -0.049311902
-0.08061002 -0.25245488 0.15420692 -0.042828787 -0.007459126 0.09666168 0.33526498 -0.024170576
-0.15179257 -0.11993116 0.081998244 -0.039184507 -0.08136924 0.052001458 0.086884655 0.122324035
0.011561747 0.028445236 -0.0014153568 -0.048879802 0.039010696 -0.003160945 0.06944074 0.079406895
0.007815397 -0.076336004 -0.16178049 0.08218639 -0.22266218 -0.086310916 -0.17058992 0.1304386
-0.017195167 -0.229956 0.04238791 0.004040769 -0.11309499 -0.24058607 -0.21891767 -0.026957037
0.023959363 -0.038021766 -0.05499494 0.054499775 -0.017054172 0.021162558 -0.065111466 -0.12078126
0.31601903 -0.25196484 0.20494847 0.0021749947 -0.11322576 0.10512718 -0.01532544 0.13712385
0.23995496 -0.107172534 -0.021387719 0.10359258 -0.0026896338 -0.079489745 -0.20015404 -0.22331323
-0.10817391 0.1508642 0.092446774 0.24467683 -0.16442491 -0.24437198 0.19165935 -0.15841866
-0.07039189 -0.12345001 0.07675839 -0.06857963 0.095008165 0.00094264525 -0.11088807 -0.086906806
0.11974407 -0.011741174 0.17524569 0.08842141 -0.11818926 -0.08263056 0.039840143 0.06728093
-0.07341516 -0.053358395 -0.049460977 0.02525793 -0.14342421 -0.046515163 0.04250629 -0.037058298
0.2082575 -0.029574411 -0.10739723 -0.17030682 0.074469164 -0.09686228 0.050282773 0.02528138

fc3.bias f4 [4]
00000000: cb9f 87bd 2f5f a8bc c68c 9a3d 9bf4 753b
-0.06622275 -0.0205532 0.07546382 0.003752983

bn1.weight f4 [400]
00000000: d42c 223e 2cfa 783f 9667 913e 432a 5d3f
00000010: 18f0 fb3e 7934 253f 004d 5c3d 26be 573f
00000020: c09a 513c f5a9 0a3f 20ef db3c 7c54 3b3f
00000030: 0296 f33e 8ec9 c43e 00ad 8c3e 2a53 d33e
00000040: 40ef 253d b0c9 893e 6487 053e e0b5 af3c
00000050: 05b5 3c3f 00c0 f13a 58c0 0a3f 3f14 4a3f
00000060: 6975 383f 804c 283e 407e b73e 980a a13e
00000070: 88bf 483f 9d1f 7f3f e615 263f 5c1c 5b3e
00000080: a89c 683f a075 fb3d 0080 2439 89a9 1c3f
00000090: baf4 193f af8f 043f 0c50 bb3e 46cc 8a3e
000000a0: 7f90 043f 8839 ca3e 0c7b 9a3e e2b8 503f
000000b0: a7a3 123f 95ab 463f a478 6b3f eac5 903e
000000c0: e055 2e3d 6092 cf3d d846 973d d293 aa3e
000000d0: 9c51 763f 6878 a23d 1082 4e3d 1832 d33d
000000e0: bd08 1c3f 60fe a03e 18e3 ae3e bc1e 3c3f
000000f0: 9c53 363f 5660 c73e 3091 b43d 2fac 323f
00000100: c68e c53e 8fa1 2b3f 3738 0b3f ace3 d93e
00000110: c672 db3e d64f d83e 8049 3c3c 088c 5c3e
00000120: d657 333f fee1 c53e a1a5 1e3f a858 863d
00000130: bf52 503f aed1 b03e 5f6b 323f c0c6 c13d
00000140: 3d77 783f bfc8 6e3f 413e 513f 2b8e 7b3f
00000150: 9075 b33d 104f 133d a838 0f3f 11bb 2e3f
00000160: 901a b53e d48c 583e ba78 ae3e 0318 4b3f
00000170: 104c 8c3e 60ab 203e e059 313f b46b 223e
00000180: 64ad 693e 5bef 753f 8c26 473e c6ea 5e3f
00000190: 7586 253f 1447 623e def8 f53e 245b 813e
000001a0: f078 a53d 9237 bc3e 4c50 593e d810 aa3e
000001b0: 8077 7c3c 800d 263d f6a4 093f 608c 423d
000001c0: 37db 323f 2d79 433f d81c 2d3e a742 223f
000001d0: 9686 0d3f a052 463d e0bb 063e 28ba 9e3e
000001e0: ef11 0e3f 5600 f33e b8c1 983e 1424 813e
000001f0: 5b7f 5e3f b0db 793e 5886 853e c72f 233f
00000200: a4bd ff3e 369b b33e ee57 fd3e 4e97 753f
00000210: 382e 613e 286e 713f 90a4 073f ec51 1d3e
00000220: af2d 5d3f ea8e 453f 1262 053f 9a74 513f
00000230: 6abd e63e 083e 5f3f c68c 5d3f c5d2 3e3f
00000240: aa5a 423f 1e10 b53e d0e9 d03d daf2 de3e
00000250: 104f 5c3f 9056 9d3e 0226 7b3f 3830 353f
00000260: d803 be3d c2e5 be3e 254c 383f fe42 3b3f
00000270: 78ff 5b3e 3423 3a3e 0d6b 273f f514 223f
00000280: 005c f13a a07b f63d 7855 e63d a0f2 cf3e
00000290: 4312 353f 4e0c 043f b8ea 0b3e 6453 193e
000002a0: c0bb bf3c 0359 6f3f 0c1c ad3e d8f1 a33e
000002b0: 6084 bb3d 11d3 293f 10e7 683f 6bf8 393f
000002c0: 7c06 203f f8c4 893e 38d4 cf3d e97e 443f
000002d0: 1a26 c93e 8af5 a53e 4b7a 7e3f bc2f bb3e
000002e0: 80f3 a23c ebec 5e3f a691 153f e86b 273e
000002f0: 2401 123f 4e3f 713f 469e 543f c671 2b3f
00000300: fa23 363f 7a10 933e b518 783f cef1 3e3f
00000310: 1d5b 023f 00aa 513d 8c75 ce3e 6a7b 133f
00000320: e45e bf3e 5500 3a3f 802f 283d 7837 3c3f
00000330: ec17 2b3f 5aed ff3e 754c 213f 2d80 443f
00000340: 2ccd 3d3f 3011 cf3d 02d1 7e3f 9ca5 753e
00000350: ce81 bf3e 2a39 a23e 47b6 143f 6c66 dd3e
00000360: 802f 4f3f 22af 5c3f 22be 473f e87a d43e
00000370: a871 903d 26f2 733f d855 ae3d 696e 633f
00000380: a0b1 973c 755d 3d3f 808c 243f 88cd 923d
00000390: b0b3 523d 5b04 1b3f b0a2 f93d ac87 103e
000003a0: 3082 d73d 9e8b d33e dfd2 3b3f 4896 ab3d
000003b0: 3883 c03d 0c55 0b3f 8699 9d3e 9608 e73e
000003c0: 0ca7 043f bfd7 3a3f 24be 0b3e 9473 0b3f
000003d0: e8af 413e 0ca1 033e 0161 733f 3cfa db3e
000003e0: 7109 4c3f a335 4d3f 6092 ff3c d783 2a3f
000003f0: 652c 733f 1eb5 e43e 29d0 593f 1185 793f
0.15837413 0.9725673 0.28399342 0.8639261 0.49206614 0.6453319 0.05378437 0.8427452
0.012793243 0.54165584 0.026847422 0.7317579 0.47575384 0.38435024 0.2747574 0.41274387
0.04051137 0.26911688 0.13039929 0.02144903 0.73713714 0.0018444061 0.54199743 0.78937143
0.72054154 0.16435432 0.3583851 0.31453395 0.78417253 0.99657613 0.64877164 0.21397537
0.9086404 0.122782946 0.00015687943 0.6119619 0.6013905 0.51781744 0.36584508 0.27108973
0.51782984 0.39497018 0.30172002 0.8153211 0.57280964 0.77605563 0.9198096 0.28275996
0.042562366 0.10135341 0.07386559 0.33315903 0.96218276 0.07933122 0.050417006 0.10312289
0.60950834 0.31444073 0.34157634 0.73484397 0.7122133 0.38940686 0.08816755 0.6979398
0.3858549 0.67043394 0.5438265 0.42556512 0.42861003 0.4224841 0.011492133 0.21537793
0.700559 0.3864898 0.6197148 0.065598786 0.8137626 0.34534973 0.69695085 0.09461737
0.97056943 0.93275064 0.81735617 0.98263806 0.08762658 0.03596407 0.55945826 0.6825419
0.35371828 0.21147472 0.34076482 0.79333514 0.2740178 0.15690374 0.69277763 0.15861398
0.2282005 0.9606835 0.19448298 0.87076986 0.6465829 0.22097427 0.48041433 0.25264847
0.080797076 0.36761147 0.21222037 0.33215976 0.01540935 0.04054022 0.53767335 0.047497153
0.69865745 0.76356775 0.16905534 0.63382953 0.55283487 0.04841864 0.13157606 0.310014
0.55496114 0.47461194 0.29835296 0.25222838 0.8691308 0.2440021 0.2607906 0.6374478
0.49949372 0.35079354 0.49481148 0.95934 0.21990287 0.9430871 0.5298548 0.15363282
0.8639783 0.77171195 0.5210277 0.81818545 0.45066386 0.8720403 0.8654293 0.7454036
0.7591959 0.3536386 0.10200846 0.43544656 0.8605814 0.30730104 0.9810487 0.707767
0.09278077 0.37284666 0.7199119 0.73149097 0.21484172 0.18177491 0.6539772 0.6331323
0.0018414259 0.12035298 0.112467706 0.40614796 0.7073099 0.51581275 0.13663757 0.14973217
0.023404956 0.93495196 0.3381046 0.3202045 0.09156108 0.66337687 0.90977573 0.7264468
0.62509894 0.26908088 0.101478994 0.7675615 0.39286882 0.32413894 0.99405354 0.36559856
0.0198915 0.8708026 0.58425367 0.16349757 0.5703299 0.9423722 0.83054006 0.6697048
0.71148646 0.28723508 0.969127 0.74587715 0.5092028 0.051187515 0.40324056 0.5761019
0.37377083 0.72656757 0.041060925 0.7352214 0.66833377 0.49985772 0.6300729 0.7675808
0.7414119 0.101107 0.9953767 0.23988956 0.3740372 0.31684238 0.58090633 0.43242204
0.80931854 0.8620473 0.78024495 0.4150002 0.07052928 0.95291364 0.08512467 0.8884035
0.018517315 0.7397073 0.64276886 0.07168108 0.051440895 0.6055352 0.12189233 0.14114255
0.10522878 0.41317457 0.7336864 0.08378273 0.09400028 0.54426646 0.30781192 0.45123738
0.51817393 0.7298545 0.13646752 0.54473233 0.18914759 0.12854403 0.9506989 0.4296435
0.79701906 0.8015997 0.031197727 0.6660742 0.94989616 0.4466943 0.8508325 0.9746867

bn1.bias f4 [400]
00000000: 0000 0000 0000 0000 0000 0000 0000 0000
00000010: 0000 0000 0000 0000 0000 0000 0000 0000
00000020: 0000 0000 0000 0000 0000 0000 0000 0000
00000030: 0000 0000 0000 0000 0000 0000 0000 0000
00000040: 0000 0000 0000 0000 0000 0000 0000 0000
00000050: 0000 0000 0000 0000 0000 0000 0000 0000
00000060: 0000 0000 0000 0000 0000 0000 0000 0000
00000070: 0000 0000 0000 0000 0000 0000 0000 0000
00000080: 0000 0000 0000 0000 0000 0000 0000 0000
00000090: 0000 0000 0000 0000 0000 0000 0000 0000
000000a0: 0000 0000 0000 0000 0000 0000 0000 0000
000000b0: 0000 0000 0000 0000 0000 0000 0000 0000
000000c0: 0000 0000 0000 0000 0000 0000 0000 0000
000000d0: 0000 0000 0000 0000 0000 0000 0000 0000
000000e0: 0000 0000 0000 0000 0000 0000 0000 0000
000000f0: 0000 0000 0000 0000 0000 0000 0000 0000
00000100: 0000 0000 0000 0000 0000 0000 0000 0000
00000110: 0000 0000 0000 0000 0000 0000 0000 0000
00000120: 0000 0000 0000 0000 0000 0000 0000 0000
00000130: 0000 0000 0000 0000 0000 0000 0000 0000
00000140: 0000 0000 0000 0000 0000 0000 0000 0000
00000150: 0000 0000 0000 0000 0000 0000 0000 0000
00000160: 0000 0000 0000 0000 0000 0000 0000 0000
00000170: 0000 0000 0000 0000 0000 0000 0000 0000
00000180: 0000 0000 0000 0000 0000 0000 0000 0000
00000190: 0000 0000 0000 0000 0000 0000 0000 0000
000001a0: 0000 0000 0000 0000 0000 0000 0000 0000
000001b0: 0000 0000 0000 0000 0000 0000 0000 0000
000001c0: 0000 0000 0000 0000 0000 0000 0000 0000
000001d0: 0000 0000 0000 0000 0000 0000 0000 0000
000001e0: 0000 0000 0000 0000 0000 0000 0000 0000
000001f0: 0000 0000 0000 0000 0000 0000 0000 0000
00000200: 0000 0000 0000 0000 0000 0000 0000 0000
00000210: 0000 0000 0000 0000 0000 0000 0000 0000
00000220: 0000 0000 0000 0000 0000 0000 0000 0000
00000230: 0000 0000 0000 0000 0000 0000 0000 0000
00000240: 0000 0000 0000 0000 0000 0000 0000 0000
00000250: 0000 0000 0000 0000 0000 0000 0000 0000
00000260: 0000 0000 0000 0000 0000 0000 0000 0000
00000270: 0000 0000 0000 0000 0000 0000 0000 0000
00000280: 0000 0000 0000 0000 0000 0000 0000 0000
00000290: 0000 0000 0000 0000 0000 0000 0000 0000
000002a0: 0000 0000 0000 0000 0000 0000 0000 0000
000002b0: 0000 0000 0000 0000 0000 0000 0000 0000
000002c0: 0000 0000 0000 0000 0000 0000 0000 0000
000002d0: 0000 0000 0000 0000 0000 0000 0000 0000
000002e0: 0000 0000 0000 0000 0000 0000 0000 0000
000002f0: 0000 0000 0000 0000 0000 0000 0000 0000
00000300: 0000 0000 0000 0000 0000 0000 0000 0000
00000310: 0000 0000 0000 0000 0000 0000 0000 0000
00000320: 0000 0000 0000 0000 0000 0000 0000 0000
00000330: 0000 0000 0000 0000 0000 0000 0000 0000
00000340: 0000 0000 0000 0000 0000 0000 0000 0000
00000350: 0000 0000 0000 0000 0000 0000 0000 0000
00000360: 0000 0000 0000 0000 0000 0000 0000 0000
00000370: 0000 0000 0000 0000 0000 0000 0000 0000
00000380: 0000 0000 0000 0000 0000 0000 0000 0000
00000390: 0000 0000 0000 0000 0000 0000 0000 0000
000003a0: 0000 0000 0000 0000 0000 0000 0000 0000
000003b0: 0000 0000 0000 0000 0000 0000 0000 0000
000003c0: 0000 0000 0000 0000 0000 0000 0000 0000
000003d0: 0000 0000 0000 0000 0000 0000 0000 0000
000003e0: 0000 0000 0000 0000 0000 0000 0000 0000
000003f0: 0000 0000 0000 0000 0000 0000 0000 0000
0.0 0.0 0.0 0.0 0.0 0.0 0.0 0.0
0.0 0.0 0.0 0.0 0.0 0.0 0.0 0.0
0.0 0.0 0.0 0.0 0.0 0.0 0.0 0.0
0.0 0.0 0.0 0.0 0.0 0.0 0.0 0.0
0.0 0.0 0.0 0.0 0.0 0.0 0.0 0.0
0.0 0.0 0.0 0.0 0.0 0.0 0.0 0.0
0.0 0.0 0.0 0.0 0.0 0.0 0.0 0.0
0.0 0.0 0.0 0.0 0.0 0.0 0.0 0.0
0.0 0.0 0.0 0.0 0.0 0.0 0.0 0.0
0.0 0.0 0.0 0.0 0.0 0.0 0.0 0.0
0.0 0.0 0.0 0.0 0.0 0.0 0.0 0.0
0.0 0.0 0.0 0.0 0.0 0.0 0.0 0.0
0.0 0.0 0.0 0.0 0.0 0.0 0.0 0.0
0.0 0.0 0.0 0.0 0.0 0.0 0.0 0.0
0.0 0.0 0.0 0.0 0.0 0.0 0.0 0.0
0.0 0.0 0.0 0.0 0.0 0.0 0.0 0.0
0.0 0.0 0.0 0.0 0.0 0.0 0.0 0.0
0.0 0.0 0.0 0.0 0.0 0.0 0.0 0.0
0.0 0.0 0.0 0.0 0.0 0.0 0.0 0.0
0.0 0.0 0.0 0.0 0.0 0.0 0.0 0.0
0.0 0.0 0.0 0.0 0.0 0.0 0.0 0.0
0.0 0.0 0.0 0.0 0.0 0.0 0.0 0.0
0.0 0.0 0.0 0.0 0.0 0.0 0.0 0.0
0.0 0.0 0.0 0.0 0.0 0.0 0.0 0.0
0.0 0.0 0.0 0.0 0.0 0.0 0.0 0.0
0.0 0.0 0.0 0.0 0.0 0.0 0.0 0.0
0.0 0.0 0.0 0.0 0.0 0.0 0.0 0.0
0.0 0.0 0.0 0.0 0.0 0.0 0.0 0.0
0.0 0.0 0.0 0.0 0.0 0.0 0.0 0.0
0.0 0.0 0.0 0.0 0.0 0.0 0.0 0.0
0.0 0.0 0.0 0.0 0.0 0.0 0.0 0.0
0.0 0.0 0.0 0.0 0.0 0.0 0.0 0.0

bn1.running_mean f4 [400]
00000000: 0000 0000 0000 0000 0000 0000 0000 0000
00000010: 0000 0000 0000 0000 0000 0000 0000 0000
00000020: 0000 0000 0000 0000 0000 0000 0000 0000
00000030: 0000 0000 0000 0000 0000 0000 0000 0000
00000040: 0000 0000 0000 0000 0000 0000 0000 0000
00000050: 0000 0000 0000 0000 0000 0000 0000 0000
00000060: 0000 0000 0000 0000 0000 0000 0000 0000
00000070: 0000 0000 0000 0000 0000 0000 0000 0000
00000080: 0000 0000 0000 0000 0000 0000 0000 0000
00000090: 0000 0000 0000 0000 0000 0000 0000 0000
000000a0: 0000 0000 0000 0000 0000 0000 0000 0000
000000b0: 0000 0000 0000 0000 0000 0000 0000 0000
000000c0: 0000 0000 0000 0000 0000 0000 0000 0000
000000d0: 0000 0000 0000 0000 0000 0000 0000 0000
000000e0: 0000 0000 0000 0000 0000 0000 0000 0000
000000f0: 0000 0000 0000 0000 0000 0000 0000 0000
00000100: 0000 0000 0000 0000 0000 0000 0000 0000
00000110: 0000 0000 0000 0000 0000 0000 0000 0000
00000120: 0000 0000 0000 0000 0000 0000 0000 0000
00000130: 0000 0000 0000 0000 0000 0000 0000 0000
00000140: 0000 0000 0000 0000 0000 0000 0000 0000
00000150: 0000 0000 0000 0000 0000 0000 0000 0000
00000160: 0000 0000 0000 0000 0000 0000 0000 0000
00000170: 0000 0000 0000 0000 0000 0000 0000 0000
00000180: 0000 0000 0000 0000 0000 0000 0000 0000
00000190: 0000 0000 0000 0000 0000 0000 0000 0000
000001a0: 0000 0000 0000 0000 0000 0000 0000 0000
000001b0: 0000 0000 0000 0000 0000 0000 0000 0000
000001c0: 0000 0000 0000 0000 0000 0000 0000 0000
000001d0: 0000 0000 0000 0000 0000 0000 0000 0000
000001e0: 0000 0000 0000 0000 0000 0000 0000 0000
000001f0: 0000 0000 0000 0000 0000 0000 0000 0000
00000200: 0000 0000 0000 0000 0000 0000 0000 0000
00000210: 0000 0000 0000 0000 0000 0000 0000 0000
00000220: 0000 0000 0000 0000 0000 0000 0000 0000
00000230: 0000 0000 0000 0000 0000 0000 0000 0000
00000240: 0000 0000 0000 0000 0000 0000 0000 0000
00000250: 0000 0000 0000 0000 0000 0000 0000 0000
00000260: 0000 0000 0000 0000 0000 0000 0000 0000
00000270: 0000 0000 0000 0000 0000 0000 0000 0000
00000280: 0000 0000 0000 0000 0000 0000 0000 0000
00000290: 0000 0000 0000 0000 0000 0000 0000 0000
000002a0: 0000 0000 0000 0000 0000 0000 0000 0000
000002b0: 0000 0000 0000 0000 0000 0000 0000 0000
000002c0: 0000 0000 0000 0000 0000 0000 0000 0000
000002d0: 0000 0000 0000 0000 0000 0000 0000 0000
000002e0: 0000 0000 0000 0000 0000 0000 0000 0000
000002f0: 0000 0000 0000 0000 0000 0000 0000 0000
00000300: 0000 0000 0000 0000 0000 0000 0000 0000
00000310: 0000 0000 0000 0000 0000 0000 0000 0000
00000320: 0000 0000 0000 0000 0000 0000 0000 0000
00000330: 0000 0000 0000 0000 0000 0000 0000 0000
00000340: 0000 0000 0000 0000 0000 0000 0000 0000
00000350: 0000 0000 0000 0000 0000 0000 0000 0000
00000360: 0000 0000 0000 0000 0000 0000 0000 0000
00000370: 0000 0000 0000 0000 0000 0000 0000 0000
00000380: 0000 0000 0000 0000 0000 0000 0000 0000
00000390: 0000 0000 0000 0000 0000 0000 0000 0000
000003a0: 0000 0000 0000 0000 0000 0000 0000 0000
000003b0: 0000 0000 0000 0000 0000 0000 0000 0000
000003c0: 0000 0000 0000 0000 0000 0000 0000 0000
000003d0: 0000 0000 0000 0000 0000 0000 0000 0000
000003e0: 0000 0000 0000 0000 0000 0000 0000 0000
000003f0: 0000 0000 0000 0000 0000 0000 0000 0000
0.0 0.0 0.0 0.0 0.0 0.0 0.0 0.0
0.0 0.0 0.0 0.0 0.0 0.0 0.0 0.0
0.0 0.0 0.0 0.0 0.0 0.0 0.0 0.0
0.0 0.0 0.0 0.0 0.0 0.0 0.0 0.0
0.0 0.0 0.0 0.0 0.0 0.0 0.0 0.0
0.0 0.0 0.0 0.0 0.0 0.0 0.0 0.0
0.0 0.0 0.0 0.0 0.0 0.0 0.0 0.0
0.0 0.0 0.0 0.0 0.0 0.0 0.0 0.0
0.0 0.0 0.0 0.0 0.0 0.0 0.0 0.0
0.0 0.0 0.0 0.0 0.0 0.0 0.0 0.0
0.0 0.0 0.0 0.0 0.0 0.0 0.0 0.0
0.0 0.0 0.0 0.0 0.0 0.0 0.0 0.0
0.0 0.0 0.0 0.0 0.0 0.0 0.0 0.0
0.0 0.0 0.0 0.0 0.0 0.0 0.0 0.0
0.0 0.0 0.0 0.0 0.0 0.0 0.0 0.0
0.0 0.0 0.0 0.0 0.0 0.0 0.0 0.0
0.0 0.0 0.0 0.0 0.0 0.0 0.0 0.0
0.0 0.0 0.0 0.0 0.0 0.0 0.0 0.0
0.0 0.0 0.0 0.0 0.0 0.0 0.0 0.0
0.0 0.0 0.0 0.0 0.0 0.0 0.0 0.0
0.0 0.0 0.0 0.0 0.0 0.0 0.0 0.0
0.0 0.0 0.0 0.0 0.0 0.0 0.0 0.0
0.0 0.0 0.0 0.0 0.0 0.0 0.0 0.0
0.0 0.0 0.0 0.0 0.0 0.0 0.0 0.0
0.0 0.0 0.0 0.0 0.0 0.0 0.0 0.0
0.0 0.0 0.0 0.0 0.0 0.0 0.0 0.0
0.0 0.0 0.0 0.0 0.0 0.0 0.0 0.0
0.0 0.0 0.0 0.0 0.0 0.0 0.0 0.0
0.0 0.0 0.0 0.0 0.0 0.0 0.0 0.0
0.0 0.0 0.0 0.0 0.0 0.0 0.0 0.0
0.0 0.0 0.0 0.0 0.0 0.0 0.0 0.0
0.0 0.0 0.0 0.0 0.0 0.0 0.0 0.0
