continuous_control/critic_100.pth (torch_old, 562249 bytes, 21 tensors)

fcs1.weight f4 [400, 33]
0	0xb830e8ac	-4.2178362e-05
1	0xb85c456c	-5.251674e-05
2	0xb98fb4a5	-0.00027409676
3	0xb8497e37	-4.803968e-05
4	0xb87bb111	-6.000797e-05
5	0x37d57171	2.5444404e-05
6	0xb87e5819	-6.0640366e-05
7	0xb9c4284c	-0.00037414057
8	0xb7043a1f	-7.8813455e-06
9	0xb805d0f4	-3.1904274e-05
10	0xb96ad432	-0.00022395028
11	0xb8669cd7	-5.498234e-05
12	0x3881025a	6.151637e-05
13	0x38e7bfd1	0.00011050667
14	0x3a52a9a4	0.00080361427
15	0xb9fca17a	-0.00048185495
16	0xb79bb66b	-1.8562385e-05
17	0x3841fdd2	4.6251174e-05
18	0x377299e0	1.4460151e-05
19	0x3896b552	7.186331e-05
20	0xb9850d1a	-0.00025377498
21	0x39bb12cc	0.00035681424
22	0x3915e113	0.00014293594
23	0xb722165b	-9.6611575e-06
24	0x388c1f5e	6.681563e-05
25	0xb871aae0	-5.7618017e-05
26	0xb8e1f819	-0.00010775048
27	0x39bfa7f3	0.0003655549
28	0x3a06759b	0.0005129219
29	0x00615844	8.939707e-39
30	0xb9bfa7f3	-0.0003655549
31	0x80e78260	-2.126077e-38
32	0x387f75b7	6.0906368e-05
33	0xb9ad96af	-0.000331094
34	0x39c2cddc	0.0003715594
35	0xb9a70cee	-0.00031862356
36	0xb98caaf4	-0.0002683025
37	0xb9676306	-0.00022066766
38	0x3964e950	0.0002183069
39	0x394bf1d7	0.00019449681
40	0x3856b0ea	5.118634e-05
41	0xb8053a47	-3.1763946e-05
42	0xb92504a7	-0.0001573736
43	0x3857a8ea	5.1417308e-05
44	0xb9f64600	-0.0004697293
45	0xba881fbb	-0.0010385433
46	0xb90b5c00	-0.00013290346
47	0x3a95130a	0.0011373472
48	0xb99441d0	-0.00028277794
49	0xb973d9fd	-0.00023255493
50	0x37b4fd2b	2.1575563e-05
51	0x39a341f3	0.0003113892
52	0xb943c8d6	-0.00018671466
53	0xb970136a	-0.00022895416
54	0xb9fa01b8	-0.00047684996
55	0x38bb1152	8.920081e-05
56	0xb8c71748	-9.493396e-05
57	0xb9b76844	-0.00034982164
58	0x384c3c4d	4.869355e-05
59	0x39c87b02	0.0003823862
60	0x3a63d212	0.00086906657
61	0x3a0968a6	0.0005241729
62	0x8013daca	-1.823361e-39
63	0xba63d212	-0.00086906657
64	0x01732780	4.466039e-38
65	0xb924f676	-0.00015732073
66	0xb9d5f578	-0.00040809414
67	0x39ac55ac	0.00032870227
68	0xb9d4434b	-0.00040485928
69	0xb9124526	-0.00013949405
70	0xb9031013	-0.00012499122
71	0x38bf5884	9.124077e-05
72	0xb82e6e15	-4.1587355e-05
73	0xb889adf3	-6.5650696e-05
74	0xb89e45d0	-7.547031e-05
75	0x38bf919a	9.13471e-05
76	0xb96cadd8	-0.00022571476
77	0xb9e8b041	-0.00044381808
78	0x39ad8fef	0.0003310437
79	0xb89d561a	-7.502381e-05
80	0x3abf41b9	0.001459173
81	0xb9bd26bb	-0.00036077746
82	0x3821ccd8	3.8576167e-05
83	0x3905f73a	0.00012775967
84	0xb85389aa	-5.043453e-05
85	0x38c86ec2	9.5573734e-05
86	0xb9fda0a5	-0.0004837561
87	0x39d5e4ba	0.0004079694
88	0x39a4b921	0.0003141845
89	0x38565a83	5.110587e-05
90	0x3990a7db	0.00027590882
91	0x39793b4c	0.0002376858
92	0x38ac4e9d	8.216242e-05
93	0x3a1f3374	0.0006073036
94	0x38b2fe2a	8.535043e-05
95	0x8156c156	-3.9444304e-38
96	0xba1f3374	-0.0006073036
97	0x01037f8f	2.415242e-38
98	0x37d970f4	2.5921014e-05
99	0xba33150e	-0.00068314455
100	0x3b2831bf	0.0025664417
101	0xbae50cb7	-0.0017475103
102	0xb9ce66e0	-0.0003936803
103	0xb911167e	-0.00013836657
104	0x39b7d4fe	0.00035063172
105	0xb9918fd7	-0.00027763724
106	0x3ac7d2d1	0.0015245323
107	0x3a90f630	0.0011059698
108	0x398ea0ca	0.00027204148
109	0xbb14960b	-0.002267244
110	0x3a935e20	0.0011243261
111	0xbb2ef76b	-0.0026697766
112	0xba417a0b	-0.00073805515
113	0x3b5e59a9	0.0033927953
114	0xba75da33	-0.00093785225
115	0xb975a4f1	-0.00023426466
116	0x395da739	0.00021138498
117	0xb946b583	-0.0001895037
118	0x37680997	1.383051e-05
119	0xb9b4f681	-0.00034515935
120	0x392f578e	0.00016721917
121	0xba1c5692	-0.0005963828
122	0x3a72175d	0.0009235049
123	0xb9b5cdd9	-0.0003467638
124	0x3acf25e9	0.0015804145
125	0x3add444a	0.0016881314
126	0x3b4b964d	0.0031064928
127	0x3b0b3d93	0.0021246418
128	0x81965df9	-5.523614e-38
129	0xbb4b964d	-0.0031064928
130	0x01aa20c0	6.249513e-38
131	0x388205df	6.1999766e-05
132	0xb898631a	-7.266384e-05
133	0x38802323	6.11006e-05
134	0xb85017e2	-4.9613307e-05
135	0xb8b2c3fa	-8.524205e-05
136	0x37aa6cde	2.0316274e-05
137	0xb79c8f24	-1.8663304e-05
138	0x36c39906	5.829267e-06
139	0x38a7081a	7.9646896e-05
140	0xb802a946	-3.1152063e-05
141	0xb7604aff	-1.3368902e-05
142	0xb8b2196f	-8.492439e-05
143	0xb9043d5c	-0.00012611359
144	0x39a8be0a	0.00032185047
145	0x373c5beb	1.12270745e-05
146	0x39865f6a	0.0002562956
147	0xb833362c	-4.2727377e-05
148	0xb89d2cac	-7.494664e-05
149	0xb73c93bf	-1.1240073e-05
150	0xb854fa37	-5.077777e-05
151	0x37188e4c	9.093037e-06
152	0x38795825	5.9448317e-05
153	0xb915394b	-0.0001423109
154	0x3914264c	0.00014128647
155	0x37c0f133	2.30005e-05
156	0xb8607951	-5.3518746e-05
157	0xb7de1e66	-2.6478618e-05
158	0xb6864090	-4.0010273e-06
159	0x39b4f86e	0.0003451737
160	0x3816af65	3.5926136e-05
161	0x010d4835	2.5949416e-38
162	0xb9b4f86e	-0.0003451737
163	0x80978008	-1.3913089e-38
164	0x36a84052	5.014278e-06
165	0xb905aa0a	-0.00012747213
166	0x3930769d	0.00016828855
167	0xb8ab6210	-8.172181e-05
168	0xb85ebfe0	-5.3107622e-05
169	0xb90bc7ef	-0.00013330554
170	0x38851fa5	6.3478285e-05
171	0xb89bba84	-7.425717e-05
172	0xb91ff6d7	-0.00015255377
173	0x390aad49	0.0001322526
174	0xb8b98173	-8.845599e-05
175	0xb8146ff8	-3.539023e-05
176	0xb9298a42	-0.00016168601
177	0xb8dd6b51	-0.000105580904
178	0xb80cf70f	-3.3608692e-05
179	0x3a829e8c	0.0009965464
180	0xb9ea3f23	-0.00044678999
181	0x385a47e8	5.2042218e-05
182	0x37f70133	2.9445253e-05
183	0x377922b0	1.4849633e-05
184	0x389e3070	7.543049e-05
185	0xb97c25ea	-0.00024046717
186	0xb8697c71	-5.5667424e-05
187	0x39f2db4a	0.0004632122
188	0x37ca6425	2.412691e-05
189	0x3939f9d2	0.0001773604
190	0xb612648c	-2.1814221e-06
191	0x38e69121	0.00010994287
192	0x39e18840	0.00043016858
193	0x39966db0	0.00028691953
194	0x01935418	5.411994e-38
195	0xb9e18840	-0.00043016858
196	0x01bdd3bd	6.9731465e-38
197	0x38b530c1	8.639834e-05
198	0xb9a56c55	-0.00031551966
199	0x393691b6	0.00017411154
200	0xb98aff14	-0.0002651146
201	0x3797b74e	1.808596e-05
202	0xb944399a	-0.00018713475
203	0x378346bc	1.5649355e-05
204	0xb8b96445	-8.840164e-05
205	0x3915763f	0.00014253797
206	0xb8fe5dc4	-0.00012129129
207	0xb9077c88	-0.00012920995
208	0xb8c5c2cf	-9.429978e-05
209	0xb7a299c4	-1.9383508e-05
210	0xb959bf90	-0.00020766095
211	0xb8e85181	-0.00011077803
212	0x3a472bdd	0.00075977837
213	0xba076f95	-0.00051664683
214	0xb6553c9c	-3.1774753e-06
215	0xb5e41c02	-1.6995475e-06
216	0xb80661db	-3.2039225e-05
217	0x38599d01	5.1883053e-05
218	0xb9a5ce64	-0.00031625025
219	0xb8ad6087	-8.2672625e-05
220	0xb935234b	-0.00017274653
221	0xb9570432	-0.0002050556
222	0xb9916df0	-0.00027738465
223	0x39304cae	0.00016813233
224	0x3903583d	0.00012526005
225	0x39fefa6a	0.00048633228
226	0x3a06faac	0.00051490474
227	0x812106e6	-2.957598e-38
228	0xb9fefa6a	-0.00048633228
229	0x8187dd0e	-4.9908366e-38
230	0x380a349c	3.295076e-05
231	0x377cda07	1.5071134e-05
232	0x39842539	0.00025204735
233	0xb924723b	-0.00015682813
234	0xb88be681	-6.670971e-05
235	0xb8cfe72c	-9.913588e-05
236	0x3879eb01	5.958509e-05
237	0xb7fa8ed1	-2.9868826e-05
238	0xb92ba941	-0.00016370883
239	0x3848426b	4.7745572e-05
240	0xb9331ad5	-0.00017080766
241	0x39be5904	0.00036305946
242	0x3858c981	5.168608e-05
243	0xb876fc3b	-5.888588e-05
244	0x38b412eb	8.5865926e-05
245	0x3a0e55ea	0.00054296723
246	0xb9b30be0	-0.00034150388
247	0xb97e734b	-0.00024266278
248	0x38b3328a	8.544799e-05
249	0xb8e8a5e8	-0.000110935245
250	0xb969f0af	-0.00022310273
251	0x396243b4	0.00021578261
252	0xb9893561	-0.00026170447
253	0xb98f6a67	-0.0002735436
254	0xb907aa3d	-0.00012938022
255	0xb9c52a2a	-0.00037606183

fcs1.bias f4 [400]
0	0xb9bfa7f5	-0.00036555497
1	0xba63d214	-0.0008690667
2	0xba1f3374	-0.0006073036
3	0xbb4b964d	-0.0031064928
4	0xb9b4f86e	-0.0003451737
5	0xb9e18840	-0.00043016858
6	0xb9fefa6a	-0.00048633228
7	0xb9e08f6a	-0.0004283146
8	0xbaa21068	-0.0012364509
9	0xb9bf3ea7	-0.00036477039
10	0xb9a5f7c4	-0.00031655852
11	0x3c89a6c1	0.016803147
12	0xbba519a5	-0.0050384575
13	0xb946ee80	-0.000189716
14	0xba2514c8	-0.0006297347
15	0xb9f6f337	-0.00047101986
16	0xbaf19f89	-0.0018434386
17	0xba9d5e5e	-0.0012006273
18	0xbb418cd1	-0.0029533396
19	0xbc2166f2	-0.009851204
20	0xbb587548	-0.003302889
21	0xba1ec5ef	-0.0006056716
22	0xba907fdd	-0.0011024434
23	0xbc8a659a	-0.01689415
24	0x3a48008a	0.0007629475
25	0xba13a025	-0.00056314684
26	0xba8ea534	-0.0010882975
27	0xb9ca1b6d	-0.00038548876
28	0xb9646b5d	-0.0002178377
29	0xbab8d8b1	-0.0014102665
30	0x3ca15f9d	0.019698912
31	0xb9513811	-0.0001995268
32	0xbbe3f1a3	-0.0069562956
33	0xb9d9271c	-0.00041418604
34	0xb9845d11	-0.00025246342
35	0xbb0e16d3	-0.0021681085
36	0xb937b6a5	-0.0001752028
37	0xba717175	-0.0009210327
38	0xb94f6fcd	-0.00019782707
39	0xba3edcdd	-0.0007280836
40	0xba330ca1	-0.000683019
41	0xbb8ee93d	-0.0043613003
42	0xbae980f5	-0.0017814921
43	0xb9af042f	-0.00033381718
44	0xba175e84	-0.0005774277
45	0xba952fab	-0.0011382004
46	0xbb6ddbf9	-0.0036294444
47	0xbaa62141	-0.0012674705
48	0xb9a2f284	-0.00031079736
49	0x3c2690c7	0.010166354
50	0xbaf28e38	-0.0018505519
51	0xb9a1d726	-0.0003086861
52	0xbb45711f	-0.003012724
53	0xbb096325	-0.0020963636
54	0xbb26034a	-0.002533155
55	0xbac268d2	-0.0014832264
56	0xbbd9afde	-0.0066432795
57	0xb93fabc5	-0.00018279169
58	0xbbd33883	-0.0064459457
59	0xba0655f7	-0.0005124504
60	0xb9c20dd1	-0.00037012858
61	0x3c7047d0	0.014665559
62	0x3c4ed00c	0.012622844
63	0xbabd5a58	-0.001444648
64	0xbaab7d7c	-0.0013083662
65	0xba68fa20	-0.0008887369
66	0xba0423ef	-0.0005040755
67	0xbb4294ea	-0.002969081
68	0xbafc15ca	-0.0019232568
69	0xb9670198	-0.0002203047
70	0xbc9f18fa	-0.01942109
71	0xbb46133b	-0.0030223865
72	0xbae2f0e7	-0.0017314226
73	0xbb81bac0	-0.00395903
74	0xb9e15fca	-0.00042986713
75	0x38bdac8f	9.044364e-05
76	0xbaa9ed33	-0.0012964368
77	0xbc4cec98	-0.01250758
78	0xba85e602	-0.0010215642
79	0xb98ac1d5	-0.00026465827
80	0xba46afce	-0.00075792975
81	0xb9a8c90d	-0.00032193252
82	0x3b17d09b	0.002316511
83	0xbad0db6a	-0.0015934531
84	0xb9372632	-0.00017466469
85	0xb9eb45df	-0.0004487475
86	0xb9c0a318	-0.00036742608
87	0xba2ba21b	-0.0006547288
88	0xba533559	-0.00080569607
89	0xbb2e157c	-0.0026563099
90	0xba2f828a	-0.0006695172
91	0xba1afd17	-0.0005912347
92	0xba14228a	-0.00056508987
93	0xba2efc19	-0.0006675139
94	0xb9bde0a4	-0.0003621626
95	0xbb335002	-0.002736092
96	0xbb05ec61	-0.0020435082
97	0xba93dc1e	-0.001128081
98	0xba4e2647	-0.000786398
99	0xba5e7b7c	-0.00084870285
100	0xba4acb1e	-0.00077359553
101	0xbb017f7a	-0.001975982
102	0xb9a81b49	-0.00032063786
103	0xb98d0f8c	-0.000269052
104	0xbb1dee42	-0.0024098312
105	0xba61d363	-0.0008614568
106	0xba9dfc17	-0.0012053278
107	0xba9d03ca	-0.0011979279
108	0xbc83d624	-0.016093321
109	0xbb0f9830	-0.002191078
110	0x3bf077d6	0.0073385043
111	0xb8821f98	-6.204768e-05
112	0xbabaa391	-0.001423942
113	0xba03569b	-0.00050101586
114	0xbb39358f	-0.0028260683
115	0x3bb6bc37	0.005576636
116	0xbc178b8d	-0.00924958
117	0xba0c2004	-0.0005345347
118	0xbaa78150	-0.0012779627
119	0xbaf599e9	-0.0018737885
120	0xbaaffde0	-0.0013427101
121	0xbb984314	-0.004646668
122	0xba762cc9	-0.0009390829
123	0xbbeb48fe	-0.007180332
124	0xb912cac3	-0.0001399918
125	0xba37077c	-0.0006982011
126	0xba3a9f36	-0.0007119061
127	0xb915fb85	-0.00014303446
128	0xbca88ae4	-0.02057404
129	0xb853d797	-5.0507104e-05
130	0xba5b3fbc	-0.0008363684
131	0xb8ddbd16	-0.00010573321
132	0xbb60b802	-0.0034289365
133	0x3b21b0c4	0.002467201
134	0xb9a7c6ea	-0.00032000925
135	0xba8a7da7	-0.0010566012
136	0xbbed45c0	-0.007240981
137	0xbac686f5	-0.0015146422
138	0xbaa178d1	-0.0012319331
139	0xb990c4d4	-0.0002761247
140	0xbb5f73cf	-0.0034096127
141	0xb9e9880c	-0.00044542586
142	0xbb20639d	-0.0024473437
143	0xb950b26b	-0.00019902892
144	0xb9f76da2	-0.00047193194
145	0xb89458f0	-7.073756e-05
146	0xbac92690	-0.0015346576
147	0xba1f97d9	-0.0006087996
148	0xba4c746f	-0.00077993324
149	0xb9aae8e4	-0.00032598444
150	0xbb8d5b05	-0.004313829
151	0xba6872d8	-0.00088672107
152	0xba873730	-0.001031613
153	0xbb4c9c1a	-0.0031220973
154	0xba494265	-0.0007677435
155	0xba465b2e	-0.00075666874
156	0xba49aef3	-0.0007693611
157	0xb991aa89	-0.00027783614
158	0xb95fcd7f	-0.0002134349
159	0xba9f601d	-0.0012159381
160	0xbaa4a1f4	-0.0012560473
161	0xbb34faef	-0.0027615388
162	0xbade1cba	-0.0016945817
163	0xba829297	-0.00099619
164	0xba96701e	-0.0011477505
165	0xba19fa62	-0.0005873797
166	0xb980dd58	-0.00024578976
167	0xb9b8a6d2	-0.00035219506
168	0xba651ce5	-0.00087399624
169	0xba609f37	-0.0008568647
170	0xbc289123	-0.01028851
171	0xb95cdfb6	-0.00021064174
172	0xbaaaecc6	-0.0013040535
173	0xbca6fcbd	-0.020384187
174	0xb98b26a3	-0.00026540933
175	0xba6cf465	-0.0009039103
176	0xbb0cf1c2	-0.0021506404
177	0xbaf9addb	-0.0019049005
178	0xbaf1f2e7	-0.0018459231
179	0xbabea39e	-0.0014544611
180	0xba41e007	-0.00073957484
181	0xba356939	-0.00069202814
182	0x3bca1e52	0.0061681652
183	0xb8df5f7d	-0.00010651255
184	0xb9bb965b	-0.00035779443
185	0xbc747779	-0.014921063
186	0xb928248c	-0.00016035343
187	0xb9da05cf	-0.00041584528
188	0xbaa36e40	-0.001246877
189	0xba9c492a	-0.001192366
190	0xb93fe6d2	-0.00018301167
191	0xba75d596	-0.0009377835
192	0xbaa7ed43	-0.0012811798
193	0x3cab7d64	0.020933814
194	0xba0ed0fc	-0.0005448011
195	0xba8453a4	-0.0010095728
196	0xba7aeefa	-0.00095723534
197	0xb9d75bf6	-0.00041076512
198	0xbad6160a	-0.0016333472
199	0xbb623e3b	-0.0034521956
200	0xba8f621b	-0.0010939272
201	0xb99f0572	-0.000303309
202	0xb9a15942	-0.00030774815
203	0xba85a482	-0.0010196122
204	0xba739c4d	-0.0009293005
205	0xb9df658d	-0.00042609536
206	0xbb24c8fd	-0.0025144212
207	0xb9ba9ad8	-0.00035592052
208	0xbb479216	-0.0030452064
209	0xba2e9751	-0.0006660121
210	0xbb0719b5	-0.0020614688
211	0xb8afb2a4	-8.377925e-05
212	0xba3a185d	-0.00070989673
213	0xb83fd626	-4.573739e-05
214	0xba76318f	-0.000939154
215	0xbb5672fb	-0.0032722342
216	0xba8c22aa	-0.0010691483
217	0xbba06c07	-0.0048956904
218	0xbc8d8658	-0.017275974
219	0xbb141926	-0.0022597997
220	0xbc8b5e0f	-0.017012624
221	0xbb15e403	-0.0022871501
222	0xba67c13a	-0.00088407437
223	0xbaa1d98a	-0.0012348157
224	0x3c41bfb3	0.01182549
225	0xba0f4321	-0.000546502
226	0xbab4995b	-0.0013778614
227	0xbae7af56	-0.0017676156
228	0xba920515	-0.001114043
229	0xbb14169e	-0.0022596489
230	0xba4f5d4b	-0.0007910325
231	0x3b2ae57d	0.0026076727
232	0xb9ef8085	-0.00045681387
233	0xb7e893ab	-2.7725318e-05
234	0xb97edd26	-0.00024305712
235	0xbb14a37a	-0.0022680447
236	0xbbb5483a	-0.0055322917
237	0xba9bd19f	-0.0011888033
238	0xb98b036e	-0.000265147
239	0xb9757eb4	-0.00023412221
240	0xba6a1553	-0.0008929569
241	0xbb761256	-0.003754755
242	0xba641fd9	-0.00087022554
243	0xb9a46bc4	-0.0003136081
244	0xba2d1ce4	-0.00066037313
245	0xbcba4a21	-0.022740426
246	0xba26dd9d	-0.00063654204
247	0xba74d70f	-0.00093399076
248	0xb96f4681	-0.00022819081
249	0xbabff560	-0.0014645271
250	0xb927dca0	-0.0001600855
251	0xbb0442a0	-0.0020181313
252	0xbb5c4e1a	-0.0033615888
253	0xba58e96f	-0.00082745304
254	0xba946070	-0.0011320245
255	0xbbe1086c	-0.006867459

fc2.weight f4 [300, 404]
0	0x1c2b3063	5.664169e-22
1	0x1c96c1c8	9.976259e-22
2	0x1cb5e634	1.2037081e-21
3	0x9bd43e0b	-3.5112552e-22
4	0x9b6e7446	-1.9724469e-22
5	0x9b26bd84	-1.3792434e-22
6	0x9cb4e250	-1.1969901e-21
7	0x1cabd00e	1.1369612e-21
8	0x1a7be74a	5.2092417e-23
9	0x1bbcb316	3.1217723e-22
10	0x1b8cd791	2.3300364e-22
11	0x1d5e9160	2.9456612e-21
12	0x1bfbbff3	4.164851e-22
13	0x9b1a2980	-1.2751991e-22
14	0x1d1058b0	1.9104092e-21
15	0x1c037aef	4.350315e-22
16	0x1c5b7b09	7.262004e-22
17	0x1bafbbdc	2.9072723e-22
18	0x1df9ef6c	6.6157308e-21
19	0x1e28fa4f	8.9456086e-21
20	0x9cc3cdd2	-1.2957221e-21
21	0x1c685c71	7.688184e-22
22	0x9af37d48	-1.0070485e-22
23	0x1e84e7bd	1.4071888e-20
24	0x9eb6d1b7	-1.9356736e-20
25	0x9d11dafe	-1.9303807e-21
26	0x1b2c74ee	1.4265289e-22
27	0x1b8a7f42	2.2912423e-22
28	0x1bade48a	2.876814e-22
29	0x9b9c9d8e	-2.5909852e-22
30	0x1e6e9fba	1.2632646e-20
31	0x9ba53634	-2.7331988e-22
32	0x1ea1fd53	1.715131e-20
33	0x1ba91ccd	2.7977317e-22
34	0x9c0d0e6e	-4.6671636e-22
35	0x1b9cdb42	2.5949727e-22
36	0x1b171198	1.2496112e-22
37	0x99fed6c0	-2.6349721e-23
38	0x9b3cc4e9	-1.561462e-22
39	0x1b157bde	1.2365015e-22
40	0x9e90a051	-1.5312898e-20
41	0x9ec6eccc	-2.1062002e-20
42	0x9c4739ad	-6.591812e-22
43	0x9b83b2e6	-2.1787742e-22
44	0x9acfede0	-8.59975e-23
45	0x1c86ee0d	8.928911e-22
46	0x1b8018bb	2.1191805e-22
47	0x9e9be9b6	-1.6507924e-20
48	0x1a0e218a	2.9392004e-23
49	0x9cdb13ab	-1.4497288e-21
50	0x1c586c93	7.1608734e-22
51	0x9c89292a	-9.07654e-22
52	0x9b5b44b8	-1.813746e-22
53	0x9c82ac01	-8.64714e-22
54	0x9ad6b3b4	-8.879865e-23
55	0x1c056366	4.413448e-22
56	0x1b3270e8	1.4760297e-22
57	0x9ba3154c	-2.697985e-22
58	0x1ef2095b	2.5626616e-20
59	0x9d208d49	-2.1248866e-21
60	0x9ba1f945	-2.6796302e-22
61	0x9e2da424	-9.192487e-21
62	0x1efe0372	2.6894721e-20
63	0x9ca1fa84	-1.0718843e-21
64	0x9ba926b7	-2.7983724e-22
65	0x9b8b6b32	-2.3064894e-22
66	0x1b7921a5	2.0607668e-22
67	0x1aac8304	7.13492e-23
68	0x9b417c0c	-1.6004668e-22
69	0x1a115110	3.005078e-23
70	0x1e821669	1.3773554e-20
71	0x9b28cea2	-1.3963401e-22
72	0x9cb6a136	-1.2085422e-21
73	0x1a97fd62	6.28615e-23
74	0x9c74739b	-8.0882244e-22
75	0x1c8d31fc	9.343518e-22
76	0x9c4bca96	-6.74289e-22
77	0x9e0319ca	-6.940415e-21
78	0x9beb4602	-3.892273e-22
79	0x1bd0eae2	3.4562503e-22
80	0x1b6858b0	1.9219247e-22
81	0x1a2deff0	3.596938e-23
82	0x1da2fb5d	4.3140946e-21
83	0x1ad025d5	8.6087905e-23
84	0x9c06bb5e	-4.4579047e-22
85	0x1a47372a	4.1196797e-23
86	0x1bd08fc9	3.4503632e-22
87	0x9b8ad7cb	-2.2969638e-22
88	0x9c5b8efd	-7.264583e-22
89	0x1e3bc041	9.939455e-21
90	0x1c58d490	7.1743136e-22
91	0x9bc11c56	-3.1947483e-22
92	0x9c8939f0	-9.080876e-22
93	0x1bb990d0	3.0699266e-22
94	0x9a396e22	-3.8346068e-23
95	0x9b8156af	-2.1397278e-22
96	0x987e3bbe	-3.2858893e-24
97	0x1e292809	8.9550646e-21
98	0x1c0cfa23	4.664541e-22
99	0x9cd3be58	-1.4012011e-21
100	0x1be0133c	3.7070121e-22
101	0x1b3e16fd	1.572386e-22
102	0x9b3476d2	-1.4927644e-22
103	0x1b07e174	1.1239786e-22
104	0x9c0625f1	-4.438592e-22
105	0x1c806790	8.4971e-22
106	0x1c7ed0b9	8.431132e-22
107	0x1cb09c6a	1.1687135e-21
108	0x1e905cc0	1.5284954e-20
109	0x1bb9c49d	3.073274e-22
110	0x9d48f7a4	-2.6597807e-21
111	0x19f55e68	2.5370537e-23
112	0x1d2d1d53	2.291152e-21
113	0x9a3c24ff	-3.8907374e-23
114	0x9c7a615a	-8.2843885e-22
115	0x9e89f79d	-1.460785e-20
116	0x1effbf81	2.707838e-20
117	0x9bdd8b50	-3.6651412e-22
118	0x1c98c208	1.0108672e-21
119	0x1a621199	4.674992e-23
120	0x9b3dc2ec	-1.5696696e-22
121	0x1a79b54c	5.1638444e-23
122	0x1ba67ea4	2.7544236e-22
123	0x1e7ac2d0	1.3275176e-20
124	0x9bd21f48	-3.47618e-22
125	0x1c75ef97	8.1373363e-22
126	0x1ac51112	8.150487e-23
127	0x9b819833	-2.1439616e-22
128	0x9f006402	-2.718778e-20
129	0x9c7018fd	-7.9441635e-22
130	0x9c072d03	-4.472593e-22
131	0x1ba626ea	2.7487544e-22
132	0x1c7c7aee	8.353869e-22
133	0x1ebc0131	1.9905767e-20
134	0x1cd0e570	1.3823594e-21
135	0x1b3a86cf	1.5429118e-22
136	0x9e317860	-9.395195e-21
137	0x1d1a0482	2.038406e-21
138	0x1b4361bc	1.6161602e-22
139	0x9b088972	-1.1294067e-22
140	0x9c733dea	-8.048198e-22
141	0x1a4467d8	4.0615734e-23
142	0x998fe07c	-1.4876522e-23
143	0x9b5ca176	-1.8250144e-22
144	0x9c6b49ed	-7.7850524e-22
145	0x9b63484b	-1.8800359e-22
146	0x99ebc1e2	-2.4376739e-23
147	0x9a35a328	-3.756172e-23
148	0x198fdcc0	1.4875014e-23
149	0x1bd5b05b	3.535186e-22
150	0x9b8d960c	-2.342346e-22
151	0x9c75dadc	-8.134657e-22
152	0x1c42abc2	6.4411207e-22
153	0x9ba6bbe2	-2.7583813e-22
154	0x1be0d526	3.7195435e-22
155	0x9aa6adb0	-6.89366e-23
156	0x9c45ce52	-6.5448495e-22
157	0x1c6b4da9	7.785535e-22
158	0x1b1f376e	1.3170082e-22
159	0x1c3de828	6.283491e-22
160	0x9c8e9ff4	-9.438119e-22
161	0x9dff257c	-6.7536696e-21
162	0x99499e80	-1.0423465e-23
163	0x9c76ee28	-8.170238e-22
164	0x9bedf9da	-3.9369824e-22
165	0x1d9821a8	4.0268865e-21
166	0x1c4ee2f1	6.8452997e-22
167	0x1bd03dfa	3.4450765e-22
168	0x9ba8bed5	-2.791659e-22
169	0x1cbcc5e0	1.2491946e-21
170	0x1ead36d6	1.8339767e-20
171	0x9c0d8478	-4.68242e-22
172	0x1c41c658	6.4114697e-22
173	0x9e8a5e49	-1.4650314e-20
174	0x1a52e438	4.3611336e-23
175	0x9a4c6d90	-4.2274715e-23
176	0x1c2b18c2	5.6611153e-22
177	0x1f7dcfc6	5.37467e-20
178	0x1cdd9116	1.4662057e-21
179	0x9c3ae5fa	-6.1839475e-22
180	0x9aa0d6c4	-6.652142e-23
181	0x1c1a76a9	5.110769e-22
182	0x1de2c29b	6.002292e-21
183	0x1b91be31	2.4111146e-22
184	0x1c161613	4.9659367e-22
185	0x1d743bbe	3.2324017e-21
186	0x9a856364	-5.5168085e-23
187	0x9becaccc	-3.9154592e-22
188	0x1c9aeefb	1.025264e-21
189	0x1c23028d	5.3935473e-22
190	0x1b04d812	1.09886e-22
191	0x1ace4a60	8.531976e-23
192	0x9a8b7654	-5.768022e-23
193	0x9f316095	-3.75611e-20
194	0x1b821ff3	2.1527343e-22
195	0x1b0f5f60	1.18595e-22
196	0x9aa22559	-6.706197e-23
197	0x1bb9914f	3.0699586e-22
198	0x1af15192	9.980705e-23
199	0x1a8fab22	5.9419894e-23
200	0x99680e38	-1.199699e-23
201	0x9b7d4f20	-2.0953236e-22
202	0x9b27ff47	-1.3896401e-22
203	0x9a4841e0	-4.1412244e-23
204	0x9c8cc242	-9.314637e-22
205	0x1d096f18	1.8189233e-21
206	0x1bd0d59e	3.454876e-22
207	0x1c252255	5.4638294e-22
208	0x9b1a18cd	-1.2746595e-22
209	0x1c2a53a4	5.6356385e-22
210	0x9c1656f3	-4.9743216e-22
211	0x1c4c0213	6.750062e-22
212	0x9bf7a652	-4.0970204e-22
213	0x1a280c96	3.4751753e-23
214	0x9bc99964	-3.3351787e-22
215	0x1b058074	1.1043008e-22
216	0x1bb90922	3.0611585e-22
217	0x1e822faa	1.3783999e-20
218	0x9e1759f4	-8.012475e-21
219	0x1c81479a	8.555012e-22
220	0x9eb15df4	-1.8779462e-20
221	0x9d0afb0a	-1.8393932e-21
222	0x9c105160	-4.775078e-22
223	0x9b035bd7	-1.0865741e-22
224	0x1ead0c6a	1.8322222e-20
225	0x9b606296	-1.85607e-22
226	0x9bf2111e	-4.0046603e-22
227	0x9c703853	-7.9482136e-22
228	0x1b800ed8	2.1185416e-22
229	0x9bacff46	-2.861998e-22
230	0x9c09d1c6	-4.5600623e-22
231	0x1f024d98	2.7592755e-20
232	0x1bc44760	3.2471605e-22
233	0x17a32090	1.0541848e-24
234	0x9a993d9e	-6.3378865e-23
235	0x9d75b7a9	-3.252043e-21
236	0x9b8200fe	-2.1507337e-22
237	0x9b12b5dd	-1.21356e-22
238	0x1b1a4c6f	1.2763278e-22
239	0x1c135c28	4.875733e-22
240	0x9bb6e349	-3.0256254e-22
241	0x9d2b8080	-2.2698095e-21
242	0x9bc6d9ad	-3.2897022e-22
243	0x1b9aa176	2.5581505e-22
244	0x1cbe6b29	1.2600846e-21
245	0x1e63200c	1.2023907e-20
246	0x1cb8db5a	1.22328e-21
247	0x1abe6cb8	7.87578e-23
248	0x1c5a5c00	7.2249057e-22
249	0x9ce88282	-1.5386208e-21
250	0x9becc53c	-3.9170385e-22
251	0x9aeb1fdf	-9.724521e-23
252	0x19cfa629	2.147041e-23
253	0x9cc700b4	-1.3168897e-21
254	0x9bcf6583	-3.4310878e-22
255	0x1e835216	1.3904114e-20

fc2.bias f4 [300]
0	0xb27ef92b	-1.48414e-08
1	0xb2fc2a06	-2.9355771e-08
2	0xb97f5587	-0.00024350556
3	0x3d0cb677	0.0343537
4	0xb3c5fc01	-9.2193666e-08
5	0xa57d6154	-2.1977228e-16
6	0xb79a33a7	-1.8382283e-05
7	0x9ef1798e	-2.5567141e-20
8	0x9b63becc	-1.883865e-22
9	0xaeb84ff6	-8.381555e-11
10	0xb2b7ec60	-2.1411495e-08
11	0xb8e0dcb4	-0.000107222615
12	0x98008f9e	-1.661612e-24
13	0xb1941a68	-4.310369e-09
14	0xb2a10093	-1.8743128e-08
15	0x9f1ed979	-3.363769e-20
16	0x3d01387e	0.031548016
17	0x9a8f2aa6	-5.9212316e-23
18	0xb336a089	-4.2521183e-08
19	0xb25ef21b	-1.2977149e-08
20	0xa8d197ac	-2.3269438e-14
21	0xb938da45	-0.00017628919
22	0xb2831af7	-1.526267e-08
23	0x9da5ddea	-4.390459e-21
24	0xa5022528	-1.1288292e-16
25	0xae19b239	-3.4946466e-11
26	0xb85e08d9	-5.2937165e-05
27	0xa52236a3	-1.4069772e-16
28	0xb7e49231	-2.7247794e-05
29	0xaef6717e	-1.1206945e-10
30	0xb99ca52d	-0.00029877704
31	0x3d10c841	0.035347227
32	0xb923afb3	-0.00015610344
33	0x3d1a540e	0.037677817
34	0x3ce1127e	0.027474638
35	0xac29de82	-2.4139861e-12
36	0x3ce5cde9	0.028052287
37	0x3d0bbe68	0.034117132
38	0xa8977ff5	-1.681986e-14
39	0xacc6571e	-5.6371704e-12
40	0xb6717ebc	-3.5985568e-06
41	0x3d204542	0.03912855
42	0xa6a8ac3a	-1.1704024e-15
43	0xa8fe745a	-2.8250124e-14
44	0xb1191267	-2.227489e-09
45	0xb62df1a0	-2.5919653e-06
46	0xa29b37c4	-4.207188e-18
47	0x3530cd30	6.5863696e-07
48	0xaafd9e74	-4.5051777e-13
49	0x3cecd86e	0.028911795
50	0xb71e6928	-9.4420175e-06
51	0xa7163f46	-2.0850982e-15
52	0x3b917e0a	0.004440074
53	0xb62a745f	-2.539971e-06
54	0x34a0a8cc	2.9925138e-07
55	0xb1960f79	-4.3673336e-09
56	0xb76c8d72	-1.4099629e-05
57	0xb61d42ec	-2.3433777e-06
58	0x35b265b4	1.3291633e-06
59	0xb02e24df	-6.335323e-10
60	0xac1801f7	-2.160159e-12
61	0x3a035bcf	0.0005010934
62	0xb50195f2	-4.8274444e-07
63	0xab199dc5	-5.457547e-13
64	0xb50fab28	-5.3520716e-07
65	0xb7c932d0	-2.3984729e-05
66	0xb492f77d	-2.737469e-07
67	0x9cec809a	-1.5650413e-21
68	0xa9d9b8a6	-9.668767e-14
69	0xb5740645	-9.0906207e-07
70	0xa78cb525	-3.9054203e-15
71	0x36f4cd90	7.2956973e-06
72	0xad2d865e	-9.863747e-12
73	0x806015b0	-8.823988e-39
74	0xa52a42a7	-1.4767732e-16
75	0xb78223bd	-1.551385e-05
76	0x3d32f185	0.043687362
77	0xb22f097d	-1.0188498e-08
78	0xb60c7590	-2.0930056e-06
79	0x8f6c24de	-1.1642799e-29
80	0xb1914de8	-4.2289123e-09
81	0xbab89b80	-0.0014084429
82	0x37a860d3	2.0072248e-05
83	0x3d16c553	0.036809277
84	0xba59aacb	-0.0008303343
85	0xb9fb3d36	-0.00047920056
86	0xbaa6bda6	-0.0012721315
87	0xb070781a	-8.7482166e-10
88	0x366efeca	3.561307e-06
89	0xb49c4c90	-2.911297e-07
90	0xba8c7e9e	-0.0010718887
91	0xb2299705	-9.871433e-09
92	0x3c35f450	0.011105612
93	0xb5e40537	-1.6988841e-06
94	0x91bbaec9	-2.9611118e-28
95	0xbaaf96d5	-0.0013396392
96	0xb49c357c	-2.909618e-07
97	0xbafd4a91	-0.0019324591
98	0xa6026f71	-4.525384e-16
99	0xb497c608	-2.8270028e-07
100	0x3cf43e2a	0.029814798
101	0xb0ce64f5	-1.5017166e-09
102	0xb795e8ca	-1.7870585e-05
103	0xb4b56d6f	-3.37935e-07
104	0xb2159c27	-8.708446e-09
105	0xb22c2aa4	-1.0021413e-08
106	0xba9565cb	-0.0011398135
107	0x9e10b5fb	-7.660929e-21
108	0xa61c05fd	-5.413149e-16
109	0xb80dd10e	-3.3811717e-05
110	0xb6398686	-2.7645451e-06
111	0xb6a82f90	-5.012327e-06
112	0xb98e4711	-0.000271373
113	0xb7af3c27	-2.0889636e-05
114	0xa9bc364c	-8.358296e-14
115	0xb415d0e9	-1.3952707e-07
116	0xba3d9481	-0.00072319066
117	0xa1f70ba6	-1.6740454e-18
118	0x9c3ecbc4	-6.3129087e-22
119	0xa3cc3ea1	-2.2144249e-17
120	0x9a102262	-2.9806276e-23
121	0xaf1177f1	-1.3230285e-10
122	0x3d2098a1	0.03920806
123	0xb981a1d3	-0.00024725366
124	0x8193f86a	-5.435573e-38
125	0x3d25147a	0.04030273
126	0xb5b7b68b	-1.368769e-06
127	0xb6531714	-3.1454883e-06
128	0x3d0527ca	0.03250865
129	0xb7a074aa	-1.9127812e-05
130	0xb66598f0	-3.421268e-06
131	0xa9d0c4fd	-9.2712276e-14
132	0xb6da2cfc	-6.502143e-06
133	0xb897cb7e	-7.2381445e-05
134	0xabb10f87	-1.2580916e-12
135	0xb102717c	-1.8981998e-09
136	0xb6f87bf6	-7.405407e-06
137	0xadae076a	-1.9784802e-11
138	0xb8588277	-5.1619918e-05
139	0xb9b57f79	-0.00034617985
140	0xb312df05	-3.419611e-08
141	0xb39ce495	-7.305895e-08
142	0x3d115430	0.035480678
143	0x9a05acef	-2.764345e-23
144	0xb190b596	-4.2115955e-09
145	0xb2d1abcd	-2.4408928e-08
146	0x3ce60a09	0.028080957
147	0xb2bb57ad	-2.1809536e-08
148	0xa8a4a59c	-1.827948e-14
149	0xb00d6fb8	-5.1454263e-10
150	0xb01e604c	-5.761691e-10
151	0xa4ba8b27	-8.0900375e-17
152	0xb7334fa2	-1.0687772e-05
153	0xabc45686	-1.3950653e-12
154	0xa0d757ff	-3.6480648e-19
155	0xba4bd9b2	-0.00077762746
156	0xb746382f	-1.1814801e-05
157	0xb7e8e813	-2.7764623e-05
158	0xa61270ac	-5.0806624e-16
159	0xaf2122d9	-1.4655245e-10
160	0xb2084429	-7.93174e-09
161	0xaace71d7	-3.6671943e-13
162	0xb5182522	-5.667845e-07
163	0xab5433d2	-7.5389445e-13
164	0xb55f102f	-8.3097524e-07
165	0xb813458d	-3.5112305e-05
166	0xa9b8742a	-8.191393e-14
167	0xb8b4c759	-8.6202e-05
168	0xb5b5373d	-1.3501627e-06
169	0xa49cfba2	-6.80805e-17
170	0x3d095e5d	0.033537257
171	0xb78bca40	-1.6664271e-05
172	0x9ffb123c	-1.063328e-19
173	0x3d099231	0.033586685
174	0xb52e1eef	-6.4865065e-07
175	0x3d0c294d	0.034219075
176	0x366bd740	3.514302e-06
177	0x3b7ff16e	0.0039053815
178	0xae3b629e	-4.2606467e-11
179	0xadd457b9	-2.4140566e-11
180	0x97349c83	-5.835868e-25
181	0xb995c844	-0.00028568704
182	0xb833c2d7	-4.2858384e-05
183	0xacfd4c69	-7.1991757e-12
184	0xb5745b0f	-9.102959e-07
185	0x94eaa4ef	-2.3693017e-26
186	0x332b1fc6	3.9842938e-08
187	0xb987cd28	-0.0002590206
188	0x9ccbdf14	-1.3491077e-21
189	0xb041bb82	-7.0479456e-10
190	0xb81360cc	-3.513768e-05
191	0x3c8344ca	0.016024012
192	0xb7ed5539	-2.8292287e-05
193	0xb0c972af	-1.465727e-09
194	0xb757b0f8	-1.2856202e-05
195	0x301399ea	5.3697014e-10
196	0xabd380bf	-1.5028186e-12
197	0x33c5e2b8	9.214767e-08
198	0xb9bdd546	-0.0003620779
199	0xa4a78654	-7.2652266e-17
200	0xb7dff760	-2.6698865e-05
201	0xb1acca0b	-5.0288285e-09
202	0xba541266	-0.00080899
203	0xb6914e5f	-4.3304603e-06
204	0xacabb854	-4.880577e-12
205	0xb39a5d9e	-7.188213e-08
206	0xba8e2001	-0.0010843278
207	0xb10fd8cc	-2.0932474e-09
208	0x39c3044a	0.00037196494
209	0xba80dd85	-0.0009831643
210	0xb9ecad6f	-0.00045142646
211	0xb6c30cc1	-5.8129376e-06
212	0x9a9364ec	-6.096082e-23
213	0xa8b63e12	-2.0232978e-14
214	0x8131d531	-3.2662723e-38
215	0xb4d50394	-3.9676945e-07
216	0xb8d11569	-9.9698846e-05
217	0xa9aeabd2	-7.756958e-14
218	0x3d11a31f	0.035555955
219	0x3d108383	0.03528167
220	0xb454ed71	-1.9830419e-07
221	0x3d2e0405	0.042484302
222	0xa46551f1	-4.9725867e-17
223	0xba1d98b9	-0.0006011832
224	0xbaa0d484	-0.0012270366
225	0xb4170cd0	-1.4067632e-07
226	0xb9cf7f4d	-0.00039576963
227	0xb5287292	-6.27516e-07
228	0xbc39575a	-0.01131233
229	0x8d46edac	-6.129955e-31
230	0xb89024c6	-6.873305e-05
231	0x93728bc2	-3.06136e-27
232	0x3d0cf092	0.034409113
233	0xb9965841	-0.00028675984
234	0xad7ecf50	-1.4484261e-11
235	0xb62ce507	-2.5763309e-06
236	0xa4628402	-4.9117753e-17
237	0x9996822e	-1.5562216e-23
238	0xb162c54e	-3.2999483e-09
239	0xa860f92a	-1.2488527e-14
240	0x3d214a82	0.039377697
241	0xba1dbe5e	-0.00060174416
242	0x9a95658b	-6.178901e-23
243	0xb10355a2	-1.9111686e-09
244	0xb79e48e6	-1.8869014e-05
245	0xb18ab388	-4.036739e-09
246	0xa4b20f4a	-7.7221095e-17
247	0xae4f53f2	-4.714091e-11
248	0xafe0f4e5	-4.091937e-10
249	0xb9cf6837	-0.00039559763
250	0xb1d0080d	-6.054512e-09
251	0x990227d9	-6.72889e-24
252	0xba0bb6d5	-0.00053296733
253	0xb2c8b81e	-2.3366791e-08
254	0xb8340d65	-4.292782e-05
255	0xaa1026ee	-1.2803276e-13

fc3.weight f4 [1, 300]
0	0xb97a6017	-0.00023877654
1	0xb16815fc	-3.377294e-09
2	0xb59db5b4	-1.1750294e-06
3	0x3e3cea65	0.1844879
4	0x33c8675c	9.332027e-08
5	0xb8880bef	-6.487208e-05
6	0x3772ba63	1.4467721e-05
7	0x323f6a3a	1.1141816e-08
8	0x33a610a7	7.7330064e-08
9	0xb82a91b3	-4.066685e-05
10	0x35cbe75c	1.5192013e-06
11	0xb9bb3467	-0.00035706462
12	0x35019712	4.827608e-07
13	0xb0607a14	-8.166421e-10
14	0xb88e4791	-6.784418e-05
15	0xb448a6a1	-1.8687071e-07
16	0x3e3e9e98	0.18615186
17	0xb5878a00	-1.0098447e-06
18	0x36191d62	2.281588e-06
19	0xba132f76	-0.0005614677
20	0x3857f7e5	5.1490864e-05
21	0xb92404ee	-0.00015642095
22	0x32df96f9	2.6029271e-08
23	0xb54ec5e6	-7.702896e-07
24	0x34e3520d	4.2341745e-07
25	0xae34e2dc	-4.1128753e-11
26	0x38065e3f	3.2035863e-05
27	0xb6bf392b	-5.698899e-06
28	0xb73129a6	-1.0559719e-05
29	0xb70ba606	-8.323701e-06
30	0x39ac067a	0.00032811222
31	0x3e3a1906	0.18173608
32	0xb9f0fe05	-0.00045965626
33	0x3e5e30e5	0.2169834
34	0x3df64eda	0.120267585
35	0x2bf82703	1.7632288e-12
36	0x3e3737e2	0.17892411
37	0x3e104482	0.14088634
38	0x369e795a	4.722894e-06
39	0xac08e782	-1.9455275e-12
40	0xb652466a	-3.1333425e-06
41	0x3e3b3814	0.18283111
42	0xb671691c	-3.597298e-06
43	0x3750b73c	1.2440429e-05
44	0x36d0c889	6.2222284e-06
45	0xbaae77fb	-0.0013310903
46	0x366d6497	3.5374303e-06
47	0x37d7f628	2.5744623e-05
48	0xb6199a29	-2.288851e-06
49	0x3e304959	0.1721548
50	0x398e33bc	0.00027122896
51	0xb751cc10	-1.2504883e-05
52	0x3d9a5842	0.07536365
53	0xb6a0a35f	-4.7873905e-06
54	0x354a661a	7.539944e-07
55	0x32380b75	1.0712815e-08
56	0x36f25fc7	7.223312e-06
57	0xb8c34876	-9.3118215e-05
58	0xb66fec4b	-3.5751316e-06
59	0xb827e203	-4.0026393e-05
60	0xb7491a5a	-1.1986669e-05
61	0x3aa4f3ce	0.0012584866
62	0x34b8f8bb	3.4453646e-07
63	0x37977021	1.8052817e-05
64	0xb5336fc7	-6.6845354e-07
65	0x39c4143b	0.00037399106
66	0xb4b385c6	-3.343868e-07
67	0xb3323dab	-4.149994e-08
68	0x34998021	2.8591697e-07
69	0xb3e8f45c	-1.08477906e-07
70	0xb7d003b9	-2.4797266e-05
71	0x388335da	6.2565974e-05
72	0x2a9a97fe	2.746136e-13
73	0x81277662	-3.075799e-38
74	0x36ded1b6	6.640529e-06
75	0x3a088c0a	0.0005208856
76	0x3e44bfbf	0.1921377
77	0x329cb0cc	1.8241188e-08
78	0x34b85b35	3.4339033e-07
79	0x3517f4f9	5.6608366e-07
80	0x37676c7f	1.3793934e-05
81	0xbaa09471	-0.001225127
82	0x3898d8e8	7.288327e-05
83	0x3e5b5d9e	0.21422431
84	0xba3f8141	-0.0007305332
85	0xb88eb632	-6.805024e-05
86	0xbad3b731	-0.0016152618
87	0xb8603d8a	-5.3463074e-05
88	0x36fb9f70	7.498944e-06
89	0x34cc5878	3.806233e-07
90	0x3ac704b3	0.0015183896
91	0x37c6d6e6	2.370351e-05
92	0x3daa403f	0.08313035
93	0xba4ea048	-0.000788216
94	0xb017526b	-5.5050603e-10
95	0xbb55284f	-0.0032525246
96	0xb4f88683	-4.629147e-07
97	0xba5af197	-0.000835204
98	0xb848b200	-4.784949e-05
99	0xba3a4d5c	-0.00071068644
100	0x3e30ad8d	0.17253704
101	0x37be2621	2.266752e-05
102	0x38d7a052	0.00010281861
103	0x39a6005d	0.00031662258
104	0x38b7adc3	8.758486e-05
105	0xb8c069ed	-9.175004e-05
106	0x3a78f2d6	0.00094966346
107	0xae7163e7	-5.4885787e-11
108	0x35b198bf	1.3231983e-06
109	0x38e7b77c	0.00011049115
110	0xb624f844	-2.4582414e-06
111	0xb8f10651	-0.00011492952
112	0xb93fdfa2	-0.00018298489
113	0x3a35449f	0.00069148274
114	0x36c8a100	5.9792073e-06
115	0x35318bbe	6.614099e-07
116	0xb94b6570	-0.00019397377
117	0x370f2aa0	8.533389e-06
118	0xb68f03a6	-4.262157e-06
119	0xaf917a6e	-2.6462338e-10
120	0x3486e457	2.5125584e-07
121	0xb8384273	-4.3930904e-05
122	0x3e4ac81b	0.19802897
123	0xba8567b3	-0.0010178
124	0x0187f944	4.9948847e-38
125	0x3e5467e5	0.20742758
126	0x374eadff	1.2319068e-05
127	0xba5a5878	-0.0008329223
128	0x3e30ec45	0.1727763
129	0x384adae9	4.836443e-05
130	0x38e8d5d0	0.00011102448
131	0xb793c212	-1.7614137e-05
132	0x397826af	0.00023665534
133	0x3a34dc71	0.00068993034
134	0xb97137d8	-0.00023004354
135	0xb59a839b	-1.1512196e-06
136	0x39e433af	0.00043526056
137	0xb5233b95	-6.0808935e-07
138	0xb7e2f1b8	-2.7053859e-05
139	0x39323fb8	0.0001699914
140	0xb6322508	-2.6545622e-06
141	0x334fb462	4.836e-08
142	0x3e4b8232	0.19873884
143	0x2f44ba6e	1.7892329e-10
144	0xb0bbe6f3	-1.367168e-09
145	0xb28732d8	-1.573919e-08
146	0x3e259e50	0.16173673
147	0xb689566b	-4.0929785e-06
148	0xb6e7b702	-6.9056414e-06
149	0xb09295af	-1.0665441e-09
150	0xaff89638	-4.5217674e-10
151	0xb6b806f2	-5.484436e-06
152	0xb90bce9c	-0.00013333041
153	0xb7699b1f	-1.3923999e-05
154	0x34151d4a	1.3887362e-07
155	0x384f51b7	4.942875e-05
156	0x3884f7b6	6.34039e-05
157	0xb9364b02	-0.00017384815
158	0x314f18f4	3.0136649e-09
159	0xb8380c54	-4.38805e-05
160	0xb2828245	-1.5193232e-08
161	0xb8b476b0	-8.605176e-05
162	0x39369dba	0.0001741563
163	0x377efb22	1.5198051e-05
164	0x390bf78d	0.00013348293
165	0xb70695e3	-8.021921e-06
166	0x34c3d4da	3.647645e-07
167	0xba85181e	-0.0010154282
168	0xb92aa6e6	-0.00016274638
169	0xb6c5f250	-5.8992664e-06
170	0x3e35cd71	0.17754151
171	0x39b2f891	0.00034136002
172	0xb4b11dbb	-3.299045e-07
173	0x3e509a87	0.20371448
174	0x39314329	0.00016905055
175	0x3e482eee	0.19549152
176	0xb92947af	-0.000161438
177	0x3d8a4493	0.06751361
178	0xb4232740	-1.5194837e-07
179	0xb546bd26	-7.4035995e-07
180	0xb233a4f9	-1.0456682e-08
181	0x3982bd91	0.0002493677
182	0xb7d33807	-2.517925e-05
183	0xb6a5d703	-4.942414e-06
184	0x3655af14	3.1841382e-06
185	0xb53d6e8d	-7.056886e-07
186	0x33a58433	7.707458e-08
187	0xba8fedfb	-0.0010980958
188	0xb1e7b453	-6.7434853e-09
189	0x3835b78e	4.332471e-05
190	0xb7055633	-7.947488e-06
191	0x3da7ceb2	0.08193721
192	0xb606aaf0	-2.0067055e-06
193	0xb1bd8d74	-5.5167053e-09
194	0xba5cffdc	-0.000843046
195	0x315ac94a	3.1837595e-09
196	0xb708dbd4	-8.157414e-06
197	0x358ee66d	1.0646887e-06
198	0x3994a9e0	0.00028355327
199	0xb0e91cd0	-1.696117e-09
200	0x3a8b6957	0.0010636252
201	0xb1849db8	-3.859636e-09
202	0xba3de1c1	-0.0007243418
203	0xbaa166d6	-0.0012313973
204	0xb990b78a	-0.00027602568
205	0x3706d167	8.035778e-06
206	0x3a14e315	0.000567959
207	0xb09e2fc2	-1.1509587e-09
208	0x3a3c5b5d	0.0007185245
209	0xb91327ef	-0.00014033889
210	0x3aee8027	0.0018196151
211	0xb54b8ff5	-7.583288e-07
212	0x3539a543	6.915836e-07
213	0xb7a0bb03	-1.916057e-05
214	0x011c5828	2.8715924e-38
215	0x35195dec	5.7133616e-07
216	0xb7e53b14	-2.7326438e-05
217	0xb8662e1d	-5.487922e-05
218	0x3e49c4dc	0.19704002
219	0x3e11d35a	0.1424078
220	0x3842f4a8	4.648106e-05
221	0x3e3f8167	0.18701707
222	0x3652e8cb	3.1427942e-06
223	0xb98aa118	-0.00026441435
224	0x3b0c4214	0.002140169
225	0x375c9cf3	1.3149564e-05
226	0x3ae21ede	0.0017251631
227	0x34b72df7	3.411985e-07
228	0xbd68385e	-0.05669438
229	0x2f18be94	1.3892026e-10
230	0xb83fdef7	-4.57456e-05
231	0x2fb09f6a	3.2127484e-10
232	0x3e605b0b	0.2190973
233	0x36596638	3.239502e-06
234	0xb777935b	-1.4756656e-05
235	0xb97959c4	-0.00023779931
236	0xb7773682	-1.4735038e-05
237	0x34c2035e	3.6137766e-07
238	0xb05d3888	-8.047967e-10
239	0x36a873ea	5.0202843e-06
240	0x3e692e65	0.22771604
241	0x3a3df43d	0.0007246172
242	0xacde7690	-6.3227826e-12
243	0x38b04914	8.405946e-05
244	0x383a8322	4.4467983e-05
245	0xb8ff24f4	-0.000121662306
246	0xb626c584	-2.4850897e-06
247	0xb8969770	-7.180765e-05
248	0x35b75ac1	1.3660975e-06
249	0xba8b8e84	-0.0010647331
250	0xb8463e9b	-4.7265185e-05
251	0xb494ef24	-2.7741146e-07
252	0xb8b09dc3	-8.4217194e-05
253	0xb8f1c565	-0.00011528543
254	0xba184918	-0.00058092317
255	0xb66805df	-3.4574111e-06

bn1_state.weight f4 [400]
0	0x3e1ee178	0.15515697
1	0x3f683018	0.90698385
2	0x3f2ffc6d	0.68744546
3	0x3ed4ac26	0.4153759
4	0x3eef97d0	0.4679551
5	0x3e9e7330	0.30947256
6	0x3f211824	0.6292746
7	0x3ed9e926	0.4256069
8	0x3e139c74	0.14415151
9	0x3f231a93	0.63712424
10	0x3f4d2d00	0.8014679
11	0x3e123590	0.14278245
12	0x3f02193a	0.5081974
13	0x3f7a12c8	0.9768491
14	0x3f515727	0.8177361
15	0x3f02aab0	0.510417
16	0x3ea7a390	0.32741976
17	0x3f4364bc	0.76325583
18	0x3f4489a2	0.7677251
19	0x3f02c9ea	0.51089346
20	0x3e06a784	0.1314984
21	0x3ec6dc0e	0.38839763
22	0x3f3851f5	0.72000057
23	0x3f1d93e6	0.615538
24	0x3e60b9c4	0.21945864
25	0x3d5c4220	0.053774
26	0x3f5b78c9	0.8573118
27	0x3f43bbc5	0.7645839
28	0x3eda96da	0.42693216
29	0x3f3047d5	0.68859607
30	0x3e1d634c	0.1536991
31	0x3f26fd3b	0.6523015
32	0x3e9b86d4	0.30376303
33	0x3eabd668	0.33562016
34	0x3ec87f42	0.3915959
35	0x3e3a0c54	0.18168765
36	0x3f6858c3	0.9076044
37	0x3e943366	0.28945464
38	0x3f6906bf	0.9102592
39	0x3f5eb399	0.86992794
40	0x3dfd6ea0	0.12374616
41	0x3f03b091	0.51441294
42	0x3ea04ff0	0.31310987
43	0x3f10fb28	0.56633234
44	0x3e7dbb84	0.24778563
45	0x3f578c39	0.8419834
46	0x3f18a6da	0.59629595
47	0x3e8969a4	0.2683841
48	0x3f7dc388	0.9912648
49	0x3e966df4	0.29380763
50	0x3f7feb9a	0.99968874
51	0x3dfb07e0	0.122573614
52	0x3f39ea79	0.726234
53	0x3f0fe9b9	0.5621601
54	0x3f1ecbb0	0.6202955
55	0x3e4b5310	0.19855905
56	0x3e84715c	0.25867736
57	0x3f5ec802	0.8702394
58	0x3e3f0408	0.18653882
59	0x3f47c047	0.78027767
60	0x3ec21296	0.37904805
61	0x3e37b214	0.17939025
62	0x3e8f086e	0.2793612
63	0x3eace31a	0.33767015
64	0x3f789045	0.9709514
65	0x3f42da11	0.7611399
66	0x3f27bba7	0.6552071
67	0x3dfda568	0.12385064
68	0x3f4c9cc2	0.79926693
69	0x3f3f5255	0.74735004
70	0x3dd255c8	0.10270268
71	0x3ef07a50	0.46968317
72	0x3f34e6d5	0.7066472
73	0x3ed80078	0.42187858
74	0x3d790a90	0.06080109
75	0x3ea3dff2	0.32006794
76	0x3e258b34	0.16166383
77	0x3dca9b28	0.09892875
78	0x3aa7b400	0.0012794733
79	0x3f5013eb	0.8128039
80	0x3dc6c2e8	0.09705144
81	0x3eb539fa	0.35395795
82	0x3f432ba4	0.76238465
83	0x3eca3932	0.39496762
84	0x3ec042bc	0.37550914
85	0x3e0c92cc	0.13727874
86	0x3f796978	0.9742656
87	0x3ca55b00	0.020184994
88	0x3e875390	0.2643094
89	0x3f7d2c7e	0.98896015
90	0x3e2f258c	0.17104167
91	0x3ec69236	0.38783425
92	0x3e8fae3e	0.28062624
93	0x3f228d8d	0.6349724
94	0x3eabb106	0.33533496
95	0x3f198044	0.5996134
96	0x3f49558e	0.7864617
97	0x3e0d0a88	0.13773549
98	0x3f6a4a20	0.91519356
99	0x3dca36c8	0.0987373
100	0x3ef019ac	0.46894586
101	0x3c057b80	0.0081471205
102	0x3f22d491	0.636056
103	0x3db38e70	0.08767402
104	0x3f0cc976	0.54994905
105	0x3f35833c	0.7090337
106	0x3f62007d	0.88281995
107	0x3f3ecd45	0.74531966
108	0x3f719aef	0.94377035
109	0x3e80975a	0.25115472
110	0x3e364b58	0.17802179
111	0x3f38cd7e	0.72188556
112	0x3ec3eb9c	0.38265693
113	0x3ea37940	0.31928444
114	0x3ed4cfe8	0.4156487
115	0x3ed2ff02	0.4121018
116	0x3d9e8f30	0.077421546
117	0x3e1971d8	0.14984834
118	0x3f3ec958	0.74525976
119	0x3ed41568	0.41422582
120	0x3f52e20b	0.82376164
121	0x3f098555	0.53719074
122	0x3f45a05c	0.77197814
123	0x3f071bc4	0.5277674
124	0x3f333e0d	0.70016557
125	0x3e5d09f4	0.21585828
126	0x3f36db64	0.71428514
127	0x3e3d4c0c	0.18486041
128	0x3ea9bea0	0.33153248
129	0x3f7674b3	0.9627182
130	0x3ec3de10	0.38255358
131	0x3f42a5fc	0.7603452
132	0x3f21fc79	0.6327587
133	0x3efef63e	0.49797243
134	0x3eec72cc	0.46181333
135	0x3ed79776	0.42107743
136	0x3e8cf842	0.27533156
137	0x3f08a312	0.53373826
138	0x3f7b3212	0.98123276
139	0x3f6319a8	0.88711023
140	0x3f240b56	0.640798
141	0x3eea5b96	0.45773
142	0x3f1a1c25	0.60199195
143	0x3f4a2d82	0.7897569
144	0x3f4e5fe1	0.8061505
145	0x3f1ae4c1	0.605053
146	0x3f0e1e65	0.5551513
147	0x3f17180c	0.5902107
148	0x3eeb24e6	0.4592659
149	0x3f7b9f0d	0.9828957
150	0x3f1af75e	0.605337
151	0x3e7712fc	0.24128336
152	0x3e62f628	0.22164214
153	0x3df72758	0.12068051
154	0x3f4f29bd	0.8092306
155	0x398bf800	0.0002669692
156	0x3ea90c22	0.3301707
157	0x3e8c3fdc	0.2739247
158	0x3eda4ae8	0.42635274
159	0x3e5af9b8	0.21384323
160	0x3e83dafa	0.25753003
161	0x3f167323	0.58769435
162	0x3ecadb1a	0.39620286
163	0x3ea84c7c	0.32870853
164	0x3f6e9725	0.9319938
165	0x3e112700	0.14175034
166	0x3e8b8fd4	0.2725817
167	0x3f33fb43	0.7030527
168	0x3ee8c65e	0.45463842
169	0x3effc9c2	0.49958616
170	0x3f7947ba	0.9737507
171	0x3e394ce0	0.18095732
172	0x3e6b46b4	0.2297619
173	0x3f245cb1	0.64203936
174	0x3e155248	0.14582169
175	0x3f746b18	0.9547591
176	0x3f43dc74	0.7650826
177	0x3bee4080	0.0072708726
178	0x3f02d8ed	0.5111225
179	0x3da092e8	0.0784052
180	0x3e42008c	0.18945521
181	0x3f51a07d	0.8188551
182	0x3f709a04	0.9398501
183	0x3e1e836c	0.15479821
184	0x3f3a8bd9	0.7286964
185	0x3ecf7f44	0.40526783
186	0x3e939bb4	0.2882973
187	0x3f32cbaa	0.69842017
188	0x3eb350fa	0.35022718
189	0x3da34358	0.07971829
190	0x3db31518	0.08744258
191	0x3d83bf58	0.0643298
192	0x3f65b85a	0.89734423
193	0x3e8dcb2a	0.27694064
194	0x3f62231e	0.88334835
195	0x3ee54b16	0.4478385
196	0x3f57c9be	0.8429221
197	0x3e86cdce	0.26328892
198	0x3f78ee31	0.9723845
199	0x3f41ffd0	0.75780964
200	0x3f6d85ad	0.927821
201	0x3e8817d4	0.2658068
202	0x3ecd1c54	0.40060675
203	0x3f14792a	0.5799738
204	0x3f485cdf	0.7826671
205	0x3f71475b	0.94249505
206	0x3e954d72	0.2916065
207	0x3f7632ab	0.96171063
208	0x3ebabed2	0.3647371
209	0x3f213b56	0.62981164
210	0x3f2119d2	0.62930024
211	0x3f45abaa	0.77215064
212	0x3f7561df	0.95852464
213	0x3db0f260	0.08639979
214	0x3e791080	0.243227
215	0x3e76aee4	0.24090153
216	0x3ea13824	0.31488144
217	0x3f205e2b	0.6264369
218	0x3dcef5f0	0.101055026
219	0x3dae3228	0.0850566
220	0x3f1de79e	0.61681545
221	0x3e58ae34	0.21160203
222	0x3efce718	0.4939506
223	0x3f5defe2	0.8669416
224	0x3ebf5e80	0.37376785
225	0x3f7b7219	0.98220974
226	0x3f4559fa	0.7709042
227	0x3f25f0b7	0.64820427
228	0x3f399daa	0.725062
229	0x3e683fe0	0.22680616
230	0x3e06508c	0.13116664
231	0x3e604ab4	0.21903497
232	0x3eea61c0	0.45777702
233	0x3f305ef4	0.68894887
234	0x3e8725e4	0.26396096
235	0x3c99f660	0.018794239
236	0x3ebb6564	0.36600792
237	0x3e32b698	0.17452466
238	0x3f5ae3a1	0.85503584
239	0x3f644355	0.8916524
240	0x3f252ecc	0.6452453
241	0x3f5e1493	0.86750144
242	0x3ea98f90	0.33117342
243	0x3f029afb	0.5101773
244	0x3f3c4d24	0.7355521
245	0x3f5bc987	0.8585438
246	0x3de7ad90	0.11312401
247	0x3f35ad43	0.709675
248	0x3f2ab17e	0.6667708
249	0x3ee50562	0.4473067
250	0x3f4416b6	0.76597154
251	0x3efe2428	0.4963696
252	0x3ebceb06	0.3689806
253	0x3ee945a4	0.45560944
254	0x3db6d638	0.08927578
255	0x3f273cb0	0.65326977

bn1_state.bias f4 [400]
0	0x00000000	0.0
1	0x00000000	0.0
2	0x00000000	0.0
3	0x00000000	0.0
4	0x00000000	0.0
5	0x00000000	0.0
6	0x00000000	0.0
7	0x00000000	0.0
8	0x00000000	0.0
9	0x00000000	0.0
10	0x00000000	0.0
11	0x00000000	0.0
12	0x00000000	0.0
13	0x00000000	0.0
14	0x00000000	0.0
15	0x00000000	0.0
16	0x00000000	0.0
17	0x00000000	0.0
18	0x00000000	0.0
19	0x00000000	0.0
20	0x00000000	0.0
21	0x00000000	0.0
22	0x00000000	0.0
23	0x00000000	0.0
24	0x00000000	0.0
25	0x00000000	0.0
26	0x00000000	0.0
27	0x00000000	0.0
28	0x00000000	0.0
29	0x00000000	0.0
30	0x00000000	0.0
31	0x00000000	0.0
32	0x00000000	0.0
33	0x00000000	0.0
34	0x00000000	0.0
35	0x00000000	0.0
36	0x00000000	0.0
37	0x00000000	0.0
38	0x00000000	0.0
39	0x00000000	0.0
40	0x00000000	0.0
41	0x00000000	0.0
42	0x00000000	0.0
43	0x00000000	0.0
44	0x00000000	0.0
45	0x00000000	0.0
46	0x00000000	0.0
47	0x00000000	0.0
48	0x00000000	0.0
49	0x00000000	0.0
50	0x00000000	0.0
51	0x00000000	0.0
52	0x00000000	0.0
53	0x00000000	0.0
54	0x00000000	0.0
55	0x00000000	0.0
56	0x00000000	0.0
57	0x00000000	0.0
58	0x00000000	0.0
59	0x00000000	0.0
60	0x00000000	0.0
61	0x00000000	0.0
62	0x00000000	0.0
63	0x00000000	0.0
64	0x00000000	0.0
65	0x00000000	0.0
66	0x00000000	0.0
67	0x00000000	0.0
68	0x00000000	0.0
69	0x00000000	0.0
70	0x00000000	0.0
71	0x00000000	0.0
72	0x00000000	0.0
73	0x00000000	0.0
74	0x00000000	0.0
75	0x00000000	0.0
76	0x00000000	0.0
77	0x00000000	0.0
78	0x00000000	0.0
79	0x00000000	0.0
80	0x00000000	0.0
81	0x00000000	0.0
82	0x00000000	0.0
83	0x00000000	0.0
84	0x00000000	0.0
85	0x00000000	0.0
86	0x00000000	0.0
87	0x00000000	0.0
88	0x00000000	0.0
89	0x00000000	0.0
90	0x00000000	0.0
91	0x00000000	0.0
92	0x00000000	0.0
93	0x00000000	0.0
94	0x00000000	0.0
95	0x00000000	0.0
96	0x00000000	0.0
97	0x00000000	0.0
98	0x00000000	0.0
99	0x00000000	0.0
100	0x00000000	0.0
101	0x00000000	0.0
102	0x00000000	0.0
103	0x00000000	0.0
104	0x00000000	0.0
105	0x00000000	0.0
106	0x00000000	0.0
107	0x00000000	0.0
108	0x00000000	0.0
109	0x00000000	0.0
110	0x00000000	0.0
111	0x00000000	0.0
112	0x00000000	0.0
113	0x00000000	0.0
114	0x00000000	0.0
115	0x00000000	0.0
116	0x00000000	0.0
117	0x00000000	0.0
118	0x00000000	0.0
119	0x00000000	0.0
120	0x00000000	0.0
121	0x00000000	0.0
122	0x00000000	0.0
123	0x00000000	0.0
124	0x00000000	0.0
125	0x00000000	0.0
126	0x00000000	0.0
127	0x00000000	0.0
128	0x00000000	0.0
129	0x00000000	0.0
130	0x00000000	0.0
131	0x00000000	0.0
132	0x00000000	0.0
133	0x00000000	0.0
134	0x00000000	0.0
135	0x00000000	0.0
136	0x00000000	0.0
137	0x00000000	0.0
138	0x00000000	0.0
139	0x00000000	0.0
140	0x00000000	0.0
141	0x00000000	0.0
142	0x00000000	0.0
143	0x00000000	0.0
144	0x00000000	0.0
145	0x00000000	0.0
146	0x00000000	0.0
147	0x00000000	0.0
148	0x00000000	0.0
149	0x00000000	0.0
150	0x00000000	0.0
151	0x00000000	0.0
152	0x00000000	0.0
153	0x00000000	0.0
154	0x00000000	0.0
155	0x00000000	0.0
156	0x00000000	0.0
157	0x00000000	0.0
158	0x00000000	0.0
159	0x00000000	0.0
160	0x00000000	0.0
161	0x00000000	0.0
162	0x00000000	0.0
163	0x00000000	0.0
164	0x00000000	0.0
165	0x00000000	0.0
166	0x00000000	0.0
167	0x00000000	0.0
168	0x00000000	0.0
169	0x00000000	0.0
170	0x00000000	0.0
171	0x00000000	0.0
172	0x00000000	0.0
173	0x00000000	0.0
174	0x00000000	0.0
175	0x00000000	0.0
176	0x00000000	0.0
177	0x00000000	0.0
178	0x00000000	0.0
179	0x00000000	0.0
180	0x00000000	0.0
181	0x00000000	0.0
182	0x00000000	0.0
183	0x00000000	0.0
184	0x00000000	0.0
185	0x00000000	0.0
186	0x00000000	0.0
187	0x00000000	0.0
188	0x00000000	0.0
189	0x00000000	0.0
190	0x00000000	0.0
191	0x00000000	0.0
192	0x00000000	0.0
193	0x00000000	0.0
194	0x00000000	0.0
195	0x00000000	0.0
196	0x00000000	0.0
197	0x00000000	0.0
198	0x00000000	0.0
199	0x00000000	0.0
200	0x00000000	0.0
201	0x00000000	0.0
202	0x00000000	0.0
203	0x00000000	0.0
204	0x00000000	0.0
205	0x00000000	0.0
206	0x00000000	0.0
207	0x00000000	0.0
208	0x00000000	0.0
209	0x00000000	0.0
210	0x00000000	0.0
211	0x00000000	0.0
212	0x00000000	0.0
213	0x00000000	0.0
214	0x00000000	0.0
215	0x00000000	0.0
216	0x00000000	0.0
217	0x00000000	0.0
218	0x00000000	0.0
219	0x00000000	0.0
220	0x00000000	0.0
221	0x00000000	0.0
222	0x00000000	0.0
223	0x00000000	0.0
224	0x00000000	0.0
225	0x00000000	0.0
226	0x00000000	0.0
227	0x00000000	0.0
228	0x00000000	0.0
229	0x00000000	0.0
230	0x00000000	0.0
231	0x00000000	0.0
232	0x00000000	0.0
233	0x00000000	0.0
234	0x00000000	0.0
235	0x00000000	0.0
236	0x00000000	0.0
237	0x00000000	0.0
238	0x00000000	0.0
239	0x00000000	0.0
240	0x00000000	0.0
241	0x00000000	0.0
242	0x00000000	0.0
243	0x00000000	0.0
244	0x00000000	0.0
245	0x00000000	0.0
246	0x00000000	0.0
247	0x00000000	0.0
248	0x00000000	0.0
249	0x00000000	0.0
250	0x00000000	0.0
251	0x00000000	0.0
252	0x00000000	0.0
253	0x00000000	0.0
254	0x00000000	0.0
255	0x00000000	0.0
