collaboration_competition/outputs/exp_4/actor2_10000.pth (torch_old, 536747 bytes, 14 tensors)

fc1.weight f4 [400, 24]
0	0x3c8c48a2	0.017124478
1	0x3d2c212d	0.042023826
2	0x3cd81e1f	0.02638155
3	0xbc2770dd	-0.01021978
4	0xbd54113f	-0.05177426
5	0x3c9d1c3d	0.019178504
6	0xbcf7bf6c	-0.030242644
7	0x3b850779	0.0040597287
8	0x3c9a6165	0.01884527
9	0x3c38b218	0.01127293
10	0xbb80eb29	-0.0039342833
11	0xbcb40534	-0.021975137
12	0x3d3aa054	0.045563057
13	0x3d2f0c92	0.042736597
14	0x3d4035ee	0.04692643
15	0xbc3d20de	-0.011543481
16	0x3c88a22b	0.01667889
17	0x3d7d07f4	0.061775163
18	0xbd71b66f	-0.059011873
19	0xbd5b2ddf	-0.053510543
20	0x3da9b468	0.08286363
21	0xbd1d12d5	-0.038348038
22	0xbd75a477	-0.0599713
23	0x3c9db802	0.01925278
24	0xbca79f11	-0.020461591
25	0x3cfb49d3	0.03067485
26	0x3c7a496a	0.015276292
27	0x3cdb8036	0.026794534
28	0x3d52efc1	0.05149818
29	0x3d40cd6d	0.04707091
30	0x3d34fe3f	0.04418778
31	0xbccf3cb0	-0.025297493
32	0x3c10bd11	0.008834139
33	0x3d3affec	0.045654222
34	0x3d3ce3a3	0.04611553
35	0x3cf7275a	0.030170131
36	0x3b39eb8e	0.0028369161
37	0x3c24729f	0.010037093
38	0x3d2ac619	0.041692827
39	0x3d0ee3b5	0.034885127
40	0x3cb211e6	0.02173705
41	0x3d650d17	0.055920687
42	0xbc8526f0	-0.016253918
43	0x3d27a78d	0.040931273
44	0x3bde6d1a	0.0067879083
45	0x3d2094fa	0.039204575
46	0xbcff9f8c	-0.031204008
47	0xbd1021c3	-0.035188448
48	0x3d499a71	0.049219552
49	0x3d7a1b96	0.061061464
50	0x3b72f377	0.0037071386
51	0xbd0a2d4e	-0.033734612
52	0x3ca6fe65	0.020384977
53	0x3cc9e85e	0.024646934
54	0x3c42b634	0.011884261
55	0x3cc4669b	0.023974707
56	0x3d11f2d8	0.035631984
57	0x3d0d56eb	0.03450672
58	0xbd720011	-0.059082095
59	0xbc885a36	-0.016644578
60	0x389822b8	7.254392e-05
61	0xbc9c4a7e	-0.01907849
62	0x3c3c574b	0.011495422
63	0x3c6048a9	0.0136891985
64	0x3d09f008	0.033676177
65	0x3bb64f40	0.0055636466
66	0xbd020065	-0.031738658
67	0x3cadac65	0.021200368
68	0xbc8142ce	-0.015778925
69	0xbd252146	-0.040314935
70	0x3bf96982	0.0076114545
71	0xb94e4131	-0.00019669977
72	0x3d7dbf88	0.061950237
73	0x3b57ffad	0.003295879
74	0x3d0db79e	0.03459894
75	0xbc88e04c	-0.016708516
76	0xbc9a70ad	-0.018852556
77	0xba0e8323	-0.0005436411
78	0xbc792b9c	-0.015208151
79	0x3d4f17dd	0.050559867
80	0xbd1d3063	-0.038376223
81	0xbd3a8685	-0.045538444
82	0x3d2248b2	0.03962011
83	0xbb262b02	-0.0025355224
84	0xbd54d7ac	-0.051963493
85	0xbd0abcfb	-0.033871632
86	0x3c4c8815	0.012483616
87	0x3c99ff54	0.018798508
88	0xbd3679e9	-0.044549856
89	0xbd5eb513	-0.054371905
90	0xbca13c5c	-0.019682102
91	0x3bc22fc0	0.0059261024
92	0xbd33ad29	-0.04386631
93	0x3d2c05b2	0.04199762
94	0xbc829752	-0.015941296
95	0xbce309f4	-0.027714707
96	0xbc1441cb	-0.009048889
97	0x3d9d31ab	0.07675489
98	0x3d289c37	0.041164603
99	0x3d39ae42	0.0453322
100	0xbb227e5b	-0.0024794552
101	0x3d7306e0	0.05933273
102	0x3b9bc517	0.0047537195
103	0x3d2aea34	0.04172726
104	0x3c2c459a	0.010514641
105	0x3db7f30f	0.089819066
106	0x3d02cea9	0.031935368
107	0xbd0635b5	-0.032766063
108	0x3cbff6c2	0.023433093
109	0x3d38f7d3	0.04515822
110	0xbd2b1222	-0.04176534
111	0x3d08582c	0.033287212
112	0x3d817aaf	0.06322228
113	0x3d1a5ba3	0.037685048
114	0xbaa25be0	-0.0012387
115	0x3bd44bcb	0.006478762
116	0xbb88ba8e	-0.0041726297
117	0x3d091f41	0.03347707
118	0xbd3eb9db	-0.046563964
119	0x3b8e02b4	0.0043338183
120	0x3d0bcc0b	0.034130137
121	0x3d033363	0.032031428
122	0xbd26dd5e	-0.040738456
123	0xbd15c4a8	-0.0365645
124	0xbc6664ed	-0.0140621485
125	0x3cc7d249	0.024392264
126	0xbc0b6112	-0.00850703
127	0x3c18e34a	0.009331534
128	0x3d7029b9	0.05863354
129	0xbce479c7	-0.0278901
130	0xbc1210a3	-0.008915099
131	0x3d082b2c	0.033244297
132	0xbd3d6e99	-0.046248052
133	0x3b354f02	0.00276655
134	0x3ce1daca	0.027570147
135	0xbcabd801	-0.020977022
136	0x3cc6e175	0.024277428
137	0xbc3fc24f	-0.011704042
138	0xbc0e3e37	-0.008681825
139	0x3c23b65b	0.009992207
140	0x3d7bade5	0.061445136
141	0xbd06e048	-0.032928735
142	0xbd069b9f	-0.032863256
143	0xbc347083	-0.011013153
144	0x3cc96763	0.024585431
145	0x3d0545c7	0.032537248
146	0x3d1a091e	0.03760635
147	0x3ccfe82b	0.025379261
148	0x3c86e356	0.016465824
149	0x3d8b33d7	0.06796997
150	0xbc4f8677	-0.012666336
151	0xbcb7bc5f	-0.02242869
152	0xbbf33dd5	-0.0074231424
153	0xbb2f84ad	-0.0026781962
154	0x3ce58b50	0.028020531
155	0xbd48e75c	-0.049048766
156	0xbcbc66ed	-0.022998298
157	0xbb9f1f79	-0.0048560468
158	0xbd3cc11e	-0.04608261
159	0x3c93ea83	0.01805616
160	0xbb50ebf8	-0.003187893
161	0xbd3c3d2e	-0.045956783
162	0xbcf24299	-0.029572772
163	0xbc17c124	-0.009262357
164	0xbd1bec1a	-0.03806696
165	0xbdfa456a	-0.12220271
166	0x3c0d3fb5	0.008621146
167	0x3bdd48e4	0.006753074
168	0x3d1492c2	0.03627277
169	0x3d52c923	0.05146135
170	0xbb594e01	-0.0033158066
171	0x3c9580c6	0.01824988
172	0xbc5577a4	-0.013029013
173	0x3d1c31a3	0.038133275
174	0xbd1514c1	-0.036396746
175	0xbd21aee1	-0.03947342
176	0xbd4da849	-0.050209317
177	0x365fd7de	3.335524e-06
178	0xbd05ab1f	-0.032633897
179	0x3c95b1d1	0.018273266
180	0xbc1bc38f	-0.009507074
181	0x3d589f27	0.052886155
182	0xbc1093ad	-0.008824271
183	0xbc4066ac	-0.011743229
184	0x3c9f23fe	0.019426342
185	0x3d2ed802	0.04268647
186	0x3b7e895e	0.0038839201
187	0x3cba5473	0.022745347
188	0xbd2eef96	-0.042708956
189	0xbd17567a	-0.036947705
190	0xbd195c2f	-0.03744143
191	0xbd362a17	-0.044473734
192	0x3d50a688	0.050940067
193	0xbb45a150	-0.0030155964
194	0xbd25ab18	-0.04044637
195	0xbd077a73	-0.03307576
196	0xbca7bfd7	-0.020477219
197	0x3cce777a	0.025203455
198	0xbd41e940	-0.047341585
199	0xbd5ea3c7	-0.05435541
200	0x3d293dfd	0.041318882
201	0x3c2fa956	0.010721525
202	0xbcec1d21	-0.028822483
203	0x3b611de7	0.0034350099
204	0x3cbbcb54	0.022924103
205	0x3c364d6e	0.011126859
206	0x3c2c0256	0.010498604
207	0xbd00f5c5	-0.031484384
208	0xbcec84bb	-0.028871885
209	0x3d4c749f	0.049915906
210	0x3bc4cf73	0.006006175
211	0xbd34c56d	-0.044133592
212	0x3d75c135	0.05999871
213	0x3c1600ea	0.009155491
214	0x3ccdba8d	0.025113368
215	0xbd0bc671	-0.034124795
216	0x3c0c95c9	0.008580633
217	0x3d4bc0e2	0.049744494
218	0xbca1fb3d	-0.01977312
219	0x3c409651	0.011754588
220	0x3d7fab1a	0.062419035
221	0x3c5d8589	0.013520607
222	0x3d6f6884	0.058449283
223	0xbc55aab9	-0.013041192
224	0x3c26d883	0.010183456
225	0x3c6456af	0.013936683
226	0xbc2e37b3	-0.010633397
227	0x3d24f38d	0.04027133
228	0x3ccfb7ee	0.02535626
229	0xbd273e7d	-0.040831078
230	0xbc3f02db	-0.011658396
231	0xbb2d9cca	-0.0026491159
232	0x3c1a86da	0.009431565
233	0xbcbf1913	-0.023327386
234	0x3c510415	0.012757321
235	0x3dbb634f	0.09149801
236	0x3b6a0b05	0.0035712135
237	0x3c80c0ed	0.015716994
238	0x3c3de9af	0.011591359
239	0x3c00128f	0.007816925
240	0xbc079bac	-0.008276861
241	0xbd1d9732	-0.03847427
242	0x3d1ce3f7	0.03830334
243	0x3d14d48f	0.036335524
244	0xbccb6678	-0.024829134
245	0xbbdcda00	-0.006739855
246	0xbc567768	-0.013089992
247	0xbc945130	-0.01810512
248	0xbd2493fd	-0.040180195
249	0xbd03b089	-0.03215078
250	0x3c96e78f	0.018420963
251	0xbc8439f9	-0.016140925
252	0x3d885c0c	0.066581815
253	0x3aef16fa	0.00182411
254	0xbc991d05	-0.018690595
255	0x3c848aa4	0.01617939

fc1.bias f4 [400]
0	0x3e0882b8	0.13331115
1	0x3d1b9ed5	0.03799327
2	0xbd7e0bbf	-0.06202292
3	0x3e3e70cd	0.18597718
4	0xbbcb8047	-0.00621036
5	0xbca12b1c	-0.019673876
6	0xbc34fe88	-0.011047013
7	0xbe1deea2	-0.15423062
8	0xbda0f7ef	-0.078597896
9	0xbe47f7c9	-0.19528116
10	0xbd1a9bbf	-0.037746187
11	0xbe296860	-0.16543722
12	0x3c490241	0.012268604
13	0xbc93a5a2	-0.018023316
14	0x3d979254	0.07400957
15	0xbdea5c12	-0.11443342
16	0xbaef559f	-0.001825977
17	0xbd8d9bee	-0.06914507
18	0xbddc6fd7	-0.10763519
19	0x3df54280	0.119755745
20	0xbe5c08b4	-0.21487695
21	0x3e1eae93	0.15496282
22	0xbd772939	-0.060342047
23	0xbe062d7e	-0.13103291
24	0xbe53dacb	-0.20688932
25	0xbe490b00	-0.19633102
26	0xbdaad80a	-0.083419874
27	0x3e03d868	0.12875521
28	0x3cdfa860	0.027301967
29	0xbe2209ad	-0.15824004
30	0x3e55ef77	0.2089213
31	0x3e377373	0.17915134
32	0x3da193d0	0.07889521
33	0x3e50fc59	0.20408763
34	0x3e192dc9	0.14958872
35	0x3cdcb3e2	0.026941244
36	0x3e1be0fb	0.15222542
37	0xbdff9d7a	-0.12481208
38	0xbd1ede0c	-0.03878598
39	0xbe1a2b9b	-0.15055697
40	0xbdc60e88	-0.0967074
41	0xbe3d5070	-0.18487716
42	0x3e016ef4	0.12639982
43	0xbd866a50	-0.06563246
44	0x3d628b60	0.0553087
45	0x3e1aed06	0.1512948
46	0x3d616040	0.05502343
47	0x3d03790a	0.032097854
48	0x3e4cae97	0.19988476
49	0xbe695405	-0.22785957
50	0x3e391115	0.18072923
51	0xbe431289	-0.1905004
52	0x3e6c18cf	0.23056339
53	0x3b2e358f	0.0026582216
54	0xbe0f57c1	-0.13998319
55	0xbdd59d62	-0.10430409
56	0xbdcabfbc	-0.09899852
57	0x3dd3419f	0.103152506
58	0x3e3df904	0.18552023
59	0x3dd52af5	0.10408584
60	0x3e328b13	0.17435865
61	0x3e3cc223	0.18433432
62	0xbe4a65f5	-0.19765456
63	0x3d8a7e87	0.067624144
64	0x3cd8e359	0.026475595
65	0x3dde9512	0.10868277
66	0x3d7b1dc5	0.061307687
67	0xbbaa6ae3	-0.00520073
68	0x3deb8241	0.11499453
69	0xbd8fdac1	-0.07024146
70	0xbe3a575f	-0.18197392
71	0xbe145ebe	-0.14489266
72	0x3dcff885	0.10154823
73	0xbc248010	-0.010040298
74	0xbe3c0db2	-0.183646
75	0x3d6e28f4	0.058144525
76	0xbbd2d5e4	-0.006434189
77	0xbe04ca96	-0.12967905
78	0x3e3adf65	0.18249281
79	0x3e0e7f5a	0.13915768
80	0x3e18aeee	0.1491048
81	0xbd513ab9	-0.051081393
82	0xbe1dd152	-0.1541188
83	0xbe4542aa	-0.19263712
84	0xbb246008	-0.0025081653
85	0xbe0f7ade	-0.14011714
86	0x3dbee6f3	0.09321394
87	0xbe4d18f3	-0.20029049
88	0xbe3fed1b	-0.18742792
89	0x3cc99884	0.024608858
90	0x3ceb9ea7	0.028762175
91	0xbd395c94	-0.045254305
92	0xbd497e8f	-0.04919296
93	0xbdf90491	-0.12159074
94	0xbdb2dbbb	-0.087333165
95	0x3cd59a5a	0.026074577
96	0xbe5bb1ce	-0.21454546
97	0xbd8d5280	-0.06900501
98	0xbd023c4e	-0.031795792
99	0xbc058c4c	-0.008151125
100	0x3e09d0f0	0.1345861
101	0xbe43bac1	-0.1911421
102	0x3d84865e	0.06470941
103	0x3dc122ab	0.094304405
104	0x3cfe31d8	0.031029627
105	0xbd7bafaf	-0.06144684
106	0x3e01d32c	0.12678212
107	0xbe37b31b	-0.17939417
108	0xbdb7aca5	-0.08968476
109	0xbc96eed4	-0.018424429
110	0xbd0853b9	-0.03328297
111	0xbe65a620	-0.22426653
112	0x3db5e16f	0.08880889
113	0x3dc0ac04	0.094078094
114	0xbe61ddc7	-0.22057258
115	0x3b92f1dc	0.0044843983
116	0xbe450a3d	-0.19242187
117	0xbd87533b	-0.06607672
118	0x3cf98f83	0.03046394
119	0x3e1fa8b5	0.155917
120	0x3e2ace12	0.16680172
121	0x3df89a6d	0.121388294
122	0x3c28f87b	0.010313149
123	0xbe603cef	-0.21898244
124	0xbd6a8457	-0.057255115
125	0x3e5c0726	0.21487102
126	0x3cf9a2e1	0.030473175
127	0xbd0deea2	-0.034651406
128	0xbdb10faa	-0.08645566
129	0x3dcbf2fa	0.099584535
130	0x3df27a7f	0.118397705
131	0xbd01376f	-0.031547006
132	0x3d84fff6	0.06494133
133	0x3df25bd3	0.1183392
134	0x3e05802e	0.13037178
135	0x3d64871a	0.055792905
136	0x3e083c25	0.13304193
137	0x3d1d1485	0.038349647
138	0x3d1c7c27	0.03820434
139	0xbe833ad9	-0.25630835
140	0xbd8e5671	-0.06950081
141	0xbdaa76a5	-0.08323411
142	0x3d40854a	0.047002114
143	0xbd8eb192	-0.069674626
144	0xbe51cdda	-0.20488682
145	0x3e243856	0.16037115
146	0xbda3bf43	-0.07995465
147	0xbe40ebcf	-0.18839954
148	0xbd920524	-0.07129887
149	0x3d1a65be	0.037694685
150	0xbd8e696c	-0.069537014
151	0xbe70ab9a	-0.23502961
152	0x3c52be3f	0.012862741
153	0x3d9e193a	0.07719655
154	0x3e3740a1	0.17895748
155	0xbe415997	-0.18881832
156	0xbd33e9e3	-0.043924224
157	0xbdbb68bb	-0.09150835
158	0xbda82e9b	-0.08212014
159	0xbcaed98d	-0.02134397
160	0x3e39b385	0.18134888
161	0xbd1ffd34	-0.039059833
162	0x3e366bca	0.17814556
163	0x3bea62c7	0.0071528885
164	0xbdbe7dc5	-0.093013324
165	0xbce402f6	-0.027833443
166	0x3dd4ff41	0.10400248
167	0x3decabc9	0.11556203
168	0xbda5e5bb	-0.08100458
169	0x3c9cf709	0.019160764
170	0xbe308f46	-0.17242154
171	0xbdf5c190	-0.1199981
172	0xbdd5eef6	-0.10445969
173	0x3dcf0726	0.10108785
174	0xbca0e7af	-0.019641725
175	0x3d9f8fc4	0.07791093
176	0xbe314d29	-0.1731459
177	0x3ca2ff2c	0.019897066
178	0xbe37aa76	-0.1793612
179	0xbd873f34	-0.06603852
180	0x3e28d036	0.16485676
181	0xbca90e60	-0.020636737
182	0xbe27905b	-0.16363661
183	0xbe525551	-0.20540358
184	0xbd8bd7d3	-0.068282746
185	0xbddd587c	-0.10807893
186	0xbe5fc15a	-0.21851102
187	0x3dec412d	0.11535869
188	0xbc4f23ef	-0.012642845
189	0xbd8dd277	-0.069249086
190	0x3e23b458	0.15986764
191	0xbe6c49d6	-0.23075041
192	0x3cc98ef2	0.024604294
193	0x3e2719f5	0.16318496
194	0x3d113efc	0.035460457
195	0x3dfb86e4	0.12281588
196	0xbd7040ce	-0.058655553
197	0xbe511808	-0.20419323
198	0x3e2fd97a	0.17172804
199	0xbe450773	-0.19241123
200	0xbdb4d36e	-0.088293895
201	0x3e413f04	0.18871695
202	0xbe0b5e27	-0.13610135
203	0xbd37cdf1	-0.044874135
204	0xbdc429cf	-0.09578287
205	0x3ba28b29	0.004960437
206	0xbd8b0d07	-0.06789594
207	0x3d7aea5e	0.061258666
208	0x3e49de7c	0.19713777
209	0xbe570955	-0.20999654
210	0x3e107686	0.14107713
211	0xbda57263	-0.08078458
212	0xbe60a0d6	-0.21936354
213	0x3d93cbf2	0.07216634
214	0xbe22d998	-0.15903318
215	0x3dd8cf11	0.1058637
216	0xbd3a19a5	-0.045434613
217	0xbe02d766	-0.1277748
218	0xbe370838	-0.17874229
219	0x3d8a092a	0.06740029
220	0xbe571237	-0.21003042
221	0x3df4c835	0.11952249
222	0x3d9ba832	0.0760044
223	0xbe6c16c7	-0.23055564
224	0x3dac25f1	0.08405674
225	0xbe13cdb9	-0.14433946
226	0x3bcf2fa1	0.0063228165
227	0xbd680449	-0.05664471
228	0x3e07a2f0	0.1324575
229	0xbe2dd229	-0.16974701
230	0xbd7be58c	-0.06149821
231	0xbdae5423	-0.085121416
232	0xbd191be4	-0.037380114
233	0x3b8c601e	0.004283919
234	0xbe07cd9d	-0.13262029
235	0x3c4086cb	0.011750887
236	0x3bb8c47b	0.0056386567
237	0xbdf4f325	-0.11960439
238	0x3d3c361f	0.04595005
239	0x3e03bedc	0.12865776
240	0x3db8337b	0.08994194
241	0x3d845d4c	0.064631075
242	0xbde3ff76	-0.1113271
243	0xbe1c89a2	-0.15286878
244	0x3de3c9a5	0.11122445
245	0x3d061630	0.032736003
246	0x3b43619b	0.0029812816
247	0x3df43e27	0.11925917
248	0xbddfbafe	-0.10924338
249	0xbe45bea4	-0.19311005
250	0xbe3aeef6	-0.18255219
251	0xbe5999e5	-0.21250112
252	0x3e14b7ca	0.14523235
253	0x3ddf5e4d	0.10906658
254	0xbdcb2de3	-0.099208616
255	0xbd41f2b8	-0.047350615

fc2.weight f4 [300, 400]
0	0xbd3cda5a	-0.046106674
1	0x3ccc9375	0.024972657
2	0xbd24bb3a	-0.040217616
3	0x3ca7bbdd	0.020475322
4	0xbc41a254	-0.011818487
5	0x3cac371b	0.02102237
6	0x3d676580	0.056493282
7	0xbce990c6	-0.028511416
8	0xbbeaf7a3	-0.007170634
9	0xbd29fc0b	-0.041500133
10	0xbc9526da	-0.018207002
11	0x3a4a83e7	0.00077253435
12	0xbca75a3e	-0.020428773
13	0xbd589d8e	-0.05288463
14	0xbcb34c29	-0.021886902
15	0xbd810766	-0.06300239
16	0xbc608c9a	-0.013705397
17	0x3d6ff153	0.058579754
18	0xbcc887f6	-0.024478894
19	0xbbfff7ad	-0.0078115077
20	0x3d454301	0.048159603
21	0xbd1a7e30	-0.037717998
22	0xbcd46eff	-0.025931833
23	0x3d51619f	0.05111849
24	0xbc835ed6	-0.016036432
25	0xbd3c50ca	-0.045975484
26	0xbcf3b6a9	-0.029750185
27	0xbca9fa0b	-0.020749113
28	0x3cade9f0	0.021229714
29	0xbc969f48	-0.018386498
30	0x3cec948d	0.028879428
31	0x3d82b47d	0.06382082
32	0x3cbf008b	0.023315689
33	0x3b9f47f3	0.004860872
34	0x3b508fcb	0.0031823989
35	0x3d291dc8	0.041288167
36	0x3b3ac6b1	0.0028499777
37	0x3c9bfb52	0.019040737
38	0xba67dcfa	-0.0008844879
39	0xbc1e4baf	-0.009661599
40	0x3d3146c6	0.043280385
41	0xbd3d0b3a	-0.046153285
42	0x39ee0fe5	0.0004540674
43	0xbd11f8a1	-0.0356375
44	0xbb90039e	-0.0043949625
45	0x3ac8d059	0.0015320882
46	0xbd35a9af	-0.044351276
47	0xbaae82b2	-0.0013314097
48	0xbd1a44e4	-0.037663355
49	0xbc9bdbc3	-0.019025689
50	0xbb39432d	-0.00282688
51	0x3d0c2ce7	0.03422251
52	0xbd460ac5	-0.048350114
53	0xbd4cd434	-0.05000706
54	0xbd5cf776	-0.053946935
55	0xbce20e24	-0.027594633
56	0x3cef876e	0.029239383
57	0x3d496793	0.04917104
58	0x3ca92e36	0.020651918
59	0xbcfc993f	-0.030834792
60	0xbd3d406b	-0.046204012
61	0x3d08c325	0.03338923
62	0x3cc143e9	0.023591952
63	0xbd101161	-0.035172824
64	0x3c371fc8	0.011177011
65	0x3d57eab2	0.052714057
66	0xbd095acd	-0.03353386
67	0x3c12340a	0.00892354
68	0x3d51c686	0.051214717
69	0x3d5fd78e	0.05464893
70	0x3ce717e0	0.028209627
71	0x3d66c0a1	0.05633605
72	0xbd2c693b	-0.042092543
73	0x3cb96d84	0.022635229
74	0xbc2523f9	-0.010079377
75	0xbcf53272	-0.02993128
76	0xbd67455a	-0.056462623
77	0x3d3fe727	0.046851303
78	0x3d0dc9d4	0.034616306
79	0x3d080112	0.033204146
80	0xbd2b7fee	-0.04187005
81	0x3b5dd30f	0.0033847725
82	0x3c90b633	0.017665004
83	0x3d21ab79	0.03947017
84	0xbbd6d49d	-0.006556107
85	0x3ca95894	0.02067212
86	0xbc63eb71	-0.013911114
87	0xbd2e7fe3	-0.04260243
88	0x3c76208a	0.015022406
89	0x3ba14f23	0.004922764
90	0xbd6a7ec6	-0.057249807
91	0xbd688597	-0.056768026
92	0x3d146f76	0.03623911
93	0x3cda282c	0.026630484
94	0xbc924f41	-0.017860057
95	0x3c7ff61a	0.01562264
96	0x3d578ca7	0.05262437
97	0x3c35390e	0.011060966
98	0xb9100bae	-0.00013737261
99	0x3bba7a6b	0.005690863
100	0x3ad32e79	0.0016111872
101	0xbd69c27e	-0.057070248
102	0x3d5d41ba	0.05401776
103	0x3ce40545	0.027834544
104	0xbcd10cd2	-0.025518809
105	0x3c2c28dc	0.0105077885
106	0x3d49d7de	0.049278133
107	0x3c41981f	0.011816054
108	0x3d0c3fff	0.03424072
109	0x3d2ff9da	0.042962886
110	0x3d5c2c3a	0.053753115
111	0x3d5bb8c6	0.05364301
112	0x3c86adc5	0.016440282
113	0xbd54e105	-0.051972408
114	0x3b0d2f20	0.0021542981
115	0xbcda244d	-0.026628638
116	0xbd32779b	-0.043571096
117	0x3d1c349f	0.03813612
118	0xbc732a59	-0.014841639
119	0x3d189dd0	0.037259877
120	0xbca6b02b	-0.020347675
121	0xbbbcb42f	-0.0057587842
122	0xbd557b33	-0.052119445
123	0x3d5e4206	0.054262184
124	0x3d6425a8	0.055699974
125	0xbc15f8b5	-0.009153535
126	0x3d06c388	0.032901317
127	0xbd14ae66	-0.03629913
128	0x3d0c631c	0.034274206
129	0xbc8e5efa	-0.017379273
130	0xbd6dc5f9	-0.05805013
131	0x3beffa2a	0.007323523
132	0xbb995f0a	-0.004680519
133	0xbd3b22cf	-0.045687493
134	0x3d2a0823	0.041511666
135	0xbd3796cc	-0.044821545
136	0xbd50a864	-0.05094184
137	0x3c526c36	0.012843182
138	0x3c1fd50b	0.009755383
139	0x3c2676d0	0.010160163
140	0xbc70f1ea	-0.014706114
141	0x3bb4f475	0.0055223056
142	0xbb0caf82	-0.0021466915
143	0x3d2d2044	0.0422671
144	0x3d767986	0.060174488
145	0xbd216b65	-0.03940906
146	0x3b96b2c4	0.0045989472
147	0x3c49685c	0.012292948
148	0xbcc2ec3b	-0.023794284
149	0xbd0bad42	-0.03410078
150	0x3d5fbac9	0.05462149
151	0x3d1270e3	0.03575219
152	0x3c8e2dbc	0.017355792
153	0x3c800ddd	0.01563161
154	0xbd69f22b	-0.057115715
155	0x3d5c5a85	0.053797264
156	0xbd40e62c	-0.04709451
157	0xbd14397d	-0.036187638
158	0x3d5240fd	0.05133151
159	0xbd158c0d	-0.036510516
160	0x3cc6242d	0.024187172
161	0xbb171faa	-0.0023059645
162	0x3d596ada	0.053080417
163	0xbcbff163	-0.023430532
164	0xbcae7d3a	-0.021299947
165	0xbd361292	-0.044451304
166	0x3ca4b5b9	0.020106183
167	0x3cf6af22	0.030112807
168	0xbd34c97f	-0.044137474
169	0xbc5c8bfe	-0.013461111
170	0x3d83fd5c	0.06444809
171	0xbbd3d08c	-0.0064640697
172	0x3c3feea6	0.011714613
173	0xbb3015ae	-0.002686839
174	0xba909d7a	-0.001103326
175	0x3ce0f17b	0.027458897
176	0x3d5edb77	0.054408517
177	0x3d3bd608	0.045858413
178	0xbc7103d9	-0.01471039
179	0x3cbf7dcc	0.023375414
180	0xbaeee742	-0.0018226879
181	0x3d0f5546	0.034993432
182	0xbd279f4e	-0.04092341
183	0xbcfa57f1	-0.030559512
184	0x3bc2216b	0.005924394
185	0x3d0aaba9	0.033855114
186	0xbd045a5e	-0.032312743
187	0x3d4196e0	0.047263026
188	0x3bb00cc5	0.005372616
189	0xbcc1e538	-0.02366887
190	0x3d320ff4	0.043472245
191	0xbcd0a016	-0.02546696
192	0x3cab44f1	0.020906897
193	0xbc96b073	-0.018394684
194	0x3c802077	0.01564048
195	0xbc0406bc	-0.008058246
196	0x3c09bbb1	0.0084065655
197	0xbd69d01e	-0.05708324
198	0x3d573962	0.05254496
199	0x3d7f2685	0.062292594
200	0x3d2b0f2c	0.041762516
201	0xbd0f3d93	-0.03497083
202	0x3cd9f311	0.02660516
203	0xbd0192b7	-0.03163406
204	0x3d2630cd	0.040573884
205	0x3cc46dbd	0.023978109
206	0x3c5000a5	0.012695466
207	0xbd3fac41	-0.046795134
208	0xbd0af3c5	-0.033923883
209	0xbd3b60dd	-0.045746673
210	0x3d4f7da0	0.050656915
211	0x3d45eb0a	0.048319854
212	0xbd3428eb	-0.043984335
213	0x3cb4692c	0.022022806
214	0x3a8a5645	0.0010554275
215	0xbd27b94f	-0.04094821
216	0x3d516cbf	0.0511291
217	0x3d394d5b	0.045239788
218	0x3d2fef03	0.04295255
219	0x3cffb66b	0.031214913
220	0x3aea2994	0.0017865174
221	0xbc773bfb	-0.015089984
222	0xbd62e780	-0.055396557
223	0xbd25bd04	-0.040463462
224	0x3bf3fad9	0.007445675
225	0xbaca54d0	-0.0015436653
226	0x3c8318f5	0.016003111
227	0x3c5c0ee4	0.013431285
228	0xbd5b3817	-0.05352029
229	0xbd4f08e9	-0.050545607
230	0x3c8edf7f	0.017440556
231	0xbc7aca03	-0.015306952
232	0x3d20f39f	0.039294835
233	0x3b47f7b4	0.0030512633
234	0xbcea077e	-0.028568026
235	0xbc515b9d	-0.01277819
236	0xbc642978	-0.013925903
237	0xbc28f2e8	-0.01031182
238	0xbd664af7	-0.056223836
239	0xbccd4b9c	-0.025060467
240	0xbd62040c	-0.05517964
241	0xbd2a8ca2	-0.041638024
242	0xbcaadc69	-0.020857053
243	0xbb9833d0	-0.0046448484
244	0x3c706f6d	0.0146750035
245	0xbcfb7d3e	-0.030699369
246	0x3d37d9dd	0.044885505
247	0xbc7fc4bf	-0.015610873
248	0x3d36ad61	0.04459894
249	0x3d462999	0.048379514
250	0xbcba7c70	-0.022764415
251	0xbcd12bc8	-0.025533572
252	0xbc8ad5f8	-0.016947731
253	0x3c15248f	0.0091029545
254	0x3d658fa7	0.0560452
255	0x3d1d5cf7	0.038418736

fc2.bias f4 [300]
0	0x3c003a53	0.007826406
1	0xbc654966	-0.01399455
2	0xbccbb763	-0.024867719
3	0x3c9ae473	0.018907761
4	0xbd296b8f	-0.04136234
5	0x3d5f6f3c	0.05454944
6	0xbd7bbe12	-0.061460562
7	0xbbddf7f1	-0.0067739417
8	0xbd1c5e14	-0.038175657
9	0xbd32226c	-0.04348986
10	0x3cd69efb	0.026198855
11	0xbcc2b2bc	-0.023766868
12	0xbcbe82d7	-0.023255749
13	0xbcf331c9	-0.029686825
14	0xbd952b8a	-0.07283695
15	0xbd48b73c	-0.04900287
16	0xbcaa7348	-0.020806924
17	0x3c557ef8	0.01303076
18	0x3d2b44d3	0.041813683
19	0xbcea401e	-0.028595027
20	0xbdd81768	-0.105513394
21	0xbd869bdd	-0.06572697
22	0xbd2aa254	-0.041658714
23	0xbd0546ee	-0.032538347
24	0xba46c8d3	-0.0007583026
25	0x3ce331f2	0.027733777
26	0xbd868afc	-0.06569478
27	0xbe0f2c2b	-0.13981692
28	0xbc88f1c9	-0.016716855
29	0x3cd0b4f6	0.025476914
30	0x3d477784	0.048697963
31	0xbd6e86bf	-0.058233973
32	0xbc8bd041	-0.017067077
33	0xbd41e6db	-0.0473393
34	0x3c865bff	0.016401289
35	0x3d086834	0.0333025
36	0xbccc16f9	-0.024913298
37	0x3bb0f4c2	0.005400271
38	0xbdc0cf61	-0.094145544
39	0xbd0a0696	-0.033697687
40	0xbcff4c29	-0.031164246
41	0xbd547b11	-0.051875178
42	0xbc77fd4c	-0.015136074
43	0xbda191fe	-0.07889174
44	0x3c925ad8	0.017865583
45	0xbd8738b8	-0.06602615
46	0xbca43e9f	-0.020049391
47	0xbd9f75b9	-0.07786126
48	0xbdc936e9	-0.098249264
49	0xbd509dee	-0.050931863
50	0xbc4b718a	-0.012417207
51	0xbc02aa8f	-0.007975235
52	0xbdaac304	-0.083379775
53	0xbce18892	-0.027530942
54	0xbd646efe	-0.055769913
55	0xbd28c3e8	-0.041202456
56	0x3c7bdbb0	0.015372202
57	0xbcc20f40	-0.023688912
58	0xbcc40728	-0.023929194
59	0xbdb6ab5e	-0.089194044
60	0x3c56583b	0.013082559
61	0xbdcd324c	-0.10019359
62	0xbd1760a2	-0.03695739
63	0xbd7ca275	-0.06167837
64	0xbdf2fcf0	-0.1186465
65	0xbd5e565f	-0.05428159
66	0xbca49509	-0.020090597
67	0xbce0e472	-0.027452681
68	0xbd001246	-0.031267427
69	0x3d2f5a9f	0.042811032
70	0xbcdbe2bc	-0.026841514
71	0xbd70fba6	-0.05883374
72	0xbca4b30b	-0.020104906
73	0xbd029d21	-0.03188813
74	0x3d1390b0	0.036026657
75	0x3d37c4bd	0.04486536
76	0xbd9ae294	-0.075627476
77	0xbd09514e	-0.033524804
78	0xbd68cb76	-0.05683466
79	0xbd6e2a02	-0.05814553
80	0xbc286afa	-0.010279411
81	0xbdc154c0	-0.09439993
82	0xbde6e1cd	-0.11273537
83	0xbdbba15b	-0.091616355
84	0xbd4130c8	-0.047165662
85	0xbd320a77	-0.04346701
86	0xbcd6f9fb	-0.026242247
87	0xbd2faea4	-0.04289116
88	0xbcd3c959	-0.025852846
89	0xbcdbfd35	-0.026854137
90	0xbd83bd32	-0.064325705
91	0x3c34e0df	0.011039942
92	0xbc8cfc4e	-0.017210152
93	0xbda18be5	-0.07888011
94	0xbcc68fd6	-0.024238508
95	0x3bc08856	0.0058756275
96	0x3cc37bdb	0.02386277
97	0xbe0d3fe8	-0.1379391
98	0xbc4d73e4	-0.0125398375
99	0x3c9d25cc	0.019183062
100	0xbddceaac	-0.107869476
101	0xbdd79d3a	-0.105280355
102	0xbd446b47	-0.04795387
103	0xbdf57b37	-0.11986392
104	0xbd7d6b2e	-0.061869793
105	0xb6844b85	-3.942698e-06
106	0xbd75ac1b	-0.059978586
107	0xbd8c3b53	-0.06847253
108	0x39f48959	0.0004664164
109	0xbd12e014	-0.03585823
110	0x3d88fb8d	0.066886045
111	0xbd39ab33	-0.045329284
112	0xbc3ae778	-0.0114077255
113	0xbd84cded	-0.0648459
114	0xbd723e57	-0.059141483
115	0xbd5a8799	-0.053351972
116	0x3d091666	0.033468626
117	0x3bd3056a	0.0064398544
118	0xbd7bec87	-0.061504867
119	0xbcb23162	-0.021752063
120	0xbc587010	-0.0132103115
121	0xbd6ba3b1	-0.057529155
122	0xbd8c5662	-0.06852414
123	0xbbf03121	-0.0073300754
124	0xbd1f330c	-0.03886704
125	0xbdb14754	-0.08656183
126	0xbd9e32dc	-0.077245444
127	0xbdaea5ba	-0.085277036
128	0x3c62fe65	0.013854598
129	0x3cf0483c	0.029331319
130	0x3d3ba3fa	0.045810677
131	0xbc16c857	-0.009203038
132	0xbd537c9f	-0.05163252
133	0xbd075b77	-0.033046212
134	0xbd3882f4	-0.04504676
135	0x3d334287	0.043764617
136	0xbd2044a3	-0.039127957
137	0xbdd6d579	-0.104899354
138	0xbd8e9b1c	-0.069631785
139	0xbcbeb865	-0.023281286
140	0x3cf46213	0.029831922
141	0xbd21ac08	-0.039470702
142	0xbd904c80	-0.07045841
143	0x3cbe94aa	0.023264248
144	0xbd966b02	-0.07344629
145	0x3cbb758e	0.022883203
146	0xbde8f434	-0.11374703
147	0xbd48ce5c	-0.049024925
148	0xbe0fe76b	-0.14053123
149	0xbcf434d5	-0.029810349
150	0xbd394a15	-0.045236666
151	0xbbd57dec	-0.006515255
152	0xbde515c6	-0.111857936
153	0xbd27d237	-0.04097196
154	0xbd340b1a	-0.0439559
155	0xbd8396da	-0.06425257
156	0xbde40fcd	-0.11135826
157	0xbccb9da8	-0.02485545
158	0xbcb6cce6	-0.0223145
159	0xbcce5121	-0.02518517
160	0xbd7713a7	-0.060321476
161	0xbd892d32	-0.066980734
162	0xbc1e1e44	-0.009650771
163	0xbcad361e	-0.02114397
164	0xbca6f328	-0.020379618
165	0xbd9ed02c	-0.077545494
166	0x3bb64c85	0.005563321
167	0xbdfd3870	-0.1236428
168	0xbd2e189a	-0.04250393
169	0xbd0dd5df	-0.03462779
170	0xbcff87c1	-0.031192662
171	0x3cd98b3a	0.026555646
172	0xbd9c69c2	-0.07637359
173	0xbc0a7973	-0.008451807
174	0xbda363b5	-0.07978002
175	0xbd74fc9c	-0.05981122
176	0x3bb883f3	0.005630964
177	0x3921fe3e	0.00015448869
178	0xbd10efba	-0.03538487
179	0xbe02302c	-0.12713689
180	0x3d14abbe	0.0362966
181	0xbbd8e9bd	-0.0066196606
182	0x3cc3aba5	0.023885557
183	0x3b7c2a31	0.0038477296
184	0xbd11cf3d	-0.03559803
185	0x3cf99cff	0.03047037
186	0xbd2d8f12	-0.04237277
187	0xbdfaf851	-0.12254394
188	0xbcf52888	-0.029926553
189	0xbd499834	-0.049217418
190	0xbd30c130	-0.043152988
191	0xbd127176	-0.035752736
192	0xbcc4aa3d	-0.024006957
193	0xbdc6c3b2	-0.09705295
194	0x3cc5a5dc	0.02412694
195	0xbd613f25	-0.05499186
196	0xbd801f8b	-0.06256016
197	0x3c4cc86d	0.012498957
198	0xbd1f9a20	-0.038965344
199	0xbc20bafe	-0.009810207
200	0x3c0851e8	0.008320309
201	0xbd00d371	-0.031451646
202	0xbd917616	-0.07102601
203	0x3d211b20	0.03933251
204	0xbd27c6ca	-0.040961064
205	0xbcc5c419	-0.024141358
206	0xbcf524d3	-0.029924786
207	0xbd53c35a	-0.051699974
208	0xbc60b58f	-0.013715162
209	0x3cc09846	0.02351011
210	0xbd29a537	-0.041417327
211	0xbcdaaadf	-0.026692806
212	0xbc5ba8b0	-0.013406917
213	0xbd309b0e	-0.04311662
214	0xbd8d6146	-0.06903319
215	0xbd1b65cc	-0.037938878
216	0xbd7550e7	-0.059891608
217	0x3c5b4edf	0.013385504
218	0xbd8e5ea8	-0.06951648
219	0xbd52b039	-0.05143759
220	0xbbd3de76	-0.0064657284
221	0xbd5e987a	-0.05434463
222	0xbc77985f	-0.015112012
223	0x3ceac531	0.028658481
224	0xbcba58b5	-0.022747377
225	0xbdc1d94f	-0.094652764
226	0xbacdbee5	-0.001569715
227	0xbca294d9	-0.019846367
228	0xbda555b7	-0.080729894
229	0xbdf5db37	-0.120047025
230	0x3cbdc588	0.02316548
231	0xbd59e8ad	-0.053200413
232	0xbcd36734	-0.025806047
233	0xbd03137c	-0.032001004
234	0xbcfbab74	-0.030721404
235	0x3bbb18c3	0.005709739
236	0xbde3119d	-0.11087344
237	0xbcdb9945	-0.026806483
238	0xbbf42303	-0.007450463
239	0xbcf1db14	-0.02952341
240	0xbe1ccd3e	-0.15312669
241	0xbdacedb0	-0.08443773
242	0xbd3316f3	-0.043723058
243	0xbdfcce54	-0.123440415
244	0xbc166a48	-0.009180613
245	0xbdd8b377	-0.10581105
246	0x3d0f4ac5	0.034983415
247	0xbda5d737	-0.080976896
248	0xbd4fcb15	-0.050730783
249	0xbb5d655d	-0.003378234
250	0xbd2a114f	-0.041520413
251	0xbd6dd029	-0.058059845
252	0x3c9707ef	0.0184364
253	0x3cce61d7	0.025193138
254	0xbcdc1495	-0.026865283
255	0xbca9acfa	-0.020712364

fc3.weight f4 [2, 300]
0	0x379ead70	1.891583e-05
1	0x3a0f6476	0.0005469987
2	0xbb381639	-0.0028089418
3	0xb935d6a5	-0.00017341466
4	0x3b060c59	0.0020454137
5	0x3a3705cd	0.00069817604
6	0xb98f2993	-0.0002730606
7	0xbbaa22dc	-0.005192144
8	0xbb09d115	-0.0021029164
9	0x3b0b9da2	0.0021303673
10	0x3b2d0d5e	0.0026405673
11	0x3b8abeae	0.0042341566
12	0x3b5b8367	0.003349507
13	0xbb0255f6	-0.0019887662
14	0x3b7499d8	0.0037323143
15	0xb8d2766d	-0.00010035639
16	0xb97cbf72	-0.00024103912
17	0x3ba638fb	0.0050727106
18	0xbb9aa2b0	-0.004719101
19	0x3ac0ef45	0.0014719745
20	0x3b689d26	0.0035494058
21	0xba85973f	-0.001019217
22	0xbb4df7c7	-0.0031428204
23	0x3ab6a40e	0.001393439
24	0x3af32c9a	0.0018552721
25	0xb9a839fe	-0.00032086665
26	0xbb719ade	-0.003686599
27	0xbb4279c4	-0.0029674629
28	0xbb2fdd91	-0.0026834945
29	0x3ae97153	0.0017810263
30	0x3a889aa4	0.0010422063
31	0xba9b7a6c	-0.0011862046
32	0xbb7b2787	-0.003832312
33	0x3a83ef6a	0.0010065858
34	0xb9a6e745	-0.00031834297
35	0x3b2d6c5c	0.0026462292
36	0xbb463ecb	-0.003024983
37	0xb9847569	-0.0002526448
38	0x3a18ffc2	0.0005836451
39	0xbac3a3ae	-0.00149261
40	0x3bc993e0	0.0061516613
41	0x3bcf1d0e	0.0063206023
42	0xbbb0873b	-0.0053872145
43	0x38e596aa	0.00010947634
44	0x3a7bf374	0.00096111675
45	0xbb3f2ff9	-0.002917288
46	0xbb23463c	-0.002491369
47	0xbb4515a2	-0.0030072709
48	0xba8afb23	-0.0010603409
49	0xbb876ef8	-0.0041331016
50	0xbb740a9d	-0.0037237771
51	0x3b81d484	0.0039621014
52	0x396d8005	0.00022649772
53	0xbb8275ff	-0.0039813514
54	0x3b65c7b1	0.0035061652
55	0xbb253b47	-0.0025212334
56	0x3b16981e	0.0022978853
57	0xbb6c9d30	-0.0036104433
58	0x3afa544a	0.0019098606
59	0xbb902fb5	-0.0044002184
60	0x3b397135	0.0028296236
61	0xbb125fe4	-0.0022334987
62	0x3af9ccc8	0.0019058222
63	0xbb213c8e	-0.0024602744
64	0x3ade4442	0.0016957598
65	0x3a74b33f	0.0009334571
66	0x3bf8b86f	0.0075903456
67	0x3a0fde39	0.0005488131
68	0xbb8c23fb	-0.00427675
69	0xbab2755a	-0.0013615296
70	0x3b7b378d	0.0038332671
71	0x3a009000	0.000490427
72	0xbb1e7d6d	-0.0024183646
73	0xbb47cc18	-0.003048664
74	0xbb55ac58	-0.0032603946
75	0xbae45736	-0.001742101
76	0x3ae4d958	0.0017459793
77	0x3a7f6f15	0.00097440305
78	0xba78535f	-0.00094728725
79	0xbb50d546	-0.0031865402
80	0xbaf477b7	-0.00186514
81	0x3b54ecbf	0.0032489744
82	0xba4a4d9f	-0.0007717255
83	0xba65bdd5	-0.0008763944
84	0xbaf6bb33	-0.00188241
85	0xb99e4912	-0.0003019055
86	0xb9f476b7	-0.00046627756
87	0xb971dee0	-0.00023066578
88	0x3ba7abf6	0.005116935
89	0xbaa538db	-0.0012605445
90	0xbb85c170	-0.0040818974
91	0xbb8bc590	-0.0042654946
92	0xbaccfb88	-0.0015638927
93	0xbbad512c	-0.0052892175
94	0x3b9aeef3	0.004728192
95	0xbb37226e	-0.0027944106
96	0xba43a517	-0.000746326
97	0x3b78215a	0.0037861676
98	0x3aa7589e	0.0012767499
99	0xbb48a88b	-0.0030618038
100	0xba75eee7	-0.00093816075
101	0x3b3f4b47	0.0029189156
102	0x3b9e7aef	0.004836432
103	0x3978e49d	0.00023736288
104	0xbb228956	-0.0024801097
105	0xba95b5d3	-0.0011421986
106	0xb9e4b1ee	-0.00043620117
107	0x39cfd903	0.00039643803
108	0xbb2f65b2	-0.0026763496
109	0xbad15d8c	-0.0015973314
110	0xbb9a9e79	-0.0047185984
111	0xbaa51422	-0.0012594501
112	0x3945b38b	0.00018854269
113	0xbb583f0b	-0.003299656
114	0x3b6a21ce	0.0035725716
115	0xba13428c	-0.0005617521
116	0x3b73945e	0.003716729
117	0xb966ef81	-0.00022023731
118	0xba56837c	-0.0008183045
119	0xbbd6d94f	-0.006556667
120	0xbb34afda	-0.0027570636
121	0x3b26c080	0.0025444329
122	0xba9bc2f1	-0.0011883659
123	0x3bc725ed	0.006077519
124	0x3ba94de1	0.0051667546
125	0x3adc8cb7	0.0016826604
126	0xba8f9276	-0.0010953683
127	0xba94915c	-0.0011334824
128	0x39d9c775	0.00041538072
129	0xbbc5226c	-0.0060160663
130	0xbb5e7612	-0.0033944887
131	0x3993e64b	0.00028209607
132	0xbaf75a71	-0.0018871558
133	0x3b3f07de	0.0029148976
134	0xbaeb13e9	-0.0017935011
135	0xbb32efd4	-0.0027303593
136	0xbad88f80	-0.0016522259
137	0xbb97e91b	-0.0046359426
138	0xba5d2c65	-0.0008437096
139	0xbb44ddd9	-0.0030039458
140	0x3b924ba7	0.004464585
141	0x3b0182b2	0.0019761738
142	0xbbd2c9b2	-0.0064327354
143	0x3bede027	0.007259387
144	0x3acdb3b3	0.0015693813
145	0x3a57bda6	0.0008229859
146	0x3b72ecae	0.0037067342
147	0xbae7c505	-0.0017682618
148	0x3b4bd13a	0.003110005
149	0x3a5ff1f0	0.00085428264
150	0xbb8a0ccf	-0.0042129527
151	0xbb150c8d	-0.0022743077
152	0xba73992c	-0.0009292539
153	0xbab9cf4f	-0.0014176163
154	0x3ad2e1d2	0.0016089028
155	0x3aa274f4	0.0012394474
156	0xbb991e15	-0.0046727755
157	0x3b1f63bd	0.0024320923
158	0xba6c74c0	-0.00090200827
159	0x3a9d1615	0.001198473
160	0x391dfd18	0.00015066972
161	0xbb1c62f4	-0.0023862692
162	0x39c97ba5	0.0003842983
163	0x3ae228a3	0.0017254542
164	0x3ba1218a	0.0049173282
165	0xbb0c2c46	-0.0021388694
166	0xba9dced2	-0.0012039787
167	0x3878b20a	5.929362e-05
168	0x3b717fad	0.0036849782
169	0xb8bc3925	-8.9751826e-05
170	0x3aa506b6	0.0012590501
171	0x3938434a	0.00017572675
172	0xbb1c5aa2	-0.0023857732
173	0x391d2608	0.00014986855
174	0x3a967747	0.0011479639
175	0x3a698733	0.0008908391
176	0xb98b6a3b	-0.00026591294
177	0xba4c2250	-0.00077870954
178	0xbb7cf9f0	-0.0038601123
179	0x3ac5ec81	0.0015100391
180	0x3b1dfc06	0.0024106517
181	0xba8ac615	-0.0010587597
182	0xba46d1e6	-0.0007584378
183	0xbaf5f6c8	-0.0018765563
184	0x3a84ad94	0.0010122531
185	0xba3db40c	-0.0007236607
186	0x3a173d1b	0.00057692983
187	0x3b0c396a	0.0021396526
188	0x3a7113bc	0.0009196361
189	0xbac6c00b	-0.0015163434
190	0x3bcda13f	0.0062753255
191	0x3b814b64	0.003945755
192	0xbb432c91	-0.0029781202
193	0xb9ab3d90	-0.0003266153
194	0x3afaa649	0.0019123043
195	0x3bb603d3	0.005554655
196	0x3b53deb2	0.0032328782
197	0xbb8f2848	-0.0043688156
198	0xbaa65f72	-0.001269324
199	0x3a87ff7c	0.0010375823
200	0xbae406ff	-0.0017397105
201	0xbae115aa	-0.0017172594
202	0x3b19ca6b	0.0023466598
203	0xbb970312	-0.0046085203
204	0x390956ee	0.00013097722
205	0xba3e37fa	-0.0007256266
206	0xbaafcfda	-0.0013413385
207	0x3b814fd5	0.0039462843
208	0xba1b6613	-0.0005927991
209	0x3a10f713	0.0005529981
210	0xbb430412	-0.0029757065
211	0xbb28f6ef	-0.002578195
212	0x3b333ea2	0.0027350564
213	0xbba6dade	-0.005092009
214	0x3917cfda	0.00014477913
215	0xbb77c885	-0.0037808728
216	0x3b95454e	0.004555381
217	0xba0d7067	-0.00053954724
218	0x38c81583	9.54075e-05
219	0xb98e770e	-0.00027173053
220	0xbb214515	-0.0024607826
221	0xbaea2722	-0.0017864446
222	0x3bdc2a58	0.006718915
223	0xba1c28b5	-0.00059569936
224	0xbbdfc2a6	-0.006828624
225	0x3b5df95f	0.003387056
226	0xbb3a098e	-0.0028387043
227	0xb9477be2	-0.00019024269
228	0xbac435b9	-0.0014969624
229	0xba73a25a	-0.00092939066
230	0xbacbb15a	-0.0015540526
231	0xbb0acaff	-0.0021178124
232	0x3b34c280	0.0027581751
233	0xbadb64dd	-0.0016738434
234	0x3a57873c	0.00082217506
235	0x3aac9681	0.0013167412
236	0x3a9ae769	0.0011818233
237	0xbb40f611	-0.0029443542
238	0x3ac6265c	0.0015117633
239	0xbacb9a46	-0.0015533648
240	0xba99ac5d	-0.0011724342
241	0xbae5e719	-0.0017540186
242	0x3a1150e1	0.0005543363
243	0x3b0a18fe	0.0021072025
244	0xbc3475b6	-0.011014393
245	0xb911e2a5	-0.00013912709
246	0xb91152ef	-0.00013859173
247	0x3c0c9f73	0.0085829375
248	0xbb7319a3	-0.0037094138
249	0xbb0f9ab5	-0.002191228
250	0xbb097261	-0.0020972716
251	0x3b2ed36c	0.002667631
252	0x37bc0a30	2.241609e-05
253	0xbaf8f3e8	-0.0018993588
254	0xbaab0ada	-0.0013049499
255	0xbbaac812	-0.0052118385

fc3.bias f4 [2]
0	0x3ca785cc	0.020449542
1	0x3d57b73b	0.052664977

bn1.weight f4 [400]
0	0x3ef7d5bf	0.48405263
1	0x3ecae6b3	0.39629135
2	0x3ee3f271	0.44520906
3	0x3e0c316f	0.13690732
4	0x3e3dbbd8	0.18528688
5	0x3df170a9	0.11789066
6	0x3e485ff8	0.19567859
7	0x3f220efd	0.6330412
8	0x3eef1af9	0.46700266
9	0x3ef04f42	0.4693547
10	0x3f19c7f9	0.6007076
11	0x3ebf52d5	0.37367883
12	0x3f3b8915	0.73256046
13	0x3f07c7bb	0.5303914
14	0x3f28b101	0.65895087
15	0x3f13dfac	0.5776317
16	0xbb59b01a	-0.0033216537
17	0x3e84230a	0.25807983
18	0x3f54297a	0.8287579
19	0x3f344652	0.704198
20	0x3f538269	0.82620865
21	0x3e9c2c7d	0.30502692
22	0x3ed0ac37	0.4075639
23	0x3d4d36d1	0.050101105
24	0x3f468fb9	0.77563053
25	0x3eea0367	0.4570572
26	0x3ec485de	0.38383383
27	0x3e85e8a5	0.26154056
28	0x3f27474d	0.6534317
29	0x3f5652f4	0.83720326
30	0x3f291326	0.66044843
31	0x3f36f869	0.71472794
32	0x3f02daba	0.51115
33	0x3f235006	0.6379398
34	0x3dae815e	0.085207686
35	0x3f6785cb	0.90438527
36	0x3f1547fa	0.5831295
37	0xb9c3b590	-0.00037328573
38	0x3edc60d0	0.43042612
39	0x3f5156b3	0.8177292
40	0x3f011bdf	0.5043315
41	0x3f599729	0.8499628
42	0x3eabcbfe	0.3355407
43	0x3f0ea3ea	0.55718863
44	0x3f03a979	0.5143047
45	0x3f1bc0ef	0.6084127
46	0x3f80be83	1.005814
47	0x3ebd5db8	0.36985564
48	0x3f121972	0.57070076
49	0x3e02f3fd	0.12788387
50	0x3df4b59b	0.11948701
51	0x3f50f4bb	0.8162343
52	0x3f40ee34	0.7536347
53	0x3e90825a	0.2822445
54	0x3ed7aa96	0.42122334
55	0x3f45ad85	0.77217895
56	0x3f6cc8c2	0.9249383
57	0x3f4f591f	0.80995363
58	0x3f7809b1	0.9688979
59	0x3e2d5462	0.1692672
60	0x3f378ca6	0.7169899
61	0x3eca2166	0.39478606
62	0x3ea5b14e	0.32361835
63	0x3e617e51	0.22020842
64	0x3f0dd606	0.554047
65	0x3f712ba0	0.9420719
66	0x3ef57814	0.47943175
67	0x3f00d139	0.5031925
68	0x3f29f7e3	0.6639387
69	0x3cd141a2	0.025543991
70	0x3f522716	0.8209089
71	0x3e3e4099	0.1857933
72	0x3f085aa1	0.5326329
73	0x3f0b664f	0.54452986
74	0x3e8a2a37	0.26985332
75	0x3ece9fc0	0.40356255
76	0x3dfe4cf8	0.124170244
77	0x3da9443c	0.08264968
78	0x3e327b6e	0.17429897
79	0x3ec6e6c5	0.38847938
80	0x3f1ea036	0.6196321
81	0x3f36f34d	0.71465
82	0x3e1da26c	0.1539399
83	0x3ea7822d	0.32716504
84	0x3f4e7e31	0.806613
85	0x3f4b68b1	0.7945662
86	0x3f21a612	0.6314403
87	0x3f12d96d	0.57363015
88	0x3f0729f4	0.5279839
89	0x3cc9a710	0.024615794
90	0x3f4539d3	0.7704136
91	0x3f651edb	0.89500207
92	0x3f5ac5c5	0.8545802
93	0x3f31d7d7	0.6946997
94	0x3f5fad2b	0.8737361
95	0x3f4937cf	0.7860078
96	0x3edbf0f7	0.4295728
97	0x3f6149d7	0.88003296
98	0x3f407d48	0.75191164
99	0x3e0935fc	0.133995
100	0x3f33574b	0.70055073
101	0x3f532a27	0.82486194
102	0x3e7a4791	0.24441363
103	0x3f1d95b0	0.6155653
104	0x3e5f7d2b	0.21825092
105	0x3ef5582f	0.4791884
106	0x3df69728	0.120405495
107	0x3f3459b1	0.7044936
108	0x3f398172	0.7246314
109	0x3da092bc	0.07840487
110	0x3dd2ccb6	0.10292952
111	0x3e94b0c9	0.29041126
112	0x3f71d31d	0.9446276
113	0x3ed90754	0.42388403
114	0x3eab1cf2	0.3342052
115	0x3f09661f	0.5367145
116	0x3f24444e	0.64166725
117	0x3f22c9b0	0.63589
118	0x3d1a8be5	0.03773107
119	0x3e8af4a5	0.27139774
120	0x3f5a301b	0.85229653
121	0x3ef83d66	0.48484343
122	0x3eaa67de	0.3328237
123	0x3f4a28da	0.78968585
124	0x3f5e7dec	0.8691089
125	0x3e76c0d7	0.24097
126	0x3e763905	0.24045189
127	0x3dd60221	0.10449625
128	0x3efe6f50	0.496943
129	0x3eea987b	0.45819458
130	0x3f24601c	0.6420915
131	0x3f3d4781	0.7393723
132	0x3f48d60f	0.7845163
133	0x3e06382c	0.13107365
134	0x3e557abf	0.20847605
135	0x3f352466	0.70758665
136	0x3f22d36f	0.6360387
137	0x3f720d99	0.94552
138	0x3e6a3430	0.2287147
139	0x3f76fb88	0.96477556
140	0x3f5959ff	0.8490295
141	0x3f2cefb2	0.67553246
142	0x3e9b8a88	0.30379128
143	0x3e7dbf4f	0.2478001
144	0x3f020578	0.50789595
145	0x3f2edcf7	0.68305916
146	0x3ebc2efb	0.36754593
147	0x3e274891	0.16336276
148	0x3e6e8297	0.23292004
149	0x3f48d8b0	0.7845564
150	0x3f2b09e5	0.6681197
151	0x3f4cfdc3	0.8007471
152	0x3f6a6d6f	0.9157323
153	0x3dc23bd9	0.09484071
154	0x3d5541a7	0.052064564
155	0x3f6bb927	0.92079395
156	0x3e9a879a	0.3018158
157	0x3f68e57b	0.9097516
158	0x3f1581e7	0.5840134
159	0x3f3dbdf9	0.74118
160	0x3f56ecdb	0.8395516
161	0x3e8eaaf2	0.27864796
162	0x3ee8769c	0.45402992
163	0x3f7101c7	0.94143337
164	0x3ea3d227	0.3199627
165	0x3e2de7cc	0.16982955
166	0x3f2d7bab	0.6776683
167	0x3f3c2e12	0.735078
168	0x3db87a40	0.09007692
169	0x3f4a78d3	0.79090613
170	0x3f307c60	0.6893978
171	0x3f6b17ae	0.9183301
172	0x3f31e81d	0.694948
173	0x3df42029	0.119201966
174	0x3eae4951	0.3404031
175	0x3ed3c838	0.41363692
176	0x3c9ea4e2	0.019365732
177	0x3f74c7e2	0.95617497
178	0x3dadf397	0.08493727
179	0x3c9b64e4	0.018969007
180	0x3ab1c469	0.0013562563
181	0x3e177dab	0.14794032
182	0x3ecae89e	0.39630598
183	0x3f79ab01	0.97526556
184	0x3f0b062c	0.5430629
185	0x3f5a32a7	0.8523354
186	0x3f3a6e2a	0.72824347
187	0x3f05e62b	0.52304333
188	0x3eedd036	0.46447915
189	0x3f3f081e	0.7462176
190	0x3f0bc698	0.54599905
191	0x3f3bb6d2	0.73325837
192	0x3f774d2f	0.9660215
193	0x3ee10270	0.43947172
194	0x3f4c54f5	0.79817134
195	0x3f676dc4	0.90401864
196	0x3ea76ff8	0.32702613
197	0x3e61310c	0.21991366
198	0x3f32db80	0.6986618
199	0x3ef9bc64	0.48776543
200	0x3e20237f	0.1563854
201	0x3f485e7f	0.7826919
202	0x3f118bcb	0.5685393
203	0x3ea16399	0.315213
204	0x3f31c5f2	0.69442666
205	0x3e51cbcc	0.20487899
206	0x3f049832	0.5179473
207	0x3ec9b285	0.39394012
208	0x3f3699ed	0.7132862
209	0x3f309fab	0.68993634
210	0x3ede85a6	0.4346134
211	0x3e1c7c07	0.15281688
212	0x3f42164d	0.7581528
213	0x3ebc7cea	0.36814052
214	0x3ef8cb68	0.48592687
215	0x3ebc5c8c	0.36789358
216	0x3eb6bdb5	0.3569161
217	0x3eb78d0c	0.35849798
218	0x3f46207f	0.77393335
219	0x3f596efd	0.8493498
220	0x3f1ffdf8	0.624969
221	0x3cd36411	0.025804551
222	0x3f0123e4	0.5044539
223	0x3f13932f	0.5764646
224	0x3e43d981	0.1912594
225	0x3edb2374	0.42800486
226	0x3e692a97	0.22770153
227	0x3ce61eec	0.028090917
228	0x3cddc922	0.027073447
229	0x3d835d7f	0.06414317
230	0x3dea4ed7	0.11440819
231	0x3e467db5	0.19383891
232	0x3ef6a0ae	0.48169464
233	0x3f75dae2	0.96037114
234	0x3f2457f8	0.6419673
235	0x3f05a82e	0.52209747
236	0x3dbc4faa	0.09194882
237	0x3e8a5347	0.2701666
238	0x3e160acd	0.14652558
239	0x3f388061	0.7207089
240	0x3f65a26f	0.8970098
241	0x3e072d06	0.13200769
242	0x3ed36169	0.41285256
243	0x3f47e2c2	0.7808038
244	0x3f0c5a2c	0.5482509
245	0x3c92e877	0.017933114
246	0x3e0ba911	0.13638712
247	0x3e6982e9	0.22803845
248	0x3e923b84	0.28561032
249	0x3f1fc50d	0.6241005
250	0x3f3b57b9	0.7318073
251	0x3e29e976	0.16592965
252	0x3f205be4	0.62640214
253	0x3f835b75	1.0262285
254	0x3e6ed3c9	0.23322977
255	0x3f092d9f	0.5358524

bn1.bias f4 [400]
0	0x3d6e1a39	0.058130477
1	0xbd1ba3f5	-0.03799816
2	0xbe0f5261	-0.13996269
3	0x3d4e61ef	0.050386366
4	0xbdae000d	-0.084961034
5	0x3d5875c9	0.052846704
6	0x3d90357f	0.070414536
7	0x3d7ace5e	0.061231963
8	0x3b6b9666	0.0035947799
9	0x3dae97f2	0.08525075
10	0x3dd4d6ff	0.1039257
11	0xbcdbc47a	-0.026827086
12	0xbd82beda	-0.06384058
13	0xbcdbf58d	-0.026850486
14	0x3db05045	0.0860906
15	0x3d8e394d	0.06944523
16	0x3d1739e5	0.036920447
17	0x3c68a937	0.0142005
18	0xbc3832b8	-0.011242561
19	0x3e0fde57	0.1404966
20	0x3d318e2b	0.043348473
21	0x39629c4a	0.00021611262
22	0xbce6ac86	-0.028158437
23	0xba6da5b2	-0.0009065523
24	0x3d6eeda9	0.05833212
25	0x3c901178	0.017586455
26	0x3cc2c954	0.023777641
27	0x3cd7a030	0.0263215
28	0x3dad22d6	0.0845391
29	0x3d451a11	0.048120562
30	0xbc3703e2	-0.011170359
31	0x3cfdc5ac	0.030978046
32	0xbd3363a4	-0.043796197
33	0xbbc277e8	-0.005934704
34	0x3d45f004	0.0483246
35	0x3e1f9aa6	0.15586337
36	0xbd43025e	-0.04760968
37	0x3da7ff8c	0.082030386
38	0xbc1a768e	-0.00942768
39	0x3d24485f	0.04010808
40	0x3d6011e7	0.054704573
41	0x3db3ec0f	0.08785259
42	0xbc104d98	-0.008807562
43	0xbce10094	-0.027466096
44	0x3d14cb93	0.036326956
45	0x3d62ac3d	0.05534004
46	0x3de961b1	0.11395586
47	0xbd95bb76	-0.07311146
48	0x3e2ae990	0.1669066
49	0x3d0d5c28	0.034511715
50	0x3d2731bd	0.04081892
51	0x3e049272	0.1294649
52	0xbdb51a05	-0.088428535
53	0x39be1f65	0.00036263015
54	0x3e1867f3	0.14883403
55	0xbc43d11a	-0.011951709
56	0x3d14ff1c	0.036376104
57	0x3dd538e9	0.104112454
58	0x3d1a9908	0.0377436
59	0x3dbb6c06	0.09151463
60	0x3e0383b7	0.12843214
61	0x3e0f1bdf	0.13975476
62	0x3dab2023	0.08355739
63	0x3da7856a	0.081797436
64	0x3c12f335	0.008969118
65	0x3c9ccd15	0.01914076
66	0x3d26f52e	0.040761165
67	0x3dd9bdeb	0.10631927
68	0x3d9185d0	0.07105601
69	0xbbc6c847	-0.0060663554
70	0x3c38f4cd	0.011288834
71	0xbdba8fbd	-0.09109447
72	0x3d987cec	0.07445702
73	0xbb360c34	-0.002777827
74	0x3dc158ce	0.09440766
75	0x3e1219e1	0.14267685
76	0xbdd1dd2d	-0.10247264
77	0x3dd64c6e	0.104637966
78	0x3d96108d	0.073273756
79	0xbc73aaff	-0.014872312
80	0x3da52435	0.080635466
81	0xbdcc491e	-0.099748835
82	0x3d554c7b	0.05207489
83	0xbd98759a	-0.07444306
84	0x3d179b71	0.037013475
85	0x3bfd1f98	0.0077247135
86	0x3d48969f	0.04897177
87	0x3db38c67	0.08767014
88	0x3d6abd46	0.05730941
89	0xbe3080db	-0.17236654
90	0x3d70709d	0.058701146
91	0x3daaf128	0.08346778
92	0xbcad945a	-0.021188904
93	0x3dd7a2c4	0.10529092
94	0xbcb60754	-0.022220291
95	0x3d9b5f0f	0.0758649
96	0x3cdf88a0	0.027286828
97	0x3e046cdf	0.12932156
98	0xbdf15dfe	-0.11785506
99	0x3dcb5278	0.09927839
100	0x3d80419c	0.06262514
101	0x3ccf5a64	0.025311656
102	0x3d81c36b	0.06336101
103	0xba03846d	-0.00050169864
104	0xbd3b1fd8	-0.045684665
105	0x3d811a71	0.063038714
106	0x3cb4d7be	0.02207553
107	0x3daab185	0.083346404
108	0x3cfab2a2	0.030602757
109	0x3da53322	0.080663934
110	0x3d68c3b7	0.056827273
111	0x3cbc4915	0.022984067
112	0x3d97a79c	0.07405016
113	0xbdb768e2	-0.08955552
114	0x3db22fcf	0.08700525
115	0x3d3d4803	0.046211254
116	0x3d23d827	0.04000106
117	0x3daf5b67	0.085623555
118	0xbe21950b	-0.15779512
119	0xbcb18089	-0.021667736
120	0x3caf7f63	0.021423047
121	0xbdbd29d1	-0.092364915
122	0x3c043b91	0.008070842
123	0x3d8caa2f	0.068683974
124	0x3d48003a	0.04882834
125	0x3cceea3f	0.025258182
126	0x3d912188	0.07086474
127	0x3c92a9f1	0.0179033
128	0x3d6ba962	0.057534583
129	0xbcbe9f39	-0.023269283
130	0xbccd7a4f	-0.025082735
131	0x3da36f53	0.07980218
132	0xbd2f5396	-0.042804323
133	0x3dfda529	0.123850174
134	0x3c941818	0.018077895
135	0x3cafa2a4	0.021439858
136	0x3cd1907f	0.025581596
137	0x3d965957	0.07341259
138	0x3d67f6db	0.056631904
139	0xbc0c47e8	-0.008562066
140	0x3e011f81	0.12609674
141	0x3d19d44f	0.03755599
142	0xbd92a113	-0.07159629
143	0x3d734004	0.059387222
144	0xbcbb7e92	-0.022887502
145	0x3d81ef0a	0.06344421
146	0x3d10257b	0.035191994
147	0x3dd49db9	0.10381646
148	0x3d853ba4	0.06505516
149	0x3d06a994	0.032876566
150	0x3cd541bd	0.026032323
151	0x3dc3912d	0.095491745
152	0xbc08b999	-0.008345031
153	0xbcf8d0a4	-0.030372925
154	0xbd868085	-0.06567482
155	0xbd14cef1	-0.036330167
156	0x3dac5669	0.08414919
157	0x3dab82f6	0.08374588
158	0x3d2230df	0.03959739
159	0x3d945a25	0.07243756
160	0xbd5c4b67	-0.053782847
161	0x3d21c710	0.03949648
162	0xbdbcf0aa	-0.092255905
163	0x3d9b759b	0.07590791
164	0x3ce557a2	0.027995888
165	0x3da81748	0.082075655
166	0x3dca1b6c	0.098685116
167	0x3c8a4383	0.016877895
168	0x3e34850e	0.17628881
169	0x3d633f8e	0.055480532
170	0x3ddae189	0.10687549
171	0xbe0580af	-0.1303737
172	0x3d1ed682	0.03877879
173	0xbbcead01	-0.0063072448
174	0x3e292b3f	0.16520403
175	0xbc4e0a8e	-0.012575759
176	0xbd002b72	-0.031291433
177	0x3d69db89	0.05709413
178	0x3e0dcdb1	0.13847996
179	0x3dedc747	0.11610275
180	0x3e3d96e1	0.18514587
181	0xbdb49818	-0.08818072
182	0xb9e2cf96	-0.00043260743
183	0xbe0192ab	-0.12653606
184	0x3d8ff8a2	0.07029845
185	0x3d33aa37	0.0438635
186	0x3dd101c8	0.10205418
187	0x3d577b71	0.052607957
188	0xbe1fd509	-0.1560861
189	0x3d7d99fd	0.061914433
190	0xbd0a84e5	-0.033818144
191	0x3d8cb353	0.06870141
192	0x3d725d59	0.059171055
193	0x3e0b331b	0.13593714
194	0x3cf15c9c	0.029463105
195	0x3b3f7aaf	0.0029217412
196	0xbd3debbd	-0.046367396
197	0x3d3a10de	0.045426242
198	0x3d916694	0.07099643
199	0xbdcf5cc0	-0.101251125
200	0x3dcbe2f2	0.09955396
201	0x3d5eb98f	0.05437618
202	0x3dae74b0	0.0851835
203	0x3e2a5a54	0.1663602
204	0xbd3a9bae	-0.045558624
205	0xbbefd860	-0.007319495
206	0x3d97f17d	0.07419107
207	0x3d3f0678	0.04663703
208	0xbda3d5bc	-0.07999751
209	0x3e16debd	0.14733405
210	0xbc653a1a	-0.013990903
211	0x3dffd994	0.124926716
212	0x3d4d017a	0.050050236
213	0xbdf26483	-0.11835577
214	0xbcd30447	-0.025758876
215	0xbd99ad6d	-0.075037815
216	0x3da77b10	0.08177769
217	0x3cf87552	0.03032938
218	0x3d92dc68	0.071709454
219	0x3dae46fe	0.085096344
220	0x3d7337e1	0.059379462
221	0x3a8d387a	0.0010774278
222	0xbcba9204	-0.022774704
223	0x3dba6bea	0.09102614
224	0x3d766b70	0.060161054
225	0x3c085057	0.008319936
226	0x3d6ee31f	0.05832207
227	0x3e07f367	0.13276444
228	0xbde1b9a2	-0.11021735
229	0xbe1548c3	-0.14578538
230	0xbcf9a24d	-0.030472899
231	0x3c9cb68d	0.019130016
232	0xbe1ba2b7	-0.1519879
233	0x3da16ea5	0.07882432
234	0xbdde0ce9	-0.10842306
235	0x3d766da7	0.060163166
236	0xbc96dcf6	-0.01841591
237	0x3c85c67e	0.01633
238	0x3dd2bd2a	0.102899864
239	0xbccf4bd7	-0.025304718
240	0x3caf4148	0.021393433
241	0xbdb2ae80	-0.087246895
242	0x3d20d22f	0.039262947
243	0x3a2a035b	0.00064854854
244	0xbd4a0a26	-0.049326085
245	0x3e29887c	0.16555971
246	0xbdd7bd45	-0.10534147
247	0xbbc3326d	-0.005956939
248	0x3e404a30	0.187783
249	0xbd368e81	-0.044569496
250	0x3dd05f83	0.101744674
251	0xbd24ce17	-0.040235605
252	0xbdbd5aa2	-0.092458025
253	0x3d5d5353	0.054034542
254	0x3ceb8a19	0.028752374
255	0x3d5ba904	0.053627983
