collaboration_competition/outputs/exp_4/critic2_10000.pth (torch_old, 545385 bytes, 21 tensors)

fcs1.weight f4 [400, 24]
0	0x8109b9a6	-2.5296122e-38
1	0x008df6b9	1.3037312e-38
2	0x803fb9cb	-5.852286e-39
3	0x005961c8	8.208436e-39
4	0x0142b260	3.576015e-38
5	0x81000be4	-2.3518418e-38
6	0x8055102d	-7.81182e-39
7	0x005961c8	8.208436e-39
8	0x80d9fe8a	-2.0019614e-38
9	0x00a2d4ba	1.4953662e-38
10	0x0092071d	1.3410534e-38
11	0x80a0fae0	-1.4783676e-38
12	0x00edf045	2.1851205e-38
13	0x00f9dd96	2.2946529e-38
14	0x0097db71	1.394588e-38
15	0x8087b8cf	-1.2464089e-38
16	0x80c60879	-1.8186468e-38
17	0x00cc236d	1.874715e-38
18	0x01829d25	4.797995e-38
19	0x018420c2	4.8536147e-38
20	0x00bc2978	1.727995e-38
21	0x80d9a10d	-1.9986077e-38
22	0x01909d39	5.312285e-38
23	0x01839ed1	4.834969e-38
24	0x81038528	-2.4156435e-38
25	0x019a0a2b	5.6585256e-38
26	0x00296b2c	3.803701e-39
27	0x01540b95	3.894656e-38
28	0x8129c661	-3.1182728e-38
29	0x00cd5c2c	1.8859342e-38
30	0x000124c5	1.05026e-40
31	0x0163587a	4.1756794e-38
32	0x810903ff	-2.5165793e-38
33	0x018456c7	4.861366e-38
34	0x00cb2551	1.8655992e-38
35	0x0028eabd	3.757628e-39
36	0x810a62bb	-2.5417433e-38
37	0x0104a667	2.436396e-38
38	0x00e47cb5	2.098323e-38
39	0x00089f0f	7.91743e-40
40	0x00db5b76	2.0144784e-38
41	0x01668ce2	4.2345407e-38
42	0x00b03437	1.6181778e-38
43	0x00306045	4.442639e-39
44	0x808fcaf4	-1.3205282e-38
45	0x005e4942	8.658817e-39
46	0x009b1ed8	1.4245567e-38
47	0x0032aef1	4.654532e-39
48	0x016d2dcc	4.3562883e-38
49	0x010782ff	2.488957e-38
50	0x80830869	-1.2033467e-38
51	0x8109da88	-2.5319714e-38
52	0x017e64ce	4.6724756e-38
53	0x804d0dfe	-7.076353e-39
54	0x80d96feb	-1.9968451e-38
55	0x817bb11c	-4.622849e-38
56	0x01b393e8	6.596645e-38
57	0x8148fbbb	-3.6914806e-38
58	0x81100566	-2.6452496e-38
59	0x80644440	-9.208033e-39
60	0x8120b386	-2.951616e-38
61	0x81aad9bd	-6.2760576e-38
62	0x00021144	1.89865e-40
63	0x000c9870	1.15671e-39
64	0x0194bd28	5.463804e-38
65	0x007852a2	1.1049903e-38
66	0x812f05f0	-3.2146684e-38
67	0x80684dcc	-9.5788e-39
68	0x8153f018	-3.8926838e-38
69	0x8145ba2c	-3.6316757e-38
70	0x80c37874	-1.7951132e-38
71	0x80212310	-3.04315e-39
72	0x812943aa	-3.1088944e-38
73	0x8068ad3a	-9.613034e-39
74	0x80ac79fb	-1.5839464e-38
75	0x801e1dd6	-2.765768e-39
76	0x80aefffc	-1.6071206e-38
77	0x00b1c7a0	1.6326495e-38
78	0x8142c769	-3.5775242e-38
79	0x80751f43	-1.0755968e-38
80	0x81669854	-4.2353618e-38
81	0x014f9a42	3.813057e-38
82	0x01bebb58	7.00638e-38
83	0x803153da	-4.53002e-39
84	0x8192a9a6	-5.3875363e-38
85	0x81a555ec	-6.073472e-38
86	0x01164db8	2.760641e-38
87	0x81aaa43c	-6.26838e-38
88	0x018373ae	4.828779e-38
89	0x00c01a86	1.764193e-38
90	0x00e8e305	2.1387274e-38
91	0x00ab14d7	1.5711346e-38
92	0x00ec65cd	2.1709696e-38
93	0x81034961	-2.4113547e-38
94	0x810afbb5	-2.5527188e-38
95	0x81887394	-5.0124356e-38
96	0x0011fefe	1.652677e-39
97	0x804bfa5b	-6.977473e-39
98	0x810cbac4	-2.5847937e-38
99	0x00f3a288	2.2374331e-38
100	0x807b0b85	-1.1299898e-38
101	0x008d1dfb	1.295956e-38
102	0x80f83dfc	-2.2797439e-38
103	0x802207ba	-3.125179e-39
104	0x8023c254	-3.283954e-39
105	0x8069c820	-9.714518e-39
106	0x8137ea42	-3.3779863e-38
107	0x80f8a13c	-2.2833043e-38
108	0x810da9de	-2.6019484e-38
109	0x001a6619	2.424349e-39
110	0x8132b6d9	-3.2824623e-38
111	0x8130c147	-3.2464764e-38
112	0x80044392	-3.91582e-40
113	0x80714907	-1.0403608e-38
114	0x010d7ff2	2.5989406e-38
115	0x8061cb4c	-8.980972e-39
116	0x00fadce7	2.3038119e-38
117	0x0068db61	9.62959e-39
118	0x00f46f90	2.2447882e-38
119	0x00f4574c	2.2439177e-38
120	0x01641ece	4.1899088e-38
121	0x8058032a	-8.082659e-39
122	0x011182a6	2.672603e-38
123	0x0080a89d	1.181543e-38
124	0x0162efc9	4.1681682e-38
125	0x81a41a24	-6.0281595e-38
126	0x818fd2d7	-5.2832444e-38
127	0x0071ac1d	1.0439154e-38
128	0x00ee673f	2.1893886e-38
129	0x801d6fc4	-2.703323e-39
130	0x8119f071	-2.827417e-38
131	0x0109a453	2.5280823e-38
132	0x0153b758	3.8886122e-38
133	0x81a53a95	-6.069549e-38
134	0x0142e67a	3.579753e-38
135	0x00173127	2.129849e-39
136	0x00f2513e	2.2253334e-38
137	0x8129d9ec	-3.119675e-38
138	0x80d5a4ba	-1.9620053e-38
139	0x015d5f04	4.065946e-38
140	0x8111fba0	-2.6812826e-38
141	0x810c9f6b	-2.5828316e-38
142	0x81062734	-2.464004e-38
143	0x019f96fc	5.862403e-38
144	0x01aa7906	6.26218e-38
145	0x80545f0e	-7.748281e-39
146	0x0061a986	8.968857e-39
147	0x81b2e3dc	-6.5713835e-38
148	0x008c89a9	1.2906353e-38
149	0x8105c3dd	-2.4568767e-38
150	0x007fdf36	1.1743181e-38
151	0x014025a4	3.5291836e-38
152	0x005ffbe9	8.81474e-39
153	0x00b23d96	1.6368811e-38
154	0x006649c6	9.393686e-39
155	0x81587ef0	-3.9764008e-38
156	0x00e88148	2.1352212e-38
157	0x8160a773	-4.126244e-38
158	0x0065e67e	9.35807e-39
159	0x80da6a88	-2.0058354e-38
160	0x80a177be	-1.482847e-38
161	0x0114f7b2	2.736102e-38
162	0x80da13b6	-2.0027209e-38
163	0x019e855c	5.8231395e-38
164	0x00463068	6.44585e-39
165	0x8147b991	-3.6683665e-38
166	0x800c7566	-1.14414e-39
167	0x804073e0	-5.91904e-39
168	0x811e156d	-2.903539e-38
169	0x813428c2	-3.309002e-38
170	0x8097c4b2	-1.3937721e-38
171	0x01047588	2.4328896e-38
172	0x0092b475	1.3472718e-38
173	0x01953be2	5.4819883e-38
174	0x8069dbf8	-9.721637e-39
175	0x01b9fba4	6.8319354e-38
176	0x80ed7319	-2.1806302e-38
177	0x818c37fe	-5.150822e-38
178	0x80e9ffdc	-2.1489456e-38
179	0x81214ea3	-2.962745e-38
180	0x8125f139	-3.0478783e-38
181	0x801f35c1	-2.866184e-39
182	0x81207b7d	-2.9475957e-38
183	0x008cbdae	1.2925014e-38
184	0x80c68283	-1.8230247e-38
185	0x8193ea76	-5.4335707e-38
186	0x8107a40f	-2.491329e-38
187	0x816525cb	-4.2087772e-38
188	0x81b1107c	-6.5043185e-38
189	0x80cfc6ce	-1.9081265e-38
190	0x810832a4	-2.5015588e-38
191	0x8156a4e4	-3.9423896e-38
192	0x00fe279e	2.3340428e-38
193	0x0057238c	8.00244e-39
194	0x81870f43	-4.961307e-38
195	0x80945a40	-1.3624029e-38
196	0x81581c67	-3.9693312e-38
197	0x8123185e	-2.9955854e-38
198	0x81088b1b	-2.5079058e-38
199	0x00d6deb0	1.9732681e-38
200	0x817ef9b9	-4.68316e-38
201	0x016e831c	4.3807763e-38
202	0x01050a01	2.443542e-38
203	0x0139b7c0	3.4110968e-38
204	0x81467bee	-3.6455772e-38
205	0x00c30860	1.7910926e-38
206	0x0114bc40	2.731837e-38
207	0x000db8e0	1.260182e-39
208	0x81514f61	-3.844419e-38
209	0x8152d99e	-3.872704e-38
210	0x010a84e9	2.5441955e-38
211	0x01811c20	4.7427473e-38
212	0x806d32c2	-1.0028278e-38
213	0x8188c081	-5.023474e-38
214	0x0122d988	2.9910772e-38
215	0x80e446a0	-2.0963829e-38
216	0x008f19ae	1.3141688e-38
217	0x8141c910	-3.5592757e-38
218	0x8084e123	-1.220305e-38
219	0x817dfe38	-4.6651154e-38
220	0x011bd0ba	2.8618758e-38
221	0x01945254	5.448475e-38
222	0x809bb348	-1.4298816e-38
223	0x00bf39a0	1.7561252e-38
224	0x8090f80b	-1.3313292e-38
225	0x8182d430	-4.805893e-38
226	0x017aa846	4.6038478e-38
227	0x0139d870	3.413442e-38
228	0x00d4d1d2	1.9544395e-38
229	0x019b97fb	5.715609e-38
230	0x018c6564	5.1573366e-38
231	0x8126ccfc	-3.0636454e-38
232	0x80c48a83	-1.8049446e-38
233	0x81458d4c	-3.628456e-38
234	0x0188dee7	5.027836e-38
235	0x01a9f782	6.243595e-38
236	0x81086c30	-2.5056876e-38
237	0x0181e978	4.772213e-38
238	0x019827fd	5.589336e-38
239	0x01819852	4.7605685e-38
240	0x0092a398	1.3466669e-38
241	0x80d64a8c	-1.9679539e-38
242	0x011de3ef	2.899988e-38
243	0x01551540	3.9137167e-38
244	0x00ac07e7	1.579854e-38
245	0x00ba4b20	1.7108352e-38
246	0x011af52d	2.8461238e-38
247	0x81170384	-2.7736842e-38
248	0x80d132e5	-1.9211876e-38
249	0x012a4100	3.1270704e-38
250	0x0132a610	3.281258e-38
251	0x8131be48	-3.2646286e-38
252	0x00e77b5f	2.1258257e-38
253	0x017fe069	4.699711e-38
254	0x0116f73a	2.7728025e-38
255	0x80859d40	-1.2270532e-38

fcs1.bias f4 [400]
0	0x800f6bf0	-1.416253e-39
1	0x8149cba7	-3.7063983e-38
2	0x8125e58c	-3.0470406e-38
3	0x01acf056	6.3527687e-38
4	0x01316ee4	3.2589326e-38
5	0x80ae1850	-1.5988098e-38
6	0x0106804e	2.4703967e-38
7	0x804159fa	-6.001585e-39
8	0x00f495bc	2.2461576e-38
9	0x01aa294e	6.2507407e-38
10	0x8103a5a8	-2.4179753e-38
11	0x80572504	-8.002967e-39
12	0x010c653a	2.5786565e-38
13	0x01452036	3.6206296e-38
14	0x019ae1dc	5.689476e-38
15	0x015bae2c	4.034891e-38
16	0x003880e8	5.18903e-39
17	0x012bb208	3.153547e-38
18	0x813ccfb8	-3.4679177e-38
19	0x80ecbf25	-2.1741747e-38
20	0x00e29f76	2.0812026e-38
21	0x019c9002	5.751199e-38
22	0x810dae3e	-2.6022623e-38
23	0x802f50f6	-4.345312e-39
24	0x813ab0c9	-3.4289642e-38
25	0x812f833e	-3.2236585e-38
26	0x01b74bf5	6.7332576e-38
27	0x001481ce	1.883275e-39
28	0x006e5241	1.0131412e-38
29	0x81952a8d	-5.4795013e-38
30	0x018d65b6	5.194117e-38
31	0x8124985e	-3.023136e-38
32	0x80552fe8	-7.823203e-39
33	0x0074210c	1.0664773e-38
34	0x01881cfc	5.00001e-38
35	0x8031af60	-4.562852e-39
36	0x0190067f	5.290657e-38
37	0x00df5994	2.051145e-38
38	0x816db8fc	-4.3662745e-38
39	0x00eb50a2	2.1610267e-38
40	0x8155b393	-3.925076e-38
41	0x81ac173c	-6.321616e-38
42	0x80137b53	-1.789115e-39
43	0x813290d5	-3.2797349e-38
44	0x01389a33	3.3906095e-38
45	0x01756044	4.506846e-38
46	0x80496bc0	-6.742645e-39
47	0x00afcf31	1.6145538e-38
48	0x80debde5	-2.0455601e-38
49	0x80b5eb13	-1.6706554e-38
50	0x016ddc8c	4.368826e-38
51	0x0154f935	3.9117048e-38
52	0x0151f7e7	3.85651e-38
53	0x8064576e	-9.214913e-39
54	0x806bd30c	-9.902107e-39
55	0x0163b6f4	4.1824578e-38
56	0x01a8c624	6.199777e-38
57	0x013f6c0e	3.5158685e-38
58	0x00e22ff4	2.0772024e-38
59	0x0073d81f	1.0638612e-38
60	0x01b2067c	6.539618e-38
61	0x806865ac	-9.587365e-39
62	0x8172f844	-4.4626502e-38
63	0x01219a1e	2.9681603e-38
64	0x00efe6ff	2.203155e-38
65	0x00d9a254	1.9986535e-38
66	0x0180d8fe	4.733114e-38
67	0x00653868	9.29562e-39
68	0x01819335	4.759835e-38
69	0x0025c618	3.468976e-39
70	0x01765c92	4.524948e-38
71	0x00546967	7.751993e-39
72	0x00063a40	5.71909e-40
73	0x000eab3e	1.347127e-39
74	0x819d8512	-5.786364e-38
75	0x005bc588	8.427891e-39
76	0x0101965e	2.380144e-38
77	0x80f6d040	-2.2666238e-38
78	0x0073cf8d	1.0635537e-38
79	0x0138c959	3.3939922e-38
80	0x013e8000	3.4989324e-38
81	0x81afa194	-6.45167e-38
82	0x80a06401	-1.4729554e-38
83	0x818ce5e8	-5.1757777e-38
84	0x804567dc	-6.373907e-39
85	0x01113031	2.666687e-38
86	0x810034ca	-2.354776e-38
87	0x8175b882	-4.513177e-38
88	0x81b93fdc	-6.80499e-38
89	0x8075078b	-1.0747459e-38
90	0x81223c26	-2.9797855e-38
91	0x8185d624	-4.916376e-38
92	0x00ddd39b	2.0371554e-38
93	0x8113a8b4	-2.7120674e-38
94	0x00ec9075	2.1724999e-38
95	0x80734a28	-1.0587684e-38
96	0x802d3e78	-4.155007e-39
97	0x801ce6d4	-2.6542e-39
98	0x00d1b9ad	1.9260227e-38
99	0x81738637	-4.4728346e-38
100	0x010fce8d	2.6413145e-38
101	0x818b2195	-5.1108724e-38
102	0x0011f7b2	1.65006e-39
103	0x80b148a8	-1.6280947e-38
104	0x8111aad1	-2.675485e-38
105	0x01975347	5.5588137e-38
106	0x01294274	3.1088075e-38
107	0x0078410a	1.1043591e-38
108	0x81251015	-3.0317252e-38
109	0x81773354	-4.540356e-38
110	0x00720615	1.0471428e-38
111	0x81afc5ec	-6.456885e-38
112	0x008262f7	1.1974116e-38
113	0x009a3fa7	1.41655e-38
114	0x000b65cd	1.04671e-39
115	0x81370918	-3.3618316e-38
116	0x81917ceb	-5.3443836e-38
117	0x81981fca	-5.5881597e-38
118	0x0187cc20	4.9884073e-38
119	0x0019bf3f	2.364494e-39
120	0x80f1ed0a	-2.2217388e-38
121	0x01650a54	4.2068067e-38
122	0x009b70b8	1.4274938e-38
123	0x81495c20	-3.6983966e-38
124	0x00d5a0c4	1.9618633e-38
125	0x007353a4	1.0591087e-38
126	0x01211a32	2.9589824e-38
127	0x80c3d3f1	-1.7983952e-38
128	0x000674ba	5.92887e-40
129	0x005df9d4	8.630323e-39
130	0x819f887a	-5.860321e-38
131	0x80bf6e20	-1.7580085e-38
132	0x0121c6f6	2.9713777e-38
133	0x00a03998	1.471434e-38
134	0x00ba3a1c	1.7102248e-38
135	0x80b7367a	-1.6825438e-38
136	0x803b4da2	-5.446144e-39
137	0x0045ad0b	6.398725e-39
138	0x0117f715	2.7911593e-38
139	0x813a321e	-3.4198762e-38
140	0x0031d983	4.577968e-39
141	0x812adba8	-3.1381664e-38
142	0x817ae392	-4.6081022e-38
143	0x80bea6b9	-1.7508553e-38
144	0x013b40d6	3.4392993e-38
145	0x817e2cb5	-4.6684508e-38
146	0x811774f5	-2.7818232e-38
147	0x80cd39cc	-1.884701e-38
148	0x806142bb	-8.931982e-39
149	0x00fe8cc8	2.3376719e-38
150	0x01113592	2.667073e-38
151	0x814f17e4	-3.8037036e-38
152	0x01971d4e	5.551069e-38
153	0x004c65c0	7.015999e-39
154	0x800ab2c6	-9.82487e-40
155	0x80dfe308	-2.0560759e-38
156	0x81182dec	-2.7950938e-38
157	0x8073ed51	-1.0646215e-38
158	0x813b2d33	-3.4378904e-38
159	0x814bfbb4	-3.74658e-38
160	0x016f70f8	4.3978418e-38
161	0x0157eddc	3.965992e-38
162	0x0174a951	4.49372e-38
163	0x800cea9b	-1.186187e-39
164	0x81103792	-2.6488493e-38
165	0x0086db54	1.2384637e-38
166	0x013d161f	3.472969e-38
167	0x80ef5639	-2.1979614e-38
168	0x81911984	-5.33012e-38
169	0x014f6164	3.808977e-38
170	0x010b4ae2	2.5583994e-38
171	0x017e6820	4.6727138e-38
172	0x8045f0ae	-6.422989e-39
173	0x013a9b76	3.4274342e-38
174	0x01176868	2.7809228e-38
175	0x01183da4	2.7962216e-38
176	0x01acf377	6.3532176e-38
177	0x018fe3cc	5.2856776e-38
178	0x00fe16fb	2.333446e-38
179	0x816f2bb0	-4.3928711e-38
180	0x013ca5e8	3.4649178e-38
181	0x00dac9b8	2.0092501e-38
182	0x80ca8189	-1.8597239e-38
183	0x0085323c	1.2232142e-38
184	0x01451239	3.619626e-38
185	0x809c9514	-1.4379817e-38
186	0x80f41d92	-2.2418469e-38
187	0x018f0e07	5.255003e-38
188	0x00d8d6fe	1.9913592e-38
189	0x00a9db25	1.5598813e-38
190	0x01a9f78b	6.2436e-38
191	0x0000f4f9	8.788e-41
192	0x008350f0	1.2059485e-38
193	0x01baf408	6.8675777e-38
194	0x8057ea8b	-8.073826e-39
195	0x805386bb	-7.670678e-39
196	0x01304bdc	3.238052e-38
197	0x8168106e	-4.2623458e-38
198	0x01532712	3.878261e-38
199	0x00c28454	1.7863557e-38
200	0x80b784e3	-1.6853567e-38
201	0x01690184	4.279643e-38
202	0x8052363f	-7.54997e-39
203	0x809bc8f0	-1.4306585e-38
204	0x01bc692b	6.92112e-38
205	0x8105c7e1	-2.4571648e-38
206	0x0088b15f	1.2553256e-38
207	0x8032ea14	-4.675746e-39
208	0x00cfef6f	1.909584e-38
209	0x80706e41	-1.0325127e-38
210	0x0180ce35	4.7315667e-38
211	0x00e5f581	2.1118399e-38
212	0x007197a9	1.0431816e-38
213	0x001eb568	2.820141e-39
214	0x8189ddce	-5.0644126e-38
215	0x003d0dbf	5.606896e-39
216	0x00899ad0	1.2636999e-38
217	0x81397739	-3.4064672e-38
218	0x818918d8	-5.03615e-38
219	0x00e17bd3	2.0707406e-38
220	0x8186e23c	-4.9548456e-38
221	0x00569e7d	7.954708e-39
222	0x81641a74	-4.1895965e-38
223	0x000c4b75	1.129095e-39
224	0x01abea2e	6.315151e-38
225	0x81a1c69c	-5.942705e-38
226	0x8147cc4f	-3.6697112e-38
227	0x8147d0e8	-3.670041e-38
228	0x0158f878	3.9851202e-38
229	0x8185a147	-4.9087906e-38
230	0x80daaca3	-2.0082069e-38
231	0x80f38a6b	-2.236568e-38
232	0x019ac6e7	5.6856076e-38
233	0x8078a643	-1.1079903e-38
234	0x818f9e68	-5.2757206e-38
235	0x002217ee	3.130991e-39
236	0xbc7a8a82	-0.015291812
237	0x81069f2e	-2.472612e-38
238	0x8081aa4a	-1.1907867e-38
239	0x81631f9a	-4.1715988e-38
240	0x010e7c4b	2.6170457e-38
241	0x810cacac	-2.5837825e-38
242	0x80dfad5f	-2.054151e-38
243	0x81af1de7	-6.4327755e-38
244	0x013efcc3	3.5078836e-38
245	0x817c9ae9	-4.6396233e-38
246	0x0109c156	2.5301638e-38
247	0x010e8ef1	2.6183836e-38
248	0x81031c30	-2.4081124e-38
249	0x81566c32	-3.938322e-38
250	0x8199ce64	-5.649948e-38
251	0x8107e1d8	-2.495762e-38
252	0x0197c8da	5.575685e-38
253	0x0146ad94	3.6491393e-38
254	0x81624e7d	-4.1565957e-38
255	0x0158ce72	3.9821052e-38

fc2.weight f4 [300, 402]
0	0x012d9028	3.187851e-38
1	0x80d315b8	-1.9385081e-38
2	0x81a645ae	-6.1078755e-38
3	0x80fe6080	-2.3360834e-38
4	0x818f0d6a	-5.254915e-38
5	0x0163fc10	4.187416e-38
6	0x0120f028	2.9559662e-38
7	0x01b31e0c	6.579733e-38
8	0x81b446be	-6.622307e-38
9	0x019d7efa	5.7854894e-38
10	0x81b6da90	-6.7169863e-38
11	0x014ca474	3.7586872e-38
12	0x80344278	-4.79929e-39
13	0x0033af84	4.746573e-39
14	0x0155559c	3.9183343e-38
15	0x014dd858	3.7807772e-38
16	0x014548ac	3.6235325e-38
17	0x019d8122	5.785799e-38
18	0x018b34ac	5.1136116e-38
19	0x0109e46c	2.532681e-38
20	0x002d39a0	4.153269e-39
21	0x01840338	4.849376e-38
22	0x81a905d4	-6.208916e-38
23	0x01b1c6c4	6.5304746e-38
24	0x00289278	3.725963e-39
25	0x815ce258	-4.0570012e-38
26	0x015e1c50	4.0795274e-38
27	0x00738208	1.0607728e-38
28	0x00188330	2.251113e-39
29	0x01874b14	4.96989e-38
30	0x816fd7dc	-4.405224e-38
31	0x8148cc5c	-3.688082e-38
32	0x802e6f88	-4.264443e-39
33	0x817cf838	-4.6463178e-38
34	0x80415190	-5.998566e-39
35	0x8126a74c	-3.0609414e-38
36	0x818948ec	-5.043049e-38
37	0x018f4cce	5.2640113e-38
38	0x81015e78	-2.3761336e-38
39	0x81030538	-2.4064644e-38
40	0x016607a4	4.224981e-38
41	0x818aa468	-5.0929105e-38
42	0x8166832c	-4.233844e-38
43	0x81b01b16	-6.4691056e-38
44	0x806305b8	-9.093766e-39
45	0x818e89dc	-5.236038e-38
46	0x00c0c270	1.7702166e-38
47	0x018de794	5.212752e-38
48	0x018cbf06	5.1701983e-38
49	0x01a1f2f0	5.949066e-38
50	0x013b1264	3.435967e-38
51	0x010260b4	2.394661e-38
52	0x0189317d	5.0396864e-38
53	0x814c44f0	-3.7518343e-38
54	0x015bcee4	4.0372384e-38
55	0x803ab3a0	-5.390896e-39
56	0x8017c198	-2.181665e-39
57	0x81a4d494	-6.054912e-38
58	0x815c9da0	-4.052071e-38
59	0x813c9954	-3.4640154e-38
60	0x019daed4	5.792356e-38
61	0x01607fa4	4.123388e-38
62	0x81767fa8	-4.5274653e-38
63	0x01a40dc5	6.0263844e-38
64	0x016f68dc	4.39726e-38
65	0x0042e150	6.14197e-39
66	0x81a93092	-6.215049e-38
67	0x00b28fb8	1.6398275e-38
68	0x00d11640	1.92016e-38
69	0x019cd21a	5.760683e-38
70	0x814c0378	-3.747137e-38
71	0x81073644	-2.4834518e-38
72	0x01738740	4.4729088e-38
73	0x8142b318	-3.5760666e-38
74	0x009b2980	1.424939e-38
75	0x8155f340	-3.9296445e-38
76	0x80dbe548	-2.0194224e-38
77	0x81802e88	-4.7086543e-38
78	0x8055b2f0	-7.870208e-39
79	0x818a0106	-5.069466e-38
80	0x01901992	5.293394e-38
81	0x007461d8	1.0688017e-38
82	0x80d5baa8	-1.962792e-38
83	0x012711ec	3.0685914e-38
84	0x800c3c58	-1.123673e-39
85	0x810e2b4c	-2.6112345e-38
86	0x8129f750	-3.1217836e-38
87	0x803caab0	-5.571361e-39
88	0x815692b8	-3.9410858e-38
89	0x00bceff0	1.7351147e-38
90	0x010bdfc0	2.56908e-38
91	0x81be155c	-6.9825626e-38
92	0x0164576c	4.1939708e-38
93	0x0026765d	3.53221e-39
94	0x011656fc	2.7613057e-38
95	0x81382390	-3.3820977e-38
96	0x801eb5b0	-2.820242e-39
97	0x80e04818	-2.0597014e-38
98	0x81b56ea4	-6.664766e-38
99	0x816a69ac	-4.3054828e-38
100	0x0070eb98	1.037009e-38
101	0x01affbfc	6.4646427e-38
102	0x8133498c	-3.2929875e-38
103	0x81ae9d7a	-6.4143473e-38
104	0x004cd6f8	7.056614e-39
105	0x01a50d4a	6.0630496e-38
106	0x81a9297c	-6.214032e-38
107	0x8109e0c4	-2.5324187e-38
108	0x80cedae8	-1.8996641e-38
109	0x0069a7b0	9.702882e-39
110	0x005158b8	7.470501e-39
111	0x81ba439c	-6.8422624e-38
112	0x8177e4b0	-4.553081e-38
113	0x016c03d0	4.334909e-38
114	0x01719688	4.437271e-38
115	0x811981b0	-2.8194708e-38
116	0x800338e4	-2.95915e-40
117	0x81b28df2	-6.5590555e-38
118	0x80030e18	-2.80562e-40
119	0x818cc71e	-5.1713597e-38
120	0x816d47bc	-4.3581492e-38
121	0x81162474	-2.7576803e-38
122	0x0186b85c	4.948837e-38
123	0x004f0eb8	7.260284e-39
124	0x80c1e4c8	-1.7806322e-38
125	0x81367d7c	-3.351815e-38
126	0x00c47da8	1.8044834e-38
127	0x810d19b4	-2.591605e-38
128	0x00f686c0	2.2639871e-38
129	0x009b5178	1.4263727e-38
130	0x01418d38	3.554982e-38
131	0x808449a0	-1.2148697e-38
132	0x80778ef0	-1.09797e-38
133	0x0083ca98	1.2103127e-38
134	0x00864db8	1.2333837e-38
135	0x8106f5a4	-2.4788151e-38
136	0x81afef3a	-6.462812e-38
137	0x014c718c	3.7550348e-38
138	0x018d1950	5.183154e-38
139	0x80f0e2c8	-2.2121873e-38
140	0x019ed3ff	5.8344233e-38
141	0x01959dd8	5.496045e-38
142	0x004e44e0	7.187876e-39
143	0x0048bea8	6.68055e-39
144	0x81a34002	-5.996859e-38
145	0x81b8c2e8	-6.78706e-38
146	0x816d0ab4	-4.3537704e-38
147	0x00d9c6c8	1.9999612e-38
148	0x8065de48	-9.355125e-39
149	0x019a07a4	5.658163e-38
150	0x81363148	-3.3463478e-38
151	0x004512f8	6.343454e-39
152	0x81952dfa	-5.479993e-38
153	0x01101b44	2.6468185e-38
154	0x010dcab4	2.6043042e-38
155	0x007b94b0	1.1349105e-38
156	0x0100ac5c	2.363355e-38
157	0x8033b220	-4.74751e-39
158	0x815dfae8	-4.0771306e-38
159	0x017e1e90	4.667436e-38
160	0x8190d914	-5.320874e-38
161	0x0099a028	1.4108284e-38
162	0x018439bc	4.8571987e-38
163	0x0195ef0a	5.507696e-38
164	0x8068322c	-9.56889e-39
165	0x010b7164	2.5611622e-38
166	0x80c57ae8	-1.8135683e-38
167	0x810f8adc	-2.636458e-38
168	0x81a75d10	-6.147965e-38
169	0x01189fc0	2.8032606e-38
170	0x010368e4	2.4136155e-38
171	0x01a1eee2	5.948484e-38
172	0x018ae900	5.102753e-38
173	0x8116669c	-2.7624267e-38
174	0x8188d3a2	-5.026219e-38
175	0x00535190	7.651605e-39
176	0x01bd9032	6.9634545e-38
177	0x01aeac2c	6.416456e-38
178	0x818b894a	-5.1257536e-38
179	0x00f20090	2.2224392e-38
180	0x80be8bb8	-1.7498866e-38
181	0x80cff100	-1.9096402e-38
182	0x80f26678	-2.2260949e-38
183	0x01a30644	5.9885734e-38
184	0x00f64670	2.26168e-38
185	0x001b4300	2.503593e-39
186	0x0015f9e4	2.018189e-39
187	0x817330e0	-4.4667117e-38
188	0x80bb5d38	-1.7206678e-38
189	0x819ad034	-5.686942e-38
190	0x819326cc	-5.405494e-38
191	0x011b1690	2.8485192e-38
192	0x01622600	4.1536908e-38
193	0x010ca890	2.5834877e-38
194	0x011c0fb0	2.866393e-38
195	0x019e2368	5.809084e-38
196	0x016a9224	4.3083863e-38
197	0x81303a84	-3.2368078e-38
198	0x0126d712	3.064369e-38
199	0x81420f88	-3.5643316e-38
200	0x818c56a8	-5.1552223e-38
201	0x8024b698	-3.37158e-39
202	0x00d41020	1.947491e-38
203	0x00cd0ed8	1.8831602e-38
204	0x80f415f8	-2.2415742e-38
205	0x0043f8f8	6.242291e-39
206	0x807aa758	-1.1263962e-38
207	0x0193d2a4	5.4301526e-38
208	0x01496906	3.699322e-38
209	0x81703ec8	-4.4126081e-38
210	0x0134c3a8	3.3201155e-38
211	0x817297c0	-4.4557255e-38
212	0x00635b50	9.124471e-39
213	0x014b2078	3.7308507e-38
214	0x81b09310	-6.4863214e-38
215	0x81b4e00a	-6.644304e-38
216	0x00519fd0	7.496005e-39
217	0x800827c8	-7.48955e-40
218	0x810e11c0	-2.6094016e-38
219	0x00550818	7.80892e-39
220	0x812eb100	-3.2085744e-38
221	0x81b49a24	-6.634274e-38
222	0x011dca9c	2.898171e-38
223	0x00f5efc0	2.2585703e-38
224	0x019a6416	5.671428e-38
225	0x012d62f4	3.1846077e-38
226	0x010f3eec	2.6310096e-38
227	0x81b6df7e	-6.7176937e-38
228	0x01bdbfac	6.970267e-38
229	0x8010d838	-1.546933e-39
230	0x00317c40	4.544512e-39
231	0x80fc6218	-2.3177734e-38
232	0x81a1e51c	-5.9470815e-38
233	0x012c6d98	3.167004e-38
234	0x018a5e42	5.082845e-38
235	0x019a77dc	5.6742655e-38
236	0x007b81f4	1.1342384e-38
237	0x01a82df8	6.1779415e-38
238	0x80d3cb40	-1.9450202e-38
239	0x819beb0a	-5.727527e-38
240	0x01005514	2.3570928e-38
241	0x01851f9a	4.890183e-38
242	0x81b54ba4	-6.659744e-38
243	0x006c43c0	9.942538e-39
244	0x01ad3be6	6.3636113e-38
245	0x0125b98c	3.0438837e-38
246	0x0133dd8f	3.3036068e-38
247	0x81735764	-4.469475e-38
248	0x80daff58	-2.0111738e-38
249	0x00a14f90	1.4814057e-38
250	0x01a3cf56	6.0174256e-38
251	0x805c5fe0	-8.483259e-39
252	0x81801416	-4.7048596e-38
253	0x81b0b0ee	-6.490607e-38
254	0x01866bf4	4.937873e-38
255	0x018d4502	5.189424e-38

fc2.bias f4 [300]
0	0x810eb664	-2.621214e-38
1	0x817e3e1c	-4.6696993e-38
2	0x80fbc4e5	-2.3121342e-38
3	0x813d1258	-3.4726979e-38
4	0x818db3c9	-5.20532e-38
5	0x81224d4e	-2.9810164e-38
6	0x80b9ebf2	-1.7074208e-38
7	0x81af9556	-6.4499134e-38
8	0x81ab8539	-6.3006645e-38
9	0x81b65e0a	-6.699118e-38
10	0x814d0174	-3.7653596e-38
11	0x814ce852	-3.7635564e-38
12	0x80eaa93a	-2.1550213e-38
13	0x813efa69	-3.507715e-38
14	0x3bcc571e	0.006235971
15	0x81bca422	-6.929581e-38
16	0x80d6892a	-1.9702001e-38
17	0x81a93e38	-6.2170075e-38
18	0x81893036	-5.039503e-38
19	0x3c3b3d1f	0.011428147
20	0x819953b4	-5.632343e-38
21	0x8154acc1	-3.9062195e-38
22	0x8193d260	-5.4301145e-38
23	0x81b1d025	-6.5318204e-38
24	0x80bd0d8d	-1.736177e-38
25	0x3bcfcf4e	0.0063418513
26	0x81889a7c	-5.0180184e-38
27	0x813300c8	-3.2877668e-38
28	0x81977052	-5.562981e-38
29	0x8101a05c	-2.380861e-38
30	0x812f9878	-3.2251815e-38
31	0x805a567e	-8.296222e-39
32	0x814de8b8	-3.781952e-38
33	0x80ccdbfe	-1.881336e-38
34	0x80760059	-1.0836713e-38
35	0x81b5515c	-6.6605644e-38
36	0x817b95f4	-4.6209005e-38
37	0x81345386	-3.3120704e-38
38	0x819737c6	-5.554867e-38
39	0x80b0316e	-1.618078e-38
40	0x81072cd0	-2.4827735e-38
41	0x8109ffd8	-2.5346485e-38
42	0x815fec93	-4.1128365e-38
43	0x812d50d0	-3.1833062e-38
44	0x8182fa40	-4.811355e-38
45	0x3c06096f	0.00818096
46	0x81a4f987	-6.060214e-38
47	0x814801ea	-3.6735572e-38
48	0x81572b3c	-3.9520282e-38
49	0x81143cd8	-2.722696e-38
50	0x817bf7be	-4.6279165e-38
51	0x80d994c0	-1.9981664e-38
52	0x8165d384	-4.2212412e-38
53	0x814a355a	-3.7139818e-38
54	0x81b3d3cb	-6.6058123e-38
55	0x81865e52	-4.935917e-38
56	0x818952d2	-5.0444693e-38
57	0x8115f34a	-2.754153e-38
58	0x812e2654	-3.1986252e-38
59	0x81318187	-3.2602697e-38
60	0x8144fdef	-3.6181703e-38
61	0x80d011db	-1.9108189e-38
62	0x81311b95	-3.2529555e-38
63	0x815957a4	-3.9919484e-38
64	0x814c944c	-3.757528e-38
65	0x8126c6dc	-3.063206e-38
66	0x809af2bb	-1.4229742e-38
67	0x818552d6	-4.897535e-38
68	0x81a92dc1	-6.214645e-38
69	0x8174ecb0	-4.4985537e-38
70	0x811bb0a2	-2.8595732e-38
71	0x81236931	-3.0013843e-38
72	0x816934ad	-4.2833134e-38
73	0x8180db1e	-4.733419e-38
74	0x8181f4ba	-4.773828e-38
75	0x8185acf2	-4.910465e-38
76	0x81b9258b	-6.801214e-38
77	0x801b5da8	-2.513156e-39
78	0x8187caaf	-4.9882005e-38
79	0x80ad611d	-1.5922379e-38
80	0x3c5c5737	0.013448528
81	0x8122bc30	-2.988972e-38
82	0x815437fd	-3.897842e-38
83	0x8167a67a	-4.254744e-38
84	0x80c47073	-1.8040096e-38
85	0x8195ed2d	-5.5074286e-38
86	0x818866e3	-5.0106145e-38
87	0x81a06088	-5.8913233e-38
88	0x81a695f9	-6.119397e-38
89	0x80c70dfe	-1.8280283e-38
90	0x812bc6ae	-3.1550285e-38
91	0x81604ea0	-4.1198713e-38
92	0x80750de1	-1.0749732e-38
93	0x8147ea9c	-3.6718851e-38
94	0x81b6081a	-6.6867866e-38
95	0x81692887	-4.2824418e-38
96	0x812376ce	-3.002361e-38
97	0x819afd4f	-5.6934146e-38
98	0x8181d4b9	-4.769236e-38
99	0x810b53f4	-2.55905e-38
100	0x81106aaa	-2.652515e-38
101	0x3c1e342f	0.009655996
102	0x8189d317	-5.062875e-38
103	0x80e8122a	-2.1312351e-38
104	0x8127bcbd	-3.080847e-38
105	0x81a7302c	-6.1415235e-38
106	0x81452858	-3.621213e-38
107	0x810fa6f8	-2.6384746e-38
108	0x815657ec	-3.9368673e-38
109	0x80c2bf37	-1.7884681e-38
110	0x815144a1	-3.8436476e-38
111	0x815153b2	-3.8447286e-38
112	0x8152b80e	-3.870296e-38
113	0x8127edc0	-3.0843633e-38
114	0x81523fe6	-3.8616753e-38
115	0x818ab42e	-5.095174e-38
116	0x8119813c	-2.8194383e-38
117	0x8126e72f	-3.065525e-38
118	0x80b1f866	-1.6343991e-38
119	0x3ba1c3ce	0.004936672
120	0x3c1681c5	0.009186213
121	0x813b1091	-3.435836e-38
122	0x8182cd6b	-4.804922e-38
123	0x8171c12e	-4.440331e-38
124	0x810b7bbc	-2.5619043e-38
125	0x3b28d3a1	0.0025760906
126	0x8111e66c	-2.6797613e-38
127	0x81818714	-4.7580944e-38
128	0x809dbebf	-1.44866e-38
129	0x81b23e2a	-6.5476074e-38
130	0x818f5f6a	-5.2666816e-38
131	0x81bb9f04	-6.892113e-38
132	0x810819b6	-2.4997702e-38
133	0x81af1b54	-6.432406e-38
134	0x81241818	-3.013933e-38
135	0x8180f739	-4.737452e-38
136	0x80771b07	-1.093812e-38
137	0x81ad74b8	-6.3717647e-38
138	0x81bb7d9e	-6.8873203e-38
139	0x813c498c	-3.4582914e-38
140	0x80b1b460	-1.6319589e-38
141	0x818f17d2	-5.2564084e-38
142	0x813298fa	-3.2803192e-38
143	0x81721ad8	-4.446764e-38
144	0x812e9e4e	-3.207233e-38
145	0x811f5b84	-2.9269347e-38
146	0x8199554c	-5.632572e-38
147	0x819063d7	-5.304051e-38
148	0x80fdf796	-2.3323198e-38
149	0x8094f740	-1.368035e-38
150	0x81287ac9	-3.094482e-38
151	0x810535a8	-2.4466738e-38
152	0x810e9c8e	-2.6193603e-38
153	0x80464b6a	-6.455538e-39
154	0x81b56e3a	-6.6647067e-38
155	0x81547728	-3.902374e-38
156	0x8171a7fa	-4.4385226e-38
157	0x81b49d6c	-6.6347447e-38
158	0x81b3e7d2	-6.608686e-38
159	0x81358787	-3.3341686e-38
160	0x81491f88	-3.6940492e-38
161	0x81634bbd	-4.1747655e-38
162	0x8124e345	-3.02851e-38
163	0x8144950a	-3.6106445e-38
164	0x80e9fc67	-2.1488216e-38
165	0x81862256	-4.9273096e-38
166	0x80794474	-1.1136651e-38
167	0x816877f8	-4.2697744e-38
168	0x81a2be0a	-5.9782094e-38
169	0x818e1f32	-5.2207325e-38
170	0x80f3be38	-2.2384263e-38
171	0x810e3944	-2.6122367e-38
172	0x81161838	-2.7568025e-38
173	0x81a7b8b6	-6.161116e-38
174	0x818cbf1a	-5.1702095e-38
175	0x8192780a	-5.380418e-38
176	0x3ac11469	0.0014730814
177	0x808ab0ef	-1.273677e-38
178	0x80ea6da7	-2.1528842e-38
179	0x814cfd07	-3.765042e-38
180	0x817797ae	-4.547556e-38
181	0x818bba4b	-5.1327853e-38
182	0x8180ae82	-4.727018e-38
183	0x818b068c	-5.106993e-38
184	0x8084b8f4	-1.2188634e-38
185	0x81aef776	-6.4272594e-38
186	0x8160a9da	-4.1264165e-38
187	0x81734c85	-4.468695e-38
188	0x8132dcc8	-3.285184e-38
189	0x819d956e	-5.788711e-38
190	0x811aba1b	-2.8418857e-38
191	0x8183e07c	-4.844392e-38
192	0x80a43515	-1.5080064e-38
193	0x813e164d	-3.4913489e-38
194	0x817a0801	-4.592349e-38
195	0x8152b142	-3.8698085e-38
196	0x814cc201	-3.7608073e-38
197	0x8147cf3a	-3.6699205e-38
198	0x8164717d	-4.195841e-38
199	0x8027dfee	-3.661915e-39
200	0x81704f05	-4.4137732e-38
201	0x81982724	-5.5892146e-38
202	0x81893687	-5.0404095e-38
203	0x804fe4e6	-7.337117e-39
204	0x3aef3d09	0.0018252443
205	0x8122fd98	-2.9936645e-38
206	0x3c0fa73c	0.008767899
207	0x81224a95	-2.980821e-38
208	0x819c4d56	-5.741632e-38
209	0x81979f65	-5.569736e-38
210	0x80ff0802	-2.3420924e-38
211	0x8139cc68	-3.4125788e-38
212	0x81b31358	-6.578197e-38
213	0x81ae5ed7	-6.4053594e-38
214	0x8160bf4d	-4.1279554e-38
215	0x81556797	-3.9196243e-38
216	0x8144eb26	-3.6168225e-38
217	0x81b25cbb	-6.5519935e-38
218	0x80e23159	-2.0772525e-38
219	0x818bdfda	-5.1381747e-38
220	0x8126baef	-3.0623503e-38
221	0x815f5958	-4.1022732e-38
222	0x8142ca6c	-3.5777403e-38
223	0x80a62caa	-1.5260715e-38
224	0x81b6545b	-6.6977285e-38
225	0x80c07bf4	-1.7676881e-38
226	0x810921ec	-2.5187264e-38
227	0x807110b3	-1.0383402e-38
228	0x80b6b53c	-1.6779075e-38
229	0x819eaf11	-5.829124e-38
230	0x8118378a	-2.7957838e-38
231	0x8179d9f8	-4.5890462e-38
232	0x813b8af0	-3.4446158e-38
233	0x80c3326d	-1.7926011e-38
234	0x81361ae2	-3.3447408e-38
235	0x8098656c	-1.3995379e-38
236	0x811d57c8	-2.8899326e-38
237	0x814c2898	-3.7498007e-38
238	0x8101d210	-2.384427e-38
239	0x81ab86d0	-6.3008926e-38
240	0x81931110	-5.4023755e-38
241	0x819e4ec9	-5.8153085e-38
242	0x8145be84	-3.6319874e-38
243	0x814d1e1c	-3.7674156e-38
244	0x80ea2573	-2.150294e-38
245	0x81a32317	-5.9927095e-38
246	0x80fc6267	-2.3177845e-38
247	0x815b1ed3	-4.0246063e-38
248	0x810170aa	-2.377439e-38
249	0x811a3bbc	-2.832819e-38
250	0x81b37e0b	-6.593508e-38
251	0x815fd143	-4.110877e-38
252	0x819d4924	-5.7777643e-38
253	0x8191edad	-5.3605636e-38
254	0x8162ab82	-4.1632695e-38
255	0x8185a6c1	-4.9095764e-38

fc3.weight f4 [1, 300]
0	0x00cf43b9	1.9034242e-38
1	0x0160dd1c	4.130094e-38
2	0x013cec86	3.4699844e-38
3	0x0006f2dd	6.38136e-40
4	0x804f3ce5	-7.276849e-39
5	0x01898673	5.0518777e-38
6	0x013c7b65	3.4618678e-38
7	0x8018b912	-2.270443e-39
8	0x010aee36	2.5517505e-38
9	0x8157ed34	-3.9659448e-38
10	0x0198d6fa	5.614446e-38
11	0x01a2ba38	5.977661e-38
12	0x000f5cdb	1.410843e-39
13	0x00261dfa	3.500502e-39
14	0x3cf86dee	0.030325856
15	0x818bcebb	-5.135718e-38
16	0x80b05f69	-1.6197274e-38
17	0x018eb122	5.2416735e-38
18	0x81a507fa	-6.0622873e-38
19	0x3d62de1d	0.055387605
20	0x8104db79	-2.4402035e-38
21	0x00d0d783	1.9179094e-38
22	0x0094283a	1.3606084e-38
23	0x80dd7d63	-2.0340625e-38
24	0x81502456	-3.8229636e-38
25	0x3cfc8c0c	0.030828498
26	0x804c7c69	-7.024128e-39
27	0x0015df89	2.008735e-39
28	0x8053d6a4	-7.699345e-39
29	0x8101f010	-2.3865794e-38
30	0x01850d8e	4.8875934e-38
31	0x803789ce	-5.100387e-39
32	0x00d29e4c	1.934224e-38
33	0x00ec891b	2.1722361e-38
34	0x803a8933	-5.375677e-39
35	0x01861c75	4.926466e-38
36	0x80ff5994	-2.3450186e-38
37	0x0057253c	8.003045e-39
38	0x8031b612	-4.565254e-39
39	0x00502bdb	7.362572e-39
40	0x002b00a8	3.949162e-39
41	0x805fc7b3	-8.796011e-39
42	0x0010a699	1.529132e-39
43	0x00895eb0	1.261543e-38
44	0x0197c771	5.5754824e-38
45	0x3d22d826	0.039756916
46	0x00fb3662	2.3070218e-38
47	0x80034413	-2.99927e-40
48	0x80ab0d66	-1.5708676e-38
49	0x80b9a1f7	-1.7047669e-38
50	0x806b62f0	-9.86189e-39
51	0x800dcfb0	-1.268366e-39
52	0x80ef1061	-2.1954559e-38
53	0x0075d701	1.0821882e-38
54	0x81254f6c	-3.0362696e-38
55	0x003b61db	5.453398e-39
56	0x01aff0a0	6.463013e-38
57	0x815207c6	-3.8576486e-38
58	0x80e55588	-2.1061011e-38
59	0x01612d3e	4.1358433e-38
60	0x8056d058	-7.972592e-39
61	0x8059035a	-8.174561e-39
62	0x802664de	-3.525933e-39
63	0x00a27b8f	1.4921675e-38
64	0x00a2ccec	1.4950862e-38
65	0x8104d518	-2.4397458e-38
66	0x80552195	-7.818064e-39
67	0x81801c78	-4.7060625e-38
68	0x81143e2f	-2.7227921e-38
69	0x81b19e7d	-6.524695e-38
70	0x0181cd46	4.768167e-38
71	0x004a5e30	6.829615e-39
72	0x014f56a2	3.8082051e-38
73	0x8012c9af	-1.72539e-39
74	0x009534b5	1.3702397e-38
75	0x8027773e	-3.62436e-39
76	0x815cb525	-4.0537583e-38
77	0x800cf9c1	-1.191621e-39
78	0x8105d32f	-2.457976e-38
79	0x81702f60	-4.4115028e-38
80	0x3d855156	0.06509654
81	0x011fa9a0	2.9325388e-38
82	0x00647ceb	9.228362e-39
83	0x81312d48	-3.2542253e-38
84	0x01b09d96	6.4878314e-38
85	0x811e4d12	-2.9075312e-38
86	0x00211399	3.037602e-39
87	0x01b831da	6.766246e-38
88	0x801c410a	-2.594726e-39
89	0x00e69502	2.1175618e-38
90	0x0079692a	1.1149821e-38
91	0x0037b577	5.11605e-39
92	0x004f13f7	7.262166e-39
93	0x000a53ec	9.4846e-40
94	0x819f0487	-5.841387e-38
95	0x8105b54c	-2.4558316e-38
96	0x80c1fffa	-1.7816078e-38
97	0x005dc8f7	8.612794e-39
98	0x0118368a	2.795712e-38
99	0x809c00bb	-1.43266e-38
100	0x801f8c11	-2.897147e-39
101	0x3d3ff856	0.04686769
102	0x01347955	3.314783e-38
103	0x80836f34	-1.2070342e-38
104	0x813f6194	-3.5151168e-38
105	0x01819019	4.7593886e-38
106	0x0093ec55	1.3584598e-38
107	0x81b04b1e	-6.4759977e-38
108	0x819c25bc	-5.7359496e-38
109	0x01085202	2.5038093e-38
110	0x806c4cf2	-9.945836e-39
111	0x819a5de2	-5.670538e-38
112	0x003ee316	5.775264e-39
113	0x8188f0b0	-5.030388e-38
114	0x80b5ee26	-1.6707656e-38
115	0x00019aff	1.47438e-40
116	0x800cb220	-1.165925e-39
117	0x804a0b8c	-6.799969e-39
118	0x00bac0eb	1.7150608e-38
119	0x3cc4ba79	0.024014698
120	0x3d36a620	0.044592023
121	0x00007eb3	4.5451e-41
122	0x01748fd6	4.491892e-38
123	0x000ab878	9.8453e-40
124	0x0039e2af	5.315942e-39
125	0x3c4cfa14	0.012510795
126	0x018be300	5.1386265e-38
127	0x80353bf4	-4.888788e-39
128	0x00951403	1.3690668e-38
129	0x0180a5d0	4.7257703e-38
130	0x012050f8	2.944545e-38
131	0x01b23676	6.546502e-38
132	0x81339530	-3.2984144e-38
133	0x01b2e9fa	6.5722613e-38
134	0x017c9a52	4.639581e-38
135	0x817b915b	-4.6205707e-38
136	0x007332f1	1.0579356e-38
137	0x80463adb	-6.449598e-39
138	0x00ac2ded	1.581218e-38
139	0x80117126	-1.601793e-39
140	0x00631b32	9.10147e-39
141	0x80d2d05c	-1.93602e-38
142	0x8168c55a	-4.2753263e-38
143	0x00446f20	6.284678e-39
144	0x806e090c	-1.010515e-38
145	0x801e0738	-2.757654e-39
146	0x8183785b	-4.82945e-38
147	0x8028fd1e	-3.764221e-39
148	0x810aaa6f	-2.5468877e-38
149	0x80ee0270	-2.1857722e-38
150	0x80c08fb4	-1.7683966e-38
151	0x80ae4637	-1.6004565e-38
152	0x8026d627	-3.566572e-39
153	0x814b78c5	-3.737186e-38
154	0x0081ed7d	1.1931974e-38
155	0x01b661f0	6.6996775e-38
156	0x00836d72	1.2069712e-38
157	0x8154c2c0	-3.9077977e-38
158	0x80351728	-4.875588e-39
159	0x8116cdd2	-2.7698318e-38
160	0x80682422	-9.563854e-39
161	0x810490ab	-2.4348365e-38
162	0x811ac975	-2.842987e-38
163	0x01739372	4.4737838e-38
164	0x802db0a9	-4.195971e-39
165	0x811303f3	-2.700247e-38
166	0x0025bd30	3.465781e-39
167	0x81a9f81f	-6.243683e-38
168	0x802a6d9e	-3.896414e-39
169	0x8187470b	-4.969311e-38
170	0x010011b4	2.3522588e-38
171	0x80abe52d	-1.5786083e-38
172	0x00958a82	1.3733176e-38
173	0x807d797a	-1.1523015e-38
174	0x81447e32	-3.6090055e-38
175	0x001de62e	2.745802e-39
176	0x3bea5e62	0.0071523646
177	0x800a79f0	-9.62098e-40
178	0x811fb557	-2.9333793e-38
179	0x81ae9a66	-6.4139056e-38
180	0x018e8c6b	5.236405e-38
181	0x0172e9cf	4.461613e-38
182	0x812a98e1	-3.1333754e-38
183	0x00ee08dc	2.1860026e-38
184	0x004c3d55	7.0015e-39
185	0x8111f16a	-2.68055e-38
186	0x811e6d6e	-2.909853e-38
187	0x802850df	-3.702431e-39
188	0x001ca379	2.630037e-39
189	0x80d1d93d	-1.9271549e-38
190	0x00a76e48	1.537609e-38
191	0x00ffa915	2.3478707e-38
192	0x80973209	-1.3885109e-38
193	0x0097df44	1.3947253e-38
194	0x00318304	4.546939e-39
195	0x806e36fc	-1.0121629e-38
196	0x00375e33	5.084745e-39
197	0x00a73fda	1.5359433e-38
198	0x80fdef56	-2.3320238e-38
199	0x0059009b	8.173576e-39
200	0x8066112f	-9.373385e-39
201	0x8025f654	-3.486279e-39
202	0x00f91a4e	2.2876475e-38
203	0x802c681c	-4.078109e-39
204	0x3c112d94	0.008860964
205	0x819cb8eb	-5.7570694e-38
206	0x3d2e6c55	0.042583782
207	0x003f36aa	5.805246e-39
208	0x00cb84d4	1.8690255e-38
209	0x00176c78	2.151128e-39
210	0x808e433b	-1.3064758e-38
211	0x01123ee4	2.6861087e-38
212	0x0099edb1	1.4136099e-38
213	0x018c6d59	5.1584784e-38
214	0x011420e4	2.7206905e-38
215	0x00320499	4.593424e-39
216	0x80ad5193	-1.5916804e-38
217	0x8178a0dd	-4.566582e-38
218	0x819b186e	-5.697306e-38
219	0x0028b6a0	3.738933e-39
220	0x005b511e	8.38613e-39
221	0x80b5e44b	-1.6704121e-38
222	0x0148b955	3.6867168e-38
223	0x816990ff	-4.289937e-38
224	0x8045d32b	-6.412402e-39
225	0x816a3842	-4.3019375e-38
226	0x81027f60	-2.3968616e-38
227	0x8153f113	-3.8927542e-38
228	0x80f88bbe	-2.2825333e-38
229	0x805442e0	-7.738172e-39
230	0x0028ab17	3.734795e-39
231	0x018a98f0	5.091265e-38
232	0x0029cdaf	3.839041e-39
233	0x8026ede7	-3.575092e-39
234	0x01986872	5.5985853e-38
235	0x80abcd69	-1.5777557e-38
236	0x811e3bb0	-2.906284e-38
237	0x818a6a6b	-5.0845896e-38
238	0x8136cec2	-3.3576462e-38
239	0x8133e00c	-3.3037853e-38
240	0x003a410b	5.349792e-39
241	0x0004ebd5	4.51943e-40
242	0x01945fe4	5.450421e-38
243	0x80353f6a	-4.89003e-39
244	0x813542f4	-3.3292486e-38
245	0x80ac9a3e	-1.5851037e-38
246	0x00ce0bf7	1.8922404e-38
247	0x00d1d661	1.9270523e-38
248	0x0057f778	8.078463e-39
249	0x00389182	5.194986e-39
250	0x811d2b53	-2.886743e-38
251	0x00184db4	2.231927e-39
252	0x806b5ede	-9.86043e-39
253	0x014591d7	3.628782e-38
254	0x80164935	-2.046643e-39
255	0x81a8b746	-6.197644e-38

bn1_state.weight f4 [400]
0	0x808a66f5	-1.2710232e-38
1	0x008f7602	1.3174809e-38
2	0x00e5b41d	2.1094941e-38
3	0x01576b1c	3.956611e-38
4	0x00b891d7	1.6950049e-38
5	0x80d2ab4f	-1.9346908e-38
6	0x00b32b06	1.6453988e-38
7	0x00e1b9dc	2.072966e-38
8	0x00c10690	1.7726605e-38
9	0x00c5768c	1.813412e-38
10	0x00af9663	1.612516e-38
11	0x013839ca	3.3836924e-38
12	0x00bebbc9	1.7516109e-38
13	0x006805b8	9.552943e-39
14	0x00bf131c	1.7547435e-38
15	0x00b73e26	1.682819e-38
16	0x81022f90	-2.3911353e-38
17	0x00e12b8e	2.0678611e-38
18	0x00b7e204	1.6886975e-38
19	0x80436f59	-6.192922e-39
20	0x0100151a	2.3525027e-38
21	0x00e5b647	2.1095717e-38
22	0x00cc99bc	1.8789591e-38
23	0x00ea839f	2.1536723e-38
24	0x00a96502	1.5556434e-38
25	0x00ddd1bd	2.0370885e-38
26	0x80bb0cad	-1.7177785e-38
27	0x804257ac	-6.092593e-39
28	0x80087b21	-7.78854e-40
29	0x00d2edff	1.9370831e-38
30	0x0112a908	2.693724e-38
31	0x00a436f9	1.5080742e-38
32	0x003766af	5.087788e-39
33	0x0104ef16	2.4416107e-38
34	0x811b8378	-2.8563328e-38
35	0x00b27081	1.6387077e-38
36	0x017c0a9e	4.6292708e-38
37	0x811349b8	-2.7052526e-38
38	0x00ba1feb	1.7092852e-38
39	0x0092accf	1.3469974e-38
40	0x01a442c3	6.0339884e-38
41	0x00d4eb8c	1.9553623e-38
42	0x81737144	-4.4713315e-38
43	0x00afeb73	1.6155675e-38
44	0x00351275	4.873902e-39
45	0x00cc8407	1.8781804e-38
46	0x011c9570	2.875989e-38
47	0x010f7b7c	2.6353548e-38
48	0x805c3be1	-8.470346e-39
49	0x0105fdd2	2.461035e-38
50	0x01a45c86	6.037685e-38
51	0x00d1f2a8	1.9280667e-38
52	0x00d5a55f	1.9620285e-38
53	0x017ec6bf	4.6795025e-38
54	0x00df8b6c	2.0529331e-38
55	0x00b53961	1.6642808e-38
56	0x00c16b0c	1.7762652e-38
57	0x018aafe2	5.0945573e-38
58	0x00ada4e7	1.5946697e-38
59	0x00a7935d	1.5389392e-38
60	0x00b50ee7	1.6627571e-38
61	0x01859fc7	4.9085753e-38
62	0x00b72ee2	1.6822714e-38
63	0x01b073ec	6.481853e-38
64	0x00ff8e49	2.3469094e-38
65	0x009e0d7d	1.4514847e-38
66	0x810eb848	-2.6213496e-38
67	0x00bdf582	1.744498e-38
68	0x00b2a92f	1.640741e-38
69	0x00b7f913	1.6895247e-38
70	0x013381bd	3.297019e-38
71	0x80026e34	-2.23204e-40
72	0x01142b74	2.7214483e-38
73	0x00b76f18	1.6845749e-38
74	0x00cdb455	1.8890968e-38
75	0x00d7a41d	1.9803504e-38
76	0x80e832a8	-2.1324007e-38
77	0x00cd1864	1.8835026e-38
78	0x00d9c186	1.9997726e-38
79	0x00edab8c	2.1826552e-38
80	0x00d6c6ea	1.9724153e-38
81	0x0063be80	9.160053e-39
82	0x01155096	2.7424795e-38
83	0x00c8ffd2	1.845887e-38
84	0x8199c3ae	-5.648411e-38
85	0x00ce8d23	1.8968743e-38
86	0x00d2856f	1.9333321e-38
87	0x00deee49	2.0472961e-38
88	0x00c859e8	1.8399352e-38
89	0x013802a5	3.379736e-38
90	0x00ba3a78	1.7102377e-38
91	0x0195d26f	5.5035913e-38
92	0x816b3ed9	-4.3207774e-38
93	0x8081af59	-1.1909682e-38
94	0x00ca234b	1.8563431e-38
95	0x00d856ea	1.9867646e-38
96	0x80619e2e	-8.964787e-39
97	0x8102a9a9	-2.3998954e-38
98	0x00f0795b	2.2084053e-38
99	0x00d446a8	1.9494472e-38
100	0x80594573	-8.198273e-39
101	0x007f6062	1.1697684e-38
102	0x811bac53	-2.859264e-38
103	0x00b29a09	1.6401976e-38
104	0x01374ef2	3.3668432e-38
105	0x0028932a	3.726212e-39
106	0x8052b8d5	-7.596816e-39
107	0x00ad1ce0	1.5897899e-38
108	0x0021d036	3.105263e-39
109	0x00c50014	1.8091621e-38
110	0x00137d62	1.789853e-39
111	0x0049d264	6.779465e-39
112	0x00d7d552	1.9821157e-38
113	0x00a7bad5	1.540355e-38
114	0x00ab15a3	1.5711632e-38
115	0x00ba0fbf	1.7087051e-38
116	0x8026a0fd	-3.5475e-39
117	0x011aaa26	2.8407408e-38
118	0x00f491d0	2.2460169e-38
119	0x00e09cb1	2.0627361e-38
120	0x00ce315b	1.8935818e-38
121	0x00b57c0a	1.6666722e-38
122	0x00af3317	1.608954e-38
123	0x00d46a41	1.9507242e-38
124	0x8106c06a	-2.4749963e-38
125	0x00d32828	1.9391695e-38
126	0x00bc90d5	1.7317029e-38
127	0x0182a83c	4.799586e-38
128	0x00b8ba34	1.6964528e-38
129	0x00b21c69	1.635691e-38
130	0x80e04f24	-2.0599541e-38
131	0x00e11e00	2.0673749e-38
132	0x01086922	2.5054684e-38
133	0x00c8f0ca	1.8453478e-38
134	0x00c31edf	1.7918996e-38
135	0x0147cae2	3.669609e-38
136	0x00dff0eb	2.0565741e-38
137	0x80e64189	-2.1145674e-38
138	0x00b83adf	1.691885e-38
139	0x005c3d24	8.470799e-39
140	0x00ff0a45	2.3421736e-38
141	0x00bb4b55	1.7200262e-38
142	0x00dbf0fa	2.019842e-38
143	0x00b45d36	1.6563827e-38
144	0x00b4d3c1	1.6606352e-38
145	0x813dfaf3	-3.4893865e-38
146	0x8092661b	-1.3444611e-38
147	0x005fa3b6	8.7831e-39
148	0x0182d579	4.8060776e-38
149	0x00e30a11	2.0850269e-38
150	0x00a9adf5	1.5582603e-38
151	0x0143a096	3.5931058e-38
152	0x00efe9ad	2.203251e-38
153	0x008e3752	1.3060486e-38
154	0x00b58e65	1.6673306e-38
155	0x00ba932d	1.7134199e-38
156	0x00ca3ca9	1.8572531e-38
157	0x00f0f18e	2.2127173e-38
158	0x805551e1	-7.83539e-39
159	0x00ac3477	1.5814526e-38
160	0x01088ee2	2.5081768e-38
161	0x00aca1bb	1.5853723e-38
162	0x014ebd0c	3.797186e-38
163	0x8058c576	-8.152359e-39
164	0x00b05e78	1.6196936e-38
165	0x00bf270c	1.7554587e-38
166	0x00a01984	1.4702833e-38
167	0x80dae971	-2.0103881e-38
168	0x816bdfac	-4.332316e-38
169	0x00bfb5dd	1.760582e-38
170	0x01778f9b	4.5469767e-38
171	0x0110acf8	2.6572722e-38
172	0x0180ac58	4.7267075e-38
173	0x01b42af2	6.618318e-38
174	0x00e6f392	2.120954e-38
175	0x010eaae4	2.620389e-38
176	0x00c96e63	1.8498534e-38
177	0x012e6608	3.2031956e-38
178	0x8083f2ce	-1.2117552e-38
179	0x00c7c133	1.834457e-38
180	0x00971e9c	1.387814e-38
181	0x00b3da1c	1.6516797e-38
182	0x00cf654a	1.9046283e-38
183	0x0098ebfd	1.4043652e-38
184	0x00ac149c	1.5803099e-38
185	0x80c11fbd	-1.7735636e-38
186	0x00132826	1.759277e-39
187	0x01af2fe5	6.435357e-38
188	0x00b1613e	1.6289767e-38
189	0x00bcc579	1.7335913e-38
190	0x00d990e1	1.9980275e-38
191	0x008eaff3	1.3103759e-38
192	0x01657f62	4.215205e-38
193	0x00e0bb95	2.0638443e-38
194	0x00d69037	1.9704531e-38
195	0x013ddaeb	3.4870883e-38
196	0x0124cc9f	3.026885e-38
197	0x813bd309	-3.4497886e-38
198	0x00e0b268	2.0635151e-38
199	0x003ce946	5.593813e-39
200	0x0109e59c	2.5327663e-38
201	0x00d173cb	1.9235157e-38
202	0x0058e4d3	8.16361e-39
203	0x011fefa5	2.9375624e-38
204	0x00b17f43	1.6300536e-38
205	0x00becdbe	1.752255e-38
206	0x00b753ea	1.6835998e-38
207	0x00c21c2b	1.7826191e-38
208	0x006c9eaa	9.975152e-39
209	0x00c70437	1.8276776e-38
210	0x016940c6	4.2841814e-38
211	0x01419448	3.5554888e-38
212	0x008730c6	1.2415289e-38
213	0x80b50a56	-1.6625933e-38
214	0x00d6d2e0	1.9728444e-38
215	0x01ad825f	6.3737237e-38
216	0x81ae5b70	-6.404871e-38
217	0x015b5bf5	4.0289923e-38
218	0x00e9a51b	2.1456899e-38
219	0x80c996ed	-1.8513077e-38
220	0x00cc853e	1.878224e-38
221	0x0022f3a7	3.209813e-39
222	0x00bf2eba	1.7557342e-38
223	0x010e4fbe	2.6138493e-38
224	0x00a50203	1.5153579e-38
225	0x00ea0e49	2.149463e-38
226	0x813132b0	-3.2546132e-38
227	0x00b18774	1.6303474e-38
228	0x00d52f6b	1.9577971e-38
229	0x0159540c	3.9916906e-38
230	0x013048d9	3.237836e-38
231	0x01a4d7e7	6.055389e-38
232	0x00ede9cb	2.1848882e-38
233	0x00b0c45a	1.6233485e-38
234	0x0093dbe0	1.3578694e-38
235	0x00a54375	1.5177056e-38
236	0x3c9ce939	0.019154178
237	0x00ea9553	2.1543074e-38
238	0x00b7d392	1.6881793e-38
239	0x00bfb20b	1.760445e-38
240	0x00c015b1	1.7640197e-38
241	0x005d4045	8.563757e-39
242	0x00b1e688	1.6337582e-38
243	0x01050d06	2.4437586e-38
244	0x00c59849	1.8146222e-38
245	0x00cf15c5	1.9017757e-38
246	0x00d7a3b8	1.9803363e-38
247	0x00baabb6	1.7143e-38
248	0x00ec7ad1	2.1717235e-38
249	0x00d091de	1.915411e-38
250	0x00cab5cf	1.8615991e-38
251	0x813b9178	-3.4450844e-38
252	0x011be9f0	2.8636846e-38
253	0x00b5e442	1.6704108e-38
254	0x006644d7	9.391916e-39
255	0x01201758	2.9404107e-38
