continuous_control/models/actor_300.pth (torch_old, 553555 bytes, 14 tensors)

fc1.weight f4 [400, 33]
0.13926369 -0.19071332 -0.1284251 0.07166755 0.035152007 -0.11284021 -0.007156987 0.059800584
0.07311343 -0.09552277 -0.012651534 0.001756234 0.0424739 0.0820429 0.066563286 0.1376453
-0.058491394 0.02766393 -0.00086313457 -0.16777286 0.0439024 0.06627857 -0.0357057 0.040168304
-0.025267268 0.09817841 -0.09815142 -0.016856441 -0.1461577 0.0065185837 -0.01608647 0.014513928
-0.39621803 -0.25455007 -0.03279707 0.03307542 0.18932933 -0.0017756543 0.056556646 -0.057417296
-0.06421796 0.04799596 0.19552791 0.12145804 -0.089559495 -0.06105907 -0.05241354 0.0023857483
-0.09577672 -0.14184932 0.05665531 -0.09686247 -0.057997324 0.113010265 0.084901296 0.08478232
0.008616437 0.07848464 0.10060515 0.08183788 0.041456986 -0.07715064 -0.022388315 0.03931437
-0.046004385 0.16560753 -0.06447351 -0.12855048 0.05164766 -0.12603207 0.15657037 0.08081452
-0.052793637 -0.09295984 0.11606421 -0.09626687 -0.069004774 0.12828563 0.03825161 0.062298663
0.07898969 0.09254631 -0.11699516 0.017300945 0.012563816 0.26618993 -0.027265567 -0.03899286
-0.06622627 -0.15465413 0.120768994 0.1468464 -0.092812754 0.10467219 -0.039814837 0.029011402
-0.0869115 -0.0052481666 0.08489351 0.12864876 -0.039528843 -0.20974898 -0.047227148 -0.16408582
0.1912317 -0.4006065 0.08632148 0.045541555 0.121562295 0.0066996184 0.01814617 -0.11474673
-0.0848799 -0.0018016568 0.28833792 0.15805334 0.065400764 0.053636078 -0.01357864 0.0657784
0.0015240122 -0.10644823 0.086196944 -0.041856043 0.04415455 0.020826103 0.07202899 -0.24557458
0.03956637 -0.11224785 -0.008606005 -0.4484417 0.02540921 -0.1710501 -0.20132872 -0.005326841
0.049354024 -0.080350004 -0.17791612 -0.029913781 0.03689102 0.000119813834 -0.021112299 0.021291422
-0.073965006 0.12741655 0.3926812 -0.04773539 0.01843602 0.1355918 -0.054677803 -0.021890854
0.064194456 0.1322094 0.04825201 -0.06085042 0.035432294 0.040356938 -0.11491465 0.07646717
-0.01383826 0.0105185695 -0.113937825 0.042470668 -0.065037206 0.009950886 0.00011544005 -0.044659942
0.17755407 0.106508225 0.26807478 0.105095774 -0.031980745 -0.12896277 0.08498015 0.042375445
0.030496515 0.017919213 -0.26568294 -0.11707275 -0.2937942 0.15838803 -0.11914796 0.075189635
-0.18490751 -0.018921277 -0.099410854 -0.025607653 0.0156243155 -0.053726915 0.011561238 0.11881606
0.009315371 0.20539644 -0.0060855076 0.012146755 0.043659043 0.016410502 0.0167272 -0.24486731
0.028076872 0.011920487 0.049887095 -0.053283807 -0.107432246 -0.0056574172 -0.033353046 -0.017897781
-0.08469397 -0.10348615 0.115623 -0.04741774 -0.028273571 0.204512 -0.1359614 0.0007751046
-0.00046089757 0.023191432 0.030282635 0.04798379 0.051514126 0.030340156 -0.014511608 -0.046471648
-0.04189928 -0.010188478 -0.13946079 -0.003770519 0.07293016 -0.011064064 -0.26452583 -0.0604247
0.08790212 0.13610348 0.0580112 -0.021201981 0.039039228 0.061089646 -0.014666383 -0.07810548
0.18331318 0.042660385 0.07438288 0.05469269 0.06755414 0.04353513 0.061279923 -0.11710767
-0.062151197 0.06677395 0.092703275 -0.06235092 -0.014666051 0.038962394 0.18476975 0.084709704
00000000: 249b 0e3e 5a4a 43be df81 03be 70c6 923d
00000010: 8dfb 0f3d c518 e7bd 2985 eabb 75f1 743d
00000020: 7ebc 953d 71a1 c3bd 6148 4fbc 6f31 e63a
00000030: 1df9 2d3d 1c06 a83d 5552 883d e4f2 0c3e
00000040: ac94 6fbd 779f e23c fb43 62ba a6cc 2bbe
00000050: 01d3 333d 0fbd 873d 2440 12bd 8587 243d
00000060: 4dfd cebc c311 c93d 9d03 c9bd 8516 8abc
00000070: 5daa 15be d899 d53b c6c7 83bc d4cb 6d3c
00000080: 17dd cabe 6354 82be 3856 06bd 177a 073d
00000090: 8cdf 413e 12bd e8ba f1a7 673d 662e 6bbd
000000a0: b584 83bd 6997 443d 7838 483e febe f83d
000000b0: f86a b7bd 1319 7abd 95af 56bd 375a 1c3b
000000c0: 9626 c4bd f340 11be 660f 683d d55f c6bd
000000d0: 9a8e 6dbd ed71 e73d bbe0 ad3d 5aa2 ad3d
000000e0: f52b 0d3c 8ebc a03d 130a ce3d 9e9a a73d
000000f0: cdce 293d 2801 9ebd b367 b7bc 1b08 213d
00000100: 186f 3cbd 0595 293e b00a 84bd bda2 03be
00000110: 7f8c 533d 8d0e 01be fc53 203e 1582 a53d
00000120: 243e 58bd bb61 bebd 13b3 ed3d 9127 c5bd
00000130: 6052 8dbd 4f5d 033e b8ad 1c3d e22c 7f3d
00000140: 59c5 a13d eb88 bd3d 299b efbd b6ba 8d3c
00000150: 77d8 4d3c 0c4a 883e 0a5c dfbc fab6 1fbd
00000160: a3a1 87bd a75d 1ebe bc55 f73d e75e 163e
00000170: 9d14 bebd 605e d63d e214 23bd 52a9 ed3c
00000180: a8fe b1bd d0f8 abbb a6dc ad3d 80bc 033e
00000190: ffe8 21bd 70c8 56be 4171 41bd 1d06 28be
000001a0: 3ed2 433e 4c1c cdbe 51c9 b03d c889 3a3d
000001b0: a7f5 f83d 7988 db3b 47a7 943c 5500 ebbd
000001c0: 83d5 adbd 9225 ecba 07a1 933e bcd8 213e
000001d0: d6f0 853d 81b1 5b3d f278 5ebc d3b6 863d
000001e0: 5dc1 c73a 8801 dabd 0688 b03d 3e71 2bbd
000001f0: 67db 343d 819b aa3c ef83 933d e777 7bbe
00000200: 5910 223d 33e2 e5bd 3400 0dbc 279a e5be
00000210: fa26 d03c c227 2fbe 1e29 4ebe c88c aebb
00000220: 7227 4a3d 8b8e a4bd a52f 36be bf0d f5bc
00000230: 0a1b 173d 9044 fb38 b3f3 acbc 596b ae3c
00000240: f77a 97bd 7c79 023e 830d c93e 2f86 43bd
00000250: 2307 973c 94d8 0a3e d5f5 5fbd 7354 b3bc
00000260: 6278 833d e761 073e e6a3 453d 4a3e 79bd
00000270: 7421 113d 514d 253d 5f58 ebbd d29a 9c3d
00000280: dfb9 62bc 1456 2c3c 3c58 e9bd b9f5 2d3d
00000290: 3a32 85bd 0a09 233c 6818 f238 58ed 36bd
000002a0: bcd0 353e fc20 da3d 1941 893e 743c d73d
000002b0: 3efe 02bd d10e 04be 130a ae3d e091 2d3d
000002c0: d4d3 f93c 50cb 923c 9807 88be d7c3 efbd
000002d0: 326c 96be 7930 223e d803 f4bd 06fd 993d
000002e0: 6558 3dbe cb00 9bbc eb97 cbbd 24c7 d1bc
000002f0: 21fd 7f3c c110 5cbd 596b 3d3c d655 f33d
00000300: 7f9f 183c 7253 523e f068 c7bb 2f03 473c
00000310: d3d3 323d 516f 863c 7b07 893c 7fbe 7abe
00000320: 7801 e63c 254e 433c 6956 4c3d 1f40 5abd
00000330: 7005 dcbd db61 b9bb 349d 08bd 5e9e 92bc
00000340: 0874 adbd 8cf0 d3bd c0cb ec3d 1b39 42bd
00000350: fa9d e7bc 986b 513e 7739 0bbe 6430 4b3a
00000360: a0a4 f1b9 f5fb bd3c 4a13 f83c a78a 443d
00000370: 7a00 533d eb8b f83c 18c2 6dbc 0e59 3ebd
00000380: 949e 2bbd 93ed 26bc cfce 0ebe d01a 77bb
00000390: 685c 953d 0c46 35bc ee6f 87be e47f 77bd
000003a0: 0706 b43d b65e 0b3e 279d 6d3d c7af adbc
000003b0: 99e7 1f3d 2339 7a3d 454b 70bc c4f5 9fbd
000003c0: 73b6 3b3e a8bc 2e3d 0d56 983d 7105 603d
000003d0: d359 8a3d e451 323d a800 7b3d 25d6 efbd
000003e0: 4192 7ebd c8c0 883d 37db bd3d ae63 7fbd
000003f0: e049 70bc 0897 1f3d 4834 3d3e 487c ad3d

fc1.bias f4 [400]
-0.08241233 -0.069039315 0.11253033 -0.07809865 -0.22675668 -0.17583032 -0.09392323 -0.18252614
-0.11616254 -0.09210402 0.024444705 -0.14535223 0.17176369 -0.13776189 -0.11871927 -0.24816452
-0.05015314 -0.16254123 -0.2086395 -0.037911672 -0.08345371 0.034053788 -0.07503254 -0.103414275
-0.19447377 -0.17299797 -0.1565408 0.15569364 0.135943 -0.08044374 0.060059465 0.17637908
0.08087096 -0.12914878 -0.048742298 -0.069476716 -0.2364239 -0.004221744 0.06869467 -0.04648319
0.17110296 0.015328418 0.1466818 -0.032695524 0.0039212527 0.08648048 -0.012336483 0.15973702
0.18420514 -0.09406431 0.08702431 0.07278343 0.13827182 0.13272384 -0.1414712 0.11900665
0.035860557 -0.13106419 -0.03553664 0.097788654 -0.19112508 -0.15663114 0.096271574 -0.07872099
-0.03369929 -0.0049530193 -0.020626456 -0.22092412 -0.042909384 -0.10442074 -0.07319978 -0.058491215
0.10799883 -0.20259103 0.03558485 0.0066248034 -0.17912783 -0.1447094 0.0647107 -0.06270422
-0.22593512 0.05083311 -0.19995758 -0.08916962 0.03772422 0.12286491 0.0014618322 -0.0474463
0.06889538 -0.03721678 -0.07438822 -0.064207286 0.02324144 -0.017153878 -0.05108425 -0.2342493
-0.060714025 0.11673128 -0.02413172 0.07906849 -0.101699516 0.08601474 -0.18553038 0.037161656
-0.05919061 0.1350713 0.062111877 0.045111492 -0.026356395 -0.13250135 0.06753568 -0.058138162
-0.08400983 -0.05684056 0.10386373 0.07636362 -0.0145545 -0.0368329 -0.08741405 -0.18287787
-0.11715657 -0.20358832 -0.13464065 0.037259903 -0.10037202 0.059386894 0.042244174 -0.07267384
0.043515123 0.18784006 -0.20489204 0.12961233 0.031181779 0.022242647 -0.17212163 0.050377224
-0.05913631 -0.023776053 0.14383775 0.058912016 0.066294365 -0.15953827 -0.2085186 0.118374
-0.11415833 -0.104779474 0.054280028 -0.04391849 -0.30385765 -0.042379852 -0.07035382 -0.09980247
0.06208486 -0.23842472 -0.07153837 -0.1798562 0.0002950795 -0.23323195 -0.08158891 -0.022898799
-0.09224919 0.1439328 0.084203854 0.07626753 0.08254011 -0.12852825 -0.037600946 0.1707208
-0.015889786 0.0148043865 0.045262307 -0.31808144 -0.20109607 0.021373354 -0.28805324 0.053437456
-0.27048966 -0.091703996 0.045338847 -0.0101176435 0.0072335126 -0.10057981 -0.20624486 -0.16492462
-0.14400522 -0.18182307 -0.08940531 -0.0017681408 0.228995 0.082532324 0.060475044 -0.14144742
-0.17726704 0.116213284 -0.10440833 -0.030905416 -0.19960429 -0.15398428 0.07892456 -0.056439735
-0.040322043 -0.18428884 -0.15361425 -0.030954618 -0.12748155 0.2655487 -0.11878571 0.107318394
-0.034775496 -0.019995233 -0.056104906 0.044870134 0.018999804 -0.265731 0.08297625 -0.10593634
-0.13016751 -0.03630341 0.008476429 0.038990792 -0.13426214 -0.10279141 0.007908826 -0.13364287
0.08961245 -0.087462485 0.02965984 -0.011724631 0.06300475 -0.1635094 -0.046987195 0.004495845
0.1085572 -0.1576613 -0.06782518 0.14236826 -0.19149253 -0.30910507 -0.15106933 -0.037624415
0.062988706 -0.10678985 0.15935227 -0.08680394 -0.25816035 -0.029348506 0.1429463 0.124131866
-0.005970171 -0.25233546 -0.09658924 0.028792681 0.009192878 -0.18295375 0.14503777 0.035826843
00000000: ccc7 a8bd 7c64 8dbd 4d76 e63d 2ff2 9fbd
00000010: e732 68be dd0c 34be d35a c0bd 22e8 3abe
00000020: a0e6 edbd 08a1 bcbd 4340 c83c 37d7 14be
00000030: d2e2 2f3e 7411 0dbe 1723 f3bd d71e 7ebe
00000040: 616d 4dbd 3571 26be 98a5 55be 4549 1bbd
00000050: c7e9 aabd fc7b 0b3d a9aa 99bd ddca d3bd
00000060: 2224 47be 6126 31be 3b4c 20be 276e 1f3e
00000070: a434 0b3e b0bf a4bd ea00 763d b89c 343e
00000080: ad9f a53d 943f 04be 01a6 47bd cf49 8ebd
00000090: 1b19 72be 8e56 8abb cbaf 8c3d 2865 3ebd
000000a0: 9d35 2f3e 0c24 7b3c c133 163e beeb 05bd
000000b0: da7d 803b ae1c b13d f61e 4abc 1a92 233e
000000c0: 46a0 3c3e caa4 c0bd cd39 b23d 7b0f 953d
000000d0: 2197 0d3e c2e8 073e d4dd 10be c2b9 f33d
000000e0: 85e2 123d b135 06be de8e 11bd 6b45 c83d
000000f0: 4bb6 43be ea63 20be 082a c53d 7838 a1bd
00000100: 4408 0abd f04c a2bb d0f8 a8bc ef39 62be
00000110: c0c1 2fbd 8ada d5bd c4e9 95bd 7c94 6fbd
00000120: 7e2e dd3d 0674 4fbe 6bc1 113d e114 d93b
00000130: 496d 37be b32e 14be 0b87 843d 126b 80bd
00000140: 895b 67be 6136 503d aec1 4cbe 909e b6bd
00000150: b684 1a3d 99a0 fb3d f39a bf3a 0d57 42bd
00000160: 0519 8d3d 9f70 18bd da58 98bd 1c7f 83bd
00000170: d564 be3c 4a86 8cbc b83d 51bd 0cdf 6fbe
00000180: 45af 78bd cf10 ef3d e3af c5bc a9ee a13d
00000190: d647 d0bd 7f28 b03d adfb 3dbe d236 183d
000001a0: da71 72bd 2250 0a3e 0669 7e3d d4c6 383d
000001b0: 5ee9 d7bc 6fae 07be 2650 8a3d 4822 6ebd
000001c0: 590d acbd a6d1 68bd 82b6 d43d 8864 9c3d
000001d0: ff75 6ebc 18de 16bd 2306 b3bd 5644 3bbe
000001e0: c9ef efbd 7579 50be 3ddf 09be d79d 183d
000001f0: d88f cdbd ac3f 733d 3a08 2d3d 06d6 94bd
00000200: ea3c 323d 2559 403e 38cf 51be 18b9 043e
00000210: ee70 ff3c 3636 b63c a740 30be 5958 4e3d
00000220: ea38 72bd ffc5 c2bc 344a 133e ba4d 713d
00000230: 57c5 873d 005e 23be e685 55be 116e f23d
00000240: d8cb e9bd 9f96 d6bd bc54 5e3d e0e3 33bd
00000250: 3b93 9bbe 7f96 2dbd aa15 90bd 3d65 ccbd
00000260: b24c 7e3d 9c25 74be b582 92bd 392c 38be
00000270: e6b4 9a39 5bd4 6ebe 1618 a7bd 4396 bbbc
00000280: 25ed bcbd 1f63 133e 1273 ac3d 2732 9c3d
00000290: ca0a a93d e99c 03be 7303 1abd 6fd1 2e3e
000002a0: 4c2b 82bc 198e 723c f864 393d 92db a2be
000002b0: 21ec 4dbe 2c17 af3c b77b 93be 3ce1 5a3d
000002c0: 9f7d 8abe 4ecf bbbd 3ab5 393d 79c4 25bc
000002d0: 1a07 ed3b cafc cdbd da31 53be 00e2 28be
000002e0: 1b76 13be d42f 3abe 221a b7bd f6c0 e7ba
000002f0: aa7d 6a3e b506 a93d aeb4 773d 98d7 10be
00000300: 7e85 35be 3b01 ee3d 09d4 d5bd 5b2d fdbc
00000310: 1165 4cbe 0eae 1dbe 33a3 a13d 5a2d 67bd
00000320: ba28 25bd 37b6 3cbe 0e4d 1dbe 8a94 fdbc
00000330: 868a 02be 00f6 873e ec45 f3bd bfc9 db3d
00000340: c070 0ebd 0bcd a3bc 42ce 65bd bfc9 373d
00000350: 7aa5 9b3c e50d 88be 74ef a93d 27f5 d8bd
00000360: a24a 05be e2b2 14bd b8e0 0a3c cfb4 1f3d
00000370: 047c 09be 4e84 d2bd 0594 013c add9 08be
00000380: bb86 b73d 881f b3bd 31f9 f23c ab18 40bc
00000390: a208 813d 026f 27be a575 40bd e251 933b
000003a0: 3d53 de3d f771 21be eee7 8abd fcc8 113e
000003b0: 9e16 44be 0543 9ebe ebb1 1abe 0f1c 1abd
000003c0: 3900 813d a3b4 dabd 3e2d 233e 44c6 b1bd
000003d0: 982d 84be 476c f0bc 8460 123e d938 fe3d
000003e0: 6da1 c3bb 1d32 81be 94d0 c5bd a1de eb3c
000003f0: ba9d 163c 3a58 3bbe c884 143e 2bbf 123d

fc2.weight f4 [300, 400]
0.02606451 -0.018180702 -0.013530371 0.028060593 -0.29242748 -0.054527987 -0.054419182 0.16005272
-0.00925496 -0.057718556 0.043297417 0.0687793 -0.19048211 0.026735734 0.053683385 -0.1814459
-0.004080972 -0.056513373 -0.19898638 -0.16189669 0.018956177 -0.1158901 0.06300245 0.06466803
0.073797815 -0.037158858 -0.044792183 -0.20513296 -0.010091457 0.08424667 0.15033767 0.058103785
-0.07100191 0.071510196 -0.051322583 -0.09647554 0.14707838 -0.22732891 0.11578397 0.0873908
-0.038297746 0.08725492 0.06486868 -0.15353337 0.023103645 0.19592561 -0.13155419 -0.08732699
0.13634165 0.0432298 0.0009228048 0.108924426 0.073405884 0.087629 -0.051114175 -0.2733283
0.035985034 -0.19358313 -0.00642127 -0.27759638 0.11004807 -0.069550574 0.06637906 0.17183138
-0.1107546 0.084239505 0.04583353 -0.11602856 0.045413844 -0.111015886 0.051706508 -0.07634719
0.21420977 -0.26032287 -0.06384576 -0.13901803 -0.08657601 0.01076312 0.037243295 0.012972877
0.114679225 -0.014206328 -0.15313353 -0.107950054 0.04210224 0.057961266 -0.050057404 0.02921502
0.03503242 -0.0440679 -0.08175853 0.055067014 0.08203081 0.09785917 0.11936795 0.075792894
-0.019597365 -0.13950942 0.033492193 -0.071301736 -0.18777178 0.05896899 0.122578315 0.0070586293
0.025668407 0.10626966 0.031212753 -0.0023774072 0.050016165 -0.03857402 0.06381034 0.0048857215
-0.24711935 -0.0889557 0.0777791 0.096312486 0.029240118 0.034002233 -0.3118656 0.12330359
-0.025893893 -0.114502616 0.19441742 -0.029831009 0.19386019 0.12104147 -0.11022548 -0.19629279
0.09620305 0.12707008 -0.19384964 0.00037413338 -0.002901046 -0.008086402 -0.09720312 -0.13974342
-0.14730452 -0.051140144 0.01700928 0.08052054 -0.14036195 0.14257793 0.009638261 0.041365772
-0.106267 -0.11290808 0.054008354 -0.037780687 0.007753983 -0.08001827 -0.049423624 -0.3143514
-0.028111713 -0.0022927516 0.077926114 -0.0073145656 0.032083914 -0.13167961 0.0423752 -0.20764378
0.11571792 -0.03858841 0.009740859 -0.15010083 -0.2754815 0.0517788 0.016592752 -0.051253952
0.027255211 -0.016536688 -0.055391915 -0.050631538 -0.21925732 0.18750285 0.027583415 0.015074278
0.082177565 0.1219774 -0.09623876 -0.043382335 0.0047457754 -0.21806325 0.053238362 -0.027118655
-0.1122252 0.021688152 -0.07120623 -0.10713196 0.070417844 0.11053661 -0.021782879 -0.08720296
-0.10842593 -0.032256156 -0.03407999 0.01185151 -0.107201815 -0.023491424 -0.08386651 -0.014538374
0.051829398 -0.08595021 -0.116820134 0.099356435 0.014462411 0.10554618 -0.12381653 -0.08148419
-0.090279676 -0.1148745 -0.13600793 0.12600271 -0.0075999717 -0.112450324 -0.019359156 0.08581786
-0.02842982 -0.031664938 0.012639692 -0.030167634 -0.015628528 -0.033874627 -0.03021866 0.117859356
-0.03651717 0.15678827 0.07177868 -0.023150286 -0.14879929 0.052827407 0.007197508 0.043344285
0.08358356 -0.15533501 0.034639534 0.047311947 0.083833225 -0.17271742 -0.07151946 -0.023296196
0.026559843 -0.179362 0.154136 -0.18160851 0.061943684 0.029207503 0.13462687 0.20776103
0.03785243 -0.033849932 0.23791403 -0.084673345 0.09187566 -0.17382231 0.1235393 -0.22368954
00000000: 3d85 d53c b2ef 94bc 7dae 5dbc 54df e53c
00000010: 0eb9 95be bd58 5fbd a6e6 5ebd dce4 233e
00000020: 1ea2 17bc 4b6a 6cbd a258 313d 29dc 8c3d
00000030: be0d 43be e604 db3c 1ce3 5b3d f4cc 39be
00000040: adb9 85bb 917a 67bd 16c3 4bbe 3fc8 25be
00000050: fc49 9b3c ca57 edbd 6e07 813d ac70 843d
00000060: 4f23 973d e333 18bd 0278 37bd 600e 52be
00000070: a356 25bc 8589 ac3d 1ef2 193e 3cfe 6d3d
00000080: 7369 91bd f073 923d a137 52bd f894 c5bd
00000090: b79b 163e e9c8 68be 2520 ed3d f3f9 b23d
000000a0: 19de 1cbd b5b2 b23d dfd9 843d da37 1dbe
000000b0: db43 bd3c b9a0 483e 24b6 06be 7ed8 b2bd
000000c0: 259d 0b3e bb11 313d 62e8 713a c513 df3d
000000d0: d355 963d d576 b33d 195d 51bd b0f1 8bbe
000000e0: 0b65 133d a83a 46be 8469 d2bb 1d21 8ebe
000000f0: e260 e13d 8870 8ebd bff1 873d 91f4 2f3e
00000100: 4fd3 e2bd c385 ac3d f1bb 3b3d 62a0 edbd
00000110: de03 3a3d 4c5c e3bd 34ca 533d ea5b 9cbd
00000120: ce59 5b3e 0a49 85be 91c1 82bd be5a 0ebe
00000130: c34e b1bd cc57 303c 6d8c 183d 318c 543c
00000140: f1dc ea3d a9c1 68bc 09cf 1cbe eb14 ddbd
00000150: 6673 2c3d cb68 6d3d fe08 4dbd 5654 ef3c
00000160: 287e 0f3d 8b80 34bd 0471 a7bd f38d 613d
00000170: c5ff a73d 636a c83d 2f77 f43d 4e39 9b3d
00000180: a78a a0bc 8fdb 0ebe 1c2f 093d a506 92bd
00000190: 3f47 40be 7889 713d 570a fb3d 134c e73b
000001a0: 8d46 d23c e8a3 d93d e3b1 ff3c 46ce 1bbb
000001b0: c0dd 4c3d cbff 1dbd ffae 823d 6718 a03b
000001c0: db0c 7dbe 682e b6bd a64a 9f3d 7b3f c53d
000001d0: f988 ef3c ed45 0b3d d9ac 9fbe 9886 fc3d
000001e0: 6e1f d4bc 5980 eabd 5c15 473e 2960 f4bc
000001f0: 4983 463e 97e4 f73d e5bd e1bd fa00 49be
00000200: 1b06 c53d a91e 023e 8580 46be 5527 c439
00000210: 7a1f 3ebb d47c 04bc 6e12 c7bd e618 0fbe
00000220: ffd6 16be 5478 51bd 0c57 8b3c f4e7 a43d
00000230: 0bbb 0fbe f3ff 113e cce9 1d3c 286f 293d
00000240: 83a2 d9bd 5a3c e7bd dd37 5d3d ecbf 1abd
00000250: 2015 fe3b 9ee0 a3bd 6d70 4abd abf2 a0be
00000260: 894a e6bc fd41 16bb ba97 9f3d 06af efbb
00000270: 6c6a 033d 05d7 06be 9e91 2d3d 92a0 54be
00000280: 84fd ec3d e10e 1ebd 2098 1f3c 08b4 19be
00000290: e90b 8dbe 0216 543d 86ed 873c aaef 51bd
000002a0: 5246 df3c f377 87bc a2e2 62bd 0463 4fbd
000002b0: fe84 60be bf00 403e 9df6 e13c 1bfa 763c
000002c0: b64c a83d 49cf f93d d418 c5bd adb1 31bd
000002d0: 7382 9b3b f94b 5fbe 7810 5a3d f127 debc
000002e0: 53d6 e5bd 5aab b13c 92d4 91bd 0068 dbbd
000002f0: 3b37 903d 0561 e23d 0272 b2bc 7797 b2bd
00000300: 6a0e debd 081f 04bd 7697 0bbd d62c 423c
00000310: a08c dbbd 1671 c0bc 34c2 abbd 5c32 6ebc
00000320: 104b 543d aa06 b0bd 653f efbd 637b cb3d
00000330: c0f3 6c3c 9828 d83d 8593 fdbd 2fe1 a6bd
00000340: 8de4 b8bd 5243 ebbd aa45 0bbe db06 013e
00000350: 2f09 f9bb 5b4c e6bd 1897 9ebc 46c1 af3d
00000360: a7e5 e8bc 18b3 01bd b616 4f3c 1d22 f7bc
00000370: 6607 80bc 1fc0 0abd 208d f7bc 3f60 f13d
00000380: 0793 15bd 1b8d 203e b300 933d aba5 bdbc
00000390: d75e 18be 8d61 583d 13d9 eb3b c789 313d
000003a0: dc2d ab3d 2410 1fbe 2fe2 0d3d 2cca 413d
000003b0: c1b0 ab3d d6dc 30be cb78 92bd aad7 bebc
000003c0: 0794 d93c acaa 37be d4d5 1d3e 95f7 39be
000003d0: a9b8 7d3d 9344 ef3c a0db 093e 4fbf 543e
000003e0: 260b 1b3d 3aa6 0abd bc9f 733e 3869 adbd
000003f0: 4e29 bc3d 7afe 31be 2c02 fd3d df0e 65be

fc2.bias f4 [300]
0.070230365 0.027574152 -0.014048057 0.10068622 -0.042520914 0.05779663 -0.028248219 0.14606139
0.08070826 -0.048988517 -0.09116552 0.0097398255 -0.05155941 0.0574976 0.057181608 0.02623553
-0.102807134 0.0026308475 0.14176783 0.022008002 0.12648097 0.021556279 0.02616446 0.044941604
0.09403318 -0.0075479983 -0.07326924 0.014339662 0.016491303 0.088220544 0.017947616 -0.034347896
0.046994492 -0.014657558 0.084761 -0.00044803217 -0.045003705 -0.044479437 0.028549785 0.17488429
0.0048602493 0.029142203 -0.06511318 -0.022539824 0.057044774 -0.026781287 -0.00564777 -0.06764382
0.020272816 -0.19160809 -0.03711376 0.015847508 0.0504702 0.04221751 0.06497527 0.014443101
0.016887402 0.019398453 0.01712282 -0.05190107 -0.05384213 -0.055894386 -0.07435455 -0.061226107
-0.07956048 0.0029301122 0.0049902378 0.004486088 -0.052827705 0.026284529 0.13863897 -0.11148278
0.008990587 -0.03969385 0.11196246 0.04907473 -0.054990508 -0.04363669 0.070045546 -0.01885212
-0.11377168 0.074212335 -0.05873241 0.0013655096 -0.044085324 0.086706035 -0.01689801 0.009900728
-0.027878176 0.094791025 -0.008592117 -0.05484903 0.04843008 0.05936286 0.10236693 0.010180308
-0.0047313687 0.053544108 -0.03536331 0.091257125 0.062379688 0.018490227 0.0057410197 0.031961888
0.0027609137 -0.12931319 -0.06384703 -0.07462615 0.019318428 0.029844915 0.029536739 0.076979
-0.021320676 -0.06430311 -0.09062848 -0.0034198246 0.058216367 0.06213623 -0.055335578 -0.03397626
-0.0695704 -0.19682977 0.05648789 0.033688687 -0.023725173 0.13953602 5.400517e-05 0.036880173
0.008922803 0.034390952 0.09958568 0.023665959 0.010048374 -0.117519274 0.16144481 0.11753102
0.06473406 0.039496787 -0.08802884 0.0817639 0.029430736 -0.0761642 -0.09998357 -0.024530033
0.013271656 -0.021094535 0.027373724 0.036840316 -0.058222357 0.053440016 -0.089397594 0.022462182
-0.0077793133 0.061093915 -0.077166915 -0.04140713 -0.033253312 -0.008956228 -0.13448152 0.060958248
0.017454432 0.049208242 -0.11046126 -0.022907376 -0.021911368 0.008418471 -0.03585208 0.005413429
-0.024389176 -0.013123775 0.06293882 0.037673026 -0.016723128 0.056001466 0.008480266 -0.0034191003
-0.12574174 0.122281216 0.06478882 -0.02429384 0.01757951 -0.02873146 0.06314218 -0.042155825
-0.006754264 0.03673713 0.055394296 0.019068085 0.03897876 -0.06685748 -0.020833438 0.037802894
-0.00023710655 0.082238324 0.09766333 0.028328087 -0.023145102 0.08106831 -0.016192831 0.060461342
-0.02097787 0.12327873 -0.11624684 0.020990381 0.074101835 -0.13983509 -0.013067672 -0.06487157
-0.116766445 -0.0016625092 -0.040660694 -0.025774218 -0.03701882 0.062024716 0.08820028 0.102278575
-0.031825934 -0.05836476 0.028176403 -0.02090146 -0.023399407 0.10507231 -0.110267386 0.047917463
0.082698844 -0.010681006 0.030980399 0.09032587 -0.015577963 0.07890033 -0.048962004 0.025733445
-0.02830863 0.008242154 0.13046943 -0.023237165 -0.013470717 0.02635398 0.0031822133 0.04693464
0.06704518 0.11387451 -0.04888454 -0.08348267 0.0325898 -0.054465827 0.03443599 -0.05109621
-0.055991825 0.014566999 0.0017707929 0.063656166 -0.024113301 0.018783266 0.06525691 -0.012544216
00000000: f0d4 8f3d 30e3 e13c d229 66bc 9434 ce3d
00000010: 692a 2ebd 29bc 6c3d cf68 e7bc 1e91 153e
00000020: 5f4a a53d 2fa8 48bd fdb4 babd ca93 1f3c
00000030: f62f 53bd 9a82 6b3d 4337 6a3d e5eb d63c
00000040: 8c8c d2bd 4c6a 2c3b 962b 113e 204a b43c
00000050: 3a84 013e cb96 b03c da56 d63c b014 383d
00000060: 7894 c03d 3355 f7bb 2f0e 96bd e7f0 6a3c
00000070: c518 873c f9ac b43d e106 933c 61b0 0cbd
00000080: 4c7d 403d 4126 70bc 2d97 ad3d dce5 eab9
00000090: ce55 38bd 1230 36bd 3de1 e93c de14 333e
000000a0: ba42 9f3b a1bb ee3c 0f5a 85bd 70a5 b8bc
000000b0: c8a7 693d 6e64 dbbc ee10 b9bb d888 8abd
000000c0: 2d13 a63c e934 44be 9904 18bd a2d2 813c
000000d0: d7b9 4e3d 45ec 2c3d c111 853d c2a2 6c3c
000000e0: 7357 8a3c 81e9 9e3c 2845 8c3c 3796 54bd
000000f0: 9189 5cbd 83f1 64bd 3347 98bd 3ac8 7abd
00000100: 9bf0 a2bd 2007 403b 2685 a33b 0900 933b
00000110: dd61 58bd a752 d73c 60f7 0d3e 1551 e4bd
00000120: 414d 133c 0596 22bd 934c e53d 9602 493d
00000130: ba3d 61bd 63bc 32bd 0a74 8f3d c36f 9abc
00000140: 2001 e9bd a3fc 973d 6591 70bd e6fa b23a
00000150: d092 34bd ef92 b13d b26d 8abc aa36 223c
00000160: c660 e4bc cc21 c23d f3c5 0cbc 60a9 60bd
00000170: 9f5e 463d 7826 733d c1a5 d13d 4ecb 263c
00000180: 9909 9bbb 1151 5b3d 1ed9 10bd 04e5 ba3d
00000190: d881 7f3d d178 973c 2a1f bc3b 78ea 023d
000001a0: 72f0 343b ad6a 04be 3bc2 82bd 98d5 98bd
000001b0: ae41 9e3c 537d f43c 08f7 f13c 2aa7 9d3d
000001c0: b3a8 aebc 59b1 83bd 6d9b b9bd 231f 60bb
000001d0: 4974 6e3d 8f82 7e3d 8fa7 62bd b12a 0bbd
000001e0: ed7a 8ebd be8d 49be d95f 673d 26fd 093d
000001f0: 4b5b c2bc 88e2 0e3e 9c83 6238 aa0f 173d
00000200: f330 123c 87dd 0c3d 94f3 cb3d 1ddf c13c
00000210: efa1 243c f2ad f0bd ca51 253e 1ab4 f03d
00000220: 4a93 843d 62c7 213d 7748 b4bd d573 a73d
00000230: ba18 f13c fafb 9bbd 30c4 ccbd 35f3 c8bc
00000240: 5c71 593c 72ce acbc dc3e e03c dfe5 163d
00000250: 917a 6ebd ebe3 5a3d 1616 b7bd 9c02 b83c
00000260: 9ce9 febb 9d3d 7a3d b009 9ebd 869a 29bd
00000270: a034 08bd 25bd 12bc 86b5 09be 5baf 793d
00000280: 99fc 8e3c 958e 493d 8339 e2bd 40a8 bbbc
00000290: 787f b3bc a0ed 093c a1d9 12bd 2263 b13b
000002a0: cfcb c7bc 1a05 57bc 11e6 803d 084f 1a3d
000002b0: f1fe 88bc cb61 653d d0f0 0a3c fc12 60bb
000002c0: 71c2 00be 936e fa3d 00b0 843d e003 c7bc
000002d0: e802 903c 3d5e ebbc b050 813d 96ab 2cbd
000002e0: df52 ddbb ac79 163d 21e5 623d ac34 9c3c
000002f0: 31a8 1f3d 93ec 88bd e3aa aabc 35d7 1a3d
00000300: ce9f 78b9 916c a83d b603 c83d 4e10 e83c
00000310: cc9a bdbc 2407 a63d d4a6 84bc 50a6 773d
00000320: c8d9 abbc 8f79 fc3d d312 eebd 05f4 ab3c
00000330: b4c2 973d ee30 0fbe ca19 56bc 63db 84bd
00000340: 3f23 efbd 8de8 d9ba d48b 26bd 7424 d3bc
00000350: 0ca1 17bd a10d 7e3d 59a2 b43d 6e77 d13d
00000360: e95b 02bd e30f 6fbd 33d2 e63c 8a39 abbc
00000370: 1db0 bfbc 2730 d73d ded3 e1bd 1a45 443d
00000380: 035e a93d 63ff 2ebc 9bca fd3c c5fc b83d
00000390: b63a 7fbc 7f96 a13d 628c 48bd f2ce d23c
000003a0: 80e7 e7bc 190a 073c c799 053e de5b bebc
000003b0: 48b4 5cbc 4de4 d73c ae8c 503b 893e 403d
000003c0: fc4e 893d 0a37 e93d 283b 48bd f6f8 aabd
000003d0: e27c 053d 8f17 5fbd c10c 0d3d 424a 51bd
000003e0: af57 65bd 6caa 6e3c f319 e83a 2a5e 823d
000003f0: 4289 c5bc 5ddf 993c 6aa5 853d 4186 4dbc

fc3.weight f4 [4, 300]
0.015723275 0.102955356 -0.001862087 -0.40033764 -0.2528817 0.3098225 -0.17132282 0.22966526
0.07862467 -0.12950836 0.2109687 -0.22193238 0.0079297535 -0.17486152 -0.1041107 0.039282274
0.32072374 -0.11259812 -0.07428126 -0.6043955 0.40724534 -0.11001442 -0.24858877 0.08984317
-0.027856817 -0.600486 0.23593877 -0.21398671 -0.07462274 -0.63926804 -0.0008942804 -0.102518454
-0.1807142 -0.015477027 0.20673777 0.4542822 0.050041784 -0.3597291 -0.26539662 -0.2356333
0.24525928 0.005615645 -0.31141365 -0.48603567 -0.34334773 -0.085610166 -0.07471011 0.11046029
-0.17111295 0.06314206 -0.062561855 0.07876917 -0.2705958 0.18291673 0.062910594 -0.1162365
-0.2361279 -0.3065353 -0.5167238 -0.42043057 0.25159833 0.11153659 0.12272725 -0.14216532
0.121324934 -0.46587896 -0.0006007291 0.13014555 -0.16317374 -0.20451754 0.24072647 -0.18948883
-0.13623811 -0.48336682 0.024289142 0.40620533 -0.032012545 -0.13155529 -0.24210009 -0.09853932
-0.2099162 0.1467069 -0.011644589 -0.5209403 -0.33874035 0.10034347 0.035671234 0.16783266
0.074568756 -0.35053843 0.21555667 0.0486881 -0.10366468 -0.083442755 0.20978719 -0.40296757
-0.027116098 -0.13162231 -0.52360106 -0.23607066 0.020403612 -0.14065345 0.44218823 0.2385481
0.17599845 -0.08503672 -0.098264754 -0.46991912 -0.44987383 -0.30691272 -0.20923693 0.15452333
0.12024631 -0.108277254 -0.7391423 0.05877619 -0.085194774 0.17729016 -0.74982315 -0.3506947
-0.038740393 0.124660246 -0.5351026 -0.11800533 -0.46215072 -0.12492459 0.332115 -0.08839662
-0.42528495 -0.68165797 -0.045840137 -0.061330143 -0.06623526 -0.024081418 -0.009695201 -0.015473151
-0.18596154 -0.1780385 0.3318283 0.10504022 -0.23182687 -0.21241735 -0.1998386 -0.56688243
-0.124917716 -0.005865857 0.28889373 0.321951 -0.03938977 0.107478455 0.1330469 -0.08684934
-0.022568228 -0.48664925 -0.009949384 -0.30167085 -0.60033464 0.082610786 0.26497167 -0.02590673
-0.13617676 -0.70988333 -0.056833867 -0.13085997 -0.07546837 -0.08184092 0.086884655 0.15827706
-0.42168477 0.27067864 0.00924709 -0.07279596 0.16276807 0.22050552 0.069997765 0.2947918
-0.08882134 0.18340835 0.2609798 0.0648678 -0.64012694 -0.09803511 -0.0996464 0.14570773
-0.17457981 -0.21385498 0.08156979 0.004040769 -0.87141997 -0.3542681 -0.20757817 -0.23986381
0.33380374 0.48241583 0.029684262 0.3553026 -0.17911924 0.29625607 0.13026299 -0.2078926
0.35244986 -0.17294012 0.12831777 0.19660245 0.14431946 -0.06749254 -0.12583967 0.035125837
0.56124294 -0.789467 -0.17005189 0.1477138 -0.4940466 -0.33113244 -0.06735053 -0.567768
-0.27812704 0.2604283 0.2807741 0.22003005 -0.35995495 -0.05618648 0.0815011 -0.19752061
-0.32718232 -0.3394136 0.29850185 0.055171646 0.15577483 -0.3290775 -0.48558676 -0.3695384
0.49992776 -0.6789784 0.3987792 -0.0020946541 -0.39392105 -0.103651896 -0.19719547 0.002803853
-0.11886278 -0.13503794 -0.66645074 -0.21727625 -0.36089167 -0.147797 0.20709035 -0.2624871
0.19626677 -0.055230856 -0.4226459 0.11109085 0.16853511 -0.07847412 -0.20268211 0.17254046
00000000: 19ce 803c 42da d23d 4611 f4ba 0ef9 ccbe
00000010: b679 81be 0ea1 9e3e 406f 2fbe 5f2d 6b3e
00000020: f905 a13d d79d 04be 2e08 583e 3e42 63be
00000030: cceb 013c e60e 33be fe37 d5bd 73e6 203d
00000040: e735 a43e d899 e6bd c620 98bd aab9 1abf
00000050: 7682 d03e 3d4f e1bd 0e8e 7ebe b2ff b73d
00000060: fb33 e4bc 73b9 19bf ef99 713e 551f 5bbe
00000070: cfd3 98bd 12a7 23bf 246e 6aba 32f5 d1bd
00000080: 250d 39be 5b93 7dbc 11b3 533e ad97 e83e
00000090: 9df8 4c3d 6a2e b8be 11e2 87be db49 71be
000000a0: 4025 7b3e 7203 b83b 9c71 9fbe abd9 f8be
000000b0: 46cb afbe 6254 afbd 9d01 99bd 0139 e23d
000000c0: 3c38 2fbe a050 813d 6e20 80bd bb51 a13d
000000d0: 888b 8abe 864e 3b3e 45d7 803d 670d eebd
000000e0: 83cb 71be 32f2 9cbe 0348 04bf ad42 d7be
000000f0: 7fd1 803e 4c6d e43d 6d58 fb3d c993 11be
00000100: 3579 f83d b087 eebe 3f7a 1dba e044 053e
00000110: 0417 27be 0c6d 51be 0081 763e 5c09 42be
00000120: 0182 0bbe db7b f7be 06fa c63c 25fa cf3e
00000130: 961f 03bd 6eb6 06be 16e9 77be fcce c9bd
00000140: 46f4 56be 553a 163e f2c8 3ebc 585c 05bf
00000150: 606f adbe e180 cd3d 001c 123d 53dc 2b3e
00000160: 81b7 983d c679 b3be e3ba 5c3e 2c6d 473d
00000170: 264e d4bd 09e4 aabd 74d2 563e c451 cebe
00000180: 9422 debc 00c8 06be b80a 06bf 82bc 71be
00000190: 7a25 a73c 7507 10be 7f66 e23e f445 743e
000001a0: f038 343e bb27 aebd 083f c9bd 3d99 f0be
000001b0: dd55 e6be aa23 9dbe 3542 56be 5d3b 1e3e
000001c0: b343 f63d 77c0 ddbd 6e38 3dbf 4dbf 703d
000001d0: 997a aebd 8d8b 353e 69f4 3fbf 418e b3be
000001e0: 3fae 1ebd df4d ff3d 7cfc 08bf c7ac f1bd
000001f0: 059f ecbe 77d8 ffbd fa0a aa3e 4909 b5bd
00000200: f3be d9be 2381 2ebf dec2 3bbd 5135 7bbd
00000210: 5aa6 87bd 6546 c5bc 9fd8 1ebc 1983 7dbc
00000220: b46c 3ebe b94f 36be 66e5 a93e 541f d73d
00000230: 0664 6dbe ef83 59be 7da2 4cbe 351f 11bf
00000240: dcd4 ffbd 6036 c0bb e1e9 933e c3d6 a43e
00000250: 2b57 21bd aa1d dc3d 723d 083e 11de b1bd
00000260: 01e1 b8bc 172a f9be be02 23bc 9a74 9abe
00000270: 88af 19bf d82f a93d 5eaa 873e 5a3a d4bc
00000280: ec71 0bbe eaba 35bf a1ca 68bd 2800 06be
00000290: 298f 9abd 369c a7bd 95f0 b13d 6213 223e
000002a0: 11e7 d7be 6496 8a3e 1b81 173c 0c16 95bd
000002b0: acac 263e 33cc 613e fd5a 8f3d f3ee 963e
000002c0: f6e7 b5bd 66cf 3b3e 259f 853e 69d9 843d
000002d0: 5cdf 23bf a2c6 c8bd 6913 ccbd 6834 153e
000002e0: 0dc5 32be cdfc 5abe 100e a73d 6d68 843b
000002f0: 6115 5fbf a162 b5be 5f8f 54be dc9e 75be
00000300: 53e8 aa3e 35ff f63e 692c f33c 39ea b53e
00000310: 096b 37be e0ae 973e a963 053e cce1 54be
00000320: 4f74 b43e 3717 31be bc65 033e 2752 493e
00000330: 7bc8 133e 8739 8abd 1ddc 00be 1ce0 0f3d
00000340: 9ead 0f3f 821a 4abf 1522 2ebe 4942 173e
00000350: adf3 fcbe 318a a9be 13ef 89bd 3e59 11bf
00000360: ab66 8ebe dc56 853e 9fc1 8f3e 8f4f 613e
00000370: 044c b8be cb23 66bd 0cea a63d d842 4abe
00000380: 7184 a7be 9fc7 adbe 3cd5 983e aafb 613d
00000390: 7083 1f3e d97c a8be d49e f8be 2334 bdbe
000003a0: 88f6 ff3e 87d1 2dbf ca2c cc3e 7746 09bb
000003b0: 05b0 c9be 7247 d4bd 9ced 49be d9c0 373b
000003c0: 546e f3bd 6347 0abe 849c 2abf aa7d 5ebe
000003d0: cbc6 b8be 1958 17be 7e0f 543e b664 86be
000003e0: 28fa 483e c039 62bd 0b65 d8be 9983 e33d
000003f0: 7894 2c3e 0ab7 a0bd e68b 4fbe 72ae 303e

fc3.bias f4 [4]
-0.0480302 -0.030386461 0.0701373 0.034262862
00000000: 51bb 44bd 07ed f8bc 25a4 8f3d 3757 0c3d

bn1.weight f4 [400]
0.15837413 0.9725673 0.28399342 0.8639261 0.49206614 0.6453319 0.05378437 0.8427452
0.012793243 0.54165584 0.026847422 0.7317579 0.47575384 0.38435024 0.2747574 0.41274387
0.04051137 0.26911688 0.13039929 0.02144903 0.73713714 0.0018444061 0.54199743 0.78937143
0.72054154 0.16435432 0.3583851 0.31453395 0.78417253 0.99657613 0.64877164 0.21397537
0.9086404 0.122782946 0.00015687943 0.6119619 0.6013905 0.51781744 0.36584508 0.27108973
0.51782984 0.39497018 0.30172002 0.8153211 0.57280964 0.77605563 0.9198096 0.28275996
0.042562366 0.10135341 0.07386559 0.33315903 0.96218276 0.07933122 0.050417006 0.10312289
0.60950834 0.31444073 0.34157634 0.73484397 0.7122133 0.38940686 0.08816755 0.6979398
0.3858549 0.67043394 0.5438265 0.42556512 0.42861003 0.4224841 0.011492133 0.21537793
0.700559 0.3864898 0.6197148 0.065598786 0.8137626 0.34534973 0.69695085 0.09461737
0.97056943 0.93275064 0.81735617 0.98263806 0.08762658 0.03596407 0.55945826 0.6825419
0.35371828 0.21147472 0.34076482 0.79333514 0.2740178 0.15690374 0.69277763 0.15861398
0.2282005 0.9606835 0.19448298 0.87076986 0.6465829 0.22097427 0.48041433 0.25264847
0.080797076 0.36761147 0.21222037 0.33215976 0.01540935 0.04054022 0.53767335 0.047497153
0.69865745 0.76356775 0.16905534 0.63382953 0.55283487 0.04841864 0.13157606 0.310014
0.55496114 0.47461194 0.29835296 0.25222838 0.8691308 0.2440021 0.2607906 0.6374478
0.49949372 0.35079354 0.49481148 0.95934 0.21990287 0.9430871 0.5298548 0.15363282
0.8639783 0.77171195 0.5210277 0.81818545 0.45066386 0.8720403 0.8654293 0.7454036
0.7591959 0.3536386 0.10200846 0.43544656 0.8605814 0.30730104 0.9810487 0.707767
0.09278077 0.37284666 0.7199119 0.73149097 0.21484172 0.18177491 0.6539772 0.6331323
0.0018414259 0.12035298 0.112467706 0.40614796 0.7073099 0.51581275 0.13663757 0.14973217
0.023404956 0.93495196 0.3381046 0.3202045 0.09156108 0.66337687 0.90977573 0.7264468
0.62509894 0.26908088 0.101478994 0.7675615 0.39286882 0.32413894 0.99405354 0.36559856
0.0198915 0.8708026 0.58425367 0.16349757 0.5703299 0.9423722 0.83054006 0.6697048
0.71148646 0.28723508 0.969127 0.74587715 0.5092028 0.051187515 0.40324056 0.5761019
0.37377083 0.72656757 0.041060925 0.7352214 0.66833377 0.49985772 0.6300729 0.7675808
0.7414119 0.101107 0.9953767 0.23988956 0.3740372 0.31684238 0.58090633 0.43242204
0.80931854 0.8620473 0.78024495 0.4150002 0.07052928 0.95291364 0.08512467 0.8884035
0.018517315 0.7397073 0.64276886 0.07168108 0.051440895 0.6055352 0.12189233 0.14114255
0.10522878 0.41317457 0.7336864 0.08378273 0.09400028 0.54426646 0.30781192 0.45123738
0.51817393 0.7298545 0.13646752 0.54473233 0.18914759 0.12854403 0.9506989 0.4296435
0.79701906 0.8015997 0.031197727 0.6660742 0.94989616 0.4466943 0.8508325 0.9746867
00000000: d42c 223e 2cfa 783f 9667 913e 432a 5d3f
00000010: 18f0 fb3e 7934 253f 004d 5c3d 26be 573f
00000020: c09a 513c f5a9 0a3f 20ef db3c 7c54 3b3f
00000030: 0296 f33e 8ec9 c43e 00ad 8c3e 2a53 d33e
00000040: 40ef 253d b0c9 893e 6487 053e e0b5 af3c
00000050: 05b5 3c3f 00c0 f13a 58c0 0a3f 3f14 4a3f
00000060: 6975 383f 804c 283e 407e b73e 980a a13e
00000070: 88bf 483f 9d1f 7f3f e615 263f 5c1c 5b3e
00000080: a89c 683f a075 fb3d 0080 2439 89a9 1c3f
00000090: baf4 193f af8f 043f 0c50 bb3e 46cc 8a3e
000000a0: 7f90 043f 8839 ca3e 0c7b 9a3e e2b8 503f
000000b0: a7a3 123f 95ab 463f a478 6b3f eac5 903e
000000c0: e055 2e3d 6092 cf3d d846 973d d293 aa3e
000000d0: 9c51 763f 6878 a23d 1082 4e3d 1832 d33d
000000e0: bd08 1c3f 60fe a03e 18e3 ae3e bc1e 3c3f
000000f0: 9c53 363f 5660 c73e 3091 b43d 2fac 323f
00000100: c68e c53e 8fa1 2b3f 3738 0b3f ace3 d93e
00000110: c672 db3e d64f d83e 8049 3c3c 088c 5c3e
00000120: d657 333f fee1 c53e a1a5 1e3f a858 863d
00000130: bf52 503f aed1 b03e 5f6b 323f c0c6 c13d
00000140: 3d77 783f bfc8 6e3f 413e 513f 2b8e 7b3f
00000150: 9075 b33d 104f 133d a838 0f3f 11bb 2e3f
00000160: 901a b53e d48c 583e ba78 ae3e 0318 4b3f
00000170: 104c 8c3e 60ab 203e e059 313f b46b 223e
00000180: 64ad 693e 5bef 753f 8c26 473e c6ea 5e3f
00000190: 7586 253f 1447 623e def8 f53e 245b 813e
000001a0: f078 a53d 9237 bc3e 4c50 593e d810 aa3e
000001b0: 8077 7c3c 800d 263d f6a4 093f 608c 423d
000001c0: 37db 323f 2d79 433f d81c 2d3e a742 223f
000001d0: 9686 0d3f a052 463d e0bb 063e 28ba 9e3e
000001e0: ef11 0e3f 5600 f33e b8c1 983e 1424 813e
000001f0: 5b7f 5e3f b0db 793e 5886 853e c72f 233f
00000200: a4bd ff3e 369b b33e ee57 fd3e 4e97 753f
00000210: 382e 613e 286e 713f 90a4 073f ec51 1d3e
00000220: af2d 5d3f ea8e 453f 1262 053f 9a74 513f
00000230: 6abd e63e 083e 5f3f c68c 5d3f c5d2 3e3f
00000240: aa5a 423f 1e10 b53e d0e9 d03d daf2 de3e
00000250: 104f 5c3f 9056 9d3e 0226 7b3f 3830 353f
00000260: d803 be3d c2e5 be3e 254c 383f fe42 3b3f
00000270: 78ff 5b3e 3423 3a3e 0d6b 273f f514 223f
00000280: 005c f13a a07b f63d 7855 e63d a0f2 cf3e
00000290: 4312 353f 4e0c 043f b8ea 0b3e 6453 193e
000002a0: c0bb bf3c 0359 6f3f 0c1c ad3e d8f1 a33e
000002b0: 6084 bb3d 11d3 293f 10e7 683f 6bf8 393f
000002c0: 7c06 203f f8c4 893e 38d4 cf3d e97e 443f
000002d0: 1a26 c93e 8af5 a53e 4b7a 7e3f bc2f bb3e
000002e0: 80f3 a23c ebec 5e3f a691 153f e86b 273e
000002f0: 2401 123f 4e3f 713f 469e 543f c671 2b3f
00000300: fa23 363f 7a10 933e b518 783f cef1 3e3f
00000310: 1d5b 023f 00aa 513d 8c75 ce3e 6a7b 133f
00000320: e45e bf3e 5500 3a3f 802f 283d 7837 3c3f
00000330: ec17 2b3f 5aed ff3e 754c 213f 2d80 443f
00000340: 2ccd 3d3f 3011 cf3d 02d1 7e3f 9ca5 753e
00000350: ce81 bf3e 2a39 a23e 47b6 143f 6c66 dd3e
00000360: 802f 4f3f 22af 5c3f 22be 473f e87a d43e
00000370: a871 903d 26f2 733f d855 ae3d 696e 633f
00000380: a0b1 973c 755d 3d3f 808c 243f 88cd 923d
00000390: b0b3 523d 5b04 1b3f b0a2 f93d ac87 103e
000003a0: 3082 d73d 9e8b d33e dfd2 3b3f 4896 ab3d
000003b0: 3883 c03d 0c55 0b3f 8699 9d3e 9608 e73e
000003c0: 0ca7 043f bfd7 3a3f 24be 0b3e 9473 0b3f
000003d0: e8af 413e 0ca1 033e 0161 733f 3cfa db3e
000003e0: 7109 4c3f a335 4d3f 6092 ff3c d783 2a3f
000003f0: 652c 733f 1eb5 e43e 29d0 593f 1185 793f

bn1.bias f4 [400]
0.0 0.0 0.0 0.0 0.0 0.0 0.0 0.0
0.0 0.0 0.0 0.0 0.0 0.0 0.0 0.0
0.0 0.0 0.0 0.0 0.0 0.0 0.0 0.0
0.0 0.0 0.0 0.0 0.0 0.0 0.0 0.0
0.0 0.0 0.0 0.0 0.0 0.0 0.0 0.0
0.0 0.0 0.0 0.0 0.0 0.0 0.0 0.0
0.0 0.0 0.0 0.0 0.0 0.0 0.0 0.0
0.0 0.0 0.0 0.0 0.0 0.0 0.0 0.0
0.0 0.0 0.0 0.0 0.0 0.0 0.0 0.0
0.0 0.0 0.0 0.0 0.0 0.0 0.0 0.0
0.0 0.0 0.0 0.0 0.0 0.0 0.0 0.0
0.0 0.0 0.0 0.0 0.0 0.0 0.0 0.0
0.0 0.0 0.0 0.0 0.0 0.0 0.0 0.0
0.0 0.0 0.0 0.0 0.0 0.0 0.0 0.0
0.0 0.0 0.0 0.0 0.0 0.0 0.0 0.0
0.0 0.0 0.0 0.0 0.0 0.0 0.0 0.0
0.0 0.0 0.0 0.0 0.0 0.0 0.0 0.0
0.0 0.0 0.0 0.0 0.0 0.0 0.0 0.0
0.0 0.0 0.0 0.0 0.0 0.0 0.0 0.0
0.0 0.0 0.0 0.0 0.0 0.0 0.0 0.0
0.0 0.0 0.0 0.0 0.0 0.0 0.0 0.0
0.0 0.0 0.0 0.0 0.0 0.0 0.0 0.0
0.0 0.0 0.0 0.0 0.0 0.0 0.0 0.0
0.0 0.0 0.0 0.0 0.0 0.0 0.0 0.0
0.0 0.0 0.0 0.0 0.0 0.0 0.0 0.0
0.0 0.0 0.0 0.0 0.0 0.0 0.0 0.0
0.0 0.0 0.0 0.0 0.0 0.0 0.0 0.0
0.0 0.0 0.0 0.0 0.0 0.0 0.0 0.0
0.0 0.0 0.0 0.0 0.0 0.0 0.0 0.0
0.0 0.0 0.0 0.0 0.0 0.0 0.0 0.0
0.0 0.0 0.0 0.0 0.0 0.0 0.0 0.0
0.0 0.0 0.0 0.0 0.0 0.0 0.0 0.0
00000000: 0000 0000 0000 0000 0000 0000 0000 0000
00000010: 0000 0000 0000 0000 0000 0000 0000 0000
00000020: 0000 0000 0000 0000 0000 0000 0000 0000
00000030: 0000 0000 0000 0000 0000 0000 0000 0000
00000040: 0000 0000 0000 0000 0000 0000 0000 0000
00000050: 0000 0000 0000 0000 0000 0000 0000 0000
00000060: 0000 0000 0000 0000 0000 0000 0000 0000
00000070: 0000 0000 0000 0000 0000 0000 0000 0000
00000080: 0000 0000 0000 0000 0000 0000 0000 0000
00000090: 0000 0000 0000 0000 0000 0000 0000 0000
000000a0: 0000 0000 0000 0000 0000 0000 0000 0000
000000b0: 0000 0000 0000 0000 0000 0000 0000 0000
000000c0: 0000 0000 0000 0000 0000 0000 0000 0000
000000d0: 0000 0000 0000 0000 0000 0000 0000 0000
000000e0: 0000 0000 0000 0000 0000 0000 0000 0000
000000f0: 0000 0000 0000 0000 0000 0000 0000 0000
00000100: 0000 0000 0000 0000 0000 0000 0000 0000
00000110: 0000 0000 0000 0000 0000 0000 0000 0000
00000120: 0000 0000 0000 0000 0000 0000 0000 0000
00000130: 0000 0000 0000 0000 0000 0000 0000 0000
00000140: 0000 0000 0000 0000 0000 0000 0000 0000
00000150: 0000 0000 0000 0000 0000 0000 0000 0000
00000160: 0000 0000 0000 0000 0000 0000 0000 0000
00000170: 0000 0000 0000 0000 0000 0000 0000 0000
00000180: 0000 0000 0000 0000 0000 0000 0000 0000
00000190: 0000 0000 0000 0000 0000 0000 0000 0000
000001a0: 0000 0000 0000 0000 0000 0000 0000 0000
000001b0: 0000 0000 0000 0000 0000 0000 0000 0000
000001c0: 0000 0000 0000 0000 0000 0000 0000 0000
000001d0: 0000 0000 0000 0000 0000 0000 0000 0000
000001e0: 0000 0000 0000 0000 0000 0000 0000 0000
000001f0: 0000 0000 0000 0000 0000 0000 0000 0000
00000200: 0000 0000 0000 0000 0000 0000 0000 0000
00000210: 0000 0000 0000 0000 0000 0000 0000 0000
00000220: 0000 0000 0000 0000 0000 0000 0000 0000
00000230: 0000 0000 0000 0000 0000 0000 0000 0000
00000240: 0000 0000 0000 0000 0000 0000 0000 0000
00000250: 0000 0000 0000 0000 0000 0000 0000 0000
00000260: 0000 0000 0000 0000 0000 0000 0000 0000
00000270: 0000 0000 0000 0000 0000 0000 0000 0000
00000280: 0000 0000 0000 0000 0000 0000 0000 0000
00000290: 0000 0000 0000 0000 0000 0000 0000 0000
000002a0: 0000 0000 0000 0000 0000 0000 0000 0000
000002b0: 0000 0000 0000 0000 0000 0000 0000 0000
000002c0: 0000 0000 0000 0000 0000 0000 0000 0000
000002d0: 0000 0000 0000 0000 0000 0000 0000 0000
000002e0: 0000 0000 0000 0000 0000 0000 0000 0000
000002f0: 0000 0000 0000 0000 0000 0000 0000 0000
00000300: 0000 0000 0000 0000 0000 0000 0000 0000
00000310: 0000 0000 0000 0000 0000 0000 0000 0000
00000320: 0000 0000 0000 0000 0000 0000 0000 0000
00000330: 0000 0000 0000 0000 0000 0000 0000 0000
00000340: 0000 0000 0000 0000 0000 0000 0000 0000
00000350: 0000 0000 0000 0000 0000 0000 0000 0000
00000360: 0000 0000 0000 0000 0000 0000 0000 0000
00000370: 0000 0000 0000 0000 0000 0000 0000 0000
00000380: 0000 0000 0000 0000 0000 0000 0000 0000
00000390: 0000 0000 0000 0000 0000 0000 0000 0000
000003a0: 0000 0000 0000 0000 0000 0000 0000 0000
000003b0: 0000 0000 0000 0000 0000 0000 0000 0000
000003c0: 0000 0000 0000 0000 0000 0000 0000 0000
000003d0: 0000 0000 0000 0000 0000 0000 0000 0000
000003e0: 0000 0000 0000 0000 0000 0000 0000 0000
000003f0: 0000 0000 0000 0000 0000 0000 0000 0000

bn1.running_mean f4 [400]
0.0 0.0 0.0 0.0 0.0 0.0 0.0 0.0
0.0 0.0 0.0 0.0 0.0 0.0 0.0 0.0
0.0 0.0 0.0 0.0 0.0 0.0 0.0 0.0
0.0 0.0 0.0 0.0 0.0 0.0 0.0 0.0
0.0 0.0 0.0 0.0 0.0 0.0 0.0 0.0
0.0 0.0 0.0 0.0 0.0 0.0 0.0 0.0
0.0 0.0 0.0 0.0 0.0 0.0 0.0 0.0
0.0 0.0 0.0 0.0 0.0 0.0 0.0 0.0
0.0 0.0 0.0 0.0 0.0 0.0 0.0 0.0
0.0 0.0 0.0 0.0 0.0 0.0 0.0 0.0
0.0 0.0 0.0 0.0 0.0 0.0 0.0 0.0
0.0 0.0 0.0 0.0 0.0 0.0 0.0 0.0
0.0 0.0 0.0 0.0 0.0 0.0 0.0 0.0
0.0 0.0 0.0 0.0 0.0 0.0 0.0 0.0
0.0 0.0 0.0 0.0 0.0 0.0 0.0 0.0
0.0 0.0 0.0 0.0 0.0 0.0 0.0 0.0
0.0 0.0 0.0 0.0 0.0 0.0 0.0 0.0
0.0 0.0 0.0 0.0 0.0 0.0 0.0 0.0
0.0 0.0 0.0 0.0 0.0 0.0 0.0 0.0
0.0 0.0 0.0 0.0 0.0 0.0 0.0 0.0
0.0 0.0 0.0 0.0 0.0 0.0 0.0 0.0
0.0 0.0 0.0 0.0 0.0 0.0 0.0 0.0
0.0 0.0 0.0 0.0 0.0 0.0 0.0 0.0
0.0 0.0 0.0 0.0 0.0 0.0 0.0 0.0
0.0 0.0 0.0 0.0 0.0 0.0 0.0 0.0
0.0 0.0 0.0 0.0 0.0 0.0 0.0 0.0
0.0 0.0 0.0 0.0 0.0 0.0 0.0 0.0
0.0 0.0 0.0 0.0 0.0 0.0 0.0 0.0
0.0 0.0 0.0 0.0 0.0 0.0 0.0 0.0
0.0 0.0 0.0 0.0 0.0 0.0 0.0 0.0
0.0 0.0 0.0 0.0 0.0 0.0 0.0 0.0
0.0 0.0 0.0 0.0 0.0 0.0 0.0 0.0
00000000: 0000 0000 0000 0000 0000 0000 0000 0000
00000010: 0000 0000 0000 0000 0000 0000 0000 0000
00000020: 0000 0000 0000 0000 0000 0000 0000 0000
00000030: 0000 0000 0000 0000 0000 0000 0000 0000
00000040: 0000 0000 0000 0000 0000 0000 0000 0000
00000050: 0000 0000 0000 0000 0000 0000 0000 0000
00000060: 0000 0000 0000 0000 0000 0000 0000 0000
00000070: 0000 0000 0000 0000 0000 0000 0000 0000
00000080: 0000 0000 0000 0000 0000 0000 0000 0000
00000090: 0000 0000 0000 0000 0000 0000 0000 0000
000000a0: 0000 0000 0000 0000 0000 0000 0000 0000
000000b0: 0000 0000 0000 0000 0000 0000 0000 0000
000000c0: 0000 0000 0000 0000 0000 0000 0000 0000
000000d0: 0000 0000 0000 0000 0000 0000 0000 0000
000000e0: 0000 0000 0000 0000 0000 0000 0000 0000
000000f0: 0000 0000 0000 0000 0000 0000 0000 0000
00000100: 0000 0000 0000 0000 0000 0000 0000 0000
00000110: 0000 0000 0000 0000 0000 0000 0000 0000
00000120: 0000 0000 0000 0000 0000 0000 0000 0000
00000130: 0000 0000 0000 0000 0000 0000 0000 0000
00000140: 0000 0000 0000 0000 0000 0000 0000 0000
00000150: 0000 0000 0000 0000 0000 0000 0000 0000
00000160: 0000 0000 0000 0000 0000 0000 0000 0000
00000170: 0000 0000 0000 0000 0000 0000 0000 0000
00000180: 0000 0000 0000 0000 0000 0000 0000 0000
00000190: 0000 0000 0000 0000 0000 0000 0000 0000
000001a0: 0000 0000 0000 0000 0000 0000 0000 0000
000001b0: 0000 0000 0000 0000 0000 0000 0000 0000
000001c0: 0000 0000 0000 0000 0000 0000 0000 0000
000001d0: 0000 0000 0000 0000 0000 0000 0000 0000
000001e0: 0000 0000 0000 0000 0000 0000 0000 0000
000001f0: 0000 0000 0000 0000 0000 0000 0000 0000
00000200: 0000 0000 0000 0000 0000 0000 0000 0000
00000210: 0000 0000 0000 0000 0000 0000 0000 0000
00000220: 0000 0000 0000 0000 0000 0000 0000 0000
00000230: 0000 0000 0000 0000 0000 0000 0000 0000
00000240: 0000 0000 0000 0000 0000 0000 0000 0000
00000250: 0000 0000 0000 0000 0000 0000 0000 0000
00000260: 0000 0000 0000 0000 0000 0000 0000 0000
00000270: 0000 0000 0000 0000 0000 0000 0000 0000
00000280: 0000 0000 0000 0000 0000 0000 0000 0000
00000290: 0000 0000 0000 0000 0000 0000 0000 0000
000002a0: 0000 0000 0000 0000 0000 0000 0000 0000
000002b0: 0000 0000 0000 0000 0000 0000 0000 0000
000002c0: 0000 0000 0000 0000 0000 0000 0000 0000
000002d0: 0000 0000 0000 0000 0000 0000 0000 0000
000002e0: 0000 0000 0000 0000 0000 0000 0000 0000
000002f0: 0000 0000 0000 0000 0000 0000 0000 0000
00000300: 0000 0000 0000 0000 0000 0000 0000 0000
00000310: 0000 0000 0000 0000 0000 0000 0000 0000
00000320: 0000 0000 0000 0000 0000 0000 0000 0000
00000330: 0000 0000 0000 0000 0000 0000 0000 0000
00000340: 0000 0000 0000 0000 0000 0000 0000 0000
00000350: 0000 0000 0000 0000 0000 0000 0000 0000
00000360: 0000 0000 0000 0000 0000 0000 0000 0000
00000370: 0000 0000 0000 0000 0000 0000 0000 0000
00000380: 0000 0000 0000 0000 0000 0000 0000 0000
00000390: 0000 0000 0000 0000 0000 0000 0000 0000
000003a0: 0000 0000 0000 0000 0000 0000 0000 0000
000003b0: 0000 0000 0000 0000 0000 0000 0000 0000
000003c0: 0000 0000 0000 0000 0000 0000 0000 0000
000003d0: 0000 0000 0000 0000 0000 0000 0000 0000
000003e0: 0000 0000 0000 0000 0000 0000 0000 0000
000003f0: 0000 0000 0000 0000 0000 0000 0000 0000

bn1.running_var f4 [400]
1.0 1.0 1.0 1.0 1.0 1.0 1.0 1.0
1.0 1.0 1.0 1.0 1.0 1.0 1.0 1.0
1.0 1.0 1.0 1.0 1.0 1.0 1.0 1.0
1.0 1.0 1.0 1.0 1.0 1.0 1.0 1.0
1.0 1.0 1.0 1.0 1.0 1.0 1.0 1.0
1.0 1.0 1.0 1.0 1.0 1.0 1.0 1.0
1.0 1.0 1.0 1.0 1.0 1.0 1.0 1.0
1.0 1.0 1.0 1.0 1.0 1.0 1.0 1.0
1.0 1.0 1.0 1.0 1.0 1.0 1.0 1.0
1.0 1.0 1.0 1.0 1.0 1.0 1.0 1.0
1.0 1.0 1.0 1.0 1.0 1.0 1.0 1.0
1.0 1.0 1.0 1.0 1.0 1.0 1.0 1.0
1.0 1.0 1.0 1.0 1.0 1.0 1.0 1.0
1.0 1.0 1.0 1.0 1.0 1.0 1.0 1.0
1.0 1.0 1.0 1.0 1.0 1.0 1.0 1.0
1.0 1.0 1.0 1.0 1.0 1.0 1.0 1.0
1.0 1.0 1.0 1.0 1.0 1.0 1.0 1.0
1.0 1.0 1.0 1.0 1.0 1.0 1.0 1.0
1.0 1.0 1.0 1.0 1.0 1.0 1.0 1.0
1.0 1.0 1.0 1.0 1.0 1.0 1.0 1.0
1.0 1.0 1.0 1.0 1.0 1.0 1.0 1.0
1.0 1.0 1.0 1.0 1.0 1.0 1.0 1.0
1.0 1.0 1.0 1.0 1.0 1.0 1.0 1.0
1.0 1.0 1.0 1.0 1.0 1.0 1.0 1.0
1.0 1.0 1.0 1.0 1.0 1.0 1.0 1.0
1.0 1.0 1.0 1.0 1.0 1.0 1.0 1.0
1.0 1.0 1.0 1.0 1.0 1.0 1.0 1.0
1.0 1.0 1.0 1.0 1.0 1.0 1.0 1.0
1.0 1.0 1.0 1.0 1.0 1.0 1.0 1.0
1.0 1.0 1.0 1.0 1.0 1.0 1.0 1.0
1.0 1.0 1.0 1.0 1.0 1.0 1.0 1.0
1.0 1.0 1.0 1.0 1.0 1.0 1.0 1.0
00000000: 0000 803f 0000 803f 0000 803f 0000 803f
00000010: 0000 803f 0000 803f 0000 803f 0000 803f
00000020: 0000 803f 0000 803f 0000 803f 0000 803f
00000030: 0000 803f 0000 803f 0000 803f 0000 803f
00000040: 0000 803f 0000 803f 0000 803f 0000 803f
00000050: 0000 803f 0000 803f 0000 803f 0000 803f
00000060: 0000 803f 0000 803f 0000 803f 0000 803f
00000070: 0000 803f 0000 803f 0000 803f 0000 803f
00000080: 0000 803f 0000 803f 0000 803f 0000 803f
00000090: 0000 803f 0000 803f 0000 803f 0000 803f
000000a0: 0000 803f 0000 803f 0000 803f 0000 803f
000000b0: 0000 803f 0000 803f 0000 803f 0000 803f
000000c0: 0000 803f 0000 803f 0000 803f 0000 803f
000000d0: 0000 803f 0000 803f 0000 803f 0000 803f
000000e0: 0000 803f 0000 803f 0000 803f 0000 803f
000000f0: 0000 803f 0000 803f 0000 803f 0000 803f
00000100: 0000 803f 0000 803f 0000 803f 0000 803f
00000110: 0000 803f 0000 803f 0000 803f 0000 803f
00000120: 0000 803f 0000 803f 0000 803f 0000 803f
00000130: 0000 803f 0000 803f 0000 803f 0000 803f
00000140: 0000 803f 0000 803f 0000 803f 0000 803f
00000150: 0000 803f 0000 803f 0000 803f 0000 803f
00000160: 0000 803f 0000 803f 0000 803f 0000 803f
00000170: 0000 803f 0000 803f 0000 803f 0000 803f
00000180: 0000 803f 0000 803f 0000 803f 0000 803f
00000190: 0000 803f 0000 803f 0000 803f 0000 803f
000001a0: 0000 803f 0000 803f 0000 803f 0000 803f
000001b0: 0000 803f 0000 803f 0000 803f 0000 803f
000001c0: 0000 803f 0000 803f 0000 803f 0000 803f
000001d0: 0000 803f 0000 803f 0000 803f 0000 803f
000001e0: 0000 803f 0000 803f 0000 803f 0000 803f
000001f0: 0000 803f 0000 803f 0000 803f 0000 803f
00000200: 0000 803f 0000 803f 0000 803f 0000 803f
00000210: 0000 803f 0000 803f 0000 803f 0000 803f
00000220: 0000 803f 0000 803f 0000 803f 0000 803f
00000230: 0000 803f 0000 803f 0000 803f 0000 803f
00000240: 0000 803f 0000 803f 0000 803f 0000 803f
00000250: 0000 803f 0000 803f 0000 803f 0000 803f
00000260: 0000 803f 0000 803f 0000 803f 0000 803f
00000270: 0000 803f 0000 803f 0000 803f 0000 803f
00000280: 0000 803f 0000 803f 0000 803f 0000 803f
00000290: 0000 803f 0000 803f 0000 803f 0000 803f
000002a0: 0000 803f 0000 803f 0000 803f 0000 803f
000002b0: 0000 803f 0000 803f 0000 803f 0000 803f
000002c0: 0000 803f 0000 803f 0000 803f 0000 803f
000002d0: 0000 803f 0000 803f 0000 803f 0000 803f
000002e0: 0000 803f 0000 803f 0000 803f 0000 803f
000002f0: 0000 803f 0000 803f 0000 803f 0000 803f
00000300: 0000 803f 0000 803f 0000 803f 0000 803f
00000310: 0000 803f 0000 803f 0000 803f 0000 803f
00000320: 0000 803f 0000 803f 0000 803f 0000 803f
00000330: 0000 803f 0000 803f 0000 803f 0000 803f
00000340: 0000 803f 0000 803f 0000 803f 0000 803f
00000350: 0000 803f 0000 803f 0000 803f 0000 803f
00000360: 0000 803f 0000 803f 0000 803f 0000 803f
00000370: 0000 803f 0000 803f 0000 803f 0000 803f
00000380: 0000 803f 0000 803f 0000 803f 0000 803f
00000390: 0000 803f 0000 803f 0000 803f 0000 803f
000003a0: 0000 803f 0000 803f 0000 803f 0000 803f
000003b0: 0000 803f 0000 803f 0000 803f 0000 803f
000003c0: 0000 803f 0000 803f 0000 803f 0000 803f
000003d0: 0000 803f 0000 803f 0000 803f 0000 803f
000003e0: 0000 803f 0000 803f 0000 803f 0000 803f
000003f0: 0000 803f 0000 803f 0000 803f 0000 803f
