continuous_control/models/actor_200.pth (torch_old, 553555 bytes, 14 tensors)

fc1.weight f4 [400, 33]
00000000: cbeb 353d 36c4 3dbe 6fe4 cebd e12e 51bd
00000010: 9d6e ce3d 23cf febd ceca b2bc 3fea c83c
00000020: 2855 ef3d 43ae e0bd 96d2 8abd 2864 fabc
00000030: b01d ea3c e961 e0bb 4d7c 2c3d eb7a 043e
00000040: 97c8 b73b 7633 56bc eefd 8f3d 797f dbbd
00000050: ae50 043d 1fe9 d83b ee5f 7bbd 94f5 4a3c
00000060: b36f 1e3d 93e1 b93d f5e0 fabd e1e4 29bd
00000070: e662 4abe d899 d53b b2d5 0b3c d4cb 6d3c
00000080: 0efd 9abe 5565 9abe 9782 c8bd 8de5 ad3d
00000090: 47af c03d 04fe d63c a2ad 8ebd 16f7 72bc
000000a0: 2a1d 0d3b 9711 8c3d d26b 1f3e 444d e33d
000000b0: 6757 f5bc 6184 1fbe 112e 82bd 07d4 29bc
000000c0: fdc2 afbd 6078 ffbb 6a47 673d f963 3ebb
000000d0: eab5 343d 929d e83d e87f 4a3d 2558 f2bc
000000e0: 8dfc 033d b292 8c3d 1e17 e8bb e99e e83d
000000f0: a39d b8bc fd95 8fbd b367 b7bc 0e93 d33d
00000100: 186f 3cbd 85cb ec3d 8a49 8abd 81d5 0bbe
00000110: acec 993d 8a31 64bd d455 883c fd3b b83d
00000120: 9322 263d 63e5 1bbd 4c41 713d 3e46 5b3b
00000130: b25f 8b3c b191 043d 3739 433c 6c32 203d
00000140: 5524 9a3d ee1e 303e 4f33 fabc 8a83 b63c
00000150: e62e 78bd 5b10 d33d f8b7 e73a 2d5f 67ba
00000160: 187f 20bd 8ce7 9abd e8f2 f43c d81c 9d3d
00000170: 3594 a7bd e2c1 ec3d 693d 91bc 52a9 ed3c
00000180: 3462 c8bd d0f8 abbb 8401 213c 5ecf d93d
00000190: d197 86bd 14d6 3fbe 7ee1 d3bc 5645 7abc
000001a0: 47b0 09bd e7ed a7bd 1b1b debc 8c5f d93d
000001b0: 4ac0 2f3d 80ef 0bbd 8eb0 33bd ef83 34bd
000001c0: 10be d4bd 5797 1fbd 36f0 9a3e e4e2 133d
000001d0: a1fb bfbc 423a 183d f930 49bd 024c d33c
000001e0: bc2e 9b3d e6bc 57ba 8378 4c3d 9ffb 48bc
000001f0: 784e a73d b5d2 1a3c 4e11 da3c cb4a 79be
00000200: 5910 223d 63e2 88bd 3400 0dbc 2702 dfbe
00000210: 2d7d 1e3d 04a5 bfbd ec10 2bbe 2b5b b93c
00000220: 59e3 d7bc 0960 9abd 932d aebd 2c97 06bd
00000230: 825f 263d efa2 80bd 8d66 a4bd 3aa3 49bc
00000240: 7c7f 2dbd 98e2 0b3e 0e72 b53e 9bdd dd3c
00000250: 28f1 843d 8233 ba3c 5b6c 3d3d 4202 c2bb
00000260: b279 303d 1aeb b73c 08e3 543c 18c8 96bc
00000270: fbde e53d e3e3 113c a703 3fbd 5cad 773d
00000280: f1cd 893d 1456 2c3c 4194 c8bd b9f5 2d3d
00000290: 6c94 41be 25ac 563d e857 61bc ba98 01bd
000002a0: c186 9f3d d7bb c73d 06ea 8a3d 4e1f 233e
000002b0: 6654 52bc 01cc dabd b708 b93c 2459 783c
000002c0: 0361 d93d 1a07 483c 204b 89be e557 bebd
000002d0: fe87 83be dd49 183b 03e2 a1bc 9a80 b7bb
000002e0: 2bcc 8ebd 1561 243d 85c7 27bd 1992 5d3c
000002f0: 6048 0e3d 0785 9cbd 073f d83c 2d16 063e
00000300: 4ae0 a6bc 41e4 713e f068 c7bb 4659 2b3d
00000310: d3d3 323d 99c2 153d 82bc e9bc 5055 69be
00000320: c40e 453d 249a 56bd 10ca bf3d 91da 46bd
00000330: d7ef b0bc efc0 ecbc 9e82 8f3d 322e 9c3c
00000340: 26d8 36bd 1359 c9bd d791 6a3d d75d 9cbd
00000350: c5de 41bd a2c4 3f3e 2d14 a5bb caf6 b6bc
00000360: 8a00 433d e9de 25bd e2a8 763c 7066 07bd
00000370: 29e0 823d cdf5 c03c 0b4e a23d 7d62 a33d
00000380: ca54 88bc edc0 1ebd 9423 74be d01a 77bb
00000390: 35df cf3d 0c46 35bc 79f3 b9bd 4430 9abc
000003a0: b745 da3d 4732 c43d af2f e23d c62e bcbc
000003b0: 7cb6 eb3c 6bca 68bd 6bd0 38bc 4889 0abe
000003c0: 6982 053e e0c1 d43a eea6 b43d 725e 033e
000003d0: 894b ca3d 3705 963d 5f4f 813d 5206 42bd
000003e0: 48bc 04bd 5544 ad3c 894c 1d3d 4d8e d13c
000003f0: 7512 943c 5fe0 b43d 5483 003e 53af 8e3d
0.044414323 -0.1853188 -0.10102164 -0.051070098 0.100796916 -0.12441852 -0.02182522 0.02452576
0.11686164 -0.10970738 -0.06778447 -0.030565336 0.02857861 -0.0068476093 0.04211073 0.12937514
0.005608629 -0.013073793 0.07030855 -0.10717673 0.032303505 0.006619587 -0.061370783 0.012387652
0.038680743 0.09076228 -0.122499384 -0.04147804 -0.1976429 0.0065185837 0.008534836 0.014513928
-0.3027119 -0.30155435 -0.09790533 0.08491049 0.094084315 0.026244171 -0.069667116 -0.014829418
0.0021532276 0.068392925 0.15568474 0.110987216 -0.029948903 -0.15577842 -0.06356443 -0.010365493
-0.08582113 -0.0077963322 0.05646459 -0.0029051288 0.0441188 0.11358179 0.049438387 -0.029583046
0.032223273 0.068639174 -0.007082834 0.11358435 -0.022536105 -0.0701103 -0.022388315 0.10330783
-0.046004385 0.11562256 -0.06752308 -0.13655664 0.07515845 -0.055711307 0.016642489 0.08995817
0.040560316 -0.038060557 0.058900163 0.0033458616 0.017013405 0.032365505 0.011915497 0.039110586
0.07526461 0.17199299 -0.030542044 0.02227952 -0.0605916 0.10305854 0.0017678728 -0.0008826133
-0.039183706 -0.07563695 0.029900983 0.07671517 -0.08182565 0.11560418 -0.017729478 0.029011402
-0.09784356 -0.0052481666 0.0098270215 0.10635255 -0.065719254 -0.18734008 -0.025864359 -0.01527532
-0.033615377 -0.08199673 -0.027112534 0.10613927 0.04290799 -0.034163952 -0.043869548 -0.044071134
-0.10387814 -0.03896269 0.3026139 0.03610505 -0.023435416 0.037164934 -0.04911897 0.02579308
0.07577273 -0.0008229747 0.049919616 -0.012267022 0.081692636 0.0094496505 0.02661958 -0.24344938
0.03956637 -0.06683805 -0.008606005 -0.4355633 0.038693596 -0.09357646 -0.16705674 0.02262648
-0.026353525 -0.075378485 -0.08504786 -0.032859012 0.040618427 -0.06281077 -0.080273725 -0.012306983
-0.042357907 0.13660657 0.3543858 0.027083209 0.064913094 0.022729639 0.046245914 -0.0059206793
0.043084808 0.022450972 0.012993582 -0.018405959 0.11224171 0.00890443 -0.046634343 0.060468063
0.06728733 0.0105185695 -0.09793902 0.042470668 -0.18904275 0.052410264 -0.013753869 -0.031639792
0.07789374 0.097526245 0.06782918 0.1592991 -0.012837505 -0.10683442 0.022587163 0.0151579715
0.10614207 0.012208724 -0.26815128 -0.09294108 -0.2568969 0.0023237385 -0.019761091 -0.0056000473
-0.06972536 0.040131647 -0.04096176 0.013523602 0.03473699 -0.076425605 0.026397241 0.13094397
-0.020370621 0.23622228 -0.0060855076 0.041833185 0.043659043 0.036562536 -0.02853227 -0.2278645
0.048109785 -0.052393094 0.09364712 -0.048548285 -0.02159874 -0.028900592 0.07007335 0.019064996
-0.04463973 -0.09831443 0.05726799 -0.07635086 -0.04733159 0.18727353 -0.0050378055 -0.022334475
0.047607936 -0.040495787 0.015054913 -0.033056676 0.063904114 0.023554707 0.07925042 0.079777695
-0.016641993 -0.038758207 -0.23841697 -0.003770519 0.10149995 -0.011064064 -0.09079642 -0.018821843
0.10657828 0.09579902 0.11044251 -0.022971522 0.028773539 -0.056833666 -0.0112801595 -0.13528931
0.13038029 0.0016232096 0.08820902 0.12828997 0.098776884 0.073252134 0.06313967 -0.04736931
-0.03240612 0.021150747 0.038403068 0.02558055 0.018075207 0.08831858 0.12550098 0.06967034

fc1.bias f4 [400]
00000000: 11b6 6cbd 4656 a5bb bf12 d03d 72e5 05bd
00000010: f4d0 57be c6a6 15be ffd7 85bd f4de 1abe
00000020: b1e0 d6bd 8b82 45bd 9300 2b3d c2e2 16bd
00000030: 3807 2b3e ec49 dcbd 8776 40be 3ce8 29be
00000040: c07e 81bc f768 b3bd b852 7bbe 195a 84bd
00000050: 3af6 adbd b206 88bd f076 7b3c fbff 30bd
00000060: 32ee 24be ba97 20be 9745 d7bd 1c2f 353e
00000070: afec 223e d888 29bd e933 ab3d c1bf 413e
00000080: 67b7 003e cd37 edbd c9cb 79bc 40e6 c1bd
00000090: 2a50 63be 953a 22bd 8b8d 003e 7be2 5b3d
000000a0: 625c 623e e3e0 9d3d b963 eb3d 061b 63bd
000000b0: e8c2 b23c 8888 cd3d d1f3 9d3a c735 313e
000000c0: 8de4 453e 8599 77bd c75c cd3d 6283 1b3e
000000d0: 64f3 0e3e 2450 0e3e a4d1 c0bd 837f cb3d
000000e0: 45aa 793d cf7d 1ebe 1a12 46bd 173f 273e
000000f0: aca0 17be 4ae6 e3bd 83b9 243e 2ea8 9dbd
00000100: f600 5f3b b83e 1c3c 71ca b1bb 1b00 27be
00000110: a9f0 09bd 5f17 693d deb6 ecbc 7dab 67bd
00000120: 4302 003e ee27 19be bd54 e43d 9809 053d
00000130: 7fbb 2bbe 9a44 b1bd 9ad6 a93d dc64 51bd
00000140: 63de 48be 1ec5 233d d0f3 1abd 2f29 eebd
00000150: f442 083e 9f7c 323e 13e8 283d 8091 203d
00000160: 240d de3d 71e8 8bbd 1025 53bd 7f4e 84bb
00000170: 752f 7e3d c9c9 b03c 7dc4 ddbc 7423 2bbe
00000180: fdd3 58bd 489e 2f3e f835 763c e85c 393d
00000190: e4c4 27bd 188d 093e a46e 41be fc7f c43d
000001a0: a62f 57bd 7243 413e 96cf fd3d c4b2 5a3c
000001b0: eed0 0e3d 7b5f ddbd 2f62 563d fd74 3abd
000001c0: c2b2 adbd 5684 a1bd b76c 993d 048b 0e3e
000001d0: 8a9b 1a3d 1506 64bc 3f36 33bd 0012 09be
000001e0: f716 debd a53b 1bbe 1c89 0cbe f769 f03d
000001f0: e6c8 e4bd 627f b63d be43 af3d 03ba 0abd
00000200: d68e 8f3d 41c5 713e fe73 6abe 6ffb 133e
00000210: 5e98 653d 55a6 d33d 7d58 fabd 7548 833d
00000220: 99d4 a5bc 901b c4b9 6a59 4c3e aea9 393d
00000230: bd00 ac3d 570c 14be 727a 30be 8b37 123e
00000240: 894e b3bd 174a 2ebd ec57 553d 5435 14bd
00000250: 5c9b 9bbe f34e 833b febc 74bd 8766 9fbb
00000260: 7981 103c ba58 58be e9a0 a9bd 72aa 18be
00000270: d5b1 4a3d f299 53be eb51 1fbd 590a 07bd
00000280: e3a2 fbbc 8b0c 213e 1918 0d3e 906e b83d
00000290: c301 063e f08c ffbd 2291 6a3c 54db 143e
000002a0: 2edf c93b 7c2d 70bc 8097 833d 7ee5 7cbe
000002b0: 44a6 1dbe c7f2 823d b482 6ebe a6ac be3d
000002c0: 5934 8fbe 6d74 0abd 2903 e03c 8a4a ecbb
000002d0: d8b1 363d 2f6b d3bd 1093 04be 0434 04be
000002e0: 42ae 41bd b9b7 5cbe 423e 84bd 330d cbbc
000002f0: a011 853e 0681 9f3d d0d7 ab3d 8fa9 3cbd
00000300: 8bfd 51be a4ff 2b3e 0bc2 2cbd 28ce 143c
00000310: 72ff 32be 66e2 05be 5564 2a3d 8082 603d
00000320: 8f7c 123c aca9 0bbe c903 09be c316 5abd
00000330: 9c92 ffbd 861a 793e 1906 aabd 3d61 ff3d
00000340: c33a dfbc 903b d83c bbec d1ba 9ee3 953d
00000350: 3b13 cf3c ba17 90be 3cd6 9e3d b536 e2bd
00000360: 7c39 2bbe ef0c 673c 2af8 af3d 998a 953d
00000370: 8dc1 02be f187 e1bd a93b 8a3c d1b7 9abd
00000380: 1bf8 0a3e 3158 99bd b50c 0f3e 31d6 9d3d
00000390: 9d57 be3c 0fd7 29be 1492 1fbd 3076 c7bb
000003a0: bf44 0c3e 0b07 fabd e141 e83b 393f 703e
000003b0: 45b0 edbd cff2 7bbe 1604 1ebe 67f5 31bc
000003c0: 9a44 d63d 172f 30be d582 3c3e 7891 20bd
000003d0: af94 2bbe eb8b beba cf68 333e fed5 b73d
000003e0: d0ee c43b d135 20be 55fd bbbd 6eb7 00bc
000003f0: 6367 753c 6473 c5bd 871c 273e 784b 2d3d
-0.05779082 -0.005045685 0.101598255 -0.03268952 -0.21075803 -0.146144 -0.065353386 -0.15124112
-0.10492075 -0.0482202 0.041748594 -0.036837347 0.16701972 -0.10756287 -0.18795215 -0.16592497
-0.01580751 -0.08760255 -0.24543273 -0.06462497 -0.084942296 -0.06641902 0.015348181 -0.043212872
-0.1610649 -0.15682879 -0.1051132 0.17693752 0.159106 -0.04139027 0.083595105 0.18920805
0.12569962 -0.11582909 -0.01524634 -0.09467745 -0.22198549 -0.03960665 0.12553994 0.053682785
0.22105554 0.07708909 0.1149363 -0.055445693 0.021821454 0.10035807 0.0012050812 0.1730567
0.19325466 -0.060449142 0.100274615 0.15186837 0.13960034 0.13897759 -0.09414986 0.0993643
0.060953397 -0.1547768 -0.048357107 0.1633266 -0.14807385 -0.111279085 0.16086392 -0.07698093
0.0034027672 0.009536438 -0.005425744 -0.16308634 -0.033676777 0.056907054 -0.028895792 -0.05656003
0.12500863 -0.14956638 0.11148975 0.032479852 -0.16770743 -0.08655663 0.08292885 -0.051121578
-0.19616084 0.039982907 -0.037830174 -0.11628949 0.1330679 0.17430352 0.04123695 0.03920126
0.1084235 -0.06831444 -0.051549017 -0.004037678 0.062056977 0.021580594 -0.027071232 -0.16712743
-0.052936543 0.17150223 0.015027516 0.045254618 -0.040959254 0.13432729 -0.18889862 0.095947236
-0.052535675 0.18873385 0.123931095 0.013348285 0.03486722 -0.10809227 0.05233973 -0.045521725
-0.08481361 -0.07886569 0.07491439 0.13920218 0.03774599 -0.013917466 -0.043752905 -0.13385773
-0.10844224 -0.15159471 -0.13724178 0.11738961 -0.11171131 0.08911015 0.08557843 -0.0338688
0.07009666 0.23610403 -0.2289581 0.14451383 0.05605351 0.1033446 -0.12223909 0.064103045
-0.020242976 -0.0003740457 0.19955984 0.045327835 0.08398578 -0.14457832 -0.17234209 0.14279
-0.08755214 -0.042551126 0.052085802 -0.03618367 -0.30391967 0.004007214 -0.05975055 -0.004864517
0.008819931 -0.21127596 -0.08282644 -0.1490877 0.049486 -0.20664194 -0.038896482 -0.032968853
-0.030717319 0.15727441 0.13778724 0.09005463 0.1308661 -0.124780536 0.014316829 0.14536792
0.0061606383 -0.014659282 0.06425381 -0.2469692 -0.15395457 0.06393962 -0.23292047 0.09310274
-0.27969626 -0.03380244 0.027345257 -0.007211034 0.0446032 -0.10323178 -0.12946725 -0.12910467
-0.047285326 -0.2155446 -0.06457187 -0.024786567 0.2599001 0.07788281 0.08390772 -0.04606014
-0.20506875 0.16796738 -0.04217724 0.009082355 -0.17480257 -0.13074645 0.04159959 0.054811954
0.00894083 -0.13638943 -0.1338035 -0.053244364 -0.124791354 0.24326524 -0.08301944 0.124697186
-0.0272497 0.02639559 -0.0016015986 0.07318805 0.025277724 -0.28143102 0.07755706 -0.11045591
-0.16721147 0.014102205 0.085922554 0.07301826 -0.12769146 -0.11012257 0.016874151 -0.075545914
0.13571207 -0.07487524 0.13969691 0.077068694 0.023235137 -0.16585945 -0.03895767 -0.006087087
0.136981 -0.122083746 0.0070879315 0.23461618 -0.11605886 -0.24604343 -0.15431246 -0.010861731
0.104623035 -0.17205463 0.18409283 -0.03920123 -0.16755937 -0.0014537548 0.1752045 0.08976363
0.006009914 -0.1564553 -0.091791786 -0.007856233 0.014978263 -0.0964115 0.16319476 0.0423083

fc2.weight f4 [300, 400]
00000000: f0ff 293d 581a 31bc 266e 00bc d571 063b
00000010: 473c 84be 372f d2bd 2ed2 4abd c042 383e
00000020: 9432 2f3d 5e5b 5bbc 69b2 f23d 9ad4 173d
00000030: 069a 1ebe bc47 f73d cd16 6c3d 3bb2 71be
00000040: 1c17 35bc 4969 18bd 43b0 3fbe f2ed edbd
00000050: 7db2 803c e86f c0bd 26a5 893d 8d35 813d
00000060: f008 033e 95d1 49bc e6c5 00be 96bd 6cbe
00000070: b903 5aba 1a67 153e 5ced 213e 63bc 4e3d
00000080: b6ab 6fbb 7083 773d 2c5c bdbc 5480 90bd
00000090: f0de 033e ca32 76be 1bb0 d73d ed0f fd3d
000000a0: 9f08 4f3d 192a 353d 1b2d 4c3d 7a4f 0ebe
000000b0: c3e3 383d 746d 343e 5b40 12be be30 94bd
000000c0: d038 f63d 1a07 a63c fdaa bb3c 89a9 f73d
000000d0: b2a8 a63d 9d1d e73d 83e5 3bbd 227d 32be
000000e0: 1526 933c 2bfa 45be b6df 263d 62d2 97be
000000f0: daf5 023d 8ddf 3ebd b3d6 bb3d 8826 a43d
00000100: c4dc ddbd 344f bc3d f917 853d 8a65 0fbe
00000110: 154f fc3d 64fd 0bbe 3fc4 09bd e68a 0cbe
00000120: 40be 0a3e 0e6a 89be 48db 853c ce20 07be
00000130: 8a0a bebd 75c4 0b3d 7862 f0bc d169 2a3d
00000140: ba1d 353d 1aaa 6bbc 12af 05be 555f 12be
00000150: a39c 133d 888d 9d3d 6b8e e0bd 18b0 963c
00000160: f713 543c 8a62 473c 92e8 65bc c1d1 bc3d
00000170: 6989 963d 6588 1c3e e34e c73d 7383 ca3d
00000180: 2975 5cbd ffe7 a5bd 5dd0 32bd bafd 0d3c
00000190: e3e8 34be f9b7 0c3e 7a91 983d 813f 783b
000001a0: 695d 20bd 5e73 eb3d a0d8 2d3d 7140 07bd
000001b0: 28e1 a53c f205 033c 4a34 b03d f3ff af3c
000001c0: 62ec 11be d8cf d8bc a83a 133d 2262 e23d
000001d0: 414b f03d 703a 693d 7555 78be d6b9 0b3e
000001e0: 6331 34bd 8321 a7bd 67ed c83d 28c2 66bd
000001f0: 457e 3c3e 208a 8f3d b45f 05be d0fa 1bbe
00000200: f590 b63d a904 1c3e 78c6 6cbe a1fb 0c3a
00000210: 3067 bc3c 4377 a1bd 310d babd 85c4 19be
00000220: a726 fcbd 5ab5 59bd 60d2 663d 0110 8d3d
00000230: b11f 2cbe 424c b43d 1049 113c eebe 95bc
00000240: 8f62 33bc 3e30 57be 689f 4f3d 3354 c4bb
00000250: 543e fdba 3971 c9bd 2772 51bd 8dfd 21be
00000260: 0ec8 e83c 5575 a43b 8cd7 d63d 8ccf 07bc
00000270: c4e7 ef3b cc48 ddbc 22ff 243d 5220 4dbe
00000280: 3ad5 fc3d dab6 6a3b 31d2 b53c 4620 f4bd
00000290: 484d 83be fb47 c93c 0420 0dbd dd7f 44bd
000002a0: 0811 fa3c ebc0 013d 37a7 8abd bd5c 40bd
000002b0: f0ed 86be b228 603e 1a6e 9eb9 2ef9 833d
000002c0: 4487 a33d f4fd e63d 3945 49bd 889b d0bc
000002d0: 4b90 633d e8bc 05be 9ebc 843d 5116 863d
000002e0: 612b 10be 54e1 3d3c 763e 91bd 1014 993a
000002f0: b2f3 053d f0ca ce3d 0713 993d 856c 0bbe
00000300: e81e 02be 7013 383c 3706 a2bc 4a7c 983b
00000310: f614 41be d228 3cbc 429e f3bd 3985 1ebd
00000320: 305f 423d a5dc 473d 73f3 c6bd 140d 1f3e
00000330: 310d 733b 276f bd3d f7b2 3cbb 4f08 6abd
00000340: 2ace 02be e57e 703d 07df 12be 4f32 db3d
00000350: aefa cbbc 9d12 fbbd 1967 263d a71f da3d
00000360: 5f8f c2bc 2488 01bd fb7c 6a3d d521 22bd
00000370: 6e0f c1bc 8745 e1bc 2bf4 83bc 19db ac3d
00000380: 0935 943d c6e1 023e 1444 a23d 7862 2e3d
00000390: 83f6 05be 47df 8f3d f22d 65bc 32cb e43c
000003a0: 28e6 023e 2802 0abe 45d9 a33c 8add 5e3d
000003b0: 2f55 5e3d c4d6 35be fa40 a9bc 5c5f a6bd
000003c0: 21ea 0b3d dd27 09be 3e16 073e f0d5 0ebe
000003d0: e63c 753d 1223 6b3d 021e 193e 6777 5e3e
000003e0: ce0e 413c 302f 88bd 1f65 4d3e ca51 fdbc
000003f0: f3f7 833d 30a4 99bd 1628 0f3e 60ea 21be
0.041503847 -0.0108095035 -0.007838761 0.0020514627 -0.25827238 -0.10262912 -0.04951685 0.17994213
0.042772844 -0.013388483 0.11850435 0.037067987 -0.15488443 0.12074229 0.057638932 -0.23603146
-0.011052873 -0.037209783 -0.18719582 -0.1161765 0.01571011 -0.093963444 0.06720953 0.06309042
0.12796378 -0.012318035 -0.12575492 -0.23119196 -0.0008316595 0.14590111 0.15813202 0.05047263
-0.0036570854 0.060428083 -0.02311524 -0.07055727 0.12878013 -0.24042812 0.10531636 0.12356553
0.05054533 0.0442296 0.049847703 -0.13897505 0.045139086 0.17619878 -0.14282362 -0.07235859
0.12022555 0.020267058 0.022908682 0.12092883 0.08137645 0.11284945 -0.045873176 -0.17430547
0.017962495 -0.19333713 0.04074069 -0.29652697 0.031972744 -0.046599913 0.0917181 0.08015162
-0.10833123 0.09194794 0.06498713 -0.14003578 0.12319771 -0.1367088 -0.03363442 -0.1372486
0.13549137 -0.26838726 0.016339913 -0.13196108 -0.09279354 0.034122903 -0.029343829 0.04160482
0.044217803 -0.014383817 -0.13055065 -0.14294179 0.036038052 0.076930106 -0.10964664 0.018394515
0.012944213 0.01216949 -0.0140325 0.09219695 0.07350428 0.15286405 0.09731843 0.09888353
-0.05382267 -0.0810089 -0.043655742 0.00866645 -0.17666964 0.13742055 0.074496225 0.0037879648
-0.039151583 0.11496614 0.042442918 -0.03302044 0.020248964 0.007997023 0.08603723 0.02148435
-0.14250329 -0.026466295 0.03594461 0.110538736 0.117331035 0.056940496 -0.2425135 0.1364511
-0.04399241 -0.08160689 0.09810906 -0.056337506 0.18407543 0.07008767 -0.13024789 -0.15232396
0.08914367 0.15236153 -0.23122585 0.0005378072 0.022998422 -0.078840755 -0.09084547 -0.15016373
-0.1231206 -0.053151466 0.056352973 0.06887818 -0.16808964 0.088036075 0.008867517 -0.018279519
-0.010948791 -0.21014497 0.05068913 -0.0059914826 -0.0019320943 -0.09836049 -0.051134255 -0.15819378
0.028415706 0.00501887 0.10490331 -0.008289229 0.00732133 -0.027012251 0.040282376 -0.2003186
0.12345357 0.0035814554 0.022194954 -0.11920218 -0.25644898 0.024570456 -0.03445436 -0.047973502
0.0305257 0.03167812 -0.06770175 -0.046963442 -0.26353407 0.21890524 -0.0003021814 0.06444012
0.07984784 0.112789065 -0.04913828 -0.025464788 0.05555753 -0.13060343 0.064812884 0.06547225
-0.14079048 0.011589367 -0.070919916 0.0011678953 0.03270311 0.10097301 0.07474332 -0.13615616
-0.12707102 0.011235103 -0.019778354 0.0046534883 -0.18855652 -0.011484342 -0.1189542 -0.03870127
0.04745406 0.048794407 -0.09714403 0.15532333 0.003708672 0.09249716 -0.0028793195 -0.05713683
-0.12773958 0.058714766 -0.1434289 0.10702955 -0.024899807 -0.122594096 0.040625665 0.106505685
-0.023750005 -0.031623974 0.057248097 -0.039583046 -0.023566928 -0.027498974 -0.01610764 0.08440227
0.07236678 0.12781438 0.07923141 0.042574376 -0.13082318 0.07025009 -0.013988005 0.027928922
0.1278311 -0.13477385 0.020001063 0.054410495 0.054280456 -0.17757708 -0.020660866 -0.08123657
0.03415883 -0.13394113 0.13192078 -0.13948798 0.05987253 0.057406493 0.14952853 0.21725236
0.011783315 -0.06649625 0.20058106 -0.03092279 0.06443777 -0.075020194 0.13980135 -0.15812063

fc2.bias f4 [300]
00000000: e401 a43d 95b7 8a3d d5d2 2dbc 0be2 cd3d
00000010: 89dd e8bb c8b0 9a3d be5e 12bc e556 013e
00000020: e81c de3d 6896 60bd 29ab bebc 6273 683c
00000030: 4d73 de3b 38a1 a63d 5fa7 833d 323c 533c
00000040: 4b73 82bd 735d a53c 94d1 063e d14d a33b
00000050: 6cac 093e 6969 c03d bf15 9f3c fa67 ab3d
00000060: fa8f 063e 367b a03b 7e6c 92bc 0bc3 e93c
00000070: 084f 683d dfd0 a03d 40f0 0a3d 1261 34ba
00000080: adb1 4c3d 7b52 d33c 23a2 983d 7969 863d
00000090: 26ab ca3b fa84 69bd 92af 913c eab3 1d3e
000000a0: a61e e23c 8823 ce3d aaaf 093c 1058 473d
000000b0: a0a5 2e3d 7bfc ae3c eddc 3ebc 2e32 3dbd
000000c0: 927e 5f3d 9506 0cbe b3c3 a53c 2935 9a3c
000000d0: 6507 fe3c e05c b13c 0351 883c 7d24 253d
000000e0: b2be 98bb 0d84 e33c ffa2 a63c 5b10 0539
000000f0: 2cdc 03bd 9a6c d3bc 9462 e2bb 3222 3cbd
00000100: 155d b9bd d085 1dbd 2685 a33b 771c 1a3d
00000110: 6840 a3bd 0217 203d 54df fc3d 5694 9cbd
00000120: 2ed6 3f3d 2efb c5bc b3bd b73d 976c c33c
00000130: 94aa f0bc bd37 16bd 7dec c63d ecad d3bc
00000140: e603 80bd 2a9e bb3d 612a 2dbd fa8f ca3c
00000150: a5ee aebc 7e1c b63d c214 74bc 4961 fb3c
00000160: 925a 11bc 51b6 f43d 3232 f23b 9fcd 63bd
00000170: 25ce a13d c3a4 133d fdb9 ce3d 6304 d93c
00000180: 1197 a53b 7f0b 803d 33cb ebbb 4d70 b73d
00000190: 105b 863d 9c9e 3c3d 857e 413c a150 753d
000001a0: 3bd4 be3c 94e2 30bd d1a5 a4bd b5f6 923c
000001b0: 1a22 4d3d 6a78 69b8 da5c a43d 0892 9b3d
000001c0: 1895 1abc d767 adbc ea43 19bd 8955 8b3c
000001d0: 3528 ab3d 5678 983d 7184 fd3c 8b8b c43b
000001e0: fc8c a23a b127 43be af5e 723d ca8d 6d3d
000001f0: ec13 fa3c 6a73 043e ed4e e9bc f03f f03c
00000200: 8cdd b23c 11b1 ba3d 6a10 993d efc9 c63d
00000210: 9c5f 603d 3f9b b0bd d09d 0d3e 128e b73d
00000220: a899 383d 04c6 b83d aeb8 b6bd c0da c13d
00000230: be4b b23c 14fe 96bd 4945 6bbd cc84 4e3d
00000240: bb10 583d 3ab9 343c 2202 763d cbd0 953d
00000250: 3d14 b2bd 17f9 213d 7702 a2bd 152e 5f3d
00000260: ec8a 0f3d 967c e03d b3de c9bd 153a da3c
00000270: bea4 cc3c 1445 013d 9cf0 edbd 7943 733d
00000280: c870 4e3d 2a9c 583d 635c c0bd 5990 13bc
00000290: 0b40 50bc 378e e03c a1d9 12bd d28d cdb9
000002a0: 157e da3b febc 1b3c 51a6 773d d27b c73c
000002b0: 01b1 df3b 9b1c 913d 39b9 a63c 353d 263d
000002c0: 385b a8bd b1c5 083e 248e a33d 2f3f 12bd
000002d0: 595a 1c3d f669 f23c 7dbc bd3d 4558 c0bb
000002e0: f6a5 84bc 1935 5a3d 8452 aa3d d742 a93c
000002f0: 78fe e43c 3206 96bb 0909 0a3d 434d 983d
00000300: 2982 f53c 6227 713d 6f83 b13d 7c5f 0c3d
00000310: 79bc e8bb d494 c53d 5c74 953b f2a0 9a3d
00000320: c07f 14bd 3c0b e63d e070 b4bd 4cce ed3c
00000330: a53b cc3d 96bb f5bd 2c90 443d 4bd5 28bd
00000340: 1619 d9bd a0ba f13c e658 453b b2cd ecbc
00000350: 85b2 0ebd 6623 803d e3b9 bd3d 035b 033e
00000360: c99d 0c3c acc0 41bd 8c2d 643d 28a9 8b3c
00000370: c2be 13bc cd3f aa3d d23d 16bd ae32 5f3d
00000380: 2c2a fb3d 52ae 9fbc f047 963d ef40 703d
00000390: 923c 27bd 2102 d93d 562d 303d f3b5 0e3d
000003a0: 2488 d9bc 2440 873d b087 db3d 013a 163b
000003b0: 4da4 323b 753e ec3c cf4d 58bc 7822 833d
000003c0: 3c69 883d 5b54 d53d cc90 a23b faa5 e7bb
000003d0: 7ad1 843d 86b7 c0bb 654d 3e3d aae4 4abc
000003e0: d278 10bd bbdc 213d 7c52 ad3c dcfd f43d
000003f0: 09b8 04bc 4034 7f3d af40 ad3d b824 0c3d
0.08008173 0.06773297 -0.010609348 0.1005288 -0.007106487 0.075532496 -0.008933721 0.12630804
0.10845357 -0.05483094 -0.023274975 0.014187666 0.0067886473 0.08136219 0.06428408 0.01289277
-0.06369647 0.020186162 0.13165885 0.0049836417 0.1344468 0.093951054 0.019419549 0.08369441
0.1314086 0.0048975004 -0.017873999 0.028535387 0.056715995 0.07852339 0.033920527 -0.00068809197
0.049974132 0.025796166 0.074528 0.06563086 0.0061849533 -0.057011582 0.017783914 0.15400663
0.027602505 0.10065371 0.008403698 0.048667967 0.04263842 0.021360626 -0.0116493525 -0.046190433
0.054564066 -0.13674386 0.020234918 0.018824177 0.031009385 0.021650732 0.016640192 0.040318
-0.0046614045 0.027772928 0.020341394 0.00012689961 -0.032192394 -0.025808621 -0.006908724 -0.04593105
-0.09050957 -0.03845769 0.0049902378 0.037624802 -0.07971269 0.039084442 0.12347284 -0.0764548
0.046835117 -0.024167623 0.08971729 0.02385549 -0.029378213 -0.03667425 0.09713075 -0.025839768
-0.062507436 0.09161027 -0.042276744 0.024726856 -0.021354029 0.08892153 -0.014897527 0.030686038
-0.008871691 0.119488366 0.0073912377 -0.055616017 0.07900647 0.0360458 0.10094068 0.02649135
0.005053409 0.06252193 -0.007195854 0.089569665 0.065603375 0.0460497 0.01180995 0.059891347
0.023294559 -0.04318483 -0.080394395 0.017939905 0.05008135 -5.5663673e-05 0.080255225 0.075962126
-0.009434961 -0.021167679 -0.037418284 0.01700856 0.08357278 0.07444827 0.030946942 0.00599808
0.0012401636 -0.1905811 0.05917233 0.05799655 0.030527078 0.12934652 -0.028480018 0.029327363
0.021834157 0.09115804 0.07473834 0.097064845 0.05477868 -0.08623361 0.13829732 0.08962645
0.045068413 0.090221435 -0.089219436 0.094655514 0.021764632 -0.0737268 -0.057439122 0.050419614
0.05275033 0.01103049 0.060060628 0.07315215 -0.086952664 0.03954419 -0.079106264 0.054487307
0.035044596 0.10961263 -0.0985693 0.026639024 0.024980899 0.03156002 -0.11618158 0.05939052
0.050400525 0.052883305 -0.09392621 -0.009006583 -0.0127105815 0.027411563 -0.03585208 -0.0003920631
0.006667862 0.0095055085 0.060461346 0.024351034 0.0068265204 0.07085534 0.020351993 0.040585715
-0.082205236 0.13356663 0.079860955 -0.035704788 0.0381721 0.029591542 0.09264467 -0.0058698975
-0.016192418 0.053273294 0.0831652 0.020661755 0.027953371 -0.0045783753 0.033700023 0.074366115
0.029969292 0.05887545 0.08667647 0.03427075 -0.007102546 0.09647527 0.0045609903 0.07550229
-0.036254644 0.112326115 -0.08810592 0.029029034 0.09972314 -0.1199867 0.047989056 -0.041219037
-0.10600488 0.029507935 0.0030112802 -0.028906677 -0.03483822 0.06256752 0.09263971 0.12827687
0.008582541 -0.047302887 0.0557075 0.017048433 -0.009017648 0.0831295 -0.03668005 0.05449169
0.12263903 -0.019492302 0.0733794 0.058655676 -0.04082925 0.10596109 0.043011986 0.03484149
-0.026554175 0.06604031 0.1071924 0.0022922757 0.0027258575 0.028838376 -0.013202145 0.06403059
0.06660697 0.1041648 0.004961109 -0.0070693465 0.06485267 -0.0058812527 0.046460528 -0.012383619
-0.035271473 0.039517146 0.021157496 0.11962482 -0.008100518 0.06230569 0.08459603 0.034214705

fc3.weight f4 [4, 300]
00000000: 29c0 713c 3405 ed3d 243e 173c cf10 9dbe
00000010: 7818 d7bd 244b 993e a85d 89be a69d 833e
00000020: 3599 733d 89c2 573d 9864 5a3e 15ee 07be
00000030: af71 d9bd 4c66 0fbe cee9 4fbe 6d3a 43bb
00000040: d794 8e3e 1d1d edbd 7e6c 9a3b a85c b0be
00000050: 284c 543e f648 69be 1c90 7abe ab6e 503d
00000060: de3c 523d 59a3 e6be bb74 8c3e e7cf 4bbe
00000070: 2b97 64bd 3532 69be 7419 693d 20ba 053d
00000080: ac82 57be 4f1e 89bd 5233 5e3d 506d 2e3e
00000090: 0cd6 89bd 2427 20be 76d3 91be f501 8dbe
000000a0: ca93 863e 62f2 01be bff8 8dbe d34b dcbe
000000b0: a138 7dbe e115 5f3d 026e 47bd f703 153e
000000c0: cdc5 c5bd 8e9a 883d be56 26be 3223 153e
000000d0: 94e3 84be ce71 f43d 33a7 7bbd 2848 a23c
000000e0: c0f7 61be c90b 87be c6ad fcbe 6031 66be
000000f0: 8725 02be 1c7a 0abe a70a 973e a331 32be
00000100: f469 223e 345d 6fbe 3f7a 1dba 4aba ac3d
00000110: a076 dc3c fb9a 33be 6ea4 853e 2e56 e9bd
00000120: e557 04be cf42 bcbe 134b 7a3d cd6f ee3e
00000130: 1f19 51bd df5b 0abd 5c2e 99be 303d 2cbe
00000140: 436c 07be 2088 13bc 2317 493c cfc9 96be
00000150: 8109 f8bd fde8 143e aa99 873d 96ce 1e3e
00000160: 1e0a fd3d b829 74be 1033 4bbd 8572 293b
00000170: 5738 1bbe 33b4 21be cb7c 533e 0723 e1bd
00000180: 13a2 693d c774 25be aaf5 b7be 5022 a5bd
00000190: db8d e23c 47d3 f33c 12f1 1a3e 4b9b 483e
000001a0: 3e8e 543e a702 20be b9a6 32be cd18 78be
000001b0: 81db 64be 2613 65be c49f 9cbe a53e 023d
000001c0: 02ea 483e 8d03 ffbc 59f1 2ebf a86a 913c
000001d0: 4816 793b 1c5a 413e 062c 1cbf 4a4d 3bbe
000001e0: 4d40 c6bd bb2b 553e 8c5f d6be ef71 13be
000001f0: 875e 7ebd db29 c3bd 6943 983e 102a cdbd
00000200: 4657 f0bd 7503 dcbe 0dd0 c5bd b279 01be
00000210: 0db2 d0bd c311 8a3d d714 73bc 4506 97bd
00000220: 009e 30be 35e8 97be 263e 373e c434 223e
00000230: cfe4 46be 68ef 07be f2ca 083d 4894 84be
00000240: 7dc6 c5bb 4aee 703c e684 8b3e 2ed8 103e
00000250: 012a 85bc d5a7 2cbc c759 343e 12a4 da3d
00000260: bbc4 15be 5aa1 85be 8202 eb3d a128 9fbe
00000270: 4ad2 58be fbde 81bc a040 943e 461b 85bc
00000280: 7a5f 4ebe b9a5 c4be bac5 013d 81d0 46bd
00000290: ea48 073c 7a9d 93bd 95f0 b13d d65a 803e
000002a0: 036b cabe 947b b73c 6c79 38bb 5573 b3bd
000002b0: 09bb 053e 0ec6 f53c 0bf9 213e 8221 8a3e
000002c0: 44e8 40bd 8a2a 443d 60da ab3d 5b91 833d
000002d0: e424 f5be aa64 00be ee9b cabc 70b7 933e
000002e0: f282 5bbe 807d 113c 47fd d13d 6d68 843b
000002f0: 6cbb debe 12d8 8dbe 856b 99be d96b 3ebd
00000300: 7616 d43d a38c aa3e d5fa f23c f017 f03d
00000310: 6c71 983b 9308 3a3d dfb3 9bbd 7d8a a8be
00000320: 4975 aa3e 4ffd 29bd 5aeb 423e 3478 973d
00000330: c007 b1bc f196 26bd f966 ac3d 89e3 b03d
00000340: c01e e03e e875 16be 469f 01be 645b 243e
00000350: e20e 93be 1732 93be 95c4 bbbc 6a9b 12be
00000360: 2dce 3ebe dc56 853e ba95 9d3e 5de0 9c3e
00000370: 358d d3be ed41 63bd be72 763d 6c74 39bd
00000380: 9b33 57be 7a60 32be 43f8 283e a6be 9e3c
00000390: 6427 2e3e db58 32be 199a b0be d57b 8fbe
000003a0: ad59 a23e 58c8 4dbe 7ea3 fb3e 489c be3d
000003b0: bc1c d6be e20e 0abe a479 05be 34c3 433c
000003c0: 5f5d 85bd 0a1f 04bd 2dc3 6cbe cfac 2cbe
000003d0: 89c4 75be caaa a5bd 951e 8abc 1462 2bbe
000003e0: 0aac be3e 9d72 e2bd aa7a 84be c627 81bd
000003f0: 51d0 923d 7c49 f0bd 0679 7bbe e9d0 df3d
0.014755287 0.11573258 0.009231124 -0.30676886 -0.10502714 0.2994014 -0.26829267 0.25706214
0.05947228 0.052675758 0.21327436 -0.13274415 -0.106173865 -0.14003867 -0.20304033 -0.0029789463
0.2784793 -0.115778185 0.0047126403 -0.3444569 0.20732176 -0.22781739 -0.24469036 0.05088679
0.05132758 -0.450465 0.27432808 -0.19903527 -0.055808228 -0.22773059 0.05690904 0.032648206
-0.21045941 -0.06695234 0.05424816 0.17033887 -0.06730279 -0.15639931 -0.28481644 -0.27540556
0.2628463 -0.12690118 -0.2772884 -0.430266 -0.24728633 0.054464225 -0.048688896 0.14552294
-0.09656868 0.06670104 -0.16244027 0.14564207 -0.25954878 0.11935769 -0.06143875 0.019809797
-0.22067165 -0.2637618 -0.4935133 -0.22479773 -0.12709628 -0.13523144 0.29500315 -0.17401747
0.1586073 -0.23375398 -0.0006007291 0.08433969 0.026912034 -0.17539589 0.26102012 -0.113933906
-0.12924154 -0.3676972 0.061106753 0.46569672 -0.051049348 -0.03377902 -0.29918182 -0.16820216
-0.13224892 -0.009004623 0.012273583 -0.29450843 -0.12111188 0.14542003 0.06621106 0.15508494
0.12355445 -0.2384404 -0.049609244 0.0025855612 -0.1515821 -0.15791397 0.20653073 -0.10993009
0.05703933 -0.16157828 -0.35929614 -0.08063185 0.027655533 0.02976383 0.15131024 0.1959049
0.20757386 -0.15626012 -0.17446412 -0.24228211 -0.22349359 -0.22370586 -0.30590641 0.031798024
0.19620517 -0.031129623 -0.6833702 0.017751053 0.0038007665 0.1888203 -0.61004674 -0.18291202
-0.09680233 0.20817463 -0.4186977 -0.14398931 -0.062101867 -0.09529468 0.2973893 -0.100177884
-0.11735396 -0.42971388 -0.09658823 -0.1264408 -0.101902105 0.06741669 -0.014836512 -0.07374243
-0.17247772 -0.29669347 0.17894801 0.15840441 -0.19423221 -0.1327492 0.03339667 -0.2589438
-0.0060356245 0.01470525 0.2724983 0.14144966 -0.01625538 -0.010538061 0.17612372 0.10675825
-0.14625828 -0.26099664 0.11475088 -0.31085685 -0.21173969 -0.015853396 0.28955555 -0.016248357
-0.20153609 -0.38407686 0.031682707 -0.04853869 0.00825713 -0.07207771 0.086884655 0.25069302
-0.39534768 0.022397794 -0.0028148545 -0.08762232 0.1305963 0.030001666 0.15817659 0.2697869
-0.047096506 0.04789213 0.08391261 0.06424209 -0.47879708 -0.125384 -0.024732556 0.2885089
-0.2143667 0.008880019 0.10253387 0.004040769 -0.43502367 -0.2770391 -0.29964843 -0.04648957
0.103558466 0.33310422 0.029660622 0.11723316 0.004652193 0.045418333 -0.07602667 -0.32918158
0.33292606 -0.04150134 0.19035092 0.07395974 -0.02161014 -0.040671293 0.08418078 0.08637149
0.4377346 -0.14693415 -0.12658414 0.16050488 -0.28722292 -0.28749153 -0.022920886 -0.14317098
-0.18633337 0.2604283 0.30778295 0.30639926 -0.4131867 -0.055482794 0.06016802 -0.045277044
-0.2101578 -0.17419615 0.16500954 0.019378018 0.17007214 -0.17416708 -0.34492567 -0.28024164
0.31709042 -0.20095956 0.49148172 0.09307152 -0.41818798 -0.1348224 -0.13034683 0.0119483955
-0.0651195 -0.032256164 -0.23121329 -0.16862796 -0.24000753 -0.08089216 -0.016860286 -0.16736633
0.3724063 -0.11057017 -0.25874835 -0.06306414 0.071686395 -0.11732766 -0.24557886 0.10928518

fc3.bias f4 [4]
00000000: 0fa3 80bd 6c1a 98b9 150f 6a3d 2006 b13c
-0.06281101 -0.00029011385 0.05714329 0.021609366

bn1.weight f4 [400]
00000000: d42c 223e 2cfa 783f 9667 913e 432a 5d3f
00000010: 18f0 fb3e 7934 253f 004d 5c3d 26be 573f
00000020: c09a 513c f5a9 0a3f 20ef db3c 7c54 3b3f
00000030: 0296 f33e 8ec9 c43e 00ad 8c3e 2a53 d33e
00000040: 40ef 253d b0c9 893e 6487 053e e0b5 af3c
00000050: 05b5 3c3f 00c0 f13a 58c0 0a3f 3f14 4a3f
00000060: 6975 383f 804c 283e 407e b73e 980a a13e
00000070: 88bf 483f 9d1f 7f3f e615 263f 5c1c 5b3e
00000080: a89c 683f a075 fb3d 0080 2439 89a9 1c3f
00000090: baf4 193f af8f 043f 0c50 bb3e 46cc 8a3e
000000a0: 7f90 043f 8839 ca3e 0c7b 9a3e e2b8 503f
000000b0: a7a3 123f 95ab 463f a478 6b3f eac5 903e
000000c0: e055 2e3d 6092 cf3d d846 973d d293 aa3e
000000d0: 9c51 763f 6878 a23d 1082 4e3d 1832 d33d
000000e0: bd08 1c3f 60fe a03e 18e3 ae3e bc1e 3c3f
000000f0: 9c53 363f 5660 c73e 3091 b43d 2fac 323f
00000100: c68e c53e 8fa1 2b3f 3738 0b3f ace3 d93e
00000110: c672 db3e d64f d83e 8049 3c3c 088c 5c3e
00000120: d657 333f fee1 c53e a1a5 1e3f a858 863d
00000130: bf52 503f aed1 b03e 5f6b 323f c0c6 c13d
00000140: 3d77 783f bfc8 6e3f 413e 513f 2b8e 7b3f
00000150: 9075 b33d 104f 133d a838 0f3f 11bb 2e3f
00000160: 901a b53e d48c 583e ba78 ae3e 0318 4b3f
00000170: 104c 8c3e 60ab 203e e059 313f b46b 223e
00000180: 64ad 693e 5bef 753f 8c26 473e c6ea 5e3f
00000190: 7586 253f 1447 623e def8 f53e 245b 813e
000001a0: f078 a53d 9237 bc3e 4c50 593e d810 aa3e
000001b0: 8077 7c3c 800d 263d f6a4 093f 608c 423d
000001c0: 37db 323f 2d79 433f d81c 2d3e a742 223f
000001d0: 9686 0d3f a052 463d e0bb 063e 28ba 9e3e
000001e0: ef11 0e3f 5600 f33e b8c1 983e 1424 813e
000001f0: 5b7f 5e3f b0db 793e 5886 853e c72f 233f
00000200: a4bd ff3e 369b b33e ee57 fd3e 4e97 753f
00000210: 382e 613e 286e 713f 90a4 073f ec51 1d3e
00000220: af2d 5d3f ea8e 453f 1262 053f 9a74 513f
00000230: 6abd e63e 083e 5f3f c68c 5d3f c5d2 3e3f
00000240: aa5a 423f 1e10 b53e d0e9 d03d daf2 de3e
00000250: 104f 5c3f 9056 9d3e 0226 7b3f 3830 353f
00000260: d803 be3d c2e5 be3e 254c 383f fe42 3b3f
00000270: 78ff 5b3e 3423 3a3e 0d6b 273f f514 223f
00000280: 005c f13a a07b f63d 7855 e63d a0f2 cf3e
00000290: 4312 353f 4e0c 043f b8ea 0b3e 6453 193e
000002a0: c0bb bf3c 0359 6f3f 0c1c ad3e d8f1 a33e
000002b0: 6084 bb3d 11d3 293f 10e7 683f 6bf8 393f
000002c0: 7c06 203f f8c4 893e 38d4 cf3d e97e 443f
000002d0: 1a26 c93e 8af5 a53e 4b7a 7e3f bc2f bb3e
000002e0: 80f3 a23c ebec 5e3f a691 153f e86b 273e
000002f0: 2401 123f 4e3f 713f 469e 543f c671 2b3f
00000300: fa23 363f 7a10 933e b518 783f cef1 3e3f
00000310: 1d5b 023f 00aa 513d 8c75 ce3e 6a7b 133f
00000320: e45e bf3e 5500 3a3f 802f 283d 7837 3c3f
00000330: ec17 2b3f 5aed ff3e 754c 213f 2d80 443f
00000340: 2ccd 3d3f 3011 cf3d 02d1 7e3f 9ca5 753e
00000350: ce81 bf3e 2a39 a23e 47b6 143f 6c66 dd3e
00000360: 802f 4f3f 22af 5c3f 22be 473f e87a d43e
00000370: a871 903d 26f2 733f d855 ae3d 696e 633f
00000380: a0b1 973c 755d 3d3f 808c 243f 88cd 923d
00000390: b0b3 523d 5b04 1b3f b0a2 f93d ac87 103e
000003a0: 3082 d73d 9e8b d33e dfd2 3b3f 4896 ab3d
000003b0: 3883 c03d 0c55 0b3f 8699 9d3e 9608 e73e
000003c0: 0ca7 043f bfd7 3a3f 24be 0b3e 9473 0b3f
000003d0: e8af 413e 0ca1 033e 0161 733f 3cfa db3e
000003e0: 7109 4c3f a335 4d3f 6092 ff3c d783 2a3f
000003f0: 652c 733f 1eb5 e43e 29d0 593f 1185 793f
0.15837413 0.9725673 0.28399342 0.8639261 0.49206614 0.6453319 0.05378437 0.8427452
0.012793243 0.54165584 0.026847422 0.7317579 0.47575384 0.38435024 0.2747574 0.41274387
0.04051137 0.26911688 0.13039929 0.02144903 0.73713714 0.0018444061 0.54199743 0.78937143
0.72054154 0.16435432 0.3583851 0.31453395 0.78417253 0.99657613 0.64877164 0.21397537
0.9086404 0.122782946 0.00015687943 0.6119619 0.6013905 0.51781744 0.36584508 0.27108973
0.51782984 0.39497018 0.30172002 0.8153211 0.57280964 0.77605563 0.9198096 0.28275996
0.042562366 0.10135341 0.07386559 0.33315903 0.96218276 0.07933122 0.050417006 0.10312289
0.60950834 0.31444073 0.34157634 0.73484397 0.7122133 0.38940686 0.08816755 0.6979398
0.3858549 0.67043394 0.5438265 0.42556512 0.42861003 0.4224841 0.011492133 0.21537793
0.700559 0.3864898 0.6197148 0.065598786 0.8137626 0.34534973 0.69695085 0.09461737
0.97056943 0.93275064 0.81735617 0.98263806 0.08762658 0.03596407 0.55945826 0.6825419
0.35371828 0.21147472 0.34076482 0.79333514 0.2740178 0.15690374 0.69277763 0.15861398
0.2282005 0.9606835 0.19448298 0.87076986 0.6465829 0.22097427 0.48041433 0.25264847
0.080797076 0.36761147 0.21222037 0.33215976 0.01540935 0.04054022 0.53767335 0.047497153
0.69865745 0.76356775 0.16905534 0.63382953 0.55283487 0.04841864 0.13157606 0.310014
0.55496114 0.47461194 0.29835296 0.25222838 0.8691308 0.2440021 0.2607906 0.6374478
0.49949372 0.35079354 0.49481148 0.95934 0.21990287 0.9430871 0.5298548 0.15363282
0.8639783 0.77171195 0.5210277 0.81818545 0.45066386 0.8720403 0.8654293 0.7454036
0.7591959 0.3536386 0.10200846 0.43544656 0.8605814 0.30730104 0.9810487 0.707767
0.09278077 0.37284666 0.7199119 0.73149097 0.21484172 0.18177491 0.6539772 0.6331323
0.0018414259 0.12035298 0.112467706 0.40614796 0.7073099 0.51581275 0.13663757 0.14973217
0.023404956 0.93495196 0.3381046 0.3202045 0.09156108 0.66337687 0.90977573 0.7264468
0.62509894 0.26908088 0.101478994 0.7675615 0.39286882 0.32413894 0.99405354 0.36559856
0.0198915 0.8708026 0.58425367 0.16349757 0.5703299 0.9423722 0.83054006 0.6697048
0.71148646 0.28723508 0.969127 0.74587715 0.5092028 0.051187515 0.40324056 0.5761019
0.37377083 0.72656757 0.041060925 0.7352214 0.66833377 0.49985772 0.6300729 0.7675808
0.7414119 0.101107 0.9953767 0.23988956 0.3740372 0.31684238 0.58090633 0.43242204
0.80931854 0.8620473 0.78024495 0.4150002 0.07052928 0.95291364 0.08512467 0.8884035
0.018517315 0.7397073 0.64276886 0.07168108 0.051440895 0.6055352 0.12189233 0.14114255
0.10522878 0.41317457 0.7336864 0.08378273 0.09400028 0.54426646 0.30781192 0.45123738
0.51817393 0.7298545 0.13646752 0.54473233 0.18914759 0.12854403 0.9506989 0.4296435
0.79701906 0.8015997 0.031197727 0.6660742 0.94989616 0.4466943 0.8508325 0.9746867

bn1.bias f4 [400]
00000000: 0000 0000 0000 0000 0000 0000 0000 0000
00000010: 0000 0000 0000 0000 0000 0000 0000 0000
00000020: 0000 0000 0000 0000 0000 0000 0000 0000
00000030: 0000 0000 0000 0000 0000 0000 0000 0000
00000040: 0000 0000 0000 0000 0000 0000 0000 0000
00000050: 0000 0000 0000 0000 0000 0000 0000 0000
00000060: 0000 0000 0000 0000 0000 0000 0000 0000
00000070: 0000 0000 0000 0000 0000 0000 0000 0000
00000080: 0000 0000 0000 0000 0000 0000 0000 0000
00000090: 0000 0000 0000 0000 0000 0000 0000 0000
000000a0: 0000 0000 0000 0000 0000 0000 0000 0000
000000b0: 0000 0000 0000 0000 0000 0000 0000 0000
000000c0: 0000 0000 0000 0000 0000 0000 0000 0000
000000d0: 0000 0000 0000 0000 0000 0000 0000 0000
000000e0: 0000 0000 0000 0000 0000 0000 0000 0000
000000f0: 0000 0000 0000 0000 0000 0000 0000 0000
00000100: 0000 0000 0000 0000 0000 0000 0000 0000
00000110: 0000 0000 0000 0000 0000 0000 0000 0000
00000120: 0000 0000 0000 0000 0000 0000 0000 0000
00000130: 0000 0000 0000 0000 0000 0000 0000 0000
00000140: 0000 0000 0000 0000 0000 0000 0000 0000
00000150: 0000 0000 0000 0000 0000 0000 0000 0000
00000160: 0000 0000 0000 0000 0000 0000 0000 0000
00000170: 0000 0000 0000 0000 0000 0000 0000 0000
00000180: 0000 0000 0000 0000 0000 0000 0000 0000
00000190: 0000 0000 0000 0000 0000 0000 0000 0000
000001a0: 0000 0000 0000 0000 0000 0000 0000 0000
000001b0: 0000 0000 0000 0000 0000 0000 0000 0000
000001c0: 0000 0000 0000 0000 0000 0000 0000 0000
000001d0: 0000 0000 0000 0000 0000 0000 0000 0000
000001e0: 0000 0000 0000 0000 0000 0000 0000 0000
000001f0: 0000 0000 0000 0000 0000 0000 0000 0000
00000200: 0000 0000 0000 0000 0000 0000 0000 0000
00000210: 0000 0000 0000 0000 0000 0000 0000 0000
00000220: 0000 0000 0000 0000 0000 0000 0000 0000
00000230: 0000 0000 0000 0000 0000 0000 0000 0000
00000240: 0000 0000 0000 0000 0000 0000 0000 0000
00000250: 0000 0000 0000 0000 0000 0000 0000 0000
00000260: 0000 0000 0000 0000 0000 0000 0000 0000
00000270: 0000 0000 0000 0000 0000 0000 0000 0000
00000280: 0000 0000 0000 0000 0000 0000 0000 0000
00000290: 0000 0000 0000 0000 0000 0000 0000 0000
000002a0: 0000 0000 0000 0000 0000 0000 0000 0000
000002b0: 0000 0000 0000 0000 0000 0000 0000 0000
000002c0: 0000 0000 0000 0000 0000 0000 0000 0000
000002d0: 0000 0000 0000 0000 0000 0000 0000 0000
000002e0: 0000 0000 0000 0000 0000 0000 0000 0000
000002f0: 0000 0000 0000 0000 0000 0000 0000 0000
00000300: 0000 0000 0000 0000 0000 0000 0000 0000
00000310: 0000 0000 0000 0000 0000 0000 0000 0000
00000320: 0000 0000 0000 0000 0000 0000 0000 0000
00000330: 0000 0000 0000 0000 0000 0000 0000 0000
00000340: 0000 0000 0000 0000 0000 0000 0000 0000
00000350: 0000 0000 0000 0000 0000 0000 0000 0000
00000360: 0000 0000 0000 0000 0000 0000 0000 0000
00000370: 0000 0000 0000 0000 0000 0000 0000 0000
00000380: 0000 0000 0000 0000 0000 0000 0000 0000
00000390: 0000 0000 0000 0000 0000 0000 0000 0000
000003a0: 0000 0000 0000 0000 0000 0000 0000 0000
000003b0: 0000 0000 0000 0000 0000 0000 0000 0000
000003c0: 0000 0000 0000 0000 0000 0000 0000 0000
000003d0: 0000 0000 0000 0000 0000 0000 0000 0000
000003e0: 0000 0000 0000 0000 0000 0000 0000 0000
000003f0: 0000 0000 0000 0000 0000 0000 0000 0000
0.0 0.0 0.0 0.0 0.0 0.0 0.0 0.0
0.0 0.0 0.0 0.0 0.0 0.0 0.0 0.0
0.0 0.0 0.0 0.0 0.0 0.0 0.0 0.0
0.0 0.0 0.0 0.0 0.0 0.0 0.0 0.0
0.0 0.0 0.0 0.0 0.0 0.0 0.0 0.0
0.0 0.0 0.0 0.0 0.0 0.0 0.0 0.0
0.0 0.0 0.0 0.0 0.0 0.0 0.0 0.0
0.0 0.0 0.0 0.0 0.0 0.0 0.0 0.0
0.0 0.0 0.0 0.0 0.0 0.0 0.0 0.0
0.0 0.0 0.0 0.0 0.0 0.0 0.0 0.0
0.0 0.0 0.0 0.0 0.0 0.0 0.0 0.0
0.0 0.0 0.0 0.0 0.0 0.0 0.0 0.0
0.0 0.0 0.0 0.0 0.0 0.0 0.0 0.0
0.0 0.0 0.0 0.0 0.0 0.0 0.0 0.0
0.0 0.0 0.0 0.0 0.0 0.0 0.0 0.0
0.0 0.0 0.0 0.0 0.0 0.0 0.0 0.0
0.0 0.0 0.0 0.0 0.0 0.0 0.0 0.0
0.0 0.0 0.0 0.0 0.0 0.0 0.0 0.0
0.0 0.0 0.0 0.0 0.0 0.0 0.0 0.0
0.0 0.0 0.0 0.0 0.0 0.0 0.0 0.0
0.0 0.0 0.0 0.0 0.0 0.0 0.0 0.0
0.0 0.0 0.0 0.0 0.0 0.0 0.0 0.0
0.0 0.0 0.0 0.0 0.0 0.0 0.0 0.0
0.0 0.0 0.0 0.0 0.0 0.0 0.0 0.0
0.0 0.0 0.0 0.0 0.0 0.0 0.0 0.0
0.0 0.0 0.0 0.0 0.0 0.0 0.0 0.0
0.0 0.0 0.0 0.0 0.0 0.0 0.0 0.0
0.0 0.0 0.0 0.0 0.0 0.0 0.0 0.0
0.0 0.0 0.0 0.0 0.0 0.0 0.0 0.0
0.0 0.0 0.0 0.0 0.0 0.0 0.0 0.0
0.0 0.0 0.0 0.0 0.0 0.0 0.0 0.0
0.0 0.0 0.0 0.0 0.0 0.0 0.0 0.0

bn1.running_mean f4 [400]
00000000: 0000 0000 0000 0000 0000 0000 0000 0000
00000010: 0000 0000 0000 0000 0000 0000 0000 0000
00000020: 0000 0000 0000 0000 0000 0000 0000 0000
00000030: 0000 0000 0000 0000 0000 0000 0000 0000
00000040: 0000 0000 0000 0000 0000 0000 0000 0000
00000050: 0000 0000 0000 0000 0000 0000 0000 0000
00000060: 0000 0000 0000 0000 0000 0000 0000 0000
00000070: 0000 0000 0000 0000 0000 0000 0000 0000
00000080: 0000 0000 0000 0000 0000 0000 0000 0000
00000090: 0000 0000 0000 0000 0000 0000 0000 0000
000000a0: 0000 0000 0000 0000 0000 0000 0000 0000
000000b0: 0000 0000 0000 0000 0000 0000 0000 0000
000000c0: 0000 0000 0000 0000 0000 0000 0000 0000
000000d0: 0000 0000 0000 0000 0000 0000 0000 0000
000000e0: 0000 0000 0000 0000 0000 0000 0000 0000
000000f0: 0000 0000 0000 0000 0000 0000 0000 0000
00000100: 0000 0000 0000 0000 0000 0000 0000 0000
00000110: 0000 0000 0000 0000 0000 0000 0000 0000
00000120: 0000 0000 0000 0000 0000 0000 0000 0000
00000130: 0000 0000 0000 0000 0000 0000 0000 0000
00000140: 0000 0000 0000 0000 0000 0000 0000 0000
00000150: 0000 0000 0000 0000 0000 0000 0000 0000
00000160: 0000 0000 0000 0000 0000 0000 0000 0000
00000170: 0000 0000 0000 0000 0000 0000 0000 0000
00000180: 0000 0000 0000 0000 0000 0000 0000 0000
00000190: 0000 0000 0000 0000 0000 0000 0000 0000
000001a0: 0000 0000 0000 0000 0000 0000 0000 0000
000001b0: 0000 0000 0000 0000 0000 0000 0000 0000
000001c0: 0000 0000 0000 0000 0000 0000 0000 0000
000001d0: 0000 0000 0000 0000 0000 0000 0000 0000
000001e0: 0000 0000 0000 0000 0000 0000 0000 0000
000001f0: 0000 0000 0000 0000 0000 0000 0000 0000
00000200: 0000 0000 0000 0000 0000 0000 0000 0000
00000210: 0000 0000 0000 0000 0000 0000 0000 0000
00000220: 0000 0000 0000 0000 0000 0000 0000 0000
00000230: 0000 0000 0000 0000 0000 0000 0000 0000
00000240: 0000 0000 0000 0000 0000 0000 0000 0000
00000250: 0000 0000 0000 0000 0000 0000 0000 0000
00000260: 0000 0000 0000 0000 0000 0000 0000 0000
00000270: 0000 0000 0000 0000 0000 0000 0000 0000
00000280: 0000 0000 0000 0000 0000 0000 0000 0000
00000290: 0000 0000 0000 0000 0000 0000 0000 0000
000002a0: 0000 0000 0000 0000 0000 0000 0000 0000
000002b0: 0000 0000 0000 0000 0000 0000 0000 0000
000002c0: 0000 0000 0000 0000 0000 0000 0000 0000
000002d0: 0000 0000 0000 0000 0000 0000 0000 0000
000002e0: 0000 0000 0000 0000 0000 0000 0000 0000
000002f0: 0000 0000 0000 0000 0000 0000 0000 0000
00000300: 0000 0000 0000 0000 0000 0000 0000 0000
00000310: 0000 0000 0000 0000 0000 0000 0000 0000
00000320: 0000 0000 0000 0000 0000 0000 0000 0000
00000330: 0000 0000 0000 0000 0000 0000 0000 0000
00000340: 0000 0000 0000 0000 0000 0000 0000 0000
00000350: 0000 0000 0000 0000 0000 0000 0000 0000
00000360: 0000 0000 0000 0000 0000 0000 0000 0000
00000370: 0000 0000 0000 0000 0000 0000 0000 0000
00000380: 0000 0000 0000 0000 0000 0000 0000 0000
00000390: 0000 0000 0000 0000 0000 0000 0000 0000
000003a0: 0000 0000 0000 0000 0000 0000 0000 0000
000003b0: 0000 0000 0000 0000 0000 0000 0000 0000
000003c0: 0000 0000 0000 0000 0000 0000 0000 0000
000003d0: 0000 0000 0000 0000 0000 0000 0000 0000
000003e0: 0000 0000 0000 0000 0000 0000 0000 0000
000003f0: 0000 0000 0000 0000 0000 0000 0000 0000
0.0 0.0 0.0 0.0 0.0 0.0 0.0 0.0
0.0 0.0 0.0 0.0 0.0 0.0 0.0 0.0
0.0 0.0 0.0 0.0 0.0 0.0 0.0 0.0
0.0 0.0 0.0 0.0 0.0 0.0 0.0 0.0
0.0 0.0 0.0 0.0 0.0 0.0 0.0 0.0
0.0 0.0 0.0 0.0 0.0 0.0 0.0 0.0
0.0 0.0 0.0 0.0 0.0 0.0 0.0 0.0
0.0 0.0 0.0 0.0 0.0 0.0 0.0 0.0
0.0 0.0 0.0 0.0 0.0 0.0 0.0 0.0
0.0 0.0 0.0 0.0 0.0 0.0 0.0 0.0
0.0 0.0 0.0 0.0 0.0 0.0 0.0 0.0
0.0 0.0 0.0 0.0 0.0 0.0 0.0 0.0
0.0 0.0 0.0 0.0 0.0 0.0 0.0 0.0
0.0 0.0 0.0 0.0 0.0 0.0 0.0 0.0
0.0 0.0 0.0 0.0 0.0 0.0 0.0 0.0
0.0 0.0 0.0 0.0 0.0 0.0 0.0 0.0
0.0 0.0 0.0 0.0 0.0 0.0 0.0 0.0
0.0 0.0 0.0 0.0 0.0 0.0 0.0 0.0
0.0 0.0 0.0 0.0 0.0 0.0 0.0 0.0
0.0 0.0 0.0 0.0 0.0 0.0 0.0 0.0
0.0 0.0 0.0 0.0 0.0 0.0 0.0 0.0
0.0 0.0 0.0 0.0 0.0 0.0 0.0 0.0
0.0 0.0 0.0 0.0 0.0 0.0 0.0 0.0
0.0 0.0 0.0 0.0 0.0 0.0 0.0 0.0
0.0 0.0 0.0 0.0 0.0 0.0 0.0 0.0
0.0 0.0 0.0 0.0 0.0 0.0 0.0 0.0
0.0 0.0 0.0 0.0 0.0 0.0 0.0 0.0
0.0 0.0 0.0 0.0 0.0 0.0 0.0 0.0
0.0 0.0 0.0 0.0 0.0 0.0 0.0 0.0
0.0 0.0 0.0 0.0 0.0 0.0 0.0 0.0
0.0 0.0 0.0 0.0 0.0 0.0 0.0 0.0
0.0 0.0 0.0 0.0 0.0 0.0 0.0 0.0

bn1.running_var f4 [400]
00000000: 0000 803f 0000 803f 0000 803f 0000 803f
00000010: 0000 803f 0000 803f 0000 803f 0000 803f
00000020: 0000 803f 0000 803f 0000 803f 0000 803f
00000030: 0000 803f 0000 803f 0000 803f 0000 803f
00000040: 0000 803f 0000 803f 0000 803f 0000 803f
00000050: 0000 803f 0000 803f 0000 803f 0000 803f
00000060: 0000 803f 0000 803f 0000 803f 0000 803f
00000070: 0000 803f 0000 803f 0000 803f 0000 803f
00000080: 0000 803f 0000 803f 0000 803f 0000 803f
00000090: 0000 803f 0000 803f 0000 803f 0000 803f
000000a0: 0000 803f 0000 803f 0000 803f 0000 803f
000000b0: 0000 803f 0000 803f 0000 803f 0000 803f
000000c0: 0000 803f 0000 803f 0000 803f 0000 803f
000000d0: 0000 803f 0000 803f 0000 803f 0000 803f
000000e0: 0000 803f 0000 803f 0000 803f 0000 803f
000000f0: 0000 803f 0000 803f 0000 803f 0000 803f
00000100: 0000 803f 0000 803f 0000 803f 0000 803f
00000110: 0000 803f 0000 803f 0000 803f 0000 803f
00000120: 0000 803f 0000 803f 0000 803f 0000 803f
00000130: 0000 803f 0000 803f 0000 803f 0000 803f
00000140: 0000 803f 0000 803f 0000 803f 0000 803f
00000150: 0000 803f 0000 803f 0000 803f 0000 803f
00000160: 0000 803f 0000 803f 0000 803f 0000 803f
00000170: 0000 803f 0000 803f 0000 803f 0000 803f
00000180: 0000 803f 0000 803f 0000 803f 0000 803f
00000190: 0000 803f 0000 803f 0000 803f 0000 803f
000001a0: 0000 803f 0000 803f 0000 803f 0000 803f
000001b0: 0000 803f 0000 803f 0000 803f 0000 803f
000001c0: 0000 803f 0000 803f 0000 803f 0000 803f
000001d0: 0000 803f 0000 803f 0000 803f 0000 803f
000001e0: 0000 803f 0000 803f 0000 803f 0000 803f
000001f0: 0000 803f 0000 803f 0000 803f 0000 803f
00000200: 0000 803f 0000 803f 0000 803f 0000 803f
00000210: 0000 803f 0000 803f 0000 803f 0000 803f
00000220: 0000 803f 0000 803f 0000 803f 0000 803f
00000230: 0000 803f 0000 803f 0000 803f 0000 803f
00000240: 0000 803f 0000 803f 0000 803f 0000 803f
00000250: 0000 803f 0000 803f 0000 803f 0000 803f
00000260: 0000 803f 0000 803f 0000 803f 0000 803f
00000270: 0000 803f 0000 803f 0000 803f 0000 803f
00000280: 0000 803f 0000 803f 0000 803f 0000 803f
00000290: 0000 803f 0000 803f 0000 803f 0000 803f
000002a0: 0000 803f 0000 803f 0000 803f 0000 803f
000002b0: 0000 803f 0000 803f 0000 803f 0000 803f
000002c0: 0000 803f 0000 803f 0000 803f 0000 803f
000002d0: 0000 803f 0000 803f 0000 803f 0000 803f
000002e0: 0000 803f 0000 803f 0000 803f 0000 803f
000002f0: 0000 803f 0000 803f 0000 803f 0000 803f
00000300: 0000 803f 0000 803f 0000 803f 0000 803f
00000310: 0000 803f 0000 803f 0000 803f 0000 803f
00000320: 0000 803f 0000 803f 0000 803f 0000 803f
00000330: 0000 803f 0000 803f 0000 803f 0000 803f
00000340: 0000 803f 0000 803f 0000 803f 0000 803f
00000350: 0000 803f 0000 803f 0000 803f 0000 803f
00000360: 0000 803f 0000 803f 0000 803f 0000 803f
00000370: 0000 803f 0000 803f 0000 803f 0000 803f
00000380: 0000 803f 0000 803f 0000 803f 0000 803f
00000390: 0000 803f 0000 803f 0000 803f 0000 803f
000003a0: 0000 803f 0000 803f 0000 803f 0000 803f
000003b0: 0000 803f 0000 803f 0000 803f 0000 803f
000003c0: 0000 803f 0000 803f 0000 803f 0000 803f
000003d0: 0000 803f 0000 803f 0000 803f 0000 803f
000003e0: 0000 803f 0000 803f 0000 803f 0000 803f
000003f0: 0000 803f 0000 803f 0000 803f 0000 803f
1.0 1.0 1.0 1.0 1.0 1.0 1.0 1.0
1.0 1.0 1.0 1.0 1.0 1.0 1.0 1.0
1.0 1.0 1.0 1.0 1.0 1.0 1.0 1.0
1.0 1.0 1.0 1.0 1.0 1.0 1.0 1.0
1.0 1.0 1.0 1.0 1.0 1.0 1.0 1.0
1.0 1.0 1.0 1.0 1.0 1.0 1.0 1.0
1.0 1.0 1.0 1.0 1.0 1.0 1.0 1.0
1.0 1.0 1.0 1.0 1.0 1.0 1.0 1.0
1.0 1.0 1.0 1.0 1.0 1.0 1.0 1.0
1.0 1.0 1.0 1.0 1.0 1.0 1.0 1.0
1.0 1.0 1.0 1.0 1.0 1.0 1.0 1.0
1.0 1.0 1.0 1.0 1.0 1.0 1.0 1.0
1.0 1.0 1.0 1.0 1.0 1.0 1.0 1.0
1.0 1.0 1.0 1.0 1.0 1.0 1.0 1.0
1.0 1.0 1.0 1.0 1.0 1.0 1.0 1.0
1.0 1.0 1.0 1.0 1.0 1.0 1.0 1.0
1.0 1.0 1.0 1.0 1.0 1.0 1.0 1.0
1.0 1.0 1.0 1.0 1.0 1.0 1.0 1.0
1.0 1.0 1.0 1.0 1.0 1.0 1.0 1.0
1.0 1.0 1.0 1.0 1.0 1.0 1.0 1.0
1.0 1.0 1.0 1.0 1.0 1.0 1.0 1.0
1.0 1.0 1.0 1.0 1.0 1.0 1.0 1.0
1.0 1.0 1.0 1.0 1.0 1.0 1.0 1.0
1.0 1.0 1.0 1.0 1.0 1.0 1.0 1.0
1.0 1.0 1.0 1.0 1.0 1.0 1.0 1.0
1.0 1.0 1.0 1.0 1.0 1.0 1.0 1.0
1.0 1.0 1.0 1.0 1.0 1.0 1.0 1.0
1.0 1.0 1.0 1.0 1.0 1.0 1.0 1.0
1.0 1.0 1.0 1.0 1.0 1.0 1.0 1.0
1.0 1.0 1.0 1.0 1.0 1.0 1.0 1.0
1.0 1.0 1.0 1.0 1.0 1.0 1.0 1.0
1.0 1.0 1.0 1.0 1.0 1.0 1.0 1.0
