continuous_control/models/actor_success.pth (torch_old, 553555 bytes, 14 tensors)

fc1.weight f4 [400, 33]
00000000: 8e7a 0c3e 1cd5 3dbe 2a0c 00be a00b 893d
00000010: 374c 203d aa0f bdbd 316c f53c 8ea5 913d
00000020: 3c62 4a3d 1fbe cabd 59f5 05bd da04 eebc
00000030: 3ce4 093d d70d b63d 6d09 993d afbd 0a3e
00000040: 5031 c0bd ccd0 873d 5a5c 083c 91e0 dfbd
00000050: d3ae a93d beb3 833d 6436 1dbd 9ba5 263d
00000060: f130 0ebd 06b4 b23d e372 c6bd 6434 33bc
00000070: fd10 14be d899 d53b 5b44 b4bc d4cb 6d3c
00000080: 93e5 cfbe ce7d 82be 706f 52bc 9599 383d
00000090: d2ed 3b3e db96 b1bb e192 9f3c 5e5e 9dbd
000000a0: cca4 78bd 6902 863d 4a86 463e 6654 043e
000000b0: 3fec 9dbd bc98 92bd 6c03 2cbd 5494 b83c
000000c0: 4e60 acbd b2d3 b9bd 2343 fd3c 0308 81bd
000000d0: 9fe7 77bd 9fcc cb3d a2ef 023e 7eb6 8f3d
000000e0: 70db e1bc 112a 943d 2b5a b83d 7878 b43d
000000f0: d991 5f3d 0563 8bbd b367 b7bc fc89 d63c
00000100: 186f 3cbd 746c 383e 4378 50bd 9200 fcbd
00000110: 1a36 293d ba0e b7bd 1bde 2f3e 0811 0f3d
00000120: 916f b5bd 425d 32bd 308f 0a3e b755 b3bd
00000130: a22f 84bd 038f ca3d be95 893c fe6b a43d
00000140: 0069 a43d 37cb b63d e2f6 debd 0afd 1abd
00000150: ae5a c43d c81a 9c3e bc2a 853c d580 33bd
00000160: eddb 9ebd d6c2 2ebe 5374 0a3e 4fe6 0d3e
00000170: 9ad1 adbd f58e 043e cb6d 1bbd 52a9 ed3c
00000180: 2cbe e4bd d0f8 abbb 3fca 0c3e 2a75 fd3d
00000190: c092 d4bc 5e3e 53be 3fa4 84bd a73c 44be
000001a0: 4137 633e 623e cbbe 121f 843d 6412 023d
000001b0: 2a3e 9d3d 1e31 01bd a998 943b a1a5 ccbd
000001c0: ca33 b7bd 5698 c33c c4f1 933e 7a52 233e
000001d0: aea2 5f3d 1f0c ef3c 8a2b fdbc d138 823d
000001e0: 63b4 a2bc 4445 c6bd 4e35 133d dec5 78bd
000001f0: 02f6 353d 12ab 213b 0e78 a43d f080 7fbe
00000200: 5910 223d 52d6 f6bd 3400 0dbc 99b1 01bf
00000210: 34b6 653c b268 2fbe c8d0 63be 1238 c03c
00000220: c0e9 953d 7bb3 e8bd 9083 33be e703 1abc
00000230: 8b7f 193d f97e 04bd ac87 17bd cd2b fb3c
00000240: 37d8 8dbd 20fa 143e 54a7 c93e cc89 7dbd
00000250: 980a fe3c 68ce 1e3e 00e9 afbd d8a8 d03c
00000260: 479c 7f3d 7572 0f3e 7f5f 343c 0dd4 67bd
00000270: 245a 883c 6fc8 973c 73e3 d7bd 5421 803d
00000280: 6200 9ebc 1456 2c3c bdde ccbd b9f5 2d3d
00000290: 34f8 6bbd 6dc7 6a3c 0e37 a53c 68e8 2cbd
000002a0: 767f 2a3e 6027 a93d aa42 8e3e 0a67 173e
000002b0: 620b fbbc 7937 febd 283a ae3d 9b06 0f3d
000002c0: 2d16 b33c c604 2f3c b4e8 89be 19bb cabd
000002d0: 1471 94be 645f 243e 8d25 c9bd 7a70 e33d
000002e0: cb5e 2abe aca1 443c 854a fdbd d9b3 21bd
000002f0: ead2 a63c 64e0 2fbd 2f21 343c ddb2 e13d
00000300: ab9e 093d 551a 543e f068 c7bb 17d8 46bc
00000310: d3d3 323d 4f14 823c 193f 263c c3d7 6cbe
00000320: b123 693c 69af 30bc b5b2 0f3d c70e 35bd
00000330: c5ae 8ebd e2e8 183c 63d8 08bd 4ae3 82bc
00000340: edf3 9cbd 9ad4 e4bd 3e86 043e fc6b 4fbd
00000350: 8477 dfbb 9a4e 453e 4d8e 30be d239 fd3b
00000360: cf42 6c3d 99ce 873d bf8e 813d cf0f 733d
00000370: ff7e 403d 0e41 ac3d b80a 3dbd 2fa4 e1bc
00000380: 95a3 32bd fc31 30bb caac 0cbe d01a 77bb
00000390: 0c00 863d 0c46 35bc 3cd8 88be 5164 96bd
000003a0: 1e94 cd3d d04c f23d 09d3 003d 58eb 3abd
000003b0: 479c 2dba f0c0 5a3d e607 d1bc 20b6 89bd
000003c0: e401 393e 2cba 323d c954 ae3d 3f85 9a3d
000003d0: 8cde 8a3d 979b 553d d06f 7f3d 53c8 11be
000003e0: bf47 6dbd 0418 e83c 5d47 f53d 7393 67bd
000003f0: 6cc6 90bb 9896 d33c 3004 413e 74b2 aa3d
0.13718626 -0.18538326 -0.1250464 0.066916704 0.039135184 -0.09231503 0.029958816 0.07111655
0.04941009 -0.09899544 -0.032704685 -0.029055048 0.033664927 0.088893585 0.07472501 0.13548921
-0.093844056 0.06631622 0.0083228 -0.109315045 0.08285298 0.064307675 -0.03838195 0.040685277
-0.034714643 0.08725743 -0.09689882 -0.010937784 -0.14459606 0.0065185837 -0.02200525 0.014513928
-0.4060484 -0.25486606 -0.012843952 0.045068342 0.1835244 -0.0054195947 0.019479217 -0.07684015
-0.060704038 0.065434285 0.19387165 0.1292282 -0.07711076 -0.07158038 -0.04199545 0.022531666
-0.08416806 -0.09073581 0.030915802 -0.06300356 -0.060523625 0.09951138 0.12786725 0.070172295
-0.027570456 0.07234586 0.09001573 0.0881204 0.05458245 -0.06805996 -0.022388315 0.026188843
-0.046004385 0.18010122 -0.05089594 -0.12304796 0.04131136 -0.08938356 0.1717457 0.03492835
-0.0885917 -0.04354597 0.13531184 -0.08756583 -0.06454398 0.098905586 0.016795035 0.080284104
0.0802784 0.08925479 -0.10886933 -0.037838973 0.09587608 0.30489182 0.016255729 -0.043824036
-0.07756791 -0.17066512 0.13520937 0.13857387 -0.08487244 0.12945159 -0.037946504 0.029011402
-0.11169085 -0.0052481666 0.13749026 0.12375863 -0.025948882 -0.2062926 -0.0647664 -0.19163762
0.22189046 -0.39696032 0.06451239 0.03175582 0.076778725 -0.031540982 0.0045348 -0.09992529
-0.08945425 0.02387635 0.2889539 0.15949431 0.054598503 0.029180584 -0.03090455 0.06358493
-0.019861406 -0.0968118 0.035939507 -0.060735576 0.044424064 0.0024668616 0.08030711 -0.2495153
0.03956637 -0.12052597 -0.008606005 -0.5066162 0.014020491 -0.17129782 -0.22247612 0.023464236
0.07319975 -0.11362358 -0.17530656 -0.009400344 0.03747515 -0.032347653 -0.03699462 0.030660534
-0.06926005 0.1454854 0.39385474 -0.06189899 0.03101091 0.15508425 -0.08589363 0.025471136
0.062404897 0.14008506 0.011009096 -0.05659871 0.016644545 0.018528191 -0.10541429 0.06256357
-0.019287292 0.0105185695 -0.100034215 0.042470668 -0.05760975 0.014329773 0.020167854 -0.042213827
0.16650185 0.08259463 0.27785236 0.147854 -0.030645076 -0.12412924 0.08507186 0.03491841
0.02186116 0.01068229 -0.2693535 -0.09898967 -0.28992522 0.16052014 -0.09821615 0.111054376
-0.16637723 0.012001436 -0.12367729 -0.039478157 0.020364244 -0.042938605 0.01099424 0.110204436
0.033598583 0.2071317 -0.0060855076 -0.012136481 0.043659043 0.015878825 0.01014688 -0.23129182
0.014229701 -0.010784009 0.035082538 -0.044203546 -0.069669284 0.009332867 -0.033409487 -0.01597752
-0.07663713 -0.11173363 0.12941834 -0.05064009 -0.0068196673 0.19268265 -0.17241783 0.00772784
0.0576809 0.06631202 0.06326055 0.059341248 0.046996113 0.08410846 -0.0461528 -0.02754411
-0.043613035 -0.0026885262 -0.13737789 -0.003770519 0.06542978 -0.011064064 -0.26727474 -0.073433526
0.10038017 0.11831057 0.03145126 -0.045634598 -0.00066227134 0.053406656 -0.025516462 -0.06724191
0.18067127 0.04363458 0.08512265 0.07544946 0.06780729 0.052150335 0.062362492 -0.14236574
-0.05792975 0.028331764 0.11976502 -0.056537103 -0.004418185 0.025828645 0.18849254 0.083348185

fc1.bias f4 [400]
00000000: dbe6 b4bd 4046 a8bd c7b6 b33d 49e6 b0bd
00000010: 3af6 59be abea 4cbe 32b7 cfbd 4441 4bbe
00000020: c8ed 0dbe 72f0 e4bd 91d4 9f3c c622 17be
00000030: 0b22 2a3e c7b0 1ebe defc f2bd 8e8d 83be
00000040: cacc 35bd addd 1fbe 9847 5ebe 7d3b 2fbd
00000050: 41cc b7bd 8798 d53c 4f4e 98bd 2cf0 fcbd
00000060: 062d 56be 9461 36be f1c2 24be 283d 0a3e
00000070: 7341 df3d 46ff a2bd ebb5 5e3d cae4 2a3e
00000080: 7ea9 a23d 80e3 fcbd 9133 80bd 17a4 85bd
00000090: 052e 76be 2b3d 70bb dcff 823d a219 53bd
000000a0: 5162 2b3e e345 d23c 8dc9 1b3e f205 15bd
000000b0: 5726 ff3b a285 ab3d 4bdd 0ebb bc75 123e
000000c0: 9891 373e 8117 e9bd c26d a03d 0989 8d3d
000000d0: 1005 fa3d 2344 003e 77fd 12be 215c 0b3e
000000e0: c664 0f3d 77bc 08be c4cd 09bd 8259 d13d
000000f0: b1e6 3fbe ff59 21be 2e19 9b3d a5ad 9ebd
00000100: 13bb 49bd 9d94 ca3b 9ed9 bdbc aa1b 6bbe
00000110: 1a4b 21bd 3deb e4bd f7bb a1bd 35b4 7abd
00000120: f5f6 fe3d 1c68 59be f6a5 0d3d c15a a63c
00000130: 69c1 42be ed27 0cbe 77f7 aa3d 4d2c b2bd
00000140: 0c59 71be 2dc6 1e3d 5fb8 51be 47ff d2bd
00000150: b95a af3c b2ea e03d b28f c83a a858 5ebd
00000160: fd63 603d cd81 48bd 20d2 90bd 06e2 8dbd
00000170: 7936 013d c061 42bc 90b7 52bd 6024 6cbe
00000180: 2fef 70bd 12bb 063e c22b 84bc 69e7 853d
00000190: 4bb0 d2bd 3f3a a13d a392 2dbe 461c d73c
000001a0: d1df 90bd fb27 da3d e274 3b3d f774 2a3d
000001b0: 6524 fbbc ee38 0cbe 4c0f 533d 3d22 86bd
000001c0: 9a69 abbd 7865 93bd 3740 d53d 8539 b03d
000001d0: 9ecb 83bc 347c 4fbd 6ced bdbd 21be 46be
000001e0: 5195 debd 85ad 53be f0ce 07be 4275 fa3c
000001f0: f520 ccbd 7529 5f3d 5305 273d 6a0a 90bd
00000200: f2af 1f3d f7ee 2f3e c7a6 43be 13ed e53d
00000210: 0d0d 893c a680 803c 1702 3ebe b5b0 173d
00000220: 74f5 84bd adcd 2cbd 25d9 033e 014b 393d
00000230: b714 683d 6712 2abe d8fc 4cbe 59c3 e73d
00000240: c7bb e5bd 7c11 cfbd 04cb 433d 38d4 44bd
00000250: 19e6 97be 94db e8bc c51d 97bd 9dbd b3bd
00000260: 9cb3 503d 5b1d 61be 61e3 9ebd 7456 36be
00000270: a5aa 55bb 4f14 56be 07e4 c2bd c915 0fbc
00000280: e3f9 d7bd 48b9 003e 1ce4 a03d 0a5b 503d
00000290: 29d3 a03d c96d 06be 73c1 32bd 9b7c 2a3e
000002a0: 5866 cebc 5c4f de3a 746e 233d e79e acbe
000002b0: 89e0 4ebe 4ef3 c33c 18d6 94be a37d 4e3d
000002c0: b5d0 8bbe 4524 e9bd 4866 333d 7e70 eabc
000002d0: b32d d43b 8bb5 e4bd 08bf 52be f08e 27be
000002e0: 3ede 17be 6297 3abe fc1f b8bd 5104 ad3b
000002f0: 3351 563e d6ac 813d faaf 513d 8a38 1bbe
00000300: 7627 38be b2f5 e63d 3d0a c8bd b346 10bd
00000310: eba3 46be 1280 1ebe 4edf a43d 5342 91bd
00000320: 14e4 51bd c96c 3bbe 1d6f 13be 1dda 24bd
00000330: 8e23 0cbe 9aec 883e 9d9c ecbd 8823 ca3d
00000340: 5a93 21bd ce27 0bbd 60a4 4ebd 2adb 0b3d
00000350: 13f9 9f3c 558c 84be d9a1 9f3d f35b d9bd
00000360: 246c febd 6ad5 3ebd 389d 5ebc db47 1f3d
00000370: 9105 12be 48d4 d1bd 8846 82bb b8e5 05be
00000380: 7c8f 9b3d 3520 a2bd 1b1e f53c 495d 8ebc
00000390: 9dd5 6d3d aa25 35be 3406 83bd 8472 b53b
000003a0: 087f dc3d b9a1 1cbe b9bc 82bd adb4 f53d
000003b0: 9f13 3dbe 3106 a9be 0426 20be 434b 47bd
000003c0: a5c1 883d bbbb bcbd 7a1a 1b3e 2c57 b7bd
000003d0: 8398 81be c48c 1dbd 452b 113e 3e0e 0a3e
000003e0: 48a5 41bc c7c4 7cbe 693e b4bd e2d4 803c
000003f0: 5206 fd3b a5d2 38be de33 073e 7e44 f83c
-0.08833095 -0.08216524 0.087750964 -0.086376734 -0.21285334 -0.20011394 -0.101423636 -0.19849116
-0.13860238 -0.11178674 0.01951054 -0.14759359 0.16614549 -0.15497123 -0.11864637 -0.25693935
-0.044384755 -0.15611906 -0.21706998 -0.04278134 -0.08974505 0.026073707 -0.07436811 -0.12350497
-0.20915613 -0.1781066 -0.16089989 0.13499892 0.10901155 -0.07958846 0.05437271 0.16688839
0.07942484 -0.1234808 -0.062598355 -0.06525438 -0.24040993 -0.0036657553 0.063964576 -0.051538117
0.16736723 0.02566809 0.15213604 -0.036382623 0.007786553 0.08375098 -0.0021799381 0.14302725
0.17926633 -0.11381436 0.07833435 0.06910903 0.12207997 0.12525992 -0.14354502 0.13609363
0.035008214 -0.13353144 -0.0336435 0.102221504 -0.18740346 -0.15756987 0.07573162 -0.07747964
-0.049250674 0.006182267 -0.023175057 -0.22959772 -0.039378263 -0.11177681 -0.078971796 -0.061207015
0.12449447 -0.21231121 0.0345821 0.020306947 -0.19019093 -0.13687105 0.083479814 -0.08699856
-0.23569125 0.038763214 -0.20480488 -0.103025965 0.021405565 0.109822646 0.0015301614 -0.054283768
0.054782856 -0.048951913 -0.07071328 -0.06927876 0.03154609 -0.011864126 -0.05144459 -0.23060751
-0.058821853 0.13157299 -0.016134147 0.065382786 -0.102875315 0.07872438 -0.16950469 0.026258599
-0.070739396 0.10652157 0.045765765 0.041615453 -0.030657003 -0.13693592 0.05152826 -0.06549499
-0.08369751 -0.07197088 0.10412639 0.08604721 -0.016088303 -0.05065556 -0.092738 -0.19408466
-0.108683236 -0.20671661 -0.13262534 0.030573491 -0.099672236 0.054482896 0.040776562 -0.07033236
0.038986154 0.17181002 -0.1910659 0.11226859 0.016729856 0.015686344 -0.18555485 0.037033755
-0.06492129 -0.042188335 0.12875803 0.045237545 0.05666038 -0.16608582 -0.20018327 0.113165565
-0.11217456 -0.10110757 0.047801033 -0.04805395 -0.29667738 -0.028425016 -0.07378725 -0.087764
0.05095254 -0.21983854 -0.07758213 -0.17806417 -0.0032602933 -0.20906185 -0.09516149 -0.008733221
-0.10545709 0.12570679 0.078560084 0.05086807 0.078527756 -0.13127817 -0.04364152 0.16649096
-0.025195286 0.0016960907 0.03990026 -0.33714983 -0.20202841 0.023919728 -0.2906959 0.050412785
-0.27307668 -0.11383871 0.043798715 -0.028618094 0.0064751743 -0.11167439 -0.20580685 -0.1636312
-0.14830872 -0.1822181 -0.089904755 0.0052800556 0.20929413 0.06331794 0.051193215 -0.15158287
-0.17983803 0.112773314 -0.09767578 -0.035223674 -0.19398467 -0.15478542 0.080504045 -0.070927285
-0.051242903 -0.18303217 -0.14397855 -0.04024707 -0.13685438 0.26743013 -0.11553309 0.09870058
-0.039447166 -0.033973508 -0.05044973 0.034144558 0.019527948 -0.25888315 0.07794542 -0.10613241
-0.1242297 -0.046590246 -0.013587289 0.038886886 -0.14259936 -0.102455676 -0.003975693 -0.13075912
0.07595727 -0.07916299 0.029921582 -0.017378466 0.058065046 -0.17690149 -0.063976675 0.005537333
0.10766417 -0.15296067 -0.06383652 0.11997352 -0.18464516 -0.33012536 -0.15639502 -0.04865576
0.0667756 -0.09215494 0.15146819 -0.089521736 -0.2531167 -0.038464323 0.14176662 0.13481995
-0.011819191 -0.2468444 -0.08800966 0.01572651 0.0077217007 -0.18049105 0.1320338 0.030306097

fc2.weight f4 [300, 400]
00000000: d7db 5a3c 98b5 b2bb 4c42 8bbc 1c3c bb3c
00000010: 2dbd 9cbe 3d3b 34bd ce4b 77bd a295 1a3e
00000020: 0bd5 24bd b40e 6abd 7cf0 27b9 c9e7 6a3d
00000030: 94c2 23be bd81 e83c 1ad4 8d3d 6d3c 02be
00000040: 8aa2 03bc 2b64 81bd 6de9 4ebe 484f 1bbe
00000050: ea97 9d3c d3b0 00be 9427 503d 50c7 793d
00000060: cc62 9c3d 0388 33bd 1370 72bd 6dcb 5dbe
00000070: 8e39 b2bc d8b4 8c3d bd97 073e be8d 563d
00000080: 67db a0bd c1e6 723d 2e1b fabc 2b9d bcbd
00000090: 410c 0e3e b8cc 57be dbbc b63d 5809 ae3d
000000a0: 8d2c 80bd 0f57 a63d d116 893d f78c 23be
000000b0: a58a bc3c 211e 303e cc2c 0cbe ec30 b1bd
000000c0: 1db2 073e 60d1 833d 0b55 cfbb f88d fb3d
000000d0: 7783 783d 8009 b43d 7b8f 89bd 5cf6 6fbe
000000e0: aace c43c 1610 1cbe 1daf a53c 1180 9ebe
000000f0: acd5 973d 2325 aabd 10bb 6e3d 4b52 2e3e
00000100: 3ff7 b0bd 14f3 e63d d2f7 433d 005f fabd
00000110: 66ac 0f3d 98ce fbbd 593a 643d 9821 a5bd
00000120: 3b0b 553e ae1a 9ebe aacd aebd 0c3a 2dbe
00000130: 935e b9bd 20a9 d63c 0798 0e3d 45e8 a73b
00000140: 3f2a fb3d 8f9c bf3a 7349 ebbd 6e8d c5bd
00000150: 3985 e63c 1b48 993d 6f14 65bd 1862 183d
00000160: 34db 263d fef1 96bd b9f6 c3bd 96aa 033d
00000170: 464d 063e 40fa a43d 9894 073e 17e6 af3d
00000180: 63e0 06bd a55b 2fbe e3e5 9b3c d77d 8cbd
00000190: 1889 3dbe 611d 803d 4934 0b3e 5d29 89bc
000001a0: 9479 f23c a9aa 713d 94b0 ea3a 13f3 8dbc
000001b0: 9f17 943d 0329 23bd 1704 a13d 92f3 74bb
000001c0: 0d40 82be 4d02 cfbd 8647 e63d 1fe4 d63d
000001d0: 2ead b53c 7a69 2b3d cd7d 97be 92e0 b13d
000001e0: 34d1 04bd 0c59 01be 5bf7 4d3e 9ebf 19bd
000001f0: 7926 423e 6229 f43d 33d7 abbd c0bf 43be
00000200: 53ea b73d 710e 013e 56c2 3abe cca7 a237
00000210: 1853 483c 25cd 153b 5892 e7bd 6501 1dbe
00000220: d94f 36be 7091 9bbd 8a73 f23a 9452 b63d
00000230: 2015 32be 1ae5 d93d 9b2a c63b 904e 403d
00000240: 61be aabd 6b24 d9bd 38c5 683d d74b cfbc
00000250: 70dc 27bd 283b b7bd 7c14 06bd 9100 a1be
00000260: ad3c 41bd 5b4c 9d3c f27c a83d 5cf7 afbc
00000270: c777 eb3c bf66 1abe 54ab 703d a8e8 62be
00000280: 6c1c f33d b7ab a9bc 6898 edba 4318 2abe
00000290: 783d 8dbe 88ab 803d 5938 533c f2ba 51bd
000002a0: 4764 c83c 2143 30bd ce12 84bd 68d3 a5bd
000002b0: 76e9 57be 2872 323e 71c7 b23c e625 043d
000002c0: 1632 b63d 0bb0 d23d f728 bdbd ca43 4dbd
000002d0: c205 913b 733c 64be 4994 5d3d d2bf 48bd
000002e0: 5a16 03be f653 e53c 02a4 a3bd 0dcb e7bd
000002f0: 281e 833d 2d72 e93d 3714 6abc 72ee 96bd
00000300: ffb8 11be ffe9 5abd 5dce 1dbd 95c4 3d3b
00000310: e7fc cdbd 2ead 063c efb3 c9bc 6aec c63b
00000320: 4e6b 333d 8f1e 88bd 6049 b4bd a1dd cf3d
00000330: 2666 f83b 17a1 f33d b29b 84bd d60b 85bd
00000340: 01b0 dbbd 502b fbbd 3a3f 26be c364 d33d
00000350: 8f67 bebb 0e90 e8bd 8ecc d1bc 8579 4f3d
00000360: 99b1 c4bc ee7f 4abd 13f2 d73c 2e68 19bd
00000370: 9b37 ddbc 7311 18bd 1c6e 93bc 8a15 223e
00000380: 08d8 24bd 1373 023e ec6c 8b3d 6533 47bc
00000390: b353 0fbe 3ef8 653d 3eab 563b 7f0e 083d
000003a0: 2050 a83d d938 43be b3ee f53c f77e 0c3d
000003b0: d4f8 a53d 9ec1 31be 338d 53bd 42d5 aabc
000003c0: df38 0d3d c691 e2bd 198a 1b3e 2cb7 49be
000003d0: 5608 3b3d fdc3 893d 7459 f13d 1e7a 543e
000003e0: 068b 533c 4c47 b3bc 3f0c 673e ecbc b6bd
000003f0: 7601 8f3d de03 80be 1b45 f13d 7b29 51be
0.013358078 -0.0054537766 -0.016999386 0.02285581 -0.3061308 -0.044001807 -0.060375027 0.15096143
-0.040242236 -0.05714293 -0.00016015948 0.057349954 -0.15992194 0.028382177 0.06925221 -0.12718363
-0.008034358 -0.06317934 -0.20206232 -0.15166962 0.019237477 -0.12567453 0.050818995 0.060981095
0.076360315 -0.043830883 -0.059188914 -0.21659632 -0.02175596 0.06870431 0.13241477 0.05238127
-0.07854348 0.059302095 -0.030530538 -0.09209665 0.13871862 -0.21074188 0.0892274 0.08497876
-0.062584974 0.08122074 0.06693805 -0.15971743 0.02301533 0.17198993 -0.13688964 -0.08651909
0.13251539 0.064364195 -0.0063272766 0.12282938 0.06067225 0.087908745 -0.0671682 -0.23433822
0.024024326 -0.15240511 0.020225102 -0.30957082 0.074138016 -0.083078645 0.058283865 0.1702358
-0.086409084 0.11276832 0.04784376 -0.12225151 0.03507652 -0.12295264 0.055719707 -0.08063048
0.20805065 -0.3087973 -0.08535321 -0.16916674 -0.09051242 0.026203692 0.034812953 0.005124124
0.12263917 0.0014618802 -0.11488619 -0.09646116 0.028139697 0.07484456 -0.05592769 0.037202924
0.040736392 -0.07370375 -0.09568543 0.032145105 0.13115415 0.08055544 0.13240278 0.08588808
-0.032928836 -0.17124803 0.019030517 -0.068599395 -0.18509328 0.062556036 0.13594164 -0.016743356
0.029598989 0.059000645 0.0017905408 -0.01732782 0.07231068 -0.039834034 0.07862108 -0.0037376625
-0.25439492 -0.10107861 0.11244111 0.104927294 0.022177305 0.041848637 -0.29588166 0.086854115
-0.032426074 -0.12631625 0.2011389 -0.037536256 0.18959989 0.11921956 -0.08390655 -0.19116116
0.08980241 0.12603165 -0.18238196 1.9390041e-05 0.012226842 0.0022857871 -0.1130721 -0.15332563
-0.17803897 -0.075960994 0.0018497568 0.08902469 -0.17390871 0.10639401 0.0060475594 0.046949923
-0.08337093 -0.10602649 0.056828707 -0.025304718 -0.04098171 -0.0894683 -0.03273438 -0.31445745
-0.047177006 0.019201448 0.082269564 -0.021480255 0.028743638 -0.15078257 0.05875714 -0.22159064
0.118706554 -0.020711763 -0.0018127086 -0.16610818 -0.2758596 0.06282717 0.012891852 -0.051203676
0.024461878 -0.04303277 -0.06448899 -0.08096963 -0.21085152 0.1742636 0.021823617 0.032262705
0.08896272 0.10287484 -0.09236329 -0.050113477 0.004425735 -0.22288685 0.054096494 -0.04901106
-0.12801495 0.027994137 -0.079902664 -0.11318026 0.06402236 0.113987304 -0.014287046 -0.073696986
-0.14230727 -0.053445812 -0.03852688 0.0028956283 -0.10058003 0.00822 -0.024621932 0.006070663
0.043803506 -0.066464536 -0.08803058 0.10149694 0.0075805364 0.1189596 -0.06475009 -0.06496398
-0.107269295 -0.122641206 -0.16235057 0.10321953 -0.005810685 -0.11355601 -0.025610235 0.050653
-0.024010466 -0.04943841 0.026360547 -0.03745287 -0.027004054 -0.037126016 -0.01799684 0.15828529
-0.040245086 0.1273921 0.068078846 -0.0121582495 -0.13996772 0.056144945 0.0032755877 0.03321695
0.08218408 -0.19064654 0.030021047 0.03430077 0.08104101 -0.17359015 -0.05164833 -0.020853642
0.034478065 -0.1106296 0.15189399 -0.19698781 0.045662247 0.06726835 0.1178464 0.20749709
0.012911564 -0.021884583 0.22563265 -0.08922753 0.069827005 -0.2500295 0.11780759 -0.2042598

fc2.bias f4 [300]
00000000: 1df6 8d3d 30e3 e13c 0dda 97bb 30b6 c23d
00000010: 17c7 42bd 0740 793d 278b 28bd bf60 113e
00000020: 7f3d a23d e68c 1fbd c10f adbd 6d09 193c
00000030: 7c2b 5cbd f41e 373d 2fb8 673d 16d3 af3c
00000040: 6b8a eebd 1c3b cd3a f9a6 153e fcf0 2b3c
00000050: e4e7 013e 1aa1 de3c 4701 df3c 9f1c 153d
00000060: e290 ba3d b012 93bc f8bc b1bd e332 273c
00000070: 0f48 7c3c 4d1b c83d e420 d83b ec6f 41bd
00000080: 0bf8 4c3d b975 89bc c48a ae3d 3754 3e3c
00000090: aee3 47bd 708f 31bd ab91 003d 1412 203e
000000a0: 6c6f 2cba 0b3f 133d c1d2 8fbd 7bd9 85bc
000000b0: df75 633d 08fa febc 73e4 58bc b54a abbd
000000c0: a329 f93c 8841 52be 408b 1abd 835e 783c
000000d0: 71a2 4d3d df5a 283d ae2d 953d 790c 703c
000000e0: b147 f93b 2123 913c 6182 6f3c 8eca 87bd
000000f0: 3b86 59bd be3f 87bd 6c00 9dbd 22c2 7cbd
00000100: d178 aebd b4b3 e03b 2685 a33b ff66 343c
00000110: d492 6bbd b38b d63c e0f3 0f3e 0c04 f9bd
00000120: 38e0 8c3a f676 26bd ab85 d23d ecd7 523d
00000130: 4d7c 7fbd a928 1fbd f28a 533d f6c8 9fbc
00000140: 12b3 d8bd 23a3 863d dbe1 86bd 6a07 0bbc
00000150: 7872 63bd 07a5 a63d 30a6 adbc c9f1 7f3c
00000160: 20f6 eebc 6c75 b93d 6de8 e3bb 4832 6bbd
00000170: 80e8 693d 5da8 6e3d ace8 d03d ee51 ae3c
00000180: b675 dabb fdf1 563d 1bea 22bd b9de c13d
00000190: 8288 793d 8b2f 0c3b 3c81 503c ff32 2e3d
000001a0: fa66 d7bb 3e47 00be 0233 7bbd 8801 55bd
000001b0: fd18 073b 08ea d33c 3fdd a13c 8af3 aa3d
000001c0: d4e6 acbc 46b1 96bd 269e cabd 4344 7ebc
000001d0: 567f 563d 2e2e 773d af87 6fbd db65 ffbc
000001e0: b875 8dbd 53a9 49be 1388 6b3d 6e28 bd3c
000001f0: 350f efbc 8b93 103e adb5 773b 8d1d 1e3d
00000200: c0ed fe3b b5d2 013d 64db b63d 216e 223c
00000210: 9bd7 793b f2ad f0bd 8879 283e 4a40 d93d
00000220: 1e7f 6a3d 41e2 d43c e5c5 b6bd 49ff 9c3d
00000230: 8603 b23c 37a4 a1bd 7b4f c9bd 5548 04bd
00000240: f972 913b 4a17 e9bc 7b3d 0b3d 8256 fc3c
00000250: 45f3 88bd e541 4a3d 8332 adbd 3921 fd3b
00000260: e4a7 5a3b b312 7e3d ac6f 90bd 4a73 10bd
00000270: 29c9 11bd 4365 abbb 8ea8 03be 039e 483d
00000280: dae1 7f3c e159 4d3d 3f28 edbd fb95 b2bc
00000290: fff5 7fbc b39b 96ba a1d9 12bd d6c1 9bba
000002a0: af6e 5fbc f766 cbbc ad78 443d cd35 263d
000002b0: 5ac8 b7bc 141a 5d3d 688f 6b3a 97ba 133c
000002c0: 80fb 00be b228 fc3d 51f3 8a3d 257f 8bbc
000002d0: a560 bd3c 2e3f dcbc b050 813d 80e8 1ebd
000002e0: 0498 27bb 8749 1b3d e3af 2b3d ac34 9c3c
000002f0: be7f 323d a8de 7ebd 7774 dabc 27ab 1f3d
00000300: 1e7c 9b3b 9b30 b23d 798c bc3d 1a44 be3c
00000310: 6f6f c3bc ba8e 8f3d 9f58 aabc 1ce4 703d
00000320: a7e4 6bbc 6976 ff3d 1e6b edbd 7def db3c
00000330: 8c9e a83d f42b 13be 2eba 1bbd b554 8abd
00000340: 09d3 fabd 897e a2bb 8c7b 4ebd 5650 e5bc
00000350: 2998 23bd 5d09 853d 80f9 a83d 6362 bd3d
00000360: 6303 e6bc e30f 6fbd 1ebd 113d da21 2fbc
00000370: ec17 10bd 6f57 e03d 7ca7 f4bd 0c70 613d
00000380: d6cd bb3d a094 36bc 9e89 0f3d 3d33 b63d
00000390: d1fd 1cbc 49d4 9a3d e705 04bd d7a5 e83c
000003a0: 3d56 d0bc 6e83 353c 99a0 023e dfbe 02bd
000003b0: 83ca dbbc 2be0 be3c d15b 32bb faf0 273d
000003c0: a31b 793d 3645 df3d bb30 3ebd 8bf4 adbd
000003d0: ae3f 113d 3842 66bd dc22 363d 638f 40bd
000003e0: 1356 40bd 4ed5 893c 9a48 203b a4b2 923d
000003f0: 5bec d2bc 8583 9a3c 6d05 853d 2357 8c3a
0.06931708 0.027574152 -0.004634148 0.09507406 -0.047553148 0.060852077 -0.04114833 0.14197062
0.07921886 -0.03895273 -0.084502704 0.009340626 -0.053752407 0.044707254 0.056572136 0.021462958
-0.11647495 0.0015657875 0.14614476 0.010494467 0.12686116 0.027176429 0.027222289 0.03640425
0.091096655 -0.017953247 -0.08678621 0.010205003 0.0153980395 0.09770832 0.0065957177 -0.047225878
0.05004124 -0.016779767 0.08522561 0.011616758 -0.048801117 -0.043349683 0.03138892 0.15631896
-0.00065778825 0.035948794 -0.0702262 -0.016339054 0.055532333 -0.031125084 -0.01323806 -0.083638586
0.030415362 -0.2053281 -0.037730455 0.015159252 0.050203744 0.041102286 0.07284103 0.014651411
0.0076074232 0.017716946 0.014618487 -0.06630431 -0.053106528 -0.06603955 -0.07666096 -0.061708577
-0.08519138 0.00685736 0.0049902378 0.011010884 -0.057513073 0.02618966 0.14057875 -0.12158975
0.0010747975 -0.040640794 0.102794014 0.05147545 -0.0623744 -0.038857136 0.05164618 -0.019505005
-0.1058103 0.065740846 -0.06586047 -0.008485654 -0.055529088 0.08136945 -0.021197408 0.015621611
-0.029170096 0.090555996 -0.0069551975 -0.057421 0.057106495 0.058266032 0.10200629 0.021279301
-0.0066668643 0.05247687 -0.03977404 0.09466309 0.0609212 0.0021390643 0.012726124 0.042529102
-0.006573555 -0.12527177 -0.06132794 -0.052003413 0.002061426 0.02586843 0.019758819 0.08347233
-0.021106161 -0.07358031 -0.09893446 -0.015519205 0.05236753 0.060346775 -0.058479007 -0.031176498
-0.06907219 -0.19693498 0.057502817 0.023090567 -0.029182056 0.14118783 0.0037797496 0.0386024
0.007779807 0.031695087 0.08928564 0.009913952 0.0038122896 -0.117519274 0.1645261 0.10607965
0.057250135 0.025986793 -0.08924464 0.07665879 0.021730196 -0.078926496 -0.09829613 -0.032295544
0.0044387546 -0.028453488 0.03399418 0.030802969 -0.06687025 0.04937925 -0.084569 0.0077249077
0.003336423 0.06202955 -0.0705255 -0.0352662 -0.035592232 -0.005230577 -0.12857267 0.048978817
0.015617812 0.050134543 -0.11579942 -0.021800032 -0.015622615 -0.0011490494 -0.03585208 -0.0011883329
-0.013637229 -0.02482937 0.047966648 0.040578652 -0.022434402 0.05397995 0.0008985908 0.009016654
-0.1259594 0.123124495 0.0678469 -0.0170284 0.023117373 -0.026885595 0.06314218 -0.038795948
-0.0025572786 0.037911918 0.041915786 0.019068085 0.043578856 -0.06222406 -0.026666863 0.038981583
0.0047450205 0.08700677 0.092064805 0.023225833 -0.023856847 0.07009645 -0.020794211 0.058811292
-0.014397777 0.12473757 -0.115926966 0.026847595 0.082333654 -0.14372236 -0.03801935 -0.06754438
-0.12247283 -0.004958932 -0.050410792 -0.027992409 -0.039940033 0.064959265 0.08250713 0.092472814
-0.028077787 -0.05836476 0.035580747 -0.010689223 -0.035179064 0.10954177 -0.119460076 0.055038497
0.091701195 -0.011143833 0.03504335 0.08896492 -0.009581999 0.075600214 -0.03223219 0.028399391
-0.025431747 0.011078699 0.12756576 -0.03192031 -0.026829964 0.023300251 -0.0027215371 0.041001298
0.060817372 0.10901873 -0.04643319 -0.084939085 0.03546112 -0.056215495 0.04446684 -0.047011744
-0.046957087 0.016825344 0.0024457336 0.07162979 -0.025747469 0.018861542 0.064951755 0.0010707121

fc3.weight f4 [4, 300]
00000000: f383 553d 42da d23d e469 723b 45e9 d3be
00000010: d809 7cbe d792 ac3e 8629 3abe f0cc 6f3e
00000020: 58ef 74bb da2b fbbd 615b 7d3e aadb 3ebe
00000030: 6e02 b839 ba5b 5fbe 6c22 f3bd 383b 263d
00000040: 711a b23e 9d5f 11be 6041 d4bd 475d 24bf
00000050: f37e f03e 9572 d6bd 3d40 60be 94b3 fa3d
00000060: 8f2d 86bd 6c86 31bf 63d8 883e 1e98 73be
00000070: d27e a2bd 5115 2dbf 5c6b a93c f970 efbd
00000080: d9ed 5bbe f30f 19bd 0466 653e 3321 fb3e
00000090: 0e22 a43d 4a98 c8be 0c3d 8fbe 943f 6cbe
000000a0: 479b 873e ea27 873d a4d4 a6be bd68 febe
000000b0: 6ee1 abbe 31b4 12be 4e66 1abe bd27 d03d
000000c0: 1d2b 00be 3126 b93d 391b 22bd 8aed c53d
000000d0: 3109 89be 67e7 703e 3474 a73d 97b3 debd
000000e0: b45b 6dbe dc56 a9be f8fe 02bf 80af f0be
000000f0: 55e6 843e 5b6b f63d 17f3 b43d 03c1 14be
00000100: 607d a53d ad30 fbbe 3f7a 1dba 6239 073e
00000110: a73d 5ebe 8cd4 4abe daf1 803e a19b 83be
00000120: 7cad 2abe 43dc febe 025c 353d 3f14 d13e
00000130: 2555 8abd f102 fabd 18e8 92be eb6c c4bd
00000140: bd6a b7be 15a9 593e 25a3 913c ed5a 13bf
00000150: da33 c2be 0a90 a03d db81 473d 05ed 493e
00000160: f9df da3d 9d5b cabe ff29 663e 4445 233d
00000170: c233 ecbd d620 07be f08e 813e fde2 f9be
00000180: a4b9 8bbd 4d8c ffbd 0f55 01bf b48c 71be
00000190: cb43 0a3d d68c 48be b43b f43e da82 903e
000001a0: 2c2b 313e a562 8bbd 597a 00be f9d4 f5be
000001b0: 5e84 e9be 4487 92be c7e3 46be 15ca 4b3e
000001c0: db49 083e dd0d debd 3049 3dbf e75a 0b3d
000001d0: f0e8 bbbd 32ac 3e3e 24a5 51bf 8c24 e8be
000001e0: f527 97bd dedd e43d 27db 05bf ec43 1cbe
000001f0: f306 03bf cdd9 e6bd be7d bc3e db70 d5bd
00000200: ec6f 05bf d38f 3dbf 5ed8 48bd 8ed2 ddbb
00000210: 521a cabd 6546 c5bc 7eaf c53b 4997 ad3b
00000220: 38a9 36be 36f8 46be 8319 d13e 8f70 013e
00000230: 48e0 83be 02e6 8dbe ff2b 62be da69 1dbf
00000240: 442e 51be 916d 083d 7a57 993e a58f ac3e
00000250: f88c 18bd 2e44 a73d 6679 1d3e b5f7 00be
00000260: 3a8d 54bd eab1 03bf 003d ac3b 05a5 8dbe
00000270: f2e2 2ebf 32ef bb3d 5fa3 8c3e 09b0 05bd
00000280: badb 1bbe 0ea9 4cbf 12b9 72bd e06b 67be
00000290: f4f2 a0bd a2ee 37bd 95f0 b13d 1bf3 0d3e
000002a0: c04d b1be 6285 803e a461 a93c b580 85bd
000002b0: 0d6f 2a3e 6dac 7c3e 3bd9 763d e99f a63e
000002c0: f6e7 b5bd 1b91 6f3e ac54 a53e 64f9 d03c
000002d0: aac9 2abf 6999 d3bd 6913 ccbd 69d3 353e
000002e0: 0000 15be 0ba6 3ebe 974f 9f3d 6d68 843b
000002f0: 5d0c 6dbf cb5d b4be 18f2 56be 959b 94be
00000300: 895e d13e c5ff ef3e 4cc3 d53c df3a d23e
00000310: dccb 30be 3724 bc3e 3de6 103e 42bd 4bbe
00000320: 4c36 bf3e b90c 20be ecb9 233e 6fe6 943e
00000330: 16e5 0b3e 4477 dfbc 8131 06be 3215 7c3d
00000340: de10 223f 756f 5cbf 4a6d 6cbe 04cf 113e
00000350: c2a6 21bf 3653 abbe 7b6c 66bd 0d90 13bf
00000360: 1d1a a3be dc56 853e 7c6f 973e fabb 933e
00000370: 3b17 bcbe 498b 80bd 6ab7 803d 2631 37be
00000380: f036 abbe cf38 d1be dc17 a23e 7873 0b3d
00000390: 164d 1b3e e092 a1be fb9b f6be e1db b8be
000003a0: 51b4 053f 8a96 37bf aa63 d03e 39f7 f8bb
000003b0: b21f d0be 6ead 52bc 30be 40be ffeb 8e3d
000003c0: e206 bebd df6f 39be 8188 2ebf 4e2f 77be
000003d0: 200d d0be af71 69be 006f 663e 8951 8fbe
000003e0: 4860 5d3e 60ba 78bd 94ce c7be 65a2 b13d
000003f0: 8dfd 353e fa49 d8bd c6c6 5abe d50b 203e
0.05212779 0.102955356 0.0036989385 -0.41388908 -0.2461313 0.3370578 -0.18179902 0.23418021
-0.0037374105 -0.122642234 0.2474189 -0.18638483 0.00035097025 -0.21812335 -0.118718 0.04058382
0.34785798 -0.1419663 -0.10364032 -0.6420483 0.46971855 -0.104710735 -0.21899505 0.12241283
-0.06551658 -0.69345737 0.2672759 -0.23788497 -0.07934345 -0.6761065 0.020681076 -0.1169147
-0.2147745 -0.037368726 0.22402197 0.49048766 0.08014308 -0.39178687 -0.27976263 -0.23071128
0.26485655 0.0659941 -0.32584107 -0.49689284 -0.33570427 -0.1432655 -0.15078089 0.101638295
-0.12516446 0.090404876 -0.039576743 0.096644476 -0.26764825 0.23525773 0.08176461 -0.10874098
-0.23179513 -0.3307408 -0.511703 -0.47008896 0.2595698 0.12032195 0.08835428 -0.14526753
0.08080554 -0.49060574 -0.0006007291 0.13205484 -0.21703206 -0.19807643 0.25184518 -0.25704673
-0.16667742 -0.4977742 0.0442772 0.4083576 -0.06754521 -0.12207592 -0.28692698 -0.09591087
-0.35823622 0.21255906 0.017777989 -0.57560617 -0.37930185 0.07839973 0.048707824 0.19719322
0.10687251 -0.3952302 0.22476958 0.03986098 -0.115333095 -0.1319612 0.25304365 -0.4880599
-0.068225175 -0.12477932 -0.50520414 -0.2358883 0.03375606 -0.19584975 0.477018 0.28224832
0.17301625 -0.06805924 -0.12546672 -0.48014048 -0.456088 -0.28618824 -0.19422828 0.19901307
0.13309424 -0.10842488 -0.739398 0.034022238 -0.09175289 0.18620375 -0.8189261 -0.45340383
-0.07380668 0.1117513 -0.52287525 -0.15260285 -0.5118248 -0.11272011 0.36814684 -0.10421916
-0.52123904 -0.74047583 -0.04903447 -0.006769485 -0.098683015 -0.024081418 0.006032883 0.0052975756
-0.1783799 -0.19430622 0.40839776 0.12640594 -0.2575705 -0.27714545 -0.22087096 -0.6148964
-0.20427805 0.033307616 0.29949552 0.33703342 -0.037243813 0.08167301 0.15378341 -0.12594493
-0.051892497 -0.5144335 0.005256295 -0.27664962 -0.6831504 0.09176482 0.27468392 -0.032638583
-0.15220538 -0.79945457 -0.059258528 -0.22599745 -0.0785884 -0.044905312 0.086884655 0.13862269
-0.3462963 0.25101763 0.020676441 -0.065186895 0.16643925 0.2467515 0.06026576 0.32543877
-0.08882134 0.23395197 0.32291162 0.025509544 -0.66713965 -0.10331995 -0.0996464 0.17756428
-0.14550781 -0.18618028 0.077788524 0.004040769 -0.9259699 -0.35227808 -0.20990789 -0.2902495
0.40892437 0.46874824 0.026094101 0.4106054 -0.17265266 0.3674638 0.14150329 -0.19896415
0.37346113 -0.15629853 0.15988892 0.29082057 0.13661608 -0.02727855 -0.13104822 0.06154365
0.6330699 -0.8610757 -0.23088565 0.14239126 -0.6314508 -0.33461922 -0.0562558 -0.5764168
-0.3185586 0.2604283 0.29577243 0.28854352 -0.36736473 -0.062765665 0.062849835 -0.17889842
-0.3344035 -0.40863654 0.31658828 0.034045666 0.15166125 -0.3155737 -0.4816588 -0.36105254
0.52228266 -0.7171408 0.40701038 -0.0075978306 -0.40649182 -0.012858732 -0.18822551 0.069786064
-0.092786565 -0.18109082 -0.6817704 -0.24139139 -0.40635014 -0.22797273 0.2250328 -0.27991894
0.2161876 -0.060724616 -0.39024794 0.086735524 0.17772503 -0.10560985 -0.21364889 0.15629514

fc3.bias f4 [4]
00000000: 0205 11bd 6213 d2bc 0717 913d 25a7 1b3d
-0.035405166 -0.025644008 0.0708447 0.0380012

bn1.weight f4 [400]
00000000: d42c 223e 2cfa 783f 9667 913e 432a 5d3f
00000010: 18f0 fb3e 7934 253f 004d 5c3d 26be 573f
00000020: c09a 513c f5a9 0a3f 20ef db3c 7c54 3b3f
00000030: 0296 f33e 8ec9 c43e 00ad 8c3e 2a53 d33e
00000040: 40ef 253d b0c9 893e 6487 053e e0b5 af3c
00000050: 05b5 3c3f 00c0 f13a 58c0 0a3f 3f14 4a3f
00000060: 6975 383f 804c 283e 407e b73e 980a a13e
00000070: 88bf 483f 9d1f 7f3f e615 263f 5c1c 5b3e
00000080: a89c 683f a075 fb3d 0080 2439 89a9 1c3f
00000090: baf4 193f af8f 043f 0c50 bb3e 46cc 8a3e
000000a0: 7f90 043f 8839 ca3e 0c7b 9a3e e2b8 503f
000000b0: a7a3 123f 95ab 463f a478 6b3f eac5 903e
000000c0: e055 2e3d 6092 cf3d d846 973d d293 aa3e
000000d0: 9c51 763f 6878 a23d 1082 4e3d 1832 d33d
000000e0: bd08 1c3f 60fe a03e 18e3 ae3e bc1e 3c3f
000000f0: 9c53 363f 5660 c73e 3091 b43d 2fac 323f
00000100: c68e c53e 8fa1 2b3f 3738 0b3f ace3 d93e
00000110: c672 db3e d64f d83e 8049 3c3c 088c 5c3e
00000120: d657 333f fee1 c53e a1a5 1e3f a858 863d
00000130: bf52 503f aed1 b03e 5f6b 323f c0c6 c13d
00000140: 3d77 783f bfc8 6e3f 413e 513f 2b8e 7b3f
00000150: 9075 b33d 104f 133d a838 0f3f 11bb 2e3f
00000160: 901a b53e d48c 583e ba78 ae3e 0318 4b3f
00000170: 104c 8c3e 60ab 203e e059 313f b46b 223e
00000180: 64ad 693e 5bef 753f 8c26 473e c6ea 5e3f
00000190: 7586 253f 1447 623e def8 f53e 245b 813e
000001a0: f078 a53d 9237 bc3e 4c50 593e d810 aa3e
000001b0: 8077 7c3c 800d 263d f6a4 093f 608c 423d
000001c0: 37db 323f 2d79 433f d81c 2d3e a742 223f
000001d0: 9686 0d3f a052 463d e0bb 063e 28ba 9e3e
000001e0: ef11 0e3f 5600 f33e b8c1 983e 1424 813e
000001f0: 5b7f 5e3f b0db 793e 5886 853e c72f 233f
00000200: a4bd ff3e 369b b33e ee57 fd3e 4e97 753f
00000210: 382e 613e 286e 713f 90a4 073f ec51 1d3e
00000220: af2d 5d3f ea8e 453f 1262 053f 9a74 513f
00000230: 6abd e63e 083e 5f3f c68c 5d3f c5d2 3e3f
00000240: aa5a 423f 1e10 b53e d0e9 d03d daf2 de3e
00000250: 104f 5c3f 9056 9d3e 0226 7b3f 3830 353f
00000260: d803 be3d c2e5 be3e 254c 383f fe42 3b3f
00000270: 78ff 5b3e 3423 3a3e 0d6b 273f f514 223f
00000280: 005c f13a a07b f63d 7855 e63d a0f2 cf3e
00000290: 4312 353f 4e0c 043f b8ea 0b3e 6453 193e
000002a0: c0bb bf3c 0359 6f3f 0c1c ad3e d8f1 a33e
000002b0: 6084 bb3d 11d3 293f 10e7 683f 6bf8 393f
000002c0: 7c06 203f f8c4 893e 38d4 cf3d e97e 443f
000002d0: 1a26 c93e 8af5 a53e 4b7a 7e3f bc2f bb3e
000002e0: 80f3 a23c ebec 5e3f a691 153f e86b 273e
000002f0: 2401 123f 4e3f 713f 469e 543f c671 2b3f
00000300: fa23 363f 7a10 933e b518 783f cef1 3e3f
00000310: 1d5b 023f 00aa 513d 8c75 ce3e 6a7b 133f
00000320: e45e bf3e 5500 3a3f 802f 283d 7837 3c3f
00000330: ec17 2b3f 5aed ff3e 754c 213f 2d80 443f
00000340: 2ccd 3d3f 3011 cf3d 02d1 7e3f 9ca5 753e
00000350: ce81 bf3e 2a39 a23e 47b6 143f 6c66 dd3e
00000360: 802f 4f3f 22af 5c3f 22be 473f e87a d43e
00000370: a871 903d 26f2 733f d855 ae3d 696e 633f
00000380: a0b1 973c 755d 3d3f 808c 243f 88cd 923d
00000390: b0b3 523d 5b04 1b3f b0a2 f93d ac87 103e
000003a0: 3082 d73d 9e8b d33e dfd2 3b3f 4896 ab3d
000003b0: 3883 c03d 0c55 0b3f 8699 9d3e 9608 e73e
000003c0: 0ca7 043f bfd7 3a3f 24be 0b3e 9473 0b3f
000003d0: e8af 413e 0ca1 033e 0161 733f 3cfa db3e
000003e0: 7109 4c3f a335 4d3f 6092 ff3c d783 2a3f
000003f0: 652c 733f 1eb5 e43e 29d0 593f 1185 793f
0.15837413 0.9725673 0.28399342 0.8639261 0.49206614 0.6453319 0.05378437 0.8427452
0.012793243 0.54165584 0.026847422 0.7317579 0.47575384 0.38435024 0.2747574 0.41274387
0.04051137 0.26911688 0.13039929 0.02144903 0.73713714 0.0018444061 0.54199743 0.78937143
0.72054154 0.16435432 0.3583851 0.31453395 0.78417253 0.99657613 0.64877164 0.21397537
0.9086404 0.122782946 0.00015687943 0.6119619 0.6013905 0.51781744 0.36584508 0.27108973
0.51782984 0.39497018 0.30172002 0.8153211 0.57280964 0.77605563 0.9198096 0.28275996
0.042562366 0.10135341 0.07386559 0.33315903 0.96218276 0.07933122 0.050417006 0.10312289
0.60950834 0.31444073 0.34157634 0.73484397 0.7122133 0.38940686 0.08816755 0.6979398
0.3858549 0.67043394 0.5438265 0.42556512 0.42861003 0.4224841 0.011492133 0.21537793
0.700559 0.3864898 0.6197148 0.065598786 0.8137626 0.34534973 0.69695085 0.09461737
0.97056943 0.93275064 0.81735617 0.98263806 0.08762658 0.03596407 0.55945826 0.6825419
0.35371828 0.21147472 0.34076482 0.79333514 0.2740178 0.15690374 0.69277763 0.15861398
0.2282005 0.9606835 0.19448298 0.87076986 0.6465829 0.22097427 0.48041433 0.25264847
0.080797076 0.36761147 0.21222037 0.33215976 0.01540935 0.04054022 0.53767335 0.047497153
0.69865745 0.76356775 0.16905534 0.63382953 0.55283487 0.04841864 0.13157606 0.310014
0.55496114 0.47461194 0.29835296 0.25222838 0.8691308 0.2440021 0.2607906 0.6374478
0.49949372 0.35079354 0.49481148 0.95934 0.21990287 0.9430871 0.5298548 0.15363282
0.8639783 0.77171195 0.5210277 0.81818545 0.45066386 0.8720403 0.8654293 0.7454036
0.7591959 0.3536386 0.10200846 0.43544656 0.8605814 0.30730104 0.9810487 0.707767
0.09278077 0.37284666 0.7199119 0.73149097 0.21484172 0.18177491 0.6539772 0.6331323
0.0018414259 0.12035298 0.112467706 0.40614796 0.7073099 0.51581275 0.13663757 0.14973217
0.023404956 0.93495196 0.3381046 0.3202045 0.09156108 0.66337687 0.90977573 0.7264468
0.62509894 0.26908088 0.101478994 0.7675615 0.39286882 0.32413894 0.99405354 0.36559856
0.0198915 0.8708026 0.58425367 0.16349757 0.5703299 0.9423722 0.83054006 0.6697048
0.71148646 0.28723508 0.969127 0.74587715 0.5092028 0.051187515 0.40324056 0.5761019
0.37377083 0.72656757 0.041060925 0.7352214 0.66833377 0.49985772 0.6300729 0.7675808
0.7414119 0.101107 0.9953767 0.23988956 0.3740372 0.31684238 0.58090633 0.43242204
0.80931854 0.8620473 0.78024495 0.4150002 0.07052928 0.95291364 0.08512467 0.8884035
0.018517315 0.7397073 0.64276886 0.07168108 0.051440895 0.6055352 0.12189233 0.14114255
0.10522878 0.41317457 0.7336864 0.08378273 0.09400028 0.54426646 0.30781192 0.45123738
0.51817393 0.7298545 0.13646752 0.54473233 0.18914759 0.12854403 0.9506989 0.4296435
0.79701906 0.8015997 0.031197727 0.6660742 0.94989616 0.4466943 0.8508325 0.9746867

bn1.bias f4 [400]
00000000: 0000 0000 0000 0000 0000 0000 0000 0000
00000010: 0000 0000 0000 0000 0000 0000 0000 0000
00000020: 0000 0000 0000 0000 0000 0000 0000 0000
00000030: 0000 0000 0000 0000 0000 0000 0000 0000
00000040: 0000 0000 0000 0000 0000 0000 0000 0000
00000050: 0000 0000 0000 0000 0000 0000 0000 0000
00000060: 0000 0000 0000 0000 0000 0000 0000 0000
00000070: 0000 0000 0000 0000 0000 0000 0000 0000
00000080: 0000 0000 0000 0000 0000 0000 0000 0000
00000090: 0000 0000 0000 0000 0000 0000 0000 0000
000000a0: 0000 0000 0000 0000 0000 0000 0000 0000
000000b0: 0000 0000 0000 0000 0000 0000 0000 0000
000000c0: 0000 0000 0000 0000 0000 0000 0000 0000
000000d0: 0000 0000 0000 0000 0000 0000 0000 0000
000000e0: 0000 0000 0000 0000 0000 0000 0000 0000
000000f0: 0000 0000 0000 0000 0000 0000 0000 0000
00000100: 0000 0000 0000 0000 0000 0000 0000 0000
00000110: 0000 0000 0000 0000 0000 0000 0000 0000
00000120: 0000 0000 0000 0000 0000 0000 0000 0000
00000130: 0000 0000 0000 0000 0000 0000 0000 0000
00000140: 0000 0000 0000 0000 0000 0000 0000 0000
00000150: 0000 0000 0000 0000 0000 0000 0000 0000
00000160: 0000 0000 0000 0000 0000 0000 0000 0000
00000170: 0000 0000 0000 0000 0000 0000 0000 0000
00000180: 0000 0000 0000 0000 0000 0000 0000 0000
00000190: 0000 0000 0000 0000 0000 0000 0000 0000
000001a0: 0000 0000 0000 0000 0000 0000 0000 0000
000001b0: 0000 0000 0000 0000 0000 0000 0000 0000
000001c0: 0000 0000 0000 0000 0000 0000 0000 0000
000001d0: 0000 0000 0000 0000 0000 0000 0000 0000
000001e0: 0000 0000 0000 0000 0000 0000 0000 0000
000001f0: 0000 0000 0000 0000 0000 0000 0000 0000
00000200: 0000 0000 0000 0000 0000 0000 0000 0000
00000210: 0000 0000 0000 0000 0000 0000 0000 0000
00000220: 0000 0000 0000 0000 0000 0000 0000 0000
00000230: 0000 0000 0000 0000 0000 0000 0000 0000
00000240: 0000 0000 0000 0000 0000 0000 0000 0000
00000250: 0000 0000 0000 0000 0000 0000 0000 0000
00000260: 0000 0000 0000 0000 0000 0000 0000 0000
00000270: 0000 0000 0000 0000 0000 0000 0000 0000
00000280: 0000 0000 0000 0000 0000 0000 0000 0000
00000290: 0000 0000 0000 0000 0000 0000 0000 0000
000002a0: 0000 0000 0000 0000 0000 0000 0000 0000
000002b0: 0000 0000 0000 0000 0000 0000 0000 0000
000002c0: 0000 0000 0000 0000 0000 0000 0000 0000
000002d0: 0000 0000 0000 0000 0000 0000 0000 0000
000002e0: 0000 0000 0000 0000 0000 0000 0000 0000
000002f0: 0000 0000 0000 0000 0000 0000 0000 0000
00000300: 0000 0000 0000 0000 0000 0000 0000 0000
00000310: 0000 0000 0000 0000 0000 0000 0000 0000
00000320: 0000 0000 0000 0000 0000 0000 0000 0000
00000330: 0000 0000 0000 0000 0000 0000 0000 0000
00000340: 0000 0000 0000 0000 0000 0000 0000 0000
00000350: 0000 0000 0000 0000 0000 0000 0000 0000
00000360: 0000 0000 0000 0000 0000 0000 0000 0000
00000370: 0000 0000 0000 0000 0000 0000 0000 0000
00000380: 0000 0000 0000 0000 0000 0000 0000 0000
00000390: 0000 0000 0000 0000 0000 0000 0000 0000
000003a0: 0000 0000 0000 0000 0000 0000 0000 0000
000003b0: 0000 0000 0000 0000 0000 0000 0000 0000
000003c0: 0000 0000 0000 0000 0000 0000 0000 0000
000003d0: 0000 0000 0000 0000 0000 0000 0000 0000
000003e0: 0000 0000 0000 0000 0000 0000 0000 0000
000003f0: 0000 0000 0000 0000 0000 0000 0000 0000
0.0 0.0 0.0 0.0 0.0 0.0 0.0 0.0
0.0 0.0 0.0 0.0 0.0 0.0 0.0 0.0
0.0 0.0 0.0 0.0 0.0 0.0 0.0 0.0
0.0 0.0 0.0 0.0 0.0 0.0 0.0 0.0
0.0 0.0 0.0 0.0 0.0 0.0 0.0 0.0
0.0 0.0 0.0 0.0 0.0 0.0 0.0 0.0
0.0 0.0 0.0 0.0 0.0 0.0 0.0 0.0
0.0 0.0 0.0 0.0 0.0 0.0 0.0 0.0
0.0 0.0 0.0 0.0 0.0 0.0 0.0 0.0
0.0 0.0 0.0 0.0 0.0 0.0 0.0 0.0
0.0 0.0 0.0 0.0 0.0 0.0 0.0 0.0
0.0 0.0 0.0 0.0 0.0 0.0 0.0 0.0
0.0 0.0 0.0 0.0 0.0 0.0 0.0 0.0
0.0 0.0 0.0 0.0 0.0 0.0 0.0 0.0
0.0 0.0 0.0 0.0 0.0 0.0 0.0 0.0
0.0 0.0 0.0 0.0 0.0 0.0 0.0 0.0
0.0 0.0 0.0 0.0 0.0 0.0 0.0 0.0
0.0 0.0 0.0 0.0 0.0 0.0 0.0 0.0
0.0 0.0 0.0 0.0 0.0 0.0 0.0 0.0
0.0 0.0 0.0 0.0 0.0 0.0 0.0 0.0
0.0 0.0 0.0 0.0 0.0 0.0 0.0 0.0
0.0 0.0 0.0 0.0 0.0 0.0 0.0 0.0
0.0 0.0 0.0 0.0 0.0 0.0 0.0 0.0
0.0 0.0 0.0 0.0 0.0 0.0 0.0 0.0
0.0 0.0 0.0 0.0 0.0 0.0 0.0 0.0
0.0 0.0 0.0 0.0 0.0 0.0 0.0 0.0
0.0 0.0 0.0 0.0 0.0 0.0 0.0 0.0
0.0 0.0 0.0 0.0 0.0 0.0 0.0 0.0
0.0 0.0 0.0 0.0 0.0 0.0 0.0 0.0
0.0 0.0 0.0 0.0 0.0 0.0 0.0 0.0
0.0 0.0 0.0 0.0 0.0 0.0 0.0 0.0
0.0 0.0 0.0 0.0 0.0 0.0 0.0 0.0

bn1.running_mean f4 [400]
00000000: 0000 0000 0000 0000 0000 0000 0000 0000
00000010: 0000 0000 0000 0000 0000 0000 0000 0000
00000020: 0000 0000 0000 0000 0000 0000 0000 0000
00000030: 0000 0000 0000 0000 0000 0000 0000 0000
00000040: 0000 0000 0000 0000 0000 0000 0000 0000
00000050: 0000 0000 0000 0000 0000 0000 0000 0000
00000060: 0000 0000 0000 0000 0000 0000 0000 0000
00000070: 0000 0000 0000 0000 0000 0000 0000 0000
00000080: 0000 0000 0000 0000 0000 0000 0000 0000
00000090: 0000 0000 0000 0000 0000 0000 0000 0000
000000a0: 0000 0000 0000 0000 0000 0000 0000 0000
000000b0: 0000 0000 0000 0000 0000 0000 0000 0000
000000c0: 0000 0000 0000 0000 0000 0000 0000 0000
000000d0: 0000 0000 0000 0000 0000 0000 0000 0000
000000e0: 0000 0000 0000 0000 0000 0000 0000 0000
000000f0: 0000 0000 0000 0000 0000 0000 0000 0000
00000100: 0000 0000 0000 0000 0000 0000 0000 0000
00000110: 0000 0000 0000 0000 0000 0000 0000 0000
00000120: 0000 0000 0000 0000 0000 0000 0000 0000
00000130: 0000 0000 0000 0000 0000 0000 0000 0000
00000140: 0000 0000 0000 0000 0000 0000 0000 0000
00000150: 0000 0000 0000 0000 0000 0000 0000 0000
00000160: 0000 0000 0000 0000 0000 0000 0000 0000
00000170: 0000 0000 0000 0000 0000 0000 0000 0000
00000180: 0000 0000 0000 0000 0000 0000 0000 0000
00000190: 0000 0000 0000 0000 0000 0000 0000 0000
000001a0: 0000 0000 0000 0000 0000 0000 0000 0000
000001b0: 0000 0000 0000 0000 0000 0000 0000 0000
000001c0: 0000 0000 0000 0000 0000 0000 0000 0000
000001d0: 0000 0000 0000 0000 0000 0000 0000 0000
000001e0: 0000 0000 0000 0000 0000 0000 0000 0000
000001f0: 0000 0000 0000 0000 0000 0000 0000 0000
00000200: 0000 0000 0000 0000 0000 0000 0000 0000
00000210: 0000 0000 0000 0000 0000 0000 0000 0000
00000220: 0000 0000 0000 0000 0000 0000 0000 0000
00000230: 0000 0000 0000 0000 0000 0000 0000 0000
00000240: 0000 0000 0000 0000 0000 0000 0000 0000
00000250: 0000 0000 0000 0000 0000 0000 0000 0000
00000260: 0000 0000 0000 0000 0000 0000 0000 0000
00000270: 0000 0000 0000 0000 0000 0000 0000 0000
00000280: 0000 0000 0000 0000 0000 0000 0000 0000
00000290: 0000 0000 0000 0000 0000 0000 0000 0000
000002a0: 0000 0000 0000 0000 0000 0000 0000 0000
000002b0: 0000 0000 0000 0000 0000 0000 0000 0000
000002c0: 0000 0000 0000 0000 0000 0000 0000 0000
000002d0: 0000 0000 0000 0000 0000 0000 0000 0000
000002e0: 0000 0000 0000 0000 0000 0000 0000 0000
000002f0: 0000 0000 0000 0000 0000 0000 0000 0000
00000300: 0000 0000 0000 0000 0000 0000 0000 0000
00000310: 0000 0000 0000 0000 0000 0000 0000 0000
00000320: 0000 0000 0000 0000 0000 0000 0000 0000
00000330: 0000 0000 0000 0000 0000 0000 0000 0000
00000340: 0000 0000 0000 0000 0000 0000 0000 0000
00000350: 0000 0000 0000 0000 0000 0000 0000 0000
00000360: 0000 0000 0000 0000 0000 0000 0000 0000
00000370: 0000 0000 0000 0000 0000 0000 0000 0000
00000380: 0000 0000 0000 0000 0000 0000 0000 0000
00000390: 0000 0000 0000 0000 0000 0000 0000 0000
000003a0: 0000 0000 0000 0000 0000 0000 0000 0000
000003b0: 0000 0000 0000 0000 0000 0000 0000 0000
000003c0: 0000 0000 0000 0000 0000 0000 0000 0000
000003d0: 0000 0000 0000 0000 0000 0000 0000 0000
000003e0: 0000 0000 0000 0000 0000 0000 0000 0000
000003f0: 0000 0000 0000 0000 0000 0000 0000 0000
0.0 0.0 0.0 0.0 0.0 0.0 0.0 0.0
0.0 0.0 0.0 0.0 0.0 0.0 0.0 0.0
0.0 0.0 0.0 0.0 0.0 0.0 0.0 0.0
0.0 0.0 0.0 0.0 0.0 0.0 0.0 0.0
0.0 0.0 0.0 0.0 0.0 0.0 0.0 0.0
0.0 0.0 0.0 0.0 0.0 0.0 0.0 0.0
0.0 0.0 0.0 0.0 0.0 0.0 0.0 0.0
0.0 0.0 0.0 0.0 0.0 0.0 0.0 0.0
0.0 0.0 0.0 0.0 0.0 0.0 0.0 0.0
0.0 0.0 0.0 0.0 0.0 0.0 0.0 0.0
0.0 0.0 0.0 0.0 0.0 0.0 0.0 0.0
0.0 0.0 0.0 0.0 0.0 0.0 0.0 0.0
0.0 0.0 0.0 0.0 0.0 0.0 0.0 0.0
0.0 0.0 0.0 0.0 0.0 0.0 0.0 0.0
0.0 0.0 0.0 0.0 0.0 0.0 0.0 0.0
0.0 0.0 0.0 0.0 0.0 0.0 0.0 0.0
0.0 0.0 0.0 0.0 0.0 0.0 0.0 0.0
0.0 0.0 0.0 0.0 0.0 0.0 0.0 0.0
0.0 0.0 0.0 0.0 0.0 0.0 0.0 0.0
0.0 0.0 0.0 0.0 0.0 0.0 0.0 0.0
0.0 0.0 0.0 0.0 0.0 0.0 0.0 0.0
0.0 0.0 0.0 0.0 0.0 0.0 0.0 0.0
0.0 0.0 0.0 0.0 0.0 0.0 0.0 0.0
0.0 0.0 0.0 0.0 0.0 0.0 0.0 0.0
0.0 0.0 0.0 0.0 0.0 0.0 0.0 0.0
0.0 0.0 0.0 0.0 0.0 0.0 0.0 0.0
0.0 0.0 0.0 0.0 0.0 0.0 0.0 0.0
0.0 0.0 0.0 0.0 0.0 0.0 0.0 0.0
0.0 0.0 0.0 0.0 0.0 0.0 0.0 0.0
0.0 0.0 0.0 0.0 0.0 0.0 0.0 0.0
0.0 0.0 0.0 0.0 0.0 0.0 0.0 0.0
0.0 0.0 0.0 0.0 0.0 0.0 0.0 0.0

bn1.running_var f4 [400]
00000000: 0000 803f 0000 803f 0000 803f 0000 803f
00000010: 0000 803f 0000 803f 0000 803f 0000 803f
00000020: 0000 803f 0000 803f 0000 803f 0000 803f
00000030: 0000 803f 0000 803f 0000 803f 0000 803f
00000040: 0000 803f 0000 803f 0000 803f 0000 803f
00000050: 0000 803f 0000 803f 0000 803f 0000 803f
00000060: 0000 803f 0000 803f 0000 803f 0000 803f
00000070: 0000 803f 0000 803f 0000 803f 0000 803f
00000080: 0000 803f 0000 803f 0000 803f 0000 803f
00000090: 0000 803f 0000 803f 0000 803f 0000 803f
000000a0: 0000 803f 0000 803f 0000 803f 0000 803f
000000b0: 0000 803f 0000 803f 0000 803f 0000 803f
000000c0: 0000 803f 0000 803f 0000 803f 0000 803f
000000d0: 0000 803f 0000 803f 0000 803f 0000 803f
000000e0: 0000 803f 0000 803f 0000 803f 0000 803f
000000f0: 0000 803f 0000 803f 0000 803f 0000 803f
00000100: 0000 803f 0000 803f 0000 803f 0000 803f
00000110: 0000 803f 0000 803f 0000 803f 0000 803f
00000120: 0000 803f 0000 803f 0000 803f 0000 803f
00000130: 0000 803f 0000 803f 0000 803f 0000 803f
00000140: 0000 803f 0000 803f 0000 803f 0000 803f
00000150: 0000 803f 0000 803f 0000 803f 0000 803f
00000160: 0000 803f 0000 803f 0000 803f 0000 803f
00000170: 0000 803f 0000 803f 0000 803f 0000 803f
00000180: 0000 803f 0000 803f 0000 803f 0000 803f
00000190: 0000 803f 0000 803f 0000 803f 0000 803f
000001a0: 0000 803f 0000 803f 0000 803f 0000 803f
000001b0: 0000 803f 0000 803f 0000 803f 0000 803f
000001c0: 0000 803f 0000 803f 0000 803f 0000 803f
000001d0: 0000 803f 0000 803f 0000 803f 0000 803f
000001e0: 0000 803f 0000 803f 0000 803f 0000 803f
000001f0: 0000 803f 0000 803f 0000 803f 0000 803f
00000200: 0000 803f 0000 803f 0000 803f 0000 803f
00000210: 0000 803f 0000 803f 0000 803f 0000 803f
00000220: 0000 803f 0000 803f 0000 803f 0000 803f
00000230: 0000 803f 0000 803f 0000 803f 0000 803f
00000240: 0000 803f 0000 803f 0000 803f 0000 803f
00000250: 0000 803f 0000 803f 0000 803f 0000 803f
00000260: 0000 803f 0000 803f 0000 803f 0000 803f
00000270: 0000 803f 0000 803f 0000 803f 0000 803f
00000280: 0000 803f 0000 803f 0000 803f 0000 803f
00000290: 0000 803f 0000 803f 0000 803f 0000 803f
000002a0: 0000 803f 0000 803f 0000 803f 0000 803f
000002b0: 0000 803f 0000 803f 0000 803f 0000 803f
000002c0: 0000 803f 0000 803f 0000 803f 0000 803f
000002d0: 0000 803f 0000 803f 0000 803f 0000 803f
000002e0: 0000 803f 0000 803f 0000 803f 0000 803f
000002f0: 0000 803f 0000 803f 0000 803f 0000 803f
00000300: 0000 803f 0000 803f 0000 803f 0000 803f
00000310: 0000 803f 0000 803f 0000 803f 0000 803f
00000320: 0000 803f 0000 803f 0000 803f 0000 803f
00000330: 0000 803f 0000 803f 0000 803f 0000 803f
00000340: 0000 803f 0000 803f 0000 803f 0000 803f
00000350: 0000 803f 0000 803f 0000 803f 0000 803f
00000360: 0000 803f 0000 803f 0000 803f 0000 803f
00000370: 0000 803f 0000 803f 0000 803f 0000 803f
00000380: 0000 803f 0000 803f 0000 803f 0000 803f
00000390: 0000 803f 0000 803f 0000 803f 0000 803f
000003a0: 0000 803f 0000 803f 0000 803f 0000 803f
000003b0: 0000 803f 0000 803f 0000 803f 0000 803f
000003c0: 0000 803f 0000 803f 0000 803f 0000 803f
000003d0: 0000 803f 0000 803f 0000 803f 0000 803f
000003e0: 0000 803f 0000 803f 0000 803f 0000 803f
000003f0: 0000 803f 0000 803f 0000 803f 0000 803f
1.0 1.0 1.0 1.0 1.0 1.0 1.0 1.0
1.0 1.0 1.0 1.0 1.0 1.0 1.0 1.0
1.0 1.0 1.0 1.0 1.0 1.0 1.0 1.0
1.0 1.0 1.0 1.0 1.0 1.0 1.0 1.0
1.0 1.0 1.0 1.0 1.0 1.0 1.0 1.0
1.0 1.0 1.0 1.0 1.0 1.0 1.0 1.0
1.0 1.0 1.0 1.0 1.0 1.0 1.0 1.0
1.0 1.0 1.0 1.0 1.0 1.0 1.0 1.0
1.0 1.0 1.0 1.0 1.0 1.0 1.0 1.0
1.0 1.0 1.0 1.0 1.0 1.0 1.0 1.0
1.0 1.0 1.0 1.0 1.0 1.0 1.0 1.0
1.0 1.0 1.0 1.0 1.0 1.0 1.0 1.0
1.0 1.0 1.0 1.0 1.0 1.0 1.0 1.0
1.0 1.0 1.0 1.0 1.0 1.0 1.0 1.0
1.0 1.0 1.0 1.0 1.0 1.0 1.0 1.0
1.0 1.0 1.0 1.0 1.0 1.0 1.0 1.0
1.0 1.0 1.0 1.0 1.0 1.0 1.0 1.0
1.0 1.0 1.0 1.0 1.0 1.0 1.0 1.0
1.0 1.0 1.0 1.0 1.0 1.0 1.0 1.0
1.0 1.0 1.0 1.0 1.0 1.0 1.0 1.0
1.0 1.0 1.0 1.0 1.0 1.0 1.0 1.0
1.0 1.0 1.0 1.0 1.0 1.0 1.0 1.0
1.0 1.0 1.0 1.0 1.0 1.0 1.0 1.0
1.0 1.0 1.0 1.0 1.0 1.0 1.0 1.0
1.0 1.0 1.0 1.0 1.0 1.0 1.0 1.0
1.0 1.0 1.0 1.0 1.0 1.0 1.0 1.0
1.0 1.0 1.0 1.0 1.0 1.0 1.0 1.0
1.0 1.0 1.0 1.0 1.0 1.0 1.0 1.0
1.0 1.0 1.0 1.0 1.0 1.0 1.0 1.0
1.0 1.0 1.0 1.0 1.0 1.0 1.0 1.0
1.0 1.0 1.0 1.0 1.0 1.0 1.0 1.0
1.0 1.0 1.0 1.0 1.0 1.0 1.0 1.0
