continuous_control/models/critic_200.pth (torch_old, 562249 bytes, 21 tensors)

fcs1.weight f4 [400, 33]
000000 f5 f5 cd bb a9 bf 9d 3b aa 01 ca 3b b8 e8 62 bd
       -0.006285424 0.0048141074 0.006164749 -0.05539772
000010 1c 83 16 3d bc 21 ed bc d2 78 12 3c 20 e0 af 3b
       0.03674613 -0.02894675 0.008939939 0.005367294
000020 ca 3d 02 bd d7 20 22 3d 25 a4 da 3b 10 d0 4d 3c
       -0.031797208 0.0395821 0.0066723996 0.012561813
000030 53 c2 49 bd d1 03 7e bb ba 40 2c 3d ae c1 c0 3c
       -0.049257588 -0.00387596 0.042053916 0.023529854
000040 a3 93 e7 3c e7 7e a9 bc 5a 17 b1 bb 2a d0 7c ba
       0.02826864 -0.020690395 -0.005404395 -0.0009644056
000050 9a 21 30 3c 90 6a 91 3c a4 99 c7 3a 8d c8 c1 3c
       0.010750199 0.017751008 0.0015228284 0.0236552
000060 28 66 41 bc 12 c8 07 bc 18 49 17 bc 74 c3 44 3c
       -0.011804141 -0.008287447 -0.0092337355 0.01200949
000070 61 b4 1a bc 44 58 61 00 74 c3 44 bc 60 82 e7 80
       -0.00944242 8.939707e-39 -0.01200949 -2.126077e-38
000080 ec 5d 2b 3d ad ff e5 37 3c fe 3d 3b 41 0d d4 b9
       0.041837618 2.7417986e-05 0.0028990647 -0.00040445666
000090 d0 15 0c 37 3e 00 bb ba 6f 63 55 bb 43 f5 36 3b
       8.349729e-06 -0.001426704 -0.0032560488 0.0027917183
0000a0 77 71 d2 b9 1f 29 1b bb 48 77 dc b9 c0 e3 76 38
       -0.0004013886 -0.0023675633 -0.0004205054 5.886308e-05
0000b0 e4 66 f3 3a 88 42 fd 3a 58 6a d9 b9 b5 df 98 3b
       0.0018570093 0.0019322196 -0.00041468698 0.00466534
0000c0 fc 45 f7 39 a6 c4 2e 3a 4e f3 9d 39 c2 50 39 3a
       0.00047163654 0.0006666876 0.0003012665 0.0007069224
0000d0 f8 f1 97 3a c8 9a 8c 3a 5c cf f6 ba 72 46 4f ba
       0.0011592498 0.0010727281 -0.0018830108 -0.00079069205
0000e0 76 9e 01 bb a9 16 95 3a 87 2e 11 3a dd 48 a5 3a
       -0.0019778288 0.0011374551 0.0005538244 0.0012610216
0000f0 b8 4e 8f 3b de 24 9a b9 ca da 13 80 b8 4e 8f bb
       0.0043733977 -0.00029400637 -1.823361e-39 -0.0043733977
000100 80 27 73 01 d5 46 67 ba 25 5b 43 bd 52 ac 68 bb
       4.466039e-38 -0.00088225055 -0.047694344 -0.0035503102
000110 cf 92 1b bc af b3 84 3c 8c 18 cd 3c b6 c9 11 ba
       -0.009495451 0.016198961 0.025036119 -0.00055613683
000120 e2 82 7d 3c 00 a1 4d b9 76 02 c6 bc ac df b7 bc
       0.015473099 -0.000196103 -0.024171095 -0.022445522
000130 29 bc 45 bd 58 06 36 bd 20 aa bb 3a 8d 05 bd 3c
       -0.048275147 -0.044439644 0.0014317669 0.023073936
000140 2a 4f 22 3d 04 5b d7 3b 9d 2a f7 3c e1 af c0 bb
       0.039626278 0.006572129 0.030171687 -0.0058803414
000150 92 1b c5 3b 3a 61 8a bb f3 4b f0 bb 16 cb 65 3c
       0.0060152495 -0.004223016 -0.0073332726 0.01402547
000160 9f 1b ad bc 85 88 ac 3c bf 03 d9 3c c6 8d 4f 3c
       -0.021131335 0.021061191 0.026491044 0.012668079
000170 5e d4 97 bc b4 b1 cc bb 3f 8a 46 3c 56 c1 56 81
       -0.018533882 -0.00624677 0.012117921 -3.9444304e-38
000180 b4 b1 cc 3b 8f 7f 03 01 2b 94 99 bc bd 7f 3a 3a
       0.00624677 2.415242e-38 -0.01874741 0.00071143714
000190 93 39 f4 3a 39 e0 11 bb 21 3a 83 39 ff 63 d4 b9
       0.0018632881 -0.0022258891 0.00025029576 -0.00040510294
0001a0 c3 53 db b9 88 1b 3b ba 54 6d 9f 3a 1b 1f 26 3a
       -0.00041833342 -0.00071375864 0.001216332 0.00063370325
0001b0 06 10 85 38 9f 2f 40 b9 74 e2 49 b9 79 5e c6 3a
       6.344919e-05 -0.00018328287 -0.00019253214 0.0015134356
0001c0 2e 65 7c ba c1 58 97 3b cb 2a 7a ba 2b 1b 39 ba
       -0.0009628114 0.0046187346 -0.000954312 -0.0007061238
0001d0 e7 c7 70 3a 2a 95 70 ba c5 91 8f 3a 44 b9 25 b8
       0.0009185061 -0.00091775006 0.0010953477 -3.9511608e-05
0001e0 91 98 22 b9 7a 25 00 ba 32 11 4d ba 69 f4 2a 3a
       -0.0001550636 -0.0004888397 -0.00078226917 0.00065214053
0001f0 16 8d 89 3a 38 5c ee b9 90 4b 8a 3b 60 61 f5 39
       0.0010494317 -0.00045463606 0.0042204335 0.00046802592
000200 f9 5d 96 81 90 4b 8a bb c0 20 aa 01 88 01 f3 b8
       -5.523614e-38 -0.0042204335 6.249513e-38 -0.00011587428
000210 37 4b 09 bb f2 ae 37 3b d1 4e ed b9 58 3a c3 ba
       -0.0020949373 0.002802786 -0.00045262885 -0.0014894707
000220 76 b2 36 b9 10 8b f0 3a 95 3d 1b 3a aa 66 45 3b
       -0.00017423354 0.0018351991 0.0005921957 0.0030121007
000230 7b 7d a4 3a f4 84 f8 ba 84 ac b2 b9 81 9a 55 bb
       0.0012549603 -0.0018960522 -0.0003407934 -0.0032593312
000240 fb b7 b9 3b f1 84 e3 b9 5a e9 ee 3b 2c b9 8f 3a
       0.005667684 -0.00043395863 0.0072910013 0.001096522
000250 f2 68 ff b9 41 c1 87 b9 a9 f2 62 39 9f 5d 83 3a
       -0.0004871558 -0.00025893192 0.00021643438 0.0010022408
000260 7b b7 a3 b9 a3 90 1c 3a 7b 39 47 bb 69 fc 50 3b
       -0.00031226486 0.000597248 -0.0030399251 0.003188873
000270 0e 79 37 3a 11 12 6b 3a 6d db 5d 3a 81 c1 9b 3b
       0.00069989346 0.00089672307 0.0008463178 0.004753292
000280 9d d7 24 ba 35 48 0d 01 81 c1 9b bb 08 80 97 80
       -0.00062882324 2.5949416e-38 -0.004753292 -1.3913089e-38
000290 00 0a ad ba 37 d2 22 3a be d9 89 3b 1b be 77 3a
       -0.0013201833 0.0006211134 0.004206865 0.000945063
0002a0 68 fc b4 ba 02 59 0e 3a 57 ae b6 38 ee fa a0 37
       -0.0013808133 0.00054301333 8.7109096e-05 1.9190335e-05
0002b0 f7 44 13 3b 8a 41 d9 3a 5d ba 7a b9 87 61 0b 3b
       0.0022471526 0.0016575318 -0.00023911284 0.0021267848
0002c0 ba 62 a0 b9 a3 97 02 ba f0 3e 44 ba 13 bc f5 3b
       -0.00030591135 -0.0004981702 -0.0007486185 0.007499227
0002d0 13 81 d0 39 35 26 8a ba fd 2a 9f 3a b7 e4 69 ba
       0.0003976902 -0.0010539951 0.0012143549 -0.0008922326
0002e0 d7 8b c7 ba c5 ee a7 ba 12 74 3c 3b 51 19 1e ba
       -0.0015224171 -0.0012812248 0.0028755707 -0.0006030994
0002f0 34 fa 43 3a 47 6b c7 ba d9 b2 51 ba 6a cc e5 39
       0.0007475943 -0.0015214466 -0.00079993677 0.00043830584
000300 63 b6 d1 3b c4 a7 6a ba 18 54 93 01 63 b6 d1 bb
       0.006399916 -0.00089513906 5.411994e-38 -0.006399916
000310 bd d3 bd 01 4c 48 1c bb 02 f2 9e b9 0f 38 53 3b
       6.9731465e-38 -0.0023846803 -0.00030316418 0.0032229458
000320 45 66 b9 ba 00 08 bb 37 b4 5c 9f b9 6a 34 2b 3a
       -0.0014144859 2.2295862e-05 -0.00030395912 0.00065309426
000330 da 05 59 3a 2d 39 3d 3b d5 1b 37 ba 00 96 6e b9
       0.0008278765 0.002887319 -0.00069850433 -0.00022753328
000340 03 14 d7 ba 7e 0f c0 b9 e5 b6 07 b8 8c b9 5e b9
       -0.0016409162 -0.00036632636 -3.2356842e-05 -0.00021240691
000350 eb 50 ae 3b ca 95 42 ba b2 8f f0 b8 9f d4 96 39
       0.005319705 -0.0007422833 -0.00011470857 0.00028768645
000360 5a 4c a9 b8 7c 3e 3a 39 e6 d5 fc 39 b4 3e 98 39
       -8.0727696e-05 0.0001776162 0.00048224552 0.00029038417
000370 34 8f 58 3a 2c 3b fd 39 0f f9 22 38 2c eb cf 3a
       0.0008261085 0.00048300007 3.8855764e-05 0.0015862933
000380 ff 23 92 b9 aa 83 80 3b 3b 7c 70 3a e6 06 21 81
       -0.0002787411 0.0039219456 0.0009173785 -2.957598e-38
000390 aa 83 80 bb 0e dd 87 81 31 32 a5 b9 28 d8 91 bc
       -0.0039219456 -4.9908366e-38 -0.00031508648 -0.017803267
0003a0 79 69 5f 3d f0 37 ea bc 46 3d 63 3c dd 7c 56 3b
       0.054543946 -0.028591126 0.013869589 0.0032728233
0003b0 95 81 d0 bc 88 26 b9 bc f4 e4 c3 3b 37 e4 25 bc
       -0.025452415 -0.022601381 0.005978221 -0.010125211
0003c0 43 a1 01 bd 97 91 8a 3c 8f 28 ac 3c ae ea 19 3c
       -0.03164793 0.016915126 0.021015434 0.009394331
0003d0 e7 2d 6b bd d2 bc 23 3d 1c 25 27 bd fa bc 0e bc
       -0.057416823 0.039974995 -0.040806875 -0.008712048
0003e0 77 56 4d bd 2e 1a f5 bc fd 74 03 bd 5e 40 4f bc
       -0.050131287 -0.02991971 -0.03209399 -0.012649624
0003f0 06 0d d7 bb e4 77 00 3b 02 a7 ca 3c 1c 68 0f bc
       -0.006562832 0.001960271 0.024737839 -0.008752849

fcs1.bias f4 [400]
000000 69 c3 44 bc b8 4e 8f bb a8 b1 cc 3b 90 4b 8a bb
       -0.01200948 -0.0043733977 0.006246764 -0.0042204335
000010 80 c1 9b bb 62 b6 d1 bb ab 83 80 bb 37 ff 11 bd
       -0.0047532916 -0.0063999156 -0.003921946 -0.035643782
000020 b7 8e 14 bb 5f 49 98 bb 46 92 43 bd 0a 16 2f bc
       -0.0022668072 -0.0046474184 -0.04774692 -0.010686407
000030 2f 0e d2 bb f9 02 25 bd eb 02 61 bb f9 4f 6b bc
       -0.006410382 -0.040286038 -0.0034334015 -0.014362329
000040 4f d5 c7 bb 38 79 b1 bb b1 bd 82 3c c1 26 1c 3c
       -0.0060984264 -0.0054160617 0.015959593 0.009530724
000050 a1 47 dc ba 06 2a 0f bb 51 4e 5a bc b5 f4 8d bd
       -0.0016806015 -0.0021845116 -0.013324336 -0.0693144
000060 07 ce db bb a7 0f 52 3c a7 01 b6 bc 70 30 f1 bc
       -0.00670791 0.012821115 -0.022217585 -0.029442042
000070 fb d0 1b bb dd 9b a6 bb ac d1 23 3d 23 a7 9f bb
       -0.0023775685 -0.0050844983 0.03999488 -0.004872219
000080 34 72 5b 3c 6a fe a8 bb 83 bb b3 bb 03 04 9a bb
       0.013393927 -0.0051572816 -0.0054849996 -0.0047001853
000090 7f 9b fb bb 67 03 91 bb 1a 44 a1 bb ca 81 01 bd
       -0.0076784487 -0.0044254544 -0.0049214484 -0.031617917
0000a0 e3 71 79 3c 81 a0 05 bd 01 75 b0 bb e0 7f ba bb
       0.015224907 -0.03262377 -0.0053850417 -0.0056915134
0000b0 e1 a6 1c bb c6 2a 5a bb 94 95 a5 bb bd 44 dc bb
       -0.0023903179 -0.0033289655 -0.0050532315 -0.0067220614
0000c0 42 f6 72 bb 08 ff 78 bc 77 c5 9c 3a c7 82 88 bb
       -0.003707305 -0.015197523 0.0011960705 -0.0041659805
0000d0 31 f9 43 3c 90 da a4 bb 1e 5d 32 bb 44 67 ba ba
       0.011961267 -0.0050309375 -0.0027216147 -0.0014221449
0000e0 a4 a6 97 bc 03 21 ae 3b 44 58 8d 3b ce a0 00 bc
       -0.018512078 0.005313994 0.0043135006 -0.007850839
0000f0 6a 57 91 3c a2 27 54 3c 7e c5 50 3c 5b c4 65 bb
       0.017741878 0.012948902 0.012742398 -0.0035059664
000100 1f bd cc bb e5 63 85 bb 24 f5 62 bb 02 c5 09 bb
       -0.006248131 -0.0040707462 -0.0034630978 -0.0021021967
000110 25 a0 f0 bc 64 5e 3c bc 16 a3 90 bc 40 37 f8 bb
       -0.029373238 -0.011497114 -0.01765589 -0.0075749457
000120 c0 76 47 bb 05 ff 84 bb a5 c8 87 bb bb c3 a3 bb
       -0.003043577 -0.004058721 -0.0041437917 -0.004997698
000130 c4 11 b0 bb 9a 6f 72 bd 80 06 4f bb d1 31 af bb
       -0.0053732116 -0.059188463 -0.0031589568 -0.0053465148
000140 28 fa 9a bb e4 45 f8 bb ed c3 99 bc 72 00 ba bc
       -0.004729528 -0.007576691 -0.018770183 -0.02270529
000150 e3 60 a1 bb d3 cb 6b bb 28 ca 13 bb b7 88 6c bb
       -0.00492488 -0.0035979643 -0.0022550914 -0.003609223
000160 f9 6c 97 bb bd 31 53 bc e3 dd 3d bb fa 30 04 bd
       -0.004621145 -0.0128902765 -0.0028971366 -0.03227327
000170 4c b2 a6 bb 2a 14 2c bb 60 8a 90 bc 5e 91 8f bc
       -0.0050871726 -0.0026257136 -0.017644107 -0.017525371
000180 be 51 28 bb 59 47 90 b9 1d e0 83 bc 7e 96 99 bb
       -0.0025683488 -0.00027518978 -0.016098076 -0.0046871295
000190 71 9d a9 bb 06 1e 82 bb fd 9b 0a bb cb 33 04 bb
       -0.005176239 -0.003970864 -0.0021150105 -0.0020172473
0001a0 07 f0 c4 bc f3 c6 fd bb d3 0f 81 bb cf df 05 ba
       -0.024040235 -0.007744664 -0.003938654 -0.00051068974
0001b0 aa 9a f7 bc d0 8c 21 3b 62 92 3f 3c 52 b4 13 bc
       -0.030225117 0.0024650581 0.011692615 -0.00901516
0001c0 bb dd ec bb e2 29 8d bc 2c c0 00 bd fa e1 4e bd
       -0.007228581 -0.017231885 -0.03143327 -0.050508477
0001d0 b8 2c 33 bc 76 81 e1 ba 20 e4 cf bc 53 09 27 bb
       -0.010935955 -0.001720472 -0.025377333 -0.0025487735
0001e0 72 85 1b bb 44 22 6b bc f8 82 83 bb 65 ba 0c bc
       -0.0023730663 -0.014351431 -0.0040134154 -0.008589362
0001f0 7c 6a 78 bb c0 1c 2d bb 2d 8d 48 bc a5 a9 97 bb
       -0.0037905267 -0.0026414841 -0.01224069 -0.0046283775
000200 e6 4e cf 3b 18 46 73 bb 84 28 b2 bb f0 27 bb bb
       0.006326544 -0.0037120637 -0.0054369587 -0.005711548
000210 28 55 43 bb 23 4c b7 3c f1 da 58 bc 53 53 52 bb
       -0.0029805396 0.022375172 -0.013235793 -0.0032093122
000220 b9 cd 83 bd 9d f2 90 bb c7 a5 df bb 95 64 b5 bb
       -0.06435723 -0.004423453 -0.006825182 -0.005535672
000230 32 dd 8a bc 9b ff 31 bc e1 13 35 39 65 e6 96 bb
       -0.016951177 -0.010864164 0.0001726891 -0.004605102
000240 80 0c 04 bd 3e 00 5b bb 71 1f e4 bb 0c c2 f0 bb
       -0.032238483 -0.0033416892 -0.006961756 -0.007347351
000250 bb 15 dd bc 96 37 a5 bb 21 76 63 bb 37 0a 7b bb
       -0.026987901 -0.0050420268 -0.0034707861 -0.003830565
000260 50 98 c3 bb b5 45 5b bb 8a 39 99 bc 9a 48 94 bc
       -0.005969085 -0.0033458297 -0.018704195 -0.018101025
000270 88 1c 51 bb cb 6a 38 bc e5 5a 62 bb c8 80 42 3a
       -0.0031907875 -0.01125593 -0.003453904 0.00074197026
000280 3f 21 1c bc 4c a8 db 3b 7d 6c 76 bb 57 3c c5 bb
       -0.009529411 0.006703412 -0.0037601285 -0.006019156
000290 19 19 fd bc 64 7c 83 bb de 04 66 bc b7 f5 06 bb
       -0.030895757 -0.0040126313 -0.014039246 -0.0020593235
0002a0 a5 f7 0a bb 5e 0d 43 bb 6a 8a 0c bd ab e6 13 bb
       -0.0021204737 -0.0029762606 -0.03431169 -0.0022567909
0002b0 3c 08 81 3c 0c e7 04 bd 57 c1 d1 bb 87 1d 0f bb
       0.015750997 -0.032446906 -0.0064012217 -0.0021837668
0002c0 fe 69 9f bc d5 98 b0 3c f4 7f c7 bb 45 c5 2c bb
       -0.01945972 0.021557251 -0.0060882512 -0.00263627
0002d0 1f 9d 42 bd b6 22 41 bc b2 5b 0d 3d 39 46 f8 bc
       -0.047513124 -0.011788061 0.034511276 -0.030306922
0002e0 7d cb 99 bb 41 f9 98 bc b7 ce 7d bc 12 77 a7 bb
       -0.004693447 -0.018673541 -0.015491179 -0.00511063
0002f0 64 95 10 bc de 61 90 bb 6a e4 d5 bb 96 c6 81 bc
       -0.00882468 -0.004406198 -0.006527473 -0.015841763
000300 02 37 84 bd 55 42 42 3b c8 de 7c bb 25 29 4a 3b
       -0.064558044 0.0029641588 -0.0038584936 0.0030847278
000310 bc 4b 4c bb af d7 33 3b 78 d3 0c bb 6e 78 aa bb
       -0.003117307 0.002744179 -0.002148835 -0.0052023446
000320 ca fd d9 ba 5d 9d b5 bb 51 07 ae bb 84 3e 6b bb
       -0.0016631421 -0.005542441 -0.005310931 -0.0035895417
000330 19 88 c2 bb e4 bb 83 bb 7a 20 e9 bb 7a 90 a2 ba
       -0.0059366343 -0.004020201 -0.007114467 -0.0012402677
000340 21 63 5c bb ac 3d 49 bc 08 d7 29 bb 5f ca 71 bc
       -0.0033628421 -0.01228277 -0.0025915522 -0.014757722
000350 21 d9 58 bb 5e c5 58 bb 3b af 19 bc 15 87 20 bb
       -0.0033088403 -0.0033076624 -0.009380157 -0.0024494578
000360 6a c6 77 bc d6 57 da 3c 3a 18 b8 bc c4 2c 91 bb
       -0.015122989 0.026653212 -0.02247249 -0.0044303853
000370 2e ac f2 bc 4f 74 be bb 79 21 8f bb 2a 50 df ba
       -0.029623117 -0.005812205 -0.004368004 -0.001703744
000380 2d 40 9e 3c d7 79 8c bb 74 8b 69 bb 1f 59 85 bb
       0.01931771 -0.0042869854 -0.00356361 -0.004069462
000390 3c 4d a0 ba 1b 27 dc bc db 8f c2 bb 17 4d 95 bc
       -0.0012230049 -0.026874116 -0.005937559 -0.018225236
0003a0 7e 20 96 bb 1a 5d 84 bb 11 a0 d8 bb 1f f4 7d bb
       -0.00458151 -0.004039419 -0.0066108783 -0.0038750244
0003b0 f9 d0 f7 bc 60 db a8 bc d2 6c fa ba 9b 4f 06 bd
       -0.030251013 -0.020612419 -0.0019105917 -0.03279076
0003c0 15 dd ac 3c 2e 2e d3 bc f5 4d 91 bc f5 6e 1d bb
       0.021101514 -0.025778856 -0.017737368 -0.0024022434
0003d0 a8 b9 ef bb fe d1 e7 bb 0e bd a1 bb cd b9 a1 bb
       -0.007315833 -0.0070745936 -0.004935867 -0.0049354793
0003e0 41 70 b5 bb a3 05 e6 bc 9d a5 65 bb b8 80 ac bb
       -0.0055370633 -0.02807886 -0.003504134 -0.005264368
0003f0 9f d1 b7 bb b3 58 7d bb 7c 78 fa bc 12 81 f8 bb
       -0.0056097056 -0.0038657605 -0.03057503 -0.0075837458

fc2.weight f4 [300, 404]
000000 57 72 a3 81 d0 b5 4e 00 82 fe 4e 01 7c 76 4e 01
       -6.0040813e-38 7.228391e-39 3.8018825e-38 3.7921233e-38
000010 64 e1 5a 01 b8 d0 86 01 f0 43 35 00 2b 1e a2 01
       4.0201986e-38 4.952332e-38 4.891653e-39 5.955269e-38
000020 44 cd 6a 81 71 d5 ac 80 fc b4 9f 81 da 66 94 80
       -4.3126283e-38 -1.5872274e-38 -5.8667075e-38 -1.362855e-38
000030 1c fc b6 01 c9 90 ad 01 0e 43 0c 01 5e d2 8b 81
       6.7218e-38 6.375792e-38 2.5762048e-38 -5.13624e-38
000040 70 a2 fc 00 d8 cc e4 80 96 ad b5 81 61 d9 bb 80
       2.3200817e-38 -2.1011977e-38 -6.6737983e-38 -1.7251219e-38
000050 dc ba 75 00 70 05 32 80 a0 d9 5c 00 da 5c 16 80
       1.0811786e-38 -4.593725e-39 8.526935e-39 -2.05369e-39
000060 70 19 63 81 b6 91 57 01 dd 7d 8f 81 71 7b 72 00
       -4.1711566e-38 3.9593806e-38 -5.271051e-38 1.0513529e-38
000070 54 d0 17 00 ee 09 10 81 9e e7 8c 81 84 8f 25 01
       2.18695e-39 -2.6455747e-38 -5.176023e-38 3.040868e-38
000080 89 d7 05 81 a4 d9 b1 01 10 ab 6e 81 10 ae 6f 81
       -2.458288e-38 6.533183e-38 -4.3836427e-38 -4.402225e-38
000090 ac 8b 3c 81 ca df ba 01 d0 b2 79 80 c8 b9 b0 81
       -3.4630356e-38 6.864673e-38 -1.1176241e-38 -6.491877e-38
0000a0 5c 02 1f 01 53 53 3a 80 48 37 35 81 48 e6 8a 01
       2.920538e-38 -5.35635e-39 -3.3284112e-38 5.102363e-38
0000b0 88 7b bb 80 e6 06 83 81 d8 1a 3c 81 37 ce 96 81
       -1.7217552e-38 -4.81317e-38 -3.4549406e-38 -5.53972e-38
0000c0 5b 74 ec 80 3e 70 86 80 cc ea 05 81 48 15 3e 01
       -2.1714918e-38 -1.2346221e-38 -2.45967e-38 3.4912757e-38
0000d0 8e 9c af 01 70 6e 97 01 7c bf 05 81 08 c1 d0 80
       6.450949e-38 5.562711e-38 -2.4565625e-38 -1.917103e-38
0000e0 31 2d c0 80 1a 68 31 81 13 a5 52 81 9b bf 16 01
       -1.7648627e-38 -3.2584455e-38 -3.8689343e-38 2.768812e-38
0000f0 31 e1 a1 81 56 cf 5e 01 ee 67 a2 81 9b b3 a9 81
       -5.9465193e-38 4.0923717e-38 -5.9658533e-38 -6.2338517e-38
000100 d8 63 24 81 35 ce a9 81 00 d0 1e 00 3c 4f 03 01
       -3.0193677e-38 -6.237669e-38 2.829681e-39 2.4117748e-38
000110 a6 e2 74 01 8f c3 1e 81 89 6c 53 00 c8 e9 66 81
       4.4978334e-38 -2.9160323e-38 7.661281e-39 -4.2412058e-38
000120 b2 79 a0 81 a8 ce 3e 00 3d ba c0 00 94 2e 1d 81
       -5.894934e-38 5.767935e-39 1.7699225e-38 -2.8869764e-38
000130 b6 ce 8c 01 5b ea 4d 00 d0 51 49 01 24 6f 6c 01
       5.1724493e-38 7.155404e-39 3.6976567e-38 4.3426094e-38
000140 08 3e 16 00 b8 f4 79 00 07 af 7d 81 08 c4 65 00
       2.042634e-39 1.1199884e-38 -4.6594337e-38 9.345708e-39
000150 bc a8 27 81 38 bf 91 01 6c 06 cc 80 0c 21 63 01
       -3.0794117e-38 5.3538973e-38 -1.8736745e-38 4.1717025e-38
000160 08 10 c4 00 49 26 7b 81 88 d2 40 00 0c 4f 72 81
       1.8005508e-38 -4.6128887e-38 5.952996e-39 -4.4505093e-38
000170 c8 21 ae 80 10 7c bb 81 ae 6b a4 81 56 3a 21 01
       -1.5991495e-38 -6.887097e-38 -6.03986e-38 2.9612884e-38
000180 e4 90 1f 81 33 bb 5d 80 2c 2e 61 80 f0 f1 92 00
       -2.9307642e-38 -8.607856e-39 -8.924606e-39 1.3494773e-38
000190 78 e1 ad 80 3c bb a9 01 0c 0b 51 01 be dc a9 01
       -1.5968424e-38 6.2349464e-38 3.8395163e-38 6.2397545e-38
0001a0 44 14 cd 00 f0 ce 76 00 90 74 c2 00 1b 53 d1 00
       1.8833547e-38 1.0910824e-38 1.7857901e-38 1.9223431e-38
0001b0 4e 2e a2 01 8b 26 d0 80 4a 8d 5f 80 f0 be 25 80
       5.9575845e-38 -1.911561e-38 -8.775057e-39 -3.466409e-39
0001c0 40 1c 7c 00 7f bc 49 01 27 7c 6e 01 e0 48 9a 01
       1.1397736e-38 3.705311e-38 4.380277e-38 5.6675236e-38
0001d0 8a 39 68 80 f8 8e 52 00 a5 28 a1 81 e0 e2 39 80
       -9.571533e-39 7.581798e-39 -5.920038e-38 -5.31601e-39
0001e0 e0 f3 05 00 1f 7b 93 81 48 86 e4 00 b8 08 d7 00
       5.46663e-40 -5.417594e-38 2.0986664e-38 1.974776e-38
0001f0 70 b3 91 00 ec a3 12 80 71 33 27 01 d0 2d 9f 80
       1.3380517e-38 -1.711843e-39 3.0709963e-38 -1.4618278e-38
000200 01 28 0b 01 60 e8 c9 80 9d ad a1 81 40 d8 6c 00
       2.555897e-38 -1.8542295e-38 -5.939118e-38 9.99581e-39
000210 e0 a6 9d 80 63 37 ff 80 a2 48 22 01 e0 80 f0 00
       -1.4478036e-38 -2.343792e-38 2.9806812e-38 2.2086751e-38
000220 56 ad 85 81 50 78 53 01 b8 1d 90 81 f0 c8 53 01
       -4.910521e-38 3.88409e-38 -5.293989e-38 3.8898745e-38
000230 08 36 8d 01 d6 22 b8 80 2a 18 93 81 88 4b a1 00
       5.187275e-38 -1.6910228e-38 -5.4033945e-38 1.481261e-38
000240 c2 12 10 00 80 ad 13 80 6c bc 16 01 3a f1 b5 81
       1.476097e-39 -1.807114e-39 2.7685835e-38 -6.683504e-38
000250 ce 80 91 81 24 0e 71 81 20 9a b3 80 dd 7b 88 81
       -5.3449413e-38 -4.4274855e-38 -1.6493843e-38 -5.0136245e-38
000260 74 f4 02 01 fe fc 40 01 3a fa 48 01 8a d2 a3 81
       2.4052616e-38 3.5446344e-38 3.6913727e-38 -6.017885e-38
000270 2e b1 90 81 d6 29 1c 81 68 78 56 00 3e f3 b2 80
       -5.3151486e-38 -2.868269e-38 7.941046e-39 -1.6433977e-38
000280 1a f6 9e 01 bf b1 e9 00 1a c4 16 01 ea 69 31 81
       5.839317e-38 2.1461434e-38 2.7691345e-38 -3.2585755e-38
000290 f9 87 30 00 00 a2 9e 00 06 77 bd 01 be 00 95 81
       4.456882e-39 1.4568123e-38 6.9598425e-38 -5.473502e-38
0002a0 b4 dc 6e 01 f8 fe 58 80 61 10 6c 80 d8 92 74 81
       4.3872043e-38 -8.172989e-39 -9.924109e-39 -4.4921077e-38
0002b0 8b d3 c1 00 c0 87 84 81 0a 7d 6f 81 60 90 0d 80
       1.7800138e-38 -4.8683934e-38 -4.3987078e-38 -1.245653e-39
0002c0 57 c2 d1 80 08 e8 37 81 5a 5d 2a 81 a0 1b 5e 81
       -1.9263335e-38 -3.3778266e-38 -3.1291045e-38 -4.079478e-38
0002d0 d9 35 de 80 92 27 84 01 6e 22 7f 80 7b d8 13 81
       -2.0406797e-38 4.854592e-38 -1.1675459e-38 -2.7154953e-38
0002e0 a0 9e 8d 80 18 3e 2e 80 a6 fe 1f 01 34 fa 86 00
       -1.3005709e-38 -4.246708e-39 2.938639e-38 1.2395712e-38
0002f0 9c 6e b3 00 c8 54 14 01 12 74 aa 81 4e da f5 00
       1.6478233e-38 2.7244134e-38 -6.261469e-38 2.257801e-38
000300 f4 85 60 81 55 83 3b 01 61 ca b3 01 23 ee 45 00
       -4.123841e-38 3.4440702e-38 6.6044615e-38 6.422077e-39
000310 40 94 4a 81 a6 8d 34 81 44 73 0f 81 0f c4 82 01
       -3.7207905e-38 -3.3162406e-38 -2.634765e-38 4.803579e-38
000320 f4 6b ba 00 28 f4 33 01 da a2 a8 01 b0 84 14 80
       1.7120129e-38 3.305228e-38 6.1947134e-38 -1.884309e-39
000330 58 08 6b 80 f4 aa 25 01 ec a6 b4 01 e8 27 f2 80
       -9.829391e-39 3.0428367e-38 6.636108e-38 -2.2238506e-38
000340 f0 3c b8 81 bc 8d 66 80 f8 52 76 81 39 dc 60 00
       -6.7678366e-38 -9.418065e-39 -4.524259e-38 8.895209e-39
000350 2c f6 54 01 e0 6e 9a 00 10 2a 2b 01 48 74 79 81
       3.911487e-38 1.4182441e-38 3.1437918e-38 -4.5817505e-38
000360 b0 c8 b6 81 1a bd 8a 81 10 87 5f 00 c5 37 b9 01
       -6.7144214e-38 -5.096454e-38 8.772823e-39 6.803829e-38
000370 41 b4 0a 80 20 46 61 80 6c 45 36 01 48 08 04 00
       -9.83018e-40 -8.933199e-39 3.3477928e-38 3.70313e-40
000380 33 90 61 00 76 b0 66 01 c8 71 91 80 94 ff a4 01
       8.959772e-39 4.2370933e-38 -1.3356964e-38 6.061082e-38
000390 82 79 06 00 e9 72 60 80 16 8f 81 01 69 e2 02 80
       5.94602e-40 -8.85743e-39 4.7592434e-38 -2.64892e-40
0003a0 0c 7b 32 01 e0 1e 02 80 d0 10 b7 00 6c f7 80 00
       3.2781718e-38 -1.94747e-40 1.6811927e-38 1.1843702e-38
0003b0 d8 4e cb 80 56 66 71 81 88 bf 4e 81 80 09 6c 81
       -1.867089e-38 -4.4338132e-38 -3.797364e-38 -4.335317e-38
0003c0 60 2d 7b 81 e6 e5 21 01 b0 75 0e 81 9a a9 56 00
       -4.6133974e-38 2.9735974e-38 -2.6165718e-38 7.958694e-39
0003d0 dc ae 4e 01 2a 57 b4 01 4c 2d 72 01 76 6c 31 81
       3.796168e-38 6.624663e-38 4.448088e-38 -3.2587583e-38
0003e0 0e 00 68 80 3b 4e 42 81 be 09 be 01 b0 3c c7 80
       -9.550911e-39 -3.56883e-38 6.9808956e-38 -1.8297034e-38
0003f0 4c 40 4d 81 08 b1 94 01 24 5a 5e 01 8d fe 3d 00
       -3.7698684e-38 5.462064e-38 4.0839633e-38 5.693281e-39

fc2.bias f4 [300]
000000 fa 4d 07 94 82 d2 a4 ba 47 45 41 9f 4b 56 4d 3d
       -6.8311364e-27 -0.0012574943 -4.0926645e-20 0.050131124
000010 18 c9 bf 99 f8 d0 8f b5 42 08 1e b0 07 e5 1e b5
       -1.9830158e-23 -1.0715148e-06 -5.74918e-10 -5.9192865e-07
000020 52 90 10 99 b5 18 86 8f 84 6c a0 b1 01 f2 08 b7
       -7.473771e-24 -1.3222937e-29 -4.6689497e-09 -8.162578e-06
000030 a1 7b 2b ad 7f 43 30 b9 e5 7e 24 ba 16 b8 67 b9
       -9.747676e-12 -0.00016809812 -0.0006275012 -0.00022098454
000040 1f 70 4c 3d 36 08 be a9 58 dc 03 b7 a3 db d4 b3
       0.049911615 -8.4391194e-14 -7.859511e-06 -9.911971e-08
000050 e4 32 3f 8f 2d e7 25 91 a4 bc 6c b8 fb 84 69 b9
       -9.426828e-30 -1.3087441e-28 -5.644247e-05 -0.0002227015
000060 dc 02 77 ab 26 b1 63 b4 50 3c 7a bb 0b 70 13 ab
       -8.7755996e-13 -2.1205469e-07 -0.0038182922 -5.238038e-13
000070 ec d0 85 b9 3e d6 45 b8 2d 48 32 ba ac ca 4a 3d
       -0.00025523396 -4.716799e-05 -0.0006800916 0.04950969
000080 9f ac 27 a7 82 48 89 3d 9d 2f b8 3d bc 4a 8d aa
       -2.3269484e-15 0.06703283 0.089934565 -2.509849e-13
000090 6b ba 86 3d d4 3a 98 3d fd f5 c1 a8 cc d2 50 b9
       0.06578525 0.074330956 -2.1533985e-14 -0.00019914954
0000a0 2b 6f 11 b9 c6 8d 9e 3d 6e d0 7c ac 04 4e d9 ae
       -0.00013869691 0.07741885 -3.5927056e-12 -9.881876e-11
0000b0 5f fa 7d ba 2c 0d a3 97 f4 10 95 b6 c5 59 11 ba
       -0.0009688492 -1.0536953e-24 -4.4425196e-06 -0.0005544688
0000c0 89 78 03 b8 63 2c 44 3d a7 51 31 b7 e3 45 8d ac
       -3.134509e-05 0.047893893 -1.0569033e-05 -4.01522e-12
0000d0 c0 10 6c 3d 6d d4 91 97 c0 f9 1e 9f 8a 72 b3 99
       0.05763316 -9.424029e-25 -3.366439e-20 -1.8554428e-23
0000e0 1b 2c da b9 63 00 09 bb df 19 d8 b3 fc 20 b7 ad
       -0.0004161306 -0.0020904772 -1.006299e-07 -2.081934e-11
0000f0 1b 23 d9 b5 e7 3f 21 ba ba 73 f5 ac 98 a8 b3 a5
       -1.6177977e-06 -0.0006151185 -6.976167e-12 -3.1165794e-16
000100 27 40 cf b9 ef 3f 49 9c 49 cb 56 b4 10 ea 44 ba
       -0.00039529914 -6.6587953e-22 -2.0004258e-07 -0.00075116847
000110 ad f2 ab b8 81 5d 58 a3 76 ad f1 b7 dd b1 9e 9c
       -8.199117e-05 -1.1729184e-17 -2.8810213e-05 -1.050154e-21
000120 cf fd 15 ba 1b 46 43 b5 cd 2b 70 ba f5 da 20 aa
       -0.00057217194 -7.274518e-07 -0.00091618 -1.4286821e-13
000130 b4 ed aa 3d 75 13 aa 9e 04 5b b6 b7 e1 69 db b8
       0.083461195 -1.8007497e-20 -2.1738473e-05 -0.00010462455
000140 e8 0c c8 ba fb 83 b2 9f ab 72 28 b8 4a 48 6d 3d
       -0.0015262635 -7.5604276e-20 -4.0161114e-05 0.05793027
000150 27 59 9f aa 6f 1d a9 ac 97 8c 88 9c 15 ab 6c ba
       -2.8305936e-13 -4.8065367e-12 -9.036067e-22 -0.0009028179
000160 e2 e2 ee ba 34 85 82 aa f2 07 15 96 9d ce f2 b5
       -0.0018225575 -2.3185067e-13 -1.2038631e-25 -1.8090537e-06
000170 9c 3b a2 3d bf 77 c8 b8 12 01 17 bb db e9 e5 ba
       0.07921526 -9.5590476e-05 -0.002304141 -0.0017541008
000180 5f f1 0f 9b ae a6 19 b0 29 3e 54 b2 94 b8 5b b3
       -1.1906674e-22 -5.589794e-10 -1.2354158e-08 -5.1157784e-08
000190 a0 9d 25 3d 33 f6 f6 9f 54 14 31 9e a2 60 92 b9
       0.040433526 -1.04592355e-19 -9.374506e-21 -0.00027919287
0001a0 e4 9e 4a 9b 90 b6 f8 9a 32 0c 56 a5 c4 bc 4c b2
       -1.6760389e-22 -1.0286534e-22 -1.8565673e-16 -1.1917283e-08
0001b0 62 de db b2 c0 d6 a8 8f 7b a3 24 bb 12 96 a2 97
       -2.5596083e-08 -1.6648798e-29 -0.0025121856 -1.0506888e-24
0001c0 70 a8 c4 a9 5e c9 70 99 07 2f e6 a3 3e c6 e0 b3
       -8.733368e-14 -1.2448375e-23 -2.4956567e-17 -1.0466873e-07
0001d0 0e 1f c8 b9 86 a0 4e b0 3a 16 c5 af 24 f8 0f bb
       -0.0003817011 -7.517048e-10 -3.5849884e-10 -0.0021967972
0001e0 1e be 11 b5 29 0b 9b b5 a0 41 99 3d 19 13 40 bb
       -5.4293366e-07 -1.1551648e-06 0.0748322 -0.0029308258
0001f0 12 36 90 a6 46 ff 6f 3d 7f 2c c8 b5 fd a7 2a a4
       -1.0006663e-15 0.058593057 -1.4914111e-06 -3.7005165e-17
000200 19 9b 3f 3d cd b8 48 b9 d1 60 72 b9 91 0a d0 9c
       0.046778772 -0.0001914233 -0.00023114985 -1.3767017e-21
000210 68 69 0a b2 aa 57 c5 b5 27 fe a0 9e e7 f4 25 ad
       -8.056624e-09 -1.4703157e-06 -1.7045774e-20 -9.433543e-12
000220 90 13 5d b4 c8 47 50 b9 80 3b 8f 93 01 49 43 a3
       -2.0589346e-07 -0.00019863166 -3.6156947e-27 -1.058643e-17
000230 26 a8 9b b9 c2 fe f5 ac bb 8f 44 3d 7e 8a 71 9d
       -0.00029689184 -6.9916026e-12 0.047988635 -3.1967683e-21
000240 3f 4d 1f bb f2 a4 8c b4 31 87 41 3d bc 3e f1 b9
       -0.0024307517 -2.6197046e-07 0.04724807 -0.00046013843
000250 cc f1 53 b6 15 93 02 90 77 f9 da ba f5 26 81 ba
       -3.1582194e-06 -2.5751287e-29 -0.0016706426 -0.0009853529
000260 4b ce 9f b6 31 be 5a 8d 56 6e 02 bb 2f b8 ff b2
       -4.762585e-06 -6.740537e-31 -0.001990219 -2.9769664e-08
000270 de ec 4b b5 5c 5f 04 b6 01 09 96 b0 c1 e0 d7 b5
       -7.596808e-07 -1.972504e-06 -1.0916495e-09 -1.608416e-06
000280 21 1c 26 a1 c8 6b 03 ad 69 eb 24 b4 63 81 01 b8
       -5.6280216e-19 -7.47042e-12 -1.5359332e-07 -3.0876497e-05
000290 76 21 9e b3 0a 6c 62 ba 07 9e d8 b7 26 4c 09 bb
       -7.363535e-08 -0.0008637315 -2.5822794e-05 -0.002094993
0002a0 e6 ea 8c b9 c7 3d 0d b9 b5 a0 5f 3d 7c e8 c5 ba
       -0.00026877894 -0.00013469822 0.05459662 -0.0015099193
0002b0 6d a9 95 a6 4a e1 80 3d 14 4d d8 b2 79 b1 33 3d
       -1.0384875e-15 0.062929705 -2.518076e-08 0.043870423
0002c0 70 48 41 a6 d1 a8 e0 3c b9 88 96 b8 7a 32 c2 9e
       -6.7058497e-16 0.027424248 -7.178024e-05 -2.0561426e-20
0002d0 18 47 86 a7 95 f0 b3 b4 db 86 89 ba fe 91 6c b5
       -3.726955e-15 -3.3516395e-07 -0.001049246 -8.81293e-07
0002e0 f8 87 3c 92 8f 73 93 b1 dc 2c 41 a3 8a c8 df 8b
       -5.9489934e-28 -4.2914006e-09 -1.047205e-17 -8.6198213e-32
0002f0 35 e4 8d b5 24 fc 17 ae 4d 72 c1 a3 ec cb 10 3d
       -1.0571736e-06 -3.455737e-11 -2.097351e-17 0.035350725
000300 86 81 1e b5 b5 f4 de b3 39 3f b7 bb 85 54 b2 b6
       -5.904807e-07 -1.03821925e-07 -0.0055922535 -5.3146528e-06
000310 8f 88 d8 b6 50 27 a8 b7 aa 38 b6 ba c3 6c 25 b6
       -6.453199e-06 -2.0045467e-05 -0.0013902385 -2.4650224e-06
000320 3f 29 87 b6 77 81 86 9b da fe 00 a9 b5 c9 7a a3
       -4.028115e-06 -2.2252105e-22 -2.8642758e-14 -1.359524e-17
000330 a6 87 d2 b9 3d e1 f7 a8 76 5b 62 a4 17 8a 5d ba
       -0.00040155387 -2.752019e-14 -4.908341e-17 -0.0008451058
000340 f2 8d 09 a6 db 25 13 ba 06 66 8b b6 81 ed 22 ba
       -4.7723795e-16 -0.0005613246 -4.1544e-06 -0.00062152004
000350 e1 4e 28 bb de 8f a6 b6 23 7e 7a a7 55 1b 84 b8
       -0.002568178 -4.963934e-06 -3.4762848e-15 -6.2993415e-05
000360 fa b1 a4 ab 6f 37 ad ba ca 65 73 3d 12 d1 00 3e
       -1.1702299e-12 -0.0013215373 0.059423245 0.12579754
000370 11 92 1d a7 9c ef ed 3d ec 61 b8 ba e9 ff a4 ba
       -2.186731e-15 0.116179675 -0.0014067269 -0.0012588474
000380 47 f1 a4 bb 7e 1e 2d b6 12 b0 88 b8 12 f3 19 a9
       -0.0050336453 -2.5796758e-06 -6.517781e-05 -3.4183654e-14
000390 38 73 56 bd 32 f3 81 af 2f 45 a7 b5 41 82 9c bb
       -0.052355975 -2.3637764e-10 -1.2462605e-06 -0.0047762697
0003a0 a9 46 96 3d 78 0d 8f b5 27 df 3b 9f dc 11 d2 a9
       0.07337696 -1.065825e-06 -3.9783378e-20 -9.3289715e-14
0003b0 62 3c 89 ac 52 f3 ab 92 70 e4 93 9e 98 d1 fa b6
       -3.900478e-12 -1.08516e-27 -1.565871e-20 -7.4749805e-06
0003c0 e0 b3 30 3d ef b3 a5 95 cc 99 7a b9 d8 1a 14 ac
       0.043140292 -6.6926854e-26 -0.00023899152 -2.1046966e-12
0003d0 37 38 63 a3 10 a6 7b bb 6f e2 58 9a 11 cb 3d a0
       -1.2317599e-17 -0.0038398542 -4.4850665e-23 -1.6076112e-19
0003e0 f5 2c 39 b0 3f 2d 26 b5 7f 43 6a b8 9e d3 54 b3
       -6.7366496e-10 -6.190566e-07 -5.5852808e-05 -4.955256e-08
0003f0 c9 51 60 b4 76 55 ca 9d 6e 83 94 b5 90 c4 e1 b2
       -2.0891379e-07 -5.355732e-21 -1.106511e-06 -2.6282834e-08

fc3.weight f4 [1, 300]
000000 0d e1 96 32 2f 38 18 bb cc 7d 33 32 a2 d7 bd 3e
       1.756464e-08 -0.0023226847 1.0447774e-08 0.37078577
000010 e1 20 05 b8 29 ef 3c 3a 57 2a aa 38 57 63 f5 b8
       -3.1740292e-05 0.00072072685 8.114118e-05 -0.00011701014
000020 ac 85 31 33 bf 96 77 30 7c b0 a5 b6 92 f9 66 3a
       4.1332598e-08 9.00723e-10 -4.9379287e-06 0.00088109926
000030 c3 fc 3b b8 3b cd ca b7 dd ed 0b 38 b1 87 ee b4
       -4.4819677e-05 -2.4175844e-05 3.336171e-05 -4.4429683e-07
000040 e2 f3 c3 3e 71 8c 63 b9 e5 ba a0 b8 e3 f5 a6 b5
       0.38272005 -0.00021700725 -7.664206e-05 -1.2439526e-06
000050 0f f9 8a b5 e8 14 3b b6 56 4a e6 39 54 32 13 38
       -1.0354287e-06 -2.787734e-06 0.00043924403 3.5094403e-05
000060 58 22 d4 35 5a 24 1a 39 b5 9d 86 3b ca f0 7b 38
       1.5805226e-06 0.00014700126 0.0041081556 6.0067316e-05
000070 21 36 4f 38 5f bf bb b9 0d 13 d5 39 5a 74 ab 3e
       4.9403057e-05 -0.00035810002 0.0004064072 0.33487207
000080 99 d3 ce b4 a9 c9 f5 3e ff 21 65 3e 1f ca 2c b9
       -3.8524448e-07 0.48005417 0.2237625 -0.00016478494
000090 28 e2 ef 3e 1b f7 b9 3e d1 60 a3 b6 49 47 57 bb
       0.4685223 0.3632134 -4.8690495e-06 -0.0032848886
0000a0 7a 57 2f b9 09 aa c3 3e 39 d5 ae b8 fd 2a bb b6
       -0.00016721888 0.38215664 -8.3366824e-05 -5.578039e-06
0000b0 96 79 20 3a e5 8d 0b b6 85 26 19 ba 27 69 58 b7
       0.00061216333 -2.0795208e-06 -0.00058422267 -1.2899086e-05
0000c0 8f c7 4b ba 8c c6 f0 3e 4f c9 65 b8 a3 0b 91 35
       -0.0007773572 0.4702648 -5.4785338e-05 1.0806729e-06
0000d0 a3 25 8a 3e ff ee df b0 82 99 3b 33 cd 73 d2 b2
       0.2698184 -1.6293312e-09 4.3678945e-08 -2.4499878e-08
0000e0 a0 e0 49 3b 9b 88 21 ba 6f 44 6e 3a da 15 8f 39
       0.0030804053 -0.00061620184 0.0009089177 0.00027291366
0000f0 d7 c3 f2 b8 31 f6 0b ba 13 a2 cb b8 cc b1 59 b9
       -0.00011575937 -0.00053391146 -9.709983e-05 -0.00020760967
000100 02 25 a0 3a cc bd 5a b5 4a a9 54 b5 6d f6 75 ba
       0.001221806 -8.148752e-07 -7.92225e-07 -0.00093827286
000110 5d 61 2b b9 b6 6c 37 37 50 94 1e 3a ee a1 69 b3
       -0.00016344101 1.0932961e-05 0.0006049322 -5.4396814e-08
000120 8e 32 03 3a ba 3d af 39 1e a2 19 bb 8a ef 18 b9
       0.00050047867 0.0003342459 -0.0023442577 -0.00014585085
000130 ef 13 b5 3e 5c 6f 21 b4 ff 02 70 ba 3e 04 98 37
       0.3536677 -1.5034806e-07 -0.000915572 1.8121787e-05
000140 ed bd 83 b9 85 c0 25 38 69 b1 2b b9 43 95 0b 3f
       -0.00025127773 3.9518363e-05 -0.00016373921 0.5452463
000150 09 56 aa b5 9f 5f cc 35 75 8f 2c b3 5c dd 4f 3b
       -1.2691027e-06 1.5227014e-06 -4.0177344e-08 0.0031717634
000160 55 51 af b9 36 37 cd b7 aa 5a 99 b5 82 ea 6a 3a
       -0.00033439198 -2.4463614e-05 -1.1425775e-06 0.0008961336
000170 85 f9 4d 3e 96 39 6e b9 ef a5 6f 39 e3 29 b5 39
       0.20114715 -0.00022718901 0.00022854631 0.00034554218
000180 8b 6a 21 39 ad f0 0a 38 fd 23 0a b7 87 63 89 39
       0.00015393847 3.312591e-05 -8.23382e-06 0.0002620483
000190 b6 f3 cb 3e 02 3d cd b5 9f 18 8c 34 14 7d 05 35
       0.39834374 -1.5291446e-06 2.6094946e-07 4.9728374e-07
0001a0 7a 3f a2 33 57 2b 26 2a d4 99 fe b7 77 cf 36 b6
       7.555259e-08 1.4758798e-13 -3.0350791e-05 -2.7240874e-06
0001b0 b9 ea 64 b4 84 7a 77 b4 47 18 52 bb e8 14 0f b1
       -2.1319546e-07 -2.3048239e-07 -0.0032057927 -2.0821123e-09
0001c0 06 af a2 b9 c3 9e 0c 37 a2 69 48 36 9f f9 bd b8
       -0.0003102945 8.381615e-06 2.9863809e-06 -9.058718e-05
0001d0 a9 08 b5 ba c8 72 ea 38 0e 0c 2f 2f 21 3f 19 b9
       -0.0013811785 0.00011179369 1.592044e-10 -0.00014614734
0001e0 1c 13 92 b4 88 2a 82 ba 85 f4 c7 3e e1 a3 3a 39
       -2.7208523e-07 -0.0009930888 0.3905374 0.00017799392
0001f0 59 2d 6e b2 a9 61 c1 3e 44 b5 42 b8 4a f8 07 37
       -1.3863734e-08 0.3776982 -4.642202e-05 8.104436e-06
000200 a1 b5 ca 3e 77 8d c1 b7 a5 8b 8e 39 a8 fc 54 34
       0.39591697 -2.3073268e-05 0.00027188394 1.9835954e-07
000210 25 c8 4c b9 ff 48 d6 b5 9c c4 25 37 72 39 14 b7
       -0.00019529516 -1.5965487e-06 9.880543e-06 -8.8348625e-06
000220 9c 0a 69 38 c2 40 c2 b9 a0 30 c4 b0 8b 04 e3 35
       5.556141e-05 -0.00037050812 -1.4274697e-09 1.691414e-06
000230 5d c9 1c b9 b7 6b 0c b4 0b d3 f5 3e b0 9d 1f 32
       -0.00014952333 -1.3077702e-07 0.48012576 9.290872e-09
000240 74 c5 d0 3a 5b 49 ac b9 43 65 cd 3e 36 98 e6 37
       0.0015927986 -0.0003286105 0.4011632 2.7489015e-05
000250 8a fc 87 35 2e a0 52 38 47 f0 66 3b 60 63 c6 3a
       1.0131782e-06 5.021708e-05 0.0035238431 0.0015135817
000260 0e 61 0a b9 ae 64 a9 b4 0e be be b9 b3 08 64 38
       -0.00013196861 -3.1551957e-07 -0.00036381226 5.4367538e-05
000270 44 5f 42 b6 cf 4b f3 39 ae 69 8e b0 f8 56 82 3a
       -2.8963705e-06 0.00046405054 -1.0361896e-09 0.0009944132
000280 3b 8b 12 b6 3b cd 49 b8 9f cb af b6 74 62 71 3a
       -2.1836738e-06 -4.811327e-05 -5.239111e-06 0.0009208091
000290 f4 86 29 b6 18 da 45 34 a5 07 e3 39 e2 01 37 ba
       -2.5261515e-06 1.8426397e-07 0.0004330251 -0.00069811766
0002a0 97 9d aa 3a e3 ee 94 39 fc 47 f7 3e a7 7d 2d 3a
       0.0013016936 0.00028406744 0.48297107 0.000661815
0002b0 a0 8d 2a 32 65 83 de 3e f4 75 85 b9 d9 25 cc 3e
       9.927504e-09 0.4345962 -0.0002545562 0.39872625
0002c0 60 7a a7 b7 25 b1 9b 3e d0 9d b9 37 bf 22 98 b7
       -1.9964937e-05 0.30408588 2.2127206e-05 -1.8135992e-05
0002d0 ae 8c 22 b6 eb 91 4e 34 b7 e3 31 bb f4 b2 64 35
       -2.4221767e-06 1.923833e-07 -0.0027143785 8.519703e-07
0002e0 b0 87 72 b3 a1 dd 08 b4 7b 83 e5 36 26 59 91 b0
       -5.6468423e-08 -1.2746615e-07 6.840038e-06 -1.0575476e-09
0002f0 31 9e 0c b9 f6 04 6e 37 96 d3 50 b8 a1 c5 51 3e
       -0.00013410371 1.41870605e-05 -4.978812e-05 0.20485546
000300 e9 d2 d3 b8 07 b9 76 b6 9d 70 83 39 8f ad 27 35
       -0.00010100549 -3.6764557e-06 0.0002507017 6.246491e-07
000310 40 26 16 ba de 4e 4e b9 50 ae bd 39 20 89 62 b6
       -0.00057277456 -0.00019675071 0.00036178762 -3.3756442e-06
000320 6f 08 c4 b9 b4 74 c0 b5 47 71 01 b8 25 41 4e 37
       -0.00037390317 -1.433908e-06 -3.0861494e-05 1.22937245e-05
000330 0b 15 93 39 52 90 28 b9 6a 22 ec 35 44 bc b4 38
       0.00028053703 -0.00016075492 1.7593386e-06 8.618136e-05
000340 0d df a2 b8 b7 a6 96 b9 12 cf 89 ba 49 96 2c 3b
       -7.7663084e-05 -0.00028734442 -0.0010513982 0.0026334694
000350 24 d3 b4 b9 62 3d 42 b5 02 58 7a b5 e1 a5 81 3a
       -0.00034489587 -7.2359956e-07 -9.3260326e-07 0.0009891355
000360 6d 09 17 ba 8b 1b e1 b9 43 a5 d4 3e 37 39 57 3e
       -0.00057615974 -0.00042935865 0.41532335 0.2101792
000370 4f 25 27 b8 7d a7 9c 3e b1 b5 0a b9 f0 e6 b8 39
       -3.985065e-05 0.30596533 -0.00013228391 0.00035267277
000380 58 72 23 3b 76 d9 35 3a 93 0e 85 3a 86 80 db 37
       0.002493998 0.0006937006 0.0010151438 2.6166683e-05
000390 9d 3b d5 be f8 af 25 38 50 3a c1 b8 c7 c7 a3 3a
       -0.41647044 3.950295e-05 -9.213819e-05 0.0012495451
0003a0 6f 08 0d 3f b8 35 b6 38 7d 30 70 b6 dd 7b be 35
       0.55090994 8.688442e-05 -3.579101e-06 1.4192152e-06
0003b0 53 fb ad b7 8f f8 17 31 4e 25 0a 36 7f 1c b1 b8
       -2.0740239e-05 2.2114681e-09 2.0585317e-06 -8.4453255e-05
0003c0 08 d5 01 3f 34 04 0a 35 0f 7f 22 3b 7e 96 0c 34
       0.50715685 5.141512e-07 0.002479497 1.3093265e-07
0003d0 cc 61 2f b6 49 d9 57 3b f6 bf 13 b8 54 8a a5 b3
       -2.6133957e-06 0.0032935909 -3.522631e-05 -7.708573e-08
0003e0 70 66 a1 b8 57 d9 c6 36 6c 2c 49 35 4b 7e c6 38
       -7.696159e-05 5.9261615e-06 7.494298e-07 9.4648996e-05
0003f0 cb 5f 15 3a da 81 69 b6 41 47 f5 b7 3a 3e 25 b5
       0.0005698173 -3.479529e-06 -2.9239456e-05 -6.155784e-07

bn1_state.weight f4 [400]
000000 78 e1 1e 3e 18 30 68 3f 6d fc 2f 3f 26 ac d4 3e
       0.15515697 0.90698385 0.68744546 0.4153759
000010 d0 97 ef 3e 30 73 9e 3e 24 18 21 3f 26 e9 d9 3e
       0.4679551 0.30947256 0.6292746 0.4256069
000020 74 9c 13 3e 93 1a 23 3f 00 2d 4d 3f 90 35 12 3e
       0.14415151 0.63712424 0.8014679 0.14278245
000030 3a 19 02 3f c8 12 7a 3f 27 57 51 3f b0 aa 02 3f
       0.5081974 0.9768491 0.8177361 0.510417
000040 90 a3 a7 3e bc 64 43 3f a2 89 44 3f ea c9 02 3f
       0.32741976 0.76325583 0.7677251 0.51089346
000050 84 a7 06 3e 0e dc c6 3e f5 51 38 3f e6 93 1d 3f
       0.1314984 0.38839763 0.72000057 0.615538
000060 c4 b9 60 3e 20 42 5c 3d c9 78 5b 3f c5 bb 43 3f
       0.21945864 0.053774 0.8573118 0.7645839
000070 da 96 da 3e d5 47 30 3f 4c 63 1d 3e 3b fd 26 3f
       0.42693216 0.68859607 0.1536991 0.6523015
000080 d4 86 9b 3e 68 d6 ab 3e 42 7f c8 3e 54 0c 3a 3e
       0.30376303 0.33562016 0.3915959 0.18168765
000090 c3 58 68 3f 66 33 94 3e bf 06 69 3f 99 b3 5e 3f
       0.9076044 0.28945464 0.9102592 0.86992794
0000a0 a0 6e fd 3d 91 b0 03 3f f0 4f a0 3e 28 fb 10 3f
       0.12374616 0.51441294 0.31310987 0.56633234
0000b0 84 bb 7d 3e 39 8c 57 3f da a6 18 3f a4 69 89 3e
       0.24778563 0.8419834 0.59629595 0.2683841
0000c0 88 c3 7d 3f f4 6d 96 3e 9a eb 7f 3f e0 07 fb 3d
       0.9912648 0.29380763 0.99968874 0.122573614
0000d0 79 ea 39 3f b9 e9 0f 3f b0 cb 1e 3f 10 53 4b 3e
       0.726234 0.5621601 0.6202955 0.19855905
0000e0 5c 71 84 3e 02 c8 5e 3f 08 04 3f 3e 47 c0 47 3f
       0.25867736 0.8702394 0.18653882 0.78027767
0000f0 96 12 c2 3e 14 b2 37 3e 6e 08 8f 3e 1a e3 ac 3e
       0.37904805 0.17939025 0.2793612 0.33767015
000100 45 90 78 3f 11 da 42 3f a7 bb 27 3f 68 a5 fd 3d
       0.9709514 0.7611399 0.6552071 0.12385064
000110 c2 9c 4c 3f 55 52 3f 3f c8 55 d2 3d 50 7a f0 3e
       0.79926693 0.74735004 0.10270268 0.46968317
000120 d5 e6 34 3f 78 00 d8 3e 90 0a 79 3d f2 df a3 3e
       0.7066472 0.42187858 0.06080109 0.32006794
000130 34 8b 25 3e 28 9b ca 3d 00 b4 a7 3a eb 13 50 3f
       0.16166383 0.09892875 0.0012794733 0.8128039
000140 e8 c2 c6 3d fa 39 b5 3e a4 2b 43 3f 32 39 ca 3e
       0.09705144 0.35395795 0.76238465 0.39496762
000150 bc 42 c0 3e cc 92 0c 3e 78 69 79 3f 00 5b a5 3c
       0.37550914 0.13727874 0.9742656 0.020184994
000160 90 53 87 3e 7e 2c 7d 3f 8c 25 2f 3e 36 92 c6 3e
       0.2643094 0.98896015 0.17104167 0.38783425
000170 3e ae 8f 3e 8d 8d 22 3f 06 b1 ab 3e 44 80 19 3f
       0.28062624 0.6349724 0.33533496 0.5996134
000180 8e 55 49 3f 88 0a 0d 3e 20 4a 6a 3f c8 36 ca 3d
       0.7864617 0.13773549 0.91519356 0.0987373
000190 ac 19 f0 3e 80 7b 05 3c 91 d4 22 3f 70 8e b3 3d
       0.46894586 0.0081471205 0.636056 0.08767402
0001a0 76 c9 0c 3f 3c 83 35 3f 7d 00 62 3f 45 cd 3e 3f
       0.54994905 0.7090337 0.88281995 0.74531966
0001b0 ef 9a 71 3f 5a 97 80 3e 58 4b 36 3e 7e cd 38 3f
       0.94377035 0.25115472 0.17802179 0.72188556
0001c0 9c eb c3 3e 40 79 a3 3e e8 cf d4 3e 02 ff d2 3e
       0.38265693 0.31928444 0.4156487 0.4121018
0001d0 30 8f 9e 3d d8 71 19 3e 58 c9 3e 3f 68 15 d4 3e
       0.077421546 0.14984834 0.74525976 0.41422582
0001e0 0b e2 52 3f 55 85 09 3f 5c a0 45 3f c4 1b 07 3f
       0.82376164 0.53719074 0.77197814 0.5277674
0001f0 0d 3e 33 3f f4 09 5d 3e 64 db 36 3f 0c 4c 3d 3e
       0.70016557 0.21585828 0.71428514 0.18486041
000200 a0 be a9 3e b3 74 76 3f 10 de c3 3e fc a5 42 3f
       0.33153248 0.9627182 0.38255358 0.7603452
000210 79 fc 21 3f 3e f6 fe 3e cc 72 ec 3e 76 97 d7 3e
       0.6327587 0.49797243 0.46181333 0.42107743
000220 42 f8 8c 3e 12 a3 08 3f 12 32 7b 3f a8 19 63 3f
       0.27533156 0.53373826 0.98123276 0.88711023
000230 56 0b 24 3f 96 5b ea 3e 25 1c 1a 3f 82 2d 4a 3f
       0.640798 0.45773 0.60199195 0.7897569
000240 e1 5f 4e 3f c1 e4 1a 3f 65 1e 0e 3f 0c 18 17 3f
       0.8061505 0.605053 0.5551513 0.5902107
000250 e6 24 eb 3e 0d 9f 7b 3f 5e f7 1a 3f fc 12 77 3e
       0.4592659 0.9828957 0.605337 0.24128336
000260 28 f6 62 3e 58 27 f7 3d bd 29 4f 3f 00 f8 8b 39
       0.22164214 0.12068051 0.8092306 0.0002669692
000270 22 0c a9 3e dc 3f 8c 3e e8 4a da 3e b8 f9 5a 3e
       0.3301707 0.2739247 0.42635274 0.21384323
000280 fa da 83 3e 23 73 16 3f 1a db ca 3e 7c 4c a8 3e
       0.25753003 0.58769435 0.39620286 0.32870853
000290 25 97 6e 3f 00 27 11 3e d4 8f 8b 3e 43 fb 33 3f
       0.9319938 0.14175034 0.2725817 0.7030527
0002a0 5e c6 e8 3e c2 c9 ff 3e ba 47 79 3f e0 4c 39 3e
       0.45463842 0.49958616 0.9737507 0.18095732
0002b0 b4 46 6b 3e b1 5c 24 3f 48 52 15 3e 18 6b 74 3f
       0.2297619 0.64203936 0.14582169 0.9547591
0002c0 74 dc 43 3f 80 40 ee 3b ed d8 02 3f e8 92 a0 3d
       0.7650826 0.0072708726 0.5111225 0.0784052
0002d0 8c 00 42 3e 7d a0 51 3f 04 9a 70 3f 6c 83 1e 3e
       0.18945521 0.8188551 0.9398501 0.15479821
0002e0 d9 8b 3a 3f 44 7f cf 3e b4 9b 93 3e aa cb 32 3f
       0.7286964 0.40526783 0.2882973 0.69842017
0002f0 fa 50 b3 3e 58 43 a3 3d 18 15 b3 3d 58 bf 83 3d
       0.35022718 0.07971829 0.08744258 0.0643298
000300 5a b8 65 3f 2a cb 8d 3e 1e 23 62 3f 16 4b e5 3e
       0.89734423 0.27694064 0.88334835 0.4478385
000310 be c9 57 3f ce cd 86 3e 31 ee 78 3f d0 ff 41 3f
       0.8429221 0.26328892 0.9723845 0.75780964
000320 ad 85 6d 3f d4 17 88 3e 54 1c cd 3e 2a 79 14 3f
       0.927821 0.2658068 0.40060675 0.5799738
000330 df 5c 48 3f 5b 47 71 3f 72 4d 95 3e ab 32 76 3f
       0.7826671 0.94249505 0.2916065 0.96171063
000340 d2 be ba 3e 56 3b 21 3f d2 19 21 3f aa ab 45 3f
       0.3647371 0.62981164 0.62930024 0.77215064
000350 df 61 75 3f 60 f2 b0 3d 80 10 79 3e e4 ae 76 3e
       0.95852464 0.08639979 0.243227 0.24090153
000360 24 38 a1 3e 2b 5e 20 3f f0 f5 ce 3d 28 32 ae 3d
       0.31488144 0.6264369 0.101055026 0.0850566
000370 9e e7 1d 3f 34 ae 58 3e 18 e7 fc 3e e2 ef 5d 3f
       0.61681545 0.21160203 0.4939506 0.8669416
000380 80 5e bf 3e 19 72 7b 3f fa 59 45 3f b7 f0 25 3f
       0.37376785 0.98220974 0.7709042 0.64820427
000390 aa 9d 39 3f e0 3f 68 3e 8c 50 06 3e b4 4a 60 3e
       0.725062 0.22680616 0.13116664 0.21903497
0003a0 c0 61 ea 3e f4 5e 30 3f e4 25 87 3e 60 f6 99 3c
       0.45777702 0.68894887 0.26396096 0.018794239
0003b0 64 65 bb 3e 98 b6 32 3e a1 e3 5a 3f 55 43 64 3f
       0.36600792 0.17452466 0.85503584 0.8916524
0003c0 cc 2e 25 3f 93 14 5e 3f 90 8f a9 3e fb 9a 02 3f
       0.6452453 0.86750144 0.33117342 0.5101773
0003d0 24 4d 3c 3f 87 c9 5b 3f 90 ad e7 3d 43 ad 35 3f
       0.7355521 0.8585438 0.11312401 0.709675
0003e0 7e b1 2a 3f 62 05 e5 3e b6 16 44 3f 28 24 fe 3e
       0.6667708 0.4473067 0.76597154 0.4963696
0003f0 06 eb bc 3e a4 45 e9 3e 38 d6 b6 3d b0 3c 27 3f
       0.3689806 0.45560944 0.08927578 0.65326977

bn1_state.bias f4 [400]
000000 00 00 00 00 00 00 00 00 00 00 00 00 00 00 00 00
       0.0 0.0 0.0 0.0
000010 00 00 00 00 00 00 00 00 00 00 00 00 00 00 00 00
       0.0 0.0 0.0 0.0
000020 00 00 00 00 00 00 00 00 00 00 00 00 00 00 00 00
       0.0 0.0 0.0 0.0
000030 00 00 00 00 00 00 00 00 00 00 00 00 00 00 00 00
       0.0 0.0 0.0 0.0
000040 00 00 00 00 00 00 00 00 00 00 00 00 00 00 00 00
       0.0 0.0 0.0 0.0
000050 00 00 00 00 00 00 00 00 00 00 00 00 00 00 00 00
       0.0 0.0 0.0 0.0
000060 00 00 00 00 00 00 00 00 00 00 00 00 00 00 00 00
       0.0 0.0 0.0 0.0
000070 00 00 00 00 00 00 00 00 00 00 00 00 00 00 00 00
       0.0 0.0 0.0 0.0
000080 00 00 00 00 00 00 00 00 00 00 00 00 00 00 00 00
       0.0 0.0 0.0 0.0
000090 00 00 00 00 00 00 00 00 00 00 00 00 00 00 00 00
       0.0 0.0 0.0 0.0
0000a0 00 00 00 00 00 00 00 00 00 00 00 00 00 00 00 00
       0.0 0.0 0.0 0.0
0000b0 00 00 00 00 00 00 00 00 00 00 00 00 00 00 00 00
       0.0 0.0 0.0 0.0
0000c0 00 00 00 00 00 00 00 00 00 00 00 00 00 00 00 00
       0.0 0.0 0.0 0.0
0000d0 00 00 00 00 00 00 00 00 00 00 00 00 00 00 00 00
       0.0 0.0 0.0 0.0
0000e0 00 00 00 00 00 00 00 00 00 00 00 00 00 00 00 00
       0.0 0.0 0.0 0.0
0000f0 00 00 00 00 00 00 00 00 00 00 00 00 00 00 00 00
       0.0 0.0 0.0 0.0
000100 00 00 00 00 00 00 00 00 00 00 00 00 00 00 00 00
       0.0 0.0 0.0 0.0
000110 00 00 00 00 00 00 00 00 00 00 00 00 00 00 00 00
       0.0 0.0 0.0 0.0
000120 00 00 00 00 00 00 00 00 00 00 00 00 00 00 00 00
       0.0 0.0 0.0 0.0
000130 00 00 00 00 00 00 00 00 00 00 00 00 00 00 00 00
       0.0 0.0 0.0 0.0
000140 00 00 00 00 00 00 00 00 00 00 00 00 00 00 00 00
       0.0 0.0 0.0 0.0
000150 00 00 00 00 00 00 00 00 00 00 00 00 00 00 00 00
       0.0 0.0 0.0 0.0
000160 00 00 00 00 00 00 00 00 00 00 00 00 00 00 00 00
       0.0 0.0 0.0 0.0
000170 00 00 00 00 00 00 00 00 00 00 00 00 00 00 00 00
       0.0 0.0 0.0 0.0
000180 00 00 00 00 00 00 00 00 00 00 00 00 00 00 00 00
       0.0 0.0 0.0 0.0
000190 00 00 00 00 00 00 00 00 00 00 00 00 00 00 00 00
       0.0 0.0 0.0 0.0
0001a0 00 00 00 00 00 00 00 00 00 00 00 00 00 00 00 00
       0.0 0.0 0.0 0.0
0001b0 00 00 00 00 00 00 00 00 00 00 00 00 00 00 00 00
       0.0 0.0 0.0 0.0
0001c0 00 00 00 00 00 00 00 00 00 00 00 00 00 00 00 00
       0.0 0.0 0.0 0.0
0001d0 00 00 00 00 00 00 00 00 00 00 00 00 00 00 00 00
       0.0 0.0 0.0 0.0
0001e0 00 00 00 00 00 00 00 00 00 00 00 00 00 00 00 00
       0.0 0.0 0.0 0.0
0001f0 00 00 00 00 00 00 00 00 00 00 00 00 00 00 00 00
       0.0 0.0 0.0 0.0
000200 00 00 00 00 00 00 00 00 00 00 00 00 00 00 00 00
       0.0 0.0 0.0 0.0
000210 00 00 00 00 00 00 00 00 00 00 00 00 00 00 00 00
       0.0 0.0 0.0 0.0
000220 00 00 00 00 00 00 00 00 00 00 00 00 00 00 00 00
       0.0 0.0 0.0 0.0
000230 00 00 00 00 00 00 00 00 00 00 00 00 00 00 00 00
       0.0 0.0 0.0 0.0
000240 00 00 00 00 00 00 00 00 00 00 00 00 00 00 00 00
       0.0 0.0 0.0 0.0
000250 00 00 00 00 00 00 00 00 00 00 00 00 00 00 00 00
       0.0 0.0 0.0 0.0
000260 00 00 00 00 00 00 00 00 00 00 00 00 00 00 00 00
       0.0 0.0 0.0 0.0
000270 00 00 00 00 00 00 00 00 00 00 00 00 00 00 00 00
       0.0 0.0 0.0 0.0
000280 00 00 00 00 00 00 00 00 00 00 00 00 00 00 00 00
       0.0 0.0 0.0 0.0
000290 00 00 00 00 00 00 00 00 00 00 00 00 00 00 00 00
       0.0 0.0 0.0 0.0
0002a0 00 00 00 00 00 00 00 00 00 00 00 00 00 00 00 00
       0.0 0.0 0.0 0.0
0002b0 00 00 00 00 00 00 00 00 00 00 00 00 00 00 00 00
       0.0 0.0 0.0 0.0
0002c0 00 00 00 00 00 00 00 00 00 00 00 00 00 00 00 00
       0.0 0.0 0.0 0.0
0002d0 00 00 00 00 00 00 00 00 00 00 00 00 00 00 00 00
       0.0 0.0 0.0 0.0
0002e0 00 00 00 00 00 00 00 00 00 00 00 00 00 00 00 00
       0.0 0.0 0.0 0.0
0002f0 00 00 00 00 00 00 00 00 00 00 00 00 00 00 00 00
       0.0 0.0 0.0 0.0
000300 00 00 00 00 00 00 00 00 00 00 00 00 00 00 00 00
       0.0 0.0 0.0 0.0
000310 00 00 00 00 00 00 00 00 00 00 00 00 00 00 00 00
       0.0 0.0 0.0 0.0
000320 00 00 00 00 00 00 00 00 00 00 00 00 00 00 00 00
       0.0 0.0 0.0 0.0
000330 00 00 00 00 00 00 00 00 00 00 00 00 00 00 00 00
       0.0 0.0 0.0 0.0
000340 00 00 00 00 00 00 00 00 00 00 00 00 00 00 00 00
       0.0 0.0 0.0 0.0
000350 00 00 00 00 00 00 00 00 00 00 00 00 00 00 00 00
       0.0 0.0 0.0 0.0
000360 00 00 00 00 00 00 00 00 00 00 00 00 00 00 00 00
       0.0 0.0 0.0 0.0
000370 00 00 00 00 00 00 00 00 00 00 00 00 00 00 00 00
       0.0 0.0 0.0 0.0
000380 00 00 00 00 00 00 00 00 00 00 00 00 00 00 00 00
       0.0 0.0 0.0 0.0
000390 00 00 00 00 00 00 00 00 00 00 00 00 00 00 00 00
       0.0 0.0 0.0 0.0
0003a0 00 00 00 00 00 00 00 00 00 00 00 00 00 00 00 00
       0.0 0.0 0.0 0.0
0003b0 00 00 00 00 00 00 00 00 00 00 00 00 00 00 00 00
       0.0 0.0 0.0 0.0
0003c0 00 00 00 00 00 00 00 00 00 00 00 00 00 00 00 00
       0.0 0.0 0.0 0.0
0003d0 00 00 00 00 00 00 00 00 00 00 00 00 00 00 00 00
       0.0 0.0 0.0 0.0
0003e0 00 00 00 00 00 00 00 00 00 00 00 00 00 00 00 00
       0.0 0.0 0.0 0.0
0003f0 00 00 00 00 00 00 00 00 00 00 00 00 00 00 00 00
       0.0 0.0 0.0 0.0
