continuous_control/models/critic_success.pth (torch_old, 562249 bytes, 21 tensors)

fcs1.weight f4 [400, 33]
00000000: f838 d6bc d748 263c 94b6 ee3c f5d9 89bc
00000010: 2ce2 32bd d5d3 9e3d 3699 b3bb 2bdb 5c3c
00000020: d237 c53c e1c0 ae3c 8846 003d f5c9 2ebc
00000030: 4be8 c3bc ac2a a93c 4aa1 9d3d 5f69 663d
00000040: 0f74 f13b 9ef0 8a3d 5ad0 c8bd f2c6 c4bc
00000050: ce46 d53c 9b85 b23b 901b a3bb 48d2 213d
00000060: aa4e e6bc d126 26bb 63a0 c0bc a4f0 e9bc
00000070: 1c30 07bd 4458 6100 a4f0 e93c 6082 e780
00000080: a677 d13c 8f14 4f3b 4ce8 353d 2714 64bd
00000090: c4e8 1d3d d7d1 61bc 812e 813d 21ba 30bd
000000a0: b036 a7bc 0463 df3b 557e a63c 7560 003c
000000b0: f715 b93c 5fc6 863c 5f45 98bc 52a1 c73b
000000c0: 0220 8ebc f84a 00bc 45c1 02bd c320 09bd
000000d0: 46b7 6cbc 7baf 3a3d 2957 663b b912 39bd
000000e0: f597 1bbd 4d0e 283c 7d84 9abc 91c1 41bc
000000f0: a922 6e3d b6f0 c33c cada 1380 a922 6ebd
00000100: 8027 7301 e650 90bc cbeb 7abc d484 bdbc
00000110: c501 e1bc a9a5 ad3d 024b 0cbd 9286 33bc
00000120: 68ce 1b3d 872c e6bc 0085 e9bc 1d0f a13c
00000130: 4080 ddbc 5f91 71bd b8e8 1cbd 4873 f73c
00000140: 43d7 633d 26f4 5d3b 3a90 a8bd 5df2 7fbd
00000150: 27f8 55bd fc4f 09ba aad2 383c cc4f 5bbd
00000160: 0af5 0dbd 4bc1 0b3d 53d0 b23c 10da f73c
00000170: 6157 d2bc 4523 c3bb a88f c43b 56c1 5681
00000180: 4523 c33b 8f7f 0301 5f63 b4bd 37cf 293b
00000190: 64a5 4c3d a5db bcbc 2348 a73c d60d eb3c
000001a0: 93c0 0fbc 67f0 643c f24f 303b 943a 3bbd
000001b0: 3b40 9b3c 1be1 8e3c a6c4 80bb db1a c4bc
000001c0: e930 003b 0058 ff3c 2594 a0bc 5f1b ecbc
000001d0: 26b0 cdbc 98ec b83c aff6 5a3c d24f 1a3d
000001e0: b161 5b3d 20f8 763c b287 bd3c 5403 8ebc
000001f0: b16a 7b3d 7981 fb3c ab12 803c c0d8 b938
00000200: f95d 9681 ab12 80bc c020 aa01 90f3 dbbd
00000210: f42f e63b aa4a a73d 7b19 afbb 0b7c eb3c
00000220: 6369 543c ca42 1c3c f0c2 0b3c dad0 a4bb
00000230: 5fd1 c5bc a030 7c3c 1dc1 783c 7d8a 6cba
00000240: 34f9 e33c 1f27 813c 6ece a03d b46b 1cbc
00000250: e3fd aa3c 3dda a73d 2f78 293d 1503 bf3c
00000260: d68d 28bc 0734 2dbd 08c6 04bd a178 183d
00000270: 1441 fb3c 3abe 133d a778 b5bc 3f38 a3bc
00000280: 79e9 4a3c 3548 0d01 3f38 a33c 0880 9780
00000290: debc e53b b8d7 68bc dc6c c83c 4859 b5bc
000002a0: 21d0 383c eeb6 cf3c 0146 da3c 2b04 72bd
000002b0: 7fd9 9eba d055 ac3c c523 e73b 513f 05bd
000002c0: 9c4e f23c c2bf 713d 7de2 113c 2ae3 5f3c
000002d0: 9545 15bc 1ec7 f3b9 d7d0 e43d 063e 47bd
000002e0: 6a09 cdbb a590 363d 7399 f8bc f815 12bc
000002f0: 2595 293d b478 843b e808 09bb 0257 583c
00000300: da4f cd3c 826e 963c 1854 9301 da4f cdbc
00000310: bdd3 bd01 3a8a 87bc 4032 05bd 3c3b 673d
00000320: a58f d3ba 5892 d63d e9c7 d73b d83d d43c
00000330: e960 e53b d27d c2bb b700 313c 388e 0cbc
00000340: 3d02 cdbc 16c1 b73b 7c3b b4bc 4927 c53c
00000350: c850 4a3d 87b6 be3c 4ded 93ba 1c56 283d
00000360: 0922 30bc 4e88 163d 2ade e23b 0c81 f8bb
00000370: 1400 bbbb 002a 62bd e0c3 7c3a ab67 1dbd
00000380: e1f3 05bc 48ab 0a3d 45a5 25bb e606 2181
00000390: 48ab 0abd 0edd 8781 7937 ac3d 605a 25bd
000003a0: 6b5f 7f3d 2749 463c 8f89 123e 9c24 7fbd
000003b0: 9467 763a dbaa 52bd d57d 8bbb bbb2 d23c
000003c0: 56e6 6c3c df7f 5cba c008 6a3c e84a 05bd
000003d0: 1cc3 72bd 1de1 193d 78e2 b8bc 03f3 203d
000003e0: 438e d3bd b0cc c33d 3516 45bd a77e 3d3c
000003f0: e563 39bb f194 93bb 99a2 3f3c 3e0a 183c
-0.026150212 0.010149202 0.029139794 -0.016827563 -0.043672726 0.077552475 -0.0054809107 0.013479988
0.024074469 0.021332206 0.031317264 -0.0106682675 -0.023914477 0.02065023 0.07696779 0.056252833
0.0073685716 0.06784175 -0.09805365 -0.024020646 0.026034739 0.005448056 -0.004977651 0.03950718
-0.028113682 -0.0025352726 -0.023513978 -0.02855713 -0.033004865 8.939707e-39 0.02855713 -2.126077e-38
0.025569748 0.0031597947 0.04441099 -0.05568328 0.03855206 -0.01378294 0.06307698 -0.043146256
-0.02041182 0.0068172235 0.020323912 0.007835497 0.022593481 0.016452013 -0.018587766 0.006092229
-0.017349247 -0.007830374 -0.031922597 -0.03347851 -0.014447993 0.045577507 0.0035147166 -0.04518387
-0.037986714 0.010257316 -0.018862003 -0.011825935 0.058138523 0.02391849 -1.823361e-39 -0.058138523
4.466039e-38 -0.0176167 -0.0153150065 -0.023134626 -0.027466664 0.08478863 -0.03425122 -0.010957377
0.03803864 -0.028097404 -0.028505802 0.019660527 -0.027038693 -0.058976527 -0.038307875 0.030206338
0.05562521 0.0033867448 -0.08230634 -0.062486995 -0.05223861 -0.0005238054 0.011280695 -0.053542897
-0.034657516 0.034119885 0.021827852 0.030255347 -0.025676431 -0.005955132 0.0059985705 -3.9444304e-38
0.005955132 2.415242e-38 -0.08808016 0.0025910863 0.049962416 -0.023053953 0.02042014 0.02869312
-0.008773941 0.013973332 0.002690312 -0.04571016 0.018951526 0.017441323 -0.0039296923 -0.023938587
0.0019560403 0.031169891 -0.01960189 -0.028821645 -0.025108408 0.022573754 0.013364478 0.03767378
0.053559963 0.015073806 0.023135994 -0.017335571 0.061381046 0.030701386 0.015633902 8.86186e-05
-5.523614e-38 -0.015633902 6.249513e-38 -0.10739815 0.0070247594 0.08168538 -0.0053436137 0.028745672
0.012964579 0.009537408 0.008530363 -0.00502978 -0.024147687 0.0153924525 0.015182761 -0.0009023322
0.02782879 0.015765725 0.07851873 -0.009547163 0.020873016 0.081959225 0.04137438 0.0233169
-0.010287723 -0.042285945 -0.03241542 0.037224416 0.03067068 0.036070086 -0.022152258 -0.019924281
0.012384766 2.5949416e-38 0.019924281 -1.3913089e-38 0.00701104 -0.014211588 0.02446597 -0.0221373
0.011280091 0.025355782 0.026644709 -0.059086006 -0.0012119262 0.021037012 0.0070538246 -0.032531086
0.0295785 0.059020765 0.008904097 0.013665 -0.009110828 -0.00046496926 0.111726455 -0.048643135
-0.0062572258 0.044571538 -0.030346608 -0.008916371 0.041402 0.0040427092 -0.002090985 0.013204338
0.02506249 0.018363241 5.411994e-38 -0.02506249 6.9731465e-38 -0.016545404 -0.032518625 0.056452975
-0.0016140832 0.104771316 0.0065851104 0.025908396 0.007000078 -0.005935409 0.010803393 -0.0085788295
-0.025025481 0.0056077344 -0.02200102 0.024066584 0.049393445 0.023280395 -0.0011285931 0.041097745
-0.010750302 0.036751084 0.0069234567 -0.007583743 -0.0057067964 -0.055215836 0.0009642225 -0.038428944
-0.008175821 0.033854753 -0.002527551 -2.957598e-38 -0.033854753 -4.9908366e-38 0.08409018 -0.04036939
0.062346857 0.012102402 0.14310287 -0.062290773 0.00093995896 -0.05143247 -0.0042569437 0.025719991
0.014459213 -0.0008411388 0.014284313 -0.03254214 -0.059268102 0.0375682 -0.022568926 0.039294254
-0.10329869 0.095605254 -0.04811688 0.011565841 -0.0028288302 -0.004503839 0.011696481 0.009279786

fcs1.bias f4 [400]
00000000: a3f0 e93c ab22 6ebd 4423 c33b a812 80bc
00000010: 4238 a33c e54f cdbc 4bab 0abd 184b adbc
00000020: dbd3 5ebd e71b 023c d548 f0bc e8aa 07bc
00000030: 422c cdbb e151 5cbc c3af 35bc fa46 41bd
00000040: 7b1d 303b de58 bebc 5501 6dbb e5a4 c5bb
00000050: c7bc 5bbc 40e1 57ba 00c8 cdbc f3d2 8cbd
00000060: 7250 86bb 6dbd 0e3c e6b2 b3bc a477 1cbd
00000070: 5099 4fbc 51ad b9bc b1a0 063d c844 e0bb
00000080: 3212 b43b a045 d93c 67fd 1cbd 736a 93bc
00000090: 0b46 d5bc 18b4 bfbc 2ec8 4c3c f8e2 f9bc
000000a0: 16d5 503c 3ff7 27bd 5a4c b8bb e10f b0bc
000000b0: b02e 6ebb ad46 95bd 19ea ccbc 10a2 3bbc
000000c0: 2152 8fbc 2d6d 40bc 5eff 0cbc 4ba6 533c
000000d0: f092 143c bcd1 01bd acfa 67bb e320 723c
000000e0: cb5f a2bb 2057 72bc e0c1 2c3a 1c87 81bb
000000f0: 4250 a33c 3e13 08bc 7d17 143c c121 cfbc
00000100: e0fa 39bd c6c4 b8bc c656 2ebd 71cc f2bc
00000110: 4de1 5fbd 5d37 b7bc 19c2 36bc 48a6 46bc
00000120: 166e 14bd 8483 97bc fa6e e8bc c242 c1bc
00000130: 9822 f6bb 3a7b 70bd 709d e7bb a2df f23b
00000140: 97af 0eba 7a31 15bc 699b f63b fe36 18bd
00000150: 1ea4 94bb 45dc 20bd d1a9 9dbc 7e6a 68bc
00000160: 0827 853b 37ff cabc c44d feba 3da4 1ebd
00000170: ad13 9fbb ec5f 51bd b94a 8dbc 1c22 b0bc
00000180: fb96 8bbb 698c 92bc 68da cbbc 8a0f b7bc
00000190: 4d09 01bd d97e a9bb 7644 0ebd acad b5bc
000001a0: 4fbf efbc db68 62bb 81ed 2fbd e96c 843c
000001b0: f5b8 08bd 4fa1 a43c b1c4 973c 98ca f7bb
000001c0: caca 6bbc e1cd 1bbb 7bf7 05bd 4df6 47bd
000001d0: e270 a7bc b308 7b3c 4aca a9bc 58f6 3abc
000001e0: 8e0c f8ba 7326 27bd 0533 25bd 16e4 5abc
000001f0: d283 cebc 73c0 91bb 678c 7dbc 0e5d 8dbc
00000200: 3ff6 94bc 2c4b 46bc 4571 033c 469a 88bc
00000210: 003e 02bd 9bf9 cc3c 0a22 47bd 563a 9c3c
00000220: 77d0 9abd 4748 b1bc 459e 03bd 4518 12bd
00000230: b22f afbc 16ed 8e3b 241e 41bc cb7a 37bc
00000240: 1a31 80bd 5cde 45bc 01ef 4abc f7b3 4fbc
00000250: 8503 c0bc a17c a0bc c59d edbc e4a4 cbbc
00000260: 4126 48bc 2611 81bc 1cdf 07bd d4bb 47bb
00000270: 8001 31bc a7c9 dbbc 473a 06bd f30b a9bc
00000280: 96f5 70bd 017f a3ba 16c1 1ebc 5ca2 51bc
00000290: 5b9b 0fbd f642 84bc 46e5 46bc 819e 97bc
000002a0: df11 03bc f843 01bd d354 16bd ba94 afbc
000002b0: 5b72 cdbb d6a2 92bb d5dc 02bd 41cf d2bb
000002c0: 8a3b 8fbb 5b0f 0f3d 17cd e1bc 8455 9dbc
000002d0: bf42 4bbd 232b ddbb 5ee8 503c d758 ffbc
000002e0: d5fb c5b9 954b a4bb c269 d6bc 571e ecbc
000002f0: dde4 4b3b fd41 99bc aeb3 babb bfd3 c9bc
00000300: 7860 a7bd c0ec 34bc 7ffa 3fbc ecd0 24bc
00000310: 6f31 9fbc 3dfb a13b 4687 adbc 18b1 9fbc
00000320: 688a 4bbc 32d5 f7bb 8b2c 24bc 0aa0 fbbc
00000330: cd6b a9bc f27d 0bbc f5c8 d0bb de45 8abc
00000340: c81f 88bc ce18 cebc 9919 69bc 703c 2abd
00000350: 4e80 1ebd b513 94bc c4bb b7bc 2d18 c6bc
00000360: 6136 40bd 9379 973b 6261 b8bc 8644 edbc
00000370: 6d6f 0abd 8cbe a3bc f5cc 1fbc ce0e 2ebd
00000380: f4d1 7b3b cc7f 8ebc 0762 9dbc 6604 78bb
00000390: 6c80 cabb e4c1 0cbd 5f02 1ebd 5c1d 57bb
000003a0: e565 8bbc ebf1 2abc e667 6cbc 1d1c 57bc
000003b0: f59c 01bd 4a3b 59bc a33c 99bc 3318 41bd
000003c0: 58ae 8f3c 5da5 e3bc 67c7 5abc c4ee b6bc
000003d0: 93dd 98bc be90 01bd 61a1 f4bc 4059 cbba
000003e0: 502a 62bc ad53 80bc 071e 1cbd f05e c7bb
000003f0: 941b 9dbc 7ed8 dcbc 7eeb e6bc b751 04bc
0.028557127 -0.05813853 0.0059551317 -0.015633896 0.019924287 -0.02506251 -0.033854764 -0.021153972
-0.05440126 0.007941223 -0.029331604 -0.008280493 -0.0062613795 -0.013447256 -0.011089268 -0.04718683
0.002687304 -0.023235735 -0.0036164124 -0.00603162 -0.013411707 -0.0008235164 -0.025119781 -0.06876173
-0.0040989453 0.008712155 -0.021935891 -0.038200036 -0.01267083 -0.022665652 0.03286809 -0.006844137
0.005495333 0.026522458 -0.0383276 -0.017995095 -0.026034376 -0.023401305 0.012498898 -0.030503735
0.012746116 -0.041007277 -0.005624336 -0.021491947 -0.0036343746 -0.07288871 -0.02501397 -0.011452213
-0.017495217 -0.01174478 -0.008605806 0.012918065 0.009068236 -0.03169416 -0.0035397215 0.014778349
-0.004955267 -0.01479128 0.0006590169 -0.003952874 0.01993573 -0.008305369 0.009038803 -0.02528465
-0.04540527 -0.022554766 -0.042563222 -0.0296385 -0.054658223 -0.022365266 -0.011154675 -0.0121246055
-0.0362378 -0.018495329 -0.02837323 -0.023591403 -0.007511448 -0.058711268 -0.0070683286 0.007411913
-0.0005443035 -0.009106034 0.0075258506 -0.03716182 -0.004536166 -0.039272565 -0.019246014 -0.014185546
0.004063491 -0.024779899 -0.0019401838 -0.03873085 -0.0048546405 -0.05111687 -0.017247545 -0.02150064
-0.0042599416 -0.017889218 -0.024884418 -0.022346277 -0.03150301 -0.005172592 -0.03473326 -0.02217754
-0.029266028 -0.0034547362 -0.04295111 0.016165214 -0.033379514 0.02009645 0.018526407 -0.007561993
-0.01439161 -0.0023773836 -0.03270672 -0.048818875 -0.020439569 0.015321898 -0.020726342 -0.011411272
-0.001892464 -0.040808152 -0.04033186 -0.013360044 -0.025209341 -0.0044479906 -0.015475369 -0.017256286
-0.018183826 -0.012102883 0.008022611 -0.016675126 -0.03179741 0.025021365 -0.048616447 0.019070785
-0.07559293 -0.02164091 -0.03213336 -0.035667676 -0.021385048 0.004361759 -0.011786971 -0.01119871
-0.062593654 -0.01207694 -0.0123860845 -0.012677184 -0.023439178 -0.019590678 -0.029005894 -0.0248589
-0.012216152 -0.015755247 -0.033171758 -0.0030476945 -0.01080358 -0.026829554 -0.03277042 -0.02063558
-0.05882796 -0.0012473763 -0.00968959 -0.012795057 -0.035060268 -0.01614521 -0.012139624 -0.018508198
-0.007999866 -0.03155896 -0.03670199 -0.021433223 -0.0062697357 -0.004474978 -0.031948883 -0.006433398
-0.0043711113 0.034926753 -0.027563615 -0.019205816 -0.0496242 -0.006749527 0.012750713 -0.031170292
-0.00037762398 -0.005013893 -0.026173476 -0.02882306 0.0031111755 -0.018708223 -0.005697689 -0.024637101
-0.08172697 -0.011042774 -0.011717438 -0.0100595765 -0.019432751 0.00494328 -0.021182667 -0.019493625
-0.012423135 -0.0075632567 -0.0100203855 -0.030715961 -0.020681286 -0.008513914 -0.006371612 -0.016879018
-0.016616717 -0.025158312 -0.014227294 -0.041561544 -0.03869658 -0.018075803 -0.0224284 -0.02418145
-0.04692686 0.004622647 -0.022507373 -0.028963339 -0.03379767 -0.01998832 -0.009753455 -0.042494588
0.0038424702 -0.017394923 -0.019211782 -0.0037844419 -0.00617986 -0.034364596 -0.03857648 -0.0032823896
-0.01701636 -0.010433654 -0.014429068 -0.013129261 -0.031643827 -0.0132587645 -0.018705672 -0.04714222
0.017539188 -0.027788812 -0.013353205 -0.02233065 -0.018660342 -0.031632178 -0.029862108 -0.001551427
-0.013804033 -0.0156649 -0.038114574 -0.0060843155 -0.01917819 -0.0269587 -0.028188463 -0.008076123

fc2.weight f4 [300, 404]
00000000: d730 1a81 19d1 2400 8f85 3080 e227 3881
00000010: 84b8 9480 f165 b601 d657 9380 9489 bf02
00000020: e605 7e81 0b9d 6d19 1cc7 b901 1acc 8703
00000030: 0836 a10c c9fe 7300 d39f b381 373d a186
00000040: 182d bb00 855a b981 aa4d ebab 8ae5 8d80
00000050: 644d 8701 9fde a88e ed55 a88e f0d4 8e81
00000060: ea29 4c9f 61f2 b081 2099 8401 6434 bf80
00000070: b11a 9401 db71 0401 a20a fbb0 aa13 9701
00000080: 6129 b0a1 bc75 4e81 d9bc 378c f727 bd00
00000090: 6747 b400 1e32 e805 8ff7 c580 88a4 0906
000000a0: b763 71aa ddb0 02a3 6bd5 1301 cce1 6a81
000000b0: 9998 438f fd75 7080 e331 3681 9004 1d00
000000c0: d08d 1501 e9a1 f38a ad86 b480 e3ad 9001
000000d0: 32c2 0601 03a8 9780 5cab 9b80 faca 0201
000000e0: cca1 f600 3cb7 a600 300d e3a6 9489 bf06
000000f0: b296 5201 976c 2500 0709 eea7 426f b201
00000100: 084f 0d81 c30e 9800 7e81 8d06 80ba 9080
00000110: 5784 5009 007f 4800 32cd c592 392d 5d81
00000120: fad8 4f00 2643 7d8b f00e b901 bed3 8a01
00000130: 6c36 0a00 d4ac 1a01 bb5d f800 8cc3 3d81
00000140: cc71 7d01 9835 1f01 2164 4c00 97b8 8b81
00000150: 4838 b600 0367 288e 1063 3e01 f434 f700
00000160: 115c 9480 b538 b580 4b34 d095 56e8 fe86
00000170: 588e 0800 bfb7 1f00 7bc8 97a4 38eb 6980
00000180: 1040 a881 d2cc 6201 fd14 9980 00db 0000
00000190: 99c2 f800 e173 9881 8889 5381 f089 df8c
000001a0: 50a2 8b01 5661 7400 4753 bb01 65c3 a201
000001b0: ae85 b581 2bec 5780 c3b7 968b afde 2c00
000001c0: 3c54 a501 acad 5287 c9cd b480 449e ab01
000001d0: 184f 8707 50ba 0f00 d4cb 1f80 165c 5801
000001e0: 5af6 8281 fbd2 4681 0b93 e280 de51 a58a
000001f0: e0a6 ae80 3df3 b401 4eca 4781 5440 0181
00000200: 221a cb9f 623c 0480 705a 8781 cacb 1000
00000210: 95a1 9a00 faa9 36af 0ee9 3b01 45a4 6401
00000220: ea14 4b81 2e7a 9600 a498 4901 c189 1000
00000230: 535f b301 1e95 b580 b83e 0e81 6ec1 2703
00000240: 858c 0b81 1369 3201 6524 3d80 7750 ef80
00000250: d47e 3701 0804 1501 2b76 8881 3162 c61b
00000260: 5530 2800 b376 1b81 1cd9 4801 541b 0500
00000270: f62b 8091 5e20 0b03 9ecd 0480 15e3 fe85
00000280: ff21 3100 9e9b 6180 21f3 0380 b940 8e06
00000290: 19f9 9b80 b2b7 3d80 b166 9581 c73b a181
000002a0: cdec 9680 1aee 1380 801f 321f 387f 5594
000002b0: c8ee 5900 021b a701 89dd 4901 e84f 0d01
000002c0: 74b1 3b01 8cee b7ad 1659 0501 12df 9d80
000002d0: 69b0 1d80 911e 1000 e858 9f87 1560 7e80
000002e0: 59c0 f880 4d4a 23a6 84f8 5f00 35fa 3f80
000002f0: b8d6 a781 90d4 1f01 da75 9f01 2da1 fc88
00000300: 7f83 8d80 d277 2980 d0d9 1b81 eeda 4e81
00000310: 7ea7 a801 6049 a5a8 f094 8480 6f56 8481
00000320: 403f e828 4913 8f01 55b8 7601 5676 3d81
00000330: 4b9c c980 86fc 3101 c0fc 6901 b238 a981
00000340: c607 d012 e67e 6680 3569 9281 8a56 8880
00000350: 30e3 0c01 4007 b200 d7e3 f680 bfd7 5580
00000360: 1e6a a101 99b7 f99d 088b 2a01 cfc5 ae81
00000370: c093 6888 1456 3102 cad6 4281 dd85 8881
00000380: 23d5 f1a6 e716 c100 bc68 d684 a090 2f00
00000390: 3473 bb80 ac87 6400 7eb3 fc00 9cfe e9a8
000003a0: 3215 2d80 0c36 6c01 46bf 9901 3cd2 1200
000003b0: 2f70 2801 1f38 1f80 9853 d300 8a30 a880
000003c0: 3102 07aa e300 000e 44ba f100 ad42 b900
000003d0: 745f 4881 2cf3 1f00 21df 1b01 086e b281
000003e0: 0eb9 c880 7433 c880 7b52 4a80 8405 8f01
000003f0: b2cb 248d 9e75 8281 b9fd 3a80 4474 6384
-2.8320374e-38 3.381088e-39 -4.456016e-39 -3.3824077e-38 -1.3657845e-38 6.700252e-38 -1.3531328e-38 2.8143894e-37
-4.6656664e-38 1.22843274e-23 6.8243975e-38 7.981446e-37 2.4838497e-31 1.0652482e-38 -6.598355e-38 -6.0651416e-35
1.7189414e-38 -6.8088156e-38 -1.671931e-12 -1.3031148e-38 4.970222e-38 -4.1629574e-30 -4.149794e-30 -5.246811e-38
-4.323335e-20 -6.4999986e-38 4.8708866e-38 -1.7559374e-38 5.4404914e-38 2.4326258e-38 -1.8265676e-09 5.5496856e-38
-1.1937177e-18 -3.7920695e-38 -1.4154636e-31 1.7371245e-38 1.6556004e-38 2.1835585e-35 -1.81804e-38 2.5887715e-35
-2.1439695e-13 -7.084766e-18 2.7152756e-38 -4.3141014e-38 -9.6436315e-30 -1.0327902e-38 -3.3463913e-38 2.664866e-39
2.7468723e-38 -2.3460953e-32 -1.6578702e-38 5.314676e-38 2.475124e-38 -1.3927431e-38 -1.4295974e-38 2.4022858e-38
2.2649574e-38 1.5310424e-38 -1.5754864e-15 7.204837e-35 3.8679027e-38 3.436868e-39 -6.6068057e-15 6.554652e-38
-2.5954312e-38 1.3964291e-38 5.3228577e-35 -1.3291215e-38 2.5099315e-33 6.657715e-39 -1.2483032e-27 -4.0623735e-38
7.332841e-39 -4.8776544e-32 6.79797e-38 5.099703e-38 9.37878e-40 2.840933e-38 2.2808827e-38 -3.4854116e-38
4.6550406e-38 2.924214e-38 7.015417e-39 -5.132541e-38 1.673425e-38 -2.0757197e-30 3.4968562e-38 2.2702364e-38
-1.362468e-38 -1.6642567e-38 -8.4093035e-26 -9.588557e-35 7.85747e-40 2.912816e-39 -6.582544e-17 -9.727108e-39
-6.180538e-38 4.1656596e-38 -1.405836e-38 7.8562e-41 2.2845012e-38 -5.600226e-38 -3.8853253e-38 -3.4441608e-31
5.1293443e-38 1.0687835e-38 6.881245e-38 5.978978e-38 -6.668072e-38 -8.074409e-39 -5.805439e-32 4.120646e-39
6.07323e-38 -1.5849682e-34 -1.6604211e-38 6.304258e-38 2.035903e-34 1.444369e-39 -2.92002e-39 3.9739003e-38
-4.8107955e-38 -3.6518228e-38 -2.0807571e-38 -1.5919717e-32 -1.603924e-38 6.6470587e-38 -3.6695674e-38 -2.373971e-38
-8.601708e-20 -3.89003e-40 -4.972094e-38 1.542474e-39 1.4200631e-38 -1.6613191e-10 3.4513684e-38 4.1994844e-38
-3.7300217e-38 1.3819154e-38 3.7027384e-38 1.518785e-39 6.5891e-38 -1.6675718e-38 -2.612628e-38 4.9298936e-37
-2.5631086e-38 3.2768824e-38 -5.615021e-39 -2.1977549e-38 3.3702786e-38 2.736987e-38 -5.012807e-38 3.2819807e-22
3.690758e-39 -2.8554166e-38 3.6889967e-38 4.68981e-40 -2.0221932e-28 4.0885584e-37 -4.41104e-40 -2.3969462e-35
4.512135e-39 -8.963868e-39 -3.62725e-40 5.3509565e-35 -1.4323861e-38 -5.667863e-39 -5.488131e-38 -5.9227836e-38
-1.3860273e-38 -1.830289e-39 3.7719022e-20 -1.0778841e-26 8.259018e-39 6.1384866e-38 3.7076813e-38 2.595494e-38
3.4473792e-38 -2.0910627e-11 2.4492158e-38 -1.4498195e-38 -2.726513e-39 1.480333e-39 -2.3975915e-34 -1.160574e-38
-2.2844204e-38 -5.665268e-16 8.813523e-39 -5.875394e-39 -6.165422e-38 2.9356194e-38 5.8576484e-38 -1.5204591e-33
-1.2995977e-38 -3.808239e-39 -2.8625277e-38 -3.79933e-38 6.1953793e-38 -1.8350501e-14 -1.2175714e-38 -4.861317e-38
2.5784604e-14 5.2557577e-38 4.5315316e-38 -3.479872e-38 -1.8515002e-38 3.2690942e-38 4.297668e-38 -6.216215e-38
1.3128562e-27 -9.412743e-39 -5.3782894e-38 -1.2520672e-38 2.5876938e-38 1.6349319e-38 -2.2673266e-38 -7.883412e-39
5.929433e-38 -6.6099587e-21 3.132382e-38 -6.4201347e-38 -6.998864e-34 1.302861e-37 -3.5786276e-38 -5.0150594e-38
-1.6780505e-15 1.7732467e-38 -5.040734e-36 4.36815e-39 -1.7214565e-38 9.23222e-39 2.3206935e-38 -2.5978616e-14
-4.140201e-39 4.338513e-38 5.647779e-38 1.728457e-39 3.0937214e-38 -2.867033e-39 1.9407277e-38 -1.5445776e-38
-1.1991169e-13 1.5777645e-30 2.2199174e-38 1.7013486e-38 -3.6802683e-38 2.934134e-39 2.862909e-38 -6.554476e-38
-1.8433484e-38 -1.8385557e-38 -6.825415e-39 5.253782e-38 -5.078159e-31 -4.792323e-38 -5.417477e-39 -2.6737108e-36

fc2.bias f4 [300]
00000000: 9116 27b4 1845 38bc 837f 9fb8 505b bb3d
00000010: d17f 65b7 4be2 01bd dc30 efba 853f 99b7
00000020: e250 713c 9376 33b3 f5b2 9daa 0e12 d5bc
00000030: 0ce0 36ad bbd2 c5b9 286c 583c 080e 71b7
00000040: 10a1 ae3d 4c9e 9ebc a359 92b6 3a33 e68c
00000050: 55f3 033d 6c79 f2ba b116 3bb3 4f40 793c
00000060: a769 32bc 50dd dc8f bf2b 6ebc 0be8 70a8
00000070: 3f8d bb3c b452 47af 7bff 8799 2002 9d3d
00000080: 4197 10ba 0be8 e03d 601a 113e 36f5 ddb0
00000090: 0baf b63d bff1 c93d e153 66ba 602a 4bb4
000000a0: cc86 88a9 29e4 f13d 79a2 abbc 227e 10b8
000000b0: a342 813c fc68 69b9 cca6 89bc 0bcb 49bd
000000c0: 33ef e8bc c362 933d 1c99 8f8b cddf 50bb
000000d0: 9ef8 c93d ecbb 97ba 2a0d 4c3c ca65 12ac
000000e0: 9d45 623c e553 d2b3 bb9d 0abc ed8e 6db9
000000f0: da2f 15bb 7a1f bfbc 2db1 4eb9 cf78 f3bc
00000100: f2cc feab adc2 e2bc 4ec6 8ab2 3ae9 193c
00000110: f0e3 1cb8 8c2f 7fbc 4988 c9aa 51c8 f7a5
00000120: 9d21 a1bb f668 9497 3201 e0bb 7b4b 3e3c
00000130: bd87 f83d a9e4 29b3 28be adbb c450 a2ae
00000140: e027 e489 2e6e a9bc 84d3 6bb2 4ec0 af3d
00000150: 5e61 36b3 62e3 fcbb de46 25b8 1531 5bbc
00000160: fc67 93bc 3f36 d5b7 4bac 82b5 7fe0 15bc
00000170: a347 bb3d fb63 b5b3 462f 533c 13c9 a3bb
00000180: 8bc5 c38b 45a0 8c3c 8dd1 e7b5 3626 a83c
00000190: 9d1d 823d ee09 05bd cef0 f3bc 06a1 a4bc
000001a0: 6038 02ba 235f 793c 4436 3e3c 28dd d6b3
000001b0: eb1d 63b6 aa38 3cb7 1dfb 0bbc 93eb 7dba
000001c0: c727 c7bb f2b7 6cbc 06d5 7c3b 98d0 afb2
000001d0: b04b 51bc 2474 edb3 8346 93bc 5b5e 14bc
000001e0: 46a7 abba 0be0 e0bb d74e bb3d 28cb eebc
000001f0: ede5 7cad 47b8 c83d 83a9 03b0 b00a 85bc
00000200: b1ea 6d3d 7884 4a3c 6f4e 9ebc d091 e23c
00000210: eae1 68b9 d8cd 0dbd 0201 3f38 dd94 adb8
00000220: f466 b6b5 5860 4bbc 24ff ed9d ba37 509f
00000230: 7e12 deb8 66eb 8a34 01b9 a93d 8091 aab7
00000240: 6a60 e1b6 44b2 d03b edf0 923d 5153 13bd
00000250: 528e 1dae 1406 15bb 0150 5e3c 3516 8fbc
00000260: a29e 1db6 e075 93b6 6b83 7f98 2e45 bcb3
00000270: f26f 59a4 cbaf 5cba 58d0 a6ba f4c5 003d
00000280: 08ff cab9 c29f fab7 3382 c0bc 07ac fabc
00000290: 2dba c9ba 9946 1fbc 5ec8 e6b6 e54e a23c
000002a0: 29f7 5eb8 47d6 16a9 1a2d d13d ae46 93bc
000002b0: 9b65 9c97 debd e23d c0ae 7c9f add9 a23d
000002c0: 1073 0abb 6922 4b3d 4aea 26a1 d723 c7b9
000002d0: 3c4a 0b3c 6a89 7cb2 3aa8 90bc 77d2 863c
000002e0: dbee cfa7 b941 0bbd f06c c1bb 4d5f 143c
000002f0: 3585 fcb9 7b55 1fbb ccc3 35bb ea6c 8e3d
00000300: df2e 78b7 3251 753c b9c9 c8b9 f6da 34b5
00000310: 372a 09bc 7f54 56b1 91ec 07bd eda0 b0bc
00000320: 3a1e 07bd d677 f594 28f3 2a92 bbf0 20bd
00000330: cb89 30bd a2ec eeb4 dbcd a3bc 34ae 53bc
00000340: ef2f cc39 970f 4fb8 8e1c 84bc 194e 9abc
00000350: fd2c fca8 cbf7 c2a2 623e ac3c adf1 49bc
00000360: 856b 77bc 1351 ec3c 3169 af3d 49db 393e
00000370: 5e34 3cb8 c7a4 383e bcc2 8b3c c2dd 08bd
00000380: 6bdc 7794 7a62 62bc cad2 08bd b06a e6a3
00000390: a6b1 23bd e42b 81bc a2c4 b7bc b883 3cb4
000003a0: 899b e53d d62f bdbb f03a cbba 98c6 86bc
000003b0: 8b2f f5ba 2b3b 50b3 a759 aabc b8f3 0bbd
000003c0: b9db 813d 5181 b63c 2f1d 843c 02b6 32bb
000003d0: 804e 00bb 1b20 573c cbdd a7b8 5680 53b6
000003e0: 9d1a e8bc 8a5e 143b 5574 47ba bf57 eab9
000003f0: 1220 b9bc 71f9 44b6 e8fa c9b7 ccb6 733c
-1.5561297e-07 -0.011246942 -7.605462e-05 0.09148276 -1.3679223e-05 -0.03170995 -0.0018248814 -1.82686e-05
0.014728757 -4.1784528e-08 -2.801298e-13 -0.026009586 -1.0395251e-11 -0.00037731775 0.01320938 -1.4367986e-05
0.08526814 -0.019362591 -4.361574e-06 -3.5467942e-31 0.03221448 -0.0018499321 -4.3559968e-08 0.015213086
-0.010889447 -2.1778921e-29 -0.014536797 -1.3372993e-14 0.0228945 -1.8128327e-10 -1.406186e-23 0.07666421
-0.00055157027 0.10981759 0.14170218 -1.614956e-09 0.089201055 0.098605625 -0.00087863026 -1.8921264e-07
-6.062997e-14 0.11811096 -0.020951496 -3.4449746e-05 0.015778845 -0.00022259721 -0.016803168 -0.049265902
-0.028434372 0.07196572 -5.531197e-32 -0.0031871677 0.09861873 -0.0011576391 0.01245431 -2.0804352e-12
0.013810542 -9.7941474e-08 -0.008460457 -0.00022655325 -0.0022764117 -0.023330439 -0.00019711694 -0.029720692
-1.8104669e-12 -0.02768072 -1.6155493e-08 0.009393984 -3.740558e-05 -0.015575301 -3.579934e-13 -4.298341e-16
-0.004917337 -9.590772e-25 -0.00683608 0.011614676 0.12135265 -3.9556344e-08 -0.0053022094 -7.381254e-11
-5.49265e-33 -0.02068242 -1.3726893e-08 0.08581601 -4.2463732e-08 -0.007717536 -3.9405066e-05 -0.013378401
-0.01799392 -2.5416839e-05 -9.735899e-07 -0.009147762 0.09144523 -8.4466556e-08 0.012889689 -0.004998335
-7.54085e-32 0.017166266 -1.7271828e-06 0.020526033 0.063533045 -0.032480173 -0.02977791 -0.020096313
-0.0004967507 0.015220436 0.011609618 -1.00053796e-07 -3.384305e-06 -1.1218866e-05 -0.008543757 -0.00096862874
-0.00607774 -0.014448153 0.003857912 -2.0467539e-08 -0.012774393 -1.10572984e-07 -0.017977959 -0.009055699
-0.0013096116 -0.0068626455 0.09145897 -0.029149607 -1.4375595e-11 0.09800773 -4.7898413e-10 -0.016240448
0.058085147 0.012360685 -0.01932451 0.02765742 -0.00022209404 -0.034620136 4.5538887e-05 -8.277011e-05
-1.359002e-06 -0.012413107 -6.2997187e-21 -4.409181e-20 -0.00010589229 2.5875778e-07 0.0828724 -2.0333333e-05
-6.7167466e-06 0.006368907 0.07174859 -0.03596813 -3.5824073e-11 -0.0022739219 0.013568879 -0.017466644
-2.348716e-06 -4.394664e-06 -3.3024327e-24 -8.767016e-08 -4.7149196e-17 -0.0008418529 -0.0012726886 0.031438783
-0.00038718455 -2.9876715e-05 -0.023499584 -0.030599607 -0.0015390568 -0.009721422 -6.87786e-06 0.01981301
-5.315911e-05 -3.3492547e-14 0.102136806 -0.017978039 -1.0106913e-24 0.110713705 -5.3507625e-20 0.079516746
-0.0021125712 0.049593363 -5.6553067e-19 -0.0003798294 0.008501586 -1.4699575e-08 -0.017658342 0.01645778
-5.771301e-15 -0.033998225 -0.005902879 0.009055925 -0.00048164433 -0.0024312425 -0.0027735112 0.069543675
-1.4792865e-05 0.014972972 -0.00038297268 -6.7373855e-07 -0.008371881 -3.118913e-09 -0.03318459 -0.02156111
-0.03298781 -2.4785945e-26 -5.3942255e-28 -0.03929208 -0.04310016 -4.4503128e-07 -0.01999562 -0.012919951
0.00038945625 -4.9367165e-05 -0.016126897 -0.018836068 -2.799713e-14 -5.2846166e-18 0.02102584 -0.012325686
-0.015101318 0.028847253 0.085649855 0.18150057 -4.4871464e-05 0.18031608 0.01706063 -0.03341461
-1.2513783e-26 -0.013817424 -0.03340415 -2.4981834e-17 -0.03996434 -0.015767999 -0.022432629 -1.7556783e-07
0.112113066 -0.0057735248 -0.0015505236 -0.016452119 -0.0018706186 -4.8482587e-08 -0.020794703 -0.034167975
0.06340737 0.02227846 0.016127197 -0.002726913 -0.001957804 0.013130213 -8.004493e-05 -3.1516151e-06
-0.028333003 0.0022639357 -0.00076085824 -0.00044697334 -0.0225983 -2.935147e-06 -2.4077905e-05 0.014875125

fc3.weight f4 [1, 300]
00000000: 1c54 bd3a 8583 74be a772 6cba 1057 c33e
00000010: 44b1 a1ba c581 80be e95b e939 c4b3 02ba
00000020: 1525 503e 8fd2 4534 b8bb 9238 e19d 04be
00000030: bc39 bc38 c1a7 b8ba 24d6 343e 63ce 043b
00000040: 71a9 cc3e 607d 62be 6583 89b6 2f23 0db7
00000050: 7d97 753e cd41 02ba e7df d6b7 df00 413e
00000060: 7a93 42be d55d 1b35 68fb 32be db2f 1c32
00000070: 1447 6d3e a5d7 3838 73fb 8436 9c9b b53e
00000080: d1eb 41ba 2e1c 003f 2005 8a3e aed3 9ab7
00000090: a787 ed3e 35a7 c63e d714 9ebe a4dc ee35
000000a0: bb6a adb8 e1eb cc3e 15b8 35be 9a02 25bb
000000b0: a381 4d3e bdeb 02b9 7274 3fbe f171 87be
000000c0: 24b0 5ebe a493 093f 0cb1 33b3 0875 9dbe
000000d0: 5896 9a3e 5256 efba f9bb 163e 8de6 ffb8
000000e0: c6e3 813e 6f34 40b9 cb94 afbe 4472 3636
000000f0: cc4a a03a 5ef3 34be f5c0 a9b9 c4c9 4fbe
00000100: 98a1 b8b9 d28d 01be bc93 8838 11b2 b4be
00000110: e685 893a d96e 39be 616d 4b35 2589 3138
00000120: 3521 81be 5436 56b5 1055 0fbe a1c3 2f3e
00000130: df7e c23e 92cc 4a3a d706 87be fe67 9737
00000140: 2f24 a7b6 329a 67be 4921 c837 4a1a 093f
00000150: 4f96 41ba 69c2 55bd d411 83ba 8f3a 5dbe
00000160: d700 2fbe 5ed6 50ba 47a1 91b9 b7d8 26be
00000170: 5842 7a3e 498d 3f36 6d38 3f3e 4b2b b3bd
00000180: cb2e 0e37 730a 113e 1c9d bdba 7e9a 283e
00000190: 937f cb3e ea4e 4abe eea3 84be 67c7 6cbe
000001a0: dc31 75bb 82b4 333e fc36 463e cf68 5037
000001b0: f223 5f39 5990 c4b9 844b d6bd 2dec 363a
000001c0: edb7 5ebe 4b5c 74be 4d53 66be c880 533a
000001d0: 6c6f 8dbd b69a ac39 dd53 32be 0a7e e7bd
000001e0: fa62 ecb9 d337 1ebe 5982 d63e d206 66be
000001f0: 94f6 12b7 270f d33e c441 a73a db5b 4fbe
00000200: 8842 d93e bb87 533e 4e83 7dbe 1f7f 243e
00000210: a525 263b c903 69be dc89 68be b997 ca39
00000220: 0f76 58b7 bdcf 3fbe f701 7eb8 e0d6 6aaa
00000230: 2ce2 34bb 6a4f 0835 7479 fd3e fdb6 bcb9
00000240: d2ec 01ba de3f 343e d912 e63e a440 48be
00000250: baf3 b1b9 31e4 11bb 1ca2 243e d1a0 f1bd
00000260: dd29 a93a 19ff 67b7 4015 a238 f745 b337
00000270: bf6d c0b7 eb85 05b7 de9b cd37 8652 0dbf
00000280: a0bf cfba 51dd beb8 2788 82be 8a12 16be
00000290: e0c0 6aba 8022 34be b820 3833 a508 553e
000002a0: 6b56 48ba 537d ecb8 bfca f03e ccdf 1cbe
000002b0: 0cfc 40b3 aca3 de3e 9141 a5b9 4987 da3e
000002c0: a35c 89ba 6d04 a23e dd3a 1237 550b 16bb
000002d0: aaae 2a3e 8374 38b9 4f94 5ebe e9b7 383e
000002e0: 993b 0aba 5d94 57be 3ee4 4abe 9c93 09bf
000002f0: d451 5eba 3aae 7bbe 000b ceb7 94c5 803e
00000300: 9a85 2037 f628 9c3e f8e9 c5b8 5cbc 573a
00000310: 4e84 31be 3e9c f9ba 2d4a 62be b333 59be
00000320: e8b8 42be 8352 a4b7 e642 ab36 8e98 68be
00000330: 684f b4be d948 b83a fd3e 77be d75c 33be
00000340: e8af 46be e0ec 64ba a17b 60be 8048 96bd
00000350: 7740 d337 2cd6 54b7 f8b4 673e b606 9dbd
00000360: 3c3c f4bd ccbd d03d e230 e63e 34c5 833e
00000370: 9b89 303a 1bc4 b43e 5d2f 413e 6f93 38be
00000380: 8a34 bcb7 5b19 27be 8b86 7ebe 2dc3 4b38
00000390: 30ba afbe 801d 96be 41b1 1cbe 3c60 4bb8
000003a0: 1e2b 173f b13d 4b3e 1769 333a 04dd 5ebe
000003b0: 516e 27ba f272 4b38 b95d 82be 11a2 9dbe
000003c0: f01c 0b3f e6ee 8c3e 4c91 413e 4334 8bb9
000003d0: b295 82ba 2f0a 393e 4203 4fb8 9627 98b9
000003e0: 15a2 51be 809f 37be 8663 fe38 6ac0 9ab8
000003f0: 09a5 12be a3d1 af39 3d14 d6b6 0aad 823e
0.0014444622 -0.23878296 -0.000901977 0.3815236 -0.0012336154 -0.25099006 0.00044509702 -0.00049858936
0.20326646 1.8423655e-07 6.996788e-05 -0.12950851 8.9752924e-05 -0.001408808 0.17659813 0.0020264618
0.39973024 -0.2211814 -4.0982145e-06 -8.412447e-06 0.2398357 -0.00049689115 -2.561505e-05 0.18847989
-0.1900157 5.7878543e-07 -0.17478716 9.091276e-09 0.23171645 4.4069853e-05 3.963179e-06 0.35470283
-0.0007397505 0.50043 0.26957035 -1.8456802e-05 0.46392557 0.38799444 -0.30875275 1.7796597e-06
-8.269163e-05 0.4002371 -0.17746003 -0.0025178553 0.20068984 -0.00012485585 -0.18696764 -0.26454118
-0.2174688 0.53740907 -4.183771e-08 -0.3075335 0.30192828 -0.0018259978 0.14720143 -0.00012202291
0.2536909 -0.0001833008 -0.34293208 2.7186625e-06 0.0012229322 -0.17670962 -0.00032377956 -0.20291811
-0.00035215612 -0.12651756 6.512503e-05 -0.35292104 0.0010492175 -0.18108691 7.578256e-07 4.2327814e-05
-0.25220647 -7.980027e-07 -0.13997293 0.1716447 0.3798742 0.0007736172 -0.26372406 1.8049028e-05
-4.9812e-06 -0.22617415 2.3857358e-05 0.5355574 -0.00073847634 -0.052187357 -0.000999982 -0.2160437
-0.17090164 -0.00079665135 -0.00027776716 -0.16293608 0.2443937 2.8543457e-06 0.18673868 -0.08748492
8.474754e-06 0.14164142 -0.0014466378 0.16465184 0.3974577 -0.19756666 -0.25906318 -0.23122941
-0.0037413752 0.17549327 0.19356912 1.2422169e-05 0.00021280328 -0.0003749158 -0.10463622 0.0006977942
-0.2174985 -0.23863332 -0.22492714 0.0008068201 -0.06906018 0.00032921665 -0.17414804 -0.11303337
-0.0004508717 -0.15450983 0.41896322 -0.22463539 -8.759689e-06 0.41222498 0.0012760689 -0.20249884
0.42433572 0.20657246 -0.2475712 0.16064118 0.0025352028 -0.2275535 -0.22708839 0.00038641485
-1.2902091e-05 -0.1873159 -6.056015e-05 -2.0857925e-13 -0.002760063 5.077951e-07 0.49506724 -0.0003599449
-0.00049562484 0.17602488 0.44936255 -0.19555908 -0.0003394166 -0.0022261257 0.16077465 -0.117982514
0.0012906153 -1.38280675e-05 7.72872e-05 2.1371043e-05 -2.2939288e-05 -7.958598e-06 2.4510486e-05 -0.55204046
-0.0015849955 -9.1011294e-05 -0.254945 -0.1465551 -0.0008955132 -0.17591286 4.2870596e-08 0.20804079
-0.0007642272 -0.000112767004 0.47029683 -0.15319747 -4.493272e-08 0.43484247 -0.00031520103 0.4268134
-0.0010479878 0.31644002 8.715983e-06 -0.0022894938 0.16668192 -0.00017591011 -0.21736263 0.18038906
-0.0005273163 -0.2105269 -0.1981363 -0.5374086 -0.0008480821 -0.24578181 -2.4562236e-05 0.2515074
9.56785e-06 0.305 -9.437272e-05 0.0008229667 -0.17335626 -0.0019043756 -0.22098608 -0.21211128
-0.19015849 -1.9588746e-05 5.103985e-06 -0.22714445 -0.35216832 0.0014059796 -0.24145122 -0.17515884
-0.1940304 -0.0008732807 -0.2192216 -0.07338047 2.5183179e-05 -1.26860505e-05 0.22627628 -0.07667296
-0.11925551 0.10192451 0.4495917 0.25736392 0.0006734372 0.35305867 0.18865724 -0.18024991
-2.2435812e-05 -0.16318266 -0.24856012 4.8580743e-05 -0.34321737 -0.29319382 -0.15301992 -4.8488597e-05
0.59050167 0.19847752 0.0006843968 -0.21763998 -0.0006386983 4.8506023e-05 -0.2546213 -0.3078771
0.5434103 0.27526015 0.18903083 -0.00026551084 -0.0009962826 0.18070291 -4.935568e-05 -0.00029021193
-0.20471986 -0.17931938 0.000121302015 -7.379132e-05 -0.14320768 0.00033534793 -6.380053e-06 0.25522643

bn1_state.weight f4 [400]
00000000: 78e1 1e3e 1830 683f 6dfc 2f3f 26ac d43e
00000010: d097 ef3e 3073 9e3e 2418 213f 26e9 d93e
00000020: 749c 133e 931a 233f 002d 4d3f 9035 123e
00000030: 3a19 023f c812 7a3f 2757 513f b0aa 023f
00000040: 90a3 a73e bc64 433f a289 443f eac9 023f
00000050: 84a7 063e 0edc c63e f551 383f e693 1d3f
00000060: c4b9 603e 2042 5c3d c978 5b3f c5bb 433f
00000070: da96 da3e d547 303f 4c63 1d3e 3bfd 263f
00000080: d486 9b3e 68d6 ab3e 427f c83e 540c 3a3e
00000090: c358 683f 6633 943e bf06 693f 99b3 5e3f
000000a0: a06e fd3d 91b0 033f f04f a03e 28fb 103f
000000b0: 84bb 7d3e 398c 573f daa6 183f a469 893e
000000c0: 88c3 7d3f f46d 963e 9aeb 7f3f e007 fb3d
000000d0: 79ea 393f b9e9 0f3f b0cb 1e3f 1053 4b3e
000000e0: 5c71 843e 02c8 5e3f 0804 3f3e 47c0 473f
000000f0: 9612 c23e 14b2 373e 6e08 8f3e 1ae3 ac3e
00000100: 4590 783f 11da 423f a7bb 273f 68a5 fd3d
00000110: c29c 4c3f 5552 3f3f c855 d23d 507a f03e
00000120: d5e6 343f 7800 d83e 900a 793d f2df a33e
00000130: 348b 253e 289b ca3d 00b4 a73a eb13 503f
00000140: e8c2 c63d fa39 b53e a42b 433f 3239 ca3e
00000150: bc42 c03e cc92 0c3e 7869 793f 005b a53c
00000160: 9053 873e 7e2c 7d3f 8c25 2f3e 3692 c63e
00000170: 3eae 8f3e 8d8d 223f 06b1 ab3e 4480 193f
00000180: 8e55 493f 880a 0d3e 204a 6a3f c836 ca3d
00000190: ac19 f03e 807b 053c 91d4 223f 708e b33d
000001a0: 76c9 0c3f 3c83 353f 7d00 623f 45cd 3e3f
000001b0: ef9a 713f 5a97 803e 584b 363e 7ecd 383f
000001c0: 9ceb c33e 4079 a33e e8cf d43e 02ff d23e
000001d0: 308f 9e3d d871 193e 58c9 3e3f 6815 d43e
000001e0: 0be2 523f 5585 093f 5ca0 453f c41b 073f
000001f0: 0d3e 333f f409 5d3e 64db 363f 0c4c 3d3e
00000200: a0be a93e b374 763f 10de c33e fca5 423f
00000210: 79fc 213f 3ef6 fe3e cc72 ec3e 7697 d73e
00000220: 42f8 8c3e 12a3 083f 1232 7b3f a819 633f
00000230: 560b 243f 965b ea3e 251c 1a3f 822d 4a3f
00000240: e15f 4e3f c1e4 1a3f 651e 0e3f 0c18 173f
00000250: e624 eb3e 0d9f 7b3f 5ef7 1a3f fc12 773e
00000260: 28f6 623e 5827 f73d bd29 4f3f 00f8 8b39
00000270: 220c a93e dc3f 8c3e e84a da3e b8f9 5a3e
00000280: fada 833e 2373 163f 1adb ca3e 7c4c a83e
00000290: 2597 6e3f 0027 113e d48f 8b3e 43fb 333f
000002a0: 5ec6 e83e c2c9 ff3e ba47 793f e04c 393e
000002b0: b446 6b3e b15c 243f 4852 153e 186b 743f
000002c0: 74dc 433f 8040 ee3b edd8 023f e892 a03d
000002d0: 8c00 423e 7da0 513f 049a 703f 6c83 1e3e
000002e0: d98b 3a3f 447f cf3e b49b 933e aacb 323f
000002f0: fa50 b33e 5843 a33d 1815 b33d 58bf 833d
00000300: 5ab8 653f 2acb 8d3e 1e23 623f 164b e53e
00000310: bec9 573f cecd 863e 31ee 783f d0ff 413f
00000320: ad85 6d3f d417 883e 541c cd3e 2a79 143f
00000330: df5c 483f 5b47 713f 724d 953e ab32 763f
00000340: d2be ba3e 563b 213f d219 213f aaab 453f
00000350: df61 753f 60f2 b03d 8010 793e e4ae 763e
00000360: 2438 a13e 2b5e 203f f0f5 ce3d 2832 ae3d
00000370: 9ee7 1d3f 34ae 583e 18e7 fc3e e2ef 5d3f
00000380: 805e bf3e 1972 7b3f fa59 453f b7f0 253f
00000390: aa9d 393f e03f 683e 8c50 063e b44a 603e
000003a0: c061 ea3e f45e 303f e425 873e 60f6 993c
000003b0: 6465 bb3e 98b6 323e a1e3 5a3f 5543 643f
000003c0: cc2e 253f 9314 5e3f 908f a93e fb9a 023f
000003d0: 244d 3c3f 87c9 5b3f 90ad e73d 43ad 353f
000003e0: 7eb1 2a3f 6205 e53e b616 443f 2824 fe3e
000003f0: 06eb bc3e a445 e93e 38d6 b63d b03c 273f
0.15515697 0.90698385 0.68744546 0.4153759 0.4679551 0.30947256 0.6292746 0.4256069
0.14415151 0.63712424 0.8014679 0.14278245 0.5081974 0.9768491 0.8177361 0.510417
0.32741976 0.76325583 0.7677251 0.51089346 0.1314984 0.38839763 0.72000057 0.615538
0.21945864 0.053774 0.8573118 0.7645839 0.42693216 0.68859607 0.1536991 0.6523015
0.30376303 0.33562016 0.3915959 0.18168765 0.9076044 0.28945464 0.9102592 0.86992794
0.12374616 0.51441294 0.31310987 0.56633234 0.24778563 0.8419834 0.59629595 0.2683841
0.9912648 0.29380763 0.99968874 0.122573614 0.726234 0.5621601 0.6202955 0.19855905
0.25867736 0.8702394 0.18653882 0.78027767 0.37904805 0.17939025 0.2793612 0.33767015
0.9709514 0.7611399 0.6552071 0.12385064 0.79926693 0.74735004 0.10270268 0.46968317
0.7066472 0.42187858 0.06080109 0.32006794 0.16166383 0.09892875 0.0012794733 0.8128039
0.09705144 0.35395795 0.76238465 0.39496762 0.37550914 0.13727874 0.9742656 0.020184994
0.2643094 0.98896015 0.17104167 0.38783425 0.28062624 0.6349724 0.33533496 0.5996134
0.7864617 0.13773549 0.91519356 0.0987373 0.46894586 0.0081471205 0.636056 0.08767402
0.54994905 0.7090337 0.88281995 0.74531966 0.94377035 0.25115472 0.17802179 0.72188556
0.38265693 0.31928444 0.4156487 0.4121018 0.077421546 0.14984834 0.74525976 0.41422582
0.82376164 0.53719074 0.77197814 0.5277674 0.70016557 0.21585828 0.71428514 0.18486041
0.33153248 0.9627182 0.38255358 0.7603452 0.6327587 0.49797243 0.46181333 0.42107743
0.27533156 0.53373826 0.98123276 0.88711023 0.640798 0.45773 0.60199195 0.7897569
0.8061505 0.605053 0.5551513 0.5902107 0.4592659 0.9828957 0.605337 0.24128336
0.22164214 0.12068051 0.8092306 0.0002669692 0.3301707 0.2739247 0.42635274 0.21384323
0.25753003 0.58769435 0.39620286 0.32870853 0.9319938 0.14175034 0.2725817 0.7030527
0.45463842 0.49958616 0.9737507 0.18095732 0.2297619 0.64203936 0.14582169 0.9547591
0.7650826 0.0072708726 0.5111225 0.0784052 0.18945521 0.8188551 0.9398501 0.15479821
0.7286964 0.40526783 0.2882973 0.69842017 0.35022718 0.07971829 0.08744258 0.0643298
0.89734423 0.27694064 0.88334835 0.4478385 0.8429221 0.26328892 0.9723845 0.75780964
0.927821 0.2658068 0.40060675 0.5799738 0.7826671 0.94249505 0.2916065 0.96171063
0.3647371 0.62981164 0.62930024 0.77215064 0.95852464 0.08639979 0.243227 0.24090153
0.31488144 0.6264369 0.101055026 0.0850566 0.61681545 0.21160203 0.4939506 0.8669416
0.37376785 0.98220974 0.7709042 0.64820427 0.725062 0.22680616 0.13116664 0.21903497
0.45777702 0.68894887 0.26396096 0.018794239 0.36600792 0.17452466 0.85503584 0.8916524
0.6452453 0.86750144 0.33117342 0.5101773 0.7355521 0.8585438 0.11312401 0.709675
0.6667708 0.4473067 0.76597154 0.4963696 0.3689806 0.45560944 0.08927578 0.65326977

bn1_state.bias f4 [400]
00000000: 0000 0000 0000 0000 0000 0000 0000 0000
00000010: 0000 0000 0000 0000 0000 0000 0000 0000
00000020: 0000 0000 0000 0000 0000 0000 0000 0000
00000030: 0000 0000 0000 0000 0000 0000 0000 0000
00000040: 0000 0000 0000 0000 0000 0000 0000 0000
00000050: 0000 0000 0000 0000 0000 0000 0000 0000
00000060: 0000 0000 0000 0000 0000 0000 0000 0000
00000070: 0000 0000 0000 0000 0000 0000 0000 0000
00000080: 0000 0000 0000 0000 0000 0000 0000 0000
00000090: 0000 0000 0000 0000 0000 0000 0000 0000
000000a0: 0000 0000 0000 0000 0000 0000 0000 0000
000000b0: 0000 0000 0000 0000 0000 0000 0000 0000
000000c0: 0000 0000 0000 0000 0000 0000 0000 0000
000000d0: 0000 0000 0000 0000 0000 0000 0000 0000
000000e0: 0000 0000 0000 0000 0000 0000 0000 0000
000000f0: 0000 0000 0000 0000 0000 0000 0000 0000
00000100: 0000 0000 0000 0000 0000 0000 0000 0000
00000110: 0000 0000 0000 0000 0000 0000 0000 0000
00000120: 0000 0000 0000 0000 0000 0000 0000 0000
00000130: 0000 0000 0000 0000 0000 0000 0000 0000
00000140: 0000 0000 0000 0000 0000 0000 0000 0000
00000150: 0000 0000 0000 0000 0000 0000 0000 0000
00000160: 0000 0000 0000 0000 0000 0000 0000 0000
00000170: 0000 0000 0000 0000 0000 0000 0000 0000
00000180: 0000 0000 0000 0000 0000 0000 0000 0000
00000190: 0000 0000 0000 0000 0000 0000 0000 0000
000001a0: 0000 0000 0000 0000 0000 0000 0000 0000
000001b0: 0000 0000 0000 0000 0000 0000 0000 0000
000001c0: 0000 0000 0000 0000 0000 0000 0000 0000
000001d0: 0000 0000 0000 0000 0000 0000 0000 0000
000001e0: 0000 0000 0000 0000 0000 0000 0000 0000
000001f0: 0000 0000 0000 0000 0000 0000 0000 0000
00000200: 0000 0000 0000 0000 0000 0000 0000 0000
00000210: 0000 0000 0000 0000 0000 0000 0000 0000
00000220: 0000 0000 0000 0000 0000 0000 0000 0000
00000230: 0000 0000 0000 0000 0000 0000 0000 0000
00000240: 0000 0000 0000 0000 0000 0000 0000 0000
00000250: 0000 0000 0000 0000 0000 0000 0000 0000
00000260: 0000 0000 0000 0000 0000 0000 0000 0000
00000270: 0000 0000 0000 0000 0000 0000 0000 0000
00000280: 0000 0000 0000 0000 0000 0000 0000 0000
00000290: 0000 0000 0000 0000 0000 0000 0000 0000
000002a0: 0000 0000 0000 0000 0000 0000 0000 0000
000002b0: 0000 0000 0000 0000 0000 0000 0000 0000
000002c0: 0000 0000 0000 0000 0000 0000 0000 0000
000002d0: 0000 0000 0000 0000 0000 0000 0000 0000
000002e0: 0000 0000 0000 0000 0000 0000 0000 0000
000002f0: 0000 0000 0000 0000 0000 0000 0000 0000
00000300: 0000 0000 0000 0000 0000 0000 0000 0000
00000310: 0000 0000 0000 0000 0000 0000 0000 0000
00000320: 0000 0000 0000 0000 0000 0000 0000 0000
00000330: 0000 0000 0000 0000 0000 0000 0000 0000
00000340: 0000 0000 0000 0000 0000 0000 0000 0000
00000350: 0000 0000 0000 0000 0000 0000 0000 0000
00000360: 0000 0000 0000 0000 0000 0000 0000 0000
00000370: 0000 0000 0000 0000 0000 0000 0000 0000
00000380: 0000 0000 0000 0000 0000 0000 0000 0000
00000390: 0000 0000 0000 0000 0000 0000 0000 0000
000003a0: 0000 0000 0000 0000 0000 0000 0000 0000
000003b0: 0000 0000 0000 0000 0000 0000 0000 0000
000003c0: 0000 0000 0000 0000 0000 0000 0000 0000
000003d0: 0000 0000 0000 0000 0000 0000 0000 0000
000003e0: 0000 0000 0000 0000 0000 0000 0000 0000
000003f0: 0000 0000 0000 0000 0000 0000 0000 0000
0.0 0.0 0.0 0.0 0.0 0.0 0.0 0.0
0.0 0.0 0.0 0.0 0.0 0.0 0.0 0.0
0.0 0.0 0.0 0.0 0.0 0.0 0.0 0.0
0.0 0.0 0.0 0.0 0.0 0.0 0.0 0.0
0.0 0.0 0.0 0.0 0.0 0.0 0.0 0.0
0.0 0.0 0.0 0.0 0.0 0.0 0.0 0.0
0.0 0.0 0.0 0.0 0.0 0.0 0.0 0.0
0.0 0.0 0.0 0.0 0.0 0.0 0.0 0.0
0.0 0.0 0.0 0.0 0.0 0.0 0.0 0.0
0.0 0.0 0.0 0.0 0.0 0.0 0.0 0.0
0.0 0.0 0.0 0.0 0.0 0.0 0.0 0.0
0.0 0.0 0.0 0.0 0.0 0.0 0.0 0.0
0.0 0.0 0.0 0.0 0.0 0.0 0.0 0.0
0.0 0.0 0.0 0.0 0.0 0.0 0.0 0.0
0.0 0.0 0.0 0.0 0.0 0.0 0.0 0.0
0.0 0.0 0.0 0.0 0.0 0.0 0.0 0.0
0.0 0.0 0.0 0.0 0.0 0.0 0.0 0.0
0.0 0.0 0.0 0.0 0.0 0.0 0.0 0.0
0.0 0.0 0.0 0.0 0.0 0.0 0.0 0.0
0.0 0.0 0.0 0.0 0.0 0.0 0.0 0.0
0.0 0.0 0.0 0.0 0.0 0.0 0.0 0.0
0.0 0.0 0.0 0.0 0.0 0.0 0.0 0.0
0.0 0.0 0.0 0.0 0.0 0.0 0.0 0.0
0.0 0.0 0.0 0.0 0.0 0.0 0.0 0.0
0.0 0.0 0.0 0.0 0.0 0.0 0.0 0.0
0.0 0.0 0.0 0.0 0.0 0.0 0.0 0.0
0.0 0.0 0.0 0.0 0.0 0.0 0.0 0.0
0.0 0.0 0.0 0.0 0.0 0.0 0.0 0.0
0.0 0.0 0.0 0.0 0.0 0.0 0.0 0.0
0.0 0.0 0.0 0.0 0.0 0.0 0.0 0.0
0.0 0.0 0.0 0.0 0.0 0.0 0.0 0.0
0.0 0.0 0.0 0.0 0.0 0.0 0.0 0.0

bn1_state.running_mean f4 [400]
00000000: 0000 0000 0000 0000 0000 0000 0000 0000
00000010: 0000 0000 0000 0000 0000 0000 0000 0000
00000020: 0000 0000 0000 0000 0000 0000 0000 0000
00000030: 0000 0000 0000 0000 0000 0000 0000 0000
00000040: 0000 0000 0000 0000 0000 0000 0000 0000
00000050: 0000 0000 0000 0000 0000 0000 0000 0000
00000060: 0000 0000 0000 0000 0000 0000 0000 0000
00000070: 0000 0000 0000 0000 0000 0000 0000 0000
00000080: 0000 0000 0000 0000 0000 0000 0000 0000
00000090: 0000 0000 0000 0000 0000 0000 0000 0000
000000a0: 0000 0000 0000 0000 0000 0000 0000 0000
000000b0: 0000 0000 0000 0000 0000 0000 0000 0000
000000c0: 0000 0000 0000 0000 0000 0000 0000 0000
000000d0: 0000 0000 0000 0000 0000 0000 0000 0000
000000e0: 0000 0000 0000 0000 0000 0000 0000 0000
000000f0: 0000 0000 0000 0000 0000 0000 0000 0000
00000100: 0000 0000 0000 0000 0000 0000 0000 0000
00000110: 0000 0000 0000 0000 0000 0000 0000 0000
00000120: 0000 0000 0000 0000 0000 0000 0000 0000
00000130: 0000 0000 0000 0000 0000 0000 0000 0000
00000140: 0000 0000 0000 0000 0000 0000 0000 0000
00000150: 0000 0000 0000 0000 0000 0000 0000 0000
00000160: 0000 0000 0000 0000 0000 0000 0000 0000
00000170: 0000 0000 0000 0000 0000 0000 0000 0000
00000180: 0000 0000 0000 0000 0000 0000 0000 0000
00000190: 0000 0000 0000 0000 0000 0000 0000 0000
000001a0: 0000 0000 0000 0000 0000 0000 0000 0000
000001b0: 0000 0000 0000 0000 0000 0000 0000 0000
000001c0: 0000 0000 0000 0000 0000 0000 0000 0000
000001d0: 0000 0000 0000 0000 0000 0000 0000 0000
000001e0: 0000 0000 0000 0000 0000 0000 0000 0000
000001f0: 0000 0000 0000 0000 0000 0000 0000 0000
00000200: 0000 0000 0000 0000 0000 0000 0000 0000
00000210: 0000 0000 0000 0000 0000 0000 0000 0000
00000220: 0000 0000 0000 0000 0000 0000 0000 0000
00000230: 0000 0000 0000 0000 0000 0000 0000 0000
00000240: 0000 0000 0000 0000 0000 0000 0000 0000
00000250: 0000 0000 0000 0000 0000 0000 0000 0000
00000260: 0000 0000 0000 0000 0000 0000 0000 0000
00000270: 0000 0000 0000 0000 0000 0000 0000 0000
00000280: 0000 0000 0000 0000 0000 0000 0000 0000
00000290: 0000 0000 0000 0000 0000 0000 0000 0000
000002a0: 0000 0000 0000 0000 0000 0000 0000 0000
000002b0: 0000 0000 0000 0000 0000 0000 0000 0000
000002c0: 0000 0000 0000 0000 0000 0000 0000 0000
000002d0: 0000 0000 0000 0000 0000 0000 0000 0000
000002e0: 0000 0000 0000 0000 0000 0000 0000 0000
000002f0: 0000 0000 0000 0000 0000 0000 0000 0000
00000300: 0000 0000 0000 0000 0000 0000 0000 0000
00000310: 0000 0000 0000 0000 0000 0000 0000 0000
00000320: 0000 0000 0000 0000 0000 0000 0000 0000
00000330: 0000 0000 0000 0000 0000 0000 0000 0000
00000340: 0000 0000 0000 0000 0000 0000 0000 0000
00000350: 0000 0000 0000 0000 0000 0000 0000 0000
00000360: 0000 0000 0000 0000 0000 0000 0000 0000
00000370: 0000 0000 0000 0000 0000 0000 0000 0000
00000380: 0000 0000 0000 0000 0000 0000 0000 0000
00000390: 0000 0000 0000 0000 0000 0000 0000 0000
000003a0: 0000 0000 0000 0000 0000 0000 0000 0000
000003b0: 0000 0000 0000 0000 0000 0000 0000 0000
000003c0: 0000 0000 0000 0000 0000 0000 0000 0000
000003d0: 0000 0000 0000 0000 0000 0000 0000 0000
000003e0: 0000 0000 0000 0000 0000 0000 0000 0000
000003f0: 0000 0000 0000 0000 0000 0000 0000 0000
0.0 0.0 0.0 0.0 0.0 0.0 0.0 0.0
0.0 0.0 0.0 0.0 0.0 0.0 0.0 0.0
0.0 0.0 0.0 0.0 0.0 0.0 0.0 0.0
0.0 0.0 0.0 0.0 0.0 0.0 0.0 0.0
0.0 0.0 0.0 0.0 0.0 0.0 0.0 0.0
0.0 0.0 0.0 0.0 0.0 0.0 0.0 0.0
0.0 0.0 0.0 0.0 0.0 0.0 0.0 0.0
0.0 0.0 0.0 0.0 0.0 0.0 0.0 0.0
0.0 0.0 0.0 0.0 0.0 0.0 0.0 0.0
0.0 0.0 0.0 0.0 0.0 0.0 0.0 0.0
0.0 0.0 0.0 0.0 0.0 0.0 0.0 0.0
0.0 0.0 0.0 0.0 0.0 0.0 0.0 0.0
0.0 0.0 0.0 0.0 0.0 0.0 0.0 0.0
0.0 0.0 0.0 0.0 0.0 0.0 0.0 0.0
0.0 0.0 0.0 0.0 0.0 0.0 0.0 0.0
0.0 0.0 0.0 0.0 0.0 0.0 0.0 0.0
0.0 0.0 0.0 0.0 0.0 0.0 0.0 0.0
0.0 0.0 0.0 0.0 0.0 0.0 0.0 0.0
0.0 0.0 0.0 0.0 0.0 0.0 0.0 0.0
0.0 0.0 0.0 0.0 0.0 0.0 0.0 0.0
0.0 0.0 0.0 0.0 0.0 0.0 0.0 0.0
0.0 0.0 0.0 0.0 0.0 0.0 0.0 0.0
0.0 0.0 0.0 0.0 0.0 0.0 0.0 0.0
0.0 0.0 0.0 0.0 0.0 0.0 0.0 0.0
0.0 0.0 0.0 0.0 0.0 0.0 0.0 0.0
0.0 0.0 0.0 0.0 0.0 0.0 0.0 0.0
0.0 0.0 0.0 0.0 0.0 0.0 0.0 0.0
0.0 0.0 0.0 0.0 0.0 0.0 0.0 0.0
0.0 0.0 0.0 0.0 0.0 0.0 0.0 0.0
0.0 0.0 0.0 0.0 0.0 0.0 0.0 0.0
0.0 0.0 0.0 0.0 0.0 0.0 0.0 0.0
0.0 0.0 0.0 0.0 0.0 0.0 0.0 0.0
