continuous_control/models/critic_300.pth (torch_old, 562249 bytes, 21 tensors)

fcs1.weight f4 [400, 33]
000000 96 fd e8 bc bd a2 0c 3b f1 ca de 3c 16 69 bd bc
       -0.028441232 0.0021459304 0.02719638 -0.023121398
000010 8b fa 2f bd 91 f7 78 3d b3 c2 38 3c c7 bd de 3c
       -0.042963546 0.060782973 0.011276889 0.027190102
000020 e5 f2 0c 3d f1 94 b5 3c 05 5d e4 3c 14 2f 5d 38
       0.03441133 0.022165747 0.027876386 5.273435e-05
000030 01 5b c3 bc 6d c9 67 3c fb 14 8d 3d 9b af 5b 3d
       -0.023847105 0.014147145 0.06888767 0.053634267
000040 a5 68 27 3c 8c fa 83 3d 9a b8 b8 bd b9 9c fd bb
       0.01021782 0.064442724 -0.09019585 -0.00773963
000050 97 66 d4 3c d6 ff d8 3b bd e8 8b 3a 85 c2 05 3d
       0.025927825 0.006622295 0.001067422 0.03265621
000060 19 3a c0 bc 4e 56 10 3a 38 de a1 bc 8e 86 a9 bc
       -0.023465203 0.00055060245 -0.019759282 -0.020694043
000070 45 82 f8 bc 44 58 61 00 8e 86 a9 3c 60 82 e7 80
       -0.030335555 8.939707e-39 0.020694043 -2.126077e-38
000080 65 9a ce 3c 4d 58 47 3c d6 cc 22 3d 76 56 61 bd
       0.025220105 0.012167049 0.039746128 -0.055014096
000090 f2 27 1d 3d 79 95 0d 3b c5 45 9a 3d 48 af 8f bd
       0.038368173 0.0021603985 0.07532839 -0.07015854
0000a0 ce 37 74 bc 7d 3c 24 bc 8f ad b4 3c df d3 8a b9
       -0.014905883 -0.010024187 0.022055415 -0.00026479267
0000b0 48 7e a5 3c 00 11 e1 3c 46 96 8f bc b7 5f d5 3b
       0.020201817 0.027473927 -0.01752771 0.0065116542
0000c0 3b 04 85 bc c2 52 54 bc 34 cd 17 bd 27 09 b2 bc
       -0.016237369 -0.012959184 -0.03706093 -0.02173288
0000d0 8a bb 39 bc 87 88 25 3d f7 5b 02 3b 6c 96 51 bd
       -0.011336217 0.040413406 0.001989124 -0.051168844
0000e0 10 31 1d bd db aa 45 3c 4a 9b 73 bc 0b fc 32 bc
       -0.038376868 0.012064661 -0.014868567 -0.01092435
0000f0 8c fe 4e 3d 32 b5 dd 3c ca da 13 80 8c fe 4e bd
       0.050535724 0.02706394 -1.823361e-39 -0.050535724
000100 80 27 73 01 b1 61 8f bc 47 4e a1 bc 42 23 cf bc
       4.466039e-38 -0.017502638 -0.019690646 -0.025285367
000110 08 c6 d6 bc a9 e4 7f 3d e3 3b 25 bd 9c ea ba bc
       -0.026217476 0.062473927 -0.040340316 -0.022816949
000120 d8 25 f8 3c 32 9b bc bc 29 2e 5a bc f8 23 18 3c
       0.030291483 -0.023023222 -0.0133166695 0.009285919
000130 bb cc 04 bd 18 b9 9c bd 77 52 05 bd fa 51 d6 3c
       -0.03242181 -0.07652491 -0.032549348 0.026162136
000140 f8 8e 56 3d 68 69 53 3b 7d aa a4 bd 00 37 57 bd
       0.05238244 0.0032258872 -0.080403306 -0.052542686
000150 65 54 3d bd cd 46 80 3b 3c 13 9c 3c a3 b1 3c bd
       -0.046223063 0.00391469 0.01905214 -0.046067845
000160 1a 6c 30 bd 76 70 0b 3d b7 28 c4 3c 0f 52 0a 3d
       -0.043071844 0.034042798 0.023945196 0.033769663
000170 ef da 9e bc 54 76 42 bc a3 72 2f 3c 56 c1 56 81
       -0.019391505 -0.011869032 0.010708484 -3.9444304e-38
000180 54 76 42 3c 8f 7f 03 01 86 8c c1 bd b2 b5 42 3b
       0.011869032 2.415242e-38 -0.09450631 0.002971035
000190 c2 53 55 3d ab ba 98 bc 3c 6d 44 3c e1 e8 81 3c
       0.05208183 -0.018643698 0.011988934 0.015858116
0001a0 8d c9 37 bc 42 10 6d 3c 4d 78 38 3c 2c ae 4b bd
       -0.011217487 0.014469208 0.011259151 -0.04972665
0001b0 64 4a 6d 3c 25 74 b1 3c 19 ae 86 bb 1f b1 be bb
       0.014483068 0.021661827 -0.0041101095 -0.0058194543
0001c0 b1 8e 5c 3b a8 c8 15 3d e8 02 a1 bc 9c e8 ca bb
       0.0033654387 0.036568314 -0.019654706 -0.00619228
0001d0 23 c6 98 bc 3f 5d 30 3d 86 4a b9 bb e3 10 06 3d
       -0.018649166 0.043057676 -0.005654636 0.03273095
0001e0 5a 12 5d 3d 97 b6 99 3c a7 88 98 3c 8a d0 57 bc
       0.05397258 0.018763823 0.018619848 -0.013172278
0001f0 1b c8 6d 3d f4 e1 b2 3c fc 38 85 3c f9 42 b8 b9
       0.058052164 0.021836258 0.016262524 -0.00035145113
000200 f9 5d 96 81 fc 38 85 bc c0 20 aa 01 3e 2e 8e bd
       -5.523614e-38 -0.016262524 6.249513e-38 -0.06942414
000210 51 55 6e 3b 9b bf b3 3d 6a 37 5a bb ab 0c 29 3c
       0.003636677 0.0877678 -0.003329719 0.010317962
000220 6a 28 3e 3c c4 19 a7 3c cd a5 2e 3c 7f 2f ad bb
       0.011606315 0.020398028 0.010659647 -0.005285203
000230 10 f7 ac bc e4 a2 63 3c e7 af 49 3c 14 f0 4a 3a
       -0.021113902 0.013893817 0.012310005 0.0007741463
000240 0c f5 f1 3c 4d f0 20 3c b2 38 a9 3d 13 dc 00 bc
       0.029535793 0.009822917 0.08262767 -0.00786497
000250 8a 4d e4 3c 4b 85 b6 3d 6c 56 19 3d 28 57 b3 3c
       0.027869005 0.08912142 0.037435934 0.021892145
000260 4f 83 a0 bb 0d d4 0a bd 3b bb e2 bc 05 3d 11 3d
       -0.0048984657 -0.033893634 -0.02767717 0.035458583
000270 12 fa fb 3c 81 0f 2c 3d 74 c5 6a bc b1 8b a7 bc
       0.030758891 0.042006973 -0.014329303 -0.020452352
000280 4e ec 5c 3c 35 48 0d 01 b1 8b a7 3c 08 80 97 80
       0.013484074 2.5949416e-38 0.020452352 -1.3913089e-38
000290 1c ad b7 3c c9 13 66 bc 4c 8a 9f 3c 39 11 d6 bc
       0.022421412 -0.014042803 0.019475125 -0.02613126
0002a0 96 0f 58 3c 53 ef 26 3d 40 f8 86 3c 6b d7 54 bd
       0.01318731 0.04075558 0.016475797 -0.05196325
0002b0 22 cd 08 bc 8d f9 a3 3c 61 3e 4e 3b 76 81 34 bd
       -0.008349689 0.020016456 0.0031470286 -0.044068776
0002c0 ad 39 08 3d d0 ed 69 3d 0e 63 bc 3b 25 d2 f9 3b
       0.03325813 0.05711156 0.005749113 0.007623928
0002d0 74 5c be bb f1 a1 bb b9 a0 db e7 3d 4c dc 1f bd
       -0.005809361 -0.00035788075 0.11321187 -0.03902845
0002e0 e0 72 4e 3c a0 7f 38 3d 4c 26 bf bc 11 f6 45 3a
       0.0126006305 0.045043588 -0.023333691 0.00075516204
0002f0 51 1d 35 3d a0 69 91 3b 4c ad 82 3a dc ec 80 3c
       0.04421741 0.0044376403 0.0009969859 0.015737943
000300 96 ae d2 3c d7 11 52 3c 18 54 93 01 96 ae d2 bc
       0.025718015 0.012821636 5.411994e-38 -0.025718015
000310 bd d3 bd 01 2b 73 0c bd a4 00 f2 bc d4 3a 62 3d
       6.9731465e-38 -0.03428952 -0.029541321 0.055231884
000320 86 cb 11 3a 95 56 ab 3d b0 9e 0a bb 43 ef ea 3c
       0.00055616384 0.083661236 -0.0021151714 0.028678542
000330 33 56 42 3c c3 0f 80 bc e2 2e a7 3b cd a3 df bb
       0.011861372 -0.015632516 0.0051020244 -0.0068249465
000340 df 61 a7 bc c4 0a dd 3a cd 47 a6 bc a1 f1 99 3c
       -0.02043241 0.001686417 -0.02029791 0.018791975
000350 e7 1c 31 3d 05 50 b8 3c fc 24 f8 bc fa aa 38 3d
       0.043240454 0.022499094 -0.030291073 0.04508493
000360 61 6d 82 bc dd 73 b4 3c 47 a7 03 3c 2b 9d f0 bb
       -0.015921297 0.022027904 0.0080354875 -0.0073429546
000370 66 07 17 ba 9a 70 5a bd 75 88 b7 3b e7 64 2c bd
       -0.00057612953 -0.05333004 0.0056009837 -0.042088415
000380 26 a6 02 bb f4 a3 0a 3d 41 35 d8 ba e6 06 21 81
       -0.0019935458 0.033847764 -0.0016495363 -2.957598e-38
000390 f4 a3 0a bd 0e dd 87 81 90 5a 90 3d cb f6 18 bd
       -0.033847764 -4.9908366e-38 0.070485234 -0.037344735
0003a0 8d d8 7d 3d 34 00 0a 3b 99 37 f0 3d c3 ce 98 bd
       0.061974097 0.002105725 0.117293544 -0.07461312
0003b0 6e 52 01 3b dc 2b 96 bd 32 01 93 bc 16 a5 e8 ba
       0.001973297 -0.07332584 -0.017944906 -0.0017749395
0003c0 b8 9c 9d 3c d2 0c 5d 3b 77 ad 72 3c c6 57 13 bd
       0.019239768 0.0033729565 0.014811865 -0.03597238
0003d0 82 56 7a bd 32 36 3c 3d 42 48 d2 bc a3 f4 41 3d
       -0.061117657 0.045950122 -0.02566922 0.047352444
0003e0 9f 55 dd bd 4b ca a8 3d 0f 65 84 bc fc 8f aa ba
       -0.108073466 0.08241709 -0.01616147 -0.0013012881
0003f0 20 1e c8 bc 78 57 ec 39 fb 09 aa 3b ed 20 85 bb
       -0.024428427 0.00045078597 0.005189178 -0.004062763

fcs1.bias f4 [400]
000000 8e 86 a9 3c 91 fe 4e bd 56 76 42 3c fb 38 85 bc
       0.020694043 -0.050535742 0.011869034 -0.016262522
000010 ad 8b a7 3c 9e ae d2 bc f3 a3 0a bd 00 6a 8d bc
       0.020452345 -0.02571803 -0.03384776 -0.017262459
000020 bb 87 46 bd b9 05 32 3b b4 93 f6 bc 3a 17 a0 bb
       -0.048469286 0.0027164056 -0.030099727 -0.0048855813
000030 57 09 6c bb 44 b8 8e bc 99 84 3f bc 7d 94 2c bd
       -0.003601631 -0.01742185 -0.011689329 -0.042133797
000040 64 41 40 3b ee 62 b1 bc a4 ac 2d ba e2 33 36 bb
       0.002933585 -0.021653619 -0.0006625152 -0.002780192
000050 7c 5a 61 bc 9c fa a8 bb e0 65 96 bc be f9 95 bd
       -0.013754483 -0.005156828 -0.018359125 -0.07323025
000060 1b a1 c2 bb 40 d5 13 3c 06 bd bb bc fa c6 2e bd
       -0.0059396154 0.009023011 -0.022917282 -0.042670228
000070 4e 72 80 bc 01 94 90 bc 22 76 06 3d f8 ad 58 bb
       -0.015679505 -0.017648699 0.032827504 -0.0033062678
000080 ef 37 cf 3a 14 99 c7 3c be 44 0b bd d2 bd 0e bc
       0.0015809516 0.024364986 -0.034001105 -0.008712249
000090 07 6b ce bc 3d 98 bf bc 99 2a 28 3c a0 79 0b bd
       -0.025197519 -0.023388023 0.010264062 -0.034051538
0000a0 58 70 4b 3c 1b ff 1f bd 38 76 09 bc 6b 2d e1 bc
       0.012416922 -0.039061647 -0.008390002 -0.027487477
0000b0 41 b7 0f bb 8a a2 97 bd e0 cd ea bc 27 4c 5b bc
       -0.0021929296 -0.07404049 -0.028662622 -0.013384855
0000c0 a6 d7 da bc 94 b2 29 bc 48 b3 c8 bb 83 10 60 3c
       -0.026714157 -0.010357518 -0.0061248876 0.013675812
0000d0 2b c4 04 3c 88 04 12 bd a9 3a 8c bb 83 66 87 3c
       0.008103411 -0.035648853 -0.004279454 0.016528374
0000e0 5c 58 38 bb a1 25 63 bc 59 66 5e 3b 7a 2c 73 bb
       -0.0028128838 -0.013863952 0.0033935516 -0.0037105368
0000f0 b6 ae 83 3c 01 8f 72 bc a9 30 0c 3c 67 08 b3 bc
       0.01607452 -0.014804603 0.008556523 -0.021854592
000100 4a 4d 3f bd 96 78 9f bc 59 61 1e bd 50 d4 c7 bc
       -0.046704568 -0.01946668 -0.038667057 -0.02439323
000110 3b 29 50 bd dd 91 cc bc 6c 1d 43 bc e9 2b 4b bc
       -0.05082057 -0.024971897 -0.01190887 -0.012400606
000120 b8 82 03 bd 81 8d 92 bc bd a6 c6 bc d0 60 a4 bc
       -0.032107085 -0.01788974 -0.024249429 -0.020065695
000130 08 3e 00 bc 97 1b 72 bd a7 a8 e4 bb 4b ea 1e 3c
       -0.007827289 -0.059108343 -0.0069781127 0.0096994145
000140 cc 35 7a bb 55 9d 2d bc 1c 9c 14 3c 25 3b 0f bd
       -0.0038179038 -0.010596593 0.0090704225 -0.034968514
000150 5b 15 06 bc 34 3d 10 bd 71 b3 94 bc 44 cb 56 bc
       -0.0081838025 -0.035214618 -0.01815197 -0.013109986
000160 78 21 bc 3b 14 04 9c bc 52 00 92 bb cc aa 0a bd
       0.0057412945 -0.019044913 -0.0044556046 -0.03385429
000170 9e a0 f2 ba da e2 46 bd 18 4b 71 bc 30 3b de bc
       -0.0018511002 -0.048556186 -0.014727376 -0.027127832
000180 9a d5 c6 bb c2 96 b7 bc 4b 3f c5 bc f3 52 90 bc
       -0.0060679438 -0.022410754 -0.024078032 -0.017617678
000190 ba ec 04 bd 1a 18 f9 ba 78 b9 c7 bc 91 dc ad bc
       -0.032452323 -0.0019004375 -0.02438043 -0.021223338
0001a0 f1 54 f7 bc 99 3f 7c bb f7 96 28 bd 66 89 30 3c
       -0.03019187 -0.0038490056 -0.041159596 0.010774946
0001b0 28 db 05 bd 19 c9 63 3c 82 a8 95 3c fa 4b 05 bb
       -0.032679707 0.013902926 0.018268827 -0.0020339475
0001c0 94 dc 6b bc 7a 67 44 bb c8 96 04 bd 9b 6b 3b bd
       -0.014395852 -0.0029968903 -0.03237036 -0.045756917
0001d0 4d f8 b4 bc 96 9d 49 3c 2f 52 bc bc c8 8c 28 bc
       -0.022091055 0.012305638 -0.022988407 -0.010287471
0001e0 49 df 33 b9 33 f0 23 bd 2d 52 19 bd 42 0d 38 bc
       -0.0001715395 -0.040023994 -0.037431885 -0.01123363
0001f0 cd d7 b7 bc f6 37 df ba c2 c6 84 bc e1 35 91 bc
       -0.022441769 -0.0017030227 -0.016208056 -0.017725887
000200 07 28 89 bc 8b 07 3a bc dd 84 ba 3b 91 2b 87 bc
       -0.01674272 -0.011354337 0.005692108 -0.016500266
000210 07 f4 05 bd 10 71 ae 3c c2 b8 37 bd da ab 8c 3c
       -0.032703426 0.021294147 -0.044853933 0.017171789
000220 05 62 a7 bd 65 42 72 bc 1c ad 01 bd 9f 85 0d bd
       -0.081729926 -0.0147863375 -0.03165923 -0.03455126
000230 56 42 8a bc 7d 6d ae 3b 5d 5b f7 bb 5b 3e 41 bc
       -0.016877335 0.0053231106 -0.007548733 -0.011794652
000240 98 40 5c bd c1 da 34 bc 5f 09 6f bc 54 41 60 bc
       -0.05377254 -0.011038483 -0.014589637 -0.01368745
000250 f2 b3 af bc 68 fd 95 bc f9 d9 cd bc 56 b7 ab bc
       -0.02144811 -0.01830931 -0.025128352 -0.020961445
000260 1a cf 8b bc 9c 84 4a bc 9a b4 c3 bc 51 4d e7 ba
       -0.017066527 -0.012360718 -0.023889828 -0.0017646943
000270 d1 34 30 bc 96 82 bc bc 15 26 02 bd eb 93 a6 bc
       -0.01075478 -0.023011487 -0.0317746 -0.020334205
000280 d0 de 74 bd fe 43 a3 3a a5 c6 f4 bb 66 c2 82 bc
       -0.059782803 0.0012456176 -0.0074699693 -0.015961837
000290 4b 40 14 bd 0f a7 60 bc 1e 03 67 bc 60 f8 00 bc
       -0.036194127 -0.013711705 -0.014099864 -0.007871717
0002a0 31 f7 11 bc ef 3c 04 bd f4 27 08 bd 21 70 63 bc
       -0.008909033 -0.032284673 -0.033241227 -0.013881714
0002b0 3f 9f e0 bb 97 71 05 bc 8b 9c 0a bd f2 ae cd bb
       -0.006854921 -0.008144758 -0.033840697 -0.0062769586
0002c0 96 29 fb bb 9e f3 ef 3c dc 35 de bc 55 01 aa bc
       -0.0076648695 0.02929097 -0.027125292 -0.020752588
0002d0 f9 48 33 bd cf 0b 9b bb 54 bf 73 3c f7 1a 00 bd
       -0.043770764 -0.0047316323 0.014877159 -0.031275716
0002e0 f5 9c a1 bb 1e 50 1e bb 4b d0 ca bc ae 99 f4 bc
       -0.004932041 -0.002415664 -0.024757525 -0.029858436
0002f0 c6 eb d3 3a c1 df 3d bc 0e 54 48 bc f1 3d af bc
       0.0016168288 -0.011588992 -0.012227071 -0.02139184
000300 bc 43 a8 bd 69 e8 63 bc 42 de 0f bc f4 2d 2f bc
       -0.08216044 -0.013910391 -0.008781018 -0.010692108
000310 f3 de 76 bc 0a cf 1a 3a 8c b2 a2 bc 8a da af bc
       -0.015067804 0.0005905485 -0.019860528 -0.021466512
000320 46 fd 6a bc 2f 50 e7 bb 2d fc db bb a9 bc c8 bc
       -0.014342612 -0.007059119 -0.0067134113 -0.024504023
000330 21 c1 87 bc e2 fd b5 bb 02 8c 9d bb 94 12 42 bc
       -0.016571583 -0.005553947 -0.00480795 -0.01184525
000340 5a c8 97 bc 4c 6a a5 bc 1b 5b f0 bb ab 62 34 bd
       -0.018528152 -0.020192288 -0.0073350794 -0.04403941
000350 7a 5c 0d bd 09 e4 45 bc 9c 88 e8 bc 43 b2 d3 bc
       -0.03451202 -0.012078294 -0.028385453 -0.025841838
000360 60 d2 25 bd 1f c1 3b 3c 6b 71 c8 bc c3 4c db bc
       -0.040483832 0.011459618 -0.024468144 -0.026770001
000370 a1 f0 d6 bc 36 8d b7 bc f5 b6 32 bc fd f2 1e bd
       -0.026237788 -0.022406202 -0.010907878 -0.03880595
000380 29 31 c8 3b 95 7b b8 bc 91 ec 7d bc 6a 02 01 bb
       0.006109376 -0.022519866 -0.015498296 -0.0019685277
000390 3a fa 00 bb 72 8d 0a bd c3 15 0f bd ff b3 3f bb
       -0.0019680397 -0.0338263 -0.034932863 -0.0029251573
0003a0 a4 78 0a bc f4 d4 88 bc ac c4 42 bc 36 12 34 bc
       -0.0084516145 -0.016703106 -0.011887711 -0.01099067
0003b0 ba 82 d7 bc ce 0f 60 bc 9e 13 bb bc c1 55 2e bd
       -0.026307452 -0.013675643 -0.022836503 -0.04256225
0003c0 52 30 15 3c 2e 49 e1 bc 04 55 4c bc af 9a 9a bc
       0.009105759 -0.027500715 -0.012471441 -0.018872587
0003d0 20 64 93 bc 94 74 fc bc 10 93 db bc d7 fb 05 3b
       -0.01799208 -0.030817308 -0.026803523 0.0020444298
0003e0 a4 77 8f bc 95 12 65 bc ee 22 00 bd 1b ad df bb
       -0.017513104 -0.013981481 -0.03128331 -0.0068260557
0003f0 ed df 71 bc 0d 06 99 bc 6b 89 ee bc 68 26 af bb
       -0.014762861 -0.018679643 -0.02911826 -0.0053451546

fc2.weight f4 [300, 404]
000000 56 0f 96 01 99 6f 61 81 30 b5 62 00 f2 c3 8f 81
       5.5123304e-38 -4.140604e-38 9.064876e-39 -5.281107e-38
000010 e6 eb c8 80 85 c2 35 81 08 a0 c8 80 b8 d5 82 01
       -1.8451724e-38 -3.338401e-38 -1.8424508e-38 4.806113e-38
000020 b7 de 31 81 53 6c 9b 80 d7 a9 37 80 24 d6 36 80
       -3.2669556e-38 -1.4273361e-38 -5.11188e-39 -5.035936e-39
000030 50 37 3c 81 68 19 54 81 90 13 86 81 53 a6 b4 01
       -3.456983e-38 -3.8956478e-38 -4.9251897e-38 6.636022e-38
000040 8c d4 44 81 01 59 03 01 2e 60 0f 04 26 01 5d 01
       -3.615201e-38 2.4124757e-38 1.6853733e-36 4.0592113e-38
000050 a3 0f 9e 81 3c b1 37 81 b6 3c 5d 81 bc 7d 62 00
       -5.806247e-38 -3.373895e-38 -4.0634847e-38 9.044984e-39
000060 8c 60 61 00 45 be a3 01 0c 4c 95 01 d8 8f 46 00
       8.942678e-39 6.0149767e-38 5.484308e-38 6.480086e-39
000070 68 dc 84 81 06 7e 1a 81 3b 70 0c a0 e0 b7 00 00
       -4.880541e-38 -2.837575e-38 -1.1895595e-19 6.5962e-41
000080 90 ad 56 00 e6 3d 85 81 ea f1 a9 01 27 ed ba 81
       7.960115e-39 -4.8945304e-38 6.2427925e-38 -6.8665906e-38
000090 46 83 52 81 c6 6e ab 01 1c c9 11 01 b0 b9 3b 81
       -3.8665092e-38 6.297443e-38 2.6776583e-38 -3.44797e-38
0000a0 db 40 03 87 f0 54 29 80 ff d1 9c 81 ed 4e 83 81
       -9.874404e-35 -3.795725e-39 -5.760668e-38 -4.8235053e-38
0000b0 62 14 70 81 2c 73 50 01 b5 fc 02 01 d9 14 09 80
       -4.4095662e-38 3.8286198e-38 2.4058537e-38 -8.33998e-40
0000c0 c4 ab a8 01 4c 11 b7 01 0d 6a a7 81 d7 05 84 01
       6.1959925e-38 6.7248403e-38 -6.1498287e-38 4.849752e-38
0000d0 aa 37 88 81 39 e9 85 01 c0 b0 43 80 e1 9b a2 81
       -5.0038384e-38 4.919114e-38 -6.216384e-39 -5.9733077e-38
0000e0 37 2b a9 00 cf d5 aa 81 e1 8b cc 80 8a 04 88 00
       1.5535701e-38 -6.275494e-38 -1.878462e-38 1.2491256e-38
0000f0 e5 46 3b 81 1a 62 57 01 e4 79 a1 81 7c cc 94 81
       -3.439734e-38 3.9559648e-38 -5.9316964e-38 -5.4660034e-38
000100 30 72 20 00 34 b5 04 01 21 25 f1 00 bc f9 9a 81
       2.979699e-39 2.4374578e-38 2.2145674e-38 -5.6929017e-38
000110 77 0e ad 81 f8 f3 ac 01 d0 df 37 81 ca 9c 4e 01
       -6.357092e-38 6.35329e-38 -3.377237e-38 3.7948715e-38
000120 a8 54 34 01 d8 b0 79 81 fc e2 82 01 1a 72 12 81
       3.3121516e-38 -4.5860956e-38 4.8080165e-38 -2.689783e-38
000130 20 55 45 01 d0 1b db 00 7e e9 b2 01 3c aa 8e 01
       3.624426e-38 2.0121951e-38 6.572192e-38 5.2406836e-38
000140 d6 a0 2d 01 0c b0 75 81 b2 36 83 01 d8 74 ef 00
       3.1890476e-38 -4.51257e-38 4.8200284e-38 2.1990599e-38
000150 90 0f 61 01 0b 56 05 00 f0 53 a2 01 2c 68 91 81
       4.133714e-38 4.90044e-40 5.9629846e-38 -5.3414067e-38
000160 6b 4b 8a 80 36 d3 ae 81 35 29 c0 80 e7 81 19 00
       -1.2700353e-38 -6.422058e-38 -1.7647198e-38 2.342488e-39
000170 d0 5f 35 81 2c 19 7f 01 03 b1 46 01 e3 2f d8 80
       -3.3313192e-38 4.6854163e-38 3.6493856e-38 -1.9853646e-38
000180 48 58 49 00 ca cb 24 00 d4 60 a4 01 68 fb 29 80
       6.73566e-39 3.379184e-39 6.0383027e-38 -3.855443e-39
000190 c6 01 7a 01 c6 57 65 01 cf f8 9c 80 f3 86 f6 00
       4.591902e-38 4.2123632e-38 -1.4415593e-38 2.2639943e-38
0001a0 8f d7 55 01 f6 b3 74 01 86 85 66 81 2e d2 3c 80
       3.9276577e-38 4.4944838e-38 -4.2340127e-38 -5.585528e-39
0001b0 8d 1b 68 80 56 86 59 81 9e f5 93 00 73 a3 d6 00
       -9.560775e-39 -3.9952987e-38 1.3587929e-38 1.9711431e-38
0001c0 a1 15 44 01 fe c2 5d 81 5e f5 79 81 f9 2e 20 01
       3.6015032e-38 -4.073119e-38 -4.591012e-38 2.942106e-38
0001d0 83 53 e4 00 c9 1e d1 00 a6 5d 7f 81 ae 25 9f 81
       2.0968451e-38 1.9204662e-38 -4.6903292e-38 -5.8461443e-38
0001e0 4c 8c 80 81 8a e1 8e 01 f6 f4 d7 80 30 c7 7a 80
       -4.722109e-38 5.2486195e-38 -1.9832507e-38 -1.1275386e-38
0001f0 67 49 09 01 1e ac 07 80 6b e5 09 00 38 c7 68 80
       2.521559e-38 -7.04592e-40 9.08819e-40 -9.622358e-39
000200 0c c5 86 00 df 6d 42 01 a7 b9 88 81 0d b2 0e 01
       1.2376644e-38 3.5711e-38 -5.022491e-38 2.6209026e-38
000210 0f e3 02 80 9d 84 6d 98 c9 8c 9c 81 fe 00 39 81
       -2.65124e-40 -3.0698485e-24 -5.7507366e-38 -3.3979845e-38
000220 30 c6 f6 00 32 9b 8b 80 2b 79 3d 00 9b 6b 91 00
       2.2662628e-38 -1.2820808e-38 5.645432e-39 1.3354749e-38
000230 6d ac 9f 81 01 a3 6c 00 c0 13 9e 00 bf be ee 00
       -5.8654794e-38 9.976708e-39 1.4517093e-38 2.1925275e-38
000240 02 f6 7d 00 f8 2f 12 01 23 fc 31 81 a4 b2 2d 00
       1.1567688e-38 2.685038e-38 -3.2690665e-38 4.196682e-39
000250 59 94 d8 80 24 6d 17 01 4e 3a dd 80 40 c7 8d 80
       -1.9889684e-38 2.7812624e-38 -2.031656e-38 -1.3020282e-38
000260 4f 97 52 01 d6 65 16 01 ba 4d 91 01 e0 48 08 81
       3.8679467e-38 2.7623713e-38 5.337612e-38 -2.503154e-38
000270 b9 f9 29 00 01 47 18 01 64 09 6b 81 a2 b9 b9 01
       3.854839e-39 2.7968934e-38 -4.316942e-38 6.8224637e-38
000280 e2 48 85 00 95 d9 32 01 bd e9 4f 81 5c a1 5e 01
       1.2240266e-38 3.2849544e-38 -3.8187594e-38 4.089073e-38
000290 76 d2 b9 01 de fe 03 01 3c 54 4b 80 3f f7 57 80
       6.8260264e-38 2.4243758e-38 -6.91788e-39 -8.078383e-39
0002a0 3b 63 af 01 3e f7 82 81 63 38 d1 00 ee b3 9f 01
       6.4427236e-38 -4.8109233e-38 1.9213846e-38 5.866556e-38
0002b0 34 04 6c 81 59 f4 32 01 cd a3 6a 81 83 3f c5 00
       -4.334937e-38 3.2868747e-38 -4.3096533e-38 1.8114376e-38
0002c0 58 b2 3b 81 72 d8 05 97 2e da 12 81 cd d7 53 80
       -3.447443e-38 -4.324781e-25 -2.69725e-38 -7.699761e-39
0002d0 a6 bf 44 01 c1 27 cf 00 7d cf d4 00 58 d9 5c 01
       3.6137016e-38 1.9024209e-38 1.9543558e-38 4.0563555e-38
0002e0 26 f4 27 01 0c 93 27 81 68 ca 77 81 d1 46 9e 81
       3.0848224e-38 -3.0778557e-38 -4.5511954e-38 -5.814165e-38
0002f0 ca 1e 4f 00 fa c0 ba 81 7e 66 97 01 b9 a6 c4 00
       7.266049e-39 -6.8602517e-38 5.561571e-38 1.8059566e-38
000300 16 e6 00 00 ed 7a 42 81 c0 4f 34 80 db 5e ad 81
       8.2539e-41 -3.5720367e-38 -4.804055e-39 -6.3686274e-38
000310 b2 ad f8 00 c2 3b d1 80 31 cb d7 80 80 25 99 81
       2.2837513e-38 -1.9215056e-38 -1.9817523e-38 -5.6257134e-38
000320 1d 80 84 00 c5 68 88 00 1f 19 87 01 14 f9 83 01
       1.2168244e-38 1.2527212e-38 4.9627215e-38 4.847921e-38
000330 7f bb 0a 81 e9 80 a5 01 78 92 88 81 40 aa 6a 80
       -2.548112e-38 6.0796404e-38 -5.016868e-38 -9.795637e-39
000340 de d1 d6 00 13 24 8c 01 1d 23 0e 00 50 f0 95 01
       1.9728082e-38 5.147964e-38 1.298293e-39 5.507879e-38
000350 ee 31 9e 01 e6 ae 2f 00 36 cb 28 01 81 e1 c1 80
       5.811168e-38 4.37901e-39 3.1002523e-38 -1.7805146e-38
000360 35 ed 12 80 38 65 cc 80 a3 5c 29 01 4a e2 b6 80
       -1.738133e-39 -1.8770752e-38 3.110686e-38 -1.6795238e-38
000370 5b 62 0c 00 04 93 39 00 78 ce f4 80 26 c3 6c 01
       1.137309e-39 5.287363e-39 -2.2481928e-38 4.3486366e-38
000380 2c 6e e6 80 0c 40 5b 01 bd 60 ab 01 0c a6 23 81
       -2.1161686e-38 4.02699e-38 6.295429e-38 -3.0057505e-38
000390 c0 2e 72 80 95 a0 c6 80 ad 54 8d 00 6f c3 0c 80
       -1.0486017e-38 -1.8241034e-38 1.2979181e-38 -1.172134e-39
0003a0 c2 b9 45 01 ee 8e d6 80 f8 60 54 81 46 12 ae 00
       3.631646e-38 -1.970407e-38 -3.9007822e-38 1.5985932e-38
0003b0 24 c3 17 01 21 2b 01 80 fc 91 8a 01 1a 83 ad 81
       2.7874326e-38 -1.07307e-40 5.090267e-38 -6.3738285e-38
0003c0 9c ed 80 01 0b 5c 1b 80 07 88 ad 81 9c c9 a6 01
       4.7360727e-38 -2.512577e-39 -6.3745353e-38 6.1268065e-38
0003d0 27 98 28 01 be 27 4f 00 aa 72 00 81 6a 4d d7 00
       3.096589e-38 7.269261e-39 -2.3592154e-38 1.9772403e-38
0003e0 25 cb 91 81 f9 eb 61 80 e6 2c 65 01 b0 7c 4c 81
       -5.3556086e-38 -8.992694e-39 4.209287e-38 -3.755834e-38
0003f0 09 f2 82 81 e4 0a 6b 80 db 37 1c 01 e2 f2 29 81
       -4.810176e-38 -9.830305e-39 2.869275e-38 -3.1214658e-38

fc2.bias f4 [300]
000000 8d d4 8d a5 dc 5f d7 bb a2 11 04 b4 33 a9 ab 3d
       -2.460363e-16 -0.0065727066 -1.2299873e-07 0.083818816
000010 00 05 cc ac 4e 58 ee bc 92 a2 81 ba f0 54 9d 99
       -5.798584e-12 -0.029094841 -0.0009890369 -1.6267726e-23
000020 b3 2f 61 3c fd 1a 47 b9 af 7d 16 b8 3d 8c c5 bc
       0.013744283 -0.00018988173 -3.587984e-05 -0.024114722
000030 4f 7c 59 99 6b 04 a8 87 0e c3 5d 3c fc 67 2d ba
       -1.1243741e-23 -2.5280427e-34 0.013535274 -0.0006614921
000040 b5 67 a2 3d a5 f1 ba bc 62 a1 2c a4 98 ff 9f a9
       0.07929937 -0.022820303 -3.743325e-17 -7.105357e-14
000050 55 ae e3 3c 7c 68 4a b9 96 d0 b5 b1 cf 12 41 3c
       0.027793089 -0.00019303145 -5.291507e-09 0.0117842695
000060 4f de 37 bc 5a 53 7c 97 3e 8a 4a bc 00 cb 6b ba
       -0.011222436 -8.1530796e-25 -0.012362061 -0.0008994788
000070 91 4c 9b 3c aa 02 c4 9d 97 34 07 ab c6 b4 96 3d
       0.018957408 -5.1883523e-21 -4.803462e-13 0.073586985
000080 eb 9c b1 9c 9a 34 d2 3d 15 50 08 3e ab 80 dd b6
       -1.175344e-21 0.10263939 0.13311799 -6.601292e-06
000090 e0 78 ad 3d fa 6a c0 3d 74 2f 8f 3a b5 3d 26 a7
       0.08470321 0.09395404 0.0010924176 -2.307058e-15
0000a0 cc 70 be a7 35 4d e5 3d 69 bb a5 bc d7 6b 94 ba
       -5.285789e-15 0.11196367 -0.020230966 -0.0011323643
0000b0 58 ec 31 3c 6c 3c 0a 9c 56 69 7e bc 4b 51 31 bd
       0.010859571 -4.5738463e-22 -0.015528044 -0.043290418
0000c0 38 50 da bc 64 2c 8b 3d fc fa 92 b9 4b d1 00 bc
       -0.02664958 0.06795576 -0.00028034288 -0.007862399
0000d0 86 8c bb 3d 85 b1 04 b8 a3 92 2d 3c 92 b8 be a6
       0.09157662 -3.163658e-05 0.010594043 -1.3233926e-15
0000e0 0e 0a 2a 3c a3 65 c5 b8 9f 36 5c bc 94 57 f4 a4
       0.010378374 -9.412623e-05 -0.013440757 -1.05966495e-16
0000f0 0a 5b db b6 4c e0 ae bc b0 50 f8 ba 14 4b ee bc
       -6.537307e-06 -0.021347187 -0.0018944945 -0.029088534
000100 e3 2e 79 b7 f1 6a f5 bc 9b 64 80 ba 85 01 0b 3c
       -1.4852473e-05 -0.02995822 -0.0009795608 0.008484249
000110 b9 ce b1 aa 5e f7 89 bc 01 58 f0 b8 27 88 d5 b7
       -3.158496e-13 -0.016841587 -0.00011460484 -2.545498e-05
000120 cc a7 fd bb c4 5e e2 ad 4a 72 47 bb 4d ff 09 3c
       -0.00774095 -2.573531e-11 -0.0030433112 0.008422685
000130 35 a1 e9 3d c9 eb b8 bb 4e 1e ad bb 57 4e d7 a9
       0.11407701 -0.005643342 -0.0052831536 -9.561508e-14
000140 fd 1f 63 9b 32 41 8e bc 7c 4d 22 ae 23 59 a8 3d
       -1.8787336e-22 -0.017365072 -3.6903355e-11 0.082201265
000150 bb 51 83 b6 e7 09 38 bc e2 48 bf b7 35 9b 0f bc
       -3.913619e-06 -0.01123283 -2.2802913e-05 -0.008765032
000160 d1 bf 7e bc 9d 84 0e ab b7 f1 1e 93 fc a7 04 bc
       -0.015548662 -5.063257e-13 -2.0061578e-27 -0.008096691
000170 41 df b5 3d 80 0e c4 b5 77 65 37 3c 3e da 15 bc
       0.08880473 -1.4607358e-06 0.011193625 -0.009146271
000180 f9 5f 68 bb b7 d6 80 3c b8 5a 6f ab b1 ba 8a 3c
       -0.0035457595 0.015727384 -8.5035754e-13 0.016934725
000190 65 b5 6f 3d 09 22 e6 bc 79 17 e2 bc 05 6c 5e bc
       0.0585226 -0.028092401 -0.027599083 -0.013575559
0001a0 3e f4 ae b5 b7 3b 46 3c a8 4e 37 3c a1 80 c8 ba
       -1.3035094e-06 0.012099198 0.011188187 -0.0015297123
0001b0 49 ef 79 b9 67 c2 e2 ba 61 53 c6 bb e2 70 3d b0
       -0.00023835631 -0.0017300368 -0.00605242 -6.8918216e-10
0001c0 dc d3 f3 bb 81 6a 5d bc 82 dc 3e 3b 36 7f 78 bb
       -0.007441027 -0.013514162 0.0029123132 -0.003791762
0001d0 4a ec 25 bc b4 62 20 a5 b6 f4 90 bc a4 43 d6 bb
       -0.0101271365 -1.391123e-16 -0.017694812 -0.006538825
0001e0 3d 5e 14 a8 3c 1b da bb 09 9c b6 3d f0 e6 c2 bc
       -8.236085e-15 -0.0066560786 0.0891648 -0.02379176
0001f0 f2 04 6b ac 6a fe bc 3d 0e 32 8c b5 8e ac 97 bc
       -3.3398254e-12 0.09228213 -1.0445381e-06 -0.018514898
000200 f6 57 65 3d 16 85 35 3c f5 e2 a4 bc d0 eb bc 3c
       0.05599209 0.011079093 -0.020127753 0.023061663
000210 4b a8 da b7 fa 4d ef bc 82 b8 52 b9 17 05 f2 b7
       -2.6065993e-05 -0.029211987 -0.00020095895 -2.8851018e-05
000220 52 5a e7 a1 30 c2 63 bc e0 c4 82 a9 7a cc 24 bc
       -1.5677076e-18 -0.013901278 -5.807312e-14 -0.010058517
000230 66 80 38 8f 3c de 74 bb db 9a 9e 3d 7c f5 0a b2
       -9.096629e-30 -0.0037363907 0.0774438 -8.088474e-09
000240 3b 5d a7 ba 81 25 27 3b c6 06 8d 3d 72 df 0c bd
       -0.0012768874 0.0025504532 0.068860576 -0.03439278
000250 c8 1e 7d 9d 77 11 07 b7 59 88 51 3c ae 6e 81 bc
       -3.3500185e-21 -8.050693e-06 0.0127888555 -0.015799847
000260 a3 34 cd b2 d0 83 43 b1 27 8f 51 9d 4d f1 af 9d
       -2.3889077e-08 -2.8451161e-09 -2.7734928e-21 -4.6571613e-21
000270 23 55 25 b9 1d 13 19 b9 6c 45 87 87 99 76 df 3c
       -0.00015767342 -0.00014598337 -2.0353345e-34 0.027278231
000280 df 26 a4 b8 16 1d 92 b9 f4 82 9f bc 61 0c e7 bc
       -7.82737e-05 -0.0002786896 -0.019471623 -0.028204145
000290 b3 ad 05 a8 8a 98 3f bc 9e 44 d9 b3 5b 34 8a 3c
       -7.420648e-15 -0.011694083 -1.0117331e-07 0.016870668
0002a0 8c 9c 33 ba b4 d0 97 a1 e3 42 c1 3d 7c ed a5 bc
       -0.00068516354 -1.0287401e-18 0.09436586 -0.020254843
0002b0 d8 6d 67 9a 64 66 d1 3d bf 98 73 ba 8d b3 95 3d
       -4.785841e-23 0.102246076 -0.00092924753 0.07309637
0002c0 68 00 dc a3 da 34 37 3d a3 dd 41 b7 72 aa 7b ba
       -2.385262e-17 0.044728138 -1.15553e-05 -0.00096002885
0002d0 36 85 e2 3b 95 7c 13 ba cd 86 69 bc 35 29 60 3c
       0.0069128526 -0.0005626169 -0.01425333 0.0136816995
0002e0 3b aa de b6 73 2e f5 bc 3b b6 ca bb 1e 72 f9 3b
       -6.635933e-06 -0.029929375 -0.0061862743 0.007612481
0002f0 d2 07 0c bb ea e6 c2 3a a7 35 83 a8 97 d1 80 3d
       -0.0021366966 0.0014869843 -1.456719e-14 0.06289976
000300 67 73 19 9c 31 e5 3b 3c 8e f1 a7 ab cd ad cf ab
       -5.077261e-22 0.011468218 -1.1933109e-12 -1.4756474e-12
000310 8e d8 d2 bb 50 a8 1b ad ba 51 04 bd 34 99 9e bc
       -0.0064345067 -8.848103e-12 -0.032304503 -0.019360162
000320 ce ff 00 bd e8 48 4a ad 4a 2b 82 98 e9 b8 05 bd
       -0.031493954 -1.1498559e-11 -3.3647923e-24 -0.032647047
000330 61 20 10 bd 0d ca 0b b4 30 bd 92 bc 9d 8a 5c bc
       -0.03518713 -1.301889e-07 -0.017912477 -0.013460782
000340 c0 19 48 3b 59 c3 ed b5 da f9 3b bc 8d 69 9e bc
       0.0030532926 -1.771473e-06 -0.0114731435 -0.01933744
000350 1e 27 92 92 25 29 22 ad 25 07 8f 3c fd 9b 51 bc
       -9.2235385e-28 -9.21777e-12 0.017459461 -0.012793538
000360 e8 d7 60 bc 10 6a cb 3c 66 12 a8 3d 76 26 30 3e
       -0.013723351 0.024830848 0.08206634 0.17202172
000370 69 c5 fb b9 84 f1 2d 3e 9e 3c 4f 3c 40 14 f7 bc
       -0.00048021533 0.16986662 0.01264873 -0.030161023
000380 72 a0 0c b1 98 0d 66 bc 13 12 db bc 8e 48 5b ab
       -2.0463884e-09 -0.014041327 -0.026742017 -7.790512e-13
000390 31 61 2d bd 1e 5f 83 bc 4c ad 91 bc 56 11 26 bb
       -0.042329017 -0.016036566 -0.01778283 -0.0025339923
0003a0 3b 66 d9 3d 39 ae 12 bc 11 7b d2 ad e3 b0 94 bc
       0.10615202 -0.008952671 -2.3928888e-11 -0.018150752
0003b0 55 22 11 93 78 f3 37 9a 0d 8c 8f bc e6 21 d0 bc
       -1.83185e-27 -3.8040186e-23 -0.017522836 -0.025406789
0003c0 9a 01 7d 3d 63 d7 9c 3c 2e 89 64 3c 87 7e 18 b0
       0.061769105 0.019145673 0.013948722 -5.5477084e-10
0003d0 7e d1 20 b9 04 84 20 3c 1b 28 07 aa fb 65 47 b9
       -0.00015336831 0.0097971 -1.2004323e-13 -0.0001901611
0003e0 66 ec e0 bc 56 7f c5 ba d5 02 0c a8 1b f7 0d ad
       -0.027456474 -0.0015067856 -7.772175e-15 -8.0697905e-12
0003f0 fd a8 a9 bc d8 53 15 b4 8b bc 21 b6 85 9c 59 3c
       -0.020710463 -1.3907209e-07 -2.4100616e-06 0.013281946

fc3.weight f4 [1, 300]
000000 a8 76 34 b7 06 1a 67 be d8 6b c7 39 7a a2 c1 3e
       -1.0756463e-05 -0.22568521 0.00038036588 0.37819272
000010 c1 84 9a 3a a8 13 80 be 48 36 2b b6 c0 4e 88 35
       0.0011788831 -0.25014997 -2.5512581e-06 1.0155709e-06
000020 9c ba 5a 3e 10 70 80 ba 71 39 0e 37 d6 41 09 be
       0.21360248 -0.0009799022 8.477234e-06 -0.1340402
000030 69 0c 38 35 3e 6a a8 b6 1d 6d 29 3e 68 f5 a8 3a
       6.85634e-07 -5.0191584e-06 0.1654553 0.001289052
000040 51 85 cd 3e 22 c5 57 be 95 1b 4a 37 60 db 14 3a
       0.40140775 -0.21071294 1.204656e-05 0.00056784414
000050 bd 4a 6b 3e 17 a6 99 ba 11 a2 b1 3a 88 cb 3b 3e
       0.22977729 -0.0011722472 0.0013552328 0.1833936
000060 13 b5 4c be ec b3 2d 35 40 d5 43 be 89 89 26 bb
       -0.1999095 6.4709343e-07 -0.19124317 -0.0025411567
000070 5d bb 6c 3e ec 70 b6 37 d5 8d 5c 38 b9 b5 b6 3e
       0.23118348 2.1748674e-05 5.258418e-05 0.35685518
000080 9f 86 84 b4 23 1e 00 3f 1b 98 88 3e 6e 59 73 ba
       -2.4684866e-07 0.50045985 0.26678547 -0.00092830404
000090 d2 15 f1 3e ac 17 c7 3e fe 9b 8b be 3c 44 72 b8
       0.4708696 0.38885248 -0.2726745 -5.7760844e-05
0000a0 a5 e8 e5 b9 3a 2f cd 3e 27 ed 3f be 75 6f af ba
       -0.00043851617 0.40075094 -0.1874281 -0.0013384657
0000b0 24 6e 41 3e cf 48 dc 35 71 af 38 be 68 a2 7b be
       0.18889672 1.6412467e-06 -0.18035676 -0.24573672
0000c0 55 bb 47 be fe a2 06 3f 7b d8 53 b9 39 7f 8a be
       -0.19505055 0.52592456 -0.00020203173 -0.27050188
0000d0 3c 97 9a 3e 3a 90 05 39 84 2f 0f 3e 09 3b 23 37
       0.30193508 0.00012737597 0.1398297 9.729302e-06
0000e0 23 f5 7a 3e 65 43 21 b6 e5 75 97 be c0 9e 9d b5
       0.24507575 -2.4030098e-06 -0.29582134 -1.1743614e-06
0000f0 09 96 1a 37 14 7c 26 be 11 4e 24 3b 67 e9 4c be
       9.214048e-06 -0.1625827 0.0025070945 -0.20010911
000100 a7 e3 f6 3a 35 21 10 be 74 a9 30 b9 15 a9 af be
       0.0018836156 -0.14075167 -0.00016847794 -0.34308687
000110 3c db 00 34 f1 59 31 be e6 e2 c1 3a 06 8d 10 38
       1.2000686e-07 -0.17319466 0.0014792352 3.4463614e-05
000120 3a c6 58 be 9f 86 d3 39 74 cc 0b be 90 19 2d 3e
       -0.21169367 0.00040345357 -0.13652211 0.16904283
000130 5c 9a c2 3e d1 bc cc ba 9b e3 6f be 0d 35 60 39
       0.38008392 -0.0015620237 -0.23426668 0.00021382068
000140 ce 41 96 b9 c4 6a 78 be 69 23 a8 38 09 15 0b 3f
       -0.00028659258 -0.24259478 8.01746e-05 0.5432897
000150 77 f9 66 b6 31 cf b3 bd 98 83 a1 ba 22 97 4b be
       -3.4417878e-06 -0.08779753 -0.0012322543 -0.19881871
000160 5c 09 26 be 3b 4a d6 b4 35 bb e0 b8 2d 24 18 be
       -0.16214508 -3.9914616e-07 -0.000107160224 -0.1485755
000170 6b 82 79 3e 82 65 64 34 71 b9 33 3e 22 53 c4 bd
       0.24366157 2.1271083e-07 0.17551209 -0.09586169
000180 24 fd 05 3b bb 1f 0b 3e 4c ff 43 3a 62 41 2d 3e
       0.0020445073 0.13586323 0.0007476702 0.16919473
000190 dd cd ca 3e 6a 58 2d be 51 2c 7e be 73 64 57 be
       0.39610186 -0.16928259 -0.24821593 -0.21034412
0001a0 fb 8b e7 ba bd 45 29 3e a6 56 47 3e 8f f5 cc b7
       -0.0017665619 0.1653051 0.19466648 -2.4433042e-05
0001b0 be 3d 6d 3a 0e 44 47 3a bc c9 de bd f0 c5 a9 ba
       0.0009050033 0.00076013885 -0.108783215 -0.0012952667
0001c0 bf fb 57 be 31 4d 5d be ab 7e 76 be 7f da 01 bb
       -0.21092127 -0.21611477 -0.24071757 -0.0019814072
0001d0 70 10 97 bd fd 69 c0 33 ec aa 1f be 50 5f b4 bd
       -0.07376182 8.959976e-08 -0.15592545 -0.08807242
0001e0 c5 fa 03 3a 93 c8 13 be 79 f2 d9 3e 03 62 47 be
       0.0005034621 -0.14431982 0.42567804 -0.19470982
0001f0 03 a6 fd b9 76 b4 cf 3e 1d 30 b6 b3 74 78 55 be
       -0.0004837961 0.40567368 -8.483787e-08 -0.2084673
000200 57 b6 d8 3e 1e bc 52 3e b1 d2 61 be e2 3d 26 3e
       0.42326614 0.20579574 -0.22053029 0.16234544
000210 47 0f dc ba f2 e6 62 be b9 9d 60 be 7b 49 8e 39
       -0.0016789221 -0.22158411 -0.21935166 0.00027139098
000220 4e 21 66 37 8b 57 32 be b2 9d 3c 35 98 f9 df bc
       1.3716823e-05 -0.17416207 7.0264934e-07 -0.027340695
000230 ba 2e f8 b6 4b 62 3d bb bc 79 fe 3e 7b 84 12 b5
       -7.3964156e-06 -0.0028897699 0.4970225 -5.458202e-07
000240 60 4c 22 3a 2a aa 26 3e 90 50 e2 3e 1f 5e 41 be
       0.00061911903 0.1627585 0.4420209 -0.1888356
000250 5a 33 b2 39 18 81 64 ba 94 49 19 3e 05 66 f2 bd
       0.00033989066 -0.0008716746 0.14969474 -0.11835865
000260 3c 7d 4f 38 68 b5 9f b9 40 32 52 39 c6 b6 e6 b7
       4.946928e-05 -0.00030462 0.0002004588 -2.7503247e-05
000270 1b 0b 58 b9 a7 b8 01 3b 71 22 00 b4 43 e0 f2 be
       -0.00020603502 0.00197939 -1.1933459e-07 -0.47436723
000280 9a 8b 09 bb 07 20 6c 39 51 ec 66 be d3 fb 12 be
       -0.002098775 0.00022518645 -0.22551085 -0.14353876
000290 7d 22 31 39 52 e8 29 be cc 8b f6 b6 39 19 4c 3e
       0.00016892883 -0.1659253 -7.347646e-06 0.19931497
0002a0 55 20 fa 39 09 30 a6 37 2c f4 f1 3e bc 2a 30 be
       0.00047707805 1.981111e-05 0.472566 -0.17203802
0002b0 8b d1 ee b9 c2 f8 dd 3e 01 a4 d9 3a 75 ef da 3e
       -0.0004555102 0.4335385 0.0016604663 0.42760816
0002c0 4c 69 69 b7 5c 5b a1 3e bc 38 16 b4 d0 f7 1c 38
       -1.3912399e-05 0.31515014 -1.3990478e-07 3.742409e-05
0002d0 c3 0f 2f 3e 24 cd 09 39 cd 52 4f be d7 c4 30 3e
       0.17095856 0.00013141759 -0.2024643 0.17262588
0002e0 55 bd ee 35 b0 e1 3e be c5 f0 32 be be c2 f4 be
       1.7787485e-06 -0.1864078 -0.17474659 -0.47804826
0002f0 aa 21 58 b7 1a 2d 65 be d1 83 84 b7 ac b7 7d 3e
       -1.2882441e-05 -0.22380486 -1.5797008e-05 0.24777097
000300 30 aa 05 b7 80 01 96 3e 5e 95 ba 33 3a 13 1c b9
       -7.967043e-06 0.2929802 8.68847e-08 -0.00014884482
000310 7e 51 31 be 72 1b 3c 3a a3 0d 53 be 7a f3 4a be
       -0.17316243 0.00071757205 -0.20610671 -0.19819441
000320 a8 4b 30 be 1d ad 4a 9f cc ef 23 38 ca 19 50 be
       -0.1721636 -4.291836e-20 3.9085557e-05 -0.20322338
000330 6c 84 a6 be 40 fe 9b b9 7b 2e 63 be 2b 1c 1f be
       -0.32522905 -0.00029753335 -0.221857 -0.15538089
000340 ac ae 3d be ac 6e 0e 3b 33 06 64 be f3 87 ab bd
       -0.18523663 0.0021733446 -0.2226799 -0.0837554
000350 4d 1c 78 b7 71 cc 76 36 87 dc 60 3e 25 c7 9e bd
       -1.4788541e-05 3.6775857e-06 0.21959125 -0.077528276
000360 e1 09 ec bd 34 99 c9 3d 3f c7 e5 3e 20 88 81 3e
       -0.11525322 0.09843674 0.44878575 0.25299168
000370 72 6b 20 3b 13 b3 b2 3e b1 a7 3e 3e 5c 52 31 be
       0.0024478105 0.34902248 0.18618657 -0.17316574
000380 69 f4 42 3a 87 2d 1f be 2b 45 74 be 18 7a 8b b8
       0.00074369326 -0.15544711 -0.2385451 -6.650778e-05
000390 f7 0c b8 be 96 bf 86 be a5 98 15 be 3c 56 82 b9
       -0.3594739 -0.26318043 -0.1460901 -0.00024859782
0003a0 fe f5 16 3f 3e 98 4f 3e 62 14 ad b6 f6 8b 3d be
       0.58969104 0.2027292 -5.1581746e-06 -0.18510422
0003b0 87 32 af b4 ed 68 f0 b3 b4 df 7d be 8f 45 9e be
       -3.2633054e-07 -1.1194957e-07 -0.24792367 -0.30912444
0003c0 1d cd 09 3f 5d b4 8a 3e 21 6b 39 3e a1 84 cf 37
       0.53828603 0.2709073 0.18107273 2.4738083e-05
0003d0 13 ca 84 ba 18 20 3d 3e f0 5d 0d ba 45 2b 60 ba
       -0.0010131024 0.18469274 -0.0005392721 -0.00085513695
0003e0 3e 66 4f be cc 46 35 be c0 5b b3 36 57 c6 61 b5
       -0.20253846 -0.17702788 5.345297e-06 -8.4107654e-07
0003f0 8d 03 1e be b7 27 33 34 86 f5 4a 39 7d 74 77 3e
       -0.15431042 1.6685122e-07 0.00019355686 0.2416553

bn1_state.weight f4 [400]
000000 78 e1 1e 3e 18 30 68 3f 6d fc 2f 3f 26 ac d4 3e
       0.15515697 0.90698385 0.68744546 0.4153759
000010 d0 97 ef 3e 30 73 9e 3e 24 18 21 3f 26 e9 d9 3e
       0.4679551 0.30947256 0.6292746 0.4256069
000020 74 9c 13 3e 93 1a 23 3f 00 2d 4d 3f 90 35 12 3e
       0.14415151 0.63712424 0.8014679 0.14278245
000030 3a 19 02 3f c8 12 7a 3f 27 57 51 3f b0 aa 02 3f
       0.5081974 0.9768491 0.8177361 0.510417
000040 90 a3 a7 3e bc 64 43 3f a2 89 44 3f ea c9 02 3f
       0.32741976 0.76325583 0.7677251 0.51089346
000050 84 a7 06 3e 0e dc c6 3e f5 51 38 3f e6 93 1d 3f
       0.1314984 0.38839763 0.72000057 0.615538
000060 c4 b9 60 3e 20 42 5c 3d c9 78 5b 3f c5 bb 43 3f
       0.21945864 0.053774 0.8573118 0.7645839
000070 da 96 da 3e d5 47 30 3f 4c 63 1d 3e 3b fd 26 3f
       0.42693216 0.68859607 0.1536991 0.6523015
000080 d4 86 9b 3e 68 d6 ab 3e 42 7f c8 3e 54 0c 3a 3e
       0.30376303 0.33562016 0.3915959 0.18168765
000090 c3 58 68 3f 66 33 94 3e bf 06 69 3f 99 b3 5e 3f
       0.9076044 0.28945464 0.9102592 0.86992794
0000a0 a0 6e fd 3d 91 b0 03 3f f0 4f a0 3e 28 fb 10 3f
       0.12374616 0.51441294 0.31310987 0.56633234
0000b0 84 bb 7d 3e 39 8c 57 3f da a6 18 3f a4 69 89 3e
       0.24778563 0.8419834 0.59629595 0.2683841
0000c0 88 c3 7d 3f f4 6d 96 3e 9a eb 7f 3f e0 07 fb 3d
       0.9912648 0.29380763 0.99968874 0.122573614
0000d0 79 ea 39 3f b9 e9 0f 3f b0 cb 1e 3f 10 53 4b 3e
       0.726234 0.5621601 0.6202955 0.19855905
0000e0 5c 71 84 3e 02 c8 5e 3f 08 04 3f 3e 47 c0 47 3f
       0.25867736 0.8702394 0.18653882 0.78027767
0000f0 96 12 c2 3e 14 b2 37 3e 6e 08 8f 3e 1a e3 ac 3e
       0.37904805 0.17939025 0.2793612 0.33767015
000100 45 90 78 3f 11 da 42 3f a7 bb 27 3f 68 a5 fd 3d
       0.9709514 0.7611399 0.6552071 0.12385064
000110 c2 9c 4c 3f 55 52 3f 3f c8 55 d2 3d 50 7a f0 3e
       0.79926693 0.74735004 0.10270268 0.46968317
000120 d5 e6 34 3f 78 00 d8 3e 90 0a 79 3d f2 df a3 3e
       0.7066472 0.42187858 0.06080109 0.32006794
000130 34 8b 25 3e 28 9b ca 3d 00 b4 a7 3a eb 13 50 3f
       0.16166383 0.09892875 0.0012794733 0.8128039
000140 e8 c2 c6 3d fa 39 b5 3e a4 2b 43 3f 32 39 ca 3e
       0.09705144 0.35395795 0.76238465 0.39496762
000150 bc 42 c0 3e cc 92 0c 3e 78 69 79 3f 00 5b a5 3c
       0.37550914 0.13727874 0.9742656 0.020184994
000160 90 53 87 3e 7e 2c 7d 3f 8c 25 2f 3e 36 92 c6 3e
       0.2643094 0.98896015 0.17104167 0.38783425
000170 3e ae 8f 3e 8d 8d 22 3f 06 b1 ab 3e 44 80 19 3f
       0.28062624 0.6349724 0.33533496 0.5996134
000180 8e 55 49 3f 88 0a 0d 3e 20 4a 6a 3f c8 36 ca 3d
       0.7864617 0.13773549 0.91519356 0.0987373
000190 ac 19 f0 3e 80 7b 05 3c 91 d4 22 3f 70 8e b3 3d
       0.46894586 0.0081471205 0.636056 0.08767402
0001a0 76 c9 0c 3f 3c 83 35 3f 7d 00 62 3f 45 cd 3e 3f
       0.54994905 0.7090337 0.88281995 0.74531966
0001b0 ef 9a 71 3f 5a 97 80 3e 58 4b 36 3e 7e cd 38 3f
       0.94377035 0.25115472 0.17802179 0.72188556
0001c0 9c eb c3 3e 40 79 a3 3e e8 cf d4 3e 02 ff d2 3e
       0.38265693 0.31928444 0.4156487 0.4121018
0001d0 30 8f 9e 3d d8 71 19 3e 58 c9 3e 3f 68 15 d4 3e
       0.077421546 0.14984834 0.74525976 0.41422582
0001e0 0b e2 52 3f 55 85 09 3f 5c a0 45 3f c4 1b 07 3f
       0.82376164 0.53719074 0.77197814 0.5277674
0001f0 0d 3e 33 3f f4 09 5d 3e 64 db 36 3f 0c 4c 3d 3e
       0.70016557 0.21585828 0.71428514 0.18486041
000200 a0 be a9 3e b3 74 76 3f 10 de c3 3e fc a5 42 3f
       0.33153248 0.9627182 0.38255358 0.7603452
000210 79 fc 21 3f 3e f6 fe 3e cc 72 ec 3e 76 97 d7 3e
       0.6327587 0.49797243 0.46181333 0.42107743
000220 42 f8 8c 3e 12 a3 08 3f 12 32 7b 3f a8 19 63 3f
       0.27533156 0.53373826 0.98123276 0.88711023
000230 56 0b 24 3f 96 5b ea 3e 25 1c 1a 3f 82 2d 4a 3f
       0.640798 0.45773 0.60199195 0.7897569
000240 e1 5f 4e 3f c1 e4 1a 3f 65 1e 0e 3f 0c 18 17 3f
       0.8061505 0.605053 0.5551513 0.5902107
000250 e6 24 eb 3e 0d 9f 7b 3f 5e f7 1a 3f fc 12 77 3e
       0.4592659 0.9828957 0.605337 0.24128336
000260 28 f6 62 3e 58 27 f7 3d bd 29 4f 3f 00 f8 8b 39
       0.22164214 0.12068051 0.8092306 0.0002669692
000270 22 0c a9 3e dc 3f 8c 3e e8 4a da 3e b8 f9 5a 3e
       0.3301707 0.2739247 0.42635274 0.21384323
000280 fa da 83 3e 23 73 16 3f 1a db ca 3e 7c 4c a8 3e
       0.25753003 0.58769435 0.39620286 0.32870853
000290 25 97 6e 3f 00 27 11 3e d4 8f 8b 3e 43 fb 33 3f
       0.9319938 0.14175034 0.2725817 0.7030527
0002a0 5e c6 e8 3e c2 c9 ff 3e ba 47 79 3f e0 4c 39 3e
       0.45463842 0.49958616 0.9737507 0.18095732
0002b0 b4 46 6b 3e b1 5c 24 3f 48 52 15 3e 18 6b 74 3f
       0.2297619 0.64203936 0.14582169 0.9547591
0002c0 74 dc 43 3f 80 40 ee 3b ed d8 02 3f e8 92 a0 3d
       0.7650826 0.0072708726 0.5111225 0.0784052
0002d0 8c 00 42 3e 7d a0 51 3f 04 9a 70 3f 6c 83 1e 3e
       0.18945521 0.8188551 0.9398501 0.15479821
0002e0 d9 8b 3a 3f 44 7f cf 3e b4 9b 93 3e aa cb 32 3f
       0.7286964 0.40526783 0.2882973 0.69842017
0002f0 fa 50 b3 3e 58 43 a3 3d 18 15 b3 3d 58 bf 83 3d
       0.35022718 0.07971829 0.08744258 0.0643298
000300 5a b8 65 3f 2a cb 8d 3e 1e 23 62 3f 16 4b e5 3e
       0.89734423 0.27694064 0.88334835 0.4478385
000310 be c9 57 3f ce cd 86 3e 31 ee 78 3f d0 ff 41 3f
       0.8429221 0.26328892 0.9723845 0.75780964
000320 ad 85 6d 3f d4 17 88 3e 54 1c cd 3e 2a 79 14 3f
       0.927821 0.2658068 0.40060675 0.5799738
000330 df 5c 48 3f 5b 47 71 3f 72 4d 95 3e ab 32 76 3f
       0.7826671 0.94249505 0.2916065 0.96171063
000340 d2 be ba 3e 56 3b 21 3f d2 19 21 3f aa ab 45 3f
       0.3647371 0.62981164 0.62930024 0.77215064
000350 df 61 75 3f 60 f2 b0 3d 80 10 79 3e e4 ae 76 3e
       0.95852464 0.08639979 0.243227 0.24090153
000360 24 38 a1 3e 2b 5e 20 3f f0 f5 ce 3d 28 32 ae 3d
       0.31488144 0.6264369 0.101055026 0.0850566
000370 9e e7 1d 3f 34 ae 58 3e 18 e7 fc 3e e2 ef 5d 3f
       0.61681545 0.21160203 0.4939506 0.8669416
000380 80 5e bf 3e 19 72 7b 3f fa 59 45 3f b7 f0 25 3f
       0.37376785 0.98220974 0.7709042 0.64820427
000390 aa 9d 39 3f e0 3f 68 3e 8c 50 06 3e b4 4a 60 3e
       0.725062 0.22680616 0.13116664 0.21903497
0003a0 c0 61 ea 3e f4 5e 30 3f e4 25 87 3e 60 f6 99 3c
       0.45777702 0.68894887 0.26396096 0.018794239
0003b0 64 65 bb 3e 98 b6 32 3e a1 e3 5a 3f 55 43 64 3f
       0.36600792 0.17452466 0.85503584 0.8916524
0003c0 cc 2e 25 3f 93 14 5e 3f 90 8f a9 3e fb 9a 02 3f
       0.6452453 0.86750144 0.33117342 0.5101773
0003d0 24 4d 3c 3f 87 c9 5b 3f 90 ad e7 3d 43 ad 35 3f
       0.7355521 0.8585438 0.11312401 0.709675
0003e0 7e b1 2a 3f 62 05 e5 3e b6 16 44 3f 28 24 fe 3e
       0.6667708 0.4473067 0.76597154 0.4963696
0003f0 06 eb bc 3e a4 45 e9 3e 38 d6 b6 3d b0 3c 27 3f
       0.3689806 0.45560944 0.08927578 0.65326977

bn1_state.bias f4 [400]
000000 00 00 00 00 00 00 00 00 00 00 00 00 00 00 00 00
       0.0 0.0 0.0 0.0
000010 00 00 00 00 00 00 00 00 00 00 00 00 00 00 00 00
       0.0 0.0 0.0 0.0
000020 00 00 00 00 00 00 00 00 00 00 00 00 00 00 00 00
       0.0 0.0 0.0 0.0
000030 00 00 00 00 00 00 00 00 00 00 00 00 00 00 00 00
       0.0 0.0 0.0 0.0
000040 00 00 00 00 00 00 00 00 00 00 00 00 00 00 00 00
       0.0 0.0 0.0 0.0
000050 00 00 00 00 00 00 00 00 00 00 00 00 00 00 00 00
       0.0 0.0 0.0 0.0
000060 00 00 00 00 00 00 00 00 00 00 00 00 00 00 00 00
       0.0 0.0 0.0 0.0
000070 00 00 00 00 00 00 00 00 00 00 00 00 00 00 00 00
       0.0 0.0 0.0 0.0
000080 00 00 00 00 00 00 00 00 00 00 00 00 00 00 00 00
       0.0 0.0 0.0 0.0
000090 00 00 00 00 00 00 00 00 00 00 00 00 00 00 00 00
       0.0 0.0 0.0 0.0
0000a0 00 00 00 00 00 00 00 00 00 00 00 00 00 00 00 00
       0.0 0.0 0.0 0.0
0000b0 00 00 00 00 00 00 00 00 00 00 00 00 00 00 00 00
       0.0 0.0 0.0 0.0
0000c0 00 00 00 00 00 00 00 00 00 00 00 00 00 00 00 00
       0.0 0.0 0.0 0.0
0000d0 00 00 00 00 00 00 00 00 00 00 00 00 00 00 00 00
       0.0 0.0 0.0 0.0
0000e0 00 00 00 00 00 00 00 00 00 00 00 00 00 00 00 00
       0.0 0.0 0.0 0.0
0000f0 00 00 00 00 00 00 00 00 00 00 00 00 00 00 00 00
       0.0 0.0 0.0 0.0
000100 00 00 00 00 00 00 00 00 00 00 00 00 00 00 00 00
       0.0 0.0 0.0 0.0
000110 00 00 00 00 00 00 00 00 00 00 00 00 00 00 00 00
       0.0 0.0 0.0 0.0
000120 00 00 00 00 00 00 00 00 00 00 00 00 00 00 00 00
       0.0 0.0 0.0 0.0
000130 00 00 00 00 00 00 00 00 00 00 00 00 00 00 00 00
       0.0 0.0 0.0 0.0
000140 00 00 00 00 00 00 00 00 00 00 00 00 00 00 00 00
       0.0 0.0 0.0 0.0
000150 00 00 00 00 00 00 00 00 00 00 00 00 00 00 00 00
       0.0 0.0 0.0 0.0
000160 00 00 00 00 00 00 00 00 00 00 00 00 00 00 00 00
       0.0 0.0 0.0 0.0
000170 00 00 00 00 00 00 00 00 00 00 00 00 00 00 00 00
       0.0 0.0 0.0 0.0
000180 00 00 00 00 00 00 00 00 00 00 00 00 00 00 00 00
       0.0 0.0 0.0 0.0
000190 00 00 00 00 00 00 00 00 00 00 00 00 00 00 00 00
       0.0 0.0 0.0 0.0
0001a0 00 00 00 00 00 00 00 00 00 00 00 00 00 00 00 00
       0.0 0.0 0.0 0.0
0001b0 00 00 00 00 00 00 00 00 00 00 00 00 00 00 00 00
       0.0 0.0 0.0 0.0
0001c0 00 00 00 00 00 00 00 00 00 00 00 00 00 00 00 00
       0.0 0.0 0.0 0.0
0001d0 00 00 00 00 00 00 00 00 00 00 00 00 00 00 00 00
       0.0 0.0 0.0 0.0
0001e0 00 00 00 00 00 00 00 00 00 00 00 00 00 00 00 00
       0.0 0.0 0.0 0.0
0001f0 00 00 00 00 00 00 00 00 00 00 00 00 00 00 00 00
       0.0 0.0 0.0 0.0
000200 00 00 00 00 00 00 00 00 00 00 00 00 00 00 00 00
       0.0 0.0 0.0 0.0
000210 00 00 00 00 00 00 00 00 00 00 00 00 00 00 00 00
       0.0 0.0 0.0 0.0
000220 00 00 00 00 00 00 00 00 00 00 00 00 00 00 00 00
       0.0 0.0 0.0 0.0
000230 00 00 00 00 00 00 00 00 00 00 00 00 00 00 00 00
       0.0 0.0 0.0 0.0
000240 00 00 00 00 00 00 00 00 00 00 00 00 00 00 00 00
       0.0 0.0 0.0 0.0
000250 00 00 00 00 00 00 00 00 00 00 00 00 00 00 00 00
       0.0 0.0 0.0 0.0
000260 00 00 00 00 00 00 00 00 00 00 00 00 00 00 00 00
       0.0 0.0 0.0 0.0
000270 00 00 00 00 00 00 00 00 00 00 00 00 00 00 00 00
       0.0 0.0 0.0 0.0
000280 00 00 00 00 00 00 00 00 00 00 00 00 00 00 00 00
       0.0 0.0 0.0 0.0
000290 00 00 00 00 00 00 00 00 00 00 00 00 00 00 00 00
       0.0 0.0 0.0 0.0
0002a0 00 00 00 00 00 00 00 00 00 00 00 00 00 00 00 00
       0.0 0.0 0.0 0.0
0002b0 00 00 00 00 00 00 00 00 00 00 00 00 00 00 00 00
       0.0 0.0 0.0 0.0
0002c0 00 00 00 00 00 00 00 00 00 00 00 00 00 00 00 00
       0.0 0.0 0.0 0.0
0002d0 00 00 00 00 00 00 00 00 00 00 00 00 00 00 00 00
       0.0 0.0 0.0 0.0
0002e0 00 00 00 00 00 00 00 00 00 00 00 00 00 00 00 00
       0.0 0.0 0.0 0.0
0002f0 00 00 00 00 00 00 00 00 00 00 00 00 00 00 00 00
       0.0 0.0 0.0 0.0
000300 00 00 00 00 00 00 00 00 00 00 00 00 00 00 00 00
       0.0 0.0 0.0 0.0
000310 00 00 00 00 00 00 00 00 00 00 00 00 00 00 00 00
       0.0 0.0 0.0 0.0
000320 00 00 00 00 00 00 00 00 00 00 00 00 00 00 00 00
       0.0 0.0 0.0 0.0
000330 00 00 00 00 00 00 00 00 00 00 00 00 00 00 00 00
       0.0 0.0 0.0 0.0
000340 00 00 00 00 00 00 00 00 00 00 00 00 00 00 00 00
       0.0 0.0 0.0 0.0
000350 00 00 00 00 00 00 00 00 00 00 00 00 00 00 00 00
       0.0 0.0 0.0 0.0
000360 00 00 00 00 00 00 00 00 00 00 00 00 00 00 00 00
       0.0 0.0 0.0 0.0
000370 00 00 00 00 00 00 00 00 00 00 00 00 00 00 00 00
       0.0 0.0 0.0 0.0
000380 00 00 00 00 00 00 00 00 00 00 00 00 00 00 00 00
       0.0 0.0 0.0 0.0
000390 00 00 00 00 00 00 00 00 00 00 00 00 00 00 00 00
       0.0 0.0 0.0 0.0
0003a0 00 00 00 00 00 00 00 00 00 00 00 00 00 00 00 00
       0.0 0.0 0.0 0.0
0003b0 00 00 00 00 00 00 00 00 00 00 00 00 00 00 00 00
       0.0 0.0 0.0 0.0
0003c0 00 00 00 00 00 00 00 00 00 00 00 00 00 00 00 00
       0.0 0.0 0.0 0.0
0003d0 00 00 00 00 00 00 00 00 00 00 00 00 00 00 00 00
       0.0 0.0 0.0 0.0
0003e0 00 00 00 00 00 00 00 00 00 00 00 00 00 00 00 00
       0.0 0.0 0.0 0.0
0003f0 00 00 00 00 00 00 00 00 00 00 00 00 00 00 00 00
       0.0 0.0 0.0 0.0
