collaboration_competition/outputs/exp_6/actor_1000.pth (torch_old, 536747 bytes, 14 tensors)

fc1.weight f4 [400, 24]
0.0070820446 0.019797843 0.061168708 -0.08198226 -0.04597184 -0.00609778 0.0045450195 -0.067702554
0.003282643 -0.016147455 0.020526333 -0.018565431 0.040701028 0.020669026 0.0713873 -0.008133487
-0.0067708427 0.025720425 -0.028451024 -0.08386466 0.05529786 -0.024855737 -0.029410487 -0.011101771
0.013770672 0.035254315 -0.008652786 -0.0031355375 0.0466467 -7.042357e-05 0.02025856 -0.05522772
0.028705489 0.035225715 0.03688344 -0.029626878 -0.013736274 -0.005431747 0.032460824 -0.024912065
0.043193612 0.037194148 0.0037392587 -0.04413346 -0.014491324 0.013673703 -0.01121039 -0.120253086
0.036025066 0.062703826 0.017301047 -0.020835746 0.022997813 0.028527694 0.025478099 0.0368741
0.024101017 0.04082865 -0.03581474 0.016162453 0.0019347683 -0.027149012 0.034762852 0.046496164
0.020871777 0.020508649 -0.014567148 0.05193594 -0.014865279 -0.056043364 0.024782998 0.03053899
0.040237505 0.03155479 0.03144025 -0.031799026 -0.05022482 -0.021959728 -0.018367093 0.03546908
-0.03701012 0.0132698435 0.043386154 -0.019088266 -0.048431426 -0.06826507 0.01624974 0.0022457114
-0.020790847 0.027280113 -0.06876155 0.026135221 -0.032669064 0.021841973 -0.06502073 -0.007505549
-0.029791772 0.03821639 0.06280049 0.063657895 -0.019880762 0.059575565 0.026389644 0.06005288
-0.045780376 0.026204305 0.03726248 -0.03344112 0.014711834 0.07179576 -0.036437508 0.032612823
0.0070897858 -0.031109456 0.029164156 -0.042487636 -0.014762856 0.018761752 -0.016160937 -0.044632513
0.011826908 -0.015604501 -0.0067446013 -0.048985418 0.012022775 0.047314186 0.025486626 -0.0030894498
0.041780323 -0.07007163 -0.011103946 0.01940343 -0.018451272 0.008244383 0.025381625 -0.03481796
0.0446063 -0.04919489 -0.00046252488 0.022714654 0.04301892 -0.025531398 -0.024644097 0.0017092933
0.044913787 0.058071453 0.04322509 0.043857254 0.043415934 -0.00051448145 -0.007047592 -0.0039507695
0.0042297128 0.019242985 0.056063503 -0.0076841875 -0.016799029 -0.03451851 -0.018039478 0.059420746
0.0021288856 -0.026887907 -0.023527887 -0.022476267 -0.047342226 -0.051943675 0.014666045 -0.006461185
0.06314531 0.049751565 0.015630577 0.02894422 0.01070781 0.031104397 -0.017450258 -0.028779522
-0.03410732 -0.011410848 -0.02108696 0.012134959 -0.0010564723 0.061885476 0.0027230026 -0.017881488
0.034860272 0.03567183 -0.0176948 0.023017231 -0.0221338 0.005786638 -0.059020255 -0.044201788
0.03503886 -0.010982551 -0.040371608 -0.015156809 -0.0036215868 0.061616447 -0.04726668 -0.036436785
0.048151135 0.025491858 -0.033687282 -0.0055994554 -0.0011176668 0.025738537 0.005633999 -0.040518425
-0.0005506897 0.07126681 0.03769942 -0.092121825 0.0098561095 0.010870315 0.056806434 -0.08211303
0.009731247 0.040915508 -0.016884688 -0.040227678 0.038415696 0.008986245 0.061338004 -0.06502348
0.017734189 0.011032805 -0.024530204 0.0021788604 0.003954317 -0.027699986 -0.025555218 -0.040741205
-0.011839841 -0.020085134 0.01126297 0.09742473 -0.013513369 0.020107701 0.0100970045 0.013743478
-0.035790917 -0.06962781 0.037105262 0.019295212 -0.03673352 -0.027378807 -0.014288148 -0.035145134
-0.04817983 -0.04170288 0.0066073267 -0.0440326 0.036832545 -0.03601793 -0.03050434 -0.011712318
00000000: 7f10 e83b 162f a23c 0a8c 7a3d 51e6 a7bd
00000010: f84c 3cbd e3cf c7bb 63ee 943b a3a7 8abd
00000020: 9c21 573b ab47 84bc d726 a83c 8816 98bc
00000030: 1fb6 263d 1752 a93c 8133 923d 5142 05bc
00000040: f2dd ddbb a4b3 d23c 1f12 e9bc 3cc1 abbd
00000050: 0280 623d 429e cbbc 43ee f0bc 34e4 35bc
00000060: 629e 613c d466 103d 6ac4 0dbc 977d 4dbb
00000070: 9c10 3f3d 5eb0 93b8 48f5 a53c 7636 62bd
00000080: c627 eb3c d748 103d 1713 173d 11b4 f2bc
00000090: 1c0e 61bc ccfc b1bb a4f5 043d 6314 ccbc
000000a0: c9eb 303d e458 183d 5a0e 753b 49c5 34bd
000000b0: 056d 6dbc ab07 603c c9ab 37bc 4047 f6bd
000000c0: 058f 133d dd6a 803d edba 8d3c baaf aabc
000000d0: e965 bc3c e9b2 e93c 72b7 d03c 4c09 173d
000000e0: 7f6f c53c f13b 273d 7ab2 12bd 1f67 843c
000000f0: 0d98 fd3a 9b67 debc 7e63 0e3d c372 3e3d
00000100: 4afb aa3c c101 a83c 0cab 6ebc c8ba 543d
00000110: 808d 73bc ba8d 65bd b705 cb3c e72c fa3c
00000120: 15d0 243d 983f 013d 7ec7 003d b23f 02bd
00000130: 8ab8 4dbd e3e4 b3bc 9676 96bc 0748 113d
00000140: ec97 17bd c269 593c aeb5 313d ff5e 9cbc
00000150: 0860 46bd 8fce 8bbd 2d1e 853c c92c 133b
00000160: 9151 aabc 8b7a df3c dbd2 8cbd 8819 d63c
00000170: ffcf 05bd f0ed b23c 9729 85bd 1cf1 f5bb
00000180: e00d f4bc ca88 1c3d 8b9d 803d 125f 823d
00000190: fbdc a2bc 8205 743d 182f d83c 02fa 753d
000001a0: 3484 3bbd 69aa d63c 8ba0 183d 8ef9 08bd
000001b0: e709 713c a809 933d 7f3f 15bd 0695 053d
000001c0: 6f51 e83b 42d9 febc abe9 ee3c 8407 2ebd
000001d0: e8df 71bc 3fb2 993c f163 84bc 95d0 36bd
000001e0: a6c5 413c 05aa 7fbc d101 ddbb efa4 48bd
000001f0: 2cfb 443c 85cc 413d 54c9 d03c 5e78 4abb
00000200: d821 2b3d b781 8fbd 53ed 35bc f1f3 9e3c
00000210: 1f27 97bc 7313 073c 20ed cf3c 479d 0ebd
00000220: 18b5 363d 9580 49bd 0a7f f2b9 1514 ba3c
00000230: 9b34 303d 3927 d1bc 6be2 c9bc 5e0a e03a
00000240: 85f7 373d 55dc 6d3d cb0c 313d aaa3 333d
00000250: e8d4 313d 44de 06ba 7def e6bb 7575 81bb
00000260: 6799 8a3b 77a3 9d3c d8a2 653d a3cb fbbb
00000270: 1e9e 89bc 4863 0dbd 87c7 93bc 2b63 733d
00000280: c684 0b3b 0744 dcbc 8ebd c0bc 2620 b8bc
00000290: ece9 41bd e4c2 54bd da49 703c 59b8 d3bb
000002a0: 5452 813d 4cc8 4b3d b20b 803c 6e1c ed3c
000002b0: cf6f 2f3c a6ce fe3c d8f3 8ebc 08c3 ebbc
000002c0: 1eb4 0bbd 91f4 3abc 8fbe acbc b5d1 463c
000002d0: 5479 8aba a07b 7d3d 6774 323b 337c 92bc
000002e0: a5c9 0e3d a01c 123d aff4 90bc a28e bc3c
000002f0: f151 b5bc d69d bd3b 39bf 71bd ef0c 35bd
00000300: e884 0f3d 28f0 33bc b35c 25bd 4454 78bc
00000310: 2558 6dbb 8761 7c3d b59a 41bd bd3e 15bd
00000320: 203a 453d 4dd4 d03c adfb 09bd a37b b7bb
00000330: ad7e 92ba a0d9 d23c 699d b83b a6f6 25bd
00000340: 295c 10ba 55f4 913d b56a 1a3d 5eaa bcbd
00000350: 857b 213c 6819 323c ddad 683d e02a a8bd
00000360: cf6f 1f3c 0597 273d c251 8abc c7c5 24bd
00000370: c759 1d3d 0b3b 133c 8f3d 7b3d 082b 85bd
00000380: 4a47 913c f0c2 343c 91f3 c8bc 36cb 0e3b
00000390: 3793 813b 15eb e2bc 2d59 d1bc 40e0 26bd
000003a0: e4fb 41bc 9489 a4bc 5288 383c 9e86 c73d
000003b0: 2d67 5dbc e8b8 a43c e86d 253c 532c 613c
000003c0: 7f99 12bd 0699 8ebd b0fb 173d fe10 9e3c
000003d0: e375 16bd 8549 e0bc d618 6abc 58f4 0fbd
000003e0: 3758 45bd a4d0 2abd 4682 d83b 875b 34bd
000003f0: b9dd 163d 8987 13bd 3de4 f9bc 06e5 3fbc

fc1.bias f4 [400]
0.17468126 0.018195352 -0.051456504 0.114946 0.013957749 0.021201506 -0.028190456 -0.12525682
-0.08011212 -0.20269242 -0.014888414 -0.1845549 0.009385095 0.0025081935 0.07898691 -0.16177124
0.015281837 -0.06905841 -0.14571367 0.14197782 -0.20786151 0.1453412 -0.0359472 -0.12225384
-0.20987077 -0.17949878 -0.065224245 0.11226801 0.081883006 -0.15491122 0.13841313 0.15832442
0.08411096 0.19404395 0.09510899 0.015657548 0.11423805 -0.12413539 -0.011384941 -0.13329595
-0.07408278 -0.17176916 0.13174257 -0.07757558 0.057378337 0.11508775 0.05335867 0.009735732
0.21279603 -0.21465695 0.15667796 -0.19554295 0.14908016 -0.004070137 -0.13275585 -0.07713053
-0.060690578 0.096537374 0.15260255 0.096902825 0.13082671 0.21365288 -0.17646195 0.09625384
-0.028485036 0.13086459 0.049033467 -0.00800956 0.15852152 -0.06618479 -0.19264391 -0.15013556
0.13454111 -0.0027993447 -0.18758437 0.06873751 -0.0028594502 -0.13469468 0.15142445 0.11877803
0.14628397 -0.020296348 -0.13684584 -0.16457371 0.008178093 -0.11723617 0.13947038 -0.18806684
-0.1683856 -0.0020580261 0.053780835 -0.018886605 -0.059835136 -0.12663592 -0.0532592 -0.0040420373
-0.2152565 -0.0352776 -0.04951811 -0.002975103 0.12343081 -0.13848498 0.06722888 0.06342407
0.017831607 -0.06601545 0.10283541 -0.16600561 -0.099577606 0.00032038387 -0.06611074 -0.21178694
0.093710214 0.09436818 -0.20470351 -0.022930073 -0.1812659 -0.056101095 0.036665536 0.1597741
0.13062717 0.08232466 0.034667548 -0.21029752 -0.054036558 0.15459308 -0.012470977 -0.01927223
-0.09941975 0.04798922 0.1197467 -0.0202457 0.034673695 0.13938168 0.12555885 0.07409923
0.12930764 0.058856 0.031927552 -0.23646906 -0.031589013 -0.06760486 0.06854963 -0.060048565
-0.21492761 0.1608536 -0.12712136 -0.22658427 -0.075824365 0.028449658 -0.08196373 -0.2220341
0.06470888 0.058859453 0.218861 -0.21710478 -0.06931446 -0.07622228 -0.07150885 -0.03512366
0.1994821 -0.03402223 0.17119125 0.05047526 -0.11769039 -0.053845156 0.08594267 0.13266563
-0.06469289 -0.06839217 -0.17823642 -0.1239355 -0.08333065 0.09450128 0.0101388125 0.10323703
-0.1922464 0.03473344 -0.17735976 -0.088008076 0.17345291 -0.024254678 -0.15736838 -0.22123
-0.0598807 -0.07693661 -0.2034855 0.09907786 -0.026574908 -0.023707327 0.108865805 -0.18809214
0.02433875 0.17672029 0.058465116 0.10915349 -0.065358676 -0.20809047 0.12605476 -0.23272751
-0.10197834 0.16404594 -0.111555226 -0.11780298 -0.12503809 0.013605122 -0.06130894 0.05299042
0.18273692 -0.13304128 0.11532793 -0.07169973 -0.20722626 0.062204108 -0.14180215 0.12784708
-0.03399368 -0.12691382 -0.16650555 0.046272308 -0.2283585 0.0916037 0.06369869 -0.195864
0.08649283 -0.18105859 -0.004663297 -0.06896787 0.10533077 -0.17191373 -0.09570185 -0.060787007
-0.055990864 -0.0012303855 -0.14640936 0.03578401 -0.003168986 -0.122713685 0.039622568 0.1462552
0.045178674 0.050104912 -0.08469974 -0.098415755 0.14574827 0.0038557353 0.009641921 0.081532
-0.102748066 -0.20369905 -0.14329098 -0.20201391 0.122590564 0.10228247 -0.11220154 -0.08367152
00000000: a5df 323e 6b0e 953c 0ec4 52bd cf68 eb3d
00000010: 0baf 643c c8ae ad3c acef e6bc 5343 00be
00000020: d311 a4bd 9a8e 4fbe 89ee 73bc f6fb 3cbe
00000030: f1c3 193c 8160 243b e4c3 a13d 5ca7 25be
00000040: ac60 7a3c 7f6e 8dbd f735 15be a262 113e
00000050: a6d9 54be 53d4 143e 5f3d 13bd 3960 fabd
00000060: 5de8 56be 87ce 37be 4a94 85bd c5ec e53d
00000070: 47b2 a73d 0ca1 1ebe 2cbc 0d3e cc1f 223e
00000080: 5e42 ac3d 75b3 463e 81c8 c23d 4244 803c
00000090: a4f5 e93d b23a febd e787 3abc bc7e 08be
000000a0: b6b8 97bd 41e4 2fbe 86e7 063e f2df 9ebd
000000b0: 8c05 6b3d 20b3 eb3d 9f8e 5a3d 9f82 1f3c
000000c0: 34e7 593e 08cf 5bbe 3070 203e 693c 48be
000000d0: 78a8 183e c95e 85bb 26f1 07be 9cf6 9dbd
000000e0: af96 78bd 63b5 c53d d843 1c3e fd74 c63d
000000f0: 70f7 053e d2c7 5a3e 71b2 34be bc20 c53d
00000100: 7359 e9bc 5e01 063e 51d7 483d 883a 03bc
00000110: 7753 223e e48b 87bd 7244 45be 23bd 19be
00000120: 25c5 093e 3675 37bb 1e16 40be 40c6 8c3d
00000130: 9d65 3bbb 67ed 09be 030f 1b3e e541 f33d
00000140: 77cb 153e 8744 a6bc 5121 0cbe 0386 28be
00000150: 68fd 053c 8419 f0bd 53d1 0e3e 9894 40be
00000160: 466d 2cbe f3df 06bb 4b49 5c3d 15b8 9abc
00000170: b015 75bd d9ac 01be 5226 5abd 1173 84bb
00000180: 336c 5cbe 3f7f 10bd 80d3 4abd f2f9 42bb
00000190: 4bc9 fc3d 02cf 0dbe 4caf 893d 7be4 813d
000001a0: 9713 923c 1c33 87bd 5f9b d23d 60fd 29be
000001b0: 58ef cbbd 32f9 a739 1165 87bd adde 58be
000001c0: 24eb bf3d 1b44 c13d cc9d 51be d9d7 bbbc
000001d0: c59d 39be 43ca 65bd 9a2e 163d d29b 233e
000001e0: 21c3 053e d599 a83d 8fff 0d3d 3c58 57be
000001f0: 7055 5dbd a64d 1e3e 1253 4cbc cce0 9dbc
00000200: 959c cbbd 5890 443d c23d f53d 4fda a5bc
00000210: 0106 0e3d 12ba 0e3e 8092 003e 56c1 973d
00000220: 3969 043e fd12 713d 77c6 023d f224 72be
00000230: 7b63 01bd 6b74 8abd c063 8c3d 7cf5 75bd
00000240: fc15 5cbe ceb6 243e 1a2c 02be b505 68be
00000250: ce49 9bbd 420f e93c 9adc a7bd e85c 63be
00000260: 1786 843d 9c16 713d 191d 603e b750 5ebe
00000270: bdf4 8dbd 6d1a 9cbd 3b73 92bd d4dd 0fbd
00000280: 0945 4c3e e55a 0bbd c24c 2f3e 25bf 4e3d
00000290: a907 f1bd bd8c 5cbd b602 b03d 80d9 073e
000002a0: b57d 84bd 3211 8cbd 9c83 36be e5d1 fdbd
000002b0: 43a9 aabd e389 c13d 431d 263c f06d d33d
000002c0: 3edc 44be a744 0e3d cc9d 35be 943d b4bd
000002d0: a49d 313e bfb1 c6bc 2d25 21be 1e8a 62be
000002e0: 7745 75bd f190 9dbd 815e 50be 55e9 ca3d
000002f0: 9fb3 d9bc de35 c2bc 09f5 de3d 3a9b 40be
00000300: 0f62 c73c 2af6 343e 1e79 6f3d dd8b df3d
00000310: c5da 85bd ab15 55be 8014 013e 1f50 6ebe
00000320: 05da d0bd a9fb 273e 1177 e4bd b042 f1bd
00000330: fc09 00be 05e8 5e3c 151f 7bbd 7c0c 593d
00000340: 631f 3b3e f93b 08be 0d31 ec3d 4fd7 92bd
00000350: 1f33 54be bcc9 7e3d 9534 11be 58ea 023e
00000360: f53c 0bbd b2f5 01be 6e80 2abe 0888 3d3d
00000370: d0d6 69be b89a bb3d 7574 823d 9390 48be
00000380: 2723 b13d 6c67 39be 92ce 98bb 073f 8dbd
00000390: a9b7 d73d 270a 30be 55ff c3bd ccfb 78bd
000003a0: ad56 65bd e344 a1ba 56ec 15be 4192 123d
000003b0: c3ae 4fbb 5051 fbbd 464b 223d ecc3 153e
000003c0: 460d 393d cf3a 4d3d 0f77 adbd 338e c9bd
000003d0: 093f 153e 81b0 7c3b 26f9 1d3c 40fa a63d
000003e0: 946d d2bd 7c96 50be dfba 12be bcdc 4ebe
000003f0: c310 fb3d 7979 d13d ecc9 e5bd f95b abbd

fc2.weight f4 [300, 400]
-0.053262938 0.040212043 -0.029167458 0.023358243 -0.014874153 0.021527437 0.06085202 -0.01827307
-0.0095820995 -0.023389453 -0.024946457 0.010873405 -0.026102388 -0.064677276 -0.011243808 -0.061773058
-0.002951458 0.058221154 -0.017492518 -0.006454182 0.05895356 -0.02920842 -0.03633954 0.06446006
-0.012141425 -0.04948004 -0.005149661 -0.021776406 0.022150513 -0.012512541 0.028367326 0.066977896
0.023926351 9.269271e-05 -0.00034177862 0.03889805 -0.009802546 0.0074524805 0.0036648444 -0.009055451
0.048644576 -0.035261434 7.757077e-05 -0.028673898 -0.016600786 -0.0010308435 -0.072333254 -0.00040101315
-0.03135741 -0.020738171 -0.011420381 0.0327519 -0.049702164 -0.04356509 -0.06346445 -0.023600623
0.032529976 0.04934066 0.017748257 -0.034186613 -0.05867318 0.029241048 0.014403171 -0.027188033
0.004510169 0.059526067 -0.025467014 0.0060700183 0.045619294 0.065386906 0.01886227 0.074532785
-0.021804336 0.034332056 -0.013173348 -0.0078861825 -0.06338393 0.03748136 0.020761877 0.036730733
-0.04543722 4.8236434e-05 0.015583534 0.042931184 0.0049323556 0.0174357 -0.012370898 -0.048477102
0.013795177 0.018257529 -0.053649947 -0.06827671 0.04869045 0.0033449323 -0.016450262 0.008675602
0.04955917 0.023177668 0.0033504697 0.0025396673 0.024805056 -0.056095917 0.056145005 0.04610728
-0.02489503 0.004693102 0.048537523 -0.0006755126 0.0509321 0.056666777 0.042724557 0.052916195
0.005741631 -0.04938772 0.007102892 -0.008007144 -0.035345815 0.045016326 -0.004095803 0.040461894
-0.011107177 -0.010260569 -0.059411563 0.052078344 0.08608378 -0.0027549781 0.038673718 -0.03299873
0.04344061 -0.01611112 -0.037318617 0.021483198 -0.0056971693 -0.055933934 0.03367348 -0.03704914
-0.04552962 0.01248921 0.015713915 0.017378327 -0.01675574 0.012072943 -0.0072742235 0.051690016
0.05749953 -0.03816167 0.0041675414 -0.012819144 -0.02708056 -0.039633576 0.048393097 0.03478237
0.023024041 0.012706046 -0.058612794 0.06511417 -0.051461127 -0.030832017 0.04972994 -0.031259272
0.0043515954 0.0031558503 0.06046057 -0.02588091 -0.020842463 -0.048160687 0.0020151087 0.013911178
-0.05545284 -0.015678931 0.06319994 -0.010101232 0.019832127 -0.0011089523 -0.019374138 0.04442977
0.063538454 0.039751034 -0.029621283 0.017162628 0.008316487 0.052500747 -0.04081824 -0.020250749
-0.013301617 0.041516647 -0.02029181 0.043255728 0.006480483 0.0004261875 0.043813366 -0.015581039
0.023551827 -0.017138556 0.0122383265 0.0055006305 0.014078464 -0.0525975 0.04471493 0.054010004
0.04583356 -0.047179278 0.028904969 -0.039064314 0.031946562 0.017309057 0.0019627723 -0.064482935
-0.028392646 -0.043741785 0.043148767 0.051897895 -0.032347098 0.02573426 0.017316293 -0.037926883
0.04252131 0.04690758 0.05127898 0.015003921 0.015197847 -0.012513529 -0.05231762 -0.02942263
-0.0064925808 -0.007504745 0.017900383 0.0009136387 -0.047636643 -0.051362168 0.016984375 -0.0061279186
0.03870738 -0.023157056 -0.015457756 -0.01622312 -0.018915962 0.0017492782 -0.0516303 -0.025248906
-0.04267416 -0.038819462 -0.014343398 0.00598283 0.013922822 -0.035837475 0.045540918 -0.0109802475
0.03653253 0.045513406 -0.02134554 -0.025464391 -0.015812702 -0.033692464 0.06416011 0.050325084
00000000: 3d2a 5abd 62b5 243d 98f0 eebc c959 bf3c
00000010: b8b2 73bc 4f5a b03c f83f 793d 68b1 95bc
00000020: 3dfe 1cbc 3d9b bfbc 835c ccbc 5e26 323c
00000030: add4 d5bc 8575 84bd f337 38bc bf05 7dbd
00000040: 406d 41bb 4e79 6e3d 784c 8fbc 9a7d d3bb
00000050: 4a79 713d 7f46 efbc c5d8 14bd a303 843d
00000060: d4ec 46bc 95ab 4abd 7dbe a8bb 6f64 b2bc
00000070: fe74 b53c 6701 4dbc 9862 e83c b52b 893d
00000080: 3201 c43c 0564 c238 c030 b3b9 9053 1f3d
00000090: dc9a 20bc f033 f43b e32d 703b 505d 14bc
000000a0: 893f 473d 4b6e 10bd 7dad a238 86e5 eabc
000000b0: 5ffe 87bc 5e1d 87ba 7523 94bd 133f d2b9
000000c0: a170 00bd 19e3 a9bc 8d1c 3bbc db26 063d
000000d0: 7f94 4bbd 4f71 32bd a6f9 81bd 1856 c1bc
000000e0: 273e 053d 6f19 4a3d cb64 913c 4307 0cbd
000000f0: 4a53 70bd ec8a ef3c 47fb 6b3c 70b9 debc
00000100: 0aca 933b 9bd1 733d 33a0 d0bc 01e7 c63b
00000110: 4cdb 3a3d 92e9 853d 0c85 9a3c a5a4 983d
00000120: 029f b2bc c59f 0c3d 07d5 57bc 0c35 01bc
00000130: 6fcf 81bd 0e86 193d d014 aa3c f772 163d
00000140: 611c 3abd 7a51 4a38 1452 7f3c 9cd8 2f3d
00000150: 999f a13b 50d5 8e3c 4faf 4abc ed8f 46bd
00000160: 2b05 623c d090 953c 0cc0 5bbd a9d4 8bbd
00000170: a36f 473d a736 5b3b b3c2 86bc 1d24 0e3c
00000180: 8efe 4a3d 18df bd3c 8e93 5b3b 8c70 263b
00000190: f933 cb3c d5c4 65bd 4ef8 653d fdda 3c3d
000001a0: a9f0 cbbc 98c8 993b 48cf 463d e214 31ba
000001b0: 2d9e 503d 6c1b 683d f2ff 2e3d a7be 583d
000001c0: 4b24 bc3b c74a 4abd 60bf e83b 6530 03bc
000001d0: c6c6 10bd 0a63 383d 1636 86bb 5fbb 253d
000001e0: e0fa 35bc f21b 28bc 8a59 73bd 1a50 553d
000001f0: b14c b03d dd8c 34bb 5568 1e3d ad29 07bd
00000200: c8ee 313d 78fb 83bc 68db 18bd 88fd af3c
00000210: 52af babb fb1a 65bd 34ed 093d d7c0 17bd
00000220: 447d 3abd 8b9f 4c3c 78ba 803c fe5c 8e3c
00000230: 5543 89bc 98cd 453c 9c5c eebb e9b8 533d
00000240: a184 6b3d 694f 1cbd df8f 883b 6307 52bc
00000250: 0dd8 ddbc d156 22bd d737 463d f577 0e3d
00000260: ea9c bc3c 052d 503c f813 70bd 945a 853d
00000270: e7c8 52bd 6d93 fcbc 9fb1 4b3d b909 00bd
00000280: d497 8e3b 62d2 4e3b 81a5 773d 3404 d4bc
00000290: d0bd aabc 2444 45bd ea0f 043b b6eb 633c
000002a0: 8422 63bd 1a71 80bc f86e 813d a37f 25bc
000002b0: fc76 a23c 445a 91ba 83b6 9ebc fefb 353d
000002c0: 7320 823d fbd1 223d 55a8 f2bc a498 8c3c
000002d0: e041 083c 060b 573d 0731 27bd e6e4 a5bc
000002e0: 06ef 59bc 5c0d 2a3d 033b a6bc eb2c 313d
000002f0: 3b5a d43b eb71 df39 a575 333d 9d47 7fbc
00000300: c3ef c03c 2866 8cbc 4383 483c a23e b43b
00000310: 5ca9 663c 7a70 57bd 0127 373d 9839 5d3d
00000320: f9bb 3b3d 0f3f 41bd 1dca ec3c e701 20bd
00000330: 66da 023d b9cb 8d3c dba1 003b a10f 84bd
00000340: b297 e8bc 962a 33bd c3bc 303d e392 543d
00000350: 647e 04bd a8d0 d23c e6da 8d3c 3859 1bbd
00000360: d32a 2e3d 2a22 403d e809 523d 02d3 753c
00000370: 6400 793c 8b05 4dbc 004b 56bd ba07 f1bc
00000380: b7bf d4bb 5dea f5bb d3a3 923c 4181 6f3a
00000390: a41e 43bd 2361 52bd d122 8b3c b5cc c8bb
000003a0: a18b 1e3d deb3 bdbc 8742 7dbc 59e6 84bc
000003b0: a6f5 9abc 0948 e53a 4b7a 53bd cbd6 cebc
000003c0: 1acb 2ebd 2801 1fbd 9200 6bbc 9e0b c43b
000003d0: 8c1c 643c 51ca 12bd 1d89 3a3d 7fe6 33bc
000003e0: 22a3 153d 446c 3a3d d8dc aebc b39a d0bc
000003f0: a489 81bc 1c01 0abd 6066 833d ad21 4e3d

fc2.bias f4 [300]
-0.026925838 -0.017410032 -0.039188188 -0.047291666 -0.03910813 0.0048591695 -0.05074321 -0.015902126
0.031435587 -0.06926637 -0.01977303 -0.046463843 -0.035711188 -0.03814342 -0.05118169 -0.103846356
-0.015784664 -0.016133556 0.0050788047 -0.018789355 -0.060143378 -0.059527982 -0.058537938 -0.04724706
0.026902186 0.011799832 -0.05754106 -0.065778695 -0.029391494 0.020038616 0.019195369 -0.089292474
0.005824367 -0.046876114 0.03782342 -0.01030234 -0.04468312 0.0008293074 -0.08754864 -0.018493645
-0.05905669 -0.004340449 0.033919055 -0.055676788 0.09509546 -0.04062297 -0.027298043 -0.05096166
-0.09435432 -0.05723033 -0.03669566 -0.029569976 -0.080249324 -0.048630755 -0.08482153 -0.051044963
-0.04945987 -0.002640899 -0.05183956 -0.01857368 0.010558936 -0.084029734 -0.13846746 -0.031055462
-0.11387689 -0.03325089 -0.0014206801 -0.04793766 -0.02271889 0.037719 -0.010377216 -0.053305402
-0.054573957 -0.02588123 -0.01569323 0.017362444 -0.06776796 -0.07624616 -0.018845433 -0.08395116
-0.025367301 -0.094858676 -0.08497224 -0.007780547 -0.12143408 -0.04647433 -0.058247454 -0.03520636
-0.05068816 -0.046205644 -0.015189428 -0.050750397 -0.048518132 -0.072478674 -0.036272794 -0.034298126
0.003919135 -0.04997319 -0.07425136 -0.027373068 -0.057682592 -0.107034735 -0.10963342 -0.079195686
-0.03286424 0.0027143657 -0.08204056 -0.06983039 0.040365364 -0.13808964 -0.0014032642 -0.06117866
0.003541131 -0.018784981 -0.038758006 -0.08202768 -0.014287739 -0.04095743 0.04239436 -0.13493556
-0.017176343 -0.043290608 -0.1280048 -0.008832674 -0.07771547 0.024165703 -0.02005682 -0.034072723
-0.034886654 -0.04552259 0.012796302 -0.0032456352 -0.042486764 -0.03337404 -0.036733028 0.026856134
0.049081847 -0.0010695057 -0.015416299 -0.109925956 -0.018759904 -0.008449106 -0.07001528 -0.13359736
-0.057098065 -0.012864345 -0.06715131 -0.06345744 -0.033873998 -0.0049789078 -0.02421633 -0.06212138
-0.059320502 -0.05229329 -0.06854283 -0.07752273 -0.0845372 -0.046789154 -0.003659703 0.02446883
-0.12026978 -0.047084615 -0.048414055 -0.028782504 -0.018800423 -0.058092203 -0.01548365 -0.09958853
-0.033825807 -0.02266464 2.6830654e-05 -0.06458575 0.015050508 -0.01968969 -0.015886394 0.034306686
-1.540489e-05 0.020754842 -0.0964283 -0.05767398 0.023182409 0.023380157 0.01911627 0.0048532556
-0.031012839 0.008869472 -0.06391443 -0.06536992 0.028283596 -0.030855825 -0.024406878 -0.0372185
-0.058033437 -0.029278584 0.010819224 -0.074169196 -0.07857634 -0.019486098 -0.0040054154 -0.026531542
-0.017046811 0.030490998 -0.02069556 -0.010445016 -0.012642454 0.017713984 -0.0030752271 -0.05811605
-0.09299263 -0.031315025 -0.08871994 -0.0520339 -0.045455907 -0.048497736 -0.08584516 0.011435882
-0.08076269 -0.066488266 -0.075159654 -0.06600519 -0.014410581 -0.048458975 -0.06971632 -0.0032744354
-0.041910935 -0.07633676 -0.023291474 0.0066130087 -0.04123528 -0.07363627 -0.04324558 -0.046164226
-0.057375424 0.019540159 -0.033473793 -0.05298311 -0.101965286 -0.09282708 -0.030015932 -0.039889254
-0.0804409 -0.009176348 0.018382648 -0.045357686 -0.00024982716 -0.060694754 -0.001252666 -0.06279627
-0.08017791 -0.03396269 -0.055087965 -0.065885074 -0.025472075 -0.0071705123 -0.074966155 -0.046003874
00000000: 9393 dcbc 7c9f 8ebc cb83 20bd e8b4 41bd
00000010: d92f 20bd ab39 9f3b 1dd8 4fbd 2d45 82bc
00000020: 9ac2 003d 87db 8dbd 0dfb a1bc df50 3ebd
00000030: e545 12bd 463c 1cbd e4a3 51bd 66ad d4bd
00000040: d74e 81bc 852a 84bc 1a6c a63b 22ec 99bc
00000050: e758 76bd 9dd3 73bd 7ac5 6fbd 2286 41bd
00000060: f961 dc3c 1554 413c 2db0 6bbd fbb6 86bd
00000070: 6ec6 f0bc 0628 a43c 9b3f 9d3c f9de b6bd
00000080: 55da be3b 2b01 40bd bbec 1a3d 25cb 28bc
00000090: a605 37bd e165 593a b44c b3bd fc7f 97bc
000000a0: 6ee5 71bd 533a 8ebb b5ee 0a3d 580d 64bd
000000b0: 69c1 c23d 4564 26bd 25a0 dfbc 2cbd 50bd
000000c0: d63c c1bd 5a6a 6abd 304e 16bd bc3c f2bc
000000d0: c259 a4bd 0b31 47bd e9b6 adbd 8614 51bd
000000e0: 6f96 4abd ef12 2dbb b855 54bd d527 98bc
000000f0: 63ff 2c3c c817 acbd 6aca 0dbe 0668 febc
00000100: 4938 e9bd 1632 08bd 1d36 baba 485a 44bd
00000110: f71c babc 3d7f 1a3d 3305 2abc c456 5abd
00000120: f188 5fbd e004 d4bc 178f 80bc af3b 8e3c
00000130: eec9 8abd f226 9cbd bd61 9abc 96ee abbd
00000140: 16cf cfbc 4445 c2bd ed05 aebd f5f3 febb
00000150: 6eb2 f8bd de5b 3ebd e294 6ebd 8b34 10bd
00000160: 639e 4fbd 2142 3dbd 14dd 78bc a6df 4fbd
00000170: f3ba 46bd b36f 94bd c892 14bd 317c 0cbd
00000180: 166c 803b b0b0 4cbd 1911 98bd 7c3d e0bc
00000190: 9544 6cbd 0735 dbbd 7d87 e0bd 5931 a2bd
000001a0: a79c 06bd 80e3 313b e204 a8bd 3c03 8fbd
000001b0: 2756 253d 5f67 0dbe bced b7ba 7996 7abd
000001c0: 5212 683b f6e2 99bc b7c0 1ebd 21fe a7bd
000001d0: 1f17 6abc fac2 27bd b5a5 2d3d 8c2c 0abe
000001e0: 67b5 8cbc 7e51 31bd b113 03be ebb6 10bc
000001f0: 4a29 9fbd 27f7 c53c 334e a4bc d78f 0bbd
00000200: 4fe5 0ebd e575 3abd 95a7 513c b9b4 54bb
00000210: 9a06 2ebd 38b3 08bd 5f75 16bd 6501 dc3c
00000220: 0c0a 493d a82e 8cba a594 7cbc dc20 e1bd
00000230: 5fae 99bc 1e6e 0abc 2c64 8fbd bfcd 08be
00000240: a9df 69bd f9c4 52bc a086 89bd f9f5 81bd
00000250: 76bf 0abd 1b26 a3bb 5361 c6bc fd72 7ebd
00000260: 0efa 72bd 7d31 56bd 2f60 8cbd 3dc4 9ebd
00000270: d721 adbd fca5 3fbd a1d7 6fbb db72 c83c
00000280: 0150 f6bd ccdb 40bd d14d 46bd 49c9 ebbc
00000290: 5803 9abc 17f2 6dbd 23af 7dbc 12f5 cbbd
000002a0: ee8c 0abd 32ab b9bc 6412 e137 8945 84bd
000002b0: 6896 763c 464c a1bc 2f24 82bc 2b85 0c3d
000002c0: c039 81b7 0f06 aa3c 337c c5bd 8d3b 6cbd
000002d0: 09e9 bd3c be87 bf3c b999 9c3c 0f08 9f3b
000002e0: a30e febc 4351 113c 92e5 82bd aae0 85bd
000002f0: 00b3 e73c 5bc5 fcbc eff0 c7bc 6d72 18bd
00000300: 78b4 6dbd a4d9 efbc 1d43 313c 05e6 97bd
00000310: a2ec a0bd 4fa1 9fbc dc3f 83bb ad58 d9bc
00000320: c1a5 8bbc 42c8 f93c bc89 a9bc 9321 2bbc
00000330: 4c22 4fbc eb1c 913c c089 49bb 180b 6ebd
00000340: ec72 bebd 2f44 00bd cdb2 b5bd 8021 55bd
00000350: f92f 3abd 90a5 46bd 96cf afbd 915d 3b3c
00000360: e966 a5bd 002b 88bd 4eed 99bd bb2d 87bd
00000370: 5c1a 6cbc eb7c 46bd 6ec7 8ebd e997 56bb
00000380: cdaa 2bbd 7256 9cbd c3cd bebc f0b1 d83b
00000390: 53e6 28bd 9dce 96bd 4722 31bd b316 3dbd
000003a0: 7e02 6bbd af12 a03c d11b 09bd d104 59bd
000003b0: 2dd3 d0bd 201c bebd f9e3 f5bc ea62 23bd
000003c0: 33be a4bd 6558 16bc 3597 963c fbc8 39bd
000003d0: 3cfb 82b9 109b 78bd 7f30 a4ba 559b 80bd
000003e0: 5134 a4bd 761c 0bbd eba3 61bd c1ee 86bd
000003f0: d0aa d0bc 9ef6 eabb db87 99bd 8f6e 3cbd

fc3.weight f4 [2, 300]
-0.001679604 0.013694705 -0.0068919957 0.0017910546 -0.0077766827 -0.11299129 0.020216513 -0.057795193
0.009508639 -0.00981461 0.013382785 0.0392366 0.023429457 -0.013967353 -0.0037232726 -0.07493242
0.013389793 0.0634404 0.011136253 -0.00055594277 0.010268271 0.019438911 0.113123246 -0.009867019
0.021001164 0.01802095 0.00026745652 0.011537858 0.013462537 0.012467568 0.011944907 0.0088182455
0.008970483 0.025074266 0.041360952 0.0219148 -0.07023398 0.016625525 0.01363898 -7.67193e-06
0.018932506 0.013621258 -0.010970698 -0.0062444815 -0.07174006 -0.010996795 -0.026972914 -0.0056761196
-0.017987553 -0.02143101 -0.060015433 -0.058473453 0.00076939573 -0.0061086616 -0.010823645 0.0054081366
0.005640475 -0.027441833 0.008464337 -0.004208559 0.015219541 -0.0040828455 -0.014560028 -0.014643382
-0.019986736 0.06563331 0.0014955894 -0.04266941 -0.0005726091 -0.0069362572 0.023045987 -0.038055237
-0.06167308 -0.0046193847 -0.015392449 0.008529631 0.017938271 0.028211582 0.008637385 -0.008768084
0.01805691 0.009467445 0.0027980637 -0.03365035 -0.03179565 0.0069881575 -0.0385508 -0.026440488
-0.002792329 -0.0045994213 0.0070065153 -0.005415739 0.0181212 0.015048371 0.08699046 0.026763866
0.035843894 -0.0021576765 -0.00388551 -0.037977695 0.0063029244 -0.015492872 -0.0330034 0.0050469036
-0.0333829 0.012171301 0.019452496 -0.015425085 -0.0368838 -0.1874464 -0.026687723 0.041858252
0.038896747 0.0030565567 -0.02622498 0.017347233 -0.054285746 0.010061157 -0.06690462 -0.13397343
0.00016321524 0.024419934 -0.0020032856 0.022765245 0.019411897 0.008917193 0.010311876 0.030074261
-0.017793506 0.0018842417 0.017369693 0.013747196 -0.01348515 0.012778696 -0.027743924 -0.005510913
-0.027751215 -0.042525586 0.0056790826 -0.019198079 0.045512386 0.003291954 -0.080156684 -0.075030506
0.029190758 0.015839934 -0.020047469 -0.029246142 0.040540464 -0.002907335 -0.005718018 -0.01740424
-0.0015705342 -0.041378446 -0.004989174 0.03352943 -0.0014402076 -0.0023493252 0.013689894 0.04030171
0.018355072 0.009490008 0.00035220417 -0.05642957 -0.016119113 0.00516752 -0.008022049 0.0050139665
0.055758502 0.018328827 -0.05229352 -0.015662162 -0.012751384 0.010911702 0.00015082731 0.021710785
0.012249877 -0.009851479 0.06887588 0.009745378 -0.106387876 0.017189097 0.013397991 -0.020199506
-0.0039289957 0.013119485 0.008374562 0.0411598 -0.011924886 -0.00014938565 0.033530194 0.040690366
0.08579751 0.05273572 -0.0042181024 0.019251771 -0.011758645 0.006372661 -0.008157533 0.003940401
0.008835616 -0.0071922233 0.021263437 -0.03761462 0.02019475 -0.018041283 0.022706384 0.010880856
0.032639425 -0.025104646 0.056819726 -0.0043174266 0.017744862 -0.04138394 -0.0075399242 0.00403747
0.023486754 0.07369741 -0.012768383 0.0049180943 -0.019990891 -0.009420819 0.103682764 -0.00023136858
-0.05745262 0.0047707665 0.025295492 -0.0421427 0.012314854 0.00020034569 -0.027828127 0.0053492193
-0.009127626 -0.06266849 0.028429875 -0.0051937453 0.006728963 -0.0008595685 -0.0013970538 0.0060202284
-0.004093295 0.017474314 0.027264895 0.0020349205 -0.02980033 -0.0054454543 -0.044670377 0.029252127
-0.011417536 -0.0016203759 0.00091029116 -0.04253453 -0.06644102 0.02568455 -0.0019204353 -0.0068874084
00000000: 2926 dcba c25f 603c 40d6 e1bb d2c1 ea3a
00000010: 8bd3 febb fa67 e7bd 1a9d a53c a7ba 6cbd
00000020: 1fca 1b3c 75cd 20bc 7843 5b3c 8fb6 203d
00000030: 22ef bf3c 53d7 64bc 2602 74bb 2b76 99bd
00000040: dd60 5b3c 0aed 813d d574 363c b0bc 11ba
00000050: 403c 283c 5a3e 9f3c 29ad e73d 47a9 21bc
00000060: a20a ac3c aca0 933c 6839 8c39 4909 3d3c
00000070: f991 5c3c c544 4c3c 92b4 433c 677a 103c
00000080: eff8 123c 8c68 cd3c 1a6a 293d ab86 b33c
00000090: d5d6 8fbd 4132 883c 0776 5f3c b0b6 00b7
000000a0: 5818 9b3c b22b 5f3c 71be 33bc 829e ccbb
000000b0: 74ec 92bd e72b 34bc 4df6 dcbc befe b9bb
000000c0: a25a 93bc 1690 afbc bed2 75bd dc81 6fbd
000000d0: 46b1 493a 2b2b c8bb a855 31bc bd36 b13b
000000e0: bcd3 b83b b2cd e0bc 01ae 0a3c f4e7 89bb
000000f0: 625b 793c 64c9 85bb 2f8d 6ebc ccea 6fbc
00000100: 39bb a3bc c26a 863d a707 c43a 1fc6 2ebd
00000110: 251b 16ba 8b49 e3bb f0ca bc3c cfdf 1bbd
00000120: e99c 7cbd 355e 97bb 9c30 7cbc debf 0b3c
00000130: 48f3 923c fa1b e73c d283 0d3c 03a8 0fbc
00000140: 16ec 933c 581d 1b3c b85f 373b f3d4 09bd
00000150: 283c 02bd eafc e43b 72e7 1dbd b999 d8bc
00000160: 82ff 36bb beb6 96bb e996 e53b 8376 b1bb
00000170: e972 943c 718d 763c 0e28 b23d e53f db3c
00000180: 0cd1 123d ce67 0dbb 0aa4 7ebb 808e 1bbd
00000190: c388 ce3b d1d5 7dbc 932e 07bd 7f60 a53b
000001a0: 82bc 08bd 236a 473c d75a 9f3c 7fb9 7cbc
000001b0: 7813 17bd f3f1 3fbe 36a0 dabc 8f73 2b3d
000001c0: 3252 1f3d 8350 483b c5d5 d6bc c91b 8e3c
000001d0: bb5a 5ebd 8dd7 243c 4a05 89bd 5530 09be
000001e0: c224 2b39 500c c83c 8e49 03bb 2e7e ba3c
000001f0: b305 9f3c 6b19 123c 25f3 283c 4c5e f63c
00000200: b0c3 91bc a9f8 f63a e34a 8e3c eb3b 613c
00000210: d2f0 5cbc bc5d 513c 3a47 e3bc e494 b4bb
00000220: 8456 e3bc 4f2f 2ebd 9917 ba3b 4a45 9dbc
00000230: 326b 3a3d d3bd 573b 3029 a4bd 98a9 99bd
00000240: 7521 ef3c c0c2 813c 973a a4bc 9b95 efbc
00000250: c20d 263d fd88 3ebb 365e bbbb 5693 8ebc
00000260: 62da cdba 727c 29bd 3a7c a3bb 2856 093d
00000270: 59c5 bcba 23f7 19bb 944b 603c 6813 253d
00000280: 605d 963c fa7b 1b3c 0ba8 b839 b122 67bd
00000290: 3b0c 84bc 4d54 a93b ea6e 03bc 334c a43b
000002a0: 0763 643d 5626 963c bb31 56bd ef4d 80bc
000002b0: 2eeb 50bc ffc6 323c 6627 1e39 d1da b13c
000002c0: b5b3 483c 1968 21bc cc0e 8d3d 14ab 1f3c
000002d0: e3e1 d9bd 26d0 8c3c 3f83 5b3c 6f79 a5bc
000002e0: cebe 80bb 1cf3 563c 7535 093c 2e97 283d
000002f0: 9960 43bc 68a4 1cb9 f556 093d f1aa 263d
00000300: 9bb6 af3d 6901 583d 0238 8abb e4b5 9d3c
00000310: 55a7 40bc c1d1 d03b 2ca7 05bc 7b1e 813b
00000320: 42c3 103c beac ebbb a930 ae3c ca11 1abd
00000330: 766f a53c 50cb 93bc bd02 ba3c 9e45 323c
00000340: ebb0 053d 42a8 cdbc cdbb 683d 3379 8dbb
00000350: ac5d 913c 3582 29bd 7811 f7bb c14c 843b
00000360: 4b67 c03c abee 963d 7b32 51bc f727 a13b
00000370: f0c3 a3bc c759 1abc a157 d43d 889b 72b9
00000380: 7053 6bbd 1754 9c3b 7e38 cf3c d39d 2cbd
00000390: 3ec4 493c e313 5239 d0f7 e3bc 8148 af3b
000003a0: 0a8c 15bc 5658 80bd c5e5 e83c 4b30 aabb
000003b0: a27e dc3b aa54 61ba 591d b7ba 5645 c53b
000003c0: 0c21 86bb 4b26 8f3c a15a df3c 4d5c 053b
000003d0: d21f f4bc c86f b2bb 49f8 36bd 28a2 ef3c
000003e0: 9e10 3bbc cb62 d4ba 9ba0 6e3a b038 2ebd
000003f0: 3b12 88bd 6868 d23c 1eb7 fbba c5af e1bb

fc3.bias f4 [2]
-0.24332836 0.0675441
00000000: 122b 79be 9054 8a3d

bn1.weight f4 [400]
0.45844784 0.4931812 0.43756166 0.1648868 0.17500497 0.10032033 0.24748796 0.6787032
0.51703477 0.47850817 0.57449186 0.45731246 0.65357786 0.57092935 0.6307642 0.6102591
-0.0055002132 0.1937206 0.8483095 0.7115508 0.83183223 0.36066717 0.52505493 0.09452083
0.8322596 0.44492283 0.42551792 0.311053 0.7644372 0.76474357 0.6857524 0.7726151
0.5404317 0.63687193 0.07974788 0.92226434 0.6894208 0.08178488 0.41185454 0.7480562
0.48727277 0.889905 0.40768883 0.5986528 0.5000945 0.607433 0.9091227 0.3860566
0.56168073 0.13934101 0.10563568 0.7453569 0.7387917 0.23464306 0.34671003 0.7377416
0.8888427 0.74313337 0.9387553 0.1695255 0.7325115 0.40589046 0.18308288 0.20790626
0.56146634 0.910271 0.58295983 0.52465516 0.7019285 0.04144893 0.8541167 0.13370068
0.5497272 0.55148566 0.17698358 0.42663035 0.072757974 0.022960098 0.211357 0.44470704
0.7571647 0.7621483 0.19669105 0.33461723 0.84559566 0.8185063 0.6297386 0.6340821
0.4800024 0.098514326 0.758757 0.9282566 0.86267996 0.58087134 0.9539743 0.79622656
0.42048404 0.86008984 0.717329 0.14696254 0.68703544 0.80370164 0.34724382 0.6067643
0.20989801 0.60446125 0.13076203 0.7520339 0.77145714 0.13302426 0.113995776 0.2904904
0.9377716 0.37835407 0.3240956 0.5593984 0.69259006 0.67308646 0.1687392 0.20885727
0.90115714 0.5126225 0.27423862 0.73891985 0.87639964 0.2877859 0.27492175 0.09062489
0.5337255 0.47176144 0.6704544 0.779223 0.8018387 0.14607328 0.2521174 0.69917643
0.59557825 0.9421862 0.27869493 0.94546884 0.7806515 0.7081546 0.30452758 0.2049178
0.53861165 0.7230936 0.39143926 0.23241016 0.22056851 0.8013187 0.68230975 0.7999826
0.85073185 0.084723175 0.12523825 0.94866174 0.30485773 0.9578455 0.5971437 0.7889922
0.89717203 0.30451456 0.4237071 0.843701 0.37759602 0.22423837 0.6960229 0.71771705
0.17689884 0.8525618 0.7247468 0.9648822 0.65799254 0.11409643 0.14553751 0.43020967
-0.0046706684 0.9511251 0.19208187 0.012785226 0.008606426 0.12068848 0.38677472 0.9662205
0.57563525 0.84646046 0.7441764 0.5249065 0.46607077 0.735839 0.58189183 0.69416934
0.89455956 0.5085084 0.7789567 0.9051352 0.3285682 0.29947102 0.7456525 0.4775949
0.19637965 0.8247405 0.5783262 0.33123675 0.7686165 0.2668301 0.5343873 0.46309182
0.70752954 0.6322359 0.43104056 0.20444688 0.7878461 0.4350923 0.4719862 0.4059312
0.29073066 0.41256776 0.76138496 0.8762067 0.6566079 0.067247555 0.52765036 0.57431364
0.16898002 0.4949208 0.17529328 0.008950554 0.031798203 0.11729621 0.12224384 0.20723552
0.48992944 0.86798674 0.6347738 0.5205535 0.07220526 0.28111252 0.16309457 0.73331213
0.9520283 0.16500288 0.37586838 0.7668781 0.5986494 0.016563931 0.10717303 0.25779134
0.38090256 0.6406027 0.648907 0.1461272 0.6582833 1.0762408 0.27832767 0.56952167
00000000: adb9 ea3e 3f82 fc3e 1508 e03e 16d8 283e
00000010: 8134 333e bf74 cd3d 7c6d 7d3e 7ebf 2d3f
00000020: 645c 043f 06ff f43e e611 133f dc24 ea3e
00000030: e150 273f 6d28 123f c379 213f f139 1c3f
00000040: 223b b4bb b15e 463e d02a 593f 3128 363f
00000050: f5f2 543f 5ea9 b83e 006a 063f 2394 c13d
00000060: f70e 553f edcc e33e 7cdd d93e 5742 9f3e
00000070: 28b2 433f 3cc6 433f 788d 2f3f 1aca 453f
00000080: bb59 0a3f 0a0a 233f db52 a33d 8419 6c3f
00000090: e27d 303f d57e a73d 99de d23e 9c80 3f3f
000000a0: d17b f93e d0d0 633f 97bc d03e 4f41 193f
000000b0: 3106 003f bb80 1b3f 44bc 683f 36a9 c53e
000000c0: 4fca 0f3f 69af 0e3e 8557 d83d b6cf 3e3f
000000d0: 7421 3d3f 4546 703e fa83 b13e a2dc 3c3f
000000e0: 328b 633f fd3d 3e3f 4452 703f 1898 2d3e
000000f0: e085 3b3f e0d0 cf3e 147a 3b3e 61e5 543e
00000100: 42bc 0f3f 8507 693f db3c 153f cd4f 063f
00000110: 96b1 333f 5ac6 293d 64a7 5a3f d5e8 083e
00000120: ecba 0c3f 2a2e 0d3f 2f3b 353e 4b6f da3e
00000130: 2202 953d d116 bc3c f86d 583e a4b0 e33e
00000140: 8cd5 413f 271c 433f 6169 493e f352 ab3e
00000150: f578 583f a189 513f 8d36 213f 3453 223f
00000160: e0c2 f53e e1c1 c93d e63d 423f 39a2 6d3f
00000170: 98d8 5c3f fcb3 143f a937 743f 81d5 4b3f
00000180: af49 d73e d92e 5c3f e0a2 373f 597d 163e
00000190: 8ee1 2f3f 64bf 4d3f f1c9 b13e e854 1b3f
000001a0: 81ef 563e f9bd 1a3f 7be6 053e 4b85 403f
000001b0: 377e 453f 8337 083e 9e76 e93d 28bb 943e
000001c0: cd11 703f a0b7 c13e dcef a53e bc34 0f3f
000001d0: 954d 313f 654f 2c3f f8c9 2c3e aede 553e
000001e0: 3cb2 663f 3a3b 033f 0169 8c3e da29 3d3f
000001f0: ba5b 603f ac58 933e 8bc2 8c3e 8b99 b93d
00000200: 3ca2 083f b78a f13e e6a2 2b3f 297b 473f
00000210: 4d45 4d3f 3c94 153e 8815 813e 3afd 323f
00000220: d177 183f 1d33 713f 1ab1 8e3e 3f0a 723f
00000230: c7d8 473f 9f49 353f 0aeb 9b3e f9d5 513e
00000240: 74e2 093f aa1c 393f ba6a c83e eefc 6d3e
00000250: b6dc 613e 3923 4d3f daab 2e3f a9cb 4c3f
00000260: 90c9 593f 5883 ad3d 753e 003e 7fdb 723f
00000270: 5016 9c3e 5d35 753f 69de 183f 65fb 493f
00000280: 11ad 653f 55e9 9b3e 23f0 d83e cafc 573f
00000290: 4454 c13e be9e 653e 8f2e 323f 4ebc 373f
000002a0: f824 353e 7d41 5a3f 0289 393f 8502 773f
000002b0: 3372 283f 64ab e93d c907 153e 7144 dc3e
000002c0: 680c 99bb ef7c 733f 1cb1 443e 2079 513c
000002d0: f801 0d3c 862b f73d 5607 c63e 3a5a 773f
000002e0: d55c 133f a2b1 583f 5882 3e3f 4660 063f
000002f0: d4a0 ee3e f25f 3c3f ddf6 143f 15b5 313f
00000300: db01 653f 9b2d 023f b569 473f f1b6 673f
00000310: 173a a83e 4454 993e 15e3 3e3f 5287 f43e
00000320: bf17 493e 3222 533f 300d 143f dd97 a93e
00000330: 0dc4 443f f49d 883e 9bcd 083f 5f1a ed3e
00000340: a820 353f 36da 213f 59b1 dc3e 865a 513e
00000350: 48b0 493f 6bc4 de3e 2da8 f13e 37d6 cf3e
00000360: a6da 943e 153c d33e 20ea 423f 154f 603f
00000370: 7517 283f 16b9 893d 1814 073f 3806 133f
00000380: 1909 2d3e 4266 fd3e 1580 333e 58a5 123c
00000390: d53e 023d ff38 f03d fa5a fa3d 8c35 543e
000003a0: 08d8 fa3e 6134 5e3f 8980 223f ff42 053f
000003b0: 5ae0 933d fbed 8f3e 4302 273e 58ba 3b3f
000003c0: 20b8 733f 84f6 283e d271 c03e 2052 443f
000003d0: 1641 193f 15b1 873c 897d db3d 3afd 833e
000003e0: a905 c33e 8afe 233f c51e 263f 5ea2 153e
000003f0: 4185 283f 42c2 893f f780 8e3e 2ccc 113f

bn1.bias f4 [400]
0.008267329 0.035625126 -0.16846557 0.118341126 -0.014779446 0.02082811 0.0830264 0.08046687
-0.05563773 0.08124947 0.03944055 0.011561904 0.08001554 -0.0010602849 0.029308284 0.029992823
-0.16676012 0.017019222 0.0042048846 0.07443807 0.039409958 -0.04634088 0.10773684 -0.07694061
0.0502853 0.0015231757 0.01718364 0.16084895 0.096132286 0.10918579 0.0704873 0.09377365
0.03296405 -0.0016677849 0.029803192 0.18447743 0.018086296 0.14207156 0.0053408276 -0.007695317
0.044091854 0.045689624 -0.051965766 0.030805288 0.07455264 0.09987136 0.03954228 0.010480693
0.04496302 0.042673673 0.045279518 0.11477525 0.017270464 0.015633209 0.098314606 0.012707767
0.020157665 0.10444731 0.0122466935 0.08348498 0.05188665 0.055113617 -0.008798117 -0.008078387
0.097326465 0.03063448 0.047844276 0.031334016 0.01972443 -0.117356755 0.08993415 -0.18659279
0.032637242 0.03221028 0.009207682 -0.017270356 0.17094523 0.18464193 0.07714271 -0.016842954
0.11214345 -0.008437901 0.03696572 -0.10094174 0.09582439 -0.057823688 0.07896224 0.063332245
-0.029800998 -0.056940325 0.058528353 0.081530355 -0.15974203 0.14659116 0.019115586 0.13826837
0.070146866 0.060125954 -0.114104144 0.087271385 0.09262891 -0.020076677 0.035869107 0.12209458
0.030004803 0.19247015 0.047067918 0.04011487 -0.067881465 0.0071025724 0.08231535 0.040643044
0.04798737 0.062071446 0.07212354 0.07727812 -0.014604191 0.03820153 -0.075554214 0.03134188
0.12738219 0.020205306 -0.044035725 -0.008272872 -0.041517314 0.020131858 0.074128374 -0.092629045
0.0002869514 0.034233954 -0.17530593 0.050363492 0.051519115 0.17391512 0.04431753 0.05859755
-0.057479367 0.07693595 -0.008160883 -0.018227516 0.05809193 0.082851335 0.1007411 0.011100184
0.059881646 0.082713604 -0.012943535 0.08484931 0.10264871 0.04798846 0.048543915 0.15024377
0.08366361 0.020777902 0.016850296 0.0016590564 0.063709386 0.025431652 0.04388747 0.07572911
0.027728714 0.039963767 0.02850355 -0.12906638 0.09347364 0.060258172 0.15311621 0.08078064
0.17747045 0.02367377 0.15465285 -0.05659285 -0.036920827 -0.049192432 0.19867055 0.03153435
-0.13674577 0.080057874 0.18521084 0.07397058 -0.17903277 -0.1554942 0.028474577 -0.2214978
0.16971798 -0.010077525 -0.18454093 0.06707919 -0.021453805 -0.0053125615 0.020950504 0.021805232
0.02770132 0.053640284 -0.02484637 0.07059388 -0.008043396 0.111407 0.07910462 0.045885116
-0.025445879 0.0837781 0.088136785 0.06714754 -0.004766856 0.082538955 0.011292056 -0.06264113
0.019750819 0.1037288 0.03950675 0.10634674 -0.027512584 0.13553452 -0.16793612 -0.1268521
0.050729685 0.07522761 0.13054396 0.043081794 0.12929355 0.027853318 0.044140227 0.016036712
0.11319142 -0.025539294 0.008593136 0.2025995 -0.07160127 0.013737061 0.038946133 0.051796988
-0.0529271 0.099352665 -0.16197897 0.06686039 0.02943809 0.085405655 -0.09454616 0.025182925
0.048825204 -0.011037746 0.024257574 0.08539784 0.008267755 0.053736202 -0.028684564 0.006317996
0.064176224 -0.06945578 0.003657656 -0.054055028 0.0036798632 0.09572571 0.06899565 -0.10150657
00000000: b173 073c a7eb 113d 3d82 2cbe d55c f23d
00000010: 7d25 72bc b69f aa3c bf09 aa3d d0cb a43d
00000020: 63e4 63bd 1f66 a63d 6a8c 213d 246e 3d3c
00000030: 30df a33d 42f9 8aba ed17 f03c 82b3 f53c
00000040: 2ac3 2abe e56b 8b3c 21c9 893b fd72 983d
00000050: 566c 213d efcf 3dbd 22a5 dc3d 0a93 9dbd
00000060: f5f7 4d3d 4ca5 c73a b4c4 8c3c 96b5 243e
00000070: 01e1 c43d cd9c df3d a55b 903d 660c c03d
00000080: 5005 073d 9399 daba d325 f43c a7e7 3c3e
00000090: b629 943c 357b 113e 1c02 af3b ff28 fcbb
000000a0: a999 343d 0b25 3b3d 0eda 54bd 5f5b fc3c
000000b0: 0eaf 983d 5b89 cc3d 16f7 213d 36b7 2b3c
000000c0: 252b 383d 97ca 2e3d 0477 393d 490f eb3d
000000d0: ca7a 8d3c 3711 803c 2b59 c93d 3d34 503c
000000e0: b021 a53c 79e8 d53d 5ba6 483c 2cfa aa3d
000000f0: 1987 543d d1be 613d fa25 10bc 365b 04bc
00000100: 1953 c73d 29f5 fa3c 5cf8 433d 1958 003d
00000110: 2195 a13c bd58 f0bd 652f b83d 2e12 3fbe
00000120: a1ae 053d edee 033d d1db 163c 907a 8dbc
00000130: 440c 2f3e c612 3d3e fffc 9d3d 3cfa 89bc
00000140: 77ab e53d 1f3f 0abc 5e69 173d 8bba cebd
00000150: 943f c43d 88d8 6cbd f4b6 a13d 56b4 813d
00000160: 3921 f4bc 423a 69bd 6dbb 6f3d 63f9 a63d
00000170: 6a93 23be fe1b 163e 4a98 9c3c 3996 0d3e
00000180: 29a9 8f3d a246 763d 6faf e9bd 57bb b23d
00000190: 3ab4 bd3d d877 a4bc 7ceb 123d b90c fa3d
000001a0: a2cc f53c e516 453e 4aca 403d 7d4f 243d
000001b0: 7005 8bbd b2bc e83b f394 a83d 5279 263d
000001c0: 688e 443d a13e 7e3d 82b5 933d fe43 9e3d
000001d0: 6b46 6fbc 3579 1c3d 2bbc 9abd 5860 003d
000001e0: 7a70 023e 9985 a53c ce5e 34bd f18a 07bc
000001f0: 0f0e 2abd 91eb a43c 9ed0 973d 4cb4 bdbd
00000200: f771 9639 e738 0c3d 6683 33be f349 4e3d
00000210: b505 533d ce16 323e 4c86 353d fc03 703d
00000220: 7c6f 6bbd 9890 9d3d 39b5 05bc df51 95bc
00000230: cef1 6d3d f6ad a93d 5a51 ce3d 8cdd 353c
00000240: 7546 753d c065 a93d 1f11 54bc 7ac5 ad3d
00000250: 7d39 d23d 8c8f 443d fcd5 463d 81d9 193e
00000260: d457 ab3d 6b36 aa3c a209 8a3c b274 d93a
00000270: 117a 823d 0a56 d03c 59c3 333d dd17 9b3d
00000280: 5427 e33c 0cb1 233d 4780 e93c fa29 04be
00000290: 1c6f bf3d 46d1 763d 7fca 1c3e 5270 a53d
000002a0: d0ba 353e 7eef c13c 515d 1e3e e7cd 67bd
000002b0: 4b3a 17bd 017e 49bd 4b70 4b3e 2a2a 013d
000002c0: 1507 0cbe 62f5 a33d e9a7 3d3e e37d 973d
000002d0: 5e54 37be df39 1fbe 8443 e93c 52d0 62be
000002e0: 8dca 2d3e 341c 25bc 4cf8 3cbe d060 893d
000002f0: e4bf afbc ff14 aebb 64a0 ab3c e3a0 b23c
00000300: e1ed e23c eab5 5b3d 9d8a cbbc 8693 903d
00000310: 73c8 03bc 5a29 e43d 9a01 a23d 08f2 3b3d
00000320: e073 d0bc da93 ab3d 0f81 b43d a684 893d
00000330: 4933 9cbb 2f0a a93d 5102 393c fe49 80bd
00000340: 78cc a13c c46f d43d d4d1 213d 52cc d93d
00000350: 1262 e1bc 90c9 0a3e 72f7 2bbe 84e5 01be
00000360: eec9 4f3d ef10 9a3d 51ad 053e 8976 303d
00000370: 8765 043e a42c e43c 62cc 343d 6c5f 833c
00000380: e7d0 e73d c837 d1bc 3aca 0c3c 3e76 4f3e
00000390: b0a3 92bd 6911 613c fb85 1f3d 1429 543d
000003a0: 16ca 58bd 6979 cb3d d1dd 25be 1aee 883d
000003b0: 2628 f13c 29e9 ae3d 6ba1 c1bd 6c4c ce3c
000003c0: f0fc 473d aad7 34bc d2b7 c63c 10e5 ae3d
000003d0: 7a75 073c 7e1a 5c3d e4fb eabc 3107 cf3b
000003e0: d36e 833d d53e 8ebd 49b5 6f3b ce68 5dbd
000003f0: dc29 713b d70b c43d 974d 8d3d ade2 cfbd

bn1.running_mean f4 [400]
0.2497583 0.007856071 0.00031391782 0.5562088 0.76773125 0.014550342 0.0011918109 0.18290938
0.09945843 0.03184361 0.8538649 0.348151 0.25105435 0.20184235 0.030246513 0.9796854
0.15726735 0.37411255 0.19104259 0.12407602 0.0019091045 0.16628143 0.059844024 0.00025648123
0.4434577 0.783707 0.095182374 1.9462706 0.016678251 0.040580526 0.013403876 0.35315567
0.7266021 1.5873909 0.87700635 8.517855e-06 1.695909 0.02377058 1.1791117 0.4438119
0.3130374 0.1416771 0.045622084 0.6301443 0.55120134 0.5779836 0.018541742 1.5206726
0.6679434 0.809877 0.3883981 0.035114203 0.8694153 0.02553348 0.004443555 0.19178528
1.2835035 1.4194085e-05 1.2643071 0.027812665 0.022684135 0.0047372337 0.77629036 0.13417166
0.4762073 0.040690165 0.017405275 0.1509116 1.1483357 0.6244144 1.2494018 0.0044927616
0.022443675 0.0714025 0.3478565 2.291135e-05 0.010166749 0.7975656 0.29199156 0.034919746
0.06548541 1.517818 0.08413181 0.8968195 0.14472714 0.5720834 0.4793062 0.038558684
0.057921793 0.008603069 0.5171679 0.1742747 5.0286286e-05 0.0040721097 0.007124747 0.63361526
0.15133972 0.017950194 0.57219183 1.2059773 0.06401018 0.0044868626 0.026187047 0.0048813815
0.47569335 0.00011409059 0.8782993 0.028166741 0.1299994 0.029271742 1.0497682 0.08083263
1.1666948 0.34564582 0.23568872 0.042130347 0.19810674 0.024472233 0.007832068 0.42742592
0.13182287 1.1612749 0.55878675 0.07923831 0.044171795 0.011012913 8.547655e-05 1.2128344
0.11400019 0.06951897 0.00063474895 0.124991305 1.3016129 0.0067038233 0.0809172 0.23323663
0.8008164 0.2835912 0.061238002 0.7524494 0.19527881 0.023300698 0.5789971 0.5275735
0.13688836 0.31315407 1.215292 0.07822607 0.84282285 0.20116736 0.5500654 0.037682943
1.1192157 1.6574461 0.06701502 0.0761803 1.1081651 0.44395712 0.17791143 0.7068128
0.023550844 0.7026202 0.76663536 0.06072602 0.26532584 0.14197648 1.0978907 0.004491021
0.060783703 0.04301093 0.011093812 1.5239968 0.36929208 0.32732734 0.03474478 0.030439913
0.3229412 0.9984221 0.0012543328 0.07399327 0.9622972 9.78614e-05 0.21679738 5.871359e-06
0.013954196 0.2401951 4.2063647e-07 0.04726325 6e-45 0.17359345 0.69942343 0.019017745
0.27988586 0.020274566 0.091607146 0.74415445 0.42633322 0.010711964 0.41383758 0.37287593
0.00030863498 0.46526533 0.72301 0.1092457 0.26470825 0.033866804 0.18222195 0.013045035
0.12418473 0.4394877 0.69346344 0.020209769 8.4365325e-07 0.022388827 8.394598e-05 0.13730498
0.009328563 0.3810196 0.05271058 1.2088846 0.16366789 0.5659256 0.095443934 0.016129926
0.0080582015 0.14732482 0.69482553 1.8849143e-05 0.26453975 0.0949245 0.5161412 0.2159856
0.10465883 0.03395889 6e-45 0.25326467 0.794147 0.14200535 0.00029867017 0.15353465
0.21239235 0.0007694963 0.019860655 1.5510845 0.004789012 0.97466505 0.26702067 0.42759895
0.033811435 0.036217988 0.07834819 0.012712833 0.6283901 0.04128381 0.005873286 0.00044871433
00000000: a4c0 7f3e c0b6 003c 5695 a439 b363 0e3f
00000010: 098a 443f 8f64 6e3c 8a36 9c3a 994c 3b3e
00000020: ddb0 cb3d 726e 023d e496 5a3f d940 b23e
00000030: 328a 803e c3af 4e3e 89c7 f73c aacc 7a3f
00000040: b10a 213e ae8b bf3e aba0 433e 921b fe3d
00000050: eb3a fa3a ae45 2a3e 021f 753d 5478 8639
00000060: e30c e33e 06a1 483f faee c23d 651f f93f
00000070: d4a0 883c c437 263d ee9b 5b3c d2d0 b43e
00000080: 9802 3a3f a02f cb3f 7d83 603f e9e7 0e37
00000090: 8c13 d93f 85ba c23c 22ed 963f 503b e33e
000000a0: 7046 a03e cd13 113e 39de 3a3d 2351 213f
000000b0: 881b 0d3f bcf6 133f dae4 973c 66a5 c23f
000000c0: 57fe 2a3f 1954 4f3f 1edc c63e e9d3 0f3d
000000d0: 0092 5e3f 972b d13c 3e9b 913b 5c63 443e
000000e0: d849 a43f 2223 6e37 d1d4 a13f 63d7 e33c
000000f0: 14d4 b93c cc3a 9b3b f7ba 463f 4c64 093e
00000100: 71d1 f33e bbaa 263d 8295 8e3c 9288 1a3e
00000110: aafc 923f 9fd9 1f3f 66ec 9f3f 0438 933b
00000120: ccdb b73c 793b 923d 3f1a b23e c031 c037
00000130: 7092 263c 422d 4c3f eb7f 953e 0208 0f3d
00000140: 371d 863d dc47 c23f 4c4d ac3d f695 653f
00000150: 5a33 143e 0f74 123f 9f67 f53e b6ef 1d3d
00000160: 673f 6d3d e3f3 0c3c 1e65 043f 1175 323e
00000170: 7dea 5238 556f 853b b676 e93b 9c34 223f
00000180: cdf8 1a3e 490c 933c 2a7b 123f 775d 9a3f
00000190: c517 833d 8806 933b 3886 d63c fff3 9f3b
000001a0: 148e f33e eb43 ef38 39d8 603f f0bd e63c
000001b0: 901e 053e 4bcb ef3c ce5e 863f 948b a53d
000001c0: 4156 953f 7df8 b03e 6258 713e df90 2c3d
000001d0: 7edc 4a3e fe79 c83c 1352 003c 92d7 da3e
000001e0: 93fc 063e a8a4 943f a60c 0f3f b247 a23d
000001f0: 7ced 343d 816f 343c e041 b338 283e 9b3f
00000200: ee78 e93d f65f 8e3d 4865 263a 71fb ff3d
00000210: 409b a63f bfab db3b ebb7 a53d 95d5 6e3e
00000220: 4e02 4d3f de32 913e b3d4 7a3d 86a0 403f
00000230: 2bf7 473e 1be1 be3c 2739 143f 0f0f 073f
00000240: 762c 0c3e bb55 a03e b08e 9b3f fd34 a03d
00000250: 3dc3 573f d1fe 4d3e 16d1 0c3f 6e59 1a3d
00000260: 7642 8f3f 3227 d43f 2c3f 893d 6b04 9c3d
00000270: 5bd8 8d3f 594e e33e 6a2e 363e aff1 343f
00000280: b3ed c03c ebde 333f 3742 443f d9bb 783d
00000290: cad8 873e 4862 113e af87 8c3f 6a29 933b
000002a0: 55f8 783d 3b2c 303d d2c2 353c 5412 c33f
000002b0: da13 bd3e 7397 a73e 8b50 0e3d 205d f93c
000002c0: 8d58 a53e 9798 7f3f 6d68 a43a c989 973d
000002d0: 1c59 763f f03a cd38 2200 5e3e 9702 c536
000002e0: 24a0 643c b4f5 753e d6d3 e134 1c97 413d
000002f0: 0400 0000 7bc2 313e 6a0d 333f 1acb 9b3c
00000300: 334d 8f3e d916 a63c 879c bb3d e880 3e3f
00000310: 5948 da3e 3c81 2f3c 85e2 d33e 98e9 be3e
00000320: 49d0 a139 4237 ee3e 2f17 393f 36bc df3d
00000330: d787 873e ebb7 0a3d 6498 3a3e d8ba 553c
00000340: 9054 fe3d 8804 e13e d286 313f f58e a53c
00000350: 6977 6235 c668 b73c 280c b038 ad99 0c3e
00000360: d4d6 183c 0015 c33e 0de7 573d bbbc 9a3f
00000370: 8e98 273e 80e0 103f 1c78 c33d e822 843c
00000380: 8c06 043c 51dc 163e 16e0 313f 3a1e 9e37
00000390: c171 873e c767 c23d d421 043f 542b 5d3e
000003a0: 5e57 d63d 7a18 0b3d 0400 0000 e8ab 813e
000003b0: 384d 4b3f da69 113e d596 9c39 3038 1d3e
000003c0: 617d 593e 06b8 493a d0b2 a23c f089 c63f
000003d0: 25ed 9c3b a683 793f efb6 883e 40ee da3e
000003e0: dc7d 0a3d 5059 143d 0475 a03d 7c49 503c
000003f0: 2cde 203f 3619 293d b274 c03b 6b41 eb39
