collaboration_competition/outputs/exp_6/critic_1000.pth (torch_old, 545385 bytes, 21 tensors)

fcs1.weight f4 [400, 24]
000000 a6 72 b1 3c 6a 9b 93 bc 7a 76 a4 bc 4f bc 32 bc
       0.021661114 -0.018018443 -0.020076025 -0.010909154
000010 d5 d4 31 3d 16 f8 53 3d a7 aa b9 3a cd cf e6 bc
       0.043415863 0.051750265 0.0014165238 -0.028175259
000020 ea a2 2f bd 00 42 28 3d d5 cc 89 3d 9d 0e 40 bd
       -0.042879976 0.041078568 0.06728522 -0.046888936
000030 66 1d 30 bd 39 83 0e bd 09 48 6b ba 20 56 f3 bc
       -0.042996787 -0.034793112 -0.00089752726 -0.029704154
000040 e7 f7 05 3d 91 49 63 3b 5e ae 12 bd 56 25 6d bc
       0.03270712 0.00346813 -0.03581082 -0.014474234
000050 0e 86 25 bc 55 09 79 bd 66 ea 04 bc f1 18 b7 bb
       -0.010102762 -0.060799915 -0.008112526 -0.00558769
000060 26 dd f7 3c 16 4d da bb 29 2e 1f bd b9 0a 92 bc
       0.030256819 -0.0066620214 -0.03886238 -0.017827379
000070 3b 73 9c 3c 59 fb 02 bd 40 97 cf 3c 19 29 24 bd
       0.019097915 -0.031977985 0.025340676 -0.040078256
000080 9c c8 93 bc 51 2d e4 bc 2e e2 e2 bb 11 e4 84 3d
       -0.018039994 -0.02785364 -0.0069239354 0.06488813
000090 38 34 36 3d 57 51 67 bb b0 a1 01 3d cb e2 fd bb
       0.044483393 -0.0035296285 0.031648338 -0.007747983
0000a0 e3 d4 03 bd f4 69 80 bc aa 55 30 3c 10 59 4f bd
       -0.032185446 -0.015675522 0.010762611 -0.050622046
0000b0 86 e4 e3 3b 14 48 a6 bd b0 a6 c4 bc a5 12 87 bc
       0.0069547324 -0.081192166 -0.024005264 -0.016488383
0000c0 cc 01 b9 3a 6a ad 9f bc 1d 21 09 3d 86 71 d5 bc
       0.0014114915 -0.01949187 0.033478845 -0.026055109
0000d0 b6 a9 88 3d cf 22 e5 3a 29 a2 0f bd a4 d1 54 3c
       0.06672995 0.0017481687 -0.035066757 0.012989435
0000e0 55 cd 46 3d 1e fc 0b bd f8 09 b0 3c 23 d0 a8 3c
       0.048535664 -0.034175985 0.021489128 0.02060706
0000f0 47 2c c3 3c 05 e6 ce 3c 2d 84 14 bd 21 d8 ff bc
       0.023824824 0.025256166 -0.036258865 -0.031230988
000100 5b 28 27 3d 6e 2f 0a bd 70 2f f3 3c 37 1e 5a bc
       0.04080997 -0.03373664 0.029685706 -0.013312868
000110 ed ce 89 bc 57 35 de 3b 17 10 9a 3b 4d ef 55 bc
       -0.016822303 0.006781261 0.004701625 -0.013057542
000120 ae f8 66 bc 24 ab 1e bd 9a 7e 6e 3b 82 ac 8e 3d
       -0.014097376 -0.03873743 0.0036391378 0.06966497
000130 99 87 b6 3c a5 74 a8 bc 4b e5 03 bb b9 72 60 3d
       0.022281455 -0.020563433 -0.0020125683 0.054796908
000140 e7 20 06 3c 88 8f b0 3c 6f 2b cd ba ff be 72 3b
       0.0081865555 0.021552816 -0.0015653203 0.0037040112
000150 38 56 40 bc b8 5a e3 bc fc a4 b4 bc 81 24 90 3b
       -0.011739306 -0.027753219 -0.022051327 0.004398883
000160 c5 a3 0c bc bc 6c 68 3c c2 86 17 3d 8a f0 37 3d
       -0.008583968 0.014186081 0.03699375 0.04490713
000170 a5 84 b3 3c 71 74 9a bd 4c f6 3d 3d 15 20 8e 3c
       0.021913836 -0.07541741 0.046377465 0.017349282
000180 c2 0d 72 3d 79 78 59 bc b4 9b 25 bc 32 7d bb 3c
       0.05909515 -0.013273352 -0.010107923 0.022886846
000190 92 2c b4 3b f8 ac 2b bd 74 fe 0e 3c 92 e8 e1 bb
       0.0054984773 -0.041913003 0.008727659 -0.0068941796
0001a0 f4 6e 6b 3c 8b 3b 44 3c bd 82 da bc 23 9d ca 3c
       0.014369715 0.011977087 -0.026673669 0.024733132
0001b0 42 b2 68 3c 0e 66 54 3b e7 a0 84 3a a0 46 9c bc
       0.014202656 0.0032409462 0.0010118753 -0.019076645
0001c0 80 2a 8d 3c 7c 98 00 bd 27 14 3d bc b9 fd 0a bd
       0.01723218 -0.03139542 -0.011540449 -0.033933375
0001d0 bd 9d 32 3c 62 96 8a bd ca 49 3e 3c 61 97 5d bd
       0.010901866 -0.067669645 0.011614272 -0.054099444
0001e0 ed 27 2f 3d 5a a6 ef bc ba 2e 18 3d 1e db 31 bd
       0.042762686 -0.029254127 0.037153937 -0.043421857
0001f0 df 03 bd bc ce 7c 4e bd 39 06 db bc 24 0f 31 3d
       -0.023073135 -0.05041199 -0.026736366 0.04322733
000200 8e e8 92 3d 89 4d b9 3b 9c c2 88 3b a5 c4 07 bd
       0.071732625 0.005654995 0.00417359 -0.03314652
000210 85 3b c5 3a 8e 8e 77 bb f9 c0 0f bc 51 14 43 bd
       0.0015047645 -0.0037774178 -0.008774036 -0.047626797
000220 b4 ae ae bc 52 e2 ee bb 7b c2 33 3c bd f6 02 3d
       -0.02132354 -0.007290163 0.010971661 0.03197359
000230 04 1c de b9 07 72 cb 3c ff 90 42 3c 5d 29 ff bc
       -0.00042364013 0.024834646 0.01187539 -0.031147653
000240 47 e1 27 3c 73 f1 40 3d 44 68 1d bc fa b1 1f 3c
       0.010246581 0.047105264 -0.009607378 0.009747023
000250 50 b7 55 bc 15 4e 2a bd aa 74 40 3d 76 ef 04 bc
       -0.013044193 -0.04157837 0.04698626 -0.008113733
000260 03 63 3b 3d a7 d3 bb 3c 59 d4 79 3c 24 ea b2 bc
       0.04574872 0.022928072 0.0152483815 -0.021840163
000270 74 3e 48 3d d6 83 3e 3d d9 c3 ba bc 0a 2a 70 bb
       0.048887685 0.046512447 -0.022798466 -0.003664615
000280 e9 b6 37 3c 20 b3 f7 bc 7c 4f 93 3c 13 61 45 bc
       0.011213043 -0.03023678 0.017982237 -0.01204707
000290 01 b5 49 3d d9 b3 99 3c 13 a2 63 3d c9 8d a9 3c
       0.049244884 0.018762516 0.055574488 0.020697491
0002a0 07 97 b4 bb 28 3b 48 bd da de 10 3d be ff b3 3c
       -0.005511168 -0.04888454 0.035368778 0.021972533
0002b0 53 81 db 3c 59 a2 69 bd 27 a7 a1 bc d0 c5 ab bc
       0.026795065 -0.057039592 -0.019733025 -0.020968348
0002c0 fd 40 a5 3c 35 98 5f bd 17 98 05 bd 85 13 bb bc
       0.02017259 -0.054588515 -0.032615747 -0.022836456
0002d0 30 d8 0f 3c cf cf 12 3c 68 54 bc ba 2f a3 bc 3c
       0.00877957 0.008960678 -0.0014368417 0.02302703
0002e0 9d 32 15 bd 66 ac 25 3d a9 4e 8e bc da 9c c4 bc
       -0.03642522 0.040447615 -0.017371492 -0.024000574
0002f0 fb bf 23 bd ca 57 46 bd 61 77 2a 3d 1c a3 c7 3c
       -0.03997801 -0.048423566 0.041617755 0.024369769
000300 f8 39 a2 bc 8d 53 85 3d 85 26 75 bc b6 59 d4 3c
       -0.019803032 0.06510077 -0.014962797 0.025921684
000310 c4 ce f5 bc 15 98 a7 3c 6d 23 26 bb cc 80 2f 3d
       -0.03000582 0.02045826 -0.0025350705 0.04284744
000320 82 31 90 3c 52 e5 9b 3d b4 00 31 3b f7 a6 cb 3c
       0.017601732 0.07612099 0.0027008476 0.024859888
000330 36 b3 35 bd 54 ae 3e bd 4c 8d e8 3a 7b 22 1f 3c
       -0.044360362 -0.04655297 0.0017742305 0.009712811
000340 0a ca 01 3c c9 b0 14 3c c3 57 32 3c 78 0a 0a bd
       0.007921705 0.009075352 0.010885182 -0.03370139
000350 f9 e1 c7 3c ae 7c 3b 3d f0 2e 3d 3d b6 46 78 bc
       0.024399744 0.0457732 0.04618734 -0.015153578
000360 19 81 03 bd 18 6b 15 bd da 9d a4 bc d0 dc c2 bc
       -0.03210554 -0.036479086 -0.0200948 -0.023786932
000370 6b 43 a0 3b ab 94 96 bd 78 c2 05 3d f2 fd 1c bd
       0.0048908493 -0.07352575 0.032656163 -0.03832812
000380 6c 36 23 3c 3e 20 0c 3d bf 8b f1 3b 5e 71 16 3d
       0.009961706 0.034210436 0.0073713954 0.03672921
000390 b5 61 93 bb bc c5 62 bd 23 be c6 3c 17 8e 51 3c
       -0.0044977316 -0.055364355 0.024260586 0.0127902245
0003a0 7d ed 05 3b a3 96 d8 3b d5 b4 17 3d d4 94 59 3d
       0.0020435743 0.006609754 0.03703769 0.05312045
0003b0 5a f9 f5 3a ff 89 cc bd 92 62 4c 3a 8a ce 7e 3d
       0.0018766329 -0.09987258 0.00077966705 0.06220869
0003c0 b7 97 f0 bc d0 fb 97 3c a8 60 66 bc 5d ba d4 bc
       -0.029369218 0.01855269 -0.014061131 -0.025967771
0003d0 e9 86 7c 3c 9c 3f 1b bd d4 db 8c 3b c6 98 6e 3c
       0.015413024 -0.03790246 0.0042986665 0.014562791
0003e0 7c ac 79 3c c3 60 f2 bc 10 a5 aa bc ce 9b 02 3d
       0.015238877 -0.029587155 -0.020830661 0.03188687
0003f0 31 06 9d 3b 5c fc bf bd e5 90 6b 3d 27 37 9b 3c
       0.004791998 -0.093743056 0.05751123 0.018947197

fcs1.bias f4 [400]
000000 b8 d3 2d 3e 38 46 37 3d 8f af c8 bc 19 06 1f 3e
       0.16975296 0.0447447 -0.024497775 0.1552967
000010 56 4c 99 3b c2 50 c4 3c 96 bd c6 3c 0c 75 fa bd
       0.0046782894 0.02396429 0.024260323 -0.12229356
000020 4c c5 a8 bd 2d 2a 47 be 1f 7f 81 bc 1b d3 6e be
       -0.082407564 -0.19449683 -0.015807686 -0.23322718
000030 0d fd 6a 3c 90 14 d1 bc 3d 57 81 3d d2 3f 07 be
       0.014342559 -0.0255225 0.063154675 -0.1320794
000040 56 42 97 3c d7 bd 9b bc e8 0b 0a be ee a9 2a 3e
       0.018464249 -0.019011421 -0.13481104 0.16666386
000050 e7 6d 47 be d6 2a 18 3e 1e e7 2e bd f6 84 98 bd
       -0.19475518 0.1486009 -0.04270088 -0.07447235
000060 4e 20 5c be b6 13 41 be 88 d2 bf bd 47 74 03 3e
       -0.21496698 -0.18855175 -0.093663275 0.12837325
000070 8e 99 a4 3c 32 d1 17 be 23 2c 1f 3e 8e 15 32 3e
       0.020092752 -0.14825895 0.1554418 0.17391035
000080 83 1a 9f 3d 9b d6 51 3e c8 0a 10 3e 42 7b 12 3d
       0.077687286 0.20492022 0.14066613 0.03576208
000090 88 bc fb 3d 06 2f 06 be d1 2e 47 bd 4f 71 fa bd
       0.12291819 -0.13103876 -0.048628632 -0.12228643
0000a0 6f 82 82 bd 0e 15 38 be 33 d9 12 3e ad ee a8 bd
       -0.063725345 -0.17976782 0.14340667 -0.08248649
0000b0 de c7 34 3d bb 7b 3f 3e ca 77 a5 3d 64 ed a5 3c
       0.04413592 0.18699543 0.080794886 0.020254798
0000c0 83 8c 39 3e 14 4b 54 be 7a a4 4d 3e 25 c7 58 be
       0.18120007 -0.20731765 0.20082274 -0.21169718
0000d0 3c 79 68 3e 5e 46 d1 3c 1b ad 23 be dd 15 90 bd
       0.22702497 0.025546249 -0.15984003 -0.0703542
0000e0 88 b7 e0 bd 25 53 fb 3d e1 ac 28 3e a9 ee eb 3d
       -0.10972506 0.12271718 0.16472198 0.1152013
0000f0 3e 0d 1b 3e 55 45 2c 3e 01 a0 3b be 90 c1 a1 3d
       0.1514177 0.16823323 -0.18322755 0.07898247
000100 d8 af 07 3c 7a 09 03 3e 0e 19 10 3d d0 c2 3c 3c
       0.0082816705 0.12796584 0.035180144 0.011521056
000110 e4 d0 20 3e 84 61 ae bd 87 1c 31 be bb a7 41 be
       0.15704685 -0.085146934 -0.17296039 -0.1891164
000120 53 0e 12 3e 46 df 34 3c b8 1b 58 be eb 8b 5b 3d
       0.14263277 0.011039561 -0.21104324 0.053600233
000130 6e c3 a4 bc 77 43 04 be 86 73 37 3e a6 3f df 3d
       -0.02011272 -0.12916361 0.17915162 0.10900812
000140 2d 48 41 3e ef 08 81 bd 81 67 00 be 12 df 2f be
       0.18875189 -0.06300532 -0.12539484 -0.17174938
000150 b4 cd 2a 3c a9 25 05 be 31 be 02 3e 13 4f 4b be
       0.01042502 -0.13002647 0.12767865 -0.19854383
000160 48 63 20 be 99 9c bb 3c 51 28 8d 3d 02 51 d6 bc
       -0.15662873 0.02290182 0.06892455 -0.026161674
000170 6e a6 d4 bc 8a 59 eb bd b4 52 66 bd 4c b2 a5 bc
       -0.025958266 -0.114916876 -0.056231216 -0.02022662
000180 76 68 38 be 0a ab 51 bd d5 1b d4 bc 8a 23 45 bc
       -0.18008599 -0.051188506 -0.025892178 -0.012032399
000190 20 4e 24 3e 6e 65 4a be 5a 3c 76 3d 5e fd 87 3d
       0.16045427 -0.19765255 0.06011615 0.06640123
0001a0 b7 5f 33 3d 78 c2 b4 bd 9a b0 e9 3d 35 ce 20 be
       0.043792453 -0.088261545 0.11410637 -0.15703662
0001b0 41 c6 a3 bd 10 fe dd bc f5 bc 80 bc d8 13 58 be
       -0.07996798 -0.027098686 -0.015715102 -0.2110132
0001c0 2f 67 09 3e 7d e9 fc 3d 8e 02 3e be ae 14 a5 bb
       0.13418268 0.12349222 -0.18555662 -0.0050378656
0001d0 32 d5 30 be 42 e2 39 bd 54 9a af bc 3d 1e 3a 3e
       -0.17268828 -0.045381792 -0.021435894 0.18175597
0001e0 a0 e9 fa 3d e5 f0 92 3d a4 d7 67 3c 91 cf 4b be
       0.12251592 0.07174853 0.014150534 -0.19903399
0001f0 0a 0d 69 bd c2 bb 40 3e a8 3e 18 3d 1d 12 b0 bc
       -0.0568972 0.18821624 0.03716913 -0.021493012
000200 83 e8 97 bd b4 e6 26 3d cb 5b ea 3d 63 0e 94 3b
       -0.07417395 0.04074736 0.11443289 0.0045183166
000210 0f 7e 21 3d 51 e3 2e 3e 75 bb 0b 3e 3b 04 d4 3d
       0.03942686 0.17078902 0.13645728 0.103523694
000220 9f a7 0a 3e 29 4b d4 3d c6 a5 8b 3d 23 7a 54 be
       0.13540505 0.10365898 0.06818728 -0.20749716
000230 f4 ee 45 bd 54 9b 5e bd 9f d9 77 3d 43 62 4c bd
       -0.048323587 -0.05434735 0.060510274 -0.049898397
000240 24 11 5c be 8c bd 0e 3e 86 f7 ce bd 69 0d 4d be
       -0.21490914 0.13939494 -0.10105805 -0.20024647
000250 a5 c3 a2 bd 5e 15 16 3d 91 e4 cb bd 83 d8 56 be
       -0.079474725 0.03664147 -0.09955705 -0.2098103
000260 2e 42 88 3d f8 40 8e 3d c6 e5 3c 3e fb 55 4f be
       0.06653248 0.069459856 0.18447027 -0.20247643
000270 de a2 29 bd a2 18 d9 bd ff 59 b2 bd ef 5c 87 3b
       -0.041415088 -0.106004015 -0.08708572 0.0041309516
000280 df e0 41 3e 10 dc 19 bd 03 60 1d 3e f7 b5 44 3d
       0.18933438 -0.037563384 0.15368657 0.048025098
000290 a4 76 f0 bd 08 d0 97 bc 73 82 f8 3d 29 25 f3 3d
       -0.11741379 -0.018531814 0.12134256 0.11872322
0002a0 9a 0d b6 bd 3f 4b 69 bd a5 4e 38 be 23 c9 1a be
       -0.08889313 -0.056956526 -0.1799875 -0.1511579
0002b0 4e 75 67 bd 2a 5c f9 3d d7 53 80 3b bd 1c 03 3e
       -0.056508355 0.12175782 0.0039162445 0.12803932
0002c0 87 b9 22 be 52 ce 18 3d e6 1d 28 be d7 2c 60 bd
       -0.15891086 0.037306137 -0.16417655 -0.054730263
0002d0 59 c7 ee 3d 0f b1 dc 3c c1 c2 3f be 96 e0 51 be
       0.11659116 0.026939897 -0.18726636 -0.20495829
0002e0 73 b7 47 bd 20 1b ac bd b7 20 4f be 35 2d e2 3d
       -0.048758935 -0.08403611 -0.20227323 0.11043779
0002f0 62 25 39 3b 5e 1a 56 bd c7 b9 10 3e 67 9a 44 be
       0.0028251042 -0.05227124 0.14133368 -0.19199525
000300 2e 4a 76 3d 65 66 10 3e 51 3d 2a 3d 48 45 ae 3d
       0.060129337 0.1410156 0.041562382 0.08509308
000310 55 3a 87 bd 78 9c 43 be 57 21 3e 3e 61 dd 5c be
       -0.06602923 -0.19102657 0.18567406 -0.21568824
000320 6d 95 d0 bd 79 d0 57 3e c9 ac 5a bd cf 88 20 bd
       -0.10184751 0.2107562 -0.053387437 -0.03919297
000330 c3 d4 ce bd 0e 16 8b 3c 35 a6 83 bd cf d9 bd 3d
       -0.10099175 0.01697829 -0.06428186 0.09270059
000340 6f 9a 36 3e 5e 0c 2e be 07 8d ff 3d 07 b6 05 bd
       0.17832349 -0.16996905 0.12478071 -0.032644298
000350 50 13 40 be 3c 8d 49 3d 4d b2 09 be e2 11 00 3e
       -0.18757367 0.049206957 -0.13446923 0.12506822
000360 8a ad 4a bd 94 41 fb bd e5 b9 50 be 41 50 9b 3c
       -0.049481906 -0.122683674 -0.20383413 0.018959166
000370 ea 12 44 be 02 1c f7 3d 41 9f 9d 3d 82 a5 1e be
       -0.1914784 0.12065889 0.07696391 -0.15492824
000380 5d ab d6 3d af a5 30 be b3 16 88 3c 90 de 77 bd
       0.10481904 -0.17250703 0.016612386 -0.060514987
000390 df 7b 08 3e 89 d1 31 be 28 27 72 bd 86 25 4a bd
       0.13328503 -0.17365088 -0.059119374 -0.04935219
0003a0 de 4c 1e bd 09 84 0d 3c d7 09 1d be ea 14 b5 3c
       -0.038647525 0.008637437 -0.15335785 0.0221047
0003b0 09 d5 8e bb 05 a2 18 be 97 78 89 3d cd c0 27 3e
       -0.004358892 -0.14905556 0.06712454 0.16382141
0003c0 09 81 c4 3d 69 a7 5b 3d 72 05 cf bd 15 d4 1a be
       0.09594924 0.05362645 -0.101084605 -0.15119965
0003d0 ba a2 f4 3d 34 91 03 3d 35 16 d8 3b 39 3e f3 3d
       0.119451 0.0321209 0.006594444 0.118771024
0003e0 0b ff ee bd 1e 50 2a be 61 fb 17 be 2a d1 48 be
       -0.11669739 -0.16632125 -0.14841987 -0.1961104
0003f0 aa 68 18 3e e0 2a da 3d cf 9c e8 bd 4f b6 df bc
       0.14883676 0.10652709 -0.11358034 -0.027308611

fc2.weight f4 [300, 402]
000000 f9 11 24 3d 98 97 2e bc 20 b5 2e bc a0 16 05 bd
       0.040056203 -0.01065626 -0.010663301 -0.03249228
000010 62 1a 56 3b 14 0c 65 3c 43 07 16 bc 10 4d b5 bc
       0.0032669534 0.01397993 -0.009157005 -0.022131473
000020 ac c1 04 bd 58 21 0a 3d 4c b8 a3 3d 8a 1f 65 bd
       -0.032411262 0.033723205 0.07994136 -0.05593828
000030 c1 62 88 bd f0 84 75 3c 3a 2f 01 3c de b3 a3 38
       -0.06659461 0.014985308 0.007884795 7.8059486e-05
000040 8c 95 b6 bc 2d e5 99 3d dc b4 1d bc 22 9a c3 3b
       -0.022288106 0.07514415 -0.00962564 0.005969302
000050 85 e6 27 3d 51 0d 48 3c aa e7 9a 3c b0 59 45 bd
       0.040991325 0.012210206 0.018909294 -0.048181236
000060 6c 5c 21 bd ed 59 46 bb c4 b3 90 bd fa d7 0b bd
       -0.03939478 -0.0030266002 -0.070655376 -0.03414152
000070 6a 75 4e 3d c3 60 96 bd 97 10 28 bd 73 ab 1d bd
       0.050404944 -0.073426746 -0.041031446 -0.038493585
000080 d7 b2 03 3d 25 45 a7 bc 60 60 8a bc 71 3b df bc
       0.032152977 -0.020418713 -0.016891658 -0.027250024
000090 b7 39 3a 3d 2b de e5 bc 1f bf ce 39 c9 f5 b8 3b
       0.045465197 -0.02806004 0.00039433778 0.0056445342
0000a0 cb 4c a4 3c 0f 13 ab bc de 94 14 3d 73 40 07 bc
       0.020056149 -0.020883111 0.036274783 -0.008255112
0000b0 92 7b 0c bd fc 4e ca bd 8e c2 93 bd a9 7c d3 3c
       -0.034297533 -0.09878346 -0.07214843 0.025816279
0000c0 44 fa af 3c fd 84 9e bc 65 11 a6 bc e6 c2 36 bd
       0.02148164 -0.019350523 -0.020271966 -0.044619463
0000d0 0b d4 2b bd 8f f6 6d bc 78 e3 d6 3c af 51 93 3d
       -0.041950267 -0.014524116 0.026231512 0.07193314
0000e0 1c 74 9a bc be e2 1a bd 50 67 0f 3d b3 06 04 3d
       -0.018854193 -0.037813894 0.035010636 0.03223295
0000f0 71 f2 ec bc 83 16 84 3c af 78 68 bd 86 0f 1e 3d
       -0.028924199 0.016124016 -0.056755718 0.038589023
000100 fb 44 09 bd 51 4d 58 bd e0 43 0f 3d 53 cd e0 3b
       -0.03351305 -0.05280811 0.03497684 0.006860414
000110 07 3a 72 bd d9 e1 d4 bc ac 99 68 bd 2b a9 c6 bc
       -0.05913737 -0.025986599 -0.056787178 -0.024250587
000120 4e 39 69 3b 1c e8 4a bd 1a 6b 26 bc aa 04 14 bd
       0.0035587135 -0.049537763 -0.010157371 -0.03613726
000130 fc a3 62 3d d4 d6 29 bb bc 84 08 3d d0 f6 4c 3d
       0.05533217 -0.00259154 0.03332971 0.050040066
000140 98 8d 19 3b 6f d7 89 3c a3 b1 9f bd 11 2b fb 3c
       0.0023430344 0.01682636 -0.077975534 0.030660184
000150 08 72 04 3d 30 d2 22 bc 25 66 9a bb f9 2f df bd
       0.03233531 -0.009937808 -0.0047118836 -0.10897822
000160 a7 fb 02 3d 49 5e 14 bc 87 15 54 bc 6d 28 27 3d
       0.031978276 -0.009055682 -0.012944586 0.040810037
000170 79 7c f0 bc a8 99 27 3d d9 89 5a 3d 2e 60 42 bd
       -0.029356228 0.040918022 0.053354118 -0.047455005
000180 0a 30 1f 3d bd eb 58 3d fd d3 f0 bb af f9 05 3c
       0.038864173 0.052959193 -0.0073494897 0.008177205
000190 5d 71 63 bd 34 e1 78 3c 3f 5a b7 bc 84 af 08 bd
       -0.055528034 0.015190411 -0.0223819 -0.03337051
0001a0 b3 ae 1e 3d a0 b8 e5 bc 16 63 6e 3d 69 93 87 bc
       0.038740825 -0.028042138 0.058199964 -0.016549783
0001b0 01 e4 44 3d 84 48 96 3c 47 5e ff 3b b6 62 09 3d
       0.048069004 0.018345125 0.007793221 0.033541404
0001c0 5f 23 7f bd 75 aa c7 bc 78 4a 80 bc a8 ac fb bc
       -0.062289592 -0.024373272 -0.01566051 -0.030721977
0001d0 fa 47 63 bd 38 80 fe 3c 57 9a 0d bd 0c 2b c0 3b
       -0.055488564 0.031066999 -0.034571018 0.0058645066
0001e0 ad 33 dd bc 21 16 0b bd 6d 39 a1 bc 4d 69 21 bd
       -0.02700218 -0.03395665 -0.019680703 -0.039407063
0001f0 2d 9d e9 bb f6 d9 a7 3c 44 29 1b 3d cf 90 8f bc
       -0.0071293325 0.020489674 0.03788115 -0.017525105
000200 ce dc 31 bd 61 93 42 3d 24 26 5d bc 08 41 45 3d
       -0.043423466 0.047503833 -0.013497863 0.04815772
000210 01 87 8a 3c 82 fc b1 bb 8d 7f 84 3c a1 0c d8 3b
       0.016910078 -0.0054317126 0.016174102 0.0065933024
000220 cc 5c de 3a 79 e5 3e bd a9 36 7d bc 81 77 c9 3a
       0.0016964911 -0.04660556 -0.0154549265 0.0015370698
000230 17 01 7e bd 8e b5 46 3d 59 8f e3 bd b6 f0 6b bd
       -0.062012758 0.048512988 -0.11111326 -0.057602607
000240 42 83 2b bc e0 b3 82 bd 8d dd 69 3d 3f f4 91 bd
       -0.010468306 -0.06381965 0.057096053 -0.07126664
000250 63 15 48 3d 80 e6 bf bc 21 ff 53 bc a9 07 02 3d
       0.04884852 -0.02342534 -0.012939245 0.031745587
000260 0d a7 5b 3c a4 a7 16 3d 19 85 4b bd 30 a2 fb 3c
       0.013406527 0.03678097 -0.04968748 0.030716985
000270 36 74 20 3c 64 8d 97 3d 03 af e6 3b 30 14 97 3d
       0.009793332 0.07400015 0.007039906 0.07376897
000280 d0 79 04 3d 9c 02 93 bc d5 88 58 3d 4c b4 98 3c
       0.032342732 -0.01794558 0.05286487 0.01864066
000290 f2 45 c1 3c 63 74 16 3d 86 22 9f bc f5 36 a6 bc
       0.023592923 0.03673209 -0.019425642 -0.020289877
0002a0 9c 77 0d bc 3c e7 a5 bc 33 e2 9a bc 9f 58 48 3c
       -0.008634474 -0.020251863 -0.018906688 0.01222816
0002b0 59 6d 3e 37 3d f0 6d 3c c7 e6 84 3c 75 91 40 3d
       1.1350342e-05 0.014522609 0.016223324 0.04701372
0002c0 cc d9 3b 3b 98 96 66 bc ec a0 86 3d 28 42 fc bc
       0.0028663753 -0.01407399 0.06573662 -0.030793265
0002d0 eb 9a bf bc e7 f7 65 bd 40 e5 78 bd 6f 27 0a 3c
       -0.0233893 -0.05614462 -0.060765505 0.008432253
0002e0 0a fb f3 3c 87 d2 ef 3c a0 f2 0c 3c ec ec 8f bd
       0.02978279 0.029275192 0.008602768 -0.07027611
0002f0 fd 3c 60 bd be 5b aa bb 56 49 84 bc 10 0a b5 bc
       -0.054745663 -0.005198925 -0.01614825 -0.022099525
000300 3e a7 81 3d da 09 8c bd a6 ee 90 3b 65 e0 85 bc
       0.06330727 -0.068378165 0.0044229804 -0.016342351
000310 f8 33 17 3d 7a 0a 83 bd 88 74 64 3d 14 4a 4c 3d
       0.036914796 -0.063984826 0.055775195 0.049875334
000320 52 69 28 3d 64 37 a2 bc bf cf 4d 3c 01 f0 68 bc
       0.041116066 -0.019801803 0.012561738 -0.014217378
000330 58 77 a6 bc a3 5b da 3c c0 e7 22 bd bb 12 d1 3c
       -0.02032058 0.026655024 -0.039771795 0.025521627
000340 9f 57 12 bd 7a d0 06 ba 3a d8 58 bd 8b 05 11 bc
       -0.035728093 -0.000514276 -0.052940585 -0.008851419
000350 fb 9b ca 3a 90 b0 1d bd 03 f6 e7 3b 18 65 40 bd
       0.0015457863 -0.03849846 0.0070788874 -0.04697141
000360 85 95 c4 38 75 0c 95 bd ac c2 6a bc 6d 49 bf bd
       9.3738585e-05 -0.072777666 -0.01432864 -0.09340177
000370 a9 1e cb bc 45 1f a2 bd 86 03 b1 bc fa ff 11 3d
       -0.024794893 -0.079161204 -0.021608125 0.03564451
000380 b2 75 7c 3d 3d 95 85 3d f6 2f 1c 3c b2 45 65 3d
       0.06163568 0.065226056 0.009532919 0.05597467
000390 52 9f fa 3c 12 82 fd 3a 1b 92 8a 3d 7e 0e 36 bc
       0.030593548 0.0019341132 0.06766149 -0.011111854
0003a0 81 25 ed bc c3 a8 03 bd d2 c6 51 3d 19 3a 59 bc
       -0.028948547 -0.032143366 0.051215 -0.0132584805
0003b0 c1 88 09 bd 15 7e eb bc b6 20 24 bd 1e ff 1b bd
       -0.033577684 -0.028746644 -0.040070258 -0.038085096
0003c0 e0 46 03 3c e3 4d 25 bc 8b 92 64 bd 40 a0 b7 3b
       0.008012503 -0.01008937 -0.055803817 0.00560382
0003d0 f7 18 07 bd 1b 72 37 bd 1a 7e eb bc 8f e6 17 3d
       -0.032982793 -0.044786554 -0.028746653 0.037085112
0003e0 d7 cc fe 3c b9 0c 59 3d 0a 53 cb 3c 9b 80 76 3c
       0.031103535 0.05299065 0.02481987 0.01504531
0003f0 47 3a 81 bd e3 c5 44 3d 77 8c 34 bd 70 ee ab bc
       -0.06309944 0.048040282 -0.04407927 -0.02098772

fc2.bias f4 [300]
000000 8d f0 a7 bd 48 d1 d9 bd 1d dc ae bd 8d 2e 99 bd
       -0.08200178 -0.1063562 -0.08538077 -0.07479582
000010 6d b0 b1 bd d7 30 35 bd e7 ab 62 3b fb 44 a6 bb
       -0.08676229 -0.04423603 0.0034587325 -0.005074141
000020 ec d6 c5 bc 11 49 b0 bc 5f be cb bd be a5 d8 bd
       -0.024150334 -0.021519216 -0.0994842 -0.10578488
000030 c4 e2 57 bd 99 9c 10 bb 6c b1 99 bd aa 5d b6 bd
       -0.052706495 -0.0022065996 -0.07504544 -0.08904584
000040 40 30 7e 3c f2 1d 13 bd 72 46 e2 bb 83 73 4f bd
       0.015514433 -0.03591723 -0.0069053704 -0.05064727
000050 49 42 76 bd 18 a4 0c bd fe 07 cf 3a fb aa 98 bd
       -0.06012181 -0.03433618 0.0015795229 -0.07454487
000060 90 69 80 3c b8 05 ca bd 4f dc 4b bc d0 07 47 bd
       0.015675336 -0.09864372 -0.012442662 -0.048591435
000070 34 bd b6 bd 74 ae 49 3c ae 87 ca bd 27 02 0b bd
       -0.089228064 0.012309659 -0.0988916 -0.0339376
000080 87 37 2b bd d3 bc 9e ba a2 79 1a bc d0 97 88 3c
       -0.041801002 -0.0012110717 -0.009428414 0.016673952
000090 ef 5e 3c bc 01 c7 6a bd f9 8a 0b bd a9 35 79 bc
       -0.011497243 -0.05731869 -0.03406808 -0.0152105475
0000a0 28 73 65 3c 5a 54 fa bc 84 2d 34 bc 45 0d 53 bd
       0.014004506 -0.0305578 -0.01099718 -0.051526327
0000b0 77 27 98 bd 1e 8f a9 bb 0d 37 c0 bb 59 8a 23 bd
       -0.07429402 -0.0051745316 -0.0058659376 -0.03992686
0000c0 09 02 96 bd 1d 02 34 3a c7 de 68 3c e6 1b 61 bd
       -0.07324607 0.000686677 0.0142132705 -0.054958247
0000d0 aa 2a 18 bc f2 ec 31 bc 88 1d 68 bd 76 93 84 bd
       -0.009287516 -0.010859715 -0.05666879 -0.064734384
0000e0 e8 d0 ad bd 99 36 b5 bd ea ad 9d bd 12 4d 5d bd
       -0.08487111 -0.08848304 -0.07699187 -0.054028578
0000f0 60 2c 78 bd 9c 9e d9 38 ce 65 27 bd b8 66 83 bd
       -0.060589194 0.000103769096 -0.040868573 -0.064160764
000100 34 54 db bc 73 b9 d2 bc 66 7d a0 3c 27 7b 33 bd
       -0.02677355 -0.025723195 0.019591045 -0.04381862
000110 10 b8 ac 3c 2b e5 7c bd 18 dd 99 3a 3c d3 08 bd
       0.021083862 -0.06174199 0.0011738865 -0.033404574
000120 95 0a 1c bd bb 13 ba bd ac 3a a2 bd 1f 59 3a bb
       -0.03809603 -0.090857945 -0.07921347 -0.0028434468
000130 8e 4e a9 bd 53 8c 3a bc 2d ef 1d bd 7d a9 29 bd
       -0.08266936 -0.011385995 -0.038558174 -0.041421402
000140 32 6f 9d bd e2 bd 82 bd 5e a2 86 bc b4 92 c4 bd
       -0.076872244 -0.063838735 -0.016434845 -0.09598294
000150 05 7f c7 bd a9 51 fd bc ec ba 45 b9 5e 56 00 bd
       -0.09741024 -0.030922728 -0.00018857018 -0.031332366
000160 70 d7 0e bd e5 50 b0 bc c8 f7 92 bd 4e cc 75 bd
       -0.034873426 -0.021522949 -0.07176167 -0.060009293
000170 d3 e5 09 bd e5 93 9d bd eb 65 a9 bd 7c 46 cc 3c
       -0.033666443 -0.07694224 -0.082713924 0.024935953
000180 47 48 0b bd 96 0b dc bc 22 14 52 bc 16 29 a7 bb
       -0.034004476 -0.026860993 -0.012822183 -0.0051013334
000190 ef be 85 bc 9d c7 c9 bd af bf 12 3d 40 e8 ac bd
       -0.016326396 -0.09852526 0.035827335 -0.08442736
0001a0 f8 c5 51 bd 35 8c 0f bd 83 5a 26 bd fc 28 e0 bb
       -0.05121419 -0.03504582 -0.040613662 -0.006840823
0001b0 b0 97 a5 bc c6 93 18 3c 59 ba 08 bb e2 bb c7 ba
       -0.020213932 0.009312576 -0.0020863025 -0.0015238489
0001c0 dd 73 ee bc cf 5f 08 3d 37 45 45 bd 5d 14 59 bd
       -0.029107982 0.033294495 -0.04816171 -0.052997936
0001d0 50 5d 4e bd b9 73 4b 3c 03 b6 3a bd 6b c5 b1 bd
       -0.05038196 0.012417727 -0.045583736 -0.086802326
0001e0 fe 27 97 bd e4 8a 1d 3d 3c ff 6f bc 57 c3 3e 3d
       -0.07380675 0.038462535 -0.014648255 0.04657301
0001f0 bb bb 5b bd b5 fa 4b bd 82 3e 5b bd 2d 66 2f bb
       -0.05364583 -0.04979964 -0.05352641 -0.0026763782
000200 1c 27 16 3b 72 38 26 bd 01 79 c1 bc 9c f2 8b bd
       0.0022911495 -0.040581174 -0.02361727 -0.068333834
000210 53 ed f5 bc 8e 8c 9a bd 79 3c 39 bd 42 fc 59 bc
       -0.030020392 -0.0754634 -0.045223687 -0.013304772
000220 1b 81 af bc 7e f7 30 bd 71 17 45 bd fb bc 01 bd
       -0.021423867 -0.043204777 -0.04811806 -0.031674366
000230 eb 42 04 bd 1b c9 5d bd 4c 93 78 bd ec d2 e6 bc
       -0.03229038 -0.054146867 -0.06068735 -0.028176747
000240 63 49 98 bd 26 c0 6e bd 34 4c 88 bd ba 65 90 bd
       -0.074358724 -0.058288716 -0.066551596 -0.07050653
000250 58 eb 31 bd 86 f8 02 bd 91 c1 8c bd c6 16 90 bd
       -0.043437332 -0.03197529 -0.06872857 -0.07035594
000260 3f a9 d7 bb 1b cf 34 bd 88 f3 b7 bc 7d 2a 8a bc
       -0.006581455 -0.044142824 -0.022454992 -0.016865963
000270 1a d2 5a bd 3c f4 1b bd 9e 77 1a bc 5c dd 07 bd
       -0.053423025 -0.038074717 -0.009427933 -0.03317009
000280 d8 ab 63 bd 02 b7 53 3c 71 3f 80 bd 5a 4b 07 bc
       -0.055583805 0.01292205 -0.062621005 -0.008257711
000290 66 47 ca bd d3 7d 92 bd 25 a8 80 bc 9d be 89 bd
       -0.098768994 -0.07152905 -0.015705178 -0.0672581
0002a0 96 41 7e bd de dc 05 bd 7a 03 dd bc 98 6a 5b bd
       -0.062074266 -0.03268134 -0.026979197 -0.053568453
0002b0 4a 6a 04 bd e3 8c 24 bd bd eb 1b bd 0b 79 4a bc
       -0.032327928 -0.040173423 -0.038066614 -0.01235796
0002c0 ca fa 4a bd a2 ac a1 bb 0b 3d 9a bc 4f d5 e8 3c
       -0.049555577 -0.0049339095 -0.018827936 0.028422026
0002d0 0f 63 42 bc 37 e5 1a bd b4 cf 63 bd 89 e9 6b bd
       -0.011864438 -0.037816253 -0.055618003 -0.057595763
0002e0 91 39 45 bd 20 27 b7 3b 4e 21 31 bd 81 9e f7 3b
       -0.048150603 0.005589381 -0.043244652 0.007556737
0002f0 4c e7 53 bd 5c 4b 6b bc 77 59 77 bd a3 32 5a bc
       -0.051734254 -0.014361229 -0.060388055 -0.013317737
000300 69 a8 3d bd 6f 2d 72 bc 84 28 90 bd ee 7d 60 bd
       -0.046303187 -0.01478134 -0.07038978 -0.054807596
000310 16 57 38 bd fa 99 57 bb cb 89 b0 bd 1a 7b 16 bd
       -0.045004927 -0.0032898174 -0.08620032 -0.036738493
000320 bc 2b 7a bd 02 88 a8 bd 3e 67 db bd bf 7f 89 bd
       -0.061076865 -0.082290664 -0.10713051 -0.06713819
000330 06 ea ef bd 3c b5 84 bd 53 23 ad bd 8e 4f 7a bd
       -0.11714558 -0.0647988 -0.08454003 -0.061111026
000340 56 e5 a7 ba e9 07 a0 bd 6a 11 85 bd 80 1a b8 3c
       -0.0012809436 -0.07814009 -0.06497462 0.022473574
000350 f7 eb d4 bd c2 ce 15 bd 2e 46 55 bd e3 d2 3f bc
       -0.10396569 -0.036574133 -0.05206888 -0.011707994
000360 81 88 0b bd b7 76 5f bd c4 0e 8c bd de 03 80 bd
       -0.034065727 -0.054556575 -0.06838754 -0.062507376
000370 1e 93 d0 3c a2 61 05 bd 93 7f 84 bd a7 ec 9d bd
       0.025460776 -0.032563813 -0.06469645 -0.077111535
000380 ee 41 a0 bd d0 60 26 bd f3 bc 81 bd 79 80 47 bd
       -0.07825075 -0.04061967 -0.06334867 -0.048706505
000390 04 d9 bb bc 5b fe e1 bc 65 d0 8b bd 0e 15 3c bd
       -0.02293063 -0.027587106 -0.068268575 -0.045918517
0003a0 ac f5 86 bd 0e e3 94 bc 0a ef ba bc 4d d1 48 bd
       -0.06589827 -0.018174674 -0.02281906 -0.04902773
0003b0 d8 ca 40 bd 5f ba 1e bd 92 87 98 bc 9d 03 21 3c
       -0.047068447 -0.038751956 -0.018619332 0.009827522
0003c0 1c 87 8a bd 23 d8 a3 bd 9a 23 00 ba f5 b3 e3 bb
       -0.06764051 -0.08000209 -0.00048881175 -0.006948943
0003d0 40 ce c7 bd 02 8a 33 bd 66 5e 87 bd 34 8e 9e bd
       -0.09756136 -0.043832786 -0.06609802 -0.07741967
0003e0 46 2e c8 bd 82 4f 5b bd 6e a0 d2 bd 97 37 9c bc
       -0.09774451 -0.05354262 -0.10284506 -0.019069476
0003f0 5e e6 3d bb 3b 7a ee bb c2 c3 0d bd fb 7c 29 3d
       -0.002897642 -0.0072777546 -0.034610517 0.041378956

fc3.weight f4 [1, 300]
000000 74 76 99 3b 7a 09 99 3c b5 a1 24 3c c2 64 07 bb
       0.00468331 0.018681277 0.01004832 -0.0020659422
000010 ca bc 6c bc 63 20 a3 ba 8d 32 46 bb 6e 17 cb 3a
       -0.014449308 -0.0012445565 -0.0030242533 0.0015494653
000020 bc 3e f9 ba 4a 58 24 bc fa a3 52 3c 63 e9 ca 3c
       -0.0019015889 -0.010030815 0.012856478 0.02476949
000030 87 03 16 3b 54 f2 8c 3a 33 9c 0e 3d ca 8c ed 3b
       0.0022890286 0.0010753372 0.034816932 0.0072494494
000040 1f 68 f4 bb 32 67 9d 3b 07 6d 6a bb 3b 67 18 3d
       -0.0074587013 0.0048035616 -0.0035770552 0.037207823
000050 d2 9e 09 3b 4b 8f 7b 3c 8c 2c d1 bb 64 6e 10 3c
       0.0020999205 0.015353988 -0.006383484 0.008815382
000060 da 59 9c bb f1 06 a4 3c 28 a0 aa 38 60 2a 8e bb
       -0.0047714533 0.020022841 8.136063e-05 -0.0043385476
000070 6e 76 05 bc c7 6c 65 3a f2 14 b9 3b 63 41 be ba
       -0.008145912 0.0008751866 0.005648249 -0.0014515336
000080 0e c9 6d bb f9 35 37 3b a3 22 49 bb aa 46 9e ba
       -0.0036283168 0.0027955754 -0.003069081 -0.0012075503
000090 f6 2c cb ba e8 25 7f bb 2b 6f 9c 3b 63 32 d9 ba
       -0.001550107 -0.0038932506 0.0047739944 -0.0016570803
0000a0 a8 9e 95 3a 1d a7 2f bb 7f c8 8b bb 6d 5d a2 3a
       0.0011415081 -0.0026802488 -0.0042658444 0.0012387462
0000b0 1f 54 c3 3a f4 f0 89 3c d6 ee 01 3b 61 52 bf 3a
       0.0014902389 0.016838528 0.0019826195 0.0014596694
0000c0 79 35 89 bb 1c 00 ae bb d9 cc ec ba 28 a2 d0 ba
       -0.0041872826 -0.0053100716 -0.001806642 -0.0015917467
0000d0 84 1b e0 ba bb 25 fe 3a 6d 78 7e bb 0f 14 25 ba
       -0.0017098044 0.0019389907 -0.0038829104 -0.00062972395
0000e0 e7 57 1f bb fe c5 d7 3d b1 7f 0f bc 23 aa af bb
       -0.0024313868 0.10535811 -0.008758471 -0.005360858
0000f0 90 4b f6 3a 13 b6 9e 39 9f 00 15 3b 23 2c 7f 3c
       0.001879083 0.00030271764 0.0022735966 0.015574488
000100 cd b1 0a bc 8a ad f0 ba 6b c7 ca ba 87 b5 41 3a
       -0.008465243 -0.0018362266 -0.0015470808 0.00073894154
000110 c3 d3 ae 39 43 14 84 3b d7 03 6c bb fb d4 a0 3b
       0.0003334564 0.0040307357 -0.003601303 0.0049082018
000120 01 28 86 3b c9 6c 09 bd 1a 47 b3 3b ca 3f a3 3a
       0.0040941243 -0.03355101 0.0054711225 0.0012454924
000130 11 c9 dc bc db 5d 27 3a ef d7 e5 ba cf 1e 37 bb
       -0.026951345 0.000638453 -0.0017535667 -0.0027941947
000140 5e fd 68 3c bf aa de b8 99 19 7a ba 6f 33 46 3d
       0.014220564 -0.00010617589 -0.00095405575 0.048388895
000150 38 a5 8c 3b 5c 40 cd ba a9 d9 9d ba ed d3 11 bb
       0.0042921565 -0.0015659439 -0.0012043017 -0.0022251562
000160 f1 01 28 bb 04 34 81 bb 83 f0 ff bb 60 50 b0 bb
       -0.0025635923 -0.0039429683 -0.0078106537 -0.005380675
000170 3d c7 8f 3b d1 f7 44 bd 63 0a 88 bd 66 fa 73 ba
       0.0043877647 -0.0480879 -0.06642606 -0.00093070266
000180 88 2a ae ba 88 62 98 3b 28 e9 45 ba bd d5 1a 3c
       -0.0013287822 0.0046504177 -0.00075496966 0.009450373
000190 39 2f 4f bb a6 94 52 3d 39 1b dc 3a 36 30 1d bb
       -0.003161384 0.051411293 0.0016792781 -0.0023985035
0001a0 cb c2 b4 3b 83 ba d2 3b 4f 9c c1 bb 0e a8 83 3a
       0.005516385 0.0064309253 -0.005908526 0.0010044591
0001b0 a1 a8 d4 3b 67 f5 20 ba e1 82 1d bc 94 3b 8f bb
       0.0064898287 -0.00061400834 -0.0096137235 -0.004371116
0001c0 2e d5 46 3b 8a b4 89 bb 05 b4 11 3d 9c 6f 8f 3a
       0.0030339467 -0.00420243 0.03557207 0.0010943296
0001d0 81 10 4b bc 76 08 80 bb fe 13 0b 3c 9a 15 d8 3b
       -0.012394072 -0.0039072586 0.008488653 0.006594372
0001e0 31 35 ae b8 3b cc 0d bb 67 77 aa 3b de 89 51 bb
       -8.306874e-05 -0.0021636623 0.005202222 -0.0031973044
0001f0 cd 96 ed 39 69 14 fe 39 8d 5d 99 3a 7e 89 8a bb
       0.00045316518 0.00048461862 0.0011700854 -0.004227816
000200 1e 7c a4 3b 35 6e 86 bc f4 ef ac 3b 9a 06 9a bc
       0.0050196787 -0.016409973 0.005277628 -0.018801976
000210 e7 55 f9 39 3e 77 b6 ba 05 9b c0 3b d0 06 b1 3b
       0.00047556983 -0.0013921035 0.005877855 0.0054024234
000220 d6 73 23 bb 0f 7c f4 3a b9 66 f0 3a b3 17 55 bb
       -0.002494087 0.0018652695 0.0018341161 -0.0032515347
000230 77 71 f9 bb cc f3 4c 3c b4 f7 3a bb 68 95 ad 39
       -0.007612403 0.012509298 -0.002852899 0.00033108448
000240 e1 b3 3b bb ff 71 ca bc a8 cc 23 3c 2d 67 71 b9
       -0.0028641152 -0.02471256 0.009997524 -0.00023021987
000250 f7 dd bf ba 11 18 a1 3a 51 67 34 bc 96 f3 aa 3b
       -0.0014638294 0.0012290498 -0.011010961 0.005217026
000260 61 95 07 3b 02 e1 fd 3a 69 9e ae 3b 26 6e 34 bb
       0.0020688402 0.0019369426 0.0053289426 -0.0027531474
000270 d3 a1 d9 b9 07 a8 fb b9 43 cf bf 39 bd 89 22 bb
       -0.00041510034 -0.0004799964 0.0003658478 -0.0024801337
000280 a7 90 43 3a 38 81 af ba 94 aa c0 3b 1a fa 20 b9
       0.00074602145 -0.0013389951 0.0058797095 -0.00015351959
000290 1d b1 bb 3c db 59 ce bb 3c 7b 7b ba cb 2d 9e 3b
       0.022911603 -0.0062973327 -0.00095932535 0.0048272363
0002a0 96 fc 8a 3a 95 a6 3c bb 3c 08 bc 3b e8 7f 9b 38
       0.0010603841 -0.0028785814 0.0057382863 7.4148e-05
0002b0 82 9e e1 bb d7 ff 99 3c 8a 0b 70 3c af b3 cb bb
       -0.0068853507 0.018798752 0.014651189 -0.0062164883
0002c0 9f 38 66 3b 14 40 db 3a bd 9b 13 bd 17 1f 00 bb
       0.0035128964 0.0016727471 -0.036037195 -0.001954978
0002d0 ab ec cd 3a 29 63 c3 bb 93 7f 40 bb d4 4d 97 b9
       0.0015710791 -0.0059627485 -0.0029372915 -0.0002885895
0002e0 b0 42 f8 3b ff 12 8e 3a df 30 a8 bb 07 66 05 bb
       0.007576309 0.0010839402 -0.005132779 -0.0020355002
0002f0 f2 e5 a9 ba 71 f6 62 bb f1 91 ba ba d0 85 95 bb
       -0.0012962206 -0.0034631754 -0.0014234168 -0.004563071
000300 c0 89 1e bb 86 dd 53 3a e7 4a 0d bb 57 2b 1e 3c
       -0.0024190992 0.0008082021 -0.0021559538 0.009653888
000310 61 f5 89 3b e2 ad 73 bb ee ef c8 3a 06 04 bc bb
       0.0042101596 -0.00371825 0.0015330294 -0.0057377843
000320 16 f8 da 3b 5f 1e 83 3b 69 80 60 bb 0c 59 c5 3c
       0.006682406 0.0040014233 -0.0034256226 0.024090312
000330 e9 51 79 bb 3c bf 86 3a 5e cd 7c 3b 14 45 dd ba
       -0.0038043207 0.0010280381 0.0038574557 -0.0016881549
000340 ef dd 94 ba ca b9 23 bb e2 e3 2c 3c 76 4f a3 bb
       -0.0011357645 -0.0024982565 0.010552378 -0.0049838377
000350 5e c9 f7 3d 14 37 e0 ba 88 3b 32 3b 99 04 f2 3a
       0.120989546 -0.0017106258 0.0027196128 0.0018464505
000360 bd 53 ba bc 63 21 fc bb 20 62 15 ba 5c c8 93 b9
       -0.022745008 -0.0076944097 -0.00056985207 -0.00028187304
000370 ed 36 0a bb 49 f5 9c 3b b8 fc e2 3c db d6 ed bb
       -0.0021089867 0.0047899825 0.027708396 -0.007258279
000380 fb 34 9c 3c d3 99 a3 bb 77 4a 66 bb c1 d1 63 3c
       0.019068232 -0.0049927025 -0.00351396 0.01390499
000390 d6 ad 34 3c f7 a9 9b bb 99 c2 4a bb e0 af 83 3b
       0.011027774 -0.004750486 -0.0030938743 0.0040187687
0003a0 b0 b0 3f 3b 12 d2 0e bb e2 b8 65 3b 88 f2 a6 bb
       0.00292496 -0.0021792692 0.0035052826 -0.00509483
0003b0 15 e0 a4 3a 11 6b 08 3b b7 b1 d3 3b 6e ba 09 3b
       0.0012578989 0.002081577 0.0064603942 0.0021015662
0003c0 c6 e0 00 bb 37 4d c8 bb a3 9f 76 3a 31 a5 24 bc
       -0.0019665225 -0.0061127204 0.0009407943 -0.01004915
0003d0 00 01 75 ba b2 1b bc ba 9b f0 3c 3c 2c e0 17 bb
       -0.00093461573 -0.0014351516 0.011531974 -0.0023174388
0003e0 95 32 8b 3d d9 c0 8b bb ee a5 59 bc b9 cb 70 bb
       0.06796757 -0.0042649326 -0.01328419 -0.0036742522
0003f0 ff 65 e6 3a 7a e2 f1 ba 9f 02 5e 3b 3a 0b 1b bb
       0.0017578005 -0.0018454336 0.0033876074 -0.0023657815

bn1_state.weight f4 [400]
000000 f4 5d b3 3e c3 74 91 3d 18 0c 34 3f 0b fd 3d 3e
       0.35032618 0.07102349 0.70330954 0.1855356
000010 d2 bb 02 3f 21 da a0 3c f1 a3 46 3f fe 62 c7 3e
       0.5106784 0.019635262 0.77593905 0.38942713
000020 20 a7 4b 3f f9 11 6e 3f e0 da 4c 3f 26 10 e7 3e
       0.7955189 0.92996174 0.80021477 0.45129508
000030 d8 57 73 3f 87 8d 53 3f 68 a2 6f 3f da 1b 7a 3f
       0.95055914 0.8263783 0.9360719 0.9769875
000040 9f c1 09 3f 8d 22 c9 3e 79 1f d4 3e 3f c3 05 3f
       0.5381107 0.39284173 0.41430262 0.52251047
000050 98 ea a8 3e 45 2f b6 3e db 33 61 3f c2 f1 a9 3e
       0.3299148 0.3558294 0.8796975 0.3319226
000060 33 e4 51 3f 8f 76 57 3f 66 2e a2 3d 47 0f a1 3e
       0.8198883 0.8416528 0.07919006 0.31456968
000070 a9 c5 02 3f 53 2b 7e 3f f1 d3 65 3e 14 44 4c 3f
       0.51082855 0.9928486 0.2244413 0.7979138
000080 a3 d0 ce 3c 1d be 65 3f 85 8e d6 3c 21 ea 40 3f
       0.02524597 0.89743215 0.026191005 0.7535725
000090 52 fc 62 3d 72 86 f1 3c f4 f0 31 3f 7c f1 8c 3e
       0.055416413 0.029483054 0.6950829 0.27527988
0000a0 b0 9e 11 3f 20 95 03 3f a1 29 0d 3f b6 c7 6e 3f
       0.5688276 0.5139942 0.55141646 0.93273485
0000b0 19 5d f3 3e 86 fc 3b 3f 4d 99 86 3e d1 16 e7 3e
       0.47531965 0.73432195 0.26288834 0.45134595
0000c0 f8 6c 34 3f 4b 1e 40 3e 7f ed 13 3e 53 3b 72 3f
       0.70478773 0.18761556 0.14446066 0.9462177
0000d0 46 22 19 3f 44 94 d1 3d 1f e4 3e 3f 4e 70 07 3f
       0.5981792 0.102333575 0.74566835 0.5290574
0000e0 12 1e 4a 3f 40 d9 0d 3e 17 ea 79 3f 63 f7 4b 3f
       0.78952134 0.13852406 0.9762282 0.7967436
0000f0 00 44 6b 3f 2e c9 a8 3e 40 39 12 3f a5 c1 6e bc
       0.91900635 0.32965988 0.57118607 -0.014572536
000100 8b 12 e2 3e 80 cf 27 3f bf 71 46 3e 1a 43 27 3f
       0.44154772 0.65550995 0.19379328 0.65336764
000110 07 e5 25 3f 8f 3c 77 3f 80 c6 85 3e 8e 16 48 3e
       0.64802593 0.9657678 0.26128006 0.19539854
000120 7c 14 58 3e 8b a6 6f 3f a1 aa 52 3f 63 39 53 3f
       0.21101564 0.936135 0.8229161 0.8250944
000130 25 ba 4c bc cd 63 28 3f 9e 48 60 3f 52 b9 2b 3f
       -0.012495552 0.65777284 0.87610805 0.6707965
000140 b9 f6 51 3f 67 5c 35 3f f7 b7 82 3e 8c 61 d9 3e
       0.82017094 0.7084412 0.2553098 0.42457235
000150 3d a9 80 3c fb ef 56 3f 2a 9e 67 3f b7 9c 26 3f
       0.0157057 0.8395993 0.90475714 0.6508288
000160 bb 46 60 3f 67 5d fa 3d a4 e5 4e 3f 49 ec 12 3e
       0.87607926 0.12224846 0.80819154 0.14347948
000170 d8 ba 13 3e 94 ae cc 3c e8 0c 03 3f 5d d7 66 3f
       0.14426744 0.02498559 0.5119157 0.9017237
000180 6e 0a 01 3d 14 2f 56 3f f7 01 4e 3f 1a 35 57 3f
       0.031504087 0.83665586 0.8047175 0.840654
000190 cc 49 1b 3f 24 a2 90 3c 21 80 a4 3e 57 b9 3a 3f
       0.6065948 0.01765544 0.32129005 0.72939056
0001a0 46 9b 90 3e 38 ad 02 3f 5f bd f9 3c 64 65 49 3f
       0.28243464 0.5104556 0.030485807 0.78670335
0001b0 92 c2 17 3f 71 1c 22 3f 34 01 44 3f 8a c7 1a 3f
       0.59281266 0.6332465 0.76564336 0.6046072
0001c0 39 58 0c 3f f7 cb 10 3f af 30 f5 3e 77 51 13 3f
       0.5482212 0.56561226 0.47888705 0.5754618
0001d0 28 a9 b1 3a b1 ba 89 3e 38 18 66 3e 10 53 de 3e
       0.0013554441 0.26900247 0.22470176 0.43422747
0001e0 43 50 39 3f 21 1c 6f 3f fe 5a 11 3f 2f c1 d4 3d
       0.72388095 0.93402296 0.5677947 0.10388409
0001f0 8c a5 df 3e da af 70 3f 0e 09 06 3f 0b 7c aa 3d
       0.4368099 0.9401833 0.52357566 0.083244406
000200 a1 97 d1 3e ee 6e e3 3e d6 bb 0d 3f be 6c 52 3f
       0.40935996 0.4442057 0.5536474 0.8219718
000210 e5 6a 98 3e 1f 65 7d 3f e9 84 7e 3f b5 f1 58 3e
       0.29769054 0.98982424 0.99421555 0.21185954
000220 ba 23 ee 3e 5b 66 8c 3c eb fe 56 3f 8d 3c e8 3e
       0.46511632 0.01713865 0.83982724 0.45358697
000230 19 18 92 3e 9c 38 79 3f 7d 72 5b 3f 8f 0f 51 3f
       0.2853401 0.97352004 0.8572157 0.81664366
000240 3a 3d 6a 3f 78 18 5c 3f e2 41 65 3f 07 bd 20 3e
       0.91499674 0.85974836 0.89553654 0.15697108
000250 c8 61 09 3f 23 11 4b 3e 16 aa 56 3f e7 f7 dd 3d
       0.5366483 0.19830756 0.8385328 0.10838299
000260 86 ac 75 3e a6 bb 90 3e 68 05 6b 3f 1b c9 77 3f
       0.23991594 0.28268164 0.91805124 0.9679124
000270 50 ce 4f 3f b5 44 82 3e 4f fe 4c 3f 84 47 7c 3f
       0.8117418 0.25443044 0.80075544 0.98546624
000280 7a f5 99 3e 52 f8 79 3f 45 89 34 3e de 8e b2 3c
       0.30070096 0.9764453 0.17630489 0.02179664
000290 cc 39 47 3f 3f 78 7b 3f 54 1a 2b 3e cb 57 09 3f
       0.77822566 0.98230356 0.16709262 0.53649586
0002a0 cd d7 aa 3d ca e5 48 3f c1 dc 36 3f 18 bb 53 3e
       0.08341942 0.7847563 0.71430594 0.2067684
0002b0 d2 93 a3 3e 79 70 0a 3e 23 b7 0d 3f 61 3b 75 3e
       0.31948715 0.13519467 0.5535757 0.23948433
0002c0 95 de 21 3f b5 37 70 3e 0e 0b 0a 3e f4 7f 33 3f
       0.6323026 0.2345875 0.1348078 0.70117116
0002d0 fa 37 a4 3d e2 4b 10 3f 3f 0f 6d 3f 74 94 85 3e
       0.08018489 0.5636579 0.9260139 0.26089823
0002e0 8b 18 70 3f 74 5e 76 3a b2 8e 3e 3f d7 f4 0e 3e
       0.9378745 0.000939823 0.74436486 0.13960586
0002f0 fe ef 31 3f 50 db 41 3f 98 f3 99 3d 4b 83 22 3f
       0.69506824 0.7572527 0.07517165 0.6348159
000300 82 a4 15 3e 34 76 a9 3e 17 20 ae 3e cc b2 ae 3e
       0.14613536 0.33097994 0.34008858 0.34120786
000310 18 ac 2a 3f e3 5f 9a 3d 81 79 c5 3e a2 ed 3b 3e
       0.66668844 0.0753782 0.38569263 0.18352368
000320 4f 10 94 3d fd d0 1a 3f 82 34 3b 3e f7 cd 62 3e
       0.07229673 0.6047514 0.18281749 0.22148882
000330 15 50 6e 3f e8 2d 07 3f 96 b5 e4 3e 32 4d 79 3f
       0.93090945 0.5280442 0.4466979 0.97383416
000340 a6 75 e7 3e ac 65 42 3f e1 19 5d 3c eb 7e 9f 3e
       0.45206946 0.7593639 0.01349494 0.31151518
000350 d9 a3 03 3e 11 0d 08 3f d2 fd 3f 3f 09 59 e2 3e
       0.12855472 0.5314494 0.74996674 0.44208553
000360 1a e3 62 3f 95 75 4d 3e e1 8e 84 3e e3 d8 79 3e
       0.8862778 0.20064385 0.25890258 0.24399142
000370 b8 60 6b 3c 34 e0 64 3f 77 56 7b 3f 90 42 04 3f
       0.014366321 0.89404607 0.9817881 0.51664066
000380 fd 9c 6d 3f dc f9 9e 3e fb b0 bd 3e 4d a3 34 3f
       0.9281767 0.31050003 0.37049088 0.7056168
000390 bd 1f 79 3f be 33 51 3e 6a 28 de 3d 83 02 63 3d
       0.97314054 0.20429894 0.10847552 0.055422317
0003a0 16 c5 4b 3f 2d ad 7d 3f 6b 9c 8a 3e 7d 47 30 3f
       0.79597604 0.9909237 0.27072462 0.6885908
0003b0 27 9e 3b bb 71 39 27 3f 17 da 5c 3f e9 81 ad 3e
       -0.0028628202 0.65322024 0.8627028 0.33888176
0003c0 f9 90 9c 3e 39 e4 56 3e f1 09 0c 3f 6a 1b b3 3d
       0.30579355 0.20985498 0.5470267 0.08745463
0003d0 1d 95 98 3d c7 03 07 3f 94 b4 d7 3e a2 a0 07 3f
       0.07450316 0.5274014 0.42129958 0.5297948
0003e0 1e e4 c5 3e 5e 94 fe 3e 86 d0 1a 3f d3 93 46 3f
       0.38650602 0.4972257 0.6047443 0.7756931
0003f0 f9 8c 6f 3e 70 68 f8 3e 21 4b 52 3d dd 56 1b 3f
       0.2339362 0.4851718 0.05134118 0.6067942
