collaboration_competition/outputs/exp_7/actor_1000.pth (torch_old, 536747 bytes, 14 tensors)

fc1.weight f4 [400, 24]
0.027702754 -0.036508575 0.018541524 0.034634348 -0.056573883 -0.078420684 -0.03808225 0.04891361
0.0151375495 -0.06054471 -0.072159395 -0.00908179 0.03962635 -0.05646266 -0.021298831 0.001350125
0.030550784 -0.02748768 0.028417427 -0.05954618 0.038480565 -0.092419155 0.027458027 0.013217069
0.014542578 -0.12147872 -0.024258278 -0.007497325 0.0544633 0.037016317 0.0046530417 -0.05958951
0.06588822 -0.099630795 -0.005008934 0.002870533 -0.02221802 0.012270538 -0.009431703 0.007585342
0.06907919 -0.07174531 0.021282088 0.06930186 -0.058019836 0.087759614 0.006332144 -0.006817699
-0.0037177056 0.0750416 0.02909107 -0.01768452 0.020661442 -0.022249987 0.037268043 0.04002497
-0.028195206 0.048491642 -0.03841655 0.035387646 -0.0044248635 -0.030056428 0.03216146 0.065720566
-0.021228513 0.030755144 0.047984086 0.05673601 -0.009127678 -0.022369515 0.08733519 0.035339
0.05785359 0.030574257 -0.015697757 0.0063887704 -0.077079765 -0.05357318 -0.065504774 0.07365697
-0.018463816 0.0146791795 0.02615524 -0.010461012 -0.049323425 -0.12549405 -0.0009814489 0.010872984
0.02528998 0.013425924 -0.041962832 -0.06716604 -0.045669757 -0.014425906 -0.03822188 -0.10080608
0.021347485 0.052745875 -0.020272383 0.031149408 0.049492337 0.03987561 -0.056683052 0.02754469
0.025469465 0.045063626 0.0006256843 -0.037774306 0.06547004 0.035649046 -0.073075496 0.028278675
0.05104289 -0.03869392 0.02054177 0.06946437 0.013563647 0.03438265 -0.024783147 0.06731944
0.0035823272 0.10654933 -0.048545808 -0.034494337 0.07574487 0.04292753 -0.016314153 0.01140206
0.056155887 0.055349316 0.0152133 0.036422912 0.030275447 -0.0047043366 0.05169858 -0.017798252
0.06542118 0.06921151 -0.0018726086 0.0107266465 0.07011292 -0.04696772 -0.026054146 -0.010278577
0.04220466 0.062080815 0.01967665 0.09927282 0.094426565 -0.062432498 -0.030596273 0.051464703
0.0024595878 0.00975508 0.027296871 -0.008078005 0.016885675 -0.07313584 -0.046805885 0.059026945
0.009544338 -0.011920642 -0.024610244 0.018443508 -0.05504331 -0.07205979 0.013583792 0.03445904
0.033845883 0.023960037 0.016695118 0.058231715 0.020007553 0.1119845 -0.016385429 0.0005076161
-0.026407514 -0.017746352 -0.020978775 0.026689125 0.07435036 0.0468059 0.002830998 -0.0033278016
0.04630106 0.03143463 0.032665037 0.032317206 0.106828585 -0.091543354 -0.008660057 -0.034901764
0.085230336 0.07862574 -0.03464858 -0.025645377 -0.0045169294 0.015131203 -0.04154378 -0.046924878
0.07393783 0.106177576 -0.01811279 0.06634271 8.0198544e-05 0.009291835 0.021208063 0.031424552
-0.0098213265 0.10706765 0.0036869594 -0.07800137 0.039903153 0.03402565 0.02279382 -0.067991994
0.022391682 0.0134849055 -0.039900284 -0.021903079 0.070944786 0.11314108 0.038322378 -0.046699077
0.05195214 0.016108993 -0.016435485 -0.0020025931 0.027486805 0.019518074 -0.017460631 -0.04492283
0.04831431 -0.020367026 9.1363225e-05 0.061840322 0.029352937 0.035662178 -0.0010744992 -0.021840528
-0.007105273 -0.1041204 0.019871576 0.016874282 -0.0075713396 -0.18078056 -0.031521264 -0.037565757
-0.027489971 -0.09044802 0.0073295287 -0.09955493 0.06039448 -0.06634272 -0.029782385 -0.067233704
00000000: e3f0 e23c 048a 15bd 65e4 973c bfdc 0d3d
00000010: 04ba 67bd 069b a0bd 22fc 1bbd a359 483d
00000020: 7c03 783c bbfd 77bd 4ec8 93bd cacb 14bc
00000030: 3d4f 223d 6445 67bd e37a aebc adf6 b03a
00000040: a345 fa3c d82d e1bc aacb e83c b2e6 73bd
00000050: cc9d 1d3d 4146 bdbd a8ef e03c 688c 583c
00000060: fe43 6e3c d6c9 f8bd 4cb9 c6bc 1fac f5bb
00000070: e914 5f3d 6c9e 173d 8b78 983b 2114 74bd
00000080: 67f0 863d 3b0b ccbd fc21 a4bb 8d1f 3c3b
00000090: 9102 b6bc 5e0a 493c 6e87 1abc 768e f83b
000000a0: 6479 8d3d 35ef 92bd c657 ae3c 22ee 8d3d
000000b0: 35a6 6dbd 50bb b33d e07d cf3b 0167 dfbb
000000c0: c0a4 73bb 69af 993d 6550 ee3c 20df 90bc
000000d0: 2f42 a93c 9b45 b6bc 60a6 183d 39f1 233d
000000e0: a2f9 e6bc 2c9f 463d ac5a 1dbd a3f2 103d
000000f0: 72fe 90bb e638 f6bc bcbb 033d 8198 863d
00000100: 6be7 adbc 36f2 fb3c f68a 443d 0564 683d
00000110: 428c 15bc 4640 b7bc cbdc b23d a1bf 103d
00000120: e3f7 6c3d dd76 fa3c 9598 80bc e458 d13b
00000130: ffdb 9dbd 8d6f 5bbd 5e27 86bd 77d9 963d
00000140: 6e41 97bc f180 703c 8443 d63c aa64 2bbc
00000150: 5c07 4abd 8381 00be f6a3 80ba 9a24 323c
00000160: ef2c cf3c 68f8 5b3c 38e1 2bbd 598e 89bd
00000170: 3610 3bbd a35a 6cbc 8c8e 1cbd 6b73 cebd
00000180: ece0 ae3c 0f0c 583d 4512 a6bc 0b2d ff3c
00000190: 7ab8 4a3d 9c54 233d 7d2c 68bd 67a5 e13c
000001a0: 57a5 d03c a394 383d f604 243a 3bb9 1abd
000001b0: 2815 863d bc04 123d 9ba8 95bd aea8 e73c
000001c0: 5912 513d 847d 1ebd 3747 a83c 5643 8e3d
000001d0: 0f3a 5e3c d2d4 0c3d 0706 cbbc c6de 893d
000001e0: 7ac5 6a3b 8936 da3d f8d7 46bd ef49 0dbd
000001f0: 2020 9b3d c7d4 2f3d 42a5 85bc b5cf 3a3c
00000200: b703 663d f7b5 623d 3441 793c 3130 153d
00000210: 3704 f83c d626 9abb e4c1 533d a4cd 91bc
00000220: 8afb 853d c4be 8d3d 5172 f5ba d1be 2f3c
00000230: 5d97 8f3d 3961 40bd 816f d5bc 7a67 28bc
00000240: cbde 2c3d 7448 7e3d ed30 a13c 8c4f cb3d
00000250: b762 c13d 38b9 7fbd 09a5 fabc a7cc 523d
00000260: 0931 213b c5d3 1f3c b09d df3c 9c59 04bc
00000270: d453 8a3c 3ec8 95bd 87b7 3fbd 3dc6 713d
00000280: db5f 1c3c cc4e 43bc 6c9b c9bc d716 973c
00000290: 1875 61bd 1594 93bd 8e8e 5e3c ec24 0d3d
000002a0: fba1 0a3d d747 c43c 33c4 883c 6184 6e3d
000002b0: e1e6 a33c 2158 e53d bc3a 86bc 8a11 053a
000002c0: 9254 d8bc cc60 91bc aedb abbc 27a3 da3c
000002d0: 0045 983d 8bb7 3f3d 4488 393b 3f17 5abb
000002e0: 2ea6 3d3d 99c1 003d c6cb 053d 0c5f 043d
000002f0: f2c8 da3d 157b bbbd e9e2 0dbc 27f5 0ebd
00000300: 3e8d ae3d 8806 a13d abeb 0dbd 4116 d2bc
00000310: c002 94bb dee8 773c d029 2abd 4d34 40bd
00000320: b86c 973d a173 d93d 4661 94bc b0de 873d
00000330: 4430 a838 c83c 183c 88bc ad3c 08b7 003d
00000340: a1e9 20bc 4946 db3d eaa0 713b 2fbf 9fbd
00000350: 7d71 233d 7b5e 0b3d 1bba ba3c 633f 8bbd
00000360: c36e b73c cbef 5c3c 7b6e 23bd 166e b3bc
00000370: 804b 913d 83b6 e73d edf7 1c3d 8847 3fbd
00000380: c4cb 543d 02f7 833c b6a3 86bc f03d 03bb
00000390: 022c e13c 5ee4 9f3c 9909 8fbc 0001 38bd
000003a0: 3ae5 453d c0d8 a6bc 429a bf38 474c 7d3d
000003b0: 9275 f03c 8112 123d 36d6 8cba e8ea b2bc
000003c0: 5ad3 e8bb 143d d5bd b7c9 a23c ef3b 8a3c
000003d0: 0019 f8bb 8a1e 39be 711c 01bd 8dde 19bd
000003e0: a632 e1bc d03c b9bd 8b2c f03b 75e3 cbbd
000003f0: 3460 773d b1de 87bd 30fa f3bc d3b1 89bd

fc1.bias f4 [400]
0.17977868 0.03324875 -0.048889425 0.074757144 -0.010575374 -0.04282377 -0.03217218 -0.16247925
-0.09003561 -0.27294883 -0.0030201757 -0.20592266 -0.002169579 -0.08171099 0.013632009 -0.15694505
0.014888277 -0.14223991 -0.12211668 0.14020248 -0.23191105 0.050984412 -0.060966276 -0.14871278
-0.23952436 -0.24813545 -0.08101042 0.15413246 -0.055257663 -0.19964688 0.11206276 0.10655311
0.06020605 0.16280334 0.10113231 -0.06548003 0.114799745 -0.18099979 -0.061897255 -0.18149823
-0.13207184 -0.14690822 0.09354611 -0.16390881 0.06528569 0.11547324 0.060349688 -0.07332141
0.2126727 -0.33694884 0.17904523 -0.18582414 0.1797538 0.023873372 -0.23228432 -0.02196248
-0.13351904 0.15814152 0.15553586 0.08477955 0.16569102 0.14202318 -0.16760729 0.018077727
-0.011446614 0.13142079 0.005733542 -0.0046529127 0.12868129 -0.08739672 -0.14320935 -0.18875208
0.14660719 -0.014496976 -0.16239107 0.044309262 -0.08258472 -0.17501396 0.14729783 0.12745807
0.1835861 -0.017127777 -0.20974211 -0.22703406 0.031207459 -0.20683675 0.114640206 -0.21192586
-0.12669711 -0.026171627 0.048429843 -0.089524485 -0.07210454 -0.10134606 -0.09048764 -0.030124852
-0.22762755 -0.076929234 -0.027683847 -0.026887964 0.14830087 -0.16937482 0.053205773 0.08945408
-0.061075058 -0.122670114 0.06745368 -0.1799548 -0.08737141 -0.05084771 -0.08449439 -0.2511598
0.108949736 0.17815676 -0.2495551 0.010237872 -0.25209752 -0.085429855 -0.073410176 0.11774568
0.15916882 0.026081111 -0.0015726275 -0.22768554 -0.059099372 0.13542126 0.02578941 -0.08863256
-0.11718875 0.050392266 0.102382004 -0.041069385 0.05167214 0.0924138 0.10862804 0.11556377
0.13747917 0.038894266 0.08543468 -0.26375103 -0.045905273 -0.102084264 -0.019591054 -0.14067331
-0.21641222 0.095832825 -0.13963863 -0.21857804 -0.17459576 0.06370614 -0.049839336 -0.21790378
0.03226088 0.09511092 0.11140217 -0.22592726 -0.015516797 -0.073583424 -0.086439796 -0.031214539
0.17656058 -0.032103043 0.05578438 -0.0390604 -0.06385403 -0.061350178 0.06834427 0.0924905
-0.0898391 -0.09195939 -0.21265496 -0.1021289 -0.043295838 0.062142327 -0.10499845 0.105833896
-0.19402258 0.047770347 -0.17440566 -0.0021101572 0.11084089 -0.05356632 -0.14358896 -0.2197435
-0.088505134 -0.059928544 -0.18834588 0.08130331 0.002369749 -0.009656484 0.111091994 -0.22473073
0.08635346 0.1633922 0.015294742 0.10399106 -0.13345253 -0.19204825 0.14437017 -0.21216953
-0.11534631 0.1928902 -0.1553486 -0.08224637 -0.17044316 0.058602747 -0.075715125 0.056442294
0.15218024 -0.22105409 0.0938804 -0.068045236 -0.22664924 0.06807044 -0.15522361 0.11800109
0.02229038 -0.1481621 -0.17659259 0.010133921 -0.14683613 0.06647266 0.00021877803 -0.17973815
0.10639531 -0.21713476 0.005461491 -0.10982713 0.036328223 -0.20180865 -0.10685741 -0.078871936
-0.075793445 -0.028783416 -0.14956062 0.07030105 -0.0038666434 -0.19892034 0.0824588 0.15227239
0.11585109 0.049027056 -0.05968198 -0.17918684 0.05018517 0.11712393 -0.00698884 0.01640389
-0.14071308 -0.26333433 -0.18642783 -0.22766992 0.072613806 0.10924474 -0.060107972 -0.084327176
00000000: e717 383e d72f 083d 4740 48bd 461a 993d
00000010: 5544 2dbc fa67 2fbd fac6 03bd f660 26be
00000020: 9764 b8bd f3bf 8bbe 24ee 45bb 64dd 52be
00000030: 7f2f 0ebb 1758 a7bd ca58 5f3c 34b6 20be
00000040: f6ed 733c 57a7 11be 4f18 fabd 3d91 0f3e
00000050: 177a 6dbe 08d5 503d c6b7 79bd 2a48 18be
00000060: e045 75be 3817 7ebe cbe8 a5bd e6d4 1d3e
00000070: dc55 62bd 3b70 4cbe 2981 e53d 8438 da3d
00000080: 9e9a 763d ebb5 263e 751e cf3d 651a 86bd
00000090: 211c eb3d 0258 39be fa87 7dbd acda 39be
000000a0: d73d 07be 1c6f 16be 1a95 bf3d b6d7 27be
000000b0: 81b4 853d 3c7d ec3d 3c31 773d 8929 96bd
000000c0: dfc6 593e 8f84 acbe a257 373e af48 3ebe
000000d0: 6111 383e 1792 c33c f1db 6dbe a9ea b3bc
000000e0: 37b9 08be daef 213e cb44 1f3e e7a0 ad3d
000000f0: e8aa 293e 866e 113e 3fa1 2bbe be17 943c
00000100: 948a 3bbc 2c93 063e 70e0 bb3b 7677 98bb
00000110: 07c5 033e 0dfd b2bd 79a5 12be 3a48 41be
00000120: 3220 163e b984 6dbc d849 26be a17d 353d
00000130: 2d22 a9bd dc36 33be 3ed5 163e 5e84 023e
00000140: fffd 3b3e 8d4f 8cbc a3c6 56be 9e7b 68be
00000150: c9a6 ff3c 03cd 53be 7cc8 ea3d 1803 59be
00000160: e3bc 01be e165 d6bc 5f5e 463d 9d58 b7bd
00000170: 8cab 93bd 868e cfbd 9551 b9bd 65c8 f6bc
00000180: 3217 69be 138d 9dbd 3cc9 e2bc 2644 dcbc
00000190: 2fdc 173e 9870 2dbe 4cee 593d b333 b73d
000001a0: d729 7abd 783a fbbd 2825 8a3d 1246 38be
000001b0: c8ef b2bd b045 50bd 650b adbd 0498 80be
000001c0: 0a21 df3d ba6e 363e 5f8b 7fbe bfbc 273c
000001d0: ed12 81be d9f5 aebd 1358 96bd a624 f13d
000001e0: 27fd 223e 0ea8 d53c 9f20 ceba 6626 69be
000001f0: 2f12 72bd dfab 0a3e 5044 d33c fd84 b5bd
00000200: a800 f0bd 1f68 4e3d a8ad d13d 5f38 28bd
00000210: 2aa6 533d 7243 bd3d 6178 de3d b3ac ec3d
00000220: 57c7 0c3e 984f 1f3d 61f8 ae3d 600a 87be
00000230: 2b07 3cbd 8e11 d1bd 6b7d a0bc aa0c 10be
00000240: 2a9b 5dbe 0044 c43d 6efd 0ebe ecd2 5fbe
00000250: 3bc9 32be 5d78 823d 5524 4cbd 2b22 5fbe
00000260: fc23 043d 84c9 c23d d226 e43d 7a59 67be
00000270: 2a3a 7ebc e8b2 96bd 5907 b1bd a2b5 ffbc
00000280: 4ccc 343e 7b7e 03bd 297e 643d ccfd 1fbd
00000290: e7c5 82bd 534a 7bbd 15f8 8b3d a96b bd3d
000002a0: 90fd b7bd 3455 bcbd 39c2 59be f528 d1bd
000002b0: fa56 31bd f488 7e3d 6d09 d7bd 71bf d83d
000002c0: dbad 46be d7aa 433d 6697 32be 904a 0abb
000002d0: 8c00 e33d 5c68 5bbd fc08 13be 7104 61be
000002e0: 2e42 b5bd a277 75bd bedd 40be 5a82 a63d
000002f0: ca4d 1b3b 3b36 1ebc 3384 e33d d01f 66be
00000300: 15da b03d 4950 273e cc96 7a3c 44f9 d43d
00000310: c8a7 08be 4ca8 44be c6d5 133e f842 59be
00000320: b03a ecbd 0285 453e b413 1fbe c970 a8bd
00000330: a788 2ebe 6f09 703d 8810 9bbd 0930 673d
00000340: 23d5 1b3e 015c 62be 5e44 c03d 4d5b 8bbd
00000350: bd16 68be 8468 8b3d f0f2 1ebe 8eaa f13d
00000360: 519a b63c ceb7 17be b0d4 34be bf08 263c
00000370: 365c 16be d122 883d c867 6539 470d 38be
00000380: c9e5 d93d 9358 5ebe 4ff6 b23b 0ced e0bd
00000390: e7cc 143d eda6 4ebe 0fd8 dabd 9c87 a1bd
000003a0: 9839 9bbd 33cb ebbc 6b26 19be fff9 8f3d
000003b0: 8367 7dbb c6b1 4bbe 29e0 a83d 4bed 1b3e
000003c0: 5643 ed3d 98d0 483d 1875 74bd c17c 37be
000003d0: f78e 4d3d acde ef3d a402 e5bb 7361 863c
000003e0: 1717 10be c2d3 86be f0e6 3ebe 4e22 69be
000003f0: 8cb6 943d b5bb df3d c733 76bd bab3 acbd

fc2.weight f4 [300, 400]
-0.087723635 0.056167502 -0.11334546 0.06748816 0.022235006 0.0025021012 -0.044377305 -0.0723046
0.04077787 -0.0626754 -0.06825499 0.00950558 0.019383 -0.026406927 0.022034941 -0.049279988
0.0240159 0.062239267 0.004002385 -0.06794085 0.018889032 -0.020494115 -0.043740153 0.07393196
-0.005660791 -0.08711349 -0.09216967 -0.004230992 0.083585545 -0.018972417 -0.07008495 -0.013797218
0.06887493 0.026628155 -0.0382671 0.071331084 -0.056549292 0.009853907 0.023338297 0.015351418
-0.021430366 -0.046304625 -0.003097293 -0.016611312 0.020964991 -0.08061366 -0.055322677 -0.0010084077
-0.04026665 -0.059430264 -0.09016168 0.03247549 -0.06304758 -0.05343842 -0.032106638 -0.023491714
-0.009000125 0.006760454 -0.023173252 -0.013041842 0.0026123442 -0.067890406 -0.009109926 -0.06300497
0.008055573 0.038058173 0.0026396622 -0.03382459 0.04475835 0.048006378 0.007539974 0.08876717
-0.044593107 0.07341064 -0.01578932 0.030236049 -0.10308895 0.036632515 -0.1109673 0.08436578
-0.1807924 -0.079717025 -0.012736255 0.030532898 -0.029857252 -0.03365202 -0.12894489 -0.04426539
0.048621427 0.048057474 -0.053771365 -0.032423418 0.023822343 0.041267462 0.009598474 0.010240179
0.052693468 0.009727485 0.010421108 -0.03907357 0.03313351 -0.0121653415 0.057186287 0.07347144
-0.027349276 -0.023265462 0.0504701 0.053496607 0.039141715 0.07120975 0.07563387 0.051478256
0.028768009 -0.033641905 0.04893316 -0.03543558 -0.027008371 0.05530065 0.092231736 -0.039212447
-0.007883794 -0.043856557 -0.054853644 0.008783544 0.06405298 0.021471726 0.008917313 0.0008194982
-0.00014622424 -0.032703836 -0.097254924 -0.0316433 -0.042267255 -0.027383791 0.0992357 -0.05247928
-0.03521779 -0.0063733524 0.04335716 0.015638696 -0.033909846 0.05116995 -0.0060746614 0.054357365
0.02384407 -0.032207783 -0.06018327 -0.007877033 -0.014278061 -0.05017954 0.0025458832 -0.026152808
-0.057818633 0.050377835 -0.09787659 0.021356685 -0.008886221 -0.0037988862 0.042469002 -0.0835326
0.014576383 0.04351086 0.05118122 0.045099847 -0.026835315 -0.04171859 0.027741365 0.06847677
-0.041446064 0.030823182 0.08884757 -0.0068460763 -0.005015651 0.0150488615 0.036561817 0.014599519
0.09456908 0.039708544 -0.049228445 0.06982416 0.015526184 -0.1271517 -0.061453033 -0.022222774
-0.032311335 0.056212496 0.0007183755 0.052751753 -0.021261582 0.043964636 0.01653019 -0.025584005
0.025687795 -0.028690543 0.04051489 -0.03936435 0.0014207745 -0.10467015 0.045346178 0.08334574
0.037038684 -0.027618766 -0.008230372 -0.05424333 0.012631529 0.030073103 -0.017922439 -0.094719104
-0.0032879547 -0.04859731 0.014684739 0.058347005 -0.07081397 -0.02766034 -0.009270683 -0.044897217
0.019049661 -0.02957852 0.045776952 -0.00023042051 -0.022766395 0.03320273 -0.032027718 -0.042868584
-0.059653718 -0.107710026 0.024712112 0.01943856 -0.022328584 -0.047652982 0.039572302 0.016182637
0.036927402 0.0210984 0.07470623 0.031082822 -0.05758813 0.038207084 -0.051071715 -0.020562638
-0.049879175 0.0016310507 0.019858839 -0.012475803 0.027438613 0.0070065483 0.05079846 0.07710999
0.056122363 0.014565002 -0.026363984 0.010225616 -0.010637612 -0.028023181 0.023184426 0.05116555
00000000: 73a8 b3bd e50f 663d aa21 e8bd 3c37 8a3d
00000010: 3026 b63c 4bfa 233b fac4 35bd 6f14 94bd
00000020: b206 273d f65b 80bd 46c9 8bbd 4bbd 1b3c
00000030: 19c9 9e3c 5753 d8bc 9f82 b43c d0d9 49bd
00000040: febc c43c 9aee 7e3d 7026 833b 9324 8bbd
00000050: 2cbd 9a3c 46e3 a7bc e028 33bd a469 973d
00000060: 287e b9bb 8f68 b2bd 74c3 bcbd 22a4 8abb
00000070: e62e ab3d 0b6c 9bbc b388 8fbd ba0d 62bc
00000080: 4d0e 8d3d 4a23 da3c f6bd 1cbd 0816 923d
00000090: 3ba0 67bd 4872 213c f52f bf3c 8484 7b3c
000000a0: bc8e afbc eba9 3dbd f4fb 4abb 7214 88bc
000000b0: c6be ab3c c618 a5bd 089a 62bd 8c2c 84ba
000000c0: a5ee 24bd 266d 73bd b0a6 b8bd 0505 053d
000000d0: 171f 81bd 3fe2 5abd 4082 03bd b271 c0bc
000000e0: 4375 13bc cc86 dd3b d5d5 bdbc 73ad 55bc
000000f0: dd33 2b3b 200a 8bbd cd41 15bc c008 81bd
00000100: 86fb 033c e3e2 1b3d 2ffe 2c3b a78b 0abd
00000110: 8854 373d 56a2 443d e311 f73b 90cb b53d
00000120: 43a7 36bd 5158 963d 9b58 81bc 97b1 f73c
00000130: 4d20 d3bd fa0b 163d d342 e3bd f7c7 ac3d
00000140: a521 39be ae42 a3bd baab 50bc 2120 fa3c
00000150: 3297 f4bc b3d6 09bd 210a 04be a04f 35bd
00000160: 4327 473d ead7 443d 5d3f 5cbd 6bce 04bd
00000170: 1327 c33c 1208 293d eb42 1d3c 6cc6 273c
00000180: 1bd5 573d 0760 1f3c 4cbd 2a3c 9c0b 20bd
00000190: 01b7 073d 2451 47bc 2b3c 6a3d 3278 963d
000001a0: 970b e0bc 3697 bebc bcb9 4e3d 421f 5b3d
000001b0: 1053 203d 6bd6 913d eee5 9a3d ddda 523d
000001c0: e3aa eb3c 18cc 09bd 236e 483d e624 11bd
000001d0: a940 ddbc ef82 623d fee3 bc3d 3b9d 20bd
000001e0: 072b 01bc efa2 33bd 37ae 60bd dbe8 0f3c
000001f0: 352e 833d 79e5 af3c ec19 123c 98d3 563a
00000200: c553 19b9 75f4 05bd 972d c7bd 689c 01bd
00000210: 6e20 2dbd f953 e0bc 163c cb3d 83f4 56bd
00000220: 8840 10bd 8ed7 d0bb 4797 313d b91c 803c
00000230: 0de5 0abd 9597 513d f40d c7bb d4a5 5e3d
00000240: a454 c33c 4fec 03bd bc82 76bd ac0e 01bc
00000250: 87ee 69bc 1089 4dbd d5d8 263b 6a3e d6bc
00000260: 3bd3 6cbd fd58 4e3d 8673 c8bd 37f4 ae3c
00000270: 8397 11bc bcf6 78bb faf3 2d3d 2413 abbd
00000280: c8d1 6e3c 7238 323d 66a3 513d 9eba 383d
00000290: bcd5 dbbc 1de1 2abd dc41 e33c 8c3d 8c3d
000002a0: 59c3 29bd e680 fc3c b7f5 b53d 0d55 e0bb
000002b0: 555a a4bb 808f 763c d8c1 153d d232 6f3c
000002c0: 6fad c13d 6da5 223d c4a3 49bd f8ff 8e3d
000002d0: 8961 7e3c 0e34 02be 2db6 7bbd 890c b6bc
000002e0: e458 04bd 133f 663d 5d51 3c3a 3912 583d
000002f0: c52c aebc 4314 343d 526a 873c 8c95 d1bc
00000300: 366f d23c 6e08 ebbc f1f2 253d 833c 21bd
00000310: 4839 ba3a 4e5d d6bd eabc 393d 2cb1 aa3d
00000320: e0b5 173d c040 e2bc afd8 06bc 412e 5ebd
00000330: 79f4 4e3c de5b f63c 14d2 92bc 17fc c1bd
00000340: ba7a 57bb f90d 47bd 4298 703c 45fd 6e3d
00000350: ea06 91bd f097 e2bc 10e4 17bc 25e6 37bd
00000360: 090e 9c3c a74e f2bc 9d80 3b3d 099d 71b9
00000370: 9780 babc 96ff 073d 7f2f 03bd f896 2fbd
00000380: 7557 74bd 1397 dcbd 0e71 ca3c 9d3d 9f3c
00000390: 6fea b6bc c62f 43bd 9116 223d 7391 843c
000003a0: 3041 173d 8dd6 ac3c 94ff 983d 67a1 fe3c
000003b0: 88e1 6bbd 087f 1c3d 9330 51bd fa72 a8bc
000003c0: 1b4e 4cbd fbc8 d53a 01af a23c 4f67 4cbc
000003d0: f1c6 e03c 3097 e53b 0c12 503d d8eb 9d3d
000003e0: 90e0 653d 0ca2 6e3c 48f9 d7bc 5889 273c
000003f0: 6149 2ebc df90 e5bc 44ed bd3c f892 513d

fc2.bias f4 [300]
-0.06246225 0.05878572 -0.013438452 -0.06590155 0.017742218 0.014548828 0.048645187 -0.032432802
-0.004527321 -0.050394002 -0.10344855 0.15464802 0.044410117 -0.056342687 0.06406622 -0.075225554
0.071704835 -0.078730606 -0.07870284 0.06393855 -0.062620044 -0.08278009 -0.11395992 -0.053957447
0.06447078 0.081212446 0.033927232 -0.08879083 -0.05266872 -0.030269902 -0.03238785 -0.11443628
0.06378234 -0.048317578 0.02242351 -0.038686432 -0.07235115 0.0011529414 -0.099064544 -0.11095178
0.026402486 0.013636142 0.005711151 -0.019494638 0.22221383 0.1411769 -0.08649475 -0.074287295
-0.05719321 -0.01428902 0.048783455 0.020474903 -0.10320986 0.07314908 0.01733488 0.021505807
0.009310664 0.105346136 -0.0067787184 -0.082886495 0.07218596 0.060101904 -0.11422754 -0.0015941665
-0.012941872 0.055105627 0.07370419 0.010229966 -0.024133042 0.028169367 -0.045986783 0.021779709
0.020955566 -0.07238211 0.04728507 0.0010412259 -0.09173546 0.03581474 -0.013096665 -0.06712757
-0.022136865 -0.10694035 -0.06613664 -0.045600776 -0.09714 0.06906826 -0.043472268 -0.079257384
0.042399503 -0.056659605 -0.032667596 -0.05276655 0.12294985 -0.004169702 0.015989073 0.0342204
-0.031940136 0.05838282 -0.015895743 0.04320023 -0.022649974 -0.06769408 0.01783424 -0.038282454
-0.053877816 0.0045538847 -0.07116528 -0.08594802 -0.017236806 -0.11169664 0.017984476 -0.0130942
0.02777416 0.03142592 -0.09788775 -0.038562655 0.1668652 -0.02219817 0.11703737 0.008541076
-0.050225347 -0.060702395 -0.053629674 0.0626109 -0.0484358 -0.006458506 0.033565525 -0.044183336
0.0064237807 -0.029592171 -0.041968998 -0.067995846 -0.050969884 -0.078247905 0.06903807 0.11242817
-0.0029873443 -0.021821009 0.028471146 -0.0563697 0.03828822 -0.034786534 -0.09392506 -0.004639662
-0.021136869 0.11505112 -0.108351305 -0.16912943 0.017034248 -0.07043378 0.017029421 -0.09330427
-0.028833997 0.0055851582 -0.03613525 -0.043929767 -0.0060682427 0.115893 -0.0071516978 0.20155606
-0.098480046 -0.082329 0.035662886 -0.020500805 0.0033185747 -0.049967017 0.055673532 -0.015152134
0.106692895 -0.0617831 -0.02616593 -0.03349349 0.0734807 0.029491166 -0.054939773 0.067071415
-0.025264839 0.09235267 0.009023824 -0.03208059 0.14885823 0.11330974 0.053956877 0.07234787
0.051763177 0.09845928 -0.11154688 -0.07097748 -0.024398986 -0.1021207 -0.050005395 0.009730986
-0.050294314 0.0080800885 -0.028291257 0.01636792 -0.07384418 0.17998716 -0.031793863 0.05221206
0.13591114 0.08079138 -0.017230788 0.026738575 0.045449167 -0.00090326957 -0.029498218 0.016528545
-0.025676887 0.16295087 -0.0678634 0.08992018 -0.08685875 0.027686248 -0.0008636518 0.21351373
-0.104740374 -0.008783099 -0.0073737125 -0.06824887 0.006735262 -0.005731347 -0.07695148 0.16789234
0.08332263 -0.07214423 -0.009355608 0.09229034 0.102971435 -0.105027854 0.080168724 0.0412523
-0.06750299 0.035965562 -0.035135534 0.008418849 -0.030450324 0.04047317 -0.03827842 -0.0334078
-0.12876242 -0.032159396 0.080308296 -0.00024667138 -0.013416808 -0.06366031 0.0072347205 0.03247915
-0.052873835 0.039140034 -0.05056174 -0.12519006 0.086938806 0.09965587 0.021744208 0.064555556
00000000: 6bd8 7fbd 4cc9 703d f42c 5cbc 64f7 86bd
00000010: 2158 913c 355e 6e3c 2d40 473d 42d8 04bd
00000020: ec59 94bb f169 4ebd d5dc d3bd 0d5c 1e3e
00000030: 62e7 353d 97c7 66bd 2635 833d db0f 9abd
00000040: fcd9 923d 833d a1bd f42e a1bd 37f2 823d
00000050: f03e 80bd 9c88 a9bd d263 e9bd 7c02 5dbd
00000060: 4209 843d b652 a63d 48f7 0a3d f7d7 b5bd
00000070: 28bb 57bd 96f8 f7bc 1fa9 04bd 925d eabd
00000080: 51a0 823d a7e8 45bd 82b1 b73c aa75 1ebd
00000090: d72c 94bd 4b1e 973a 5ae2 cabd b03a e3bd
000000a0: 074a d83c 206a 5f3c 9b24 bb3b 38b3 9fbc
000000b0: 068c 633e ad90 103e 2924 b1bd f023 98bd
000000c0: 6d43 6abd 7e1c 6abc 29d1 473d fcba a73c
000000d0: b15f d3bd 2fcf 953d e101 8e3c f22c b03c
000000e0: c18b 183c b7bf d73d 0320 debb 65c0 a9bd
000000f0: 3cd6 933d 6a2d 763d 21f0 e9bd 5af3 d0ba
00000100: 250a 54bc 70b6 613d 39f2 963d 969b 273c
00000110: a8b2 c5bc 72c3 e63c a35c 3cbd 5c6b b23c
00000120: 02ab ab3c 123d 94bd fdad 413d be79 883a
00000130: cddf bbbd 7ab2 123d 6593 56bc 2e7a 89bd
00000140: 5f58 b5bc 8b03 dbbd a672 87bd e1c7 3abd
00000150: 56f1 c6bd a973 8d3d fa0f 32bd b251 a2bd
00000160: 1aab 2d3d e713 68bd 75ce 05bd bd21 58bd
00000170: 22cd fb3d ffa1 88bb 84fb 823c b12a 0c3d
00000180: a9d3 02bd d322 6f3d ca37 82bc b9f2 303d
00000190: 708c b9bc 32a3 8abd 1d19 923c 10ce 1cbd
000001a0: fcae 5cbd c138 953b 1abf 91bd 8405 b0bd
000001b0: 3434 8dbc 35c1 e4bd 2e54 933c 0e89 56bc
000001c0: a386 e33c 77b8 003d 5f79 c8bd e0f3 1dbd
000001d0: b6de 2a3e f0d8 b5bc 4ab1 ef3d dfef 0b3c
000001e0: 18b9 4dbd 13a3 78bd caaa 5bbd 253a 803d
000001f0: 9e64 46bd e0a1 d3bb 017c 093d 96f9 34bd
00000200: 947e d23b 486b f2bc afe7 2bbd 6841 8bbd
00000210: ccc5 50bd 7040 a0bd d563 8d3d be40 e63d
00000220: 52c7 43bb f9c1 b2bc 523c e93c eae3 66bd
00000230: 1cd4 1c3d 537c 0ebd c85b c0bd 4e08 98bb
00000240: 3a27 adbc ec9f eb3d 4ae7 ddbd 4430 2dbe
00000250: 688b 8b3c 963f 90bd 4981 8b3c 4f16 bfbd
00000260: 4635 ecbc b403 b73b 8e02 14bd b3ef 33bd
00000270: 1cd8 c6bb 4f59 ed3d ca58 eabb b664 4e3e
00000280: e8af c9bd 1b9c a8bd 3f13 123d 4ef1 a7bc
00000290: 727c 593b 37aa 4cbd ee09 643d a840 78bc
000002a0: ce81 da3d 4710 7dbd ef59 d6bc 7830 09bd
000002b0: 0d7d 963d 7597 f13c 8708 61bd bd5c 893d
000002c0: 35f8 cebc 6623 bd3d a9d8 133c f066 03bd
000002d0: 4b6e 183e f00e e83d e301 5d3d 1f2b 943d
000002e0: a005 543d 05a5 c93d b172 e4bd a45c 91bd
000002f0: 62e0 c7bc a824 d1bd 75d2 4cbd b76e 1f3c
00000300: 6901 4ebd 5962 043c 11c3 e7bc 0416 863c
00000310: 9e3b 97bd 8e4e 383e 483a 02bd 50dc 553d
00000320: 4a2c 0b3e f375 a53d 9527 8dbc db0a db3c
00000330: e828 3a3d 65c9 6cba 3fa6 f1bc df66 873c
00000340: 5658 d2bc 98dc 263e f7fb 8abd 1228 b83d
00000350: 00e3 b1bd 45ce e23c b166 62ba 58a3 5a3e
00000360: 1f82 d6bd fde6 0fbc 2f9f f1bb 10c6 8bbd
00000370: 79b3 dc3b 06ce bbbb bd98 9dbd f8eb 2b3e
00000380: 0ea5 aa3d 5bc0 93bd 4448 19bc b802 bd3d
00000390: b0e2 d23d d818 d7bd 802f a43d 2cf8 283d
000003a0: 023f 8abd a050 133d 47ea 0fbd 36ef 093c
000003b0: f572 f9bc 32c7 253d d5c9 1cbd 9ed6 08bd
000003c0: 4cda 03be 92b9 03bd ad78 a43d ac53 81b9
000003d0: 2cd2 5bbc 5660 82bd 3c11 ed3b db08 053d
000003e0: 3c92 58bd 4d51 203d d419 4fbd d331 00be
000003f0: f90c b23d 6018 cc3d e920 b23c b435 843d

fc3.weight f4 [2, 300]
0.037631676 -0.0021526488 -0.16373406 0.09677301 0.07858541 0.14358884 -0.02133206 -0.19269264
-0.028425133 -0.01591566 0.01484752 -0.037038017 -0.08296408 -0.1910398 0.06788693 0.058096122
-0.032817055 0.20542476 0.08019446 0.0760406 -0.09547711 -0.121509686 0.10933509 -0.21041161
-0.1168803 0.060243748 -0.004408613 0.13615775 -0.2096185 0.19837256 0.15512569 0.22918884
-0.112970196 -0.29671794 0.17620835 0.12969638 0.04686424 -0.13260579 0.1867155 -0.09126828
-0.00091343146 -0.06741677 -0.21939231 0.0010856107 -0.084989056 -0.07593153 0.27043977 -0.32086605
0.028271252 -0.08118889 -0.004810193 0.0350854 -0.007870657 0.044300348 0.048351 -0.06610295
0.16228402 0.0047128936 -0.0870023 -0.14194962 0.098569654 -0.08717903 -0.3290811 -0.032836314
0.11079366 0.0679885 -0.008213589 -0.110955715 -0.13376138 -0.13067757 0.2263702 0.057817698
0.066652246 -0.16967474 -0.13342442 -0.2340568 0.29483905 -0.014483939 -0.10280244 0.018546648
0.19308768 -0.020608716 -0.3024835 0.102261014 -0.12190906 -0.09604278 -0.138937 -0.004738146
0.09940249 -0.068169266 0.11473533 -0.18465193 -0.13188246 -0.12741025 -0.13460049 -0.09014701
-0.39760265 -0.105577305 0.010527011 0.017078882 -0.00090225245 0.044502486 0.003737719 -0.11329067
0.2532815 0.008972827 0.09158747 0.17121287 0.13051756 -0.49573565 -0.13243605 0.07743033
-0.006039396 -0.045250587 0.14798786 0.05157793 -0.049409006 -0.18162392 0.020883076 -0.01988407
0.19537814 0.12299429 -0.06732553 -0.13560939 0.11479769 -0.041698344 0.09137444 0.19503832
-0.055657767 -0.26524493 0.10917567 0.13534054 -0.06836453 0.12883647 -0.02473016 -0.08959677
0.11946857 0.07664781 -0.10468325 -0.1663186 0.08875198 0.15692055 0.060243685 -0.036922652
-0.08477228 0.05816134 -0.00033857845 0.016714863 0.07709983 0.22461109 -0.12942186 0.30754775
0.11271201 0.09544096 -0.15500532 -0.3137185 -0.0701215 -0.046878938 0.14713725 -0.102659315
0.22826178 -0.3077816 0.08822562 -0.21492638 -0.03339262 -0.23469912 -0.027843582 0.07592554
0.07914516 0.18387996 0.19217275 -0.17699574 -0.00050884346 -0.007809858 0.131041 0.05510794
0.11270141 -0.021911481 0.028174683 -0.04019382 0.043708067 -0.1290541 -0.13540827 0.006799076
0.015502033 -0.08990226 0.20061736 0.13335846 0.031644218 -0.2470039 0.1918454 -0.08619812
0.08539578 0.08648769 -0.04007505 0.11812994 0.19570898 -0.042237602 -0.18413642 -0.0042890906
-0.0115561485 -0.08071798 0.0997575 -0.079712294 0.062049847 -0.019061923 0.069121905 0.016274042
-0.17253353 -0.10039891 -0.23708977 0.057693753 0.31494036 -0.1352092 -0.105120696 -0.10895778
0.13446887 -0.29985458 -0.052103173 -0.23567815 -0.08885547 0.09646379 -0.38530642 -0.13098417
-0.024061289 -0.120493576 -0.058179088 -0.0031450477 -0.024309222 0.18838918 -0.012563618 -0.10033437
-0.09369865 0.1270411 -0.10272072 0.0078110914 0.07512764 0.0730307 0.24094656 -0.18866487
0.092461504 0.27245605 0.06478231 0.14161393 -0.12599172 -0.12810348 0.17903963 0.005559192
-0.21150371 -0.066043735 -0.17733757 0.14764729 -0.14329483 -0.049338534 -0.0032986172 0.007802653
00000000: ac23 1a3d 7413 0dbb e7a9 27be ee30 c63d
00000010: 63f1 a03d f408 133e 93c0 aebc 3851 45be
00000020: d3db e8bc 8f61 82bc 0343 733c 2db5 17bd
00000030: 12e9 a9bd f09f 43be 4e08 8b3d 33f6 6d3d
00000040: 2d6b 06bd de5a 523e fe3c a43d 2dbb 9b3d
00000050: 8189 c3bd 12da f8bd 13eb df3d 2476 57be
00000060: f05e efbd 26c2 763d 2076 90bb f06c 0b3e
00000070: 3ba6 56be 2d22 4b3e 45d9 1e3e 7bb0 6a3e
00000080: eb5c e7bd 6aeb 97be f66f 343e 21cf 043e
00000090: b8f4 3f3d d0c9 07be 5932 3f3e ddea babd
000000a0: 5973 6fba ce11 8abd 61a8 60be 0d4b 8e3a
000000b0: be0e aebd fd81 9bbd 1577 8a3e 8e48 a4be
000000c0: 1d99 e73c 5c46 a6bd d39e 9dbb b5b5 0f3d
000000d0: eef3 00bc 4874 353d b30b 463d fc60 87bd
000000e0: c82d 263e 9e6e 9a3b 432e b2bd 3e5b 11be
000000f0: e3de c93d eb8a b2bd 517d a8be 5f7f 06bd
00000100: c9e7 e23d 8e3d 8b3d 4a92 06bc c03c e3bd
00000110: bef8 08be 57d0 05be 97cd 673e 40d2 6c3d
00000120: f980 883d 37bf 2dbe 69a0 08be 96ac 6fbe
00000130: 25f5 963e 0b4e 6dbc 168a d2bd 24ef 973c
00000140: c7b8 453e 9cd3 a8bc 1edf 9abe 396e d13d
00000150: 75ab f9bd 14b2 c4bd 8045 0ebe 7342 9bbb
00000160: 8893 cb3d 549c 8bbd 5bfa ea3d 6515 3dbe
00000170: 320c 07be d577 02be b6d4 09be ff9e b8bd
00000180: 9392 cbbe ea38 d8bd 7c79 2c3c 03e9 8b3c
00000190: 2385 6cba 3d48 363d 85f4 743b f004 e8bd
000001a0: 1dae 813e c402 133c 3692 bb3d 6d52 2f3e
000001b0: 65a6 053e 10d1 fdbe 519d 07be cb93 9e3d
000001c0: 20e6 c5bb ae58 39bd 218a 173e 6143 533d
000001d0: 1961 4abd 9ffb 39be fc12 ab3c ebe3 a2bc
000001e0: 3511 483e 6ee4 fb3d f8e1 89bd 30dd 0abe
000001f0: 0d1b eb3d e2cb 2abd 8622 bb3d 20b8 473e
00000200: 66f9 63bd 2fce 87be 7e97 df3d b696 0a3e
00000210: b402 8cbd b5ed 033e e896 cabc 837e b7bd
00000220: f0ab f43d 87f9 9c3d 2c64 d6bd 6c4f 2abe
00000230: 99c3 b53d c8af 203e 15c2 763d 353c 17bd
00000240: 179d adbd 963a 6e3d 3b83 b1b9 9ced 883c
00000250: 84e6 9d3d 7300 663e 2a87 04be e676 9d3e
00000260: 8ed5 e63d 8d76 c33d b7b9 1ebe b69f a0be
00000270: dc9b 8fbd 2104 40bd 26ab 163e 0c3f d2bd
00000280: 75bd 693e 8d95 9dbe a2af b43d a915 5cbe
00000290: b3c6 08bd f754 70be 3918 e4bc d97e 9b3d
000002a0: dc16 a23d 074b 3c3e efc8 443e 5f3e 35be
000002b0: e863 05ba d6e9 ffbb 9d2f 063e ddb8 613d
000002c0: ffcf e63d b57f b3bc 98ce e63c 46a2 24bd
000002d0: 3b07 333d c226 04be 77a8 0abe c9ca de3b
000002e0: 3dfc 7d3c ad1e b8bd a36e 4d3e 1f8f 083e
000002f0: 5e9d 013d 97ee 7cbe 1f73 443e a488 b0bd
00000300: fce3 ae3d 7520 b13d bc25 24bd 1cee f13d
00000310: ef67 483e 5601 2dbd 428e 3cbe 808b 8cbb
00000320: 0056 3dbc 784f a5bd a94d cc3d 3340 a3bd
00000330: fb27 7e3d c027 9cbc c98f 8d3d 2451 853c
00000340: a1ac 30be f29d cdbd a9c7 72be 4950 6c3d
00000350: dd3f a13e 4874 0abe 8549 d7bd 4225 dfbd
00000360: 35b2 093e 8a86 99be 236a 55bd 9d55 71be
00000370: dbf9 b5bd cf8e c53d e246 c5be b720 06be
00000380: 2e1c c5bc 56c5 f6bd 324d 6ebd 251d 4ebb
00000390: 2224 c7bc 18e9 403e a2d7 4dbc 1b7c cdbd
000003a0: 14e5 bfbd 1017 023e 3e5f d2bd 2ff4 ff3b
000003b0: 85dc 993d 1f91 953d b2ba 763e 5d31 41be
000003c0: 755c bd3d 5c7f 8b3e 96ac 843d 3e03 113e
000003d0: f903 01be 8f2d 03be 2a56 373e e229 b63b
000003e0: 6e94 58be f041 87bd fb97 35be da30 173e
000003f0: e1bb 12be 3417 4abd 9d2d 58bb 66ad ff3b

fc3.bias f4 [2]
-0.025493782 -0.07605047
00000000: 56d8 d0bc 59c0 9bbd

bn1.weight f4 [400]
0.4700328 0.5020175 0.3907482 0.16279396 0.19398102 0.14287038 0.18949263 0.6868254
0.4444914 0.59809345 0.59548455 0.36805135 0.65004265 0.659326 0.7224377 0.59092766
0.024687082 0.29107562 0.8635054 0.634018 0.7742846 0.4498443 0.38211024 0.17843366
0.8497477 0.4951036 0.4302834 0.25720227 0.6907863 0.7395568 0.7857882 0.77506196
0.5631905 0.6223163 0.22204901 0.8585818 0.5495172 0.27115428 0.44130784 0.68929577
0.6036314 0.8371151 0.38970962 0.5872699 0.4959309 0.64541763 0.8408985 0.36987606
0.5699201 0.329997 0.1588329 0.65225625 0.731611 0.2508093 0.40308455 0.6951468
0.87338144 0.73861444 0.9287788 0.08242663 0.7797313 0.39733887 0.24068785 0.32239068
0.5306195 0.9011524 0.48799765 0.5100636 0.68324274 0.1361553 0.88443124 0.120176
0.5395748 0.5528232 0.23061413 0.41095838 0.16417967 0.2694801 0.25109854 0.43062842
0.6292954 0.696404 0.23144306 0.34195137 0.8175232 0.8377549 0.71035016 0.51842207
0.48501304 0.08184839 0.718568 0.95059437 0.894445 0.6397487 0.8689886 0.85792994
0.46381637 0.88522035 0.7534575 0.25727937 0.6642247 0.7608918 0.37727457 0.62283456
0.36340344 0.6822961 0.09953781 0.68153083 0.7734349 0.17385265 0.28552067 0.44224486
0.9086434 0.36377993 0.37172493 0.5847207 0.6296121 0.7669691 0.1776838 0.29608968
0.9648253 0.49122268 0.31630135 0.78526676 0.88467723 0.31069425 0.26300883 0.14881742
0.5401394 0.45193666 0.727573 0.728513 0.75095683 0.18401915 0.31339157 0.70143205
0.532833 0.93914694 0.35899323 0.91326517 0.69989985 0.74080235 0.31711313 0.36139253
0.64811856 0.5947546 0.33318445 0.2350137 0.3110685 0.7426512 0.66125757 0.70785797
0.8919652 0.084236294 0.20673485 0.86706233 0.27197665 0.90899634 0.6055545 0.80900866
0.8966586 0.35509273 0.5424387 0.8523348 0.27187932 0.2172046 0.713608 0.640018
0.19310181 0.8271103 0.70856553 0.86629426 0.59456515 0.1872666 0.1836069 0.5086199
0.06144402 0.94345766 0.14968348 -0.0016597924 0.094946265 0.2800591 0.34822062 0.9614114
0.48752388 0.83502674 0.68561614 0.59632015 0.51351506 0.6842926 0.58526933 0.73520863
0.84284073 0.53071654 0.8245421 0.90038073 0.43742174 0.2522439 0.7086151 0.49678513
0.22813152 0.77905226 0.58226436 0.37811953 0.6988173 0.31606802 0.5548884 0.44515705
0.6768054 0.6761045 0.4209474 0.18415946 0.81491244 0.40243778 0.42491636 0.40159068
0.2536663 0.4449784 0.7910573 0.8069942 0.48099852 0.19741905 0.60936666 0.562726
0.20285527 0.43082955 0.3309897 0.2541856 0.14245506 0.22986823 0.22904086 0.28408632
0.52207506 0.8208651 0.6331037 0.54113066 0.14337799 0.3513934 0.07215549 0.78030646
0.8761512 0.2712693 0.4305055 0.73233926 0.5775821 0.031441893 0.22957203 0.29448718
0.49421552 0.6837798 0.6283261 0.11646343 0.65748525 0.9561028 0.23960426 0.6404759
00000000: 24a8 f03e 3884 003f 2610 c83e 76b3 263e
00000010: f6a2 463e 9d4c 123e 5b0a 423e cad3 2f3f
00000020: 6094 e33e a71c 193f ad71 183f 3a71 bc3e
00000030: 3269 263f 97c9 283f adf1 383f 0947 173f
00000040: 903c ca3c dd07 953e b10e 5d3f 014f 223f
00000050: 8437 463f fe51 e63e f4a3 c33e 50b7 363e
00000060: 1189 593f 387e fd3e 1b4e dc3e 04b0 833e
00000070: 5fd7 303f 9853 3d3f 6a29 493f 766a 463f
00000080: 412d 103f 1f50 1f3f d160 633e 04cc 5b3f
00000090: 29ad 0c3f bcd4 8a3e 1af3 e13e b075 303f
000000a0: 9687 1a3f 2d4d 563f 0588 c73e 5257 163f
000000b0: a8ea fd3e 173a 253f 2045 573f 6560 bd3e
000000c0: 49e6 113f 5ef5 a83e 17a5 223e 44fa 263f
000000d0: dc4a 3b3f 146a 803e 1961 ce3e 24f5 313f
000000e0: ed95 5f3f d615 3d3f 73c4 6d3f 4bcf a83d
000000f0: 789c 473f 0070 cb3e e076 763e 6410 a53e
00000100: aed6 073f ecb1 663f d4da f93e 8793 023f
00000110: ffe8 2e3f 4c6c 0b3e 166a 623f d61e f63d
00000120: 9321 0a3f d285 0d3f 1c26 6c3e 2369 d23e
00000130: b71e 283e 4cf9 893e fd8f 803e 547b dc3e
00000140: 8119 213f 8847 323f 69ff 6c3e 4014 af3e
00000150: 3349 513f 1b77 563f 82d9 353f 4fb7 043f
00000160: a153 f83e 21a0 a73d 13f4 373f 275a 733f
00000170: 59fa 643f 92c6 233f 0976 5e3f 4ca1 5b3f
00000180: 5779 ed3e cd9d 623f 97e2 403f 1fba 833e
00000190: a10a 2a3f cec9 423f 222a c13e 1672 1f3f
000001a0: 0410 ba3e f5aa 2e3f 7bda cb3d ce78 2e3f
000001b0: d4ff 453f 6e06 323e c42f 923e eb6d e23e
000001c0: db9c 683f 5d41 ba3e bb52 be3e 41b0 153f
000001d0: 422e 213f 1658 443f bef2 353e 1199 973e
000001e0: cafe 763f 8a81 fb3e 40f2 a13e 3e07 493f
000001f0: 357a 623f 5113 9f3e 18a9 863e 9863 183e
00000200: 9346 0a3f 3e64 e73e 3942 3a3f d47f 3a3f
00000210: b53e 403f 846f 3c3e dc74 a03e 0d91 333f
00000220: be67 083f ef6b 703f f6cd b73e bfcb 693f
00000230: a32c 333f 39a5 3d3f a75c a23e 7108 b93e
00000240: 19eb 253f d641 183f 2797 aa3e 6ea7 703e
00000250: 5f44 9f3e 641e 3e3f 2d48 293f 2e36 353f
00000260: d557 643f 1484 ac3d 4db2 533e ccf7 5d3f
00000270: 8640 8b3e fcb3 683f 9f05 1b3f 311b 4f3f
00000280: 6b8b 653f b7ce b53e 43dd 0a3f 9d32 5a3f
00000290: c433 8b3e e26a 5e3e 04af 363f 38d8 233f
000002a0: 7bbc 453e 80bd 533f 8d64 353f 76c5 5d3f
000002b0: 6c35 183f d1c2 3f3e 7203 3c3e ea34 023f
000002c0: baac 7b3d 7186 713f a046 193e 648d d9ba
000002d0: 3073 c23d e863 8f3e f949 b23e 0f1f 763f
000002e0: bb9c f93e 50c4 553f 8a84 2f3f 70a8 183f
000002f0: b975 033f cd2d 2f3f 36d4 153f a236 3c3f
00000300: 69c4 573f 0add 073f 3115 533f 5a7f 663f
00000310: bef5 df3e 1d26 813e cd67 353f 9f5a fe3e
00000320: 4f9b 693e f86f 473f 470f 153f e298 c13e
00000330: b1e5 323f abd3 a13e 2b0d 0e3f a0eb e33e
00000340: 1e43 2d3f 2f15 2d3f 6b86 d73e 4c94 3c3e
00000350: 1a9e 503f 530c ce3e a38e d93e 4b9d cd3e
00000360: 8de0 813e 35d4 e33e bb82 4a3f 2c97 4e3f
00000370: 7045 f63e 3828 4a3e 74ff 1b3f d00e 103f
00000380: 4bb9 4f3e b195 dc3e 7b77 a93e 9d24 823e
00000390: bddf 113e 9462 6b3e b089 6a3e c373 913e
000003a0: b6a6 053f 3724 523f 1613 223f 8a87 0a3f
000003b0: aed1 123e d6e9 b33e 42c6 933d 2ac2 473f
000003c0: 724b 603f cfe3 8a3e 386b dc3e 967a 3b3f
000003d0: 6cdc 133f 37c9 003d ee14 6b3e 06c7 963e
000003e0: d109 fd3e 310c 2f3f fbd9 203f 6184 ee3d
000003f0: f450 283f 27c3 743f d25a 753e 3bf6 233f

bn1.bias f4 [400]
0.0046986844 0.036440957 -0.0680261 -0.091192394 0.04947565 0.20070371 -0.0621775 0.08099665
0.0013634906 0.10750198 0.040608767 0.0040557897 0.1034254 0.15625523 0.085434236 -0.101930775
-0.23336798 0.021127993 -0.035098244 0.102576256 -0.006020898 0.024386898 -0.11761846 -0.14899328
0.14683984 0.077324286 0.07009256 0.04286464 0.011271774 0.041947234 -0.03540808 0.0052575488
-0.08718063 -0.13919261 0.15424718 -0.03476352 0.024101945 0.20054154 0.03171464 -0.10686956
-0.013283137 -0.037317175 0.013569613 -0.046965957 0.014729473 0.062607236 0.0021704456 0.008265203
0.057849523 0.12088408 0.09909104 0.06407018 0.07837123 -0.16282581 0.009946542 -0.179689
-0.057079 0.14314581 -0.010199331 -0.091990165 0.13838406 0.067687124 -0.06208083 0.020280218
-0.07502729 0.024192672 0.02664375 0.028951155 0.07423944 0.17896402 0.036506955 -0.17957015
0.074221954 -0.057943646 0.107078835 0.166868 0.22809619 0.15478767 0.09057923 -0.039005697
0.123491764 -0.07934143 -0.04277774 -0.16542332 0.08669191 -0.0012957628 0.045425177 -0.053006355
-0.09188896 -0.14531405 0.07193606 0.057702426 0.050033692 0.015783498 -0.1360673 -0.017077457
-0.00025050534 0.064549536 0.016162494 0.12983133 0.0405146 -0.032067806 0.098836526 -0.0580719
-0.05751768 -0.026277417 -0.11177762 -0.04963638 -0.016042039 -0.114153825 0.044936657 -0.044823498
0.03632133 -0.06939923 -0.09472445 0.13029736 0.05720473 0.08598776 0.093204856 0.06950806
0.040004324 0.0077178692 -0.0060229753 0.06546401 0.06907898 0.09445853 0.039722126 -0.013420846
-0.07675781 -0.058511794 0.036354803 0.063770905 -0.115545906 -0.0341007 -0.023909016 0.056451377
-0.06964354 0.09305649 0.045777865 -0.04507931 0.086630024 0.111483514 -0.0037622903 0.09239642
0.13517413 -0.03148579 -0.04290714 0.05602111 -0.1178502 -0.026441444 0.1177627 0.07358196
0.03778685 -0.20685413 0.15868837 -0.09209 -0.11379316 0.06192133 0.034276925 0.053700738
0.07900712 0.048240304 -0.018221077 -0.018128105 -0.015376528 0.012797026 -0.038885653 -0.002279452
-0.07896383 -0.03769388 0.11233982 -0.05086783 -0.031011112 0.12773432 -0.05741487 0.078952655
-0.21843983 0.16074042 0.18543392 -0.1896875 -0.07363929 0.13974434 -0.0021753446 0.05080169
0.10374406 -0.09689277 -0.1274921 0.104706235 -0.025767222 0.09882438 0.02315497 -0.037390646
-0.09338331 0.092170045 -0.00655728 0.029576648 0.00868397 0.11119303 0.14717747 -0.017639456
0.17991294 0.07998381 0.069268815 -0.008032993 -0.07328365 -0.0032036486 0.042863186 -0.02450925
-0.03967915 -0.023340795 0.075689174 -0.14019509 -0.012896699 0.06635515 -0.090964146 -0.12181033
-0.03767628 0.01096871 -0.03791212 0.05654625 0.041536134 -0.0325391 -0.08650944 0.026055826
0.009936723 0.12123737 0.106182426 0.18536508 -0.07157866 0.102904305 -0.068708055 0.008164077
-0.00093891856 -0.036002606 -0.05680543 -0.07806652 0.04854975 0.050189793 -0.08656957 0.050334375
0.035390273 -0.041697875 -0.056422792 -0.07510261 -0.06735562 -0.20927168 -0.06027371 0.032000273
0.07284778 -0.030533422 -0.012970128 -0.09483206 -0.021400012 0.03849538 0.05425824 0.08038109
00000000: 6cf7 993b 1d43 153d 4551 8bbd 14c3 babd
00000010: fba6 4a3d 4685 4d3e d6ad 7ebd 92e1 a53d
00000020: 27b7 b23a 002a dc3d 6155 263d 6ee6 843b
00000030: b2d0 d33d 5f01 203e 25f8 ae3d 15c1 d0bd
00000040: 04f8 6ebe 9d14 ad3c 2dc3 0fbd 8013 d23d
00000050: f44a c5bb 08c7 c73c f2e1 f0bd b291 18be
00000060: 2f5d 163e 325c 9e3d b08c 8f3d d592 2f3d
00000070: 3fad 383c ddd0 2b3d 1008 11bd 8447 ac3b
00000080: c28b b2bd 8288 0ebe f9f2 1d3e 3164 0ebd
00000090: 7171 c53c c35a 4d3e 36e7 013d 6ede dabd
000000a0: 84a1 59bc e5d9 18bd 1553 5e3c 605f 40bd
000000b0: e353 713c 3938 803d 093e 0e3b c66a 073c
000000c0: 9ff3 6c3d 1392 f73d 3ef0 ca3d 3a37 833d
000000d0: 1881 a03d cfbb 26be d2f6 223c 6500 38be
000000e0: abcb 69bd d194 123e 181b 27bc 5765 bcbd
000000f0: 8db4 0d3e 8c9f 8a3d 7848 7ebd b322 a63c
00000100: e8a7 99bd b62f c63c fe43 da3c f92a ed3c
00000110: d90a 983d 5842 373e 5188 153d 3de1 37be
00000120: ae01 983d 5156 6dbd 264c db3d 72df 2a3e
00000130: 0c92 693e a980 1e3e 9a81 b93d 70c4 1fbd
00000140: 40e9 fc3d c27d a2bd b637 2fbd bb64 29be
00000150: 878b b13d 96d6 a9ba c00f 3a3d 311d 59bd
00000160: 4730 bcbd 35cd 14be 3753 933d 6159 6c3d
00000170: 21f0 4c3d 654c 813c 3a55 0bbe 06e6 8bbc
00000180: 4256 83b9 8c32 843d 3567 843c 81f2 043e
00000190: a3f2 253d 8859 03bd ce6a ca3d cddc 6dbd
000001a0: a997 6bbd bd43 d7bc aaeb e4bd 844f 4bbd
000001b0: 986a 83bc 7bc9 e9bd 800f 383d d898 37bd
000001c0: adc5 143d 2f21 8ebd e4fe c1bd ac6c 053e
000001d0: 824f 6a3d 5a1a b03d 30e2 be3d 3e5a 8e3d
000001e0: 93db 233d 2ee6 fc3b 615c c5bb ff11 863d
000001f0: 4879 8d3d 7973 c13d abb3 223d 1ce3 5bbc
00000200: 3333 9dbd 10aa 6fbd c6e8 143d 529a 823d
00000210: 55a3 ecbd 2dad 0bbd d7dc c3bc 8f39 673d
00000220: 46a1 8ebd 6794 be3d 9281 3b3d 15a5 38bd
00000230: 156b b13d 7851 e43d c290 76bb 563a bd3d
00000240: 166b 0a3e 3ef7 00bd 66bf 2fbd 6476 653d
00000250: 725b f1bd ba9b d8bc 922d f13d 23b2 963d
00000260: 62c6 1a3d 92d1 53be 347f 223e af99 bcbd
00000270: 630c e9bd 38a1 7d3d f665 0c3d 4ef5 5b3d
00000280: 7cce a13d a097 453d 5e44 95bc 6481 94bc
00000290: d5ed 7bbc 9eaa 513c 9046 1fbd dc62 15bb
000002a0: cab7 a1bd e664 1abd 6b12 e63d c95a 50bd
000002b0: 040b febc c9cc 023e db2b 6bbd eeb1 a13d
000002c0: b1ae 5fbe 2399 243e 64e2 3d3e 713d 42be
000002d0: 32d0 96bd 2419 0f3e 3a90 0ebb 6f15 503d
000002e0: c477 d43d b76f c6bd 4a8d 02be 3970 d63d
000002f0: c815 d3bc 7064 ca3d 7eaf bd3c ef26 19bd
00000300: c03f bfbd a6c3 bc3d 74de d6bb ba4a f23c
00000310: 3647 0e3c 2cb9 e33d b1b5 163e 9f80 90bc
00000320: 193b 383e 8dce a33d cfdc 8d3d d19c 03bc
00000330: bd15 96bd 4ef4 51bb 4f91 2f3d 9fc7 c8bc
00000340: 9b86 22bd 3235 bfbc ed02 9b3d 4d8f 0fbe
00000350: ad4c 53bc 35e5 873d 694b babd b277 f9bd
00000360: 7152 1abd 1bb6 333c bd49 1bbd 0a9d 673d
00000370: cb21 2a3d b847 05bd dc2b b1bd 0773 d53c
00000380: a3cd 223c 4c4b f83d 2c76 d93d 58d0 3d3e
00000390: d597 92bd 7ebf d23d cfb6 8cbd 9fc2 053c
000003a0: c221 76ba 7877 13bd d0ac 68bd 57e1 9fbd
000003b0: 1adc 463d d093 4d3d 634b b1bd 6b2b 4e3d
000003c0: 64f5 103d 64cb 2abd 961b 67bd 66cf 99bd
000003d0: bef1 89bd 514b 56be 91e1 76bd b812 033d
000003e0: 3831 953d 3a21 fabc a980 54bc 5037 c2bd
000003f0: 144f afbc 55ad 1d3d e33d 5e3d d79e a43d

bn1.running_mean f4 [400]
0.32968232 0.097825624 1.1016197 0.29898554 0.4978348 0.25383663 0.056750156 0.36941838
0.1681955 0.08658163 0.3272714 0.8535892 0.6180314 0.09894139 0.22168937 0.40177977
1.867644 0.10163926 0.22322619 0.97711927 0.27442017 0.20293462 1.1522825 0.5049536
0.067785986 6e-45 0.16020168 0.8614106 0.024400847 0.0329533 0.14458533 0.03703479
0.533978 0.6530103 0.57268965 0.08191712 1.9958417 0.11867485 0.5182036 0.036431927
0.09665013 0.44467953 0.09821172 0.17896026 0.4455693 0.102410465 0.33196524 0.6010006
1.06033 0.06465643 0.6854707 1.0637273 1.0187693 0.3279592 0.13268636 1.172221
0.76219976 0.5534261 0.93114984 1.186986 0.40778124 0.11633834 0.6634377 0.162846
1.0266768 0.24284908 0.026046472 0.70796525 1.1825848 0.9081031 0.47289357 0.042438008
0.13940132 0.15210989 0.6181882 0.20949316 0.08044226 0.1918079 0.9880207 0.40218773
0.6769968 0.94019496 0.000705695 0.49836543 0.7501221 0.6471001 0.10290752 1.7267431
1.2140102 0.24969132 0.7426035 0.018889898 1.2946478 0.0796151 0.711215 0.09635382
0.24799854 0.13259557 0.11381552 0.27483487 0.7910509 0.4255815 0.24285635 0.841217
0.27057558 0.13200039 0.70428383 0.45341036 0.26890054 0.026611874 0.20725325 0.21858919
0.23664822 1.3068534 0.16940895 0.23544694 0.19462682 0.20506673 0.11790536 0.2231736
0.28976676 1.3305405 0.5117581 0.04010824 0.4065178 0.32003966 1.3471123 0.14494269
0.38123125 0.6034892 0.20212314 0.23699595 1.3920993 6e-45 0.34601563 0.35156518
1.0823486 0.25284296 0.06880107 0.44806552 0.48306203 0.25084773 0.1526866 0.29415077
0.08585888 0.28069416 0.78448534 1.2199929 0.11833911 1.2428889 0.8556347 0.7288556
0.3052829 1.5397612 0.07149953 0.66349804 1.5290686 0.5387213 0.45890582 0.3383901
0.4013708 0.39562854 0.22267641 0.053003967 2.1197965 0.4761424 0.0972819 0.09510775
0.054646336 0.15804732 0.05072514 1.3026599 2.069077 0.56280375 0.015785662 0.36064386
0.7925545 0.18048173 0.50242245 2.0577524 0.1625953 0.0574085 0.95818776 0.18421333
0.70280606 0.52501047 0.12058059 0.16512239 0.28260556 0.9376303 1.2532907 0.11084507
0.77925336 0.2307375 0.23205295 0.8246885 0.055224933 0.9771925 0.25062847 0.40078825
0.50825703 0.9910871 0.38839078 0.030130953 0.309228 0.47620723 0.32573965 0.5338989
0.19436295 0.34650728 0.22223067 0.5812314 0.032569516 0.08883608 0.23878685 1.0236295
0.7353843 0.26345477 0.103000835 0.53638285 1.17786 0.41141978 0.22418058 0.9743919
0.017958544 1.2200111 0.49200135 0.027565777 0.06663141 0.37553185 0.19922931 0.41961333
0.08616394 0.22658376 0.14665201 0.95864725 0.58627266 0.03161413 0.53688836 0.08653685
1.2606165 0.102138154 0.6488503 1.2172567 0.2374983 3.4416716 0.108871385 0.12151981
0.120572254 0.034207903 0.067330465 0.24569747 0.47602454 0.5155133 1.0042554 0.13899417
00000000: 1fcc a83e cd58 c83d e001 8d3f a214 993e
00000010: 34e4 fe3e e0f6 813e da72 683d 6824 bd3e
00000020: 713b 2c3e b651 b13d 1e90 a73e d284 5a3f
00000030: 4e37 1e3f c9a1 ca3d 8a02 633e 14b6 cd3e
00000040: f50e ef3f 3f28 d03d 6895 643e 7d24 7a3f
00000050: cd80 8c3e 18ce 4f3e fe7d 933f a444 013f
00000060: 61d3 8a3d 0400 0000 e90b 243e 6885 5c3f
00000070: 49e4 c73c 0afa 063d 2d0e 143e cbb1 173d
00000080: c8b2 083f af2b 273f ca9b 123f 2ac4 a73d
00000090: be77 ff3f cd0b f33d fea8 043f a539 153d
000000a0: 81f0 c53d 09ad e33e 3a23 c93d 5c41 373e
000000b0: a921 e43e 94bc d13d 59f7 a93e 2ddb 193f
000000c0: e5b8 873f 976a 843d 027b 2f3f 3728 883f
000000d0: 0867 823f 45ea a73e efde 073e 560b 963f
000000e0: 861f 433f 55ad 0d3f d65f 6e3f 28ef 973f
000000f0: b4c8 d03e cc42 ee3d 0ed7 293f 1ac1 263e
00000100: 256a 833f 6ead 783e 695f d53c 363d 353f
00000110: f05e 973f 7279 683f 1b1f f23e 7ad3 2d3d
00000120: 38bf 0e3e b2c2 1b3e 9541 1e3f 6085 563e
00000130: e9be a43d 4a69 443e edee 7c3f 8deb cd3e
00000140: aa4f 2d3f 9eb0 703f 64fe 383a c129 ff3e
00000150: 0008 403f 5aa8 253f 2ec1 d23d eb05 dd3f
00000160: b064 9b3f 15af 7f3e 431b 3e3f fdbe 9a3c
00000170: 05b7 a53f 3e0d a33d 3012 363f 2755 c53d
00000180: 54f3 7d3e 22c7 073e 1d18 e93d 28b7 8c3e
00000190: 5082 4a3f d2e5 d93e 56af 783e ff59 573f
000001a0: e288 8a3e 1c2b 073e f24b 343f 6725 e83e
000001b0: 55ad 893e 2501 da3c 323a 543e d8d5 5f3e
000001c0: e953 723e f946 a73f 8a79 2d3e 0119 713e
000001d0: 414c 473e 03fd 513e 5e78 f13d 9f87 643e
000001e0: 4f5c 943e 274f aa3f 9402 033f 8a48 243d
000001f0: 1a23 d03e 3ddc a33e 2d6e ac3f db6b 143e
00000200: be30 c33e 457e 1a3f 5ef9 4e3e 11af 723e
00000210: 4f30 b23f 0400 0000 f628 b13e 5a00 b43e
00000220: 668a 8a3f a274 813e 93e7 8c3d d868 e53e
00000230: e853 f73e 1d6f 803e e059 1c3e ee9a 963e
00000240: c8d6 af3d 25b7 8f3e 08d4 483f ba28 9c3f
00000250: c65b f23d fc16 9f3f e00a 5b3f 4896 3a3f
00000260: 0a4e 9c3e e516 c53f 586e 923d 02db 293f
00000270: 85b8 c33f a4e9 093f b4f5 ea3e 7841 ad3e
00000280: 7980 cd3e d38f ca3e 4905 643e b01a 593d
00000290: bfaa 0740 f0c8 f33e bc3b c73d dac7 c23d
000002a0: d6d4 5f3d 28d7 213e 2ac5 4f3d 8fbd a63f
000002b0: c26b 0440 e813 103f ef50 813c 50a6 b83e
000002c0: dae4 4a3f 34d0 383e c29e 003f 37b2 0340
000002d0: 627f 263e 2d25 6b3d cb4b 753f 6ba2 3c3e
000002e0: 19eb 333f 1667 063f f5f2 f63d d815 293e
000002f0: adb1 903e 8a08 703f d46b a03f bd02 e33d
00000300: 267d 473f 7446 6c3e 4a9f 6d3e c91e 533f
00000310: 8a33 623d 4a29 7a3f 6052 803e 1e34 cd3e
00000320: 221d 023f e2b7 7d3f 28db c63e 30d5 f63c
00000330: 2253 9e3e 6fd1 f33e 59c7 a63e 99ad 083f
00000340: 1507 473e 6769 b13e 7090 633e 95cb 143f
00000350: 9d67 053d b1ef b53d 8a84 743e 4b06 833f
00000360: 2542 3c3f 8be3 863e 1af2 d23d 6350 093f
00000370: 1ec4 963f 9da5 d23e 988f 653e bf71 793f
00000380: cc1d 933c 5329 9c3f 9ae7 fb3e a0d1 e13c
00000390: 0c76 883d b645 c03e c502 4c3e 8fd7 d63e
000003a0: b876 b03d 9305 683e f22b 163e e869 753f
000003b0: f715 163f d17d 013d 8471 093f 3b3a b13d
000003c0: e25b a13f cf2d d13d 0e1b 263f 11cf 9b3f
000003d0: c132 733e 5944 5c40 f6f7 de3d 61df f83d
000003e0: 96ee f63d 961d 0c3d 8ee4 893d 1e98 7b3e
000003f0: 7db9 f33e aef8 033f 718b 803f 7d54 0e3e
