collaboration_competition/outputs/exp_7/critic_1000.pth (torch_old, 545385 bytes, 21 tensors)

fcs1.weight f4 [400, 24]
0	0x3b625d17	0.003454035
1	0xbd2a7cbe	-0.04162287
2	0xbc1547ea	-0.009111384
3	0x3c45bade	0.012068478
4	0x3d67c338	0.05658266
5	0x3e123491	0.14277865
6	0x3c4ada08	0.012381084
7	0xbbaa5275	-0.005197818
8	0xbd5768df	-0.052590247
9	0x3cc26621	0.02373034
10	0x3d1c081d	0.038093675
11	0xbcd1b388	-0.025598302
12	0xbd1c0e64	-0.03809966
13	0x3ce7fe9c	0.02831965
14	0xbcf67e92	-0.03008965
15	0xbc09d75c	-0.008413162
16	0x3cf6ee23	0.03014285
17	0xbc442608	-0.011971958
18	0xbca37ed3	-0.019957935
19	0x3caae126	0.020859312
20	0xbcebdd28	-0.028791979
21	0xbe8e8ac1	-0.27840236
22	0x3bfda098	0.0077400915
23	0x3cf3ada2	0.02974588
24	0x3cb831ec	0.022484742
25	0x3d460ee6	0.048354052
26	0xbcc9b0ba	-0.024620403
27	0xbc75cee9	-0.0150029445
28	0xbc451ee8	-0.012031294
29	0xbd9ae0bf	-0.07562398
30	0x3d222180	0.03958273
31	0xbd189755	-0.037253696
32	0xbc98a6e8	-0.018634275
33	0x3cd6c380	0.026216269
34	0x3bac9311	0.005266555
35	0x3d24df12	0.0402518
36	0x3d91b9bd	0.07115505
37	0xbd41b89e	-0.047295205
38	0x3d33902f	0.043838676
39	0xbd04a4f3	-0.03238387
40	0xbd061c1a	-0.032741643
41	0x3d1caadb	0.038248878
42	0x3c7d29ae	0.015451832
43	0xbddae606	-0.10688405
44	0x3daec808	0.08534247
45	0xbe0a5315	-0.13508256
46	0xbc9e3caf	-0.019316046
47	0xbd94fe08	-0.07275015
48	0x3c0bd8c3	0.008535567
49	0xbd9cfbd1	-0.07665218
50	0x3d1e3ba1	0.038631085
51	0xbca7536c	-0.02042552
52	0x3dc45274	0.09586039
53	0x3d62b14a	0.055344857
54	0xbcf50ee7	-0.029914333
55	0x3c988724	0.018619128
56	0x3d5cfb2e	0.05395048
57	0xbdcb15f8	-0.099162996
58	0x3d49016d	0.049073625
59	0x3b94282f	0.004521392
60	0x3d526774	0.05136819
61	0x3d713a2f	0.05889338
62	0xbc0e1dda	-0.008674109
63	0xbd41cf45	-0.04731681
64	0x3d5d28b2	0.05399389
65	0xbdcd198f	-0.100146405
66	0x3d138538	0.03601572
67	0xbba2c156	-0.004966895
68	0xbd04c668	-0.032415777
69	0xbdbe7a87	-0.09300714
70	0x3c34bdeb	0.011031608
71	0xbb9a638c	-0.004711574
72	0xbc9a6ab0	-0.0188497
73	0xbd315a9b	-0.0432993
74	0x3c44aa24	0.012003455
75	0x3d50b9c9	0.05095843
76	0xbcc2ff4e	-0.02380338
77	0x3de59c1c	0.11211416
78	0x3bd02160	0.006351635
79	0x3d13d38d	0.036090422
80	0x3bf2218b	0.0073892525
81	0x3c2de8f1	0.01061462
82	0x3c88f729	0.016719418
83	0xbd10b838	-0.035331935
84	0xbc73753c	-0.014859494
85	0x3d8207f8	0.06349176
86	0xbb76d87f	-0.0037665663
87	0xbd0ddf96	-0.034637056
88	0xbc27de45	-0.010245864
89	0xbaa266b7	-0.001239023
90	0x3b8e771a	0.004347694
91	0x3c53d1f9	0.012928479
92	0x3d982f94	0.0743095
93	0xbea240f5	-0.31690183
94	0x3c60f9b8	0.013731413
95	0xbc6fb0df	-0.014629572
96	0x3dc8e577	0.09809392
97	0x3df660e4	0.12030199
98	0xbd226c2d	-0.039653946
99	0x3b6c50c5	0.0036058885
100	0x3c855ba3	0.016279047
101	0x3d1c65d1	0.038183037
102	0xbcaa8b90	-0.020818502
103	0xbcd66cee	-0.026174989
104	0x3d30f18d	0.04319911
105	0x3e19fc26	0.15037593
106	0xbcc00420	-0.023439467
107	0x3bdfe101	0.0068322425
108	0x3c29c0e7	0.010360933
109	0x3d55a115	0.052155573
110	0x3b8b22ff	0.004246115
111	0xbd177623	-0.0369779
112	0x3d43bce1	0.04778755
113	0x3d9e81c2	0.07739593
114	0xbc79f5a0	-0.0152563155
115	0xbe04a6a6	-0.12954196
116	0xbc8f5322	-0.017495696
117	0xbc1f60f4	-0.009727705
118	0x3c0167c1	0.007898272
119	0xbe194d16	-0.14970812
120	0x3d05006c	0.032471105
121	0x3c02ecae	0.007990999
122	0x3d2da660	0.042394996
123	0xbe17fa81	-0.14841653
124	0x3c0d8e42	0.008639874
125	0xbe43d067	-0.19122468
126	0xbcb0183f	-0.021495936
127	0xbd7cff3e	-0.061766855
128	0x3d333565	0.043752093
129	0xbcecc975	-0.028904656
130	0xbbfea8c9	-0.0077715856
131	0xbdb7ee66	-0.08981018
132	0x3bd6956c	0.006548574
133	0xbda4a6d9	-0.08039636
134	0xbca9bb60	-0.02071923
135	0xbdd59650	-0.104290605
136	0xbc33afd5	-0.010967215
137	0x3b99c1ed	0.004692307
138	0x3bc59686	0.0060299067
139	0xbc55c80d	-0.013048184
140	0xbb6a3b85	-0.0035741043
141	0xbdc80a3a	-0.097675756
142	0x3be33404	0.006933691
143	0xbd9bfe33	-0.07616844
144	0x3cf2ac3c	0.029623143
145	0xbc0f797a	-0.00875699
146	0xbcf74dd6	-0.030188482
147	0x3d7a186d	0.06105845
148	0xbcd2bd27	-0.02572496
149	0xbd1fb5c7	-0.038991716
150	0x3cd8505a	0.026405502
151	0x3d30efc1	0.043197397
152	0x3d9a5233	0.075352095
153	0xbc3c8462	-0.011506172
154	0xbc3bc036	-0.011459401
155	0x3d23c03e	0.03997826
156	0x3d3bd065	0.045853037
157	0x3d8d20fd	0.06891058
158	0xbd4ac770	-0.049506605
159	0x3d6e32ce	0.05815392
160	0x3d7b6b31	0.061381523
161	0xbd2d59bb	-0.0423219
162	0x3b9302cc	0.0044864174
163	0x3d3db450	0.046314538
164	0x3d734c1f	0.059398767
165	0x3d6ffb61	0.058589343
166	0x3d2c5aee	0.042078905
167	0x3da1e9ad	0.07905898
168	0xbc6c1d95	-0.01441135
169	0xbc8aba3f	-0.016934512
170	0x3cfc423b	0.0307933
171	0x3c913ddd	0.017729694
172	0x3d2a6129	0.041596565
173	0xbce2dbf0	-0.027692765
174	0xbcc72293	-0.024308478
175	0xbcce8797	-0.025211139
176	0x3c5a5e1e	0.013328103
177	0xbcfed395	-0.03110675
178	0xbc6a3206	-0.014294153
179	0xbcbfb178	-0.023400053
180	0xbd87cad7	-0.066304855
181	0x3d99f7db	0.07517978
182	0x3c8a518d	0.01688459
183	0x3cb8052e	0.022463407
184	0xbcff88c5	-0.031193146
185	0x3d766ee2	0.06016434
186	0xbce04fdc	-0.02738183
187	0xbcc92ecd	-0.02455845
188	0xbe683559	-0.226766
189	0xbbd69fd0	-0.006549813
190	0x3d01760b	0.031606715
191	0x3cc310b3	0.023811674
192	0xbcd9c736	-0.026584249
193	0x3ce86962	0.028370563
194	0xba53a785	-0.00080739736
195	0x3c9c1c7d	0.019056553
196	0x3d71fd01	0.059079174
197	0xbd4edb7e	-0.050502293
198	0x3c3e6392	0.011620419
199	0x3d13620f	0.035982188
200	0x3c00a541	0.0078519
201	0x3d1e260f	0.038610514
202	0xbbcd651d	-0.006268157
203	0x3c009092	0.007846968
204	0xbce82214	-0.028336562
205	0xbe258ab3	-0.16166191
206	0xbbebc238	-0.0071947835
207	0xbbef378a	-0.007300322
208	0xbbc3d297	-0.005976032
209	0xbc987b4e	-0.018613484
210	0xbc1c8949	-0.009554216
211	0xbd02c694	-0.03192766
212	0xbd128e21	-0.035780076
213	0x3db3e5b4	0.08784047
214	0x3cd2ee34	0.02574835
215	0xbc5b3438	-0.013379149
216	0xbcbc61c1	-0.022995831
217	0x3c1d1b89	0.009589084
218	0xbcd4d69a	-0.025981236
219	0x3cab84a7	0.020937277
220	0xbc60ff14	-0.01373269
221	0x3b014e4e	0.001973051
222	0x3cdb4cb4	0.026769973
223	0x3bd19231	0.006395601
224	0x3ccf2489	0.025285976
225	0x3db3166e	0.087445125
226	0xbc526053	-0.012840348
227	0x3dbd66c7	0.09248119
228	0xbcd88838	-0.026432142
229	0xbd5ac596	-0.05341109
230	0x3b84a95a	0.0040485086
231	0x3d8c5fd7	0.068542175
232	0x3cc1aca2	0.023641888
233	0x3d85861b	0.06519719
234	0x3d3d0027	0.046142723
235	0x3d9a52da	0.07535334
236	0xbd2d6f84	-0.042342678
237	0xbe27f413	-0.164017
238	0x3c21f120	0.009884149
239	0x3dacefc0	0.08444166
240	0xbdafd4f4	-0.085855395
241	0x3e15bf96	0.14623865
242	0xbc3950fa	-0.01131081
243	0xbb72fd19	-0.0037077127
244	0x39ed65c0	0.00045279972
245	0xbcef80a2	-0.029236142
246	0x3be6fb68	0.007049013
247	0x3d16d3b3	0.036822986
248	0xbd119c6c	-0.035549566
249	0x3dcf2e21	0.1011622
250	0xbd2a5c17	-0.04159173
251	0x3c87f368	0.016595557
252	0x3d00be44	0.03143145
253	0xbddae1bc	-0.10687587
254	0x3d1687b3	0.036750507
255	0x3b6f93ce	0.0036556604

fcs1.bias f4 [400]
0	0x3e3779eb	0.17917602
1	0x3c9c407b	0.019073715
2	0x3aee2dc6	0.00181716
3	0x3e16926d	0.14704295
4	0xbb72bd64	-0.0037039155
5	0xbd56e468	-0.05246392
6	0xbc3ff824	-0.011716876
7	0xbe2fa188	-0.17151463
8	0xbdd14bf8	-0.10219568
9	0xbe74d11c	-0.23907894
10	0x3c094423	0.0083780615
11	0xbe5e9757	-0.21737419
12	0x3bf965bc	0.0076110046
13	0xbd54eb0c	-0.05198197
14	0x3d8861f2	0.066593066
15	0xbe349c93	-0.17637853
16	0xbce079b2	-0.027401779
17	0xbd11dd40	-0.03561139
18	0xbdf9ecc0	-0.122033596
19	0x3e1e33eb	0.15449493
20	0xbe4e440b	-0.20143144
21	0x3e217a8e	0.15769407
22	0xbd0a114f	-0.033707913
23	0xbe2f9294	-0.17145759
24	0xbe76af43	-0.24090295
25	0xbe5df227	-0.21674405
26	0xbdb05f54	-0.086119324
27	0x3e158793	0.14602499
28	0x3c18612b	0.00930051
29	0xbe2fd2fa	-0.17170325
30	0x3e1cee85	0.15325363
31	0x3e38bf83	0.18041806
32	0x3d92c911	0.071672566
33	0x3e278fe5	0.16363485
34	0x3e1c6660	0.15273428
35	0x3c8d715d	0.01726597
36	0x3de057e0	0.10954261
37	0xbe480877	-0.19534479
38	0xbd955061	-0.07290722
39	0xbde3aaf3	-0.1111659
40	0xbd52dea4	-0.051481858
41	0xbe5aacdf	-0.21355008
42	0x3e07516c	0.13214654
43	0xbd86b97c	-0.06578347
44	0x3d8b05ac	0.06788191
45	0x3e324b1d	0.17411466
46	0x3cb2cbd3	0.021825707
47	0x3c078044	0.008270327
48	0x3e754c55	0.239549
49	0xbe5f7cf3	-0.21825008
50	0x3e1f5919	0.15561332
51	0xbe48a025	-0.1959234
52	0x3e5896f9	0.21151341
53	0xbd4498f4	-0.04799743
54	0xbe24a6dc	-0.16079277
55	0xbde11e3a	-0.109920934
56	0xbdd7ca1b	-0.105365954
57	0x3e2cf8f2	0.1689184
58	0x3e2853a5	0.16438158
59	0x3d9a3b1d	0.07530806
60	0x3e3d6160	0.18494177
61	0x3e52105d	0.20514055
62	0xbe5cecfb	-0.21574776
63	0x3d913d16	0.07091729
64	0xbbaea39a	-0.0053295614
65	0x3e0aa94a	0.13541141
66	0x3d480cb8	0.048840255
67	0xbd0270da	-0.031845905
68	0x3e129ea1	0.14318325
69	0xbe27402d	-0.16333075
70	0xbe51d6b0	-0.20492053
71	0xbe2554a9	-0.16145577
72	0x3dbadd39	0.09124226
73	0xbd9686a7	-0.07349902
74	0xbe553a7e	-0.20823094
75	0x3d7f13c0	0.062274694
76	0x3c36cc94	0.011157174
77	0xbdc86af8	-0.09786028
78	0x3e3c2b06	0.18375787
79	0x3e11bc15	0.14231904
80	0x3e4105f7	0.18849932
81	0xbcf68728	-0.030093744
82	0xbe0fcddc	-0.14043373
83	0xbe4710de	-0.19440028
84	0xbd189929	-0.03725544
85	0xbe1b57f9	-0.15170278
86	0x3d8e6936	0.06953661
87	0xbe6899a4	-0.22714859
88	0xbe268e09	-0.1626512
89	0x3cb6c2db	0.022309711
90	0x3d1074ab	0.035267513
91	0xbd097038	-0.033554286
92	0xbcf80e5a	-0.03028028
93	0xbd9bccc6	-0.07607417
94	0xbdd39e50	-0.1033293
95	0xbc2dd8c9	-0.010610768
96	0xbe83fbd5	-0.2577807
97	0xbd7e69d4	-0.062112644
98	0xbddd3207	-0.108005576
99	0xb8e20160	-0.00010776776
100	0x3e0876a1	0.13326503
101	0xbe436ca9	-0.1908442
102	0x3d9c4204	0.07629779
103	0x3d9f6f94	0.07784954
104	0x3d96d244	0.07364324
105	0xbd90863b	-0.070568524
106	0x3e119b5e	0.14219424
107	0xbe3367ea	-0.17520109
108	0xbde81a1b	-0.11333104
109	0x3c6e508a	0.014545569
110	0xbcbae8c2	-0.022816066
111	0xbe589f9a	-0.21154633
112	0x3dddf4ab	0.10837682
113	0x3e03f717	0.12887226
114	0xbe349df3	-0.17638378
115	0xbc22111b	-0.009891774
116	0xbe400551	-0.18752028
117	0xbd6f3f61	-0.058410052
118	0x3c7777c4	0.015104238
119	0x3e3c421b	0.18384592
120	0x3df1994a	0.11796816
121	0x3dd9faeb	0.10643562
122	0x3d9d6315	0.07684914
123	0xbe39c081	-0.1813984
124	0xbdf0f9d4	-0.11766401
125	0x3e0260b1	0.12732197
126	0xbc416744	-0.011804406
127	0xbd778872	-0.06043286
128	0xbda95658	-0.08268422
129	0x3d91bffe	0.07116698
130	0x3ddc594d	0.1075922
131	0xbd03e7c7	-0.032203462
132	0x3cdb39f4	0.026761033
133	0x3e2152e3	0.15754275
134	0x3e423664	0.18966061
135	0x3db5bcb4	0.08873883
136	0x3def8eca	0.11697157
137	0x3ce1e7cd	0.027576352
138	0x3d3195a7	0.04335561
139	0xbe88c90d	-0.2671589
140	0xbd930f11	-0.07180608
141	0xbd8b6a89	-0.06807429
142	0x3d1910e0	0.03736961
143	0xbde3bef6	-0.11120407
144	0xbe66c376	-0.225355
145	0x3e168c0e	0.14701864
146	0xbdfb840f	-0.122810476
147	0xbe53a679	-0.20668973
148	0xbe024a8c	-0.1272375
149	0x3d0dce54	0.034620598
150	0xbdf20c9c	-0.11818811
151	0xbe794edf	-0.24346493
152	0x3dfd39bf	0.1236453
153	0x3c75fde0	0.015014142
154	0x3e24ff02	0.16112903
155	0xbe73a30b	-0.23792665
156	0xbc4a26fe	-0.012338398
157	0xbe0b055c	-0.13576263
158	0xbe143090	-0.1447165
159	0xbd30c427	-0.043155815
160	0x3e569385	0.20954712
161	0xbcc9982a	-0.02460869
162	0x3e337954	0.17526752
163	0xbd43dbb8	-0.047816962
164	0xbe17b67a	-0.14815703
165	0xbd9d3a80	-0.076771736
166	0x3dd9a1f9	0.10626597
167	0x3e1c2b92	0.15250996
168	0xbd7c47e0	-0.061591983
169	0xbd5e8cc7	-0.054333474
170	0xbe4749dd	-0.1946177
171	0xbe126226	-0.14295253
172	0xbd3ff349	-0.046862874
173	0x3d687fef	0.056762632
174	0x3ccb99f9	0.024853693
175	0x3df44330	0.119268775
176	0xbe1b9779	-0.15194501
177	0x3d0526c9	0.03250769
178	0xbe414389	-0.18873419
179	0xbdd04be8	-0.10170728
180	0x3e1fbac9	0.15598597
181	0x3bde2547	0.006779346
182	0xbe1a36bc	-0.15059942
183	0xbe6de46e	-0.2323167
184	0xbdcc0f59	-0.09963865
185	0xbd942fd8	-0.07235688
186	0xbe62d46f	-0.2215135
187	0x3e0d198a	0.13779274
188	0x3c84a804	0.016193397
189	0xbd8a1c50	-0.067436814
190	0x3e4d86e3	0.20070986
191	0xbdca2be4	-0.09871653
192	0x3cebee9f	0.028800307
193	0x3db4de47	0.088314585
194	0x3db560ea	0.088563755
195	0x3e052622	0.13002828
196	0xbdd7e4f4	-0.10541716
197	0xbe502f3a	-0.20330516
198	0x3e451d81	0.19249536
199	0xbe50a37b	-0.20374863
200	0xbdb03c91	-0.08605302
201	0x3e0cc2ae	0.1374614
202	0xbddd97a3	-0.10819938
203	0xbd04d8f1	-0.032433454
204	0xbdea4df4	-0.1144065
205	0xbbc10e1f	-0.005891576
206	0xbdaa73b2	-0.083228484
207	0x3cd4c5e1	0.025973262
208	0x3e4a3cbd	0.19749732
209	0xbe4f24fd	-0.20228954
210	0x3de3eee8	0.11129552
211	0xbdb47ec7	-0.08813243
212	0xbe897d3a	-0.26853353
213	0x3d53ecff	0.05173969
214	0xbddeb9d5	-0.108752884
215	0x3dc15602	0.09440233
216	0xbcf42de1	-0.029807033
217	0xbe2d9253	-0.1695035
218	0xbe66cc54	-0.22538882
219	0x3c901024	0.017585821
220	0xbe782f2f	-0.24236749
221	0x3df92167	0.12164574
222	0x3e125df4	0.14293653
223	0xbe410656	-0.18850073
224	0x3e2ea532	0.17055205
225	0xbe12fb92	-0.14353779
226	0x3d0b68cc	0.03403549
227	0xbd8cde35	-0.0687832
228	0x3e0a3de9	0.1350018
229	0xbe1cdddd	-0.15319009
230	0xbd750b51	-0.059825245
231	0xbdaa2d69	-0.083094425
232	0xbdd6b443	-0.10483601
233	0xbc8fd30b	-0.017556688
234	0xbe0e0b0c	-0.13871402
235	0x3d162bb3	0.03666277
236	0x3c687e0d	0.014190209
237	0xbe218064	-0.15771633
238	0x3c865bee	0.016401257
239	0x3e1ce712	0.15322521
240	0x3de15998	0.11003417
241	0x3d975e5e	0.07391046
242	0xbdc43faa	-0.095824555
243	0xbe3e9d85	-0.18614776
244	0x3e04ef92	0.12982014
245	0xbc099912	-0.008398311
246	0xbd0350aa	-0.03205935
247	0x3d89fee0	0.06738067
248	0xbdbfb7d8	-0.09361237
249	0xbe844307	-0.25832388
250	0xbe21327d	-0.15741916
251	0xbe4a4c25	-0.1975561
252	0x3dac4a11	0.084125645
253	0x3dae9fa1	0.085265405
254	0xbde2989a	-0.11064263
255	0xbda2e2a6	-0.07953386

fc2.weight f4 [300, 402]
0	0x3d55fc00	0.05224228
1	0xbcb93c76	-0.022611838
2	0x3bfb4883	0.007668556
3	0xbbdf831c	-0.0068210494
4	0xbc975ff3	-0.01847837
5	0x3ce37caa	0.027769405
6	0xbc0f66f8	-0.008752577
7	0xbcf8b3ad	-0.030359114
8	0xbcfbe2fa	-0.03074788
9	0x3d1d5fab	0.038421314
10	0x3d06499f	0.032785054
11	0xbd7973c9	-0.060901437
12	0xbd6f77c5	-0.05846383
13	0x3ae3f58a	0.0017391902
14	0x3b0b5530	0.0021260493
15	0x3c75e601	0.0150084505
16	0xbd06d608	-0.03291896
17	0x3d596fbd	0.053085078
18	0xbaf8421a	-0.0018940598
19	0x3d041f82	0.03225661
20	0x3cfda545	0.030962596
21	0x3c63e97e	0.013910649
22	0x3ca55c51	0.020185621
23	0xbd3b062b	-0.04566018
24	0xbd25330c	-0.040331885
25	0xbce9403b	-0.02847301
26	0xbd92823c	-0.071537465
27	0xbd388bd6	-0.045055233
28	0x3d3169a6	0.043313645
29	0xbd4e78b6	-0.050408088
30	0xbd0c9a9b	-0.03432713
31	0xbd31f450	-0.043445885
32	0xbac1a2b1	-0.0014773217
33	0xbcdd8756	-0.027042072
34	0xbcc0ac0d	-0.02351954
35	0xbd45e67e	-0.048315518
36	0x3d143768	0.036185652
37	0xbcc9658f	-0.02458456
38	0x3ad6c89d	0.0016386692
39	0xbc8bf36f	-0.017083852
40	0x3bc94e2f	0.0061433534
41	0x3c947056	0.018119972
42	0x3d336939	0.04380152
43	0xb903c563	-0.00012566666
44	0xbcf2f153	-0.029656088
45	0xbd7c3c19	-0.06158075
46	0xbd65daa5	-0.05611672
47	0x3d2c07de	0.04199969
48	0x3bfeca36	0.0077755703
49	0xbc65f4f3	-0.014035451
50	0xbd042b5e	-0.03226792
51	0xbd83378b	-0.06407078
52	0xbd37e43f	-0.044895407
53	0xbcdecc73	-0.027197098
54	0xbbf7b3f1	-0.0075592925
55	0x3d4856c5	0.048910875
56	0xbce26525	-0.02763612
57	0xbcaba186	-0.020951044
58	0x3cc4fcf9	0.024046408
59	0x3c6afed3	0.014342981
60	0xbcb45a77	-0.022015793
61	0x3cddb813	0.027065312
62	0xbd5357f3	-0.051597547
63	0x3d11ba37	0.03557798
64	0xbd33dfb8	-0.043914527
65	0xbd5a6cd5	-0.053326447
66	0x3c81380f	0.015773801
67	0x3c943618	0.0180922
68	0xbd7772f4	-0.060412362
69	0xbd1b4327	-0.03790584
70	0xbd0d3b0b	-0.034480136
71	0xbc836110	-0.016037494
72	0xbbfe802f	-0.0077667455
73	0xbd382dc0	-0.044965506
74	0x3c0d7bc4	0.008635465
75	0xbcffd962	-0.031231586
76	0x3d06f600	0.032949448
77	0x3cfd1eb5	0.030898431
78	0x3cc84f44	0.02445186
79	0x3d038778	0.032111615
80	0x3b653ce4	0.003497892
81	0x3cbca939	0.02302991
82	0xbd8141cf	-0.0631138
83	0x3c9ee571	0.019396516
84	0x3d1f763d	0.03893112
85	0xbce80071	-0.028320523
86	0x3c9b0c74	0.018926837
87	0xbd501f75	-0.05081125
88	0x3d1dc990	0.038522303
89	0x3ca22c5f	0.019796548
90	0xbc541369	-0.012944081
91	0x3d339edd	0.043852676
92	0xbb948bd5	-0.004533271
93	0x3d0f4052	0.03497345
94	0x3d687d86	0.056760333
95	0xbd501687	-0.050802734
96	0x3d1f55e6	0.03890028
97	0x3d4e279d	0.050330747
98	0x3c83a388	0.016069189
99	0x3b8c578c	0.0042828973
100	0xbca56ffd	-0.020195002
101	0x3b5976da	0.0033182413
102	0xbcd694d4	-0.026194014
103	0xbaa4acd7	-0.0012563717
104	0x3d1573a9	0.036487255
105	0xbd1cac1d	-0.038250078
106	0x3d5a5df0	0.053312242
107	0xbd397c49	-0.045284543
108	0x3d73cdef	0.059522565
109	0xbbe1e0cf	-0.0068932544
110	0xbbd5434b	-0.006508266
111	0x3b99b7d5	0.004691104
112	0xbd6e22a1	-0.058138493
113	0xbd04d2df	-0.032427665
114	0x3b261f49	0.0025348237
115	0xbd14d4c7	-0.036335733
116	0x3c826c84	0.015920885
117	0xbc1569eb	-0.009119491
118	0xbd52daa2	-0.051478036
119	0x3c7dd159	0.015491807
120	0xbb036015	-0.0020046283
121	0xbd39affb	-0.045333844
122	0xbd043ec7	-0.03228643
123	0xbcefdf2b	-0.02928122
124	0xba527340	-0.0008028038
125	0x3cd137b4	0.025539257
126	0x3d0ab3a0	0.03386271
127	0xbcd5ce4e	-0.02609935
128	0xbcd3daa6	-0.025861096
129	0x3d554ee8	0.052077204
130	0xbd024c73	-0.03181119
131	0x3d2c241f	0.042026635
132	0x3c7015d9	0.014653646
133	0x3c93ef10	0.01805833
134	0x3c7bc112	0.015365856
135	0xbca10a73	-0.019658303
136	0xbd159729	-0.03652111
137	0xbd6f54e7	-0.05843058
138	0xbd3614fe	-0.044453613
139	0x3d06d065	0.032913584
140	0xbd3919b1	-0.045190517
141	0x3d400a58	0.046884865
142	0xbd6dff6b	-0.058104914
143	0xbd50df67	-0.050994303
144	0x3c3187b9	0.010835581
145	0xbd34ae6f	-0.044111665
146	0x3d4a656c	0.04941313
147	0xbd6b422d	-0.057436157
148	0x3d54b317	0.051928606
149	0x3cec9f4a	0.028884549
150	0x3c1372d2	0.008999543
151	0x3cdc7688	0.026911989
152	0x3cee43a1	0.029084982
153	0x3d1e6058	0.0386661
154	0xbd7d88fb	-0.061898213
155	0x3d2c884e	0.042122178
156	0xbc067ce2	-0.008208485
157	0x3d1ca5e9	0.03824416
158	0x3c882660	0.016619861
159	0x3d17ce43	0.03706194
160	0x3c19f315	0.009396334
161	0xbc056dba	-0.008143837
162	0x3d26376e	0.040580206
163	0x3cb465b3	0.02202115
164	0xbcaddf5e	-0.021224674
165	0x3d2f0dd7	0.042737808
166	0xb9394d57	-0.00017671786
167	0xbbdaa22e	-0.0066721654
168	0xbc4f6859	-0.012659156
169	0xbcde9a64	-0.027173229
170	0x3bd42097	0.0064736116
171	0xb7a6c464	-1.9880194e-05
172	0xbc039f7c	-0.0080336295
173	0xba9c9669	-0.0011946681
174	0xbbc1e8a0	-0.0059176236
175	0x3c9e75c8	0.019343272
176	0x3c131ba2	0.008978756
177	0xbb86e393	-0.0041164844
178	0x3d2b99a9	0.04189459
179	0xbd474598	-0.048650354
180	0xbce68156	-0.028137844
181	0xbd62bbaa	-0.05535475
182	0xbc373fdb	-0.011184658
183	0x3c80798a	0.015682954
184	0x3c9c495d	0.019077951
185	0x3cda445f	0.02664393
186	0x3b40592b	0.0029350023
187	0xbd8458a9	-0.06462223
188	0xbd6c5151	-0.057694737
189	0xbc78000a	-0.015136728
190	0xbd5129b8	-0.051065177
191	0xbd6f1a6c	-0.058374807
192	0x3d5bc359	0.053653095
193	0xbd88644d	-0.06659756
194	0x3b260675	0.0025333439
195	0xbd1d6dd7	-0.03843483
196	0x3d53e76b	0.05173437
197	0xbcca05a6	-0.024660897
198	0x3cf73af8	0.030179486
199	0x3d39136c	0.045184538
200	0x3ccd3f0d	0.025054479
201	0xbc9bbab6	-0.01900993
202	0xbaccab98	-0.0015615104
203	0xbd2d1eb2	-0.0422656
204	0xbcf37b56	-0.029721897
205	0x3cef1fce	0.02918997
206	0xbd1e2c93	-0.038616728
207	0x3b7d928c	0.0038692085
208	0xbd1b99f1	-0.037988607
209	0x3d052bd0	0.032512486
210	0xbd2d6fce	-0.042342953
211	0xbc181a92	-0.009283679
212	0x3c688044	0.014190737
213	0xbd51600f	-0.051117
214	0xb88020aa	-6.1096e-05
215	0xbd5c790e	-0.053826384
216	0xbbd0caa2	-0.006371812
217	0xbd719438	-0.058979243
218	0xbc8580ee	-0.01629683
219	0xbd726956	-0.059182487
220	0xbac5c88d	-0.0015089676
221	0xbd729783	-0.059226524
222	0xbc59a6b7	-0.013284377
223	0x3cf5db9b	0.030011943
224	0x3d042f5f	0.03227174
225	0x3c7f9548	0.015599556
226	0x3b14a7f3	0.0022683113
227	0x3d3533a4	0.0442387
228	0x3d2379a3	0.039910924
229	0x3b97a704	0.004628064
230	0x3d429880	0.047508717
231	0xbca099d3	-0.0196046
232	0xbc15103f	-0.009098112
233	0xbcfd64c3	-0.030931836
234	0x3d435238	0.04768583
235	0xbb3e6a3a	-0.0029055015
236	0xbd6ad79e	-0.057334535
237	0xbcec3f47	-0.028838767
238	0xbd4d4bf4	-0.050121263
239	0xbcddd06e	-0.027076926
240	0xbc036758	-0.008020245
241	0xbb46a8b1	-0.003031295
242	0xbd84d15b	-0.06485244
243	0x3b8fe5ec	0.0043914225
244	0xbcab4b6c	-0.020909987
245	0xbd485996	-0.04891356
246	0xbceb1356	-0.028695744
247	0x3cb4bcf6	0.02206276
248	0x3c6fdcc1	0.014640034
249	0x3d4df9d8	0.050287098
250	0x3d3f2133	0.04666252
251	0xb8aa5366	-8.121766e-05
252	0xbd836600	-0.06415939
253	0x3cfa4a64	0.03055305
254	0xbd572a08	-0.05253032
255	0xbd25e1c7	-0.04049852

fc2.bias f4 [300]
0	0xbd533868	-0.051567465
1	0xbd1791a6	-0.037004136
2	0xbc9ba976	-0.019001704
3	0xbd7f7fda	-0.062377788
4	0xbd8091ae	-0.06277786
5	0xbc77cb89	-0.01512421
6	0xbc9307a6	-0.017947983
7	0x3d3a8ad1	0.045542542
8	0x3bfad4ec	0.007654777
9	0x3bac520b	0.0052588037
10	0xbd21a143	-0.03946043
11	0xbafd3ab0	-0.0019319858
12	0xbc22ad8d	-0.009929073
13	0x3d5fa839	0.05460379
14	0x3c2e22c0	0.010628402
15	0xbcea4618	-0.028597876
16	0xbcca9fb0	-0.024734348
17	0x3d3ae237	0.04562589
18	0xbd2e842e	-0.042606525
19	0x3d128a5e	0.03577649
20	0xbd0d5570	-0.034505308
21	0x3d26e149	0.040742192
22	0x3d25d360	0.040484786
23	0xbcad02ba	-0.021119464
24	0x3c89c93a	0.016819585
25	0xbc22e874	-0.009943116
26	0x3d48347f	0.04887819
27	0xbd50fbc5	-0.051021356
28	0xbd7fb3ea	-0.06242744
29	0x3c1ac4eb	0.009446363
30	0xbd0543b9	-0.03253529
31	0xbd7d061a	-0.061773397
32	0xbd4e319c	-0.05034028
33	0x3b47caa4	0.0030485773
34	0x3c7bb2d6	0.015362462
35	0x3d0ed546	0.034871362
36	0x3d20039f	0.039065953
37	0xbd1829fa	-0.037149407
38	0x3b902888	0.004399363
39	0xbbe044e3	-0.0068441494
40	0x3d49d201	0.04927254
41	0x3ce83e50	0.028350025
42	0x3d952454	0.0728232
43	0xbd66a8e4	-0.05631341
44	0xbd4b1fd4	-0.0495909
45	0x3ceb9cf2	0.02876136
46	0x3ceacd2f	0.028662292
47	0x3c5f39ca	0.013624618
48	0xbdb68538	-0.08912128
49	0x3d3d393b	0.046197157
50	0x3c9e0e7f	0.019294022
51	0xbd55d37f	-0.05220365
52	0xbcc77186	-0.024346124
53	0x3db1c84b	0.08680781
54	0xbba61ddf	-0.005069479
55	0x3c74a969	0.014932969
56	0xbbb9123b	-0.005647925
57	0xbcaea68d	-0.021319652
58	0x3ccdec32	0.02513704
59	0xbcc6150e	-0.024179962
60	0xbcb01f79	-0.021499382
61	0x3d2bf8c5	0.041985292
62	0xbb7ff7dc	-0.0039057648
63	0xbcbf70d1	-0.023369225
64	0xbbc1c083	-0.0059128418
65	0x3b595f93	0.003316854
66	0xbd6dbb8a	-0.05804018
67	0x3d84330c	0.06455049
68	0x3d34e4cc	0.04416351
69	0xbd17aa59	-0.03702769
70	0x3d7795cd	0.060445596
71	0x3c050ce9	0.008120754
72	0xbcac56c9	-0.021037476
73	0x3d725fbf	0.05917334
74	0xbce954c6	-0.028482806
75	0x3d72c3f3	0.059268903
76	0xbd32107b	-0.04347275
77	0x3b715755	0.0036825736
78	0x3b1f223c	0.002428188
79	0xbced6a64	-0.028981395
80	0xbc66bb56	-0.01408275
81	0xbb01e5bb	-0.0019820768
82	0xbcf38160	-0.029724777
83	0x3d08b67c	0.033377156
84	0xbd838793	-0.06422343
85	0x3c35f593	0.011105913
86	0x3cfd1a1b	0.030896237
87	0x3d20d025	0.039261002
88	0x3bc237ba	0.0059270533
89	0xbd0129be	-0.03153395
90	0x3c7d182f	0.01544766
91	0xbd2cbae0	-0.042170405
92	0x3c176283	0.009239796
93	0x3bdcb62c	0.006735584
94	0x3ce1dd14	0.027571239
95	0x3d449045	0.04798915
96	0xbd01324b	-0.031542104
97	0x3d8af9fc	0.06785962
98	0x3c902b8c	0.01759889
99	0x3d64faea	0.055903353
100	0xbcbae3e7	-0.02281375
101	0xbcdf633f	-0.027269004
102	0x3d883be9	0.06652052
103	0xbd56f907	-0.052483585
104	0xbc1a45f3	-0.009416091
105	0x3cbad61b	0.022807172
106	0xbcd3e7e1	-0.025867404
107	0x3d245c6b	0.0401272
108	0xbb09649a	-0.0020964504
109	0x3cec1f7d	0.028823609
110	0x3d312eef	0.04325765
111	0x3d8dfee9	0.06933386
112	0x3d49c7ad	0.04926269
113	0x3d1664b6	0.03671714
114	0x3cef9b09	0.029248731
115	0x3c3a7356	0.011380037
116	0xbdaaf944	-0.08348325
117	0x3c8cef4d	0.017203951
118	0xbcd2aed6	-0.025718134
119	0xbd39bdfb	-0.045347195
120	0x3c68f4ca	0.0142185185
121	0x3d09cfe1	0.033645514
122	0x3da9bd28	0.08288032
123	0x3cda4186	0.026642572
124	0xbd536547	-0.051610257
125	0xbce6e198	-0.028183743
126	0x3cc8754a	0.02446999
127	0x3d572600	0.052526474
128	0x3d791e63	0.060819995
129	0x3c4c26b0	0.012460396
130	0x3d773771	0.060355607
131	0x3d13c8f7	0.036080327
132	0x3c82a1d0	0.015946299
133	0xbd6a1de7	-0.057157423
134	0x3daf1f66	0.08550911
135	0x3c800e25	0.015631745
136	0x3bfcbb90	0.007712789
137	0x3cf73578	0.030176863
138	0xbb7b5990	-0.0038352944
139	0xbbddd25a	-0.0067694606
140	0xbcb78b35	-0.022405246
141	0x3cecd24a	0.028908867
142	0x39ea00d0	0.00044632563
143	0xbd2ecba1	-0.042674664
144	0xbd4dab46	-0.050212167
145	0xbb96aada	-0.004598004
146	0x3cd9458e	0.026522424
147	0xbcfae6d1	-0.03062764
148	0xbc284ce6	-0.01027224
149	0x3bf7c14b	0.007560884
150	0xbd388ef7	-0.045058217
151	0xbca875c4	-0.020563968
152	0x3d503b83	0.050838005
153	0x3cf7239a	0.030168343
154	0x3ca5d311	0.020242246
155	0x3d892402	0.06696321
156	0xbd2f150e	-0.04274469
157	0x3cbe8644	0.023257382
158	0x3bfa7fa6	0.0076446114
159	0xbceee458	-0.029161617
160	0xbc82fde8	-0.015990213
161	0xb96cd373	-0.00022585485
162	0xbd25b9a1	-0.040460233
163	0x3d435f99	0.04769859
164	0xbd60157c	-0.05470799
165	0xbd81b1a3	-0.0633271
166	0xbc710120	-0.014709741
167	0xbcf150ea	-0.029457528
168	0xbd60bd84	-0.054868236
169	0xbc711504	-0.014714483
170	0x3c69b847	0.014265127
171	0x3bd882ea	0.006607403
172	0x3c1bebee	0.009516699
173	0x3c1acc97	0.009448192
174	0x3cdebfd2	0.027191076
175	0x3d463908	0.048394233
176	0x3c89298c	0.016743444
177	0x3caacd55	0.020849863
178	0x3cb11a44	0.02161897
179	0x3bcb7194	0.006208608
180	0x3c626e20	0.013820201
181	0x3bdffe51	0.006835737
182	0xbd977d00	-0.07396889
183	0x3d609926	0.054833554
184	0xbca33f83	-0.019927746
185	0x3d83cdd3	0.06435742
186	0xbc935e12	-0.017989192
187	0x3d336579	0.043797944
188	0x3b245b94	0.0025079
189	0x3da0a4af	0.07843911
190	0x3c0d6ba2	0.008631619
191	0x3ce7791b	0.02825599
192	0xbd6e79b7	-0.058221545
193	0x3d90c31a	0.07068463
194	0xbc6844e9	-0.014176586
195	0x3bcb5ed9	0.006206375
196	0xbb24f5ac	-0.0025170846
197	0x3c487426	0.012234723
198	0xbce6cb29	-0.028173046
199	0xbd1c60d5	-0.038178284
200	0xbbb208f0	-0.0054331943
201	0xbc9d6595	-0.019213477
202	0xbc60a7fe	-0.013711927
203	0x3d03fa78	0.032221287
204	0xbd4e27b2	-0.050330825
205	0xbd94b03a	-0.07260175
206	0xbd625815	-0.055259783
207	0x3d09a8b3	0.03360815
208	0x3ce7b006	0.028282177
209	0xbc4d0a1f	-0.01251462
210	0xbc69527a	-0.014240855
211	0xb91fb8a9	-0.00015232213
212	0xbd70cad9	-0.0587872
213	0xbc1710a9	-0.009220281
214	0x3cebcf9e	0.028785523
215	0x3cbd8322	0.023133818
216	0x3bd5ee6b	0.006528666
217	0xbd312000	-0.04324341
218	0xbd5b7614	-0.053579405
219	0x3b2bdf52	0.0026225639
220	0x3c3b76cc	0.011441898
221	0x3d5805d4	0.052739933
222	0xbcdfd167	-0.02732153
223	0xbc368646	-0.011140412
224	0xbc2a8ac4	-0.010409061
225	0xbda404c4	-0.080087215
226	0x3bf99ff4	0.007617945
227	0xbcbe625b	-0.023240259
228	0x3ce97ad3	0.02850095
229	0xbd0e7a20	-0.034784436
230	0xbd67a820	-0.05655682
231	0x3c53e54a	0.012933085
232	0xbd02a5fd	-0.03189658
233	0xbd15503a	-0.036453463
234	0x3da04050	0.07824767
235	0xbd048d81	-0.03236151
236	0x3d9718a4	0.07377747
237	0x3d327ded	0.043577123
238	0x3caabe0f	0.02084258
239	0x3d2fc366	0.042910956
240	0xbdaf8f5e	-0.08572267
241	0xbd44faf4	-0.04809089
242	0x3cdfaf73	0.02730534
243	0x3caf5874	0.021404482
244	0xbd15f21b	-0.036607843
245	0xbcac4fd3	-0.021034157
246	0xbd43fd04	-0.047848716
247	0xbd4fce76	-0.050734006
248	0xbc788ee6	-0.015170788
249	0xbd107bab	-0.03527419
250	0xbd749de1	-0.059720878
251	0x3d64cc7e	0.05585908
252	0x3d55501e	0.05207836
253	0x3d073d06	0.03301718
254	0xbd6ea84d	-0.058265973
255	0x3d4ff86c	0.050774023

fc3.weight f4 [1, 300]
0	0xba26052d	-0.0006333169
1	0x3cbb1951	0.02283922
2	0x3cdc4a3b	0.026890865
3	0x3b1b62a2	0.0023709913
4	0xbc608edf	-0.013705938
5	0x3da586ac	0.08082327
6	0x3b4a0d72	0.0030830768
7	0x3d95e05d	0.073181845
8	0x3c1f421c	0.009720352
9	0xbd271549	-0.040791783
10	0x3d5fefc4	0.054672018
11	0x3c83cd55	0.01608912
12	0x3d22634e	0.039645486
13	0x3d366e7e	0.044538967
14	0x3c7af32f	0.015316769
15	0x3c11f686	0.008908873
16	0xbd903b86	-0.07042603
17	0x3cfc2a34	0.030781843
18	0xbd7d22ec	-0.061800882
19	0x3e174030	0.1477058
20	0x3cba84f1	0.02276847
21	0x3c87c88a	0.016575117
22	0xbd739ba5	-0.059474606
23	0xba78deef	-0.0009493669
24	0x3d5c0c79	0.053722832
25	0x3dcd41af	0.10022294
26	0x3d04759f	0.032338735
27	0xbd1ef3cb	-0.038806718
28	0xbd11e9c8	-0.03562334
29	0xbc997176	-0.01873086
30	0xbbc474c0	-0.005995363
31	0xbd0c5e6e	-0.034269743
32	0xbc5ca046	-0.013465947
33	0xbca5f89b	-0.020260146
34	0x3d161c75	0.036648232
35	0x3d90dbe9	0.070731945
36	0xbd227f73	-0.039672326
37	0x3d154020	0.036438107
38	0x3cd83e9d	0.026397044
39	0x3d2a8857	0.04163393
40	0x3d88cc4c	0.066795915
41	0x3cf3ae17	0.029746098
42	0x3c95dae7	0.018292857
43	0xbd714c0b	-0.05891041
44	0x3d4111b0	0.04713601
45	0xbddd3eef	-0.10803019
46	0xbd047552	-0.032338448
47	0x3d1d1427	0.038349297
48	0xbd942c36	-0.07234995
49	0xbd72c91f	-0.059273835
50	0xbdc2a3e6	-0.095039174
51	0xbcbe4720	-0.023227274
52	0xbd1148c1	-0.035469774
53	0x3bba9312	0.0056938017
54	0xbaa458f4	-0.0012538717
55	0x3e097b60	0.1342597
56	0x3c3abe1c	0.011397865
57	0x3c8b8646	0.0170318
58	0x3d894138	0.067018926
59	0xbd7ebcec	-0.06219189
60	0xbc9fe79c	-0.01951962
61	0x3d498848	0.049202234
62	0x3c4eada8	0.012614645
63	0xbd240dc9	-0.04005221
64	0x3de9f1ba	0.11423059
65	0x3cbca4b0	0.023027748
66	0xbd12790e	-0.035759978
67	0x3c2c19e3	0.010504219
68	0x3d176d3c	0.03696941
69	0x3daac32b	0.083380066
70	0x3d02a602	0.0318966
71	0x3d2208d0	0.039559186
72	0xbdc0c9ee	-0.09413515
73	0x3bd9c1f0	0.0066454336
74	0x3ceb1902	0.028698448
75	0x3cc7fa18	0.024411246
76	0x3d6ac10e	0.057313018
77	0xbd809d2d	-0.06279979
78	0x3cdc5d21	0.026899876
79	0xbcaf3905	-0.021389494
80	0x3da0b789	0.078475066
81	0x3d150b43	0.036387693
82	0xbdb553d6	-0.08853881
83	0x3d04d125	0.03242602
84	0x3b1628b6	0.002291245
85	0x3cdf75d0	0.027277857
86	0x3d125347	0.03572395
87	0xbdd55eea	-0.10418494
88	0xbd9e5feb	-0.07733139
89	0xbcdd6772	-0.027026866
90	0x3cc1b12c	0.023644052
91	0xbad23b50	-0.0016039405
92	0x3cd43c87	0.025907768
93	0x3e154bb5	0.14579661
94	0x3cbce2f4	0.023057438
95	0x3d468c2b	0.04847352
96	0xbd418e44	-0.047254816
97	0x3d092c8f	0.03348976
98	0xbc49ddf2	-0.012320982
99	0xbd3f1f3f	-0.046660658
100	0xbcfa8e6b	-0.030585488
101	0x3c6d4531	0.014481829
102	0x3d097ffc	0.03356932
103	0xbd22748c	-0.03966193
104	0x3d7c7d79	0.061643098
105	0xbc39ff58	-0.011352383
106	0xbc1ab1cf	-0.009441807
107	0x3dc52046	0.09625296
108	0x3c3c7938	0.01150351
109	0xbb4f1613	-0.003159885
110	0x3dccb5ce	0.09995614
111	0x3cd9f2e6	0.02660508
112	0x3c58fa20	0.013243228
113	0x3d8d66c1	0.069043644
114	0x3cdacce3	0.026709026
115	0x3c63dc05	0.013907437
116	0xbd0a86dc	-0.03382002
117	0xbd70cdbc	-0.058789954
118	0x3d731998	0.05935058
119	0x3d24b379	0.04021022
120	0x3d5665cd	0.05234318
121	0x3b5e6631	0.0033935423
122	0x3cccecd1	0.025015267
123	0x3cb45a59	0.022015737
124	0x3b470c49	0.0030372313
125	0xbcc666e8	-0.024218991
126	0x3c034ebd	0.008014378
127	0x3e20ceb3	0.1570385
128	0xbdac59b8	-0.0841555
129	0x3d85f5a1	0.065409906
130	0x3e5f0155	0.21777852
131	0x3d1f058b	0.038823646
132	0x3a1a67e7	0.00058901164
133	0xbbdd80f1	-0.006759756
134	0x3ca190d6	0.019722383
135	0x3a1aaa8e	0.00059000484
136	0xbd0f8d0b	-0.03504662
137	0x3c020ba3	0.007937345
138	0xbca9455d	-0.020662958
139	0xbde04b58	-0.10951871
140	0x3a5f09ae	0.0008508217
141	0xbc535988	-0.012899764
142	0xbe15c652	-0.14626434
143	0xbd0effe1	-0.034911994
144	0xbc4c0139	-0.012451463
145	0x3d0d1ec7	0.03445318
146	0x3d75a246	0.05996921
147	0x3dba6b53	0.09102502
148	0xbd130dc9	-0.03590182
149	0x3a99313d	0.0011687648
150	0xbd36fd3d	-0.0446751
151	0xbd8e6145	-0.069521464
152	0xbd10d6d0	-0.03536111
153	0x3d6790bb	0.05653451
154	0xbd0f7ec4	-0.035033002
155	0xbd8519f5	-0.064990915
156	0xbd5f6bde	-0.05454623
157	0x3d93c697	0.072156124
158	0xbd856518	-0.06513423
159	0xbd12cef2	-0.03584189
160	0x3dfde4e7	0.12397175
161	0xbddba5eb	-0.10725006
162	0x3d5935fe	0.053030007
163	0xbd5c363b	-0.053762656
164	0x3b3fa411	0.0029242078
165	0xbd01bc26	-0.031673573
166	0xbd652746	-0.055945657
167	0xbe59d3a5	-0.21272142
168	0x3d3fce65	0.046827693
169	0xbcedef8b	-0.029044887
170	0x3d5489ef	0.051889356
171	0x3d337ce7	0.043820288
172	0x3d4dbff6	0.050231896
173	0xbd3fa997	-0.046792593
174	0x3e704f1a	0.23467675
175	0x3d2b0a09	0.041757617
176	0xbd919a69	-0.071095295
177	0xbe7623ab	-0.24037044
178	0xbd6c7418	-0.057727903
179	0xbdbfee9c	-0.09371683
180	0x3d706c7d	0.058697212
181	0x3d3071d1	0.043077294
182	0xbc918a8c	-0.01776626
183	0x3c499627	0.0123038655
184	0xbdb4718a	-0.08810718
185	0x3c77beea	0.015121201
186	0x3ce6e1fb	0.028183928
187	0x3ce376eb	0.027766665
188	0xba26042d	-0.00063330197
189	0x3e4b18d9	0.19833697
190	0xbe7e389b	-0.24826281
191	0xbd9651a3	-0.0733979
192	0xbd666c2e	-0.056255512
193	0x3c81deb2	0.01585326
194	0x3d68e494	0.056858614
195	0x3e40bd14	0.18822128
196	0x3d019ae5	0.03164186
197	0xbdeb0cac	-0.11477026
198	0x3cc576be	0.024104472
199	0xbd37b08a	-0.044846095
200	0xba8bf8f1	-0.0010679049
201	0xbd6373a1	-0.055530194
202	0x3d9d8f86	0.076933905
203	0x3c745e7b	0.014915104
204	0x3c72deff	0.014823674
205	0xbd97aa6f	-0.074055545
206	0x3a501a0f	0.00079384533
207	0x3e7451b5	0.23859294
208	0xbd0e6e4f	-0.034773167
209	0x3d25e172	0.040498205
210	0xbdc70cad	-0.097192146
211	0xb99ecda3	-0.0003028932
212	0x3d1cfbed	0.038326193
213	0x3ccb759e	0.024836358
214	0x3cd08cd6	0.02545778
215	0xbc2c27d4	-0.010507543
216	0x3e05d129	0.1306807
217	0xbc7c2bce	-0.015391303
218	0x3c42d32f	0.01189117
219	0xbdc25ffa	-0.09490962
220	0x3d4bd6e9	0.0497655
221	0x3c639260	0.013889879
222	0xbdde3616	-0.1085016
223	0x3d639296	0.055559717
224	0xbb28e5f2	-0.0025771824
225	0xbd8d2bfd	-0.06893156
226	0x3ce3577c	0.027751677
227	0xbd7e6978	-0.0621123
228	0xbc4f84d5	-0.012665947
229	0xbd530165	-0.051515
230	0xba371370	-0.00069837924
231	0xbbd7035a	-0.006561679
232	0x3d2fa07f	0.04287767
233	0xbd86f022	-0.065887704
234	0x3c1fa99d	0.009745029
235	0xbd274473	-0.040836763
236	0x3ca31e21	0.019911828
237	0xbd0f4f99	-0.03498802
238	0xbd0ac3df	-0.033878203
239	0xbc5d97ae	-0.013524933
240	0xbcb5e753	-0.02220503
241	0xbd9aae2a	-0.075527504
242	0xbce8cfcf	-0.028419403
243	0xbd176799	-0.036964033
244	0xbd2bd6fe	-0.04195308
245	0x3d94e468	0.072701275
246	0xbc78aa0c	-0.015177261
247	0xba102811	-0.00054991344
248	0xbd643cef	-0.055722173
249	0x3d82c640	0.063854694
250	0xbd8bf684	-0.068341285
251	0x3dc3cf78	0.09561056
252	0x3de8959a	0.11356659
253	0xbcf9ea36	-0.030507188
254	0xbd978f9f	-0.074004404
255	0x3d16b023	0.03678907

bn1_state.weight f4 [400]
0	0x3eb410e8	0.35169148
1	0x3db40358	0.087897
2	0x3f35b805	0.70983917
3	0x3e3e7310	0.1859858
4	0x3f04e731	0.5191527
5	0x3cec8c40	0.02887547
6	0x3f46aa12	0.77603257
7	0x3ec6fc70	0.3886447
8	0x3f4bacb9	0.7956043
9	0x3f6df92b	0.92958325
10	0x3f4cd0a5	0.80005866
11	0x3ee78498	0.45218349
12	0x3f735210	0.9504709
13	0x3f53a433	0.82672423
14	0x3f6fa635	0.93612987
15	0x3f7a3914	0.97743344
16	0x3f0a0c42	0.53924954
17	0x3ec9343e	0.3929767
18	0x3ed63a66	0.4184143
19	0x3f05fd1c	0.5233934
20	0x3eadfee0	0.33983517
21	0x3eb7b19a	0.35877687
22	0x3f614428	0.87994623
23	0x3eaad140	0.3336277
24	0x3f51ea7e	0.8199843
25	0x3f577c11	0.84173685
26	0x3dbd04b0	0.0922941
27	0x3ea3225a	0.31862146
28	0x3f031628	0.5120568
29	0x3f7f0413	0.9961559
30	0x3e673890	0.2258017
31	0x3f4c57d3	0.7982151
32	0x3c738080	0.01486218
33	0x3f65ce2a	0.89767706
34	0x3cda0900	0.02661562
35	0x3f40ec83	0.7536089
36	0x3dafba60	0.0858047
37	0x3d4be220	0.049776196
38	0x3f320036	0.6953157
39	0x3e8e4f72	0.27794987
40	0x3f11cc13	0.5695202
41	0x3f01c90e	0.5069741
42	0x3f0d4e46	0.5519756
43	0x3f6ecb0d	0.9327858
44	0x3ef3a6aa	0.47588092
45	0x3f3bf4d8	0.73420477
46	0x3e86d85e	0.2633695
47	0x3ee77a04	0.45210278
48	0x3f349778	0.7054362
49	0x3e4787e4	0.19485432
50	0x3e158d84	0.14604765
51	0x3f723d42	0.9462472
52	0x3f19511a	0.59889376
53	0x3e087bf4	0.13328534
54	0x3f3eedc0	0.7458153
55	0x3f07355e	0.52815807
56	0x3f4a2c4a	0.7897383
57	0x3e0c07dc	0.13674873
58	0x3f79eec8	0.97629976
59	0x3f4c0fea	0.7971178
60	0x3f6c245f	0.92243
61	0x3eaad4ea	0.33365566
62	0x3f124b18	0.57145834
63	0x3c9ccbc0	0.019140124
64	0x3ee1f2ba	0.44130498
65	0x3f27bc4a	0.6552168
66	0x3e504178	0.20337474
67	0x3f27aa4c	0.6549423
68	0x3f25e785	0.64806396
69	0x3f7747cc	0.9659393
70	0x3e847ca2	0.25876337
71	0x3e3711f4	0.17877942
72	0x3e5ef40c	0.21772784
73	0x3f6fadf2	0.93624794
74	0x3f52aaaf	0.8229169
75	0x3f533963	0.8250944
76	0x3b49dd00	0.0030801892
77	0x3f28a06a	0.6586977
78	0x3f6052f5	0.8762658
79	0x3f2bb8c8	0.6707883
80	0x3f51fd3c	0.8202703
81	0x3f35749e	0.7088107
82	0x3e82d154	0.2555033
83	0x3ed96652	0.42460877
84	0x3b618500	0.003441155
85	0x3f56f967	0.8397431
86	0x3f67867a	0.9043957
87	0x3f25dcdd	0.64790136
88	0x3f60b616	0.8777784
89	0x3dfcf620	0.12351632
90	0x3f4eef83	0.80834216
91	0x3e134270	0.14380813
92	0x3e207da8	0.15672934
93	0x3cb06240	0.021531224
94	0x3f0315f8	0.51205397
95	0x3f66d8fa	0.9017483
96	0x3cece260	0.028916538
97	0x3f563d35	0.83687145
98	0x3f4e15b4	0.80501866
99	0x3f5736fc	0.84068274
100	0x3f1d31a2	0.6140386
101	0x3ca38260	0.019959629
102	0x3eab76b6	0.33489007
103	0x3f3a895d	0.7286585
104	0x3e92a916	0.28644627
105	0x3f02eebd	0.51145536
106	0x3cea2140	0.028580308
107	0x3f4945f4	0.78622365
108	0x3f180270	0.5937872
109	0x3f221c70	0.6332464
110	0x3f44107f	0.7658767
111	0x3f1b4d24	0.6066458
112	0x3f0c6571	0.5484229
113	0x3f10fd8c	0.5663688
114	0x3ef897bc	0.48553264
115	0x3f1358bb	0.57557267
116	0x3c712c80	0.014720082
117	0x3e8aa1d6	0.27076596
118	0x3e6b313c	0.22968
119	0x3ede7936	0.43451852
120	0x3f3b997d	0.7328108
121	0x3f6f1c70	0.9340277
122	0x3f105a35	0.56387645
123	0x3deb1300	0.11478233
124	0x3ee03fa6	0.4379856
125	0x3f70b2c8	0.940228
126	0x3f062bcd	0.52410585
127	0x3e002278	0.12513149
128	0x3ed190fa	0.4093092
129	0x3ee3f060	0.4451933
130	0x3f0df7fa	0.5545651
131	0x3f528428	0.82232904
132	0x3e99a3ea	0.3000787
133	0x3f7d83b1	0.9902907
134	0x3f7e8641	0.99423605
135	0x3e644c34	0.22294694
136	0x3ef37ade	0.47554678
137	0x3d18b320	0.037280202
138	0x3f56e3ff	0.83941644
139	0x3ee8c774	0.4546467
140	0x3e91c3de	0.28469747
141	0x3f793a48	0.97354555
142	0x3f5b784a	0.8573042
143	0x3f542a5f	0.82877153
144	0x3f6a3f77	0.9150309
145	0x3f5c2886	0.85999334
146	0x3f65547f	0.89582056
147	0x3e26d1f8	0.16291034
148	0x3f0993c4	0.537411
149	0x3e445ea0	0.19176722
150	0x3f576cf6	0.84150636
151	0x3dfc30a0	0.12313962
152	0x3e736c88	0.2377187
153	0x3e912f26	0.28356284
154	0x3f6b06e9	0.9180742
155	0x3f77c1f9	0.96780354
156	0x3f4fced8	0.81174994
157	0x3e8213ea	0.25405818
158	0x3f4d1449	0.8010908
159	0x3f7c4738	0.9854617
160	0x3e99f362	0.300685
161	0x3f79f9e1	0.9764691
162	0x3e3adb2c	0.1824767
163	0x3c8fbd60	0.017546356
164	0x3f4745d0	0.778409
165	0x3f7b7fcb	0.9824187
166	0x3e312444	0.1729899
167	0x3f0980a1	0.537119
168	0x3dd101a0	0.10205388
169	0x3f48f029	0.78491455
170	0x3f36ea23	0.71451014
171	0x3e589654	0.21151096
172	0x3ea69538	0.3253572
173	0x3e1941dc	0.1496653
174	0x3f0dcaec	0.5538776
175	0x3e749b48	0.2388736
176	0x3f21ec16	0.63250864
177	0x3e6fe120	0.23425722
178	0x3db18090	0.086670995
179	0x3f3390f2	0.70143044
180	0x3dd00d50	0.10158789
181	0x3f1075cc	0.56429744
182	0x3f6d0ec2	0.92600644
183	0x3e8813fe	0.26577753
184	0x3f702288	0.9380269
185	0x3c85a340	0.016313195
186	0x3f3f2724	0.746691
187	0x3e1b111c	0.15143245
188	0x3f31f6c9	0.6951719
189	0x3f41db7e	0.75725543
190	0x3da60e70	0.081082225
191	0x3f2290f1	0.63502413
192	0x3e201cd4	0.15635997
193	0x3ea9a07a	0.33130246
194	0x3ead7562	0.33878618
195	0x3eb405c8	0.3516066
196	0x3f2ababa	0.6669117
197	0x3d0edc90	0.034878314
198	0x3ec661e6	0.38746566
199	0x3e482990	0.19547105
200	0x3de21ff8	0.11041254
201	0x3f1b6837	0.60705894
202	0x3e456a10	0.19278741
203	0x3e62076c	0.22073144
204	0x3f6e572e	0.93101776
205	0x3f075a71	0.5287238
206	0x3ee514fa	0.44742566
207	0x3f795656	0.97397363
208	0x3ee87082	0.45398337
209	0x3f420680	0.7579117
210	0x3c246080	0.010032773
211	0x3ea2b242	0.31776625
212	0x3e094160	0.13403845
213	0x3f08017c	0.53127265
214	0x3f3fffd4	0.7499974
215	0x3ee2f724	0.44329178
216	0x3f62fa9f	0.8866367
217	0x3e4e1ad0	0.20127416
218	0x3e830fb6	0.25597924
219	0x3e6eb188	0.2330991
220	0x3c1bff40	0.009521306
221	0x3f64d1f7	0.8938288
222	0x3f7b5690	0.9817896
223	0x3f0454e3	0.51692027
224	0x3f6d9b7b	0.9281537
225	0x3ea10e98	0.31456447
226	0x3ebd61ce	0.36988682
227	0x3f34a4a7	0.7056374
228	0x3f791f54	0.9731343
229	0x3e553a58	0.20823038
230	0x3df52648	0.11970192
231	0x3db05f98	0.08611983
232	0x3f4c5bca	0.7982756
233	0x3f7db179	0.99098927
234	0x3e88cb4a	0.26717597
235	0x3f31ef28	0.6950555
236	0x3bf13580	0.007361114
237	0x3f274ed2	0.65354645
238	0x3f5cdb5d	0.8627222
239	0x3eb5eec8	0.35533738
240	0x3e9be964	0.304515
241	0x3e5f06dc	0.2177996
242	0x3f0c2e16	0.5475782
243	0x3dcb1798	0.099166095
244	0x3da95478	0.08268064
245	0x3f070858	0.52747107
246	0x3eda3312	0.4261709
247	0x3f07a6be	0.52988803
248	0x3ec61a86	0.3869211
249	0x3efeef8e	0.4979214
250	0x3f1b068e	0.60556877
251	0x3f477bb1	0.77923113
252	0x3e68d79c	0.22738498
253	0x3ef87868	0.48529363
254	0x3dac1398	0.08402175
255	0x3f1b81cf	0.6074495

bn1_state.bias f4 [400]
0	0x00000000	0.0
1	0x00000000	0.0
2	0x00000000	0.0
3	0x00000000	0.0
4	0x00000000	0.0
5	0x00000000	0.0
6	0x00000000	0.0
7	0x00000000	0.0
8	0x00000000	0.0
9	0x00000000	0.0
10	0x00000000	0.0
11	0x00000000	0.0
12	0x00000000	0.0
13	0x00000000	0.0
14	0x00000000	0.0
15	0x00000000	0.0
16	0x00000000	0.0
17	0x00000000	0.0
18	0x00000000	0.0
19	0x00000000	0.0
20	0x00000000	0.0
21	0x00000000	0.0
22	0x00000000	0.0
23	0x00000000	0.0
24	0x00000000	0.0
25	0x00000000	0.0
26	0x00000000	0.0
27	0x00000000	0.0
28	0x00000000	0.0
29	0x00000000	0.0
30	0x00000000	0.0
31	0x00000000	0.0
32	0x00000000	0.0
33	0x00000000	0.0
34	0x00000000	0.0
35	0x00000000	0.0
36	0x00000000	0.0
37	0x00000000	0.0
38	0x00000000	0.0
39	0x00000000	0.0
40	0x00000000	0.0
41	0x00000000	0.0
42	0x00000000	0.0
43	0x00000000	0.0
44	0x00000000	0.0
45	0x00000000	0.0
46	0x00000000	0.0
47	0x00000000	0.0
48	0x00000000	0.0
49	0x00000000	0.0
50	0x00000000	0.0
51	0x00000000	0.0
52	0x00000000	0.0
53	0x00000000	0.0
54	0x00000000	0.0
55	0x00000000	0.0
56	0x00000000	0.0
57	0x00000000	0.0
58	0x00000000	0.0
59	0x00000000	0.0
60	0x00000000	0.0
61	0x00000000	0.0
62	0x00000000	0.0
63	0x00000000	0.0
64	0x00000000	0.0
65	0x00000000	0.0
66	0x00000000	0.0
67	0x00000000	0.0
68	0x00000000	0.0
69	0x00000000	0.0
70	0x00000000	0.0
71	0x00000000	0.0
72	0x00000000	0.0
73	0x00000000	0.0
74	0x00000000	0.0
75	0x00000000	0.0
76	0x00000000	0.0
77	0x00000000	0.0
78	0x00000000	0.0
79	0x00000000	0.0
80	0x00000000	0.0
81	0x00000000	0.0
82	0x00000000	0.0
83	0x00000000	0.0
84	0x00000000	0.0
85	0x00000000	0.0
86	0x00000000	0.0
87	0x00000000	0.0
88	0x00000000	0.0
89	0x00000000	0.0
90	0x00000000	0.0
91	0x00000000	0.0
92	0x00000000	0.0
93	0x00000000	0.0
94	0x00000000	0.0
95	0x00000000	0.0
96	0x00000000	0.0
97	0x00000000	0.0
98	0x00000000	0.0
99	0x00000000	0.0
100	0x00000000	0.0
101	0x00000000	0.0
102	0x00000000	0.0
103	0x00000000	0.0
104	0x00000000	0.0
105	0x00000000	0.0
106	0x00000000	0.0
107	0x00000000	0.0
108	0x00000000	0.0
109	0x00000000	0.0
110	0x00000000	0.0
111	0x00000000	0.0
112	0x00000000	0.0
113	0x00000000	0.0
114	0x00000000	0.0
115	0x00000000	0.0
116	0x00000000	0.0
117	0x00000000	0.0
118	0x00000000	0.0
119	0x00000000	0.0
120	0x00000000	0.0
121	0x00000000	0.0
122	0x00000000	0.0
123	0x00000000	0.0
124	0x00000000	0.0
125	0x00000000	0.0
126	0x00000000	0.0
127	0x00000000	0.0
128	0x00000000	0.0
129	0x00000000	0.0
130	0x00000000	0.0
131	0x00000000	0.0
132	0x00000000	0.0
133	0x00000000	0.0
134	0x00000000	0.0
135	0x00000000	0.0
136	0x00000000	0.0
137	0x00000000	0.0
138	0x00000000	0.0
139	0x00000000	0.0
140	0x00000000	0.0
141	0x00000000	0.0
142	0x00000000	0.0
143	0x00000000	0.0
144	0x00000000	0.0
145	0x00000000	0.0
146	0x00000000	0.0
147	0x00000000	0.0
148	0x00000000	0.0
149	0x00000000	0.0
150	0x00000000	0.0
151	0x00000000	0.0
152	0x00000000	0.0
153	0x00000000	0.0
154	0x00000000	0.0
155	0x00000000	0.0
156	0x00000000	0.0
157	0x00000000	0.0
158	0x00000000	0.0
159	0x00000000	0.0
160	0x00000000	0.0
161	0x00000000	0.0
162	0x00000000	0.0
163	0x00000000	0.0
164	0x00000000	0.0
165	0x00000000	0.0
166	0x00000000	0.0
167	0x00000000	0.0
168	0x00000000	0.0
169	0x00000000	0.0
170	0x00000000	0.0
171	0x00000000	0.0
172	0x00000000	0.0
173	0x00000000	0.0
174	0x00000000	0.0
175	0x00000000	0.0
176	0x00000000	0.0
177	0x00000000	0.0
178	0x00000000	0.0
179	0x00000000	0.0
180	0x00000000	0.0
181	0x00000000	0.0
182	0x00000000	0.0
183	0x00000000	0.0
184	0x00000000	0.0
185	0x00000000	0.0
186	0x00000000	0.0
187	0x00000000	0.0
188	0x00000000	0.0
189	0x00000000	0.0
190	0x00000000	0.0
191	0x00000000	0.0
192	0x00000000	0.0
193	0x00000000	0.0
194	0x00000000	0.0
195	0x00000000	0.0
196	0x00000000	0.0
197	0x00000000	0.0
198	0x00000000	0.0
199	0x00000000	0.0
200	0x00000000	0.0
201	0x00000000	0.0
202	0x00000000	0.0
203	0x00000000	0.0
204	0x00000000	0.0
205	0x00000000	0.0
206	0x00000000	0.0
207	0x00000000	0.0
208	0x00000000	0.0
209	0x00000000	0.0
210	0x00000000	0.0
211	0x00000000	0.0
212	0x00000000	0.0
213	0x00000000	0.0
214	0x00000000	0.0
215	0x00000000	0.0
216	0x00000000	0.0
217	0x00000000	0.0
218	0x00000000	0.0
219	0x00000000	0.0
220	0x00000000	0.0
221	0x00000000	0.0
222	0x00000000	0.0
223	0x00000000	0.0
224	0x00000000	0.0
225	0x00000000	0.0
226	0x00000000	0.0
227	0x00000000	0.0
228	0x00000000	0.0
229	0x00000000	0.0
230	0x00000000	0.0
231	0x00000000	0.0
232	0x00000000	0.0
233	0x00000000	0.0
234	0x00000000	0.0
235	0x00000000	0.0
236	0x00000000	0.0
237	0x00000000	0.0
238	0x00000000	0.0
239	0x00000000	0.0
240	0x00000000	0.0
241	0x00000000	0.0
242	0x00000000	0.0
243	0x00000000	0.0
244	0x00000000	0.0
245	0x00000000	0.0
246	0x00000000	0.0
247	0x00000000	0.0
248	0x00000000	0.0
249	0x00000000	0.0
250	0x00000000	0.0
251	0x00000000	0.0
252	0x00000000	0.0
253	0x00000000	0.0
254	0x00000000	0.0
255	0x00000000	0.0
