collaboration_competition/models/actor1_10000.pth (torch_old, 536747 bytes, 14 tensors)

fc1.weight f4 [400, 24]
0.09741164 0.1260675 0.021930162 0.021986224 -0.10367696 -0.09094316 -0.03469346 0.036265627
0.07270306 0.08436031 -0.036671575 -0.0042536734 -0.0210947 -0.048948374 0.014188343 0.0061784065
0.04651989 0.09769641 -0.009662599 -0.058208514 0.02787632 -0.069739826 -0.010622031 0.014555333
0.06668865 0.07924172 -0.018386653 0.020279825 0.0068754964 -0.049942076 0.010524697 -0.03181214
0.07218378 0.081068546 -0.009624593 0.0055794674 -0.043852173 -0.058941375 -0.014047187 0.010294423
0.056554135 0.06723869 -0.0030245462 -0.0016220676 -0.03631252 -0.013518278 -0.01797425 -0.07774183
0.07599792 0.083671786 -0.01014945 -0.054641694 -0.0046824533 -0.04181115 -0.0019726756 0.0030691866
0.07516046 0.06481803 -0.046154384 -0.021836376 -0.029738238 -0.112992525 0.024423255 0.008497669
0.0698907 0.035101403 -0.030132424 0.016953206 -0.04767849 -0.1358051 0.00921716 -0.0044431263
0.0913802 0.043125823 0.010116696 -0.019471042 -0.043613903 -0.05701975 -0.039690524 0.04779722
0.027659396 0.031837568 -0.0036458578 -0.009955116 -0.037624646 -0.12594657 -0.030782599 0.011378838
0.05745233 0.027410736 -0.00755578 -0.02786441 -0.02685256 -0.015209594 -0.0038150414 -0.0615055
0.044416133 0.11080253 0.026159927 0.0037997328 -0.02740615 -0.060832586 -0.010251193 0.00019504633
0.0500319 0.11384079 0.012522029 -0.050645232 -0.01669512 -0.063436516 -0.061179075 0.01540919
0.09176411 0.04947792 -0.0005790371 -2.8188098e-05 -0.046933327 -0.057345074 -0.045904096 -0.0021731723
0.13320418 0.077064134 -0.0019465453 -0.09086772 -0.09468174 -0.11549754 0.030284254 -0.044973
0.16011515 0.031697225 -0.017416978 0.03794676 -0.10124784 -0.10423225 0.019068038 -0.016274065
0.11149736 0.0021669243 -0.03156708 0.013848809 0.0070795706 -0.021479197 -0.055748563 -0.0071569984
0.058262005 0.07245463 0.013980816 0.031016374 0.012512609 -0.052856643 -0.036292005 -0.016791994
0.03144704 0.04271604 0.026635839 -0.033826955 -0.0213851 -0.11722111 -0.047468007 0.03327827
0.029216135 -0.012980798 -0.018651238 -0.009786408 -0.039408173 -0.10036327 0.01954286 0.006228943
0.052032117 0.056189135 0.027255483 0.043487933 -0.093688406 0.00862504 -0.0058254628 -0.014235562
-0.01621823 0.015144639 0.0074901986 0.07286275 -0.09255241 0.019391313 0.03130001 0.042846844
0.0561639 0.06563553 0.061073348 0.08688967 -0.11444447 -0.036270276 0.019747805 0.01967064
0.07511933 0.025788803 -0.018284261 -0.019894093 -0.027397845 0.005450017 -0.025179286 -0.041173633
0.12362911 0.08550926 -0.03111377 0.023236532 -0.058624383 -0.07677425 0.008207019 -0.011682457
0.021303907 0.09298598 -0.008176578 -0.032743108 -0.010728558 -0.05835115 0.010930412 -0.02273371
0.033425074 0.10713553 -0.06325298 0.00498695 0.02138635 -0.06321102 0.014970073 -0.019808622
0.061039396 0.08321389 -0.0023262254 0.026372487 -0.032924626 -0.11503953 -0.0033512453 -0.016547928
0.06043294 0.019546404 0.007856581 0.04957165 -0.056740757 -0.054640226 0.0066907266 -0.03410933
0.021945281 -0.018345093 0.018024283 0.041214887 -0.04852891 -0.06793175 -0.03336837 -0.013224989
0.0065777195 0.00418971 0.00991003 -0.013247625 0.020819413 -0.06583994 -0.02720165 0.019072102
00000000: c17f c73d d717 013e e2a6 b33c 741c b43c
00000010: 9654 d4bd 6840 babd bb1a 0ebd 448b 143d
00000020: 58e5 943d 19c5 ac3d ef34 16bd 6662 8bbb
00000030: cbce acbc 177e 48bd 3976 683c 3b74 ca3b
00000040: a48b 3e3d 0e15 c83d e14f 1ebc 0d6c 6ebd
00000050: e15c e43c c1d3 8ebd 0708 2ebc 7e79 6e3c
00000060: 0f94 883d 7c49 a23d 9b9f 96bc e021 a63c
00000070: d84b e13b 1090 4cbd c76f 2c3c 724d 02bd
00000080: 17d5 933d 4407 a63d 78b0 1dbc f7d3 b63b
00000090: 569e 33bd 836c 71bd 2c26 66bc f1a9 283c
000000a0: 4fa5 673d 70b4 893d 7737 46bb 8f9b d4ba
000000b0: 70bc 14bd c47b 5dbc bc3e 93bc 1c37 9fbd
000000c0: cca4 9b3d 1d5c ab3d e149 26bc f8cf 5fbd
000000d0: 446f 99bb 2b42 2bbd 0148 01bb 6824 493b
000000e0: baed 993d 51bf 843d 610c 3dbd 33e2 b2bc
000000f0: 9b9d f3bc a068 e7bd 4713 c83c cf39 0b3c
00000100: db22 8f3d 7dc6 0f3d 46d8 f6bc 73e1 8a3c
00000110: 854a 43bd 7e10 0bbe 9203 173c a597 91bb
00000120: 8b25 bb3d b4a4 303d 80c0 253c bc81 9fbc
00000130: 7ea4 32bd 8b8d 69bd 8892 22bd 05c7 433d
00000140: f595 e23c 1c68 023d 58ef 6ebb c81a 23bc
00000150: 4d1c 1abd 23f8 00be ca2b fcbc 4e6e 3a3c
00000160: 2253 6b3d 7b8c e03c 7a96 f7bb e743 e4bc
00000170: e6f9 dbbc a931 79bc c605 7abb 31ed 7bbd
00000180: b1ed 353d 70ec e23d 584d d63c f004 793b
00000190: dd82 e0bc 972b 79bd 9ff4 27bc 5a85 4c39
000001a0: 40ee 4c3d 5c25 e93d 3229 4d3c 6071 4fbd
000001b0: 34c4 88bc 01eb 81bd e996 7abd d476 7c3c
000001c0: d2ee bb3d 5ca9 4a3d 86ca 17ba 7b75 ecb7
000001d0: 293d 40bd abe2 6abd ef05 3cbd c86b 0ebb
000001e0: ad66 083e cdd3 9d3d 3923 ffba db18 babd
000001f0: 80e8 c1bd f989 ecbd af16 f83c 9c35 38bd
00000200: 3af5 233e f3d4 013d 0dae 8ebc 106e 1b3d
00000210: 075b cfbd b877 d5bd 9334 9c3c 3051 85bc
00000220: ba58 e43d f502 0e3b 7c4c 01bd 1de6 623c
00000230: befb e73b 24f5 afbc 9b58 64bd 4185 eabb
00000240: 24a4 6e3d 1863 943d cb0f 653c 0d16 fe3c
00000250: b001 4d3c 3580 58bd eda6 14bd 5d8f 89bc
00000260: 9dce 003d 04f7 2e3d 6733 da3c 228e 0abd
00000270: ce2f afbc 9f11 f0bd d06d 42bd cc4e 083d
00000280: ad56 ef3c 6aad 54bc 7bca 98bc 2c57 20bc
00000290: 776a 21bd 428b cdbd 5918 a03c 291c cc3b
000002a0: a11f 553d 9426 663d e446 df3c 6720 323d
000002b0: b5df bfbd 0a50 0d3c 86e3 bebb 463c 69bc
000002c0: 18dc 84bc 3821 783c 5770 f53b 1139 953d
000002d0: 1e8c bdbd 88da 9e3c 7034 003d 2c80 2f3d
000002e0: 1e0c 663d ec6b 863d 0c28 7a3d 36f3 b13d
000002f0: dd61 eabd 2490 14bd 26c6 a13c 5224 a13c
00000300: 2ad8 993d 0a43 d33c e0c8 95bc f0f8 a2bc
00000310: 7271 e0bc 0e96 b23b ca44 cebc afa5 28bd
00000320: 4231 fd3d 7b1f af3d 4ee2 febc 8a5a be3c
00000330: 1f20 70bd d13b 9dbd bc76 063c c767 3fbc
00000340: 8885 ae3c 6f6f be3d 0ef7 05bc a31d 06bd
00000350: d5c6 2fbc 9e01 6fbd 7915 333c 0c3c babc
00000360: bbe8 083d df69 db3d c78a 81bd 9269 a33b
00000370: 6d32 af3c c774 81bd 0945 753c b145 a2bc
00000380: 7204 7a3d 0b6c aa3d 9673 18bb 1d0b d83c
00000390: f9db 06bd d899 ebbd 91a0 5bbb 858f 87bc
000003a0: 8888 773d c81f a03c e4b8 003c a40b 4b3d
000003b0: ff68 68bd 6ece 5fbd e23d db3b 3ab6 0bbd
000003c0: 97c6 b33c 7348 96bc a9a7 933c f1d0 283d
000003d0: 40c6 46bd cd1f 8bbd 46ad 08bd a0ad 58bc
000003e0: e989 d73b d649 893b ae5d 223c 910c 59bc
000003f0: 798d aa3c 17d7 86bd ffd5 debc 193d 9c3c

fc1.bias f4 [400]
0.13900846 -0.021106761 -0.066915534 0.10603903 -0.06843739 -0.037813656 -0.027898569 -0.15703428
-0.09418978 -0.23167025 -0.046199862 -0.24989475 -0.044495 0.029121805 0.032438423 -0.22053151
-0.045798242 -0.094038464 -0.1723377 0.13836262 -0.24379349 0.09795769 -0.11277261 -0.11308598
-0.20965052 -0.25072333 -0.097646 0.05877849 0.008284236 -0.14372446 0.12430162 0.10681685
-0.01811374 0.13023132 0.055058524 -0.0034628855 0.06979796 -0.1564426 -0.12481627 -0.14002526
-0.09940356 -0.20438409 0.0768601 -0.14439349 0.040049635 0.13872877 0.025550457 -0.037751984
0.16487224 -0.25967515 0.16665971 -0.19950773 0.15535894 -0.0010106525 -0.15553449 -0.14319842
-0.16126749 0.093086556 0.15944213 0.098277345 0.09789921 0.15973914 -0.24716017 -0.002868353
-0.07692142 0.09810329 0.027718535 -0.022999806 0.048497282 -0.12697975 -0.19239277 -0.15987171
0.14083342 -0.009932252 -0.2121046 0.06620843 -0.060319718 -0.17098328 0.08435511 0.0563015
0.15461935 -0.10396771 -0.17878301 -0.2727797 -0.0019219548 -0.18603125 0.07119901 -0.25474647
-0.22154072 0.00043740708 0.016771466 -0.05725427 -0.10252817 -0.1545495 -0.07791741 -0.036211547
-0.14972086 -0.085397445 -0.04865682 -0.039807357 0.15316564 -0.2145769 0.019601496 0.04229498
-0.006573553 -0.080580905 0.07784489 -0.17686446 -0.13123962 -0.041890282 -0.08552433 -0.26254106
0.017194375 0.07389369 -0.19140641 -0.020049246 -0.22170042 -0.093900084 -0.012965681 0.16152398
0.07976069 0.0476282 -0.02735586 -0.26087603 -0.09874335 0.13744217 -0.04871478 -0.08498028
-0.10855297 0.03179994 0.113008544 -0.09116769 -0.01966778 0.13860086 0.100892305 0.07078482
0.0851284 -0.00034697953 0.03317034 -0.22711344 -0.071121484 -0.090413116 0.023955377 -0.10610061
-0.23129207 0.15421644 -0.16440734 -0.25550893 -0.13933046 0.01505157 -0.10432117 -0.26808617
0.010074382 0.018605834 0.15928186 -0.25935164 -0.11301172 -0.10722565 -0.1345111 -0.04355516
0.17418014 -0.06419367 0.14310421 -0.013635246 -0.15513764 -0.058076203 0.051538784 0.091518596
-0.07525115 -0.068474695 -0.22168644 -0.1914343 -0.13526016 0.08890434 -0.018411038 0.09782902
-0.23822825 0.00038737364 -0.20779939 -0.13229574 0.09776384 -0.008328273 -0.2077719 -0.21543509
-0.08864686 -0.14507762 -0.22042626 0.072254345 0.008988989 -0.06473838 0.11444874 -0.24910764
0.04874086 0.1481801 -0.037257154 0.07081453 -0.10841685 -0.17964017 0.11585924 -0.23825713
-0.14254488 0.092000194 -0.19672503 -0.0851449 -0.14405665 0.013676654 -0.1751288 0.041141238
0.17406635 -0.18226859 0.10257324 -0.1017893 -0.18621539 0.04561279 -0.17873229 0.07885152
-0.046319205 -0.1583582 -0.26411492 0.005815989 -0.24681455 0.05796572 0.03300539 -0.19724803
0.05201739 -0.20494035 -0.024096409 -0.07754288 0.08285757 -0.21700338 -0.110153124 -0.08845628
-0.050680023 -0.015147389 -0.15747792 0.011745652 -0.051486585 -0.12304537 0.035888072 0.13749778
0.05909713 0.05176161 -0.14900206 -0.22292235 0.08222006 -0.07906369 0.01689508 0.030156946
-0.10716913 -0.23231323 -0.17096326 -0.21997666 0.06562301 0.043531787 -0.10126279 -0.10902497
00000000: 3c58 0e3e 16e8 acbc 030b 89bd fe2a d93d
00000010: e728 8cbd 7ee2 1abd 8a8b e4bc 98cd 20be
00000020: 92e6 c0bd f73a 6dbe 113c 3dbd 69e4 7fbe
00000030: 6440 36bd da90 ee3c 27de 043d 03d3 61be
00000040: f096 3bbd 3d97 c0bd 4b79 30be eeae 0d3e
00000050: 00a5 79be 0b9e c83d 53f5 e6bd 9f99 e7bd
00000060: a0ae 56be cf5e 80be a0fa c7bd b7c1 703d
00000070: 9bba 073c 812c 13be d991 fe3d cbc2 da3d
00000080: 4463 94bc 5c5b 053e 0c85 613d 94f1 62bb
00000090: 3cf2 8e3d 7d32 20be ac9f ffbd c862 0fbe
000000a0: 1894 cbbd 104a 51be d468 9d3d e3db 13be
000000b0: 160b 243d ea0e 0e3e 314f d13c d3a1 1abd
000000c0: 45d4 283e 24f4 84be d8a8 2a3e c14b 4cbe
000000d0: 6a16 1f3e df77 84ba 6f44 1fbe 9ba2 12be
000000e0: 4e23 25be 2aa4 be3d cc44 233e a245 c93d
000000f0: 627f c83d a892 233e 8e17 7dbe fafa 3bbb
00000100: fa88 9dbd 61ea c83d fb11 e33c 176a bcbc
00000110: 16a5 463d fb06 02be 9c02 45be 69b5 23be
00000120: a336 103e e2ba 22bc f331 59be 4998 873d
00000130: cf11 77bd 3e16 2fbe 5fc2 ac3d 679c 663d
00000140: 8954 1e3e 06ed d4bd e512 37be c8a9 8bbe
00000150: 1aea fbba fa7e 3ebe c9d0 913d 216e 82be
00000160: 92db 62be c953 e539 5064 893c 7483 6abd
00000170: 4afa d1bd 3942 1ebe 2a93 9fbd 8f52 14bd
00000180: 6d50 19be dbe4 aebd 604c 47bd 0a0d 23bd
00000190: 74d7 1c3e 0cba 5bbe 5193 a03c 803d 2d3d
000001a0: f666 d7bb 9a07 a5bd 246d 9f3d f51b 35be
000001b0: ae63 06be 2595 2bbd 6127 afbd c86b 86be
000001c0: 38db 8c3c 9355 973d 0b00 44be 513e a4bc
000001d0: 6f05 63be b04e c0bd 026e 54bc 8b66 253e
000001e0: 9359 a33d ca15 433d 6619 e0bc 8b91 85be
000001f0: f439 cabd a4bd 0c3e 2689 47bd 240a aebd
00000200: 0551 debd a740 023d 0671 e73d 20b6 babd
00000210: 531e a1bc 62ed 0d3e a0a0 ce3d a2f7 903d
00000220: cc57 ae3d ceea b5b9 9fdd 073d 6d90 68be
00000230: 24a8 91bd 832a b9bd 113e c43c 474b d9bd
00000240: d4d7 6cbe eaea 1d3e 665a 28be 11d2 82be
00000250: a5ac 0ebe dc9a 763c 56a6 d5bd 9742 89be
00000260: 050f 253c 436b 983c c91a 233e bdc9 84be
00000270: b072 e7bd 1f99 dbbd 47bd 09be e566 32bd
00000280: 475c 323e f977 83bd e989 123e 5e66 5fbc
00000290: 67dc 1ebe 50e1 6dbd 551a 533d 1a6e bb3d
000002a0: 461d 9abd 763c 8cbd c501 63be 5a07 44be
000002b0: a481 0abe 7b13 b63d bfd2 96bc 955a c83d
000002c0: 1bf2 73be 6918 cb39 5dc9 54be 8978 07be
000002d0: 6838 c83d 4f73 08bc 28c2 54be 049b 5cbe
000002e0: 7c8c b5bd 3a8f 14be 6cb7 61be 16fa 933d
000002f0: 8d46 133c 8e95 84bd 1a64 ea3d 1316 7fbe
00000300: 7fa4 473d 86bc 173e f59a 18bd 3507 913d
00000310: a709 debd 98f3 37be 9c47 ed3d adf9 73be
00000320: 49f7 11be 996a bc3d 4972 49be 7360 aebd
00000330: 9683 13be 0b14 603c f754 33be b783 283d
00000340: 733e 323e 9ea4 3abe eb11 d23d e976 d0bd
00000350: 3faf 3ebe 7ad4 3a3d 9905 37be e87c a13d
00000360: 35b9 3dbd a728 22be 123a 87be 0d94 be3b
00000370: f4bc 7cbe 766d 6d3d a930 073d 63fb 49be
00000380: 3010 553d e2db 51be d565 c5bc cdce 9ebd
00000390: 3bb1 a93d 2236 5ebe f697 e1bd 9128 b5bd
000003a0: db95 4fbd c12c 78bc e441 21be d670 403c
000003b0: 99e3 52bd 36ff fbbd 5fff 123d 38cc 0c3e
000003c0: d50f 723d fb03 543d ff93 18be c245 64be
000003d0: fe62 a83d 25ec a1bd 8d67 8a3c b30b f73c
000003e0: 7d7b dbbd 85e3 6dbe fe10 2fbe 9041 61be
000003f0: 5b65 863d 634e 323d de62 cfbd 7c48 dfbd

fc2.weight f4 [300, 400]
-0.121445425 -0.01705084 -0.0110530965 0.017150175 -0.029713465 0.07485993 0.069672145 -0.04456416
-0.025478398 -0.022024801 -0.0021699332 0.0397808 -0.037902605 -0.07132458 -0.074298576 -0.018924633
-0.011769629 0.0047861794 -0.057316273 0.014421207 0.013211446 -0.0480016 -0.050725468 0.05797162
-0.07916259 -0.021822877 -0.1345931 -0.049786676 -0.023523629 0.08442005 0.017661117 0.061836164
0.023492442 0.015037323 -0.0007952512 -0.025515506 0.015734656 0.01393612 -0.0222799 -0.05936542
-0.004115988 -0.04422232 -0.009936135 -0.014144687 0.017447572 0.0043931813 -0.071950965 -0.00010468351
-0.07817135 -0.02083606 -0.030196683 0.0007875228 -0.064102285 -0.0857293 -0.074754044 -0.063203774
0.060975827 0.03371708 0.03311122 -0.034986287 -0.10884758 -0.065306224 0.031906676 -0.05242154
0.0054799365 -0.0058495076 -0.09860281 0.026797106 0.024030015 0.053698037 0.030521594 0.0162415
-0.13007487 0.041436397 0.0032562849 -0.099321805 -0.07431813 0.05146051 0.036790583 -0.005146089
-0.08049463 0.03192012 0.0143510215 0.025365634 -0.01679006 0.03544422 -0.019598072 -0.017068652
0.008831345 -0.03834307 -0.047106802 -0.11048868 0.013629227 -0.0006334942 -0.026827708 0.026575519
0.13641548 -0.060232572 -0.041755736 -0.028167496 -0.013306636 -0.08968928 0.026109261 -0.0094492845
-0.039987706 0.01957285 0.04214274 -0.046277415 0.026373355 0.025021955 0.08454888 0.021339146
0.025519965 -0.100764155 -0.04604398 -0.0756819 -0.042943392 0.0262963 -0.01874639 -0.0054439097
-0.009641943 -0.05045176 -0.08044522 0.13470696 0.020396972 -0.041318692 0.04027609 -0.053871974
-0.010141456 -0.050663862 -0.1052648 -0.077089876 0.03606222 -0.0567046 0.050682936 -0.07248894
-0.10355992 -0.051466227 -0.03210401 0.023112174 -0.03207062 -0.03773193 -0.08380851 -0.0036604977
0.06374019 -0.101036824 0.028378725 0.045662783 -0.025336754 -0.018502971 0.06597721 0.07428276
-0.008319454 0.010822543 -0.08300335 0.03616593 -0.060601715 0.008257382 0.12910758 -0.046146464
0.005006501 -0.049912665 0.004882204 -0.030571692 -0.03866772 -0.11309101 0.004044476 0.032850776
-0.09194139 -0.03281193 0.038103543 -0.02074492 0.0055706017 -0.07594434 -0.03288968 0.038282506
0.016346745 0.09410735 -0.03058191 0.007890283 0.004499023 -0.017597489 0.014884135 -0.041995965
-0.016814338 0.005492499 0.0002617295 0.007435714 -0.0092859045 -0.07370208 0.0049461806 -0.06374204
0.04533395 -0.03995792 0.0029072852 -0.009637269 -0.0017562511 -0.07533574 0.0838832 0.07019827
0.04078012 -0.11723419 -0.044459786 -0.090409115 0.029040841 0.020210786 0.040263385 -0.04763016
-0.09295468 -0.017644456 0.071717106 -0.02031791 -0.10307061 0.026715191 0.0012549009 -0.022953711
-0.020675285 0.042479582 0.043042596 0.040588986 0.018125318 -0.040758513 -0.047180016 0.019998394
0.006945411 0.032270577 0.04007184 -0.029935814 -0.05001215 -0.06783103 0.049826242 -0.042361
0.01186125 -0.0063962494 -0.04633857 -0.0072917384 0.00567105 -0.030904055 -0.11601846 -0.04312181
-0.14102916 -0.008936464 -0.042189498 -0.029251901 -0.012770443 -0.03077599 0.052369673 -0.027372727
0.01392086 0.03823445 -0.07893712 0.04473857 -0.015870083 -0.022184469 0.034507487 0.025321102
00000000: 61b8 f8bd 34ae 8bbc 0c18 35bc 867e 8c3c
00000010: a769 f3bc 2a50 993d 45b0 8e3d e988 36bd
00000020: 13b8 d0bc 5b6d b4bc 7035 0ebb 31f1 223d
00000030: c33f 1bbd 9f12 92bd da29 98bd d507 9bbc
00000040: 67d5 40bc 62d5 9c3b 78c4 6abd ed46 6c3c
00000050: d274 583c 539d 44bd 82c5 4fbd a673 6d3d
00000060: ff1f a2bd e4c5 b2bc c6d2 09be 1ded 4bbd
00000070: a0b4 c0bc 6be4 ac3d 0cae 903c eb47 7d3d
00000080: 3973 c03c 1b5f 763c 6878 50ba e505 d1bc
00000090: f7e5 803c 5354 643c 5684 b6bc 2829 73bd
000000a0: 69df 86bb 7722 35bd 2ccb 22bc 1ebf 67bc
000000b0: 36ee 8e3c adf4 8f3b 075b 93bd 8889 dbb8
000000c0: 4d18 a0bd 63b0 aabc 095f f7bc c371 4e3a
000000d0: 0f48 83bd d892 afbd a618 99bd fb70 81bd
000000e0: cac1 793d ec1a 0a3d a19f 073d c84d 0fbd
000000f0: 7beb debd 45bf 85bd 93b0 023d f8b7 56bd
00000100: 0a91 b33b 3aad bfbb 45f0 c9bd 9b85 db3c
00000110: 98da c43c 79f2 5b3d 6c08 fa3c e50c 853c
00000120: 5932 05be 36b9 293d 6567 553b 3b69 cbbd
00000130: 1b34 98bd 41c8 523d b9b1 163d 86a0 a8bb
00000140: 5eda a4bd acbe 023d 8c20 6b3c 97cb cf3c
00000150: 4f8b 89bc f52d 113d 238c a0bc 8fd3 8bbc
00000160: 58b1 103c 9f0d 1dbd 10f3 40bd e447 e2bd
00000170: 1f4d 5f3c 1311 26ba c8c5 dbbc e7b4 d93c
00000180: 80b0 0b3e 6eb6 76bd 1008 2bbd 85bf e6bc
00000190: 1404 5abc 03af b7bd 17e3 d53c 2cd1 1abc
000001a0: 26ca 23bd 3e57 a03c de9d 2c3d 638d 3dbd
000001b0: ef0c d83c d8fa cc3c f727 ad3d 6fcf ae3c
000001c0: 3f0f d13c 705d cebd 9d98 3cbd 1dff 9abd
000001d0: 69e5 2fbd 576b d73c 0792 99bc d362 b2bb
000001e0: 3df9 1dbc 81a6 4ebd 77c0 a4bd 9ff0 093e
000001f0: 8d17 a73c ca3d 29bd 8bf8 243d dca8 5cbd
00000200: 5928 26bc e984 4fbd 1295 d7bd 4ce1 9dbd
00000210: fab5 133d 1543 68bd e998 4f3d 1575 94bd
00000220: 3917 d4bd 40ce 52bd 7f7f 03bd be55 bd3c
00000230: 7c5c 03bd cc8c 1abd cca3 abbd f6e4 6fbb
00000240: 378a 823d 65ec cebd 807a e83c e608 3b3d
00000250: 068f cfbc 8b93 97bc 0f1f 873d 8f21 983d
00000260: 524e 08bc 0951 313c a9fd a9bd ba22 143d
00000270: 8139 78bd f849 073c c734 043e 1304 3dbd
00000280: 930d a43b 3971 4cbd e5fa 9f3b 7c71 fabc
00000290: 0b62 1ebd 429c e7bd 8687 843b 898e 063d
000002a0: c44b bcbd cd65 06bd 7612 1c3d 40f1 a9bc
000002b0: 9889 b63b b588 9bbd 54b7 06bd 1ece 1c3d
000002c0: 9ce9 853c 5bbb c03d ea86 fabc 3f46 013c
000002d0: 8a6c 933b 9c28 90bc 96dc 733c f603 2cbd
000002e0: 39be 89bc 6cfa b33b bd38 8939 4aa7 f33b
000002f0: e823 18bc 1ef1 96bd 9213 a23b 308b 82bd
00000300: 18b0 393d eaaa 23bd 2788 3e3b a3e5 1dbc
00000310: 0232 e6ba a049 9abd f5ca ab3d 1cc4 8f3d
00000320: 0e09 273d 7b18 f0bd 771b 36bd 6a28 b9bd
00000330: 0fe7 ed3c 1791 a53c 38eb 243d d817 43bd
00000340: 065f bebd 1b8b 90bc 6be0 923d bf71 a6bc
00000350: af16 d3bd d1d9 da3c 7d7b a43a 6c09 bcbc
00000360: 375f a9bc 12ff 2d3d 6f4d 303d a340 263d
00000370: 8c7b 943c 66f2 26bd d53f 41bd acd3 a33c
00000380: 5596 e33b 272e 043d 5f22 243d f43b f5bc
00000390: 8ad9 4cbd ffea 8abd 9a16 4c3d ba82 2dbd
000003a0: b055 423c a197 d1bb 83cd 3dbd 89ef eebb
000003b0: 37d4 b93b 802a fdbc 169b edbd 7fa0 30bd
000003c0: f369 10be 3f6a 12bc e5ce 2cbd afa1 efbc
000003d0: 1f3b 51bc ee1d fcbc 9581 563d c53c e0bc
000003e0: 5214 643c ba9b 1c3d c9a9 a1bd ca3f 373d
000003f0: fa01 82bc 34bc b5bc b957 0d3d 336e cf3c

fc2.bias f4 [300]
0.05727147 0.0216163 -0.009919291 0.012097592 -0.020320347 0.018957285 0.06620564 -0.113578364
0.044750202 -0.07307911 0.098795615 -0.07153711 -0.048865706 -0.04290216 0.07912149 -0.021946298
-0.0016181762 -0.022859456 -0.05833478 0.023066537 -0.007261921 -4.1318013e-05 0.086482726 -0.05550084
0.08904261 0.076309636 0.040805276 -0.12594284 -0.06972875 -0.049044095 -0.042762827 0.027013369
-0.0014515538 0.033966534 0.040475372 -0.011438087 -0.056288607 0.033374153 -0.03907158 0.09129091
-0.01281614 0.032895688 -0.022949597 -0.013390027 0.015641874 -0.0062120077 -0.026343456 -0.051295746
-0.017944736 -0.041925445 0.07512078 -0.032737553 -0.029051263 0.023768947 -0.07435287 0.06912162
0.05010385 0.0925454 -0.099079944 -0.091272496 0.1865992 -0.034085672 -0.07782082 -0.055035356
-0.10284475 -0.037328493 0.040942106 -0.050749093 0.1838494 0.004566095 0.05432872 -0.09596461
-0.047566686 0.015808092 0.0016568188 -0.043751713 -0.05581864 -0.032293405 0.07499359 -0.0019169279
-0.03825006 -0.10486685 -0.038044453 -0.07632377 -0.008264349 -0.0726966 0.0236854 -0.09767936
-0.038016055 -0.1025214 0.02372036 -0.033200752 0.006395826 -0.050956495 0.042480197 0.025938526
-0.059499532 -0.024313629 -0.09219666 -0.051907465 -0.049362425 -0.053816367 -0.052707944 -0.12149689
-0.058985177 0.04544036 -0.15686552 -0.04341459 -0.015554061 -0.030233808 0.0720808 -0.046399493
0.16154554 -0.05158106 -0.080013536 -0.013701201 -0.038008127 0.11183524 0.024762817 -0.003243821
-0.0042156316 -0.06827248 0.02724562 -0.0140139945 0.02497424 -0.08063988 0.07129484 0.036806554
0.014144753 0.005975107 -0.06662392 -0.04169969 -0.02375276 -0.072646685 0.020560667 -0.026308993
-0.07573145 -0.119255826 -0.016960474 -0.053695988 -0.010397412 0.10447991 -0.00046461337 0.00562219
-0.059217982 0.09172005 -0.055581797 -0.1044989 -0.08530703 -0.025237953 -0.0014204154 -0.04455175
-0.034468744 -0.031075088 -0.06811041 0.036595482 -0.06638129 0.010935319 0.03296737 0.008678143
0.034123845 0.0513682 0.02513711 -0.027841741 -0.06955573 -0.058941934 0.047702942 0.012990542
-0.051447168 -0.029272491 0.10263036 0.08488997 0.011700225 0.06034887 0.0634579 0.05186718
0.02092892 -0.045837663 -0.03883382 -0.033134416 0.04135055 0.027663214 0.08153216 -0.017564286
0.0730186 0.026282063 -0.04593637 -0.048029847 0.013438345 -0.048317526 -0.06978362 0.1026256
0.10453979 -0.08497866 0.0005483307 -0.074961886 0.058521993 -0.047499135 0.015283874 -0.0015058442
-0.008321095 0.013635504 0.024006875 0.023697268 -0.028496925 0.0729625 0.057013188 -0.038951233
-0.06731692 -0.03637878 -0.05891627 0.0031132302 -0.023533374 -0.0317241 -0.07990902 -0.038240485
-0.03752593 0.008143765 0.01637204 -0.05654655 0.005488576 0.090461664 -0.04262957 0.06754352
-0.0738639 -0.006858088 0.0064364066 -0.037773613 0.02448904 -0.14634082 0.0927052 -0.02688714
-0.01777451 -0.08463405 0.02550475 0.013852084 -0.07319986 -0.030502735 0.10786475 -0.016000733
-0.00273269 0.05698738 0.14576411 0.0013013274 0.067826636 -0.010007068 0.11190402 -0.04285668
-0.016474389 0.009988436 -0.01568686 -0.056711137 -0.030217433 0.0061161933 -0.047811344 0.0774597
00000000: 7d95 6a3d ab14 b13c 8684 22bc fb34 463c
00000010: db76 a6bc 4f4c 9b3c d396 873d c69b e8bd
00000020: fd4b 373d 80aa 95bd 5b55 ca3d 0c82 92bd
00000030: 6827 48bd 2dba 2fbd 730a a23d b9c8 b3bc
00000040: fc18 d4ba c143 bbbc 73f0 6ebd 09f6 bc3c
00000050: 69f5 edbb e14c 2db8 db1d b13d d954 63bd
00000060: f95b b63d 3a48 9c3d 6f23 273d 29f7 00be
00000070: f2cd 8ebd 76e2 48bd 1328 2fbd 244b dd3c
00000080: 1042 beba 7e20 0b3d 81c9 253d d066 3bbc
00000090: e28e 66bd 56b3 083d 8509 20bd bbf6 ba3d
000000a0: cafa 51bc a1bd 063d cb00 bcbc d861 5bbc
000000b0: 6323 803c 198e cbbb 3bce d7bc 7d1b 52bd
000000c0: d700 93bc 04ba 2bbd ecd8 993d d017 06bd
000000d0: eafc edbc 18b7 c23c 5146 98bd a38f 8d3d
000000e0: b239 4d3d 7188 bd3d 6dea cabd 13ed babd
000000f0: dc13 3f3e 6b9d 0bbd 8660 9fbd c16c 61bd
00000100: 45a0 d2bd c3e5 18bd e9b2 273d 48de 4fbd
00000110: 0443 3c3e 2e9f 953b cb87 5e3d 1889 c4bd
00000120: 49d5 42bd f97f 813c 9d29 d93a ff34 33bd
00000130: 16a2 64bd 1746 04bd 3d96 993d 6d41 fbba
00000140: 18ac 1cbd 6ec4 d6bd 80d4 1bbd a34f 9cbd
00000150: 3167 07bc f4e1 94bd e207 c23c 1e0c c8bd
00000160: b9b6 1bbd bdf6 d1bd 3351 c23c 83fd 07bd
00000170: 1494 d13b c2b7 50bd b7ff 2d3d 087d d43c
00000180: c8b5 73bd 602d c7bc 9ad1 bcbd ec9c 54bd
00000190: 4130 4abd 8d6e 5cbd 49e4 57bd 5dd3 f8bd
000001a0: 719a 71bd ac1f 3a3d 5ba1 20be 7fd3 31bd
000001b0: 76d6 7ebc e4ac f7bc 199f 933d 650d 3ebd
000001c0: 326c 253e a946 53bd 23de a3bd 017b 60bc
000001d0: 69ae 1bbd e009 e53d 64db ca3c 4996 54bb
000001e0: 4823 8abb 71d2 8bbd 3532 df3c f49a 65bc
000001f0: c796 cc3c 8526 a5bd 0703 923d 78c2 163d
00000200: 65bf 673c d5ca c33b 1f72 88bd 4bcd 2abd
00000210: 2695 c2bc c9c7 94bd d86e a83c f585 d7bc
00000220: 1719 9bbd 663c f4bd b1f0 8abc 53f0 5bbd
00000230: e859 2abc 90f9 d53d 5a97 f3b9 593a b83b
00000240: 8e8e 72bd b9d7 bb3d bda9 63bd 8503 d6bd
00000250: 74b5 aebd d3bf cebc 3b2d baba e57b 36bd
00000260: 192f 0dbd 2f91 febc 787d 8bbd 25e5 153d
00000270: eaf2 87bd 0d2a 333c cb08 073d c52e 0e3c
00000280: 72c5 0b3d 7667 523d 57ec cd3c 5d14 e4bc
00000290: 3c73 8ebd 196d 71bd 2964 433d 48d6 543c
000002a0: 44ba 52bd ddcc efbc de2f d23d cbda ad3d
000002b0: 4db2 3f3c 6030 773d 37f6 813d ae72 543d
000002c0: 2073 ab3c 46c0 3bbd 3610 1fbd f4b7 07bd
000002d0: 325f 293d f79d e23c 55fa a63d fae2 8fbc
000002e0: c78a 953d 7b4d d73c c627 3cbd f2ba 44bd
000002f0: 812c 5c3c 99e8 45bd b7ea 8ebd 5f2d d23d
00000300: f518 d63d 4b09 aebd dabd 0f3a 9e85 99bd
00000310: c2b4 6f3d 748e 42bd 3769 7a3c bf5f c5ba
00000320: 3455 08bc 7367 5f3c 11aa c43c c620 c23c
00000330: 6272 e9bc 5d6d 953d a986 693d 548b 1fbd
00000340: 74dd 89bd ea01 15bd 3052 71bd 5607 4c3b
00000350: 10c9 c0bc 21f1 01bd 57a7 a3bd 0ea2 1cbd
00000360: cab4 19bd 6d6d 053c a81e 863c 5b9d 67bd
00000370: 83d9 b33b f743 b93d 589c 2ebd 4254 8a3d
00000380: f545 97bd d0b9 e0bb 7ee8 d23b 81b8 1abd
00000390: 3d9d c83c 5eda 15be 39dc bd3d 6b42 dcbc
000003a0: d99b 91bc 9e54 adbd 56ef d03c daf3 623c
000003b0: cfe9 95bd dfe0 f9bc 32e8 dc3d f813 83bc
000003c0: ee16 33bb 996b 693d 3043 153e 4d91 aa3a
000003d0: b1e8 8a3d aff4 23bc ef2d e53d 7c8a 2fbd
000003e0: 4cf5 86bc 89a6 233c bb81 80bc f049 68bd
000003f0: 8d8a f7bc 596a c83b d4d5 43bd 31a3 9e3d

fc3.weight f4 [2, 300]
0.0015343865 0.03272494 -0.025843117 0.04401211 0.06237301 0.029817084 0.05286011 0.03339532
0.047877043 0.03279235 -0.09076483 -0.00665068 -0.014352862 0.057344843 0.058400612 0.049308628
0.029763233 0.0033760446 0.06942535 0.08589267 0.032251973 0.019030895 -0.002270773 0.030115234
0.017336192 -0.059789553 0.013985075 -0.01075047 0.022182385 -0.0069004684 -0.004730806 -0.04048195
-0.0021187244 -0.040751126 -0.015943905 0.027343638 0.03240742 0.036287673 0.046361815 -0.046059113
0.0295627 -0.00946957 0.033711754 0.032550406 0.037983667 0.06512227 0.059618063 0.0029288996
0.035317667 0.03909625 0.05576133 0.02930787 0.027222823 -0.045364488 0.009223714 -0.05737216
-0.035632465 -0.055087052 0.009269402 0.021346336 -0.028817542 0.05428565 0.035562832 -0.03871121
0.014407199 0.020014722 -0.0045708604 0.050655372 -0.020155242 0.008214466 0.050719995 0.03129448
0.014213505 0.01672066 0.016944397 0.022529949 0.06265315 0.03879633 -0.020690786 0.06655462
-0.010076974 0.0113798445 -0.01914621 0.06806421 -0.004739656 -0.012067547 0.038041856 0.032161705
0.013082329 0.020211384 0.059617028 0.0019678497 0.05108832 0.0359838 0.021197814 0.014550306
0.00923439 -0.022056099 -0.0015657134 0.072909676 0.032677215 0.039121978 0.0415716 0.010353814
-0.0019620238 0.03323425 -0.022059826 0.06781393 -0.006005579 0.017093664 -0.0106315 0.04836367
-0.023967938 -0.0032841563 0.034617983 -0.017496368 0.0014849663 -0.037447948 0.051511317 -0.052601878
0.03273104 0.0061193295 0.010681196 0.020721395 0.09155729 0.03740057 -0.02299919 0.045250338
0.05558286 0.014141779 0.0061296714 0.02713148 -0.018001987 0.013024073 0.06645584 0.017355662
0.019759806 0.017089453 0.03799674 -0.047271542 0.0068538752 -0.030894091 0.08338087 0.055739764
0.053576127 0.052237347 0.013224 -0.019783512 0.011259607 0.030566622 0.0371613 0.007987864
0.028185835 0.058098152 0.0050344253 0.039753366 0.04625893 0.046561547 0.048854586 0.03444295
0.05338975 0.062460613 0.06641949 0.056130476 0.03871954 0.04584011 0.04241645 0.03146133
0.0060112127 0.040150564 -0.09184379 -0.03402992 0.032909505 -0.008598461 -0.05796266 0.027622815
0.0540051 -0.004105039 0.030044597 0.041687533 0.013347994 0.10478089 0.07947688 0.031301253
-0.0686923 0.026927212 0.012602274 0.045574997 0.046249595 0.05559258 0.039871134 0.069773145
-0.009075954 0.007677381 0.02113224 -0.018398253 -0.0663252 0.019700352 0.010176026 0.06649456
-0.03933103 0.027935069 -0.02486251 0.04904694 0.036669195 -0.024226762 0.08536152 0.052708212
0.04204488 0.038018573 0.005389232 -0.013458592 0.013261639 0.03638111 -0.0029669674 0.022853503
-0.003040277 0.030787338 0.11077463 0.037665628 0.053849187 0.06800079 0.042837583 0.024764942
-0.017904392 0.025362073 -0.028453788 0.024395904 -0.08052895 0.0072934404 -0.005787326 0.042349573
0.03784307 0.010544942 0.03632261 0.03454036 0.02838714 0.028908225 -0.06543507 0.02610925
0.0155097665 0.036509775 -0.0001932891 0.034298703 0.0637597 0.10852805 -0.011641257 0.06941749
0.033359945 -0.019220188 0.05822106 -0.038721193 0.038935356 -0.018977556 0.07164296 -0.055722445
00000000: 781d c93a 960a 063d f2b4 d3bc 0b46 343d
00000010: d77a 7f3d f542 f43c d883 583d 88c9 083d
00000020: b81a 443d 4551 063d e9e2 b9bd f3ed d9bb
00000030: 4428 6bbc 6de2 6a3d 7b35 6f3d d8f7 493d
00000040: 06d2 f33c a140 5d3b e12e 8e3d 7fe8 af3d
00000050: a51a 043d aee6 9b3c 40d1 14bb 39b4 f63c
00000060: a104 8e3c e4e5 74bd a821 653c bd22 30bc
00000070: d5b7 b53c 531d e2bb e104 9bbb 67d0 25bd
00000080: 4cda 0abb a7ea 26bd cb9c 82bc c4ff df3c
00000090: a5bd 043d 62a2 143d e3e5 3d3d 7ba8 3cbd
000000a0: 7a2d f23c 4126 1bbc 5615 0a3d 9353 053d
000000b0: c394 1b3d d35e 853d 1232 743d c8f2 3f3b
000000c0: 42a9 103d 6423 203d fe65 643d 0f17 f03c
000000d0: 6602 df3c 1dd0 39bd 0f1f 173c 12ff 6abd
000000e0: 59f3 11bd f6a2 61bd b1de 173c 83de ae3c
000000f0: c412 ecbc a15a 5e3d 55aa 113d a58f 1ebd
00000100: 2c0c 6c3c eaf5 a33c 28c7 95bb 027c 4f3d
00000110: 9b1c a5bc f895 063c c5bf 4f3d a42e 003d
00000120: c3df 683c c4f9 883c face 8a3c ba90 b83c
00000130: 4b50 803d e7e8 1e3d b97f a9bc ca4d 883d
00000140: e419 25bc 8772 3a3c 83d8 9cbc 4065 8b3d
00000150: 1e4f 9bbb f6b6 45bc c7d1 1b3d febb 033d
00000160: 4457 563c 5892 a53c fc30 743d 0af7 003b
00000170: fc41 513d c063 133d 0aa7 ad3c 6864 6e3c
00000180: d74b 173c feae b4bc a038 cdba ab51 953d
00000190: 8bd8 053d 5e3e 203d fb46 2a3d 0ba3 293c
000001a0: 4c95 00bb a320 083d cfb6 b4bc 08e2 8a3d
000001b0: 73ca c4bb 0308 8c3c be2f 2ebc fc18 463d
000001c0: 6958 c4bc 003b 57bb 96cb 0d3d 8b54 8fbc
000001d0: 33a3 c23a 0563 19bd 88fd 523d 1175 57bd
000001e0: fc10 063d a884 c83b 2f00 2f3c eabf a93c
000001f0: 6382 bb3d 5731 193d cc68 bcbc 6b58 393d
00000200: daaa 633d ecb2 673c 69db c83b d642 de3c
00000210: e778 93bc ec62 553c 001a 883d 762d 8e3c
00000220: 51df a13c 2eff 8b3c 78a2 1b3d ce9f 41bd
00000230: 7996 e03b 9b15 fdbc 97c3 aa3d 614f 643d
00000240: a472 5b3d d4f6 553d 7aa9 583c 0811 a2bc
00000250: 377a 383c da66 fa3c 7336 183d 88df 023c
00000260: fbe5 e63c 54f8 6d3d d2f7 a43b 6dd4 223d
00000270: 017a 3d3d 52b7 3e3d bf1b 483d 0d14 0d3d
00000280: 36af 5a3d b3d6 7f3d f106 883d 12e9 653d
00000290: 6198 1e3d d7c2 3b3d dfbc 2d3d 98dd 003d
000002a0: b5f9 c43b eb74 243d 9918 bcbd f562 0bbd
000002b0: 1ecc 063d 8fe0 0cbc 416a 6dbd 3e49 e23c
000002c0: 7434 5d3d 9083 86bb 1620 f63c 8cc0 2a3d
000002d0: 8bb1 5a3c 5d97 d63d c6c4 a23d be35 003d
000002e0: 8cae 8cbd 7596 dc3c c579 4e3c d9ac 3a3d
000002f0: 3770 3d3d 0cb5 633d ea4f 233d 39e5 8e3d
00000300: 4fb3 14bc 8a92 fb3b 851d ad3c efb7 96bc
00000310: 82d5 87bd a262 a13c 59b9 263c 4d2e 883d
00000320: 9319 21bd 16d8 e43c 76ac cbbc 72e5 483d
00000330: 7032 163d 3477 c6bc 05d2 ae3d 91e4 573d
00000340: 4137 2c3d 5db9 1b3d 2898 b03b 6d81 5cbc
00000350: 5847 593c 5c04 153d 7471 42bb 4537 bb3c
00000360: 623f 47bb ba35 fc3c cfdd e23d 4647 1a3d
00000370: f790 5c3d 0044 8b3d 7676 2f3d d9df ca3c
00000380: 3bac 92bc 1fc4 cf3c eb17 e9bc ebd9 c73c
00000390: 5dec a4bd d0fd ee3b 9ca3 bdbb bf76 2d3d
000003a0: 5601 1b3d b1c4 2c3c 04c7 143d 317a 0d3d
000003b0: 268c e83c f1d0 ec3c d202 86bd 11e3 d53c
000003c0: ad1c 7e3c 468b 153d a6ad 4ab9 cc7c 0c3d
000003d0: 7294 823d f443 de3d f9ba 3ebc c22a 8e3d
000003e0: 70a4 083d a873 9dbc 3579 6e3d 1d9a 1ebd
000003f0: ae7a 1f3d d276 9bbc 8bb9 923d 383d 64bd

fc3.bias f4 [2]
0.12644987 0.13218424
00000000: 137c 013e 4e5b 073e

bn1.weight f4 [400]
0.4873283 0.4562143 0.46309638 0.18281281 0.1806845 0.061745107 0.13881075 0.6826243
0.49915326 0.5021285 0.60096014 0.4486215 0.7173869 0.5595343 0.63090134 0.6350065
0.027099967 0.20692283 0.90333295 0.7277974 0.81797373 0.36650825 0.45694977 0.04738581
0.85842556 0.50021994 0.40298313 0.29580653 0.6802785 0.7758564 0.68666244 0.75735676
0.5625569 0.6973719 0.11145657 0.89542985 0.60564524 0.012635648 0.46780646 0.8027214
0.5103793 0.9030423 0.39474273 0.62419814 0.5059694 0.5821467 0.9007233 0.43056715
0.62144357 0.110544264 0.14765495 0.68557054 0.7899432 0.20683038 0.28564364 0.77948374
0.973289 0.75404674 0.9939397 0.096467316 0.7613403 0.3819725 0.21038836 0.24661821
0.5937981 0.98006856 0.5078069 0.53764 0.72928447 0.05675906 0.8405698 0.14096755
0.51765853 0.56944543 0.16454178 0.38696194 0.057524383 0.022250175 0.23449636 0.42987496
0.68773633 0.78823256 0.17283928 0.3784867 0.8618838 0.8565397 0.6183732 0.6103542
0.5117202 0.024405658 0.81238854 0.95570564 0.88131243 0.5893064 0.9212739 0.8447493
0.42892104 0.8961333 0.78093684 0.15111852 0.705318 0.7856891 0.33783317 0.6476077
0.24104595 0.5774412 0.16475779 0.7178315 0.7863887 0.0901314 0.12133336 0.29106867
0.9674881 0.4335525 0.35646057 0.55325955 0.69216174 0.6766393 0.071711004 0.26133066
0.8964904 0.5523734 0.31259835 0.74745613 0.9261946 0.27731717 0.26712978 0.12758511
0.5323378 0.4941525 0.70472795 0.7977724 0.82815397 0.13283998 0.24911273 0.73203844
0.66505796 0.9791934 0.24259019 0.9879293 0.7922049 0.74110264 0.32153153 0.2567551
0.5504919 0.7304484 0.422296 0.20170832 0.24353284 0.8365764 0.7095527 0.77492404
0.9059358 0.12515306 0.05514586 0.9583081 0.33720565 0.96995527 0.5991084 0.81530756
0.90380245 0.3066395 0.47967565 0.8930979 0.35006273 0.19364345 0.71948063 0.74142474
0.079952896 0.8677396 0.7223022 0.98234475 0.66288 0.15256888 0.1176545 0.42811435
0.015578508 0.9728147 0.037974536 0.025592923 0.016188383 0.16194934 0.4248171 0.9886811
0.5400901 0.9126868 0.75860494 0.54774255 0.4799658 0.73925066 0.6135814 0.7242452
0.95646214 0.46186966 0.8157422 0.95561385 0.36961466 0.22688186 0.7572125 0.528426
0.13931996 0.84360975 0.613695 0.35945392 0.7638352 0.18774128 0.508981 0.43587953
0.7418982 0.67377 0.4686017 0.1396771 0.7861072 0.38340914 0.49275267 0.4173767
0.25531596 0.39261258 0.8123159 0.9105308 0.5197869 0.072199166 0.57164377 0.54510075
0.103539765 0.49000645 0.23974985 0.012316644 0.06396717 0.07141948 0.16759658 0.1863907
0.55558026 0.89579475 0.65300435 0.54824835 0.13678235 0.24790025 0.097124934 0.7505991
0.9591791 0.15425861 0.3879329 0.8211317 0.5965609 0.029732525 0.119395375 0.25811732
0.36335838 0.6599331 0.66849965 0.11678499 0.7194525 0.9583609 0.23967779 0.61192477
00000000: 1883 f93e ec94 e93e f81a ed3e 4833 3b3e
00000010: 5c05 393e 70e8 7c3d 6824 0e3e 77c0 2e3f
00000020: 0491 ff3e 7e8b 003f 86d8 193f b8b1 e53e
00000030: aba6 373f a43d 0f3f c082 213f c98f 223f
00000040: c000 de3c 94e3 533e d440 673f ee50 3a3f
00000050: ba66 513f f8a6 bb3e 52f5 e93e a017 423d
00000060: c7c1 5b3f 6a0e 003f ce53 ce3e f473 973e
00000070: bb26 2e3f 869e 463f 1cc9 2f3f 22e2 413f
00000080: bb03 103f f786 323f 5843 e43d e43a 653f
00000090: 910b 1b3f c005 4f3c 5484 ef3e 267f 4d3f
000000a0: 38a8 023f c82d 673f b81b ca3e 73cb 1f3f
000000b0: 3687 013f 9107 153f cd95 663f 4c73 dc3e
000000c0: ed16 1f3f 0865 e23d dc32 173e 8d81 2f3f
000000d0: b839 4a3f 58cb 533e e23f 923e 3f8c 473f
000000e0: 7829 793f 3509 413f d572 7e3f a890 c53d
000000f0: 33e7 423f e691 c33e 0c70 573e 7c89 7c3e
00000100: 2703 183f c6e5 7a3f a2ff 013f c6a2 093f
00000110: 63b2 3a3f 307c 683d 952f 573f cc59 103e
00000120: 4585 043f 2dc7 113f a47d 283e e01f c63e
00000130: b09e 6b3d 0046 b63c d01f 703e 9218 dc3e
00000140: 7d0f 303f 9cc9 493f c8fc 303e 02c9 c13e
00000150: 6ba4 5c3f 3046 5b3f b54d 1e3f 2c40 1c3f
00000160: 1800 033f 60ee c73c b2f8 4f3f 20a9 743f
00000170: b19d 613f c9dc 163f 9bd8 6b3f 7d41 583f
00000180: 8a9b db3e fe68 653f 7aeb 473f d0be 1a3e
00000190: b88f 343f ec22 493f 78f8 ac3e 9ec9 253f
000001a0: c0d4 763e 30d3 133f 44b6 283e cec3 373f
000001b0: c550 493f d096 b83d a07d f83d f406 953e
000001c0: 4dad 773f 98fa dd3e 0082 b63e 6ba2 0d3f
000001d0: 8331 313f 3c38 2d3f 38dd 923d 22cd 853e
000001e0: 6580 653f 5868 0d3f e40c a03e 4959 3f3f
000001f0: 171b 6d3f 84fc 8d3e 3cc5 883e aca5 023e
00000200: 4a47 083f 8e01 fd3e 0d69 343f d03a 4c3f
00000210: e601 543f 3407 083e 6817 7f3e df66 3b3f
00000220: 3d41 2a3f 6bac 7a3f 9069 783e efe8 7c3f
00000230: f1cd 4a3f e7b8 3d3f c89f a43e 6875 833e
00000240: 0aed 0c3f abfe 3a3f 2e37 d83e a08c 4e3e
00000250: ac60 793e df29 563f 3fa5 353f 6c61 463f
00000260: 69eb 673f 2028 003e a0e0 613d ae53 753f
00000270: 38a6 ac3e fd4e 783f 2b5f 193f ffb7 503f
00000280: 995f 673f daff 9c3e 0c98 f53e 10a2 643f
00000290: 6c3b b33e 784a 463e e22f 383f 03ce 3d3f
000002a0: 58be a33d 2f24 5e3f cce8 383f f27a 7b3f
000002b0: 81b2 293f 043b 1c3e d8f4 f03d ce31 db3e
000002c0: 003d 7f3c 620a 793f 308b 1b3d 40a8 d13c
000002d0: 809d 843c 0cd6 253e a081 d93e 341a 7d3f
000002e0: 5843 0a3f d8a5 693f ef33 423f db38 0c3f
000002f0: 14be f53e 883f 3d3f ac13 1d3f 2268 393f
00000300: b4da 743f 2e7a ec3e 7bd4 503f 1ca3 743f
00000310: 223e bd3e b853 683e aed8 413f ed46 073f
00000320: e4a9 0e3e cff6 573f 1e1b 1d3f 580a b83e
00000330: b48a 433f 403f 403e 944c 023f 9a2b df3e
00000340: 0aed 3d3f 317c 2c3f 90ec ef3e 8407 0f3e
00000350: 523e 493f 344e c43e 144a fc3e 66b2 d53e
00000360: c6b8 823e 8404 c93e eff3 4f3f 8c18 693f
00000370: c110 053f 28dd 933d 3f57 123f b98b 0b3f
00000380: a80c d43d 20e2 fa3e fc80 753e c0cb 493c
00000390: 3801 833d 6044 923d 709e 2b3e 34dd 3e3e
000003a0: 823a 0e3f ce52 653f 4b2b 273f 015a 0c3f
000003b0: ac10 0c3e 90d9 7d3e 70e9 c63d 4327 403f
000003c0: c38c 753f f8f5 1d3e 249f c63e b035 523f
000003d0: 37b8 183f a091 f33c 9085 f43d f427 843e
000003e0: 1c0a ba3e 60f1 283f cb22 2b3f f82c ef3d
000003f0: 0a2e 383f 2457 753f 186e 753e 1aa7 1c3f

bn1.bias f4 [400]
0.0 0.0 0.0 0.0 0.0 0.0 0.0 0.0
0.0 0.0 0.0 0.0 0.0 0.0 0.0 0.0
0.0 0.0 0.0 0.0 0.0 0.0 0.0 0.0
0.0 0.0 0.0 0.0 0.0 0.0 0.0 0.0
0.0 0.0 0.0 0.0 0.0 0.0 0.0 0.0
0.0 0.0 0.0 0.0 0.0 0.0 0.0 0.0
0.0 0.0 0.0 0.0 0.0 0.0 0.0 0.0
0.0 0.0 0.0 0.0 0.0 0.0 0.0 0.0
0.0 0.0 0.0 0.0 0.0 0.0 0.0 0.0
0.0 0.0 0.0 0.0 0.0 0.0 0.0 0.0
0.0 0.0 0.0 0.0 0.0 0.0 0.0 0.0
0.0 0.0 0.0 0.0 0.0 0.0 0.0 0.0
0.0 0.0 0.0 0.0 0.0 0.0 0.0 0.0
0.0 0.0 0.0 0.0 0.0 0.0 0.0 0.0
0.0 0.0 0.0 0.0 0.0 0.0 0.0 0.0
0.0 0.0 0.0 0.0 0.0 0.0 0.0 0.0
0.0 0.0 0.0 0.0 0.0 0.0 0.0 0.0
0.0 0.0 0.0 0.0 0.0 0.0 0.0 0.0
0.0 0.0 0.0 0.0 0.0 0.0 0.0 0.0
0.0 0.0 0.0 0.0 0.0 0.0 0.0 0.0
0.0 0.0 0.0 0.0 0.0 0.0 0.0 0.0
0.0 0.0 0.0 0.0 0.0 0.0 0.0 0.0
0.0 0.0 0.0 0.0 0.0 0.0 0.0 0.0
0.0 0.0 0.0 0.0 0.0 0.0 0.0 0.0
0.0 0.0 0.0 0.0 0.0 0.0 0.0 0.0
0.0 0.0 0.0 0.0 0.0 0.0 0.0 0.0
0.0 0.0 0.0 0.0 0.0 0.0 0.0 0.0
0.0 0.0 0.0 0.0 0.0 0.0 0.0 0.0
0.0 0.0 0.0 0.0 0.0 0.0 0.0 0.0
0.0 0.0 0.0 0.0 0.0 0.0 0.0 0.0
0.0 0.0 0.0 0.0 0.0 0.0 0.0 0.0
0.0 0.0 0.0 0.0 0.0 0.0 0.0 0.0
00000000: 0000 0000 0000 0000 0000 0000 0000 0000
00000010: 0000 0000 0000 0000 0000 0000 0000 0000
00000020: 0000 0000 0000 0000 0000 0000 0000 0000
00000030: 0000 0000 0000 0000 0000 0000 0000 0000
00000040: 0000 0000 0000 0000 0000 0000 0000 0000
00000050: 0000 0000 0000 0000 0000 0000 0000 0000
00000060: 0000 0000 0000 0000 0000 0000 0000 0000
00000070: 0000 0000 0000 0000 0000 0000 0000 0000
00000080: 0000 0000 0000 0000 0000 0000 0000 0000
00000090: 0000 0000 0000 0000 0000 0000 0000 0000
000000a0: 0000 0000 0000 0000 0000 0000 0000 0000
000000b0: 0000 0000 0000 0000 0000 0000 0000 0000
000000c0: 0000 0000 0000 0000 0000 0000 0000 0000
000000d0: 0000 0000 0000 0000 0000 0000 0000 0000
000000e0: 0000 0000 0000 0000 0000 0000 0000 0000
000000f0: 0000 0000 0000 0000 0000 0000 0000 0000
00000100: 0000 0000 0000 0000 0000 0000 0000 0000
00000110: 0000 0000 0000 0000 0000 0000 0000 0000
00000120: 0000 0000 0000 0000 0000 0000 0000 0000
00000130: 0000 0000 0000 0000 0000 0000 0000 0000
00000140: 0000 0000 0000 0000 0000 0000 0000 0000
00000150: 0000 0000 0000 0000 0000 0000 0000 0000
00000160: 0000 0000 0000 0000 0000 0000 0000 0000
00000170: 0000 0000 0000 0000 0000 0000 0000 0000
00000180: 0000 0000 0000 0000 0000 0000 0000 0000
00000190: 0000 0000 0000 0000 0000 0000 0000 0000
000001a0: 0000 0000 0000 0000 0000 0000 0000 0000
000001b0: 0000 0000 0000 0000 0000 0000 0000 0000
000001c0: 0000 0000 0000 0000 0000 0000 0000 0000
000001d0: 0000 0000 0000 0000 0000 0000 0000 0000
000001e0: 0000 0000 0000 0000 0000 0000 0000 0000
000001f0: 0000 0000 0000 0000 0000 0000 0000 0000
00000200: 0000 0000 0000 0000 0000 0000 0000 0000
00000210: 0000 0000 0000 0000 0000 0000 0000 0000
00000220: 0000 0000 0000 0000 0000 0000 0000 0000
00000230: 0000 0000 0000 0000 0000 0000 0000 0000
00000240: 0000 0000 0000 0000 0000 0000 0000 0000
00000250: 0000 0000 0000 0000 0000 0000 0000 0000
00000260: 0000 0000 0000 0000 0000 0000 0000 0000
00000270: 0000 0000 0000 0000 0000 0000 0000 0000
00000280: 0000 0000 0000 0000 0000 0000 0000 0000
00000290: 0000 0000 0000 0000 0000 0000 0000 0000
000002a0: 0000 0000 0000 0000 0000 0000 0000 0000
000002b0: 0000 0000 0000 0000 0000 0000 0000 0000
000002c0: 0000 0000 0000 0000 0000 0000 0000 0000
000002d0: 0000 0000 0000 0000 0000 0000 0000 0000
000002e0: 0000 0000 0000 0000 0000 0000 0000 0000
000002f0: 0000 0000 0000 0000 0000 0000 0000 0000
00000300: 0000 0000 0000 0000 0000 0000 0000 0000
00000310: 0000 0000 0000 0000 0000 0000 0000 0000
00000320: 0000 0000 0000 0000 0000 0000 0000 0000
00000330: 0000 0000 0000 0000 0000 0000 0000 0000
00000340: 0000 0000 0000 0000 0000 0000 0000 0000
00000350: 0000 0000 0000 0000 0000 0000 0000 0000
00000360: 0000 0000 0000 0000 0000 0000 0000 0000
00000370: 0000 0000 0000 0000 0000 0000 0000 0000
00000380: 0000 0000 0000 0000 0000 0000 0000 0000
00000390: 0000 0000 0000 0000 0000 0000 0000 0000
000003a0: 0000 0000 0000 0000 0000 0000 0000 0000
000003b0: 0000 0000 0000 0000 0000 0000 0000 0000
000003c0: 0000 0000 0000 0000 0000 0000 0000 0000
000003d0: 0000 0000 0000 0000 0000 0000 0000 0000
000003e0: 0000 0000 0000 0000 0000 0000 0000 0000
000003f0: 0000 0000 0000 0000 0000 0000 0000 0000

bn1.running_mean f4 [400]
0.0 0.0 0.0 0.0 0.0 0.0 0.0 0.0
0.0 0.0 0.0 0.0 0.0 0.0 0.0 0.0
0.0 0.0 0.0 0.0 0.0 0.0 0.0 0.0
0.0 0.0 0.0 0.0 0.0 0.0 0.0 0.0
0.0 0.0 0.0 0.0 0.0 0.0 0.0 0.0
0.0 0.0 0.0 0.0 0.0 0.0 0.0 0.0
0.0 0.0 0.0 0.0 0.0 0.0 0.0 0.0
0.0 0.0 0.0 0.0 0.0 0.0 0.0 0.0
0.0 0.0 0.0 0.0 0.0 0.0 0.0 0.0
0.0 0.0 0.0 0.0 0.0 0.0 0.0 0.0
0.0 0.0 0.0 0.0 0.0 0.0 0.0 0.0
0.0 0.0 0.0 0.0 0.0 0.0 0.0 0.0
0.0 0.0 0.0 0.0 0.0 0.0 0.0 0.0
0.0 0.0 0.0 0.0 0.0 0.0 0.0 0.0
0.0 0.0 0.0 0.0 0.0 0.0 0.0 0.0
0.0 0.0 0.0 0.0 0.0 0.0 0.0 0.0
0.0 0.0 0.0 0.0 0.0 0.0 0.0 0.0
0.0 0.0 0.0 0.0 0.0 0.0 0.0 0.0
0.0 0.0 0.0 0.0 0.0 0.0 0.0 0.0
0.0 0.0 0.0 0.0 0.0 0.0 0.0 0.0
0.0 0.0 0.0 0.0 0.0 0.0 0.0 0.0
0.0 0.0 0.0 0.0 0.0 0.0 0.0 0.0
0.0 0.0 0.0 0.0 0.0 0.0 0.0 0.0
0.0 0.0 0.0 0.0 0.0 0.0 0.0 0.0
0.0 0.0 0.0 0.0 0.0 0.0 0.0 0.0
0.0 0.0 0.0 0.0 0.0 0.0 0.0 0.0
0.0 0.0 0.0 0.0 0.0 0.0 0.0 0.0
0.0 0.0 0.0 0.0 0.0 0.0 0.0 0.0
0.0 0.0 0.0 0.0 0.0 0.0 0.0 0.0
0.0 0.0 0.0 0.0 0.0 0.0 0.0 0.0
0.0 0.0 0.0 0.0 0.0 0.0 0.0 0.0
0.0 0.0 0.0 0.0 0.0 0.0 0.0 0.0
00000000: 0000 0000 0000 0000 0000 0000 0000 0000
00000010: 0000 0000 0000 0000 0000 0000 0000 0000
00000020: 0000 0000 0000 0000 0000 0000 0000 0000
00000030: 0000 0000 0000 0000 0000 0000 0000 0000
00000040: 0000 0000 0000 0000 0000 0000 0000 0000
00000050: 0000 0000 0000 0000 0000 0000 0000 0000
00000060: 0000 0000 0000 0000 0000 0000 0000 0000
00000070: 0000 0000 0000 0000 0000 0000 0000 0000
00000080: 0000 0000 0000 0000 0000 0000 0000 0000
00000090: 0000 0000 0000 0000 0000 0000 0000 0000
000000a0: 0000 0000 0000 0000 0000 0000 0000 0000
000000b0: 0000 0000 0000 0000 0000 0000 0000 0000
000000c0: 0000 0000 0000 0000 0000 0000 0000 0000
000000d0: 0000 0000 0000 0000 0000 0000 0000 0000
000000e0: 0000 0000 0000 0000 0000 0000 0000 0000
000000f0: 0000 0000 0000 0000 0000 0000 0000 0000
00000100: 0000 0000 0000 0000 0000 0000 0000 0000
00000110: 0000 0000 0000 0000 0000 0000 0000 0000
00000120: 0000 0000 0000 0000 0000 0000 0000 0000
00000130: 0000 0000 0000 0000 0000 0000 0000 0000
00000140: 0000 0000 0000 0000 0000 0000 0000 0000
00000150: 0000 0000 0000 0000 0000 0000 0000 0000
00000160: 0000 0000 0000 0000 0000 0000 0000 0000
00000170: 0000 0000 0000 0000 0000 0000 0000 0000
00000180: 0000 0000 0000 0000 0000 0000 0000 0000
00000190: 0000 0000 0000 0000 0000 0000 0000 0000
000001a0: 0000 0000 0000 0000 0000 0000 0000 0000
000001b0: 0000 0000 0000 0000 0000 0000 0000 0000
000001c0: 0000 0000 0000 0000 0000 0000 0000 0000
000001d0: 0000 0000 0000 0000 0000 0000 0000 0000
000001e0: 0000 0000 0000 0000 0000 0000 0000 0000
000001f0: 0000 0000 0000 0000 0000 0000 0000 0000
00000200: 0000 0000 0000 0000 0000 0000 0000 0000
00000210: 0000 0000 0000 0000 0000 0000 0000 0000
00000220: 0000 0000 0000 0000 0000 0000 0000 0000
00000230: 0000 0000 0000 0000 0000 0000 0000 0000
00000240: 0000 0000 0000 0000 0000 0000 0000 0000
00000250: 0000 0000 0000 0000 0000 0000 0000 0000
00000260: 0000 0000 0000 0000 0000 0000 0000 0000
00000270: 0000 0000 0000 0000 0000 0000 0000 0000
00000280: 0000 0000 0000 0000 0000 0000 0000 0000
00000290: 0000 0000 0000 0000 0000 0000 0000 0000
000002a0: 0000 0000 0000 0000 0000 0000 0000 0000
000002b0: 0000 0000 0000 0000 0000 0000 0000 0000
000002c0: 0000 0000 0000 0000 0000 0000 0000 0000
000002d0: 0000 0000 0000 0000 0000 0000 0000 0000
000002e0: 0000 0000 0000 0000 0000 0000 0000 0000
000002f0: 0000 0000 0000 0000 0000 0000 0000 0000
00000300: 0000 0000 0000 0000 0000 0000 0000 0000
00000310: 0000 0000 0000 0000 0000 0000 0000 0000
00000320: 0000 0000 0000 0000 0000 0000 0000 0000
00000330: 0000 0000 0000 0000 0000 0000 0000 0000
00000340: 0000 0000 0000 0000 0000 0000 0000 0000
00000350: 0000 0000 0000 0000 0000 0000 0000 0000
00000360: 0000 0000 0000 0000 0000 0000 0000 0000
00000370: 0000 0000 0000 0000 0000 0000 0000 0000
00000380: 0000 0000 0000 0000 0000 0000 0000 0000
00000390: 0000 0000 0000 0000 0000 0000 0000 0000
000003a0: 0000 0000 0000 0000 0000 0000 0000 0000
000003b0: 0000 0000 0000 0000 0000 0000 0000 0000
000003c0: 0000 0000 0000 0000 0000 0000 0000 0000
000003d0: 0000 0000 0000 0000 0000 0000 0000 0000
000003e0: 0000 0000 0000 0000 0000 0000 0000 0000
000003f0: 0000 0000 0000 0000 0000 0000 0000 0000
