collaboration_competition/models/actor2_10000.pth (torch_old, 536747 bytes, 14 tensors)

fc1.weight f4 [400, 24]
0	0x3d64ef4b	0.05589227
1	0x3df36f21	0.118864305
2	0x3c7d8794	0.015474219
3	0x3bf9e557	0.0076262164
4	0xbdd7de78	-0.105404794
5	0xbdc1b341	-0.09458018
6	0xbd288c4c	-0.041149423
7	0x3cb3741d	0.021905953
8	0x3d47a631	0.048742477
9	0x3db82b8b	0.0899268
10	0xbcca0701	-0.024661543
11	0x3c1a3a79	0.009413355
12	0xbcdf72a1	-0.027276339
13	0xbd8f43f4	-0.06995383
14	0x3cd69f0e	0.02619889
15	0x3ca29109	0.019844549
16	0x3d569ac6	0.052393697
17	0x3e089a8b	0.13340203
18	0xbc72d8df	-0.014822214
19	0xbd42d714	-0.047568396
20	0xbc788c5b	-0.015170182
21	0xbdf338e5	-0.11876086
22	0xbc814877	-0.015781624
23	0x3cce65b2	0.025194976
24	0x3d44b635	0.04802533
25	0x3d88e41e	0.06684135
26	0xbc86a7e3	-0.016437477
27	0x3cf803ce	0.030275252
28	0x3d199776	0.03749796
29	0xbc9affae	-0.018920746
30	0x3c4c61b3	0.012474465
31	0xbcb2b9b8	-0.021817073
32	0x3d967c1b	0.0734789
33	0x3da3314c	0.07968387
34	0xbb0b632d	-0.002126883
35	0xbc43ea2a	-0.0119576845
36	0xbd3a7d71	-0.045529786
37	0xbd3db8dd	-0.046318877
38	0xbbd69e14	-0.006549606
39	0xbbed5532	-0.007242822
40	0x3da74908	0.081682265
41	0x3dc2caa4	0.09511307
42	0xbbaa2215	-0.005192051
43	0x3c067d51	0.008208589
44	0xbd17cff7	-0.037063565
45	0xbd1348df	-0.035958167
46	0xbca50218	-0.0201426
47	0xbd8b154f	-0.06791174
48	0x3da57962	0.080797926
49	0x3d56dfa2	0.052459367
50	0xbc181657	-0.00928267
51	0xbba5a3fe	-0.00505495
52	0x3b820ad4	0.003968576
53	0xbca7ce5c	-0.020484142
54	0xba90eafd	-0.001105636
55	0x3d57ad28	0.05265537
56	0x3d8c1413	0.06839766
57	0x3cd5312f	0.02602443
58	0xbd25e60b	-0.04050259
59	0xbbd0c1c2	-0.006370754
60	0xbc943d37	-0.018095596
61	0xbdb0529f	-0.08609509
62	0x3cf6603f	0.03007519
63	0x3cc44da2	0.0239628
64	0x3d7de61a	0.06198702
65	0xbac375d2	-0.0014912433
66	0xbcf60b00	-0.030034542
67	0x3ccbbe04	0.02487088
68	0xbd11dd18	-0.035611242
69	0xbdf161a5	-0.11786202
70	0x3c18a187	0.009315855
71	0x3b63a5c5	0.0034736258
72	0x3db56e76	0.088589594
73	0x3d810810	0.06300366
74	0x3c8012a1	0.015633883
75	0xbc79b3be	-0.015240608
76	0xbd2612bc	-0.04054521
77	0xbdd9b261	-0.10629726
78	0xbd0bf969	-0.034173403
79	0x3d551ae1	0.052027587
80	0x3c595cca	0.013266752
81	0x3d0abb13	0.033869814
82	0x3c1e8f2d	0.00967769
83	0xbb33ac6f	-0.002741601
84	0xbd3ca1c3	-0.046052705
85	0xbe250bc6	-0.16117772
86	0xbc8f0564	-0.017458625
87	0x3c984f15	0.018592397
88	0x3d2bf9ec	0.04198639
89	0x3cf85a2a	0.030316431
90	0xbc504e54	-0.012713987
91	0x3c0481a7	0.008087552
92	0xbc211969	-0.009832718
93	0xbd2337a6	-0.039847992
94	0xbc1304eb	-0.0089733405
95	0xbcd154ef	-0.025553195
96	0x3d3d285a	0.04618106
97	0x3ddda40c	0.10822305
98	0x3b8506da	0.0040596547
99	0xbb82049e	-0.0039678356
100	0xbd2cde82	-0.042204387
101	0xbd99df67	-0.07513314
102	0xbd04826f	-0.032350954
103	0xbbf8239f	-0.0075726057
104	0x3d205c5a	0.039150573
105	0x3dcbb29c	0.099461764
106	0x3d054338	0.032534808
107	0xbd70b08f	-0.05876213
108	0xbbba598f	-0.0056869457
109	0xbd452be2	-0.048137553
110	0xbd289bd1	-0.041164223
111	0x3beeeda7	0.007291514
112	0x3da3977d	0.079878785
113	0x3d650569	0.055913363
114	0x3c4c6585	0.012475376
115	0xbc90db03	-0.017682558
116	0xbd4120a0	-0.047150254
117	0xbd942c24	-0.07234982
118	0xbd068e33	-0.032850455
119	0xbca26d67	-0.019827558
120	0x3d91793d	0.071032025
121	0x3db72291	0.0894214
122	0xbce43c5b	-0.027860811
123	0xbd4ec8f1	-0.0504846
124	0xbd057aea	-0.032587923
125	0xbd986e75	-0.07442943
126	0x3b8f3553	0.0043703704
127	0xbb965aab	-0.004588445
128	0x3dbc7051	0.0920111
129	0x3cf62ced	0.03005072
130	0xbccca5bd	-0.024981374
131	0x3a1deec1	0.0006024652
132	0xbd9d08b6	-0.07667677
133	0xbd976559	-0.073923774
134	0x3c3c7ca3	0.011504325
135	0xbd5b9f44	-0.053618684
136	0x3db2df53	0.08734002
137	0x3d1e68d1	0.03867418
138	0xbc320106	-0.010864502
139	0xbcb779a0	-0.022396863
140	0xbd17493f	-0.036935087
141	0xbd95210c	-0.07281694
142	0xbd0f8d29	-0.03504673
143	0xbd31c646	-0.04340198
144	0x3d90b56b	0.07065853
145	0x3cae2ee5	0.021262595
146	0x3c62e884	0.013849381
147	0x3d0471e3	0.032335173
148	0xbbe573be	-0.007002323
149	0xbd18244c	-0.03714399
150	0xbd1530ec	-0.03642361
151	0xbc7d8437	-0.015473417
152	0x3d5f72ae	0.054552726
153	0xbad9d22d	-0.0016618423
154	0x3cc245f5	0.023714999
155	0xbc291f44	-0.010322396
156	0xbd2a0f34	-0.041518405
157	0xbdd5ae11	-0.10433591
158	0xbd4e63f9	-0.05038831
159	0x3d6894ac	0.05678241
160	0x3d800614	0.06251159
161	0xbd334a34	-0.043771937
162	0xbd024fc9	-0.03181437
163	0xbc1db377	-0.009625307
164	0xbd46da90	-0.04854828
165	0xbdd835b3	-0.10557117
166	0x3bd10b78	0.006379541
167	0x3bd16436	0.00639012
168	0x3e03c3bd	0.12867637
169	0x3e062def	0.1310346
170	0x3b259fb3	0.002527219
171	0xbd24011d	-0.040040124
172	0xbdd37bf7	-0.10326379
173	0xbd83bd03	-0.064325355
174	0xbcfa4a72	-0.030553076
175	0xbdc83878	-0.097763956
176	0x3d303855	0.043022472
177	0x3d96aedd	0.07357571
178	0xbd069bef	-0.032863554
179	0xbce6097e	-0.028080698
180	0xbd5b184b	-0.053489964
181	0xbd26efc6	-0.04075601
182	0xbc145797	-0.009054086
183	0xbd6df6ed	-0.058096815
184	0x3da6232c	0.08112177
185	0x3d828495	0.06372944
186	0x3c20138d	0.009770286
187	0x3cd45d2e	0.025923338
188	0xbd1d6e1c	-0.038435087
189	0xbd14392e	-0.036187343
190	0xbd01403d	-0.031555403
191	0xbd29272b	-0.04129712
192	0x3d8e21de	0.069400534
193	0x3d171b67	0.036891367
194	0xbcb06be1	-0.021535816
195	0xbbf82bfa	-0.007573602
196	0xbbebb144	-0.0071927626
197	0x392cf242	0.00016493446
198	0xbce8e7a1	-0.028430762
199	0xbcec5d53	-0.028853094
200	0x3dbda7dd	0.09260533
201	0x3dbcc1e2	0.09216668
202	0xbd544310	-0.05182177
203	0x3c6dfa41	0.014524997
204	0xbcd2b8bb	-0.025722852
205	0xbd6f96ea	-0.058493532
206	0xbc4cd2b9	-0.012501412
207	0xbca710f8	-0.020393834
208	0x3ca9e669	0.020739751
209	0x3dde054b	0.10840853
210	0x3c523246	0.012829369
211	0xbd3fbb9c	-0.046809778
212	0xbbb7c9e2	-0.005608783
213	0xbd34dfd8	-0.044158787
214	0x3d02cf40	0.03193593
215	0xbd16bc7c	-0.036800846
216	0x3dc71fb7	0.09722846
217	0x3d7d538b	0.06184725
218	0xbd74d194	-0.05977018
219	0xbc1a068f	-0.009400978
220	0x3c444190	0.011978522
221	0xbd3d68d2	-0.046242543
222	0x3c972a29	0.01845272
223	0xbd0c115c	-0.034196243
224	0x3dd86b1d	0.10567305
225	0x3cd186e4	0.025577016
226	0xbb3892c2	-0.0028163646
227	0x3d017f04	0.031615272
228	0xbce33ebd	-0.027739877
229	0xbd8bcf31	-0.06826628
230	0xbb7bbf4f	-0.003841359
231	0xbc393876	-0.011304965
232	0x3de108c5	0.10988001
233	0xbc271750	-0.010198429
234	0x3c076fa3	0.008266362
235	0x3cf8fd57	0.03039424
236	0xbd2721a3	-0.040803563
237	0xbcf90fb5	-0.030402998
238	0x3be8a99c	0.007100297
239	0xbd5a42cf	-0.05328637
240	0x3d9a2e0d	0.07528315
241	0x3c9ec2c3	0.019379979
242	0x3d038be7	0.032115843
243	0x3d0208a2	0.031746514
244	0xbdd3ecd8	-0.10347909
245	0xbdfad0e2	-0.122468725
246	0xbc9dedc6	-0.019278418
247	0xbcb9e7fa	-0.022693623
248	0x3d44e939	0.04807398
249	0x3d1e4dc1	0.03864837
250	0x3bfe286d	0.007756284
251	0xbd1c671f	-0.03818428
252	0x3a0aa845	0.00052893563
253	0xbdb0740a	-0.08615883
254	0xbcf07a7c	-0.02935528
255	0xbbc024b8	-0.005863752

fc1.bias f4 [400]
0	0x3dc1b470	0.09458244
1	0xbd2e5f38	-0.042571276
2	0xbd5d1c97	-0.053982344
3	0x3df1db57	0.11809414
4	0xbda1c45f	-0.07898783
5	0xbd6a2d54	-0.057172135
6	0xbd2426e9	-0.04007617
7	0xbe418d19	-0.1890148
8	0xbdc24eb5	-0.094876684
9	0xbe5d9036	-0.21637043
10	0xbdb054c6	-0.08609919
11	0xbe743efa	-0.23852149
12	0xbc2d657d	-0.010583279
13	0xbd149d45	-0.036282796
14	0x3d57aedc	0.052656993
15	0xbe4ded5b	-0.20110075
16	0xbd390214	-0.045167997
17	0xbdb08aa7	-0.08620196
18	0xbe0e2b3e	-0.13883683
19	0x3dde1beb	0.10845169
20	0xbe8f01ca	-0.27931052
21	0x3d879228	0.06619674
22	0xbdf766bf	-0.12080144
23	0xbe0a3796	-0.13497767
24	0xbe71533b	-0.23566906
25	0xbe712ccf	-0.2355225
26	0xbddd6f70	-0.10812271
27	0x3dc4764d	0.095928766
28	0x3d20a650	0.039221108
29	0xbe639bb9	-0.22227372
30	0x3df76545	0.120798625
31	0x3d961f0c	0.073301405
32	0x3bb3f832	0.0054922337
33	0x3e313e8f	0.1730902
34	0x3d6dd668	0.0580658
35	0xbbdf5270	-0.0068152472
36	0x3d4d09d7	0.050058212
37	0xbe32155e	-0.17390963
38	0xbdecaa29	-0.11555893
39	0xbdfd550f	-0.12369739
40	0xbd892501	-0.06696511
41	0xbe740763	-0.23830943
42	0x3d4aee30	0.04954356
43	0xbdeec781	-0.11659146
44	0xba00d5b3	-0.0004914656
45	0x3e1afd31	0.15135647
46	0x3ced85e8	0.028994516
47	0xbd072407	-0.032993343
48	0x3e286c81	0.16447641
49	0xbe7fb063	-0.2496963
50	0x3e1ce042	0.15319923
51	0xbe420694	-0.18947822
52	0x3e2a9f61	0.1666236
53	0xbc8b80af	-0.017029135
54	0xbe27bf82	-0.16381648
55	0xbe2aed73	-0.16692142
56	0xbe0c6c9c	-0.13713306
57	0x3ddf7392	0.10910715
58	0x3deaa419	0.114570804
59	0x3de9f458	0.11423558
60	0x3dd62168	0.104555905
61	0x3e3801b6	0.17969403
62	0xbe85d12e	-0.26136154
63	0x3c061551	0.008183793
64	0xbd285513	-0.041096758
65	0x3dcbe75c	0.09956238
66	0x3c0000a1	0.00781265
67	0xbcf5b077	-0.029991372
68	0x3d62d451	0.055378262
69	0xbdd8efc6	-0.10592608
70	0xbe4bd6c3	-0.19906144
71	0xbde65337	-0.11246341
72	0x3e2254e2	0.15852693
73	0xbcaaf20b	-0.020867368
74	0xbe496c21	-0.19670154
75	0x3c55f22c	0.013058227
76	0xbcb9f26c	-0.022698604
77	0xbe1d57ea	-0.15365568
78	0x3df9b336	0.12192385
79	0x3d9cc90d	0.07655535
80	0x3e12b9cf	0.14328693
81	0xbdd7fa1a	-0.1054575
82	0xbe1ef3b4	-0.15522653
83	0xbe85abfb	-0.26107773
84	0xbc72adc0	-0.014811933
85	0xbe2e3584	-0.17012602
86	0x3ddecc99	0.10878868
87	0xbe61a1bd	-0.22034355
88	0xbe5866c0	-0.21132946
89	0x3cdb5e46	0.026778352
90	0xbc68c217	-0.014206431
91	0xbccbcc70	-0.024877757
92	0xbd1eb4de	-0.038746707
93	0xbe00a77e	-0.12563893
94	0xbdf250bf	-0.11831807
95	0xbc71403e	-0.014724789
96	0xbe589255	-0.21149571
97	0xbe0a026d	-0.13477488
98	0xbd6ff169	-0.058579836
99	0xbd2752a8	-0.04085031
100	0x3e19560c	0.1497423
101	0xbe7aa600	-0.24477386
102	0x3ce085aa	0.027407486
103	0x3d48ba66	0.04900589
104	0x3ca5efe6	0.020255994
105	0xbdec569c	-0.11539957
106	0x3da0040c	0.07813272
107	0xbe26c7bd	-0.16287132
108	0xbdf5d5e4	-0.12003687
109	0xbd28025d	-0.04101788
110	0xbdf11a91	-0.11772645
111	0xbe811716	-0.25212926
112	0x3c1969ed	0.009363634
113	0x3dbdecda	0.092736915
114	0xbe550ea7	-0.2080637
115	0xbce55e68	-0.027999118
116	0xbe4530e4	-0.19256932
117	0xbddcbe72	-0.10778512
118	0xbc89f721	-0.016841473
119	0x3e225b04	0.15855032
120	0x3d84f7d1	0.0649258
121	0x3d5ccda5	0.053907055
122	0xbc227646	-0.009915894
123	0xbe5a33eb	-0.21308868
124	0xbd881330	-0.06644285
125	0x3e261995	0.16220696
126	0xbdc6bc08	-0.09703833
127	0xbdbd93e8	-0.092567265
128	0xbde1dcdb	-0.11028453
129	0x3d8a028d	0.06738768
130	0x3dbc340b	0.09189614
131	0xbd3f3fd6	-0.046691738
132	0xbd040efc	-0.032240853
133	0x3dfef976	0.12449925
134	0x3e0ff0ec	0.14056748
135	0x3d053b1d	0.032527078
136	0x3dc7cd2d	0.09755931
137	0x3d327751	0.04357082
138	0x3d1f6ab0	0.038920105
139	0xbe7912ab	-0.24323528
140	0xbd974086	-0.07385354
141	0xbdbf753e	-0.09348534
142	0x3d0c894d	0.034310628
143	0xbd9b6280	-0.07587147
144	0xbe8874a2	-0.26651484
145	0x3e18b961	0.14914466
146	0xbe254e1d	-0.16143079
147	0xbe7fda5f	-0.24985646
148	0xbe0bc8a7	-0.13650762
149	0x3d295149	0.041337285
150	0xbdd44f69	-0.10366709
151	0xbe75fe8f	-0.24022888
152	0xbc955c1c	-0.018232398
153	0xbc851975	-0.01624749
154	0x3e098328	0.13428938
155	0xbe68271a	-0.22671166
156	0xbe0d2bc0	-0.1378622
157	0xbe050f89	-0.12994207
158	0xbdb647f6	-0.08900444
159	0xbd4b746c	-0.049671575
160	0x3e268d27	0.16264783
161	0xbd5a3a39	-0.05327818
162	0x3e20e9f3	0.15714245
163	0xbc69b6bf	-0.0142647615
164	0xbe07b83b	-0.13253872
165	0xbd6482ce	-0.055788808
166	0x3d0ca8b7	0.034340587
167	0x3de61eb0	0.11236322
168	0xbd8e03fb	-0.06934353
169	0xbd214297	-0.039370146
170	0xbe68eed5	-0.22747357
171	0xbe31827d	-0.17334934
172	0xbdffc949	-0.12489564
173	0x3db07580	0.08616161
174	0x3b6a1f8d	0.0035724372
175	0x3d8274a8	0.06369907
176	0xbe7dcf99	-0.24786223
177	0xbd1f8357	-0.038943615
178	0xbe43ec5a	-0.1913313
179	0xbe00c9fe	-0.12577054
180	0x3e0a3eb2	0.13500479
181	0x3c1377c7	0.009000725
182	0xbe45e43f	-0.1932535
183	0xbe61d5cc	-0.22054213
184	0xbd75e041	-0.06002832
185	0xbe5477e4	-0.2074886
186	0xbe5317c8	-0.2061454
187	0x3dc3a17d	0.09552286
188	0xbd9e9278	-0.077427804
189	0xbd4a8058	-0.049438804
190	0x3dbeff61	0.093260534
191	0xbe7d11ae	-0.24713776
192	0x3cfa7b18	0.030576274
193	0x3e0791d9	0.1323923
194	0xb9b39128	-0.0003424969
195	0x3d9cdb7c	0.07659051
196	0xbdf2b4ab	-0.11850866
197	0xbe54b81a	-0.20773354
198	0x3e0852ef	0.13312887
199	0xbe74f77d	-0.23922534
200	0xbdd4e145	-0.10394529
201	0x3ddbf3d5	0.10739867
202	0xbe310d8e	-0.17290327
203	0xbdf75389	-0.1207648
204	0xbe2eaf7d	-0.17059131
205	0xbd285b49	-0.04110268
206	0xbdd847b8	-0.10560554
207	0x3d82c98f	0.063861005
208	0x3e48c680	0.19606972
209	0xbe0e17bd	-0.13876243
210	0x3da0f613	0.07859435
211	0xbdddf250	-0.10837233
212	0xbe37d484	-0.17952162
213	0x3a7dd592	0.00096830085
214	0xbe09e366	-0.13465652
215	0x3d944c50	0.07241118
216	0xbd9c00c1	-0.07617331
217	0xbe080688	-0.13283741
218	0xbe3d5f8b	-0.18493478
219	0xbb74d8e4	-0.0037360722
220	0xbe64bf2c	-0.22338551
221	0x3d9a1cff	0.07525062
222	0xbc4eabcc	-0.012614202
223	0xbe185bd5	-0.14878781
224	0x3d42c5c1	0.047551874
225	0xbe4c421a	-0.1994709
226	0xbcc2414d	-0.023712778
227	0xbd9a749a	-0.07541771
228	0x3d9ff29e	0.078099474
229	0xbe5a92e9	-0.21345104
230	0xbde03f7c	-0.10949609
231	0xbe063c78	-0.13109004
232	0xbd44ef72	-0.048079915
233	0xbb592968	-0.0033136252
234	0xbe2fcb74	-0.17167455
235	0x3d6ee846	0.058326982
236	0xbd0c4dbe	-0.03425383
237	0xbe096b2a	-0.13419786
238	0x3d3dda24	0.046350613
239	0x3e1700fa	0.14746466
240	0x3d675065	0.056473155
241	0x3ac75487	0.0015207686
242	0xbde9a542	-0.114084736
243	0xbe8bff19	-0.27343062
244	0x3dbc02ce	0.091802225
245	0xbd814885	-0.0631266
246	0xbd9a7d86	-0.07543473
247	0x3c449c4b	0.012000154
248	0xbdeb4007	-0.114868216
249	0xbe96fbaa	-0.2948888
250	0xbe1d7de4	-0.15380055
251	0xbe9a04ac	-0.3008169
252	0x3db9cfb1	0.09072817
253	0x3d8e7cbe	0.069573864
254	0xbdd1bbd2	-0.10240902
255	0xbdaf7d21	-0.08568788

fc2.weight f4 [300, 400]
0	0xbd52a4e2	-0.051426776
1	0x3d8aec7e	0.067833886
2	0xbd3a9912	-0.045556135
3	0x3ccb2e75	0.024802426
4	0xbb1e7f62	-0.0024184813
5	0x3d684dab	0.056714695
6	0x3d05d3a3	0.032672536
7	0xbd0a6921	-0.033791665
8	0xbb94ffa3	-0.004547076
9	0xbd1ef082	-0.038803585
10	0x3bc4b1a7	0.006002623
11	0xbb75d11c	-0.0037508672
12	0x3c1a045d	0.009400454
13	0xbd59f294	-0.053209856
14	0xbd128ac7	-0.03577688
15	0xbd7137f6	-0.05889126
16	0xbc8b7bd9	-0.017026829
17	0x3d8a84ce	0.06763612
18	0xbd254063	-0.040344607
19	0x3c4b47fd	0.0124073
20	0x3dcf57a2	0.101241365
21	0xba238564	-0.00062378333
22	0x3ba9b61d	0.0051791803
23	0x3d47bc61	0.048763636
24	0xbbc698dd	-0.006060703
25	0xbd5f0c50	-0.0544551
26	0xbcffa2a7	-0.031205488
27	0xbcba54f4	-0.022745587
28	0x3d72a971	0.059243623
29	0xbc9be238	-0.019028768
30	0x3cf300d4	0.02966348
31	0x3d444911	0.047921244
32	0x3d332829	0.04373947
33	0x3c5391fd	0.012913224
34	0x3bac36be	0.005255549
35	0x3cf36ad8	0.029714033
36	0x3d02e185	0.031953353
37	0xbabd580e	-0.0014445798
38	0x3d221e1f	0.039579507
39	0xbc44a155	-0.012001355
40	0x3d1f96d4	0.0389622
41	0xbd647c41	-0.05578256
42	0xbcb7827a	-0.022401083
43	0x3cc86a7a	0.024464834
44	0xbc19270a	-0.009347687
45	0xbaeb1d7c	-0.0017937864
46	0xbd8ae432	-0.06781806
47	0xbba1948e	-0.004931039
48	0xbd22e597	-0.039769735
49	0xbc39378f	-0.01130475
50	0xbb494203	-0.0030709512
51	0x3cafd280	0.021462679
52	0xbd7f6062	-0.062347777
53	0xbd4832ed	-0.04887669
54	0xbd8d2c9e	-0.06893276
55	0xbc7c5e32	-0.015403317
56	0x3d000723	0.031256806
57	0x3d499a9a	0.049219705
58	0x3b68590b	0.0035453464
59	0xbd16d3cd	-0.036823083
60	0xbd24cc76	-0.04023405
61	0x3cee444f	0.029085306
62	0x3c002a70	0.007822618
63	0x3cda5b62	0.026654903
64	0x3cf1d2a7	0.029519392
65	0x3d1b2e9f	0.03788626
66	0xbd293cef	-0.041317876
67	0x3b8cd050	0.0042972937
68	0x3d6daca9	0.05802599
69	0x3d9aaf86	0.0755301
70	0x3cc68de1	0.024237575
71	0x3d7ee810	0.06223303
72	0xbd2bbd24	-0.041928425
73	0x3ccbcc90	0.024877816
74	0xbd0a0a51	-0.033701245
75	0xbbeaa4fc	-0.007160781
76	0xbd90d08b	-0.070710264
77	0x3d3a79a4	0.04552616
78	0x3cbf7c41	0.023374679
79	0x3d109adc	0.035303935
80	0xbd1e2178	-0.038606137
81	0x3b8759d5	0.004130582
82	0x3c52687d	0.012842295
83	0x3d8e651e	0.0695288
84	0xbc2bc4f7	-0.010483972
85	0x3c254e4b	0.010089467
86	0xbc94f72c	-0.018184267
87	0xbd89b189	-0.06723315
88	0xbb8b1599	-0.004244518
89	0x3afb34e7	0.0019165546
90	0xbcb05a6e	-0.021527495
91	0xbcdb571f	-0.026774941
92	0x3d1208bc	0.03565286
93	0x3ca56a33	0.020192241
94	0x3d5b71ca	0.053575315
95	0x3c3d0641	0.011537136
96	0x3d62523f	0.055254217
97	0xbd58155e	-0.052754752
98	0x393401f2	0.00017166862
99	0xbcb57cae	-0.022154178
100	0xbb3b5368	-0.002858365
101	0xbbf41945	-0.0074493014
102	0x3d4a39cf	0.049371537
103	0x3cc7ed75	0.02440522
104	0xbd07a9b8	-0.03312084
105	0x3bdc14f2	0.006716364
106	0x3d42e098	0.04757747
107	0x3c01112f	0.007877632
108	0x3d346b17	0.04404744
109	0x3d22f531	0.039784614
110	0x3ce1ca17	0.027562184
111	0x3cd27046	0.025688302
112	0x3c533aec	0.012892466
113	0xbd54f2b5	-0.051989276
114	0x3a4c1a8f	0.000778594
115	0xbd5087b4	-0.050910667
116	0xbd349442	-0.044086702
117	0x3d158d1c	0.036511526
118	0xbc7d7379	-0.015469425
119	0x3d2595a3	0.040425908
120	0xbcc464ec	-0.023973905
121	0xbc525b93	-0.012839216
122	0xbd5f784a	-0.054558076
123	0x3d48ce11	0.049024645
124	0x3d73b1df	0.059495803
125	0xbc4aa1e5	-0.0123677
126	0x3d714166	0.05890026
127	0xbd4c3f6a	-0.049865164
128	0x3cf444f1	0.02981803
129	0xbc50f8c1	-0.01275462
130	0xbd9560ae	-0.07293831
131	0x3b4376e4	0.0029825503
132	0x3cef14f7	0.029184802
133	0xbd494a9c	-0.04914342
134	0x3cbe6b71	0.023244591
135	0xbd90389c	-0.070420474
136	0xbd5a48b0	-0.053291976
137	0x3d18f31f	0.037341233
138	0x3b2b58fd	0.002614557
139	0x3c1994ae	0.009373827
140	0xbc2b3527	-0.010449684
141	0xbbfb0071	-0.0076599647
142	0x3c917a2f	0.017758457
143	0x3d39a3ed	0.045322347
144	0x3d1d93b8	0.038470954
145	0xbd1a9f97	-0.037749853
146	0x3c734861	0.014848799
147	0x3c1342cf	0.008988096
148	0xbc2086aa	-0.009797731
149	0xbd2be666	-0.041967772
150	0x3d2103f7	0.03931042
151	0x3d14e513	0.036351275
152	0x3cd01f60	0.025405586
153	0x3c5059fd	0.012716767
154	0xbd5090e6	-0.050919436
155	0x3d8303e8	0.063972294
156	0xbca98623	-0.020693844
157	0xbd06aa3c	-0.032877192
158	0x3d3f2950	0.046670258
159	0xbc1e0ec7	-0.009647078
160	0x3d1e36d2	0.0386265
161	0xbb8a4081	-0.0042191152
162	0x3d37a0a3	0.04483093
163	0x3cd54b0c	0.026036762
164	0xbd356033	-0.044281196
165	0xbd1dcc23	-0.038524758
166	0x3bab62b7	0.0052302736
167	0x3c9d2db1	0.019186826
168	0xbd57c1bf	-0.052675005
169	0xbc67df7d	-0.014152405
170	0x3deabba5	0.114615716
171	0x3ae16b51	0.001719812
172	0x3d11a667	0.035559084
173	0xbc56e93e	-0.013117133
174	0x39bec5f2	0.00036387105
175	0x3d22a7ce	0.039710812
176	0x3d8d2994	0.06892696
177	0x3d9e7ac7	0.07738262
178	0xbc968c66	-0.018377494
179	0x3da17101	0.07882882
180	0xbca04a6b	-0.019566735
181	0x3cbcc0cd	0.023041153
182	0xbd3de54f	-0.046361264
183	0xbcf8cde0	-0.030371606
184	0xbc079194	-0.008274455
185	0x3d1e82a1	0.038698796
186	0xbd2b9a4d	-0.0418952
187	0x3d037ca0	0.032101274
188	0x3da085a0	0.07837987
189	0xbbc53da2	-0.00601931
190	0x3d0502fd	0.032473553
191	0xbbaf7d75	-0.005355532
192	0x3c9a1b9f	0.018811999
193	0xbcf3d86d	-0.029766286
194	0x3c5d052b	0.013490002
195	0xbbf767d0	-0.007550217
196	0x3cb9f5ec	0.022700273
197	0xbd7c1a37	-0.061548438
198	0x3d232526	0.03983035
199	0x3d64f65f	0.05589902
200	0x3d1244c0	0.035710096
201	0xbc803ab0	-0.015652984
202	0xbc1562d3	-0.0091178
203	0x3ced0b58	0.028936073
204	0x3ca7a4ad	0.020464266
205	0xbac07d6e	-0.0014685818
206	0x3bb1c756	0.005425374
207	0xbd51f813	-0.051261973
208	0xbcdf0ce6	-0.02722783
209	0xbdaddf4f	-0.08489858
210	0x3cf95402	0.030435566
211	0x3d1c550f	0.038167056
212	0xbdcfbd6a	-0.1014355
213	0x3d7d0e07	0.061780956
214	0xbc863ac8	-0.016385451
215	0xbd3e0c31	-0.046398345
216	0x3cb431a0	0.02199632
217	0x3d0f02bb	0.034914713
218	0xbd15485e	-0.036445968
219	0x3c109b10	0.008826032
220	0x3b5ef5c2	0.0034020995
221	0xbce10a1b	-0.027470639
222	0xbc1d8d69	-0.009616234
223	0xbd0f4153	-0.034974407
224	0xbcb67695	-0.022273341
225	0xbc108df6	-0.008822909
226	0x3b112516	0.002214735
227	0x3abdfd40	0.001449503
228	0xbdd108c1	-0.10206748
229	0xbd31acda	-0.043377735
230	0x3c1e1d92	0.009650605
231	0xbb63b831	-0.0034747238
232	0x3c85f9c7	0.016354455
233	0xbca1528b	-0.01969268
234	0xbc9b2812	-0.018940005
235	0xbc5caf53	-0.013469535
236	0xbc8977a0	-0.016780674
237	0x3b25690f	0.0025239622
238	0xbd8fbe6d	-0.07018743
239	0xbd1c439f	-0.038150426
240	0xbcbdd868	-0.02317448
241	0xbd6b2b6d	-0.05741446
242	0xbd62bd77	-0.05535647
243	0x3d1cc7be	0.038276426
244	0x3cc3503f	0.023841975
245	0xbcb06e0a	-0.021536846
246	0x3da915a1	0.082560785
247	0xbd4c8a9c	-0.049936876
248	0x3d1e6e0e	0.038679175
249	0x3d86aeea	0.06576331
250	0xbce8bcb9	-0.028410302
251	0xbda60660	-0.08106685
252	0xbcd8efea	-0.026481587
253	0x3d0f2eb9	0.034956668
254	0x3d4990db	0.04921041
255	0x3c9efda7	0.01940806

fc2.bias f4 [300]
0	0x3d6b4754	0.05744107
1	0x3dd35a8b	0.10320004
2	0xbd336140	-0.043793917
3	0xbd71153b	-0.058858138
4	0xbcd7ef69	-0.026359277
5	0xbc620e0c	-0.013797294
6	0xbd532614	-0.051549986
7	0xbd81f3a1	-0.06345297
8	0xbd4609cf	-0.048349198
9	0xbd176777	-0.036963906
10	0x3c9b5293	0.018960273
11	0xbda4c973	-0.08046236
12	0x3e228879	0.15872373
13	0x3d88dca4	0.06682709
14	0xbd05cd96	-0.032666765
15	0x3dd622e4	0.104558736
16	0xbd20185e	-0.03908574
17	0x3dda6694	0.106640965
18	0xbd81170f	-0.06303226
19	0xbd2b2696	-0.041784845
20	0xbdc4b856	-0.09605472
21	0xbd99d2e7	-0.075109296
22	0x3d887937	0.06663745
23	0xbd9b3e50	-0.075802445
24	0x3e26ecee	0.16301319
25	0x3e01fc5c	0.12693924
26	0xbd721963	-0.059106242
27	0xbc8a3631	-0.016871544
28	0xbcfc3764	-0.030788131
29	0x3e26870f	0.16262458
30	0xbd361f59	-0.04446349
31	0xbdb30cbe	-0.08742665
32	0xb927418f	-0.00015950784
33	0x3e0ea471	0.13929917
34	0xbd77bb39	-0.060481284
35	0x3df58757	0.11988705
36	0xbd864154	-0.06555429
37	0x3e0ec444	0.13942057
38	0xbd4b962f	-0.049703773
39	0xbd5895b7	-0.052877154
40	0x3dd43df2	0.10363378
41	0xbdb5ca44	-0.0887647
42	0x3dac13c5	0.08402208
43	0xbcb68877	-0.022281868
44	0x3dc294ad	0.09501014
45	0xbd28f06d	-0.041244913
46	0xbcc9d186	-0.024636041
47	0xbcec215b	-0.028824499
48	0xbc1349a8	-0.008989729
49	0xbdbc7dae	-0.09203659
50	0x3da2f8b5	0.07957593
51	0xbd252184	-0.040315166
52	0xbd1875ae	-0.037221603
53	0xbdfa6aaa	-0.12227376
54	0xbd8547e2	-0.06507851
55	0xbd270e12	-0.040784903
56	0xbbf77f3d	-0.00755301
57	0xbcef74fc	-0.029230587
58	0xbd46b9e1	-0.04851711
59	0x3d7cc607	0.06171229
60	0x3deb37ba	0.114852384
61	0xbd70bb42	-0.058772333
62	0xbd97411d	-0.07385466
63	0xbdc2fea1	-0.09521223
64	0xbd79bcc4	-0.060971037
65	0x3e217572	0.15767458
66	0x3db564cf	0.08857118
67	0xbde29188	-0.11062914
68	0x3e139826	0.14413509
69	0x3df50ed6	0.1196572
70	0xbcb47ae2	-0.022031251
71	0xbd0a986f	-0.03383678
72	0xbd9044d6	-0.070443794
73	0xbdca85ee	-0.09888826
74	0x3e024bfb	0.12724297
75	0xbccbc013	-0.024871862
76	0xbd27c073	-0.04095502
77	0xbc4d26d8	-0.012521468
78	0xbd971cdf	-0.073785536
79	0x3d8aa7bf	0.06770276
80	0xbcc19faa	-0.023635704
81	0xbdd4392c	-0.10362467
82	0xbd0955fc	-0.033529267
83	0xbce21f79	-0.027602898
84	0xbd4e3465	-0.050342936
85	0xbda0e254	-0.07855669
86	0x3bf621be	0.0075113466
87	0xbdb6b8b8	-0.08921951
88	0xbd7a7a87	-0.061152007
89	0x3caae2cc	0.020860098
90	0xbda38e17	-0.07986086
91	0x3db14320	0.08655381
92	0x3cefa1ef	0.02925202
93	0xbde3c289	-0.11121089
94	0x3da20292	0.079106465
95	0x3d99d94f	0.075121514
96	0xbdb22f39	-0.08700413
97	0xbc97561f	-0.018473683
98	0xbd6a4d88	-0.057202846
99	0x3c14481d	0.009050396
100	0xbc42a267	-0.01187954
101	0xbe14b525	-0.14522226
102	0xbd1448ff	-0.036202427
103	0xbd95c92d	-0.07313762
104	0xbd65e4a1	-0.05612624
105	0xbd2b51c1	-0.041826013
106	0xbd3edd05	-0.0465975
107	0xbde50450	-0.11182463
108	0xbc861373	-0.016366696
109	0xbe054bde	-0.13017222
110	0x3e4250c3	0.1897612
111	0xbce6c66e	-0.02817079
112	0x3d1ac8d7	0.037789192
113	0xbc92e483	-0.017931229
114	0xbded9316	-0.1160032
115	0xbc89cdda	-0.01682179
116	0x3d5a49b8	0.05329296
117	0x3dcfd589	0.101481505
118	0xbc5affe6	-0.013366675
119	0xbd40db4a	-0.04708413
120	0x3df30384	0.11865905
121	0xbce0d8f6	-0.027447205
122	0xbd9ac89e	-0.07557796
123	0x3e08e3d2	0.13368157
124	0xbce9e40d	-0.028551126
125	0xbdfc08a0	-0.123063326
126	0xbd12a5ca	-0.03580264
127	0xbc8c2ab7	-0.017110212
128	0xbc08ac4c	-0.00834186
129	0xbd03f638	-0.032217234
130	0x3d54b822	0.051933415
131	0xbd2d2d00	-0.042279243
132	0xbd52038d	-0.051272918
133	0xbda469bd	-0.080279805
134	0x3da9ec35	0.08297006
135	0xbd13f903	-0.036126148
136	0xbb734cf0	-0.0037124716
137	0xbdab84e4	-0.08374956
138	0xbdaaaf0c	-0.08334169
139	0xbdd6f609	-0.10496146
140	0x3cfb4b86	0.03067566
141	0xbc0d715a	-0.008632982
142	0x3cb85d8b	0.022505542
143	0xbce6683c	-0.028125875
144	0xbd1ef78b	-0.038810294
145	0xbc3d8dcc	-0.011569452
146	0xbe0ba49b	-0.13637011
147	0xbddf614e	-0.10907231
148	0x3c30ed37	0.010798744
149	0xbbf6d2e6	-0.0075324653
150	0x3da03f09	0.07824523
151	0x3b55b499	0.0032608865
152	0xbca85ce8	-0.020552114
153	0xbd8dbcda	-0.06920786
154	0xbd450c74	-0.04810758
155	0xbd438c93	-0.047741484
156	0xbdc8d3a6	-0.09805994
157	0xbb0e7de8	-0.0021742526
158	0xbd6c249f	-0.057652112
159	0xbc5462ae	-0.01296298
160	0xbde7b052	-0.11312927
161	0x3dcd9b01	0.1003933
162	0x3dda54d0	0.10660708
163	0xbd9e6d27	-0.07735663
164	0xbd0ca3b9	-0.034335826
165	0xbd94baef	-0.07262217
166	0x3d2e94e6	0.04262247
167	0x3de4ac42	0.11165668
168	0xba9764be	-0.0011550409
169	0xbcd24090	-0.025665551
170	0x3db08e5c	0.08620903
171	0xbc4c0596	-0.012452504
172	0xbdc1da8f	-0.09465515
173	0x3e0bdbde	0.13658091
174	0xbd38b60c	-0.04509549
175	0xbd7d49c2	-0.06183792
176	0xbd64ee98	-0.055891603
177	0x3e1dc565	0.15407331
178	0xbdeaf7ef	-0.11473071
179	0xbc9e5376	-0.019326907
180	0xbce1d668	-0.027568057
181	0x3dcc6ad8	0.09981316
182	0xbbe795ad	-0.0070674033
183	0xbd804bde	-0.062644705
184	0x3df03e8a	0.117306784
185	0x3dce416a	0.100710705
186	0xbdac4c73	-0.08413019
187	0xbdb8b4ae	-0.09018837
188	0xbd89c8fa	-0.06727786
189	0x3d78ace7	0.060711768
190	0xbb86aca6	-0.0041099368
191	0xbc96f5df	-0.018427787
192	0x3e4629cc	0.19351882
193	0xbdb94930	-0.090471625
194	0x3e2fd4b0	0.17170978
195	0xbd049bcc	-0.032375142
196	0xbde35a02	-0.11101152
197	0x3d570799	0.05249748
198	0x3e34102c	0.17584294
199	0xbd4a1005	-0.049331684
200	0x3cc143ce	0.023591902
201	0xbd90c8a3	-0.070695184
202	0xbcc07589	-0.023493545
203	0xbc89312a	-0.016747076
204	0xbd4e4546	-0.050359033
205	0xbd39328f	-0.045214232
206	0x3e1c1b58	0.15244806
207	0xbc9ad9a8	-0.018902615
208	0xbda8e1ce	-0.08246194
209	0xbda405cc	-0.08008918
210	0x3c6e3e34	0.014541198
211	0xbd18ef72	-0.037337728
212	0xbd43eca5	-0.047833104
213	0xbd697e1d	-0.057005037
214	0xbb5f5307	-0.0034076588
215	0xbd2ba858	-0.041908592
216	0xbd7f7fc7	-0.062377717
217	0x3d97511e	0.07388519
218	0xbd32bbe5	-0.04363622
219	0xbd2c8aac	-0.042124435
220	0xbd6998fa	-0.057030655
221	0x3dceb460	0.100929976
222	0xbbf00c87	-0.007325712
223	0x3e5c6bda	0.21525517
224	0xbd54b1c0	-0.051927328
225	0xbd736451	-0.05942184
226	0xbddb298a	-0.10701282
227	0xbd006e77	-0.031355347
228	0xbd5f9bdc	-0.054592
229	0xbda6eeca	-0.08151014
230	0x3dae8e0e	0.085231885
231	0xbd80b675	-0.06284801
232	0xbd91d12f	-0.07119977
233	0xbd626325	-0.055270333
234	0x3cb851ef	0.022500006
235	0x3d7338e9	0.059380446
236	0xbd90a52a	-0.070627525
237	0xbd5a8149	-0.053345952
238	0x3df15693	0.11784091
239	0xbd344309	-0.044009242
240	0xbd5c5b67	-0.053798106
241	0x3ce41e4b	0.027846476
242	0xbd0b525d	-0.034014095
243	0xbdc03704	-0.093854934
244	0xbd82d647	-0.063885264
245	0x3d721cac	0.059109375
246	0x3cc7ade6	0.024374913
247	0x3dd78a71	0.105244525
248	0xbd191249	-0.037370954
249	0x3e0f0f7b	0.13970749
250	0xbd73bf7e	-0.059508793
251	0xbcea3e38	-0.028594121
252	0x3c0c8d31	0.0085785845
253	0x3dbc5724	0.09196308
254	0x3dff243c	0.12458083
255	0x3dc4add6	0.09603469

fc3.weight f4 [2, 300]
0	0xbdbc238a	-0.09186466
1	0xbde7aad7	-0.11311882
2	0x3c2a0c5c	0.010378923
3	0xbbd1d5b1	-0.006403648
4	0x3d8d3475	0.06894771
5	0xbc232f18	-0.0099599585
6	0xbd0278b7	-0.031853404
7	0xbc09d76b	-0.008413176
8	0x3c209564	0.0098012425
9	0x3ca6595c	0.020306282
10	0xbc6551f5	-0.013996591
11	0xbc01a56c	-0.007912975
12	0xbdc9918d	-0.09842215
13	0xbe38e67a	-0.1805667
14	0x3d161610	0.036642134
15	0xbd91cfe2	-0.071197286
16	0x3d345da5	0.04403462
17	0xbd87e39d	-0.06635211
18	0x3b911202	0.0044271955
19	0xbca07d50	-0.019591004
20	0x3c1b3f49	0.009475538
21	0x3cf3a546	0.029741894
22	0xbd740a7b	-0.059580307
23	0x3ab85889	0.0014064471
24	0xbdfbdd3d	-0.12298057
25	0xbd87871a	-0.066175655
26	0x3d6d2d95	0.0579048
27	0xbd2dc62c	-0.04242532
28	0x3ccc17bc	0.024913661
29	0xbdeecf99	-0.1166069
30	0xbbb4e7a5	-0.0055207782
31	0xbcc9cb93	-0.024633205
32	0x3cbaab86	0.022786867
33	0xbe428fe1	-0.19000198
34	0x3bfe5c0f	0.007762439
35	0xbdf726eb	-0.1206797
36	0xbbb64598	-0.0055624954
37	0xbdeccc55	-0.11562411
38	0xbb6988cd	-0.0035634518
39	0xbbf539c9	-0.007483695
40	0xbe01659b	-0.12636416
41	0x3aaf9c44	0.0013398011
42	0xbda3fda2	-0.08007361
43	0x3cbdf7d4	0.023189463
44	0xbd6052d8	-0.054766506
45	0xbbbd17e6	-0.005770671
46	0x3abd3f31	0.0014438388
47	0xbc2943f0	-0.010331139
48	0xbbedfc67	-0.0072627547
49	0x3c4595f4	0.012059677
50	0xbd249d05	-0.040188808
51	0x3d89ee9a	0.06734963
52	0x3d163fdf	0.036682006
53	0xbbf4f70d	-0.00747574
54	0x3d80a6ec	0.06281838
55	0x3cd498f2	0.025951836
56	0x3ce34580	0.027743101
57	0xbbdd236c	-0.0067486074
58	0xbd24fc2a	-0.040279545
59	0xbdeb558e	-0.11490928
60	0xbdc59810	-0.09648144
61	0xbb368d84	-0.0027855346
62	0x3d052b0c	0.032511756
63	0x3cb0dcde	0.021589693
64	0x3cdb4f85	0.026771316
65	0xbe0bbb5d	-0.13645692
66	0xbdb6587e	-0.08903597
67	0xbc8309ab	-0.015995821
68	0xbe06196f	-0.1309564
69	0xbd9be7c2	-0.07612564
70	0x3d0023a9	0.03128401
71	0x3c95364f	0.018214373
72	0x3bb04ead	0.0053804726
73	0xbad2c7c5	-0.0016081264
74	0xbd64f54b	-0.055897992
75	0xbbc7acad	-0.0060935826
76	0x3cbe80da	0.0232548
77	0x3d2c371a	0.042044736
78	0xbce64e34	-0.028113462
79	0xbdb0302b	-0.08602937
80	0xbc395710	-0.011312261
81	0xbc0e6b9d	-0.008692649
82	0x3d7fd056	0.062454544
83	0x3d7d6932	0.0618679
84	0x3ca1976a	0.01972552
85	0x3d1f2498	0.038853258
86	0x3d410bff	0.04713058
87	0xbc89765c	-0.016780071
88	0x3d507d00	0.05090046
89	0xbdbe4179	-0.09289832
90	0xbd1723da	-0.036899425
91	0xbdaf92f5	-0.08572952
92	0x3a8758c9	0.0010326143
93	0x3ad34a16	0.0016120102
94	0xbd114738	-0.03546831
95	0xbd6a0ad3	-0.05713923
96	0x3ca866f6	0.020556908
97	0xbccbeb8a	-0.024892587
98	0x3c613cc0	0.013747394
99	0xbcf9bef0	-0.030486554
100	0xbd23ac1b	-0.039959054
101	0xbc418425	-0.011811291
102	0xbc46873a	-0.012117201
103	0x3b93ebe2	0.0045142034
104	0xbce8dc29	-0.028425293
105	0x3b38b34e	0.0028183046
106	0xbd87ee6d	-0.06637273
107	0xbbff2c77	-0.007787283
108	0xbb9edf74	-0.004848415
109	0xbb8b0aa9	-0.004243214
110	0xbdd43d11	-0.1036321
111	0x39f4f9e2	0.00046725484
112	0xb7ec28b6	-2.815235e-05
113	0x3d30465c	0.04303585
114	0x3d0c206d	0.03421061
115	0xbd5f26f6	-0.054480515
116	0xbc8fa504	-0.01753474
117	0xbdc087af	-0.094008796
118	0x3d16d468	0.03682366
119	0x3c922a2d	0.017842377
120	0xbdf49641	-0.11942721
121	0x3d56c6db	0.052435737
122	0xbb19e8cd	-0.0023484707
123	0xbd4cf370	-0.050036848
124	0x3d01d648	0.031698495
125	0xbc41d93f	-0.011831581
126	0x3bf45197	0.0074560153
127	0x3da7391c	0.081651896
128	0x3d0c09a8	0.034188896
129	0x380a55a5	3.2981527e-05
130	0xbc18a88f	-0.009317531
131	0x3d766241	0.060152296
132	0xbd14d3f7	-0.036334958
133	0x3b652383	0.0034963794
134	0xbcf9526a	-0.030434806
135	0x3d20466f	0.03912967
136	0x3d9e8e31	0.077419646
137	0x3cb332af	0.021874754
138	0xbc87be90	-0.01657036
139	0x3befcf57	0.007318418
140	0x3ce48674	0.027896143
141	0xbd828d09	-0.063745566
142	0xbd44abf5	-0.048015554
143	0x3d262731	0.04056472
144	0xbcf973ab	-0.030450663
145	0xbd798384	-0.06091644
146	0x3bde07eb	0.0067758462
147	0xbcca6f32	-0.024711225
148	0xbd3c1fd3	-0.045928787
149	0xbd1f5244	-0.038896814
150	0xbd587ed2	-0.05285532
151	0x3cc7a34c	0.024369858
152	0xbd3e44ec	-0.046452448
153	0xbb7e94d4	-0.0038846033
154	0x3d09c2c8	0.033633024
155	0xbc684723	-0.014177117
156	0xba009f3f	-0.0004906542
157	0xbb73f376	-0.0037223971
158	0x3b9dca6d	0.004815391
159	0x3d247ba8	0.04015699
160	0x3be39983	0.0069457903
161	0xbdb288ea	-0.087175205
162	0xbd2630bc	-0.04057382
163	0x3b0ec4d3	0.0021784797
164	0x3d34a001	0.044097904
165	0x3d724442	0.059147127
166	0x3d061f52	0.032744713
167	0xbde3f77a	-0.11131187
168	0x3d26c7f4	0.040718034
169	0xbaa26eab	-0.0012392601
170	0xbe0953b7	-0.13410841
171	0x3d8b3e1b	0.06798955
172	0xbca4ea99	-0.020131396
173	0xbd8b8c09	-0.06813819
174	0x3bd6dd6d	0.0065571577
175	0xbcaed219	-0.021340417
176	0xbb5d9cae	-0.0033815312
177	0xbddc23a2	-0.10748984
178	0xbbd66acd	-0.0065434934
179	0x3db022e1	0.086004026
180	0x3d252b98	0.040324777
181	0xbdaf025b	-0.08545371
182	0x3d5687b7	0.05237552
183	0x3caecbe2	0.021337453
184	0xbdfe3612	-0.12412657
185	0xbd344d3f	-0.04401898
186	0x3d246878	0.04013869
187	0x3d1474a0	0.036244035
188	0xbbd0eeeb	-0.0063761375
189	0xbd390282	-0.045168407
190	0x3cac9f0b	0.021071931
191	0xbbe21aeb	-0.0069001815
192	0xbe300b78	-0.17191875
193	0xbc61ef65	-0.013789986
194	0xbdcdbd44	-0.10045865
195	0x3bd15af4	0.0063890163
196	0x3a872bd5	0.0010312746
197	0xbce57c97	-0.02801351
198	0xbdea8acc	-0.11452255
199	0x3c5c1fc9	0.013435313
200	0x3af4ff29	0.0018691766
201	0x3a1ca0dd	0.0005974898
202	0xbb2f68ab	-0.0026765268
203	0xbc520aca	-0.012819955
204	0x3d491be9	0.049098883
205	0xbc9a14c6	-0.018808734
206	0xbe36adff	-0.17839812
207	0xbc2b2f3e	-0.010448275
208	0x3c2d7b71	0.010588513
209	0xbd24ed0c	-0.040265128
210	0x3d0ce610	0.034399092
211	0x3ac9fead	0.0015410982
212	0xbc53b65e	-0.012921898
213	0x3c7cd9cd	0.015432787
214	0xbcc79606	-0.024363529
215	0x3d053645	0.03252246
216	0xbc162de2	-0.009166213
217	0xbd270a17	-0.040781107
218	0x3bdbb85f	0.0067053284
219	0x3db4b1e0	0.088229895
220	0x3b200ef0	0.0024422966
221	0xbd8afc50	-0.06786406
222	0xbd0a5ec5	-0.033781786
223	0xbe4bc626	-0.19899806
224	0x3d44f0d2	0.048081227
225	0xbd4da8e7	-0.050209906
226	0xbc8a4138	-0.016876802
227	0x3c83f673	0.016108727
228	0x3cb3563c	0.021891706
229	0xbb8584f4	-0.004074687
230	0xbdbd5912	-0.092455044
231	0xbce7430e	-0.028230216
232	0xbc1bdb1f	-0.009512692
233	0xbb9fc8e5	-0.0048762434
234	0xbe0bf2a6	-0.13666782
235	0xbce14629	-0.027499275
236	0xb58c9b68	-1.0476042e-06
237	0xbd0c340c	-0.034229323
238	0xbe3210e8	-0.17389262
239	0x3c9dae20	0.019248068
240	0x3c92515d	0.017861063
241	0x3cd29365	0.025705049
242	0xbcbff561	-0.023432435
243	0xbb724796	-0.0036968938
244	0x3c819a5c	0.015820675
245	0xbe1a6fb6	-0.15081677
246	0xbc41773a	-0.011808211
247	0xbe0746e9	-0.13210644
248	0x3da7b550	0.081888795
249	0xbe236196	-0.15955195
250	0x3cf86f0d	0.03032639
251	0xbdd5e8ec	-0.10444817
252	0xbd4d7d72	-0.050168462
253	0xbc1a0216	-0.009399911
254	0xbd289854	-0.041160896
255	0xbdb562ce	-0.08856736

fc3.bias f4 [2]
0	0x3d2c7b5e	0.04210984
1	0x3becf18e	0.007230944

bn1.weight f4 [400]
0	0x3ef98318	0.4873283
1	0x3ee994ec	0.4562143
2	0x3eed1af8	0.46309638
3	0x3e3b3348	0.18281281
4	0x3e39055c	0.1806845
5	0x3d7ce870	0.061745107
6	0x3e0e2468	0.13881075
7	0x3f2ec077	0.6826243
8	0x3eff9104	0.49915326
9	0x3f008b7e	0.5021285
10	0x3f19d886	0.60096014
11	0x3ee5b1b8	0.4486215
12	0x3f37a6ab	0.7173869
13	0x3f0f3da4	0.5595343
14	0x3f2182c0	0.63090134
15	0x3f228fc9	0.6350065
16	0x3cde00c0	0.027099967
17	0x3e53e394	0.20692283
18	0x3f6740d4	0.90333295
19	0x3f3a50ee	0.7277974
20	0x3f5166ba	0.81797373
21	0x3ebba6f8	0.36650825
22	0x3ee9f552	0.45694977
23	0x3d4217a0	0.04738581
24	0x3f5bc1c7	0.85842556
25	0x3f000e6a	0.50021994
26	0x3ece53ce	0.40298313
27	0x3e9773f4	0.29580653
28	0x3f2e26bb	0.6802785
29	0x3f469e86	0.7758564
30	0x3f2fc91c	0.68666244
31	0x3f41e222	0.75735676
32	0x3f1003bb	0.5625569
33	0x3f3286f7	0.6973719
34	0x3de44358	0.11145657
35	0x3f653ae4	0.89542985
36	0x3f1b0b91	0.60564524
37	0x3c4f05c0	0.012635648
38	0x3eef8454	0.46780646
39	0x3f4d7f26	0.8027214
40	0x3f02a838	0.5103793
41	0x3f672dc8	0.9030423
42	0x3eca1bb8	0.39474273
43	0x3f1fcb73	0.62419814
44	0x3f018736	0.5059694
45	0x3f150791	0.5821467
46	0x3f6695cd	0.9007233
47	0x3edc734c	0.43056715
48	0x3f1f16ed	0.62144357
49	0x3de26508	0.110544264
50	0x3e1732dc	0.14765495
51	0x3f2f818d	0.68557054
52	0x3f4a39b8	0.7899432
53	0x3e53cb58	0.20683038
54	0x3e923fe2	0.28564364
55	0x3f478c3f	0.77948374
56	0x3f792978	0.973289
57	0x3f410935	0.75404674
58	0x3f7e72d5	0.9939397
59	0x3dc590a8	0.096467316
60	0x3f42e733	0.7613403
61	0x3ec391e6	0.3819725
62	0x3e57700c	0.21038836
63	0x3e7c897c	0.24661821
64	0x3f180327	0.5937981
65	0x3f7ae5c6	0.98006856
66	0x3f01ffa2	0.5078069
67	0x3f09a2c6	0.53764
68	0x3f3ab263	0.72928447
69	0x3d687c30	0.05675906
70	0x3f572f95	0.8405698
71	0x3e1059cc	0.14096755
72	0x3f048545	0.51765853
73	0x3f11c72d	0.56944543
74	0x3e287da4	0.16454178
75	0x3ec61fe0	0.38696194
76	0x3d6b9eb0	0.057524383
77	0x3cb64600	0.022250175
78	0x3e701fd0	0.23449636
79	0x3edc1892	0.42987496
80	0x3f300f7d	0.68773633
81	0x3f49c99c	0.78823256
82	0x3e30fcc8	0.17283928
83	0x3ec1c902	0.3784867
84	0x3f5ca46b	0.8618838
85	0x3f5b4630	0.8565397
86	0x3f1e4db5	0.6183732
87	0x3f1c402c	0.6103542
88	0x3f030018	0.5117202
89	0x3cc7ee60	0.024405658
90	0x3f4ff8b2	0.81238854
91	0x3f74a920	0.95570564
92	0x3f619db1	0.88131243
93	0x3f16dcc9	0.5893064
94	0x3f6bd89b	0.9212739
95	0x3f58417d	0.8447493
96	0x3edb9b8a	0.42892104
97	0x3f6568fe	0.8961333
98	0x3f47eb7a	0.78093684
99	0x3e1abed0	0.15111852
100	0x3f348fb8	0.705318
101	0x3f4922ec	0.7856891
102	0x3eacf878	0.33783317
103	0x3f25c99e	0.6476077
104	0x3e76d4c0	0.24104595
105	0x3f13d330	0.5774412
106	0x3e28b644	0.16475779
107	0x3f37c3ce	0.7178315
108	0x3f4950c5	0.7863887
109	0x3db896d0	0.0901314
110	0x3df87da0	0.12133336
111	0x3e9506f4	0.29106867
112	0x3f77ad4d	0.9674881
113	0x3eddfa98	0.4335525
114	0x3eb68200	0.35646057
115	0x3f0da26b	0.55325955
116	0x3f313183	0.69216174
117	0x3f2d383c	0.6766393
118	0x3d92dd38	0.071711004
119	0x3e85cd22	0.26133066
120	0x3f658065	0.8964904
121	0x3f0d6858	0.5523734
122	0x3ea00ce4	0.31259835
123	0x3f3f5949	0.74745613
124	0x3f6d1b17	0.9261946
125	0x3e8dfc84	0.27731717
126	0x3e88c53c	0.26712978
127	0x3e02a5ac	0.12758511
128	0x3f08474a	0.5323378
129	0x3efd018e	0.4941525
130	0x3f34690d	0.70472795
131	0x3f4c3ad0	0.7977724
132	0x3f5401e6	0.82815397
133	0x3e080734	0.13283998
134	0x3e7f1768	0.24911273
135	0x3f3b66df	0.73203844
136	0x3f2a413d	0.66505796
137	0x3f7aac6b	0.9791934
138	0x3e786990	0.24259019
139	0x3f7ce8ef	0.9879293
140	0x3f4acdf1	0.7922049
141	0x3f3db8e7	0.74110264
142	0x3ea49fc8	0.32153153
143	0x3e837568	0.2567551
144	0x3f0ced0a	0.5504919
145	0x3f3afeab	0.7304484
146	0x3ed8372e	0.422296
147	0x3e4e8ca0	0.20170832
148	0x3e7960ac	0.24353284
149	0x3f5629df	0.8365764
150	0x3f35a53f	0.7095527
151	0x3f46616c	0.77492404
152	0x3f67eb69	0.9059358
153	0x3e002820	0.12515306
154	0x3d61e0a0	0.05514586
155	0x3f7553ae	0.9583081
156	0x3eaca638	0.33720565
157	0x3f784efd	0.96995527
158	0x3f195f2b	0.5991084
159	0x3f50b7ff	0.81530756
160	0x3f675f99	0.90380245
161	0x3e9cffda	0.3066395
162	0x3ef5980c	0.47967565
163	0x3f64a210	0.8930979
164	0x3eb33b6c	0.35006273
165	0x3e464a78	0.19364345
166	0x3f382fe2	0.71948063
167	0x3f3dce03	0.74142474
168	0x3da3be58	0.079952896
169	0x3f5e242f	0.8677396
170	0x3f38e8cc	0.7223022
171	0x3f7b7af2	0.98234475
172	0x3f29b281	0.66288
173	0x3e1c3b04	0.15256888
174	0x3df0f4d8	0.1176545
175	0x3edb31ce	0.42811435
176	0x3c7f3d00	0.015578508
177	0x3f790a62	0.9728147
178	0x3d1b8b30	0.037974536
179	0x3cd1a840	0.025592923
180	0x3c849d80	0.016188383
181	0x3e25d60c	0.16194934
182	0x3ed981a0	0.4248171
183	0x3f7d1a34	0.9886811
184	0x3f0a4358	0.5400901
185	0x3f69a5d8	0.9126868
186	0x3f4233ef	0.75860494
187	0x3f0c38db	0.54774255
188	0x3ef5be14	0.4799658
189	0x3f3d3f88	0.73925066
190	0x3f1d13ac	0.6135814
191	0x3f396822	0.7242452
192	0x3f74dab4	0.95646214
193	0x3eec7a2e	0.46186966
194	0x3f50d47b	0.8157422
195	0x3f74a31c	0.95561385
196	0x3ebd3e22	0.36961466
197	0x3e6853b8	0.22688186
198	0x3f41d8ae	0.7572125
199	0x3f0746ed	0.528426
200	0x3e0ea9e4	0.13931996
201	0x3f57f6cf	0.84360975
202	0x3f1d1b1e	0.613695
203	0x3eb80a58	0.35945392
204	0x3f438ab4	0.7638352
205	0x3e403f40	0.18774128
206	0x3f024c94	0.508981
207	0x3edf2b9a	0.43587953
208	0x3f3ded0a	0.7418982
209	0x3f2c7c31	0.67377
210	0x3eefec90	0.4686017
211	0x3e0f0784	0.1396771
212	0x3f493e52	0.7861072
213	0x3ec44e34	0.38340914
214	0x3efc4a14	0.49275267
215	0x3ed5b266	0.4173767
216	0x3e82b8c6	0.25531596
217	0x3ec90484	0.39261258
218	0x3f4ff3ef	0.8123159
219	0x3f69188c	0.9105308
220	0x3f0510c1	0.5197869
221	0x3d93dd28	0.072199166
222	0x3f12573f	0.57164377
223	0x3f0b8bb9	0.54510075
224	0x3dd40ca8	0.103539765
225	0x3efae220	0.49000645
226	0x3e7580fc	0.23974985
227	0x3c49cbc0	0.012316644
228	0x3d830138	0.06396717
229	0x3d924460	0.07141948
230	0x3e2b9e70	0.16759658
231	0x3e3edd34	0.1863907
232	0x3f0e3a82	0.55558026
233	0x3f6552ce	0.89579475
234	0x3f272b4b	0.65300435
235	0x3f0c5a01	0.54824835
236	0x3e0c10ac	0.13678235
237	0x3e7dd990	0.24790025
238	0x3dc6e970	0.097124934
239	0x3f402743	0.7505991
240	0x3f758cc3	0.9591791
241	0x3e1df5f8	0.15425861
242	0x3ec69f24	0.3879329
243	0x3f5235b0	0.8211317
244	0x3f18b837	0.5965609
245	0x3cf391a0	0.029732525
246	0x3df48590	0.119395375
247	0x3e8427f4	0.25811732
248	0x3eba0a1c	0.36335838
249	0x3f28f160	0.6599331
250	0x3f2b22cb	0.66849965
251	0x3def2cf8	0.11678499
252	0x3f382e0a	0.7194525
253	0x3f755724	0.9583609
254	0x3e756e18	0.23967779
255	0x3f1ca71a	0.61192477

bn1.bias f4 [400]
0	0x00000000	0.0
1	0x00000000	0.0
2	0x00000000	0.0
3	0x00000000	0.0
4	0x00000000	0.0
5	0x00000000	0.0
6	0x00000000	0.0
7	0x00000000	0.0
8	0x00000000	0.0
9	0x00000000	0.0
10	0x00000000	0.0
11	0x00000000	0.0
12	0x00000000	0.0
13	0x00000000	0.0
14	0x00000000	0.0
15	0x00000000	0.0
16	0x00000000	0.0
17	0x00000000	0.0
18	0x00000000	0.0
19	0x00000000	0.0
20	0x00000000	0.0
21	0x00000000	0.0
22	0x00000000	0.0
23	0x00000000	0.0
24	0x00000000	0.0
25	0x00000000	0.0
26	0x00000000	0.0
27	0x00000000	0.0
28	0x00000000	0.0
29	0x00000000	0.0
30	0x00000000	0.0
31	0x00000000	0.0
32	0x00000000	0.0
33	0x00000000	0.0
34	0x00000000	0.0
35	0x00000000	0.0
36	0x00000000	0.0
37	0x00000000	0.0
38	0x00000000	0.0
39	0x00000000	0.0
40	0x00000000	0.0
41	0x00000000	0.0
42	0x00000000	0.0
43	0x00000000	0.0
44	0x00000000	0.0
45	0x00000000	0.0
46	0x00000000	0.0
47	0x00000000	0.0
48	0x00000000	0.0
49	0x00000000	0.0
50	0x00000000	0.0
51	0x00000000	0.0
52	0x00000000	0.0
53	0x00000000	0.0
54	0x00000000	0.0
55	0x00000000	0.0
56	0x00000000	0.0
57	0x00000000	0.0
58	0x00000000	0.0
59	0x00000000	0.0
60	0x00000000	0.0
61	0x00000000	0.0
62	0x00000000	0.0
63	0x00000000	0.0
64	0x00000000	0.0
65	0x00000000	0.0
66	0x00000000	0.0
67	0x00000000	0.0
68	0x00000000	0.0
69	0x00000000	0.0
70	0x00000000	0.0
71	0x00000000	0.0
72	0x00000000	0.0
73	0x00000000	0.0
74	0x00000000	0.0
75	0x00000000	0.0
76	0x00000000	0.0
77	0x00000000	0.0
78	0x00000000	0.0
79	0x00000000	0.0
80	0x00000000	0.0
81	0x00000000	0.0
82	0x00000000	0.0
83	0x00000000	0.0
84	0x00000000	0.0
85	0x00000000	0.0
86	0x00000000	0.0
87	0x00000000	0.0
88	0x00000000	0.0
89	0x00000000	0.0
90	0x00000000	0.0
91	0x00000000	0.0
92	0x00000000	0.0
93	0x00000000	0.0
94	0x00000000	0.0
95	0x00000000	0.0
96	0x00000000	0.0
97	0x00000000	0.0
98	0x00000000	0.0
99	0x00000000	0.0
100	0x00000000	0.0
101	0x00000000	0.0
102	0x00000000	0.0
103	0x00000000	0.0
104	0x00000000	0.0
105	0x00000000	0.0
106	0x00000000	0.0
107	0x00000000	0.0
108	0x00000000	0.0
109	0x00000000	0.0
110	0x00000000	0.0
111	0x00000000	0.0
112	0x00000000	0.0
113	0x00000000	0.0
114	0x00000000	0.0
115	0x00000000	0.0
116	0x00000000	0.0
117	0x00000000	0.0
118	0x00000000	0.0
119	0x00000000	0.0
120	0x00000000	0.0
121	0x00000000	0.0
122	0x00000000	0.0
123	0x00000000	0.0
124	0x00000000	0.0
125	0x00000000	0.0
126	0x00000000	0.0
127	0x00000000	0.0
128	0x00000000	0.0
129	0x00000000	0.0
130	0x00000000	0.0
131	0x00000000	0.0
132	0x00000000	0.0
133	0x00000000	0.0
134	0x00000000	0.0
135	0x00000000	0.0
136	0x00000000	0.0
137	0x00000000	0.0
138	0x00000000	0.0
139	0x00000000	0.0
140	0x00000000	0.0
141	0x00000000	0.0
142	0x00000000	0.0
143	0x00000000	0.0
144	0x00000000	0.0
145	0x00000000	0.0
146	0x00000000	0.0
147	0x00000000	0.0
148	0x00000000	0.0
149	0x00000000	0.0
150	0x00000000	0.0
151	0x00000000	0.0
152	0x00000000	0.0
153	0x00000000	0.0
154	0x00000000	0.0
155	0x00000000	0.0
156	0x00000000	0.0
157	0x00000000	0.0
158	0x00000000	0.0
159	0x00000000	0.0
160	0x00000000	0.0
161	0x00000000	0.0
162	0x00000000	0.0
163	0x00000000	0.0
164	0x00000000	0.0
165	0x00000000	0.0
166	0x00000000	0.0
167	0x00000000	0.0
168	0x00000000	0.0
169	0x00000000	0.0
170	0x00000000	0.0
171	0x00000000	0.0
172	0x00000000	0.0
173	0x00000000	0.0
174	0x00000000	0.0
175	0x00000000	0.0
176	0x00000000	0.0
177	0x00000000	0.0
178	0x00000000	0.0
179	0x00000000	0.0
180	0x00000000	0.0
181	0x00000000	0.0
182	0x00000000	0.0
183	0x00000000	0.0
184	0x00000000	0.0
185	0x00000000	0.0
186	0x00000000	0.0
187	0x00000000	0.0
188	0x00000000	0.0
189	0x00000000	0.0
190	0x00000000	0.0
191	0x00000000	0.0
192	0x00000000	0.0
193	0x00000000	0.0
194	0x00000000	0.0
195	0x00000000	0.0
196	0x00000000	0.0
197	0x00000000	0.0
198	0x00000000	0.0
199	0x00000000	0.0
200	0x00000000	0.0
201	0x00000000	0.0
202	0x00000000	0.0
203	0x00000000	0.0
204	0x00000000	0.0
205	0x00000000	0.0
206	0x00000000	0.0
207	0x00000000	0.0
208	0x00000000	0.0
209	0x00000000	0.0
210	0x00000000	0.0
211	0x00000000	0.0
212	0x00000000	0.0
213	0x00000000	0.0
214	0x00000000	0.0
215	0x00000000	0.0
216	0x00000000	0.0
217	0x00000000	0.0
218	0x00000000	0.0
219	0x00000000	0.0
220	0x00000000	0.0
221	0x00000000	0.0
222	0x00000000	0.0
223	0x00000000	0.0
224	0x00000000	0.0
225	0x00000000	0.0
226	0x00000000	0.0
227	0x00000000	0.0
228	0x00000000	0.0
229	0x00000000	0.0
230	0x00000000	0.0
231	0x00000000	0.0
232	0x00000000	0.0
233	0x00000000	0.0
234	0x00000000	0.0
235	0x00000000	0.0
236	0x00000000	0.0
237	0x00000000	0.0
238	0x00000000	0.0
239	0x00000000	0.0
240	0x00000000	0.0
241	0x00000000	0.0
242	0x00000000	0.0
243	0x00000000	0.0
244	0x00000000	0.0
245	0x00000000	0.0
246	0x00000000	0.0
247	0x00000000	0.0
248	0x00000000	0.0
249	0x00000000	0.0
250	0x00000000	0.0
251	0x00000000	0.0
252	0x00000000	0.0
253	0x00000000	0.0
254	0x00000000	0.0
255	0x00000000	0.0
