collaboration_competition/models/actor1_10000.pth (torch_old, 536747 bytes, 14 tensors)

fc1.weight f4 [400, 24]
000000 c7 da 55 3c 24 71 20 3d bb ce 0a 3d 34 fa 07 bc
       0.013052649 0.0391704 0.03388856 -0.008299399
000010 86 a3 86 bd 0c 93 92 3b 11 40 ba bc a6 f6 c3 3b
       -0.06574158 0.0044730958 -0.022735627 0.0059803305
000020 8b 42 28 bc 36 90 e0 ba 74 6f 83 3c 74 f1 df 3b
       -0.010269771 -0.0017132822 0.016044356 0.0068342034
000030 64 48 ed 3c 8e e7 ff 3c 6a 05 89 3d 46 71 8d 3c
       0.028965183 0.031238344 0.06690486 0.017265927
000040 d1 73 42 bd 87 2c f9 3c eb 75 e5 bc 95 6b 1a bd
       -0.047473732 0.03041674 -0.02801033 -0.037700254
000050 a2 04 38 3d e2 87 a6 bc e5 51 ed bc 01 9e 0f 3d
       0.044926293 -0.020328466 -0.028969714 0.035062794
000060 d2 31 04 bb 58 98 19 3c ea 37 17 bc 9d 4d df 3c
       -0.0020171297 0.0093747005 -0.00922964 0.027258689
000070 2a e4 83 3d 5f a3 f3 3c 49 3b a1 3c 45 6f cb bc
       0.06440003 0.029740987 0.01968159 -0.02483333
000080 d9 c9 cf 3c 01 31 95 3c 0b 78 12 3d 77 4a c9 3a
       0.025364803 0.018211843 0.035759013 0.0015357275
000090 d5 de 2b 3c 93 d4 c6 3b 82 5a 00 3d 17 d1 cc 3b
       0.010490139 0.0060678213 0.031336315 0.0062505114
0000a0 b7 28 16 3d 39 0e cb 3c 3b be 84 bb 70 6e c7 3c
       0.036659922 0.024787055 -0.0040509976 0.024344653
0000b0 8d 56 81 bb 5f 40 15 3d 51 a8 9b bc 4e 12 54 bd
       -0.0039470852 0.036438342 -0.019001158 -0.05177527
0000c0 9d de 36 3c 0f fa 7c 3d c3 c2 3f bc d2 8d 05 bd
       0.011161474 0.061761912 -0.01170415 -0.032605954
0000d0 e9 c9 f3 3c cc a4 b2 3d 7f 25 67 bb d0 a5 cd 3c
       0.029759364 0.08722839 -0.0035270152 0.02510348
0000e0 11 7a 22 ba c4 86 14 3d 4e 1c 0c bd c9 48 c1 bc
       -0.0006197999 0.036261335 -0.03420668 -0.023594277
0000f0 f1 cd d7 3b a9 fa 90 3c 9e f9 14 3d 91 d5 dc 3b
       0.0065858294 0.01769765 0.036370866 0.0067393263
000100 38 e8 06 bb 1f 64 08 3c 70 4a a1 bc 81 cc 88 3c
       -0.002058519 0.008324652 -0.019688815 0.016699078
000110 92 85 c1 bb d1 1a 50 bd ea 10 a1 3c c5 ef 99 bb
       -0.0059058154 -0.050806824 0.019661386 -0.004697772
000120 ce 70 33 3d 41 40 95 3c 62 d8 df 3c 00 a2 52 bd
       0.04380875 0.018219115 0.027324859 -0.051424026
000130 18 fc ed bc c1 92 2c ba ec 2c b8 bc fc cb 81 3c
       -0.029050872 -0.00065831473 -0.022482358 0.015844338
000140 89 11 0a bd aa f9 aa bc ca 4a 14 3d f8 1d 75 bd
       -0.03370813 -0.020871002 0.036204137 -0.059843034
000150 0f e3 06 bd ce bd de bc 6a 90 14 3c a2 bb 1d bd
       -0.032931384 -0.027190115 0.009067634 -0.03850902
000160 e9 91 05 bd ae 9a 08 bd 39 15 ee bc 20 0a a6 bc
       -0.032609854 -0.03335064 -0.029062854 -0.0202685
000170 f1 3b a7 bb b2 fb 89 3d ab 70 cf bc d0 cf 5c bd
       -0.005103581 0.0673746 -0.025322279 -0.053909123
000180 24 6a a6 bb d9 04 8a 3d 22 54 01 3d 07 40 7b 3d
       -0.005078571 0.06739206 0.031574376 0.061340358
000190 10 ec 25 ba ba af e0 3c 06 7d 9e bb 27 7c 6c 3d
       -0.00063294265 0.027427543 -0.0048366813 0.05773559
0001a0 67 ba cf 3b 05 48 96 3d 1c 2f bb 3c 4e 1b ce bc
       0.0063393596 0.073379554 0.022849612 -0.025159504
0001b0 4c c2 f5 3c 92 36 ae 3c c5 48 50 bd da 80 27 3d
       0.029999875 0.021266256 -0.05085065 0.040894367
0001c0 4f d2 80 3d 7b 7b cb 3c d0 2e 2b 3c 94 e4 05 3d
       0.06290113 0.024839154 0.010448173 0.032688692
0001d0 9e cd d1 3b 2b bc 27 3c 2a db 0e bd dd 36 fa 3c
       0.0064026853 0.010237734 -0.03487698 0.030543739
0001e0 8d aa 35 3c e7 a8 c8 3c 6f 16 db bc c0 02 52 bd
       0.011088026 0.024494601 -0.026744096 -0.051272154
0001f0 2f ad 7f 3c f2 60 02 3d 8f cd b3 3b ca 2c b0 bb
       0.015605255 0.031830736 0.005487151 -0.005376433
000200 c9 c3 12 3d f1 57 0b bd 4c df 4d 3a e8 52 40 3d
       0.035831247 -0.034019414 0.0007853403 0.046954066
000210 a3 d9 8e bc 7f bd 5e 3b 3e a9 18 3d 43 22 ee bb
       -0.017437762 0.003398746 0.037270777 -0.007267268
000220 27 4b a1 3c e6 4a b9 bc b3 ce f0 bc c8 a1 94 3c
       0.019689156 -0.022618722 -0.029395437 0.01814355
000230 7d b5 6d 3d 57 93 04 bd 61 73 5b bd 78 8c 3b bb
       0.05803441 -0.032367077 -0.05357683 -0.0028617661
000240 c8 8b 0d 3c 09 69 85 3c 17 f7 55 3d a8 10 27 3d
       0.0086392835 0.016285436 0.052237596 0.04078737
000250 1f cb fb 3c 46 de 00 3d 4c c3 00 3b fa 0b e6 bb
       0.030736504 0.031461976 0.0019647656 -0.0070204707
000260 77 70 56 bc 69 47 4b bc 15 4f 12 3d 46 61 e1 bc
       -0.013088337 -0.012407162 0.03571995 -0.027512204
000270 58 cf 9f bc 06 0a d0 bc d3 37 1d bd 4e 2c 22 3d
       -0.019508049 -0.025395405 -0.038383316 0.039593033
000280 52 4d b7 bc 18 9e 82 bd 50 a9 0b bd 4c d4 d0 bc
       -0.022375736 -0.0637781 -0.034097016 -0.025491856
000290 f1 25 5e bd fa 4a 53 bd 3d 3d 86 3b a0 42 1b bc
       -0.054235402 -0.051585175 0.0040966556 -0.009476334
0002a0 d9 0c 09 3d f1 60 1e 3d b6 c4 46 bb 3d f1 9f 3c
       0.033459518 0.03866667 -0.0030329651 0.019524211
0002b0 5c 52 c4 bc 1c 40 39 3d 27 ec 13 bd 11 77 1c bd
       -0.023965053 0.045227155 -0.036113884 -0.038199488
0002c0 ea 37 15 bd d0 c9 5a 3a 43 0c 9b bc b3 74 db 3c
       -0.036430277 0.00083461124 -0.018926745 0.026789045
0002d0 fc 5d 21 bc 25 2f 2f 3d 01 01 a0 3b d0 84 53 bb
       -0.009849068 0.04276957 0.004882932 -0.0032275207
0002e0 10 b2 03 3d c6 d6 35 3d b7 da 61 bc 74 9b 95 3c
       0.032152236 0.044394277 -0.013785056 0.018262602
0002f0 6f 47 1c bd 34 75 06 bd 73 bb 61 bd 8e 86 48 bd
       -0.038154062 -0.032826617 -0.055110406 -0.048956446
000300 54 c5 1a 3d f2 65 d8 3b b9 79 d5 bc b0 f9 c5 3b
       0.037785843 0.0066039497 -0.026059018 0.006041728
000310 e7 65 b8 3b 9e d3 54 3d e7 fa 06 bd 44 a8 79 bc
       0.005627382 0.051959626 -0.032954123 -0.015237872
000320 c2 5a 36 3d 8f 43 24 3d 86 30 a3 bc a6 87 9d 3c
       0.044520147 0.04010349 -0.019920599 0.019229721
000330 35 04 86 3c 24 7a 8f 3c e8 ed 9e 3c 10 87 80 bc
       0.016359428 0.017514296 0.019400552 -0.015689403
000340 d5 70 09 bd d9 c7 91 3d 9d 16 d6 b9 28 2a 09 bd
       -0.03355487 0.07118196 -0.0004083411 -0.03348747
000350 cb ba 66 3d c3 4d 33 bb 4c 2d 99 3c 97 56 c0 bc
       0.056330483 -0.0027359582 0.018698357 -0.02347879
000360 d1 3d 34 3c 83 56 41 3d 96 8d 48 bd cb 4e c9 bc
       0.011001066 0.047201645 -0.048963152 -0.024573704
000370 65 b2 3a 3d 30 23 25 3c 40 b1 ef 3c 6f 37 4a bd
       0.045580287 0.01007919 0.029259324 -0.04936927
000380 65 16 6d 3c 90 50 10 3c fa 48 9a bc 81 d7 6b 3c
       0.014470671 0.00880827 -0.018833626 0.014394642
000390 84 a6 dd 3a 02 ef 7e bc 9e ae a2 bc 3e ae e9 bc
       0.0016910587 -0.015559914 -0.019858655 -0.028525468
0003a0 b0 50 b7 3c 3d e4 bc bc 3d a4 9b 3c e1 4a 70 3d
       0.022377342 -0.023058051 0.018999213 0.05866516
0003b0 48 45 89 bc 30 7b 93 3c 23 17 92 3c ae ee cc bc
       -0.016756669 0.018003076 0.017833298 -0.025016155
0003c0 3c 7c 8d bc a3 85 62 bd 64 a7 49 3d b0 be 63 3c
       -0.017271154 -0.055303227 0.0492319 0.013900444
0003d0 54 0c cc bc 42 d2 c9 bc aa a6 0d bb 90 0d 26 bd
       -0.024908222 -0.024636392 -0.0021614232 -0.040540278
0003e0 0e 01 22 bd f9 d8 24 bd 94 49 14 3c ac 86 29 bd
       -0.039551787 -0.040245984 0.0090507455 -0.0413882
0003f0 eb e8 4c 3d 94 21 ee bc 58 e0 e5 bc 04 92 14 bc
       0.050026815 -0.029068746 -0.028061077 -0.009068016

fc1.bias f4 [400]
000000 5e f0 4d 3e b5 6d c6 3c e7 0f 75 bd 21 ca 28 3e
       0.20111224 0.024222234 -0.05982962 0.16483356
000010 1f 3b ab bc b1 69 0d bc 75 f3 5f bb ed 80 29 be
       -0.020902215 -0.008631156 -0.0034172211 -0.16553088
000020 12 f9 9c bd 16 0b 4c be e1 eb 48 bc 0e 53 33 be
       -0.07664694 -0.19926104 -0.012263269 -0.17512152
000030 59 14 7b 3b ac c4 84 bc 1f b1 64 3d 18 83 0b be
       0.0038311689 -0.016207062 0.05583298 -0.13624227
000040 08 44 b1 bb 7c 87 5a bd 5b d2 f4 bd 39 68 1e 3e
       -0.0054097213 -0.053351864 -0.119541846 0.15469445
000050 28 af 56 be cf 44 0b 3e e9 46 29 bd 85 55 fa bd
       -0.20965254 0.13600467 -0.04132739 -0.12223343
000060 32 cf 50 be 43 8f 4b be 86 e4 73 bd 84 4c 08 3e
       -0.20391539 -0.19878869 -0.05954411 0.13310438
000070 b9 2c 16 3d 8b 6e 28 be f6 64 33 3e e7 2f 33 3e
       0.036663745 -0.16448419 0.17518982 0.17498742
000080 07 27 6b 3d 6e d1 52 3e ff 09 1a 3e 0a 5d 05 3d
       0.057410266 0.20587704 0.15042876 0.032559432
000090 17 26 0f 3e 17 75 fc bd ce f3 79 bd 59 b1 f5 bd
       0.13979374 -0.123270206 -0.061023526 -0.11996717
0000a0 f5 ea 80 bd 8c 8b 2e be cd 43 d5 3d 31 b7 ca bd
       -0.062948145 -0.1704542 0.104133226 -0.09898222
0000b0 69 0f 41 3d cc 1a 16 3e bb 8f 67 3d ad f0 c8 3c
       0.047133837 0.1465866 0.056533556 0.024528826
0000c0 02 76 48 3e c6 32 66 be ca ce 19 3e 25 a1 35 be
       0.19576266 -0.22480306 0.1502029 -0.17737253
0000d0 eb 1e 62 3e fd 5c 62 3a ec c5 fa bd 6b 40 a6 bd
       0.22082107 0.0008635072 -0.12244782 -0.081177555
0000e0 08 2a c5 bd 73 a9 d5 3d 67 d2 34 3e 9f 5d 04 3e
       -0.096271574 0.104327105 0.17658387 0.12926339
0000f0 1c 9e 10 3e c2 6f 50 3e 35 4a 43 be 6c af 90 3d
       0.14122814 0.20355132 -0.19071276 0.07064709
000100 97 a9 cc 3c a8 c1 1c 3e ee a5 7b 3d ea 88 59 bc
       0.02498321 0.15308249 0.06143754 -0.013277272
000110 9e 4d f8 3d 97 8b b0 bd e3 8f 43 be dd d0 18 be
       0.12124179 -0.08620375 -0.19097857 -0.14923425
000120 52 4a 15 3e 4c 16 32 3b ff 03 3d be 57 8e 41 3d
       0.14579132 0.0027173935 -0.18458556 0.047254886
000130 44 c0 11 bc 5b ef 12 be 65 af 28 3e 10 f3 07 3e
       -0.008895937 -0.1434912 0.16473158 0.13276315
000140 34 a6 25 3e 1e 7c d3 bc 10 29 05 be 04 a6 3a be
       0.16176683 -0.02581602 -0.13003945 -0.18227392
000150 70 87 81 3c 2f 2f da bd e0 50 bf 3d 06 be 64 be
       0.015811652 -0.10653531 0.093415976 -0.22338113
000160 89 b6 3d be 34 b5 fc 3c b4 64 89 3d 7d ed 57 bd
       -0.18526663 0.030848123 0.06708661 -0.05271672
000170 57 9d 0f bd c4 94 a8 bd b3 72 b7 bd 88 98 e8 3c
       -0.03506216 -0.082315 -0.08957424 0.028393045
000180 6b 1a 61 be 7d 9e 6c bd 62 13 78 bd 49 e2 ee bb
       -0.21982734 -0.057768334 -0.06056536 -0.007290159
000190 c9 62 06 3e da a3 30 be 28 2d 31 3d d9 5f 87 3d
       0.13123621 -0.17250004 0.043255955 0.06610078
0001a0 66 98 79 3d d3 6b 97 bd f8 ee f3 3d 27 98 3d be
       0.060936354 -0.07393613 0.11910814 -0.18515073
0001b0 85 a9 a8 bd 31 8f d7 bc 05 28 4d bd 15 d0 4a be
       -0.08235458 -0.026313396 -0.050086994 -0.1980594
0001c0 2d 7c c1 3d 89 a4 e0 3d 34 96 50 be 9b c1 9a 3b
       0.09447513 0.109688826 -0.20369798 0.0047227866
0001d0 d1 0e 50 be b7 80 63 bd 42 28 c3 3c 32 33 3a 3e
       -0.20318152 -0.055542674 0.023822907 0.18183592
0001e0 c4 d7 11 3e 90 fd d5 3d 0e 4c b6 3c d0 a1 58 be
       0.14242464 0.10448754 0.022253063 -0.21155477
0001f0 97 36 a0 bd 86 ab 40 3e cb a2 5e 3c 61 86 4e bd
       -0.07822912 0.18815431 0.013588618 -0.050421122
000200 30 9b 98 bd c4 23 97 3d 60 48 00 3e fb ed aa bc
       -0.07451475 0.073798686 0.12527609 -0.020865431
000210 e5 bc 9c 3d 30 43 18 3e 9a d2 07 3e e8 f3 dc 3d
       0.07653216 0.1486938 0.13263932 0.10788709
000220 cc 93 0b 3e c9 11 a8 3d 21 aa 2f 3d 31 46 5b be
       0.13630599 0.08206517 0.042886857 -0.21413495
000230 69 c9 5b bd 79 0a 9a bd 2d ca 98 3d d1 7f 5f bd
       -0.053658877 -0.07521529 0.07460437 -0.054565255
000240 9c 39 49 be 10 32 37 3e 2a 54 be bd f9 72 59 be
       -0.19650882 0.17890191 -0.09293397 -0.21235265
000250 60 75 7d bd f2 8a 2e 3d 92 5c 8d bd eb 6e 66 be
       -0.061879516 0.042612977 -0.06902422 -0.2250325
000260 1a ea 93 3c 9f 3c 99 3d e7 c4 43 3e c0 85 52 be
       0.018055964 0.07482266 0.19118081 -0.20558834
000270 d0 2a 23 bd 5c 2a 90 bd ba a6 96 bd 53 fe 90 3b
       -0.03983575 -0.070393294 -0.07356019 0.004424849
000280 59 ee 41 3e de f7 e7 bc 50 32 39 3e 01 e2 e5 3c
       0.18938579 -0.028316434 0.18085599 0.028061869
000290 33 75 db bd 32 42 ac bc 2e aa a6 3d 16 c3 01 3e
       -0.10715713 -0.021027658 0.08137928 0.12672076
0002a0 d4 ab 88 bd 12 6c b2 bb bc 9a 31 be df dc ea bd
       -0.066733986 -0.005445012 -0.17344183 -0.11467909
0002b0 7c c9 c3 bd 68 5d fd 3d 82 d1 0c 3c 8a fb e9 3d
       -0.095599145 0.123713315 0.008594872 0.114249304
0002c0 44 85 4b be 82 2d f3 3c d8 a7 36 be b3 6c 89 bd
       -0.19875056 0.029684786 -0.17837465 -0.06710186
0002d0 d3 b4 2b 3e ed 98 82 3b f9 51 1f be f5 2b 53 be
       0.16768198 0.0039855153 -0.15558614 -0.20622237
0002e0 98 6f 70 bd f9 8d a6 bd d8 f5 3a be 38 68 d0 3d
       -0.058700174 -0.08132548 -0.18257844 0.10176128
0002f0 ea 0e ab 39 5a d8 60 bd 1d 47 2d 3e 41 13 67 be
       0.00032626773 -0.05489383 0.16921659 -0.22565939
000300 b4 2c fa 3c c8 3c 14 3e 8a 6f ef 3c bc 09 eb 3d
       0.030538894 0.14476311 0.02922799 0.11476466
000310 d4 0a af bd 40 d7 4c be f1 10 37 3e 95 01 60 be
       -0.08546987 -0.20003986 0.17877556 -0.21875603
000320 32 06 bc bd c9 27 38 3e 71 27 dd bd 2b 02 4f bd
       -0.09180869 0.17983927 -0.107985385 -0.050539177
000330 b7 b2 b9 bd a8 10 c9 3c dd 4f b1 bd 4b c2 a8 3d
       -0.0906729 0.024544075 -0.08657811 0.082401834
000340 68 76 28 3e 3f 34 4b be f5 4e fe 3d 4d 7e 9a bd
       0.16451418 -0.19844149 0.124174036 -0.07543621
000350 06 8c 60 be c0 90 c2 3d ad 7e 17 be 0b 1d fd 3d
       -0.21928415 0.09500265 -0.14794417 0.12359055
000360 2f 92 53 bd 8f 55 f3 bd 9c d9 40 be 80 52 30 3d
       -0.051653083 -0.118815534 -0.18833011 0.043047428
000370 ed 86 6a be 11 c7 f7 3d 01 95 21 3d cc 86 3d be
       -0.22903033 0.12098516 0.03944874 -0.18508452
000380 66 8c a5 3d 20 22 32 be fd d5 0c 3b 2f 34 8a bd
       0.080834195 -0.1739583 0.0021489852 -0.067482345
000390 cb 28 e6 3d 09 0d 3c be 42 d8 6a bd e2 98 d3 bd
       0.112382494 -0.18364348 -0.057335146 -0.103318945
0003a0 41 47 e5 bc 03 fb 0d 3d cc 27 07 be 46 12 16 bc
       -0.027988078 0.03466321 -0.13198775 -0.00915963
0003b0 b2 85 27 3c 52 9b bc bd fc 64 42 3d 68 fb 0f 3e
       0.010224747 -0.092093125 0.047459587 0.14060748
0003c0 ea c4 01 3e 8a 01 49 3d b6 55 01 be 13 a4 16 be
       0.12672773 0.049073733 -0.12630352 -0.14711027
0003d0 c6 7d 03 3e 42 65 01 3d 29 b8 b6 bb f4 c2 f1 3d
       0.12840948 0.031590708 -0.005576153 0.118047625
0003e0 c5 f2 c6 bd 1b 0a 64 be 76 bc f2 bd 20 e1 3f be
       -0.09714273 -0.2226948 -0.11852352 -0.18738222
0003f0 f9 b1 01 3e 67 f3 d9 3d 9a 29 f0 bd 62 67 74 bd
       0.12665547 0.106421284 -0.11726685 -0.059668906

fc2.weight f4 [300, 400]
000000 67 b1 42 bd 7e 4e e7 3c dc 72 1c bd d3 b1 9c 3c
       -0.047532465 0.02823567 -0.038195476 0.019127762
000010 a6 c8 2a bc 74 eb b5 3c 18 a6 60 3d ad af e8 bc
       -0.010423815 0.022207 0.0548459 -0.028404081
000020 a1 e2 12 bc 30 2d 27 bd 30 d0 9d bc 6a bb 8b 3b
       -0.008965165 -0.04081458 -0.01926431 0.004264285
000030 4a 60 8f bc 49 4b 3e bd b2 70 db bc 80 c0 81 bd
       -0.017501969 -0.046458516 -0.026787136 -0.063355446
000040 48 88 5a bc 12 33 63 3d 56 ab 95 bc 0b e9 d9 ba
       -0.013338156 0.055468626 -0.018270176 -0.0016625238
000050 40 0d 4e 3d 95 10 1f bd dd b2 b0 bc 02 9e 56 3d
       0.050305605 -0.038834173 -0.021569664 0.05239678
000060 be b5 be bc ce 76 3f bd 4a e8 d2 bc f4 d5 98 bc
       -0.02328002 -0.04674416 -0.02574553 -0.018656708
000070 be 21 bc 3c 62 72 72 bc 64 0f cb 3c 38 85 8b 3d
       0.022965308 -0.014797779 0.024787612 0.06812519
000080 21 1d d6 3c 38 a9 c6 3b b2 b5 0d 3b ea bc 47 3d
       0.026136937 0.006062653 0.0021623191 0.048764147
000090 b3 f1 8b 3b 01 bd 9a 3c 6a ef 0e 3c 79 0f 16 bc
       0.004270756 0.018888952 0.008724073 -0.009158962
0000a0 1a 77 24 3d 66 36 49 bd 33 22 93 3a 26 57 16 bd
       0.040152647 -0.049124144 0.0011225402 -0.036704205
0000b0 54 a7 0f bc 04 53 ce 3b c0 fe 56 bd 3b ab 39 ba
       -0.0087679215 0.0062965173 -0.052489042 -0.0007082705
0000c0 9d 39 3b bd 46 f5 a6 bc 8e a2 c8 ba 2b 60 14 3d
       -0.04570924 -0.020380627 -0.0015307234 0.036224525
0000d0 6f 52 1f bd 69 74 4b bd b2 ef 48 bd ea 84 a6 bc
       -0.038896974 -0.049671564 -0.049056716 -0.02032705
0000e0 1d 5e f9 3c a7 45 4d 3d df ad 93 3c 0b f7 05 bd
       0.030440385 0.050115254 0.018027244 -0.0327063
0000f0 4c bc 4c bd cb 2e d7 3c 04 04 a4 3c fa 95 08 bd
       -0.04998426 0.02626743 0.020021446 -0.033346154
000100 45 1b 2d 3c d7 87 45 3d 2a 5d 1f bd d5 29 7b 3c
       0.010565584 0.04822525 -0.038907208 0.015329798
000110 13 86 48 3d cb a0 5f 3d 29 dc a8 3c 7c 8c 66 3d
       0.04895599 0.054596703 0.020612793 0.05628632
000120 ff 04 28 bd 21 61 ef 3c 19 01 6f bc 54 a0 03 bd
       -0.04102039 0.02922112 -0.014587664 -0.032135323
000130 03 5b 59 bd c2 c5 40 3d 25 56 10 3d 2e b8 0d 3d
       -0.05306531 0.047063597 0.035238404 0.034599476
000140 f6 bd 46 bd d6 d5 f4 3b ca af a4 3c c0 cc 25 3d
       -0.048521005 0.0074717803 0.020103354 0.040478468
000150 27 91 15 bc 5c 7d b8 3c 95 96 94 bc a9 24 4e bd
       -0.009128845 0.022520714 -0.01813821 -0.05032793
000160 dd 31 b7 3c af bf ba 3b 89 18 38 bd a0 57 5f bd
       0.022362644 0.00569912 -0.044945274 -0.054526925
000170 e5 9b 17 3d b4 6d d4 3c 56 23 92 bc bf e9 aa 3c
       0.037013907 0.025931217 -0.017839115 0.020863412
000180 c6 b8 59 3d 01 8a 66 3c 6a 49 9d bb aa 87 97 3b
       0.05315473 0.014070989 -0.0048000114 0.0046243267
000190 45 cb 3f 3c 94 b5 69 bd 7b 98 65 3d 27 60 f1 3c
       0.011706178 -0.057057932 0.05605362 0.029464794
0001a0 1b 30 d5 bc a2 2e 41 3c d4 6f 46 3d 6c 7b 15 3c
       -0.026023915 0.011790903 0.04844649 0.009123664
0001b0 b1 7f 1c 3d 9c ef 30 3d 53 f4 5c 3d 30 40 47 3d
       0.038207714 0.04319726 0.053943943 0.0486452
0001c0 63 48 b7 3c ce f8 62 bd 34 69 cd 3b db a6 e8 bc
       0.022373384 -0.05541306 0.0062686447 -0.028399875
0001d0 58 e9 1c bd e0 0e 14 3d cb 52 67 bc 48 f1 25 3d
       -0.03830847 0.036147 -0.0141188605 0.040513307
0001e0 78 1e 7b bc 42 62 81 bc 9c 6d 5f bd a5 0b 83 3d
       -0.015327089 -0.015793923 -0.05454789 0.063987054
0001f0 64 9a 80 3d f5 67 0f bc 3e cc 0d 3d 55 41 0e bd
       0.06279448 -0.008752813 0.03461861 -0.034730274
000200 ec 57 26 3d 02 ba ac bc 72 4f 62 bd 6f 94 33 bb
       0.040611193 -0.02108479 -0.055251546 -0.0027401706
000210 4e 6d cc bb 4d 1f 3e bd fc a3 37 3d 9d 94 3c bd
       -0.006238616 -0.04641657 0.044834122 -0.046040166
000220 ef 74 65 bd 3c 6f 2a 3c 98 32 17 3c 77 53 e1 3b
       -0.05601972 0.010402497 0.009228371 0.006876405
000230 03 32 4d bc 2c e9 24 3b 39 30 82 bb c0 be 29 3d
       -0.012524131 0.0025163395 -0.0039730337 0.04144168
000240 17 33 72 3d a3 59 54 bd 3f 49 db 3b 61 bc 58 3c
       0.059130754 -0.051843297 0.006692081 0.013228507
000250 63 a3 c9 bc a6 7d d7 bc 1f c9 5d 3d 24 af 42 3d
       -0.024614042 -0.026305031 0.054146882 0.04753031
000260 fc 75 de 3c 9f e4 8a 3c 08 38 6a bd d8 6b 43 3d
       0.027155869 0.016954718 -0.05718234 0.04771027
000270 b6 9f 2e bd 1b 3f d0 bc 3c 8c 64 3d 4f e0 20 bd
       -0.04263278 -0.025420716 0.0557978 -0.039276417
000280 c4 60 b2 3c ab 11 81 bb 6a 45 4d 3d 3a eb e1 bc
       0.021774657 -0.0039388738 0.050115027 -0.027577985
000290 b8 0f 9b bc 45 3b 43 bd 52 44 b3 3c a6 53 ce 3c
       -0.018928394 -0.047663946 0.021883164 0.025186371
0002a0 24 6f 33 bd b9 c9 55 bc 76 93 5e 3d 0b ba cc 3b
       -0.043807164 -0.013048583 0.05433985 0.006247764
0002b0 ee f6 9c 3c 96 d7 ee ba 3a fa 49 3a 27 3c ff 3c
       0.019160714 -0.0018222209 0.0007704828 0.031156613
0002c0 96 f7 5d 3d 64 94 5f 3d 96 20 79 bc ba e6 be 3c
       0.054191194 0.054584876 -0.015205523 0.023303378
0002d0 18 55 31 bb 89 54 19 3d dd de 11 bd db 99 ff bc
       -0.0027058776 0.037434135 -0.03561293 -0.031201294
0002e0 6b 6f 51 3c 8b 79 31 3d ba 30 d5 bc 94 bd 43 3d
       0.012782912 0.043328803 -0.026024211 0.047788218
0002f0 91 05 38 3c 57 c1 da bc 0d 23 1d 3d e2 7c 9e bc
       0.011231796 -0.02670352 0.038363505 -0.019346658
000300 31 56 01 3d 49 ee a8 bc 4e 0c bd 3c 20 e4 13 bc
       0.03157634 -0.020621436 0.023077156 -0.009026557
000310 68 91 db 3b 89 b6 53 bd 08 c9 62 3d f5 31 71 3d
       0.0067006834 -0.05168775 0.0553675 0.058885533
000320 f4 fa 2f 3d 08 2f 1b bd de 19 d7 3c f1 d0 03 bd
       0.042963937 -0.03788665 0.026257452 -0.032181684
000330 f0 87 1f 3d 9c ce ef 3c fb 7a 30 3c 06 d9 46 bd
       0.038948 0.029273324 0.010771508 -0.048546813
000340 dd 83 fb bc 7c 29 22 bd e0 42 57 3d 82 9a 4e 3d
       -0.030702526 -0.039590344 0.05255401 0.05044032
000350 26 6e 37 bd f8 76 d8 3c 9d 1e 4d 3b 99 34 2a bd
       -0.04478278 0.026423916 0.0031298765 -0.041554067
000360 e5 44 44 3d 7d 5f 4a 3d f1 9d 37 3d e1 41 c8 3c
       0.047917265 0.04940747 0.04482836 0.024445476
000370 83 34 12 3c aa 26 7f bc 9a eb 47 bd 89 c8 fc bc
       0.008923653 -0.015573183 -0.04880867 -0.030857341
000380 49 02 63 3b e0 ba 21 3c 85 a6 69 3c 68 1f 54 3c
       0.0034638813 0.009871215 0.014260893 0.012946941
000390 c4 d3 5a bd fa 61 48 bd 9e 82 91 3c 14 00 81 bc
       -0.05342461 -0.048921563 0.017762478 -0.015747108
0003a0 15 7e 29 3d 16 c8 87 bc aa 1d ef bc 44 ad 00 bc
       0.041380007 -0.0165749 -0.02918895 -0.00785381
0003b0 49 46 59 bc 51 59 5d bc 7a 40 67 bd 4f e8 c6 bc
       -0.013261386 -0.013510064 -0.056457974 -0.024280695
0003c0 70 8e 7d bd 54 b3 23 bd fe 8e 7b bc fd c3 bd ba
       -0.061903417 -0.039965943 -0.015353916 -0.0014477965
0003d0 d7 01 9a 3c d7 88 fc bc 7e b0 3e 3d ac e0 7f bc
       0.018799705 -0.03082697 0.046555035 -0.015617531
0003e0 f4 a6 1f 3d e9 a9 62 3d 72 66 d8 bc cd 2f c9 bc
       0.03897758 0.05533782 -0.026416037 -0.024558926
0003f0 c7 28 54 bc 4d 2a 0a 3c 81 c6 64 3d a4 0a 1c 3d
       -0.012949175 0.008432937 0.05585337 0.038096085

fc2.bias f4 [300]
000000 82 8c 3e ba e9 76 e2 3b 7b 1c 8e ba 61 82 9d bc
       -0.0007268862 0.006911148 -0.0010842228 -0.019227209
000010 29 c3 1b bd 6e 1f 56 3d 6b 13 2d bd ce 21 c2 bc
       -0.038027916 0.052276067 -0.042254847 -0.02369776
000020 4b ff 87 3c bd 02 f8 bd bc ec 11 3d ed e4 b2 bc
       0.016601225 -0.12109897 0.035626158 -0.021837676
000030 e8 f5 70 bd a2 ab 9d bb 0e 96 8c bd 06 2e 3e bd
       -0.058828264 -0.00481172 -0.06864558 -0.04643061
000040 83 b4 c4 bb 2f 95 b8 ba cf 50 b7 bc d4 7d b8 bc
       -0.006002964 -0.0014082546 -0.0223774 -0.022520937
000050 40 b6 8f bd 94 2d 85 bd 17 86 eb bb 7d 6a ee bc
       -0.07017183 -0.06502834 -0.0071876156 -0.029103512
000060 bf 1f c8 bc 4a 2e 51 3c ac dc da bc 66 e9 a0 bd
       -0.0244292 0.012767384 -0.026716553 -0.07857017
000070 94 fe 27 bd a2 93 3a bc 5f 55 32 3d 54 bd 2a bd
       -0.04101427 -0.0113877375 0.043538447 -0.041684464
000080 a1 22 5f 3d 96 08 22 bd fd 9c e6 3b 7b 7b 3a bd
       0.054476384 -0.03955897 0.0070377574 -0.045527916
000090 79 7c 9c bc 56 63 72 bb 69 78 e0 bd 9b 1f 50 bd
       -0.019102322 -0.0036985478 -0.109604664 -0.05081139
0000a0 73 af 5f bd 5f c7 4f bd b2 77 12 bc ec 66 b4 bd
       -0.05461068 -0.050727244 -0.00893967 -0.08808693
0000b0 f8 4b 92 bd cc 75 1c bd 43 9d 1d bd c7 37 81 bd
       -0.07143396 -0.038198277 -0.038480055 -0.06309467
0000c0 e2 79 73 bd 6f e0 39 bd c0 97 ff bc 7b d2 f1 bc
       -0.05944241 -0.045380052 -0.03120029 -0.02951931
0000d0 3d e2 88 bd 0b 60 9c bd 9a 4c af bd 22 75 ef bc
       -0.066837765 -0.07635506 -0.085595325 -0.029230658
0000e0 14 1e 8e 3b 77 db c5 3c 8f 75 1c bd 5d 9c 3f bd
       0.0043370817 0.0241525 -0.03819805 -0.04677998
0000f0 7a 97 05 3d b0 d9 6a bd c8 d6 cc bd c7 7a 4c bd
       0.032615162 -0.05733651 -0.10001904 -0.049921777
000100 f3 53 b6 bd 0f 8d eb bc 34 a3 93 3b 1b 19 26 bd
       -0.08902731 -0.028753785 0.0045055393 -0.040551286
000110 12 6f 87 bc 01 4a f6 3c 77 62 23 bb 05 bb 28 bd
       -0.016532455 0.030064585 -0.0024930516 -0.04119398
000120 cb 09 5f bd 1e a6 1d 3a 99 1a d3 3c c4 6f 8f 3c
       -0.0544527 0.0006013828 0.025769519 0.017509349
000130 eb a2 8c bd 92 c4 04 bd 32 c3 8f bb f1 26 22 bd
       -0.06867012 -0.032414027 -0.0043872828 -0.03958792
000140 92 40 ac bc 92 45 80 bd d7 98 7f bd fe 51 dc bd
       -0.021026883 -0.062632695 -0.06240162 -0.10757826
000150 70 65 1c bd a7 cb 7f bd 36 14 ce bc ff 56 09 bd
       -0.038182676 -0.062450077 -0.025156122 -0.03353023
000160 09 70 a3 bd 6e 2d bb bc 85 d5 4b bd ff 06 2e 3b
       -0.079803534 -0.022848811 -0.049764175 0.0026554463
000170 f7 0a b2 bc f9 85 da bd fb 1c 92 bd 90 fc ba 3b
       -0.021733744 -0.106700845 -0.07134434 0.0057063773
000180 d7 c0 8e 3c 47 8d d7 bd 6e c9 e0 bc 00 7e f4 3c
       0.017425938 -0.105249934 -0.0274398 0.029845238
000190 59 79 c8 bd 0f a3 98 bd 9b f2 ea bc d0 5e 94 bd
       -0.0978877 -0.07452976 -0.028680136 -0.072446465
0001a0 4f 49 ab bc f3 1a cd b8 2b 82 0d be 47 4d 25 bd
       -0.02090898 -9.7801814e-05 -0.13819186 -0.0403569
0001b0 36 06 a9 3c 84 82 1f bd 66 f0 9b bc 58 5b f2 bc
       0.020632844 -0.03894283 -0.01903553 -0.029584572
0001c0 3b 9f 51 3a 83 13 23 bc d3 dc cf bc 82 09 a7 bd
       0.00079964445 -0.009953382 -0.025373852 -0.0815611
0001d0 10 e7 45 3d 63 44 f1 ba 2a f9 fe 3c e4 2e ee bc
       0.04831606 -0.0018407222 0.03112467 -0.029075094
0001e0 8e 88 92 3c 20 54 63 bd f2 49 b5 bd cc 2e 6c bc
       0.01788738 -0.05550015 -0.088519946 -0.014415454
0001f0 db 6c a9 bc ca 74 81 bd 51 0f 76 bd d3 33 5b bd
       -0.02068179 -0.06321104 -0.0600732 -0.05351622
000200 99 9f 2b 3a 7b 90 d5 3c 13 7b 3a 3d f2 09 3b bd
       0.0006546914 0.02606987 0.04552753 -0.04566378
000210 31 e8 2b bd e8 4b 23 bd 72 25 a4 bd 39 33 19 3d
       -0.04196948 -0.03986731 -0.080149546 0.037402365
000220 c4 0f e2 3c ab 68 18 be a8 db a7 ba ff 24 0a bd
       0.027595408 -0.14883678 -0.0012806552 -0.03372669
000230 0f 70 ad bb 93 6c 9b 3b b9 13 d9 bc 63 cc a8 bc
       -0.0052928994 0.0047431677 -0.026498662 -0.020605272
000240 0a f8 12 bd 78 e7 18 3d 0a 9e 41 bd 1d 6b 61 bd
       -0.03588108 0.03733012 -0.04726986 -0.05503379
000250 19 66 16 be 51 ed 10 bd 34 75 34 bd af 5a 67 bc
       -0.14687385 -0.035382573 -0.044057086 -0.014120742
000260 7a 2f a3 bd 23 71 32 bd aa ed 00 bd 4c 8d 9a bd
       -0.0796804 -0.043564927 -0.031476654 -0.075464815
000270 f2 39 b0 bd b1 a4 df bc f1 eb d7 3c 8c 6d 52 bc
       -0.08604802 -0.02730021 0.026357623 -0.012843501
000280 7e 82 a9 bd a7 e3 b9 bd 28 60 99 bc ac d2 07 bc
       -0.082768425 -0.09076624 -0.018722609 -0.008289974
000290 8d da 07 bc 75 57 8a bd d6 2e 17 3c 8f ec 89 bd
       -0.008291853 -0.06754962 0.009227475 -0.06734573
0002a0 9e 36 87 bc a5 b9 e0 bb 72 66 81 3c 94 d8 c7 bc
       -0.016505536 -0.006858068 0.01579592 -0.024395265
0002b0 a6 15 3d bd 33 91 93 bb 9f 4e 9e bd 59 25 78 bc
       -0.046163224 -0.004503393 -0.077298395 -0.015145623
0002c0 25 88 9d bc eb 3b d0 3c ca 18 10 bd 87 10 92 bd
       -0.019229958 0.025419196 -0.03517989 -0.071320586
0002d0 04 7b 28 3d bc 95 91 3c bf 39 af bb 11 4f a3 3c
       0.04113294 0.017771594 -0.00534746 0.019935163
0002e0 7b 9f 6a 3c 3c 2f 20 3d ad 65 1b bd c2 31 0a bd
       0.01432025 0.039107546 -0.037938762 -0.03373886
0002f0 aa 27 a4 3c 4f 99 5c bd 4b 36 fb bb b2 b8 c5 bc
       0.020038445 -0.053857144 -0.0076663843 -0.024135921
000300 9b c9 01 3c 81 57 67 bd 97 e1 b6 3c 8e b9 f1 bc
       0.007921602 -0.056479935 0.022324366 -0.029507425
000310 54 47 f8 bc 12 84 88 3c 1e 69 a3 bc ae 43 cc bc
       -0.03030745 0.016664539 -0.019947585 -0.024934616
000320 74 42 1f 3c 5d e2 2d 3b e4 51 6b bd dd 55 2e 3c
       0.0097204335 0.0026532628 -0.057451144 0.010640589
000330 5e 00 4f bd c0 9c 93 3b 02 c2 8f bc e1 a1 52 bd
       -0.05053746 0.00450477 -0.017548565 -0.05142391
000340 23 67 ec bc 9e 16 49 bb c0 46 9d bd 0c 4e cb 3c
       -0.028857773 -0.0030683647 -0.0767951 0.02481749
000350 ca c8 57 bb 91 50 99 bd 2a 3b a3 bc 8b 16 f5 39
       -0.0032926076 -0.0748607 -0.019925673 0.00046746837
000360 aa 2c 15 bd 79 f6 9d 3c c3 89 a4 bd 82 18 5a bd
       -0.036419548 0.019282566 -0.080340885 -0.05324603
000370 a2 4f 94 bc 02 d7 dd bc ee 3a 9c bc b5 3f 91 3c
       -0.018104378 -0.027080063 -0.019071069 0.017730573
000380 47 cb 48 bc 28 00 c2 bd fe 51 2d bd 35 7f df bc
       -0.012255496 -0.09472686 -0.042314522 -0.027282337
000390 c1 2e ce bc 37 6b c7 bd dc f5 53 3c 8e 17 8d bd
       -0.025168778 -0.097372465 0.012937035 -0.06889258
0003a0 03 aa f7 bc 7b 4d 92 3c f8 1f 42 3d ce f9 b7 bc
       -0.030232435 0.017859211 0.04739377 -0.022457983
0003b0 9b 61 a7 bd ba 7f b4 bc e6 fb a1 bc de 92 14 bd
       -0.08172914 -0.022033561 -0.019773435 -0.036272876
0003c0 b4 ab bb bd cf 2d 9e 3c 48 e4 87 bc 48 ea d6 bd
       -0.09163609 0.019308953 -0.016588345 -0.10493904
0003d0 6b 37 c2 bc 3e 32 1e bd 71 0c 24 3d 0a f8 e3 bb
       -0.023708066 -0.038622133 0.040050928 -0.006957059
0003e0 bf 60 45 bd 0a 00 d5 ba df 23 ab bd d6 e3 11 bd
       -0.048187967 -0.0016250622 -0.08356451 -0.035617672
0003f0 a5 31 9d 3c 48 9f 06 3d 04 fc 2b bd 63 9a 66 bc
       0.019188711 0.032866746 -0.041988388 -0.014074895

fc3.weight f4 [2, 300]
000000 ff 58 8f b9 e4 71 11 3a 5e b2 c1 ba ab 71 a9 ba
       -0.00027341393 0.0005548282 -0.0014777889 -0.0012927552
000010 7f db 3e 3b a7 6a be 38 ec 06 2d 3b 19 d4 14 bb
       0.002912253 9.0797716e-05 0.002640183 -0.0022709428
000020 d5 99 4b bb b8 96 ca 39 17 62 9e 3b 7b bd 5e 3b
       -0.0031067033 0.00038640737 0.0048334706 0.003398745
000030 f8 bc 0d 3a 71 11 13 ba 64 e6 39 3b dc 50 c3 3a
       0.00054068817 -0.0005610204 0.0028366083 0.0014901417
000040 bc f9 bf 39 85 a2 8d 3b 00 8b 88 bb 2d 06 b8 3a
       0.00036616425 0.0043223524 -0.0041669607 0.0014039926
000050 51 28 f9 3a 54 8d ef ba ad 54 64 bb cd ec 0d 3b
       0.0019009208 -0.0018276372 -0.003484051 0.0021656037
000060 f3 4f 24 3b cf a4 4a 37 d0 0a 6f bb 34 df 97 bb
       0.0025072068 1.2078511e-05 -0.003647495 -0.004634762
000070 00 09 38 bb 40 4e ea 3a a7 83 25 b9 cf e9 d1 ba
       -0.0028081536 0.0017876104 -0.0001578467 -0.0016015115
000080 86 46 fd ba 17 4f 65 39 70 97 83 38 9a fd e2 3a
       -0.0019323386 0.00021868605 6.274774e-05 0.0017318011
000090 bc 45 24 ba 7e 25 93 3a 1b 3b 41 3a 5e cb 3e bb
       -0.0006266495 0.0011226384 0.0007371173 -0.0029112916
0000a0 e5 e9 9b 3b c5 2d 60 3b c3 da ae bb de 34 77 b9
       0.004758107 0.0034206968 -0.005336137 -0.0002357545
0000b0 69 fd 19 ba b9 c8 57 3a 47 c1 70 bb 66 5a 3a bb
       -0.0005874248 0.0008231509 -0.0036736296 -0.002843523
0000c0 7a 67 8e ba de 4c 47 bb 69 aa aa bb e6 58 4b 3b
       -0.0010864579 -0.0030410807 -0.0052083028 0.003102833
0000d0 16 04 d2 39 b5 9c 8b bb b1 96 8b 3b 02 1a 01 3a
       0.00040057366 -0.0042606243 0.004259907 0.0004924835
0000e0 7d 6a c8 3a 42 ae 71 bb b3 cf c6 3a 78 b3 8e bb
       0.0015290525 -0.0036877547 0.00151681 -0.0043548904
0000f0 ff 3d 4b 3b b0 6c a1 38 85 b8 23 3b 34 8f 2f bb
       0.0031012294 7.697323e-05 0.0024981808 -0.0026788237
000100 63 7c 93 3a 12 51 8c ba 81 8c 98 3b 82 a1 91 3a
       0.001125228 -0.0010705313 0.0046554212 0.0011110755
000110 4b 41 9d bb d1 0d 81 bb 9f 68 3d 3b 4a 61 b8 3a
       -0.0047990433 -0.0039384146 0.002890147 0.001406708
000120 4f ee 14 bb 1f 37 b2 ba 24 7b f4 ba 96 1e 2c bb
       -0.002272505 -0.001359675 -0.0018652421 -0.0026263348
000130 58 82 aa 3a d8 3a 0f 3a 3f 3f dd 3a 2a 86 83 bb
       0.0013008816 0.00054637855 0.0016879811 -0.0040137963
000140 41 ac 84 3a 28 8e 49 3b 09 74 66 3b e5 26 3c ba
       0.0010122136 0.0030754898 0.0035164377 -0.00071774266
000150 a7 29 d1 ba 45 a0 1e 3b 11 53 bf ba 2e 54 89 3a
       -0.0015957848 0.0024204415 -0.0014596899 0.0010477358
000160 ae c0 a2 3b c1 a1 0a 39 40 8f 8b bb 72 27 67 ba
       0.004966817 0.00013220964 -0.00425902 -0.00088178285
000170 9d 4e 0b ba cb 20 8b 39 21 eb 36 3b c3 ae 73 ba
       -0.00053141435 0.0002653658 0.0027911144 -0.0009295756
000180 bc 25 a5 3a aa b5 ac 3b 8a ec 7f ba b2 86 db ba
       0.0012599747 0.0052706795 -0.0009762725 -0.0016748516
000190 d6 11 5a ba 59 4b 59 3b 84 4f fb 3a 9a d4 92 39
       -0.0008318698 0.0033156483 0.0019173478 0.0002800569
0001a0 de 49 77 b9 78 e2 d4 ba 82 b6 73 39 ad 87 19 ba
       -0.00023583273 -0.0016241809 0.00023242275 -0.0005856704
0001b0 ab 77 87 bb 73 b0 9c ba 0e ff 5c bb a7 3e bc b9
       -0.0041341386 -0.0011954441 -0.003372136 -0.00035904834
0001c0 f5 58 41 ba 8d bc bc b9 3b c7 ce 39 07 97 8e 3a
       -0.00073756214 -0.00035998636 0.0003943982 0.001087875
0001d0 de 9e 17 3b 6c 04 82 3b b6 4a 35 bb d2 ff d0 bb
       0.0023135464 0.0039678123 -0.002766294 -0.0063781524
0001e0 93 95 d7 ba 90 53 9a 3a 76 54 1d bb 66 95 03 3c
       -0.0016447775 0.0011774171 -0.0024006641 0.008031225
0001f0 60 86 d2 3b 1a 5f 00 ba 11 ec 3a ba 01 94 03 bb
       0.00642471 -0.0004896984 -0.00071305135 -0.002007723
000200 13 61 77 3a 6f 82 b9 bb 40 47 2e bb c7 29 d1 b9
       0.00094367674 -0.005661301 -0.0026592761 -0.00039894713
000210 f5 89 8b 3a da 4a e2 3a e2 11 da ba 51 02 81 ba
       0.0010645973 0.0017264739 -0.001663741 -0.0009842609
000220 3e 7d 6e bb 00 55 42 bb 26 58 86 3a 9b d9 2b bb
       -0.0036390568 -0.0029652715 0.0010249659 -0.0026222232
000230 aa 86 84 3b 59 47 8d 3a 2e d6 ed bb 2d 80 46 3a
       0.0040443735 0.001077871 -0.007258198 0.00075722
000240 bf 14 b4 3a 5d b4 96 b9 05 4f 08 3b c9 ca 10 bb
       0.0013739093 -0.0002874461 0.0020799052 -0.0022093526
000250 b1 64 7a 3b 68 3b 88 39 06 50 ed bb 90 ce 27 bb
       0.003820699 0.00025984203 -0.0072422056 -0.0025605299
000260 f0 40 98 39 cf 38 08 bb 57 dd b1 3a a3 2b 20 3b
       0.0002904008 -0.0020785814 0.0013569993 0.0024440072
000270 b9 d3 67 bb 78 c7 31 3b 36 e8 90 ba 1e d7 10 3b
       -0.0035374 0.002712695 -0.0011055532 0.0022100876
000280 67 1c c3 ba b8 fb 51 bb 06 fd 8c ba 92 85 8a 3a
       -0.0014885784 -0.0032040905 -0.0010756559 0.0010568372
000290 99 fb 96 3b 75 9e 06 bb 29 8e 21 bb 73 a4 ab ba
       0.0046076295 -0.0020541225 -0.0024651384 -0.0013095274
0002a0 43 62 80 ba c4 94 33 ba d2 71 97 ba a0 de 11 bb
       -0.0009794909 -0.0006850476 -0.0011554307 -0.002225794
0002b0 bf c6 a0 ba 8c fe 4c ba 8a da ca 3a 93 30 cb 3a
       -0.0012266262 -0.0007819913 0.0015476507 0.0015502147
0002c0 68 7c e6 ba 3d b4 db 39 c6 18 02 bb 4a 72 16 3b
       -0.0017584683 0.00041905223 -0.0019851192 0.0022956305
0002d0 4e 7d f1 39 73 2d 0f ba ba b5 92 ba 2b 87 24 bb
       0.0004606046 -0.00054617896 -0.0011193075 -0.002510498
0002e0 9b 77 d3 3a 29 be 26 39 e9 7c 41 b7 9c 4a 3c ba
       0.0016133668 0.00015901834 -1.1532779e-05 -0.00071827485
0002f0 db 1c f1 38 c0 84 d0 b9 45 a1 9c 3b 6c 70 b7 3b
       0.0001149715 -0.00039771758 0.004779967 0.0055981185
000300 de b9 0a bb a3 1e 12 b9 45 c5 d7 3a 52 f3 76 3b
       -0.0021167914 -0.00013935058 0.0016461989 0.0037681651
000310 60 0d f7 39 7f 7b 88 bb 62 39 a5 bb de d7 3b 3a
       0.00047121476 -0.0041651125 -0.005042241 0.00071656506
000320 8b 87 d9 b9 6a 73 ae ba d5 72 2e 3b 32 1a 99 bb
       -0.00041490453 -0.0013309543 0.0026618738 -0.004672312
000330 36 74 56 3a f6 ac 24 3a 8f 48 3f bb d9 4e ad 3a
       0.0008180769 0.00062818767 -0.0029187535 0.0013222351
000340 d5 41 2f 3a ff cb 23 ba 2b ad fa ba f5 17 17 bb
       0.000668553 -0.00062483543 -0.0019125094 -0.002305505
000350 78 de 42 3b 92 03 91 bb 8a b9 a9 3a 69 25 a5 bb
       0.0029734652 -0.0044254744 0.0012948972 -0.00503986
000360 1a d5 5c 3b 03 de c6 3a 33 60 0a bb 7e 08 e8 3a
       0.0033696354 0.0015172366 -0.0021114468 0.0017702726
000370 3c dc 68 3a db d1 f1 b8 7d 9f 04 3c f0 85 ae bb
       0.0008882915 -0.00011530864 0.008094666 -0.005326025
000380 35 d9 a1 bb ef d1 66 3a f3 62 38 bb ff fe 5c 39
       -0.004939223 0.0008805086 -0.002813515 0.00021075828
000390 64 e4 ca 3a 5a 95 50 3a 72 3a 54 ba 77 9b 58 bb
       0.0015479443 0.00079568254 -0.0008095867 -0.0033051649
0003a0 d2 88 c5 3a 35 93 5c bb 14 e5 11 3b fe a3 47 b9
       0.0015070683 -0.0033657078 0.0022261785 -0.00019039211
0003b0 ac 82 10 38 78 e6 16 bb 32 bb 95 3a d0 e9 93 38
       3.4453973e-05 -0.0023025554 0.0011423586 7.053057e-05
0003c0 55 26 01 bb 45 06 2d bb be a4 b9 ba 66 53 b5 3a
       -0.0019706686 -0.0026401442 -0.0014163477 0.0013834059
0003d0 20 ef 14 bc 03 f1 96 b9 88 b5 1f bb 44 53 28 3c
       -0.009090215 -0.00028789797 -0.0024369676 0.010273758
0003e0 32 57 1c ba 99 8e 86 ba cd 81 c7 3a 6f d6 8a b6
       -0.0005963921 -0.0010265886 0.0015221179 -4.137684e-06
0003f0 a4 f3 87 3a 39 75 7d bb 6e 1a 94 b9 3d 19 58 bb
       0.0010372293 -0.0038674606 -0.0002824845 -0.0032974028

fc3.bias f4 [2]
000000 03 23 ae 3c 89 c4 c4 3d
       0.02125693 0.096077986

bn1.weight f4 [400]
000000 26 24 e4 3e df 44 d6 3e b8 37 f4 3e b3 7d 21 3e
       0.4455883 0.4184942 0.4769876 0.15770607
000010 16 82 21 3e bf be 68 3d 80 40 0d 3e c1 97 29 3f
       0.1577228 0.056822535 0.13794136 0.66247183
000020 58 26 fa 3e 6d 44 f9 3e 90 78 10 3f 22 0c ce 3e
       0.4885738 0.48685017 0.56433964 0.40243632
000030 00 e7 30 3f 86 4f 0d 3f 74 79 2d 3f 53 56 17 3f
       0.6910248 0.5519947 0.6776345 0.59116095
000040 85 fd e1 3c ce 67 51 3e 9e b1 5b 3f 6f 63 35 3f
       0.027586708 0.20449755 0.858179 0.7085485
000050 e8 84 4e 3f 08 83 b0 3e cc e6 d3 3e bb c0 81 3d
       0.8067155 0.3447497 0.41387022 0.063355885
000060 6e 50 4e 3f 33 1c eb 3e 6b 24 bb 3e 5d 6f 8a 3e
       0.80591476 0.45919952 0.36551222 0.27038088
000070 a9 88 29 3f 9f a4 44 3f 92 d9 27 3f dd db 3c 3f
       0.6622415 0.7681369 0.6556636 0.73772985
000080 ca 35 08 3f 7f 94 24 3f 16 d6 9a 3d 58 7a 67 3f
       0.53207076 0.6428909 0.07560365 0.90421057
000090 9c 30 16 3f 5d b8 7e bc af eb e8 3e 3e 5e 49 3f
       0.5866792 -0.015546885 0.45492312 0.7865943
0000a0 ec 36 02 3f 3f b7 61 3f f8 d2 c0 3e 69 0e 16 3f
       0.50865054 0.88170236 0.37660956 0.5861574
0000b0 3b 36 06 3f da 1d 20 3f 72 9b 74 3f 12 39 c3 3e
       0.524265 0.6254555 0.9554969 0.3812948
0000c0 e5 15 14 3f 32 70 e3 3d 55 d6 2a 3e 65 32 40 3f
       0.5784591 0.11105384 0.16683324 0.75076896
0000d0 78 ab 3f 3f fd c3 53 3e 81 6e d3 3e 11 20 43 3f
       0.74871016 0.20680232 0.41295245 0.76220804
0000e0 b8 35 73 3f c3 9b 43 3f 66 6d 7a 3f 98 3f d4 3d
       0.95003843 0.7640955 0.9782318 0.10363692
0000f0 3d 62 38 3f 27 20 c0 3e 73 3c 65 3e a5 4c 5b 3e
       0.720249 0.3752453 0.22386341 0.21415956
000100 72 34 17 3f b8 c1 70 3f 56 57 f3 3e e4 6f 02 3f
       0.590644 0.9404559 0.4752757 0.5095198
000110 1b 32 30 3f f6 10 0b 3d 89 d6 53 3f f3 51 08 3e
       0.68826455 0.033951722 0.8274923 0.13312511
000120 9c 5c fd 3e be 44 0d 3f 19 5c 56 3e 53 62 c8 3e
       0.49484718 0.5518302 0.2093357 0.39137515
000130 93 d7 8a 3d 21 2f 8f 3d 14 87 4a 3e 90 b2 bf 3e
       0.06779399 0.06991411 0.1977809 0.3744092
000140 73 91 26 3f 4b 19 42 3f 7f 57 17 3e 48 fa b8 3e
       0.6506569 0.75819844 0.14779471 0.3612845
000150 4e 9f 54 3f 8b bd 4c 3f 4a bf 1a 3f bb e9 20 3f
       0.8305558 0.7997672 0.60448134 0.62856644
000160 22 e7 00 3f f9 a4 a1 3c 63 d0 47 3f d4 0f 6f 3f
       0.5035268 0.019731985 0.7805235 0.93383527
000170 a0 43 55 3f 40 71 0d 3f 0f 84 6a 3f db cb 51 3f
       0.8330631 0.5525093 0.91607755 0.81951684
000180 fa 61 e0 3e 33 76 61 3f 7a 33 44 3f 9e 0c 07 3e
       0.4382475 0.8807098 0.76641047 0.13188407
000190 64 15 39 3f b0 56 46 3f db 83 95 3e 7e 71 21 3f
       0.72298265 0.77476025 0.2920216 0.630638
0001a0 be ce 3e 3e 0d dd 0e 3f 93 2c 0f 3e 16 2d 35 3f
       0.18633553 0.55806047 0.13981847 0.7077192
0001b0 44 fc 35 3f 2a c8 e6 3d 3b 00 f8 3d fd 4e 83 3e
       0.7108805 0.11268647 0.12109419 0.256462
0001c0 18 29 75 3f f9 f5 d3 3e db be c4 3e cd 2d 08 3f
       0.9576583 0.413986 0.3842686 0.53194886
0001d0 8f 4e 2b 3f 0f 98 26 3f 34 b7 57 3d 34 0f 84 3e
       0.66916746 0.65075773 0.05266495 0.2579285
0001e0 23 07 63 3f 90 1b f5 3e 03 22 90 3e 73 4e 49 3f
       0.88682765 0.4787259 0.2815095 0.7863533
0001f0 71 c0 68 3f 10 bc 81 3e 16 e9 83 3e 2e c4 ce 3d
       0.9091864 0.25338793 0.25763768 0.10096012
000200 f0 37 00 3f 78 7f ea 3e 75 78 31 3f 16 85 42 3f
       0.50085354 0.45800376 0.6932443 0.75984323
000210 d6 df 44 3f 47 06 1a 3e 3f 5c 4a 3e f0 fe 2d 3f
       0.76904047 0.15041457 0.19761752 0.6796713
000220 31 5b 21 3f 91 f1 6d 3f 9a 9c 86 3e d7 4b 75 3f
       0.6302977 0.92946726 0.26291353 0.9581885
000230 f6 82 5f 3f 51 5a 35 3f 95 8f b1 3e 52 ac 88 3e
       0.87309206 0.70840937 0.34679857 0.2669397
000240 15 27 07 3f 1a 5c 35 3f c3 7a b4 3e b4 e4 3f 3e
       0.5279401 0.7084366 0.3524991 0.18739587
000250 71 1b 66 3e e1 02 4e 3f e9 2a 2c 3f af ec 49 3f
       0.22471406 0.8047314 0.67252976 0.78876776
000260 0a a6 70 3f 35 e2 be 3d dc b0 64 3d 7a f1 72 3f
       0.94003356 0.09320489 0.05583273 0.94899714
000270 ff b9 92 3e a4 93 6f 3f 12 35 15 3f e1 bb 43 3f
       0.2865753 0.93584657 0.58284104 0.76458555
000280 32 51 63 3f 0f 19 97 3e f2 36 e5 3e 54 00 5e 3f
       0.8879577 0.29511306 0.44768482 0.8671925
000290 1e 3d c3 3e bb ad 1a 3e 4f 3f 34 3f 15 de 42 3f
       0.38132566 0.15105335 0.704091 0.7612012
0002a0 52 24 dd 3d 84 69 56 3f 8a 82 3a 3f 74 cf 6e 3f
       0.10797943 0.83754754 0.72855437 0.932853
0002b0 29 cf 2a 3f f1 47 e6 3d 0e 77 50 3e 3c 75 cd 3e
       0.6672235 0.112441905 0.20357916 0.40128505
0002c0 86 56 62 3d fc 5e 73 3f 3a 55 d8 3d 38 bb 0a 3c
       0.055258296 0.9506681 0.10563131 0.008467488
0002d0 38 46 1c bc 5a ba 17 3e 65 17 c5 3e 6c 4d 7e 3f
       -0.009538226 0.14817181 0.3849441 0.99336886
0002e0 f4 90 1b 3f 1c b6 5f 3f 78 8d 44 3f 21 17 03 3f
       0.60768056 0.8738725 0.76778364 0.51207167
0002f0 f4 9e e8 3e 15 68 3a 3f a0 73 12 3f 2d 7c 38 3f
       0.45433772 0.72815067 0.5720768 0.7206448
000300 45 f6 79 3f 73 70 eb 3e 46 0e 48 3f 08 5e 69 3f
       0.976414 0.4598423 0.7814678 0.91159105
000310 ed b8 ab 3e c4 4d 8e 3e 7b 7c 3a 3f 4e ce f8 3e
       0.33539525 0.27793705 0.7284619 0.48594898
000320 b4 25 0e 3e 20 60 51 3f 1c c4 11 3f 57 52 a7 3e
       0.1388157 0.817873 0.56939864 0.32680008
000330 ac 34 36 3f 73 e5 55 3e 02 11 0b 3f 45 df d8 3e
       0.7117412 0.20888309 0.54322827 0.4235784
000340 ce 00 3f 3f dd bc 2c 3f f7 5e eb 3e 0e 6f 2a 3e
       0.746106 0.6747568 0.4597089 0.16643927
000350 9c 28 43 3f 32 b2 d7 3e 9f 51 fa 3e 89 59 c7 3e
       0.7623384 0.4212814 0.48890397 0.38935497
000360 77 1a 96 3e db 79 d5 3e b9 e5 49 3f 25 b5 61 3f
       0.29317066 0.4169453 0.78866154 0.8816703
000370 a3 84 06 3f 48 cf 86 3d c3 8f 0f 3f 03 25 0d 3f
       0.5254614 0.065825045 0.5607874 0.551346
000380 27 fb 16 3e 8d 1f 0a 3f 7f 13 79 3e da d2 18 3d
       0.14744245 0.5395439 0.24323843 0.03731046
000390 34 83 a2 3d 15 b3 a9 3d f4 cd 02 3e 69 18 4e 3e
       0.07935181 0.0828611 0.12773877 0.20126499
0003a0 95 42 0b 3f b6 73 6c 3f df 5f 1d 3f 70 8d 0d 3f
       0.5439847 0.9236406 0.6147441 0.5529394
0003b0 8c 47 e2 3d 7a 9a 86 3e d5 1e fc 3d 1b ec 41 3f
       0.11048803 0.2628973 0.12310568 0.75750893
0003c0 fd 55 69 3f 34 ac 18 3e 78 6a e4 3e e3 b8 45 3f
       0.9114683 0.1490944 0.4461248 0.7723524
0003d0 11 54 0f 3f 4a 71 ab 3c 04 b1 0d 3e ca 11 7b 3e
       0.5598765 0.020928044 0.13837057 0.24518505
0003e0 5d cc b1 3e 81 97 26 3f f5 68 22 3f 81 3a 46 3e
       0.3472623 0.65074927 0.634414 0.19358255
0003f0 65 ff 31 3f 48 3a 80 3f 99 c8 73 3e 42 7c 12 3f
       0.69530326 1.0017786 0.2380699 0.5722085

bn1.bias f4 [400]
000000 0b e1 ee bb 66 3b 5d bc 86 e3 00 bb c0 b6 85 3d
       -0.007290011 -0.013502931 -0.0019666865 0.065289974
000010 60 ba a1 3d 0c a0 48 3d c2 be 7a 3c e0 64 96 3c
       0.07896876 0.048980758 0.015304269 0.018358648
000020 fa 10 87 3c 9d be a6 3d b1 0c 34 3d e0 62 00 3d
       0.016487587 0.08141825 0.043957416 0.031344295
000030 e7 00 9e 3d 20 f2 10 bd b1 f1 02 3d e0 a0 18 3d
       0.07715016 -0.03538716 0.031968776 0.037262797
000040 e6 56 b4 bb 70 cb 93 3c 29 2d 06 bd 5a f9 07 3e
       -0.005503523 0.018041342 -0.03275791 0.13278714
000050 7d 71 95 bd 10 ce 05 bd f0 30 86 3c 77 e3 36 be
       -0.07297037 -0.03266722 0.016380757 -0.17860208
000060 cf 48 1d bb 5d 53 01 3d 31 9e 57 bd b1 fe d4 3c
       -0.0023999696 0.031573642 -0.052641097 0.026000353
000070 74 d3 99 3d 93 7a e2 3c 9f e2 69 3b 0e 83 a0 bc
       0.075110346 0.027646339 0.0035688055 -0.019593742
000080 0e f8 93 bc ab 81 3c bd 99 b8 70 bc 65 19 25 3e
       -0.018062618 -0.0460221 -0.014692449 0.16122968
000090 86 34 28 bd 9e 01 6c bd 0c 7c 15 bd 73 1e a1 3c
       -0.041065715 -0.05761873 -0.036495253 0.01966784
0000a0 68 75 f2 3c ae 8c b6 3d 7e a1 b6 bc fa c6 5f bd
       0.029597 0.08913551 -0.022293802 -0.05463312
0000b0 87 3b 7f bd 22 73 6b bc 87 34 8a 3d cc 9b 5c bd
       -0.06231263 -0.0143707115 0.067483 -0.053859517
0000c0 f6 e1 90 3d dc b8 50 3d 45 3d 39 bd 88 10 8e 3d
       0.07074349 0.050957546 -0.045224447 0.06936747
0000d0 f6 da 3c bd 62 4f 39 3d f6 22 e4 3d e1 58 27 3c
       -0.046107255 0.04524172 0.11139481 0.0102140615
0000e0 6d 89 12 3c 93 cd f5 3d e2 90 c5 3a 48 8a eb 3d
       0.008943898 0.12002101 0.0015073086 0.115009844
0000f0 d1 2e ca 3c 48 07 b1 3d a2 5b 27 3d b3 3c ed 3d
       0.024680527 0.08643967 0.040858872 0.11583843
000100 4a 51 ff 3c 75 bd ca bc 73 45 e7 bc 1e d9 85 3d
       0.031166691 -0.024748543 -0.028231358 0.065355524
000110 b9 fb 45 3d 16 0d 45 bd ea 6e f9 3c ae 44 ec 3d
       0.048335765 -0.048108183 0.030448396 0.11536537
000120 29 d4 64 3d 39 30 28 3b 21 1f f4 3c 05 e9 19 3e
       0.055866394 0.0025663509 0.0298 0.15030296
000130 a1 d3 9b bc 33 d6 cf 3d 23 e0 a3 3b de bf 19 bd
       -0.019021811 0.10148277 0.0050010844 -0.037536494
000140 31 2c d2 3d ba 3b 71 bc 03 6f d3 bc eb da 9f bd
       0.10262335 -0.014723713 -0.02580977 -0.07805427
000150 58 7b 88 3d 70 3c d7 bb af 80 c7 3d e9 38 81 3d
       0.06664151 -0.006568484 0.09741341 0.06309683
000160 0f d6 27 3d ed 0e c0 bd ab 2f ff bc 11 2f 0e 3c
       0.040975627 -0.09377847 -0.03115066 0.008678214
000170 a7 0e 07 39 12 75 94 bc f0 35 69 3d be 44 87 3c
       0.00012880062 -0.01812223 0.056936204 0.016512271
000180 d8 ae 11 3d f7 bb 10 3d 8d 54 7b bd b2 12 f9 3d
       0.035567135 0.035335507 -0.06135993 0.12161769
000190 5f e2 8c 3b ed a5 2a bd 86 54 11 3d f8 3f 0c bd
       0.0042994465 -0.041662145 0.035481 -0.034240693
0001a0 01 cd a7 3d 8b 2d 78 3d 22 4f f3 3d 78 42 bf 3d
       0.08193398 0.06059031 0.11880328 0.0933885
0001b0 9b 15 86 bc 4d b9 b5 3d 3f 52 b2 3d 3e 66 61 3c
       -0.016367724 0.08873234 0.087070934 0.013757287
0001c0 f8 02 60 3d fd 0f 39 bd e2 0b 18 3c d3 89 f7 3d
       0.05469033 -0.045181263 0.009280177 0.12086835
0001d0 55 49 7c 3d d5 84 81 3c b4 25 12 be f6 3e 80 3d
       0.061593372 0.01581041 -0.14272195 0.06262009
0001e0 77 5d 53 3d ae ef 8d bb 5b 6f a6 bd 0f d9 6d 3d
       0.051602807 -0.0043315506 -0.08126708 0.05806833
0001f0 c8 bc 93 3d 8a 52 35 bd 02 24 e2 3c d1 8f 66 bd
       0.072137415 -0.04426817 0.02760506 -0.056289498
000200 24 58 69 bb 19 2a 55 bd 62 50 50 bd 33 c2 39 b9
       -0.0035605514 -0.0520421 -0.05085791 -0.0001771532
000210 04 72 6a 3d 07 9c e1 3c ad e1 c6 bb cd 27 a5 b8
       0.05723764 0.02754022 -0.006069383 -7.8752266e-05
000220 ff 5e 07 3c 1b cc 8c 3d f8 92 04 3e 17 02 bc ba
       0.008262395 0.068748675 0.12946689 -0.0014343885
000230 3a f5 8e 3d 61 0e c8 3a 89 ac 9a bc d2 43 8b 3d
       0.06980367 0.0015263074 -0.0188811 0.06800045
000240 f4 81 d9 bc 84 3d 51 bc 0d fb 97 bd 59 87 e6 3d
       -0.026551224 -0.012771014 -0.07420931 0.11256284
000250 75 48 04 3e db 5a 15 3d c1 6f 00 bd 60 47 f1 3d
       0.12918265 0.0364636 -0.031356577 0.11781192
000260 7a 69 11 bc d1 a3 71 bd 3e cc 33 bd a3 04 8e bd
       -0.008875245 -0.058994118 -0.043895952 -0.06934478
000270 fe 41 8d 3d 7b 1e 5f 3b 6b fa 47 3d 91 f4 92 3d
       0.06897353 0.0034045267 0.0488228 0.071755536
000280 97 48 18 3d c5 10 a0 3d 1f a2 2f 3d 67 fb d7 3b
       0.037178602 0.078156985 0.04287922 0.006591249
000290 98 08 a7 3d 39 2a 4f 3d 82 fd b1 3d 4c 97 b5 3b
       0.08155936 0.050577376 0.08690931 0.0055417176
0002a0 e0 b3 85 bd 60 1c 73 bc ad df 82 3d d1 d5 43 bd
       -0.06528449 -0.014838308 0.06390319 -0.047811333
0002b0 3f c8 8c bc 0b 45 9d bd 54 07 ac 3d ca b1 46 bd
       -0.017185329 -0.076791845 0.08399835 -0.048509397
0002c0 58 50 31 3d d1 9c 20 3d 46 af f5 3c 53 d2 fc bb
       0.043289512 0.03921205 0.029990803 -0.0077155023
0002d0 9a 8c 18 3e 25 42 c7 bd 04 bf cd bc 26 ee 08 bd
       0.14897385 -0.09729413 -0.025115497 -0.03343024
0002e0 4a f0 1f 3d 12 9f 59 bc c0 29 e2 3d fc e0 a8 3c
       0.039047517 -0.013282554 0.110431194 0.020615093
0002f0 f7 f6 a1 bc 24 4b 02 3d 8e 16 75 bd e0 00 09 3d
       -0.019771082 0.03180994 -0.059835963 0.0334481
000300 85 88 af 3d 7c 52 7f 3d 2b 1a 98 bc 11 0b f2 bc
       0.08570961 0.062334523 -0.018567165 -0.029546292
000310 9c 9d 5f 3d 53 84 d7 3c c0 61 d0 3c 32 04 a2 3c
       0.054593667 0.026308214 0.025437236 0.019777391
000320 43 fb d5 3d d0 81 9d bc a0 29 8d ba e5 a9 a5 3d
       0.10448315 -0.019226938 -0.0010769852 0.080890454
000330 b8 aa 85 bd 48 59 11 bc a1 bc 82 bb a9 d5 83 bc
       -0.06526703 -0.008871384 -0.0039897715 -0.016093092
000340 c4 b2 44 3c ed 07 16 3e f8 96 23 3d e3 a9 f4 3d
       0.012005512 0.14651461 0.039938897 0.11946466
000350 4f 8c fc ba 58 ec 60 bc 41 e4 0a 3c de 07 78 bd
       -0.001926789 -0.013728224 0.008477272 -0.060554378
000360 13 bd 1e 3d 9e 69 08 bd b4 3a 15 3b dc 16 80 3c
       0.038754534 -0.03330385 0.0022770585 0.0156359
000370 9a 72 38 b8 36 53 26 bd da 14 aa bc 60 20 7e 3a
       -4.397575e-05 -0.0406067 -0.020761896 0.00096941553
000380 f8 9d 25 3d 7b 48 93 3c ad 12 07 3d aa 94 25 3e
       0.040433854 0.017978897 0.032976795 0.16169992
000390 e4 dd e3 3d 56 d3 94 bc 33 eb cf bb 03 a9 cb 3d
       0.11126307 -0.01816718 -0.0063451766 0.09944346
0003a0 4e f4 a0 bc a9 b8 b7 3c bc 57 e5 bd b4 1b 9a 3d
       -0.019647744 0.02242692 -0.11198375 0.07524815
0003b0 78 f8 00 bd 71 4a 4e bc 2a 97 46 3d 5d c0 df bb
       -0.03148696 -0.01259099 0.048484005 -0.0068283514
0003c0 c3 b2 2a 3d 5d d1 30 3d 2e 59 44 3d eb 22 0c 3d
       0.041674387 0.043168414 0.04793661 0.034212988
0003d0 1b e9 5e bc ba ce cf 3c 92 8f 58 bc d6 1b 10 3c
       -0.013605381 0.02536713 -0.013217824 0.008795699
0003e0 a9 8d a8 3d 33 75 58 bc 36 3f a8 3d 7b 68 3a 3c
       0.082301445 -0.013211536 0.082151815 0.011377449
0003f0 30 0d d1 bd 8f 1a d4 bb 01 0a 5e bc 42 98 56 3d
       -0.102075934 -0.0064728926 -0.01355219 0.052391298
