collaboration_competition/models/actor_success.pth (torch_old, 536747 bytes, 14 tensors)

fc1.weight f4 [400, 24]
0.027213415 -0.029688612 0.022563003 0.049524277 -0.052148476 -0.08968571 -0.034060843 0.06380345
0.012333842 -0.056289453 -0.0710297 -0.028462145 0.042410742 -0.084811 -0.020169681 -0.018030345
0.029496066 -0.03118055 0.030593969 -0.08994249 0.042084925 -0.13120922 0.029634682 -0.017179644
0.007067758 -0.14447072 -0.025681071 0.0055762934 0.07323874 0.03439888 0.0032301154 -0.046516057
0.06501702 -0.12268491 -0.0016771859 0.00019572147 -0.020747839 0.019456772 -0.006099918 0.004910544
0.081465736 -0.087438375 0.020780055 0.07188307 -0.065653436 0.08144701 0.0058300924 -0.0042369473
-0.0056884876 0.071921125 0.009412439 0.00080404413 0.020448472 -0.0051856763 0.017589442 0.058513433
-0.031629343 0.04740554 -0.035041388 0.056187302 -0.002680641 -0.006964538 0.035536576 0.08651945
-0.025778687 0.033926625 0.060269188 0.087029405 -0.0055243517 -0.006770459 0.09962073 0.06563271
0.059596818 0.030490743 -0.024127144 0.0019547294 -0.0659937 -0.09327795 -0.07393387 0.069222376
-0.02624081 0.005168684 0.039505318 -0.0071470696 -0.044466335 -0.122671284 0.012368424 0.014186981
0.010839627 0.0019954138 -0.04578055 -0.06579157 -0.044485137 0.011723177 -0.0420396 -0.09943153
0.022631006 0.039919026 -0.023327982 0.009941108 0.0609045 0.053674 -0.059738703 0.0063364794
0.028909696 0.033172958 0.0010153229 -0.033421367 0.080964185 0.041818798 -0.07268615 0.03263162
0.058944024 -0.041597053 0.015026942 0.0820257 0.030915856 0.009577382 -0.030297866 0.07988077
0.014738911 0.11160848 -0.044620577 -0.012037353 0.09283033 0.0036188327 -0.012389019 0.03385922
0.07098459 0.05975567 0.019497791 0.04328461 0.032236185 -0.040633246 0.055983122 -0.010936542
0.08611071 0.07628139 0.0027579658 0.015902905 0.05198316 -0.0630819 -0.021423645 -0.0051023182
0.042326327 0.073874205 0.026024096 0.116767615 0.117351875 -0.06373594 -0.024248872 0.068959266
0.0064384257 0.026713066 0.029676255 0.0021060514 0.029252026 -0.066925116 -0.044426043 0.06921109
0.014469871 0.0071784435 -0.023991084 0.017075418 -0.05485941 -0.054524414 0.014203127 0.03309078
0.039674684 0.05737691 0.0130623635 0.07554454 0.008886353 0.103827566 -0.02001822 0.017819982
-0.01813191 0.014381586 -0.012949354 0.032617383 0.06815537 0.044049602 0.01086047 0.00260035
0.054337118 0.062962696 0.025588272 0.0282518 0.113078035 -0.119792834 -0.015736785 -0.038967393
0.09543858 0.09898034 -0.033562995 -0.036252722 -0.008706013 0.0343657 -0.04045841 -0.057532124
0.08463618 0.12797074 -0.013404439 0.071137324 -0.00680068 0.028074523 0.025916412 0.03621954
0.0027233455 0.14086169 -0.007682322 -0.08846459 0.02452734 0.031226635 0.011424533 -0.078455314
0.035348248 0.05502958 -0.043686006 -0.032002483 0.09534998 0.06669756 0.034536656 -0.056798767
0.06032106 0.060160227 -0.020726329 0.0090273805 0.048130706 0.011308362 -0.021751488 -0.03389315
0.052943315 0.028008578 -0.007784894 0.078427665 0.042784363 0.052581165 -0.008950761 -0.005253491
-0.009274171 -0.098542385 0.018985618 0.01650555 0.009269612 -0.19367795 -0.03240717 -0.03793468
-0.03825894 -0.089170575 0.0055507757 -0.09957358 0.07802911 -0.051860694 -0.031561103 -0.06725241
00000000: abee de3c 8835 f3bc 0cd6 b83c f8d9 4a3d
00000010: a499 55bd 24ad b7bd 6283 0bbd 62ab 823d
00000020: e213 4a3c c58f 66bd 0578 91bd 7229 e9bc
00000030: e3b6 2d3d 64b1 adbd e33a a5bc 60b4 93bc
00000040: bca1 f13c 5a6e ffbc 34a0 fa3c c533 b8bd
00000050: 3e61 2c3d b65b 06be 6fc4 f23c 53bc 8cbc
00000060: a798 e73b 22f0 13be 1c61 d2bc 57b9 b63b
00000070: 31fe 953d d7e5 0c3d 58b0 533b 9f87 3ebd
00000080: a527 853d 3a42 fbbd 05d5 dbba 953a 4d39
00000090: 5ff7 a9bc cf63 9f3c d2e1 c7bb a1e8 a03b
000000a0: 82d7 a63d e412 b3bd ef3a aa3c 6e37 933d
000000b0: 4f75 86bd b1cd a63d 5c0a bf3b 17d6 8abb
000000c0: 7e66 babb 624b 933d a136 1a3c 7dc6 523a
000000d0: 8e83 a73c 9bec a9bb bc17 903c c8ab 6f3d
000000e0: c58d 01bd 502c 423d 8f87 0fbd a824 663d
000000f0: b1ad 2fbb c736 e4bb cd8e 113d 1c31 b13d
00000100: d32d d3bc a5f6 0a3d d3dc 763d 793c b23d
00000110: 9f05 b5bb bada ddbb f405 cc3d 716a 863d
00000120: cb1b 743d b9c7 f93c 4aa6 c5bc eb1a 003b
00000130: b427 87bd 8308 bfbd a46a 97bd 76c4 8d3d
00000140: f8f6 d6bc 105e a93b 54d0 213d f731 eabb
00000150: 5522 36bd 153b fbbd eea4 4a3c 8370 683c
00000160: b198 313c 7dc5 023b 6384 3bbd bbbd 86bd
00000170: 0c36 36bd 9112 403c b731 2cbd c2a2 cbbd
00000180: a964 b93c 2282 233d 531a bfbc 07e0 223c
00000190: ff76 793d 45d9 5b3d 92b0 74bd 3ea2 cf3b
000001a0: 07d4 ec3c 5ee0 073d 9514 853a d8e4 08bd
000001b0: 8dd0 a53d 304a 2b3d 7adc 94bd bca8 053d
000001c0: 4a6f 713d ac61 2abd 9033 763c 17fd a73d
000001d0: 4043 fd3c 74ea 1c3c 3b33 f8bc 8798 a33d
000001e0: 797b 713c fd92 e43d 11c4 36bd 5138 45bc
000001f0: d41d be3d f029 6d3b 50fb 4abc f7af 0a3d
00000200: 5e60 913d 5dc2 743d d5b9 9f3c 344b 313d
00000210: 170a 043d 0c6f 26bd 8f4e 653d 2f2f 33bc
00000220: d05a b03d 6b39 9c3d fdbe 343b cf46 823c
00000230: 4bec 543d 1531 81bd a480 afbc 5931 a7bb
00000240: 5f5e 2d3d 5c4b 973d 7c30 d53c dc23 ef3d
00000250: 2e56 f03d fd87 82bd 92a5 c6bc 843a 8d3d
00000260: 6ef9 d23b 5cd5 da3c 9e1b f33c ae05 0a3b
00000270: f2a1 ef3c 0910 89bd 15f8 35bd 8bbe 8d3d
00000280: 0a13 6d3c 2639 eb3b f388 c4bc bfe1 8b3c
00000290: 43b4 60bd fe54 5fbd 3bb4 683c 338a 073d
000002a0: ec81 223d 0d04 6b3d 8603 563c 19b7 9a3d
000002b0: 1198 113c 8ca3 d43d 40fd a3bc 36fb 913c
000002c0: 5f89 94bc bea0 6b3c 8729 54bc ce99 053d
000002d0: 0b95 8b3d 5b6d 343d 1df0 313c a26a 2a3b
000002e0: 9990 5e3d 96f2 803d 7f9e d13c 5270 e73c
000002f0: 7595 e73d f255 f5bd 6eea 80bc 469c 1fbd
00000300: 4d75 c33d 34b6 ca3d 5a79 09bd bc7d 14bd
00000310: aaa3 0ebc 0cc3 0c3d b8b7 25bd cea6 6bbd
00000320: bc55 ad3d c30a 033e 4b9e 5bbc 72b0 913d
00000330: 3dd8 debb 8bfc e53c a84e d43c f15a 143d
00000340: 287a 323b 0c3e 103e fdbb fbbb ec2c b5bd
00000350: 8fed c83c 00cf ff3c f72d 3b3c 2ead a0bd
00000360: 53c9 103d b266 613d 19f0 32bd 0915 03bd
00000370: da46 c33d bb98 883d 4f76 0d3d d3a5 68bd
00000380: 3713 773d 926a 763d 43ca a9bc 94e7 133c
00000390: b424 453d b546 393c 2d30 b2bc 8bd3 0abd
000003a0: 17db 583d 3f72 e53c 6d18 ffbb af9e a03d
000003b0: a83e 2f3d 595f 573d 36a6 12bc 7a25 acbb
000003c0: b1f2 17bc 97d0 c9bd ba87 9b3c a636 873c
000003d0: 92df 173c 8353 46be 61bd 04bd 6561 1bbd
000003e0: 68b5 1cbd 109f b6bd 48e3 b53b 3ced cbbd
000003f0: bacd 9f3d e16b 54bd 3746 01bd a2bb 89bd

fc1.bias f4 [400]
0.17853703 0.022696227 -0.046229523 0.086919785 -0.017053658 -0.0662592 -0.039040703 -0.17986245
-0.12294204 -0.27778623 0.01139584 -0.19966319 0.01997023 -0.07750313 -0.015693478 -0.16109173
-0.0032250271 -0.13498716 -0.13436738 0.1284658 -0.23641486 0.040034268 -0.062327098 -0.13785316
-0.23861311 -0.24813545 -0.077919364 0.12695882 -0.07389327 -0.21175924 0.08558964 0.10753372
0.06580369 0.16254471 0.09603255 -0.077855326 0.08294209 -0.20790382 -0.055417124 -0.18716785
-0.16818275 -0.14825904 0.07335463 -0.16685589 0.049520552 0.09948613 0.054596093 -0.09328563
0.22939506 -0.35410705 0.1876149 -0.19753927 0.14635152 0.013345596 -0.24415325 -0.037246652
-0.1543897 0.1312404 0.15041068 0.047266252 0.14110422 0.13143939 -0.17867638 -0.0020828499
0.0059620426 0.12524018 0.014921309 -0.008196679 0.10242322 -0.095227435 -0.1410443 -0.1875211
0.19403291 -0.028132802 -0.15614428 0.03248151 -0.08967081 -0.17450804 0.13598008 0.13081396
0.18240756 -0.006985902 -0.21332102 -0.2500081 0.026790103 -0.21354751 0.108691275 -0.21130836
-0.15453936 -0.044887383 0.029192915 -0.082302265 -0.08398356 -0.105919786 -0.108573705 -0.030303624
-0.25778732 -0.09445514 -0.04618478 -0.030648509 0.123942465 -0.1881756 0.062156253 0.06549433
-0.06594285 -0.1294231 0.05492396 -0.18625608 -0.088170245 -0.04612658 -0.06954019 -0.25796914
0.09126568 0.15452364 -0.24374364 -0.008741141 -0.26219523 -0.0920528 -0.096569926 0.114195615
0.1665511 0.017292727 -0.0121154105 -0.23019916 -0.05689856 0.1280288 0.024354896 -0.0918341
-0.13941818 0.024394007 0.08854234 -0.044397283 0.0420232 0.101591386 0.09923378 0.10239095
0.14935479 0.03045202 0.06585556 -0.2725515 -0.056253448 -0.10544023 -0.049041092 -0.18034774
-0.20046481 0.09087749 -0.16343601 -0.24740359 -0.16852528 0.05722384 -0.037516754 -0.23041102
0.003948241 0.08554698 0.114098996 -0.24267477 -0.04556753 -0.09514016 -0.092948206 -0.030189471
0.16064145 -0.048262034 0.042695146 -0.01961834 -0.07302662 -0.09026689 0.06627338 0.10606043
-0.11167567 -0.094286576 -0.20718011 -0.110199615 -0.06884054 0.04411463 -0.09524466 0.106904425
-0.2291395 0.04725368 -0.18577981 -0.025395706 0.09741391 -0.06999568 -0.1503692 -0.22423741
-0.10531801 -0.076554164 -0.17596221 0.073355 0.006048351 -0.01728067 0.11065217 -0.25396383
0.07811281 0.16163793 -0.0021149712 0.11525334 -0.14123498 -0.19180167 0.14877859 -0.21505773
-0.12232483 0.18516879 -0.1697653 -0.08800038 -0.16895612 0.0664614 -0.07937918 0.0507908
0.15067871 -0.22685058 0.0939769 -0.09333044 -0.21737367 0.05834151 -0.13988176 0.09837983
0.023388226 -0.1473947 -0.17371641 0.020953456 -0.16527894 0.05292346 -0.0010252823 -0.1788246
0.1114797 -0.22808419 -0.0009085779 -0.13387018 -0.0012922212 -0.19332808 -0.106069334 -0.089117244
-0.08645741 -0.03514442 -0.18004665 0.06053368 -0.016144095 -0.2165106 0.061788518 0.14445537
0.114576854 0.064923465 -0.080446154 -0.19876891 0.04912108 0.116457336 0.0058208974 -0.013056448
-0.145835 -0.29216295 -0.21082094 -0.25051358 0.06483282 0.1171077 -0.07842017 -0.09609386
00000000: 69d2 363e 70ed b93c 2b5b 3dbd 0003 b23d
00000010: 1db4 8bbc e7b2 87bd 25e9 1fbd dd2d 38be
00000020: 09c9 fbbd ff39 8ebe 9eb5 3a3c 8274 4cbe
00000030: 9c98 a33c f6b9 9ebd 9c8f 80bc 3bf5 24be
00000040: fa5a 53bb 133a 0abe 9a97 09be 8a8c 033e
00000050: bd16 72be f9fa 233d b34a 7fbd 6129 0dbe
00000060: ff56 74be 3817 7ebe 3094 9fbd 7e01 023e
00000070: 5b55 97bd 6ad7 58be 9f49 af3d a43a dc3d
00000080: 16c4 863d 1f72 263e b7ac c43d 9d72 9fbd
00000090: 8bdd a93d bde4 54be 11fd 62bd eea8 3fbe
000000a0: 1938 2cbe 38d1 17be f43a 963d 45dc 2abe
000000b0: 10d6 4a3d 62bf cb3d 27a0 5f3d 890c bfbd
000000c0: 8ae6 6a3e 854d b5be 1f1e 403e bc47 4abe
000000d0: 2cdd 153e 7da7 5a3c 4f03 7abe f28f 18bd
000000e0: 5518 1ebe e263 063e 4205 1a3e 429a 413d
000000f0: a07d 103e 0c98 063e f1f6 36be 6c80 08bb
00000100: 3d5d c33b f63e 003e 8278 743c 5d4b 06bc
00000110: 44c3 d13d 9a06 c3bd eb6d 10be 8805 40be
00000120: 90b0 463e c376 e6bc 49e4 1fbe 550b 053d
00000130: 54a5 b7bd 3cb2 32be 5d3e 0b3e 18f4 053e
00000140: 0cc9 3a3e fee9 e4bb d370 5abe 1001 80be
00000150: eb76 db3c 33ac 5abe 8899 de3d 3861 58be
00000160: 913f 1ebe d5db 37bd fb25 ef3c 178e a8bd
00000170: 93ff abbd 79ec d8bd e45b debd 4e3f f8bc
00000180: b3fc 83be b271 c1bd 402c 3dbd 9512 fbbc
00000190: 8cd5 fd3d 1bb1 40be 8e97 7e3d e421 863d
000001a0: 0c0d 87bd 7d87 04be f2f7 603d eab9 3ebe
000001b0: 9a92 b4bd 3aef 3cbd 166b 8ebd 8814 84be
000001c0: 80e9 ba3d 723b 1e3e ef97 79be 0137 0fbc
000001d0: 743e 86be 2e86 bcbd 74c6 c5bd 64df e93d
000001e0: 5f8c 2a3e 7aa9 8d3c b77f 46bc 54b9 6bbe
000001f0: 770e 69bd fb19 033e eb83 c73c 8413 bcbd
00000200: a4c3 0ebe f1d5 c73c b055 b53d edd9 35bd
00000210: 8520 2c3d 250f d03d 143b cb3d 59b2 d13d
00000220: 76f0 183e 8476 f93c 48df 863d df8b 8bbe
00000230: 046a 66bd 0cf1 d7bd 50df 48bd 14ad 38be
00000240: a646 4dbe fa1d ba3d c55b 27be 5e57 7dbe
00000250: e491 2cbe 8c63 6a3d 2bab 19bd def0 6bbe
00000260: 3f60 813b 4133 af3d bcac e93d bc7f 78be
00000270: 05a5 3abd d8d8 c2bd a15b bebd e94f f7bc
00000280: 317f 243e 69ae 45bd 1be1 2e3d a4b6 a0bc
00000290: fb8e 95bd d9dd b8bd 56ba 873d 3636 d93d
000002a0: 37b6 e4bd 5219 c1bd 0627 54be 56b0 e1bd
000002b0: 45fc 8cbd 8bb1 343d a20f c3bd b5f0 da3d
000002c0: 8ca3 6abe 138d 413d 103d 3ebe a80a d0bc
000002d0: f280 c73d e559 8fbd 62fa 19be 7e9e 65be
000002e0: f8b0 d7bd 6ec8 9cbd 702f 34be 253b 963d
000002f0: 3f31 c63b 3190 8dbc 9b9d e23d 8c07 82be
00000300: 9cf9 9f3d 6a84 253e 549b 0abb f109 ec3d
00000310: e79f 10be a867 44be 6a59 183e 1838 5cbe
00000320: 7185 fabd e39c 3d3e f4d6 2dbe 8b39 b4bd
00000330: d502 2dbe ea1c 883d 8d91 a2bd 040a 503d
00000340: 854b 1a3e 854b 68be f676 c03d 0824 bfbd
00000350: 3497 5ebe 82f7 6e3d 2a3d 0fbe 5d7b c93d
00000360: aa98 bf3c a3ee 16be b7e2 31be 95a6 ab3c
00000370: e23e 29be 45c6 583d c462 86ba cc1d 37be
00000380: 784f e43d e78e 69be a12d 6eba 4415 09be
00000390: c05f a9ba ccf7 45be e13a d9bd 1a83 b6bd
000003a0: 9510 b1bd 98f3 0fbd 265e 38be 2af2 773d
000003b0: 9f40 84bc f4b4 5dbe f515 7d3d 1cec 133e
000003c0: 45a7 ea3d 98f6 843d f4c0 a4bd 148a 4bbe
000003d0: 3033 493d 2f81 ee3d 3abd be3b b6ea 55bc
000003e0: c555 15be 6296 95be 72e1 57be 5143 80be
000003f0: 12c7 843d 29d6 ef3d c19a a0bd dccc c4bd

fc2.weight f4 [300, 400]
-0.09890263 0.06815124 -0.14145505 0.09428482 0.03226016 -0.0025827554 -0.041861653 -0.058164485
0.051042277 -0.022119218 -0.05683434 0.0016198747 -0.0024237516 0.025916642 0.013854932 -0.04092812
0.03382847 0.073997185 0.0061570224 -0.0764695 0.03252114 -0.03392533 -0.0598626 0.059061658
0.028917246 -0.09671002 -0.09182487 -0.018382369 0.082018286 -0.037226457 -0.022483794 -0.024914661
0.06953363 0.054740492 -0.030617008 0.054838184 -0.055993676 0.02748919 0.0059120795 0.012544697
-0.044333413 -0.036214042 0.019567162 0.0082850335 0.060424663 -0.11404144 -0.050318073 -0.014928692
-0.047089707 -0.13918498 -0.11900842 0.026503935 -0.06202647 -0.052078657 -0.057323672 -0.02517244
-0.037965048 0.020546343 -0.030218812 0.0011400612 -0.031177266 -0.055457603 -0.046599597 -0.075896084
-0.0038384649 0.0486852 -0.025645839 -0.04158492 0.05393023 0.04259949 0.031178556 0.09988359
-0.031841595 0.064053155 -0.049349606 0.04075723 -0.098892614 -0.0022008019 -0.18091077 0.07004292
-0.19612156 -0.05378367 -0.0058319014 0.019908458 -0.045195986 -0.02767295 -0.10840781 -0.03177045
0.056686617 0.043595463 -0.046310063 -0.029413102 0.03187545 0.042405896 0.006393025 0.013665135
0.057297062 0.02280291 -0.017786995 -0.037275057 0.049042262 -0.02857685 0.06199761 0.07831586
-0.0715562 -0.047150865 0.0752091 0.065031216 0.03243816 0.07339594 0.13049124 0.077606715
0.009388407 -0.031849667 0.043861285 -0.029959012 -0.024922952 0.068291955 0.08139671 -0.09343755
-0.009646209 -0.041672617 -0.04465982 -0.04536359 0.062949695 0.012744635 -0.007930023 0.016512087
-0.031784955 -0.04305932 -0.092085406 -0.018106412 -0.030182943 -0.013858008 0.10778796 -0.05773714
-0.024211707 -0.00019117177 0.06550209 -0.01854649 -0.054669563 0.055000816 -0.011413627 0.038824324
0.07304695 -0.03671415 -0.04694724 -0.01899732 -0.009209982 -0.04784079 0.0036031865 -0.038746014
-0.1254614 0.056010116 -0.13097394 0.014863712 -0.021823779 0.017067146 0.03599205 -0.09485265
0.032898404 0.046386424 0.054906756 0.048844334 -0.03336125 -0.056047197 0.068519995 0.044390764
-0.005410516 -0.026413327 0.07859592 0.028264135 -0.028639043 0.06812424 0.032643344 0.008084946
0.107554205 0.035229903 -0.05880271 0.07945975 0.02504466 -0.1345536 -0.08259523 -0.003645581
-0.05404613 0.07388932 0.038860854 0.05796738 -0.014219656 0.032336608 0.026298055 -0.015004159
0.016845966 -0.035957765 0.045139477 -0.037576634 -0.036824264 -0.10486927 0.038276 0.07821156
0.04043044 -0.025615776 -0.013936649 -0.023604834 0.014853524 0.026790945 -0.009310367 -0.067444466
0.022019058 -0.0120127965 0.03417986 0.07178602 -0.052810796 -0.045675706 -0.0018451945 -0.030522134
0.011207479 -0.024282677 0.05800503 0.02283205 -0.025890812 0.046140723 -0.025869088 -0.028877947
-0.022422759 -0.10354093 0.014009749 -0.005033002 0.012812565 -0.054167498 0.044873446 0.025192441
0.041123208 -0.0058155935 0.08875847 0.008030702 -0.10323865 0.077127494 -0.052097768 -0.031097637
-0.05888268 -0.010779204 0.041513048 -0.026064776 0.043098573 0.017320985 0.06748628 0.09541986
0.07119944 0.029547477 -0.0016340733 0.014285575 -0.02356532 -0.032225426 0.05525517 0.031775076
00000000: 768d cabd e192 8b3d 98d9 10be 6618 c13d
00000010: 3b23 043d 7243 29bb 2077 2bbd e23d 6ebd
00000020: b511 513d 5d33 b5bc 20cb 68bd fa51 d43a
00000030: ced7 1ebb 234f d43c ccff 623c 3fa4 27bd
00000040: b98f 0a3d d68b 973d d9c0 c93b 0b9c 9cbd
00000050: e334 053d 49f5 0abd 7c32 75bd a3ea 713d
00000060: dce3 ec3c e70f c6bd ad0e bcbd 9f96 96bc
00000070: 34f9 a73d c57a 18bd ef2f b8bc d519 ccbc
00000080: a667 8e3d 9137 603d 85d0 fabc 019e 603d
00000090: a059 65bd 0331 e13c 1eba c13b 4688 4d3c
000000a0: f496 35bd 2d55 14bd 504b a03c f3bd 073c
000000b0: da7f 773d 8f8e e9bd 531a 4ebd 7997 74bc
000000c0: 23e1 40bd 8286 0ebe b0ba f3bd c81e d93c
000000d0: 780f 7ebd 6e50 55bd 3acc 6abd 6f36 cebc
000000e0: 3d81 1bbd ce50 a83c 718d f7bc 1b6e 953a
000000f0: 7767 ffbc 8327 63bd 38df 3ebd 686f 9bbd
00000100: c18e 7bbb 226a 473d 3917 d2bc f354 2abd
00000110: f2e5 5c3d ce7c 2e3d 2c6a ff3c c58f cc3d
00000120: 556c 02bd 4d2e 833d d022 4abd 0ef1 263d
00000130: 3688 cabd 543b 10bb ac40 39be aa72 8f3d
00000140: 17d4 48be 444c 5cbd 8919 bfbb 1017 a33c
00000150: 6d1f 39bd 62b2 e2bc ea04 debd bb21 02bd
00000160: 3a30 683d 2891 323d 9faf 3dbd bff3 f0bc
00000170: d58f 023d ceb1 2d3d 957c d13b bbe3 5f3c
00000180: 53b0 6a3d 2bcd ba3c 08b6 91bc bbad 18bd
00000190: 8ae0 483d 001a eabc 35f1 7d3d 1164 a03d
000001a0: 0f8c 92bd 4421 41bd 3b07 9a3d 162f 853d
000001b0: e0dd 043d 9c50 963d 7f9f 053e 45f0 9e3d
000001c0: d5d1 193c cc74 02bd e4a7 333d 9a6c f5bc
000001d0: 382b ccbc a7dc 8b3d 51b3 a63d 305c bfbd
000001e0: 220b 1ebc e8b0 2abd 37ed 36bd 2ccf 39bd
000001f0: c5eb 803d e0ce 503c edec 01bc 5b44 873c
00000200: f130 02bd f85e 30bd 4697 bcbd e653 94bc
00000210: 3842 f7bc b30c 63bc efbf dc3d c87d 6cbd
00000220: a157 c6bc 4875 48b9 f625 863d cfee 97bc
00000230: 31ed 5fbd 8948 613d 3900 3bbc 4106 1f3d
00000240: a499 953d 9461 16bd c04b 40bd 45a0 9bbc
00000250: 77e5 16bc b4f4 43bd 7023 6c3b 24b4 1ebd
00000260: f478 00be dd6a 653d 081e 06be ed86 733c
00000270: c8c7 b2bc 66d0 8b3c 666c 133d 1b42 c2bd
00000280: 7ac0 063d b1ff 3d3d e8e5 603d ff10 483d
00000290: cea5 08bd bf91 65bd 3654 8c3d 17d3 353d
000002a0: b34a b1bb c360 d8bc e6f6 a03d 308a e73c
000002b0: 6d9c eabc b984 8b3d 07b5 053d b976 043c
000002c0: 6145 dc3d 3b4d 103d 1cdb 70bd cbbb a23d
000002d0: 752a cd3c 6bc8 09be b027 a9bd b3ea 6ebb
000002e0: 7a5f 5dbd 4953 973d 8f2c 1f3d 346f 6d3d
000002f0: 8ff9 68bc 6473 043d 056f d73c 01d4 75bc
00000300: 8d00 8a3c 7348 13bd 2ce4 383d f5e9 19bd
00000310: 0ad5 16bd b3c5 d6bd 4cc7 1c3d 622d a03d
00000320: 649a 253d 2dd8 d1bc 8b56 64bc ed5e c1bc
00000330: 325c 733c af78 db3c 828a 18bc 5320 8abd
00000340: 5061 b43c 52d1 44bc 2e00 0c3d 8d04 933d
00000350: 2250 58bd 7316 3bbd 74da f1ba 8e09 fabc
00000360: 939f 373c 77ec c6bc af96 6d3d 480a bb3c
00000370: f818 d4bc 0efe 3c3d 69eb d3bc 7291 ecbc
00000380: efaf b7bc 440d d4bd 2589 653c e1eb a4bb
00000390: cbeb 513c bdde 5dbd 38cd 373d 6160 ce3c
000003a0: cf70 283d bc90 bebb 00c7 b53d 3593 033c
000003b0: c96e d3bd 05f5 9d3d 7864 55bd 79c0 febc
000003c0: f72e 71bd 429b 30bc 9609 2a3d cc85 d5bc
000003d0: 2188 303d bde4 8d3c 3f36 8a3d 7d6b c33d
000003e0: 03d1 913d 8d0d f23c 672e d6ba 0b0e 6a3c
000003f0: 0f0c c1bc cffe 03bd 3f53 623d 9526 023d

fc2.bias f4 [300]
-0.072126694 0.04527494 -0.02529982 -0.061331376 0.028528087 0.01554848 0.0440065 -0.038213663
-0.012182537 -0.049978722 -0.119609416 0.15968867 0.039182875 -0.041108776 0.06483979 -0.07325988
0.07534337 -0.08989478 -0.089731105 0.07802805 -0.062216617 -0.09536691 -0.09347508 -0.046904903
0.061450366 0.0846945 0.032645177 -0.07816753 -0.064832546 -0.022966485 -0.03182197 -0.10501925
0.057318907 -0.057466917 0.03262545 -0.04294963 -0.07669011 -0.01397062 -0.09913029 -0.09117293
0.004430851 0.015471006 0.0028670342 -0.053605452 0.2215065 0.15717834 -0.09185859 -0.0740024
-0.05420641 -0.020897761 0.061784342 0.008359814 -0.10623971 0.08834694 0.028855883 0.03783618
0.01864837 0.09945963 -0.0043519335 -0.08755216 0.09068941 0.057187837 -0.13890989 -0.032560464
0.0117967455 0.08335977 0.0760167 -0.00064496807 -0.043063983 0.02638226 -0.050141834 0.02392251
0.04236987 -0.0719091 0.04487927 -0.0034172582 -0.08883783 0.02085607 -0.028265547 -0.08215617
-0.02047426 -0.10576652 -0.07277812 -0.02133797 -0.09319599 0.06334184 -0.06269025 -0.08047289
0.061535973 -0.06589266 -0.050822437 -0.05206091 0.13128601 0.011095875 0.010618 0.05074438
-0.03800495 0.10214956 -0.03255881 0.010176748 -0.028721467 -0.081768595 0.0175535 -0.042930752
-0.057310805 0.0042995648 -0.067144684 -0.08390247 -0.012963417 -0.11916683 0.010949019 -0.04057467
0.026261805 0.02348497 -0.0936279 -0.027066743 0.1522185 -0.020898838 0.12531902 0.022356344
-0.042251997 -0.052859876 -0.052439064 0.06684756 -0.04811103 -0.033307526 0.052341238 -0.03548469
0.0031129417 -0.04524869 -0.02961613 -0.0754587 -0.07327354 -0.07210434 0.07575571 0.12964636
-0.0037857676 -0.016461428 0.025934648 -0.061363384 0.06412301 -0.034556054 -0.08887951 -0.013332013
-0.03271307 0.13488238 -0.104662225 -0.18784165 0.040493447 -0.06089136 0.0030124097 -0.10207406
-0.025771128 0.00084620103 -0.050196547 -0.056032214 -0.04044434 0.121360734 -0.008074095 0.21910417
-0.09897329 -0.0914014 0.036646068 -0.023171265 0.01645559 -0.06854861 0.038041808 0.021117097
0.09910726 -0.06677456 -0.033676263 -0.03223739 0.10087503 0.020386288 -0.07263189 0.07266113
-0.035983294 0.08649731 0.017127134 -0.033581115 0.1712549 0.121542275 0.060869254 0.081602134
0.04343071 0.09888064 -0.10598237 -0.081903145 -0.021081857 -0.10764164 -0.051434767 -0.0025274847
-0.06473215 0.00598934 -0.030875206 0.023859348 -0.06863942 0.18757403 -0.036578376 0.044616703
0.13832116 0.07092155 -0.021641685 0.005082535 0.061539885 -0.01665561 -0.02809876 0.03637676
-0.039744567 0.1483532 -0.06582346 0.10878256 -0.08895354 0.03682499 0.01887087 0.2249733
-0.08862194 -0.005262609 -0.014333787 -0.08454143 -0.013829497 0.017289717 -0.072637625 0.1731407
0.06234345 -0.07564077 -0.030878777 0.10230159 0.13017324 -0.116454855 0.12273041 0.070960015
-0.05962295 0.04174379 -0.028844723 -0.0037496754 -0.025943913 0.06398407 -0.02747136 -0.035223268
-0.120886005 -0.039192833 0.10733193 0.010948219 -0.029682783 -0.10199172 -0.0097186025 0.029738897
-0.052609175 0.0376794 -0.056458082 -0.13164449 0.08401208 0.08673495 0.02406598 0.045356333
00000000: 29b7 93bd 3772 393d 9141 cfbc 9c36 7bbd
00000010: bcb3 e93c 0dbf 7e3c 2940 343d ee85 1cbd
00000020: 4399 47bc 7db6 4cbd c8f5 f4bd 6d85 233e
00000030: 397e 203d ad61 28bd b9ca 843d 4709 96bd
00000040: a04d 9a3d c11a b8bd f1c4 b7bd 2ccd 9f3d
00000050: dad6 7ebd ba4f c3bd dd6f bfbd 5b1f 40bd
00000060: 61b3 7b3d 4f74 ad3d f3b6 053d 4c16 a0bd
00000070: edc6 84bd 3624 bcbc c157 02bd 5514 d7bd
00000080: 3bc7 6a3d 6e62 6bbd 44a2 053d f4eb 2fbd
00000090: b40f 9dbd 07e5 64bc d204 cbbd e0b8 babd
000000a0: ac30 913b 1a7a 7d3c dae4 3b3b 6491 5bbd
000000b0: 9ad2 623e 5cf3 203e 5b20 bcbd 928e 97bd
000000c0: 8a07 5ebd c831 abbc 9411 7d3d 9af7 083c
000000d0: 3494 d9bd 3eef b43d 2c63 ec3c 1cfa 1a3d
000000e0: 77c4 983c 7eb1 cb3d aa9a 8ebb 8c4e b3bd
000000f0: 5fbb b93d cb3d 6a3d 653e 0ebe 1f5e 05bd
00000100: 2347 413c 87b8 aa3d a5ae 9b3d 1313 29ba
00000110: dc63 30bd 9c1f d83c 8661 4dbd 24f9 c33c
00000120: 078c 2d3d 1445 93bd 53d3 373d 14f4 5fbb
00000130: 9cf0 b5bd 59da aa3c 268d e7bc 7e41 a8bd
00000140: a3b9 a7bc 1e9c d8bd b20c 95bd f7cc aebc
00000150: 8add bebd 5eb9 813d bf63 80bd f8ce a4bd
00000160: 250d 7c3d bbf2 86bd 302b 50bd d23d 55bd
00000170: d76f 063e 79cb 353c 1ff7 2d3c 57d9 4f3d
00000180: 14ab 1bbd ca33 d13d 635c 05bd 60bc 263c
00000190: 4849 ebbc 4b76 a7bd 5ccc 8f3c 28d8 2fbd
000001a0: bcbe 6abd 5de3 8c3b 2783 89bd 0fd5 abbd
000001b0: 8364 54bc bd0d f4bd 8463 333c a031 26bd
000001c0: ff22 d73c 8d63 c03c fcbf bfbd 13bb ddbc
000001d0: 2bdf 1b3e 0a34 abbc a153 003e a724 b73c
000001e0: 6e10 2dbd 9983 58bd 58ca 56bd 60e7 883d
000001f0: 1210 45bd 796d 08bd c463 563d 6558 11bd
00000200: 7f02 4c3b b156 39bd 879d f2bc 178a 9abd
00000210: 7010 96bd 71ab 93bd cf25 9b3d 04c2 043e
00000220: a41a 78bb 1eda 86bc e674 d43c 2c58 7bbd
00000230: ed52 833d a68a 0dbd 7606 b6bd 846e 5abc
00000240: 24fe 05bd 9b1e 0a3e 2659 d6bd 9059 40be
00000250: 75dc 253d 3869 79bd d96b 453b 340c d1bd
00000260: f91d d3bc 97d3 5d3a e59a 4dbd 0982 65bd
00000270: f7a8 25bd fa8b f83d 3549 04bc d85c 603e
00000280: 82b2 cabd a830 bbbd 301a 163d aad1 bdbc
00000290: e0cd 863c 3763 8cbd bad1 1b3d c3fd ac3c
000002a0: bff8 ca3d 1ac1 88bd 1ff0 09bd 5a0b 04bd
000002b0: 9197 ce3d 2501 a73c 07c0 94bd 5ccf 943d
000002c0: 3863 13bd 8025 b13d 344e 8c3c 5a8c 09bd
000002d0: 725d 2f3e 28eb f83d 0a52 793d 051f a73d
000002e0: 66e4 313d ef81 ca3d 490d d9bd d6bc a7bd
000002f0: dcb3 acbc 3873 dcbd 43ad 52bd 28a4 25bb
00000300: 4a92 84bd 3a42 c43b 00ee fcbc ae74 c33c
00000310: d392 8cbd 6813 403e 35d3 15bd 01c0 363d
00000320: 10a4 0d3e 513f 913d e749 b1bc 658b a63b
00000330: 3f11 7c3d 5971 88bc 5f2f e6bc ccff 143d
00000340: 33cb 22bd e7e9 173e 73ce 86bd 64c9 de3d
00000350: 462d b6bd cdd5 163d 1597 9a3c 675f 663e
00000360: 6b7f b5bd f771 acbb 43d8 6abc 0f24 adbd
00000370: 1d95 62bc 2aa3 8d3c 09c3 94bd cc4b 313e
00000380: d85b 7f3d 8ce9 9abd 7df5 fcbc 7f83 d13d
00000390: 224c 053e e27f eebd 155a fb3d 7c53 913d
000003a0: 3237 74bd 89fb 2a3d c54b ecbc 1dbd 75bb
000003b0: 5488 d4bc 150a 833d 9e0b e1bc 4646 10bd
000003c0: 1593 f7bd aa88 20bd d8d0 db3d 2960 333c
000003d0: 4f29 f3bc 09e1 d0bd c63a 1fbc fd9e f33c
000003e0: b87c 57bd b755 1a3d 9740 67bd d0cd 06be
000003f0: 870e ac3d 18a2 b13d 0526 c53c 90c7 393d

fc3.weight f4 [2, 300]
0.03962299 -0.009252227 -0.2115749 0.08925515 0.07529608 0.2466863 -0.018865 -0.21523406
-0.041078065 -0.01137668 0.020431176 -0.03480418 -0.080170475 -0.1879984 0.06896946 0.100680135
-0.032254536 0.20200646 0.06601645 0.07517303 -0.09701525 -0.22907807 0.10575261 -0.24399439
-0.13004678 0.060017105 0.005149049 0.1356451 -0.22056869 0.20407823 0.21539535 0.25348508
-0.106032394 -0.2611656 0.17685886 0.13332225 0.062477905 -0.14706607 0.23132893 -0.13836867
0.008816152 -0.068271026 -0.27180195 -0.0060284077 -0.07784764 -0.06976863 0.2867462 -0.3262785
0.012930491 -0.083065875 0.0031663661 0.049306184 -0.002767848 0.042382833 0.051550087 -0.06337287
0.16501251 0.005945321 -0.09562031 -0.19278227 0.09587908 -0.07864483 -0.3277855 -0.039886508
0.10899793 0.0628048 -0.012107262 -0.11013585 -0.19363111 -0.17329495 0.26438951 0.05831927
0.06553451 -0.18891795 -0.15232243 -0.32184362 0.29023296 -0.020538272 -0.11711887 -0.0056819567
0.16126965 -0.021123774 -0.3666733 0.10006412 -0.116420306 -0.08905988 -0.19410862 0.009279669
0.09663364 -0.08029845 0.2509917 -0.19994086 -0.12427546 -0.12189325 -0.21771136 -0.0875986
-0.41558138 -0.09874356 0.02290709 0.025162103 -0.010454518 0.05935165 0.009989068 -0.12848884
0.2553944 0.014377305 0.10742414 0.22840284 0.16434516 -0.659181 -0.20965317 0.10979902
0.0071340487 -0.04265041 0.15375581 0.056282867 -0.042513438 -0.19414097 0.0246331 -0.033143062
0.18968052 0.11557589 -0.08431438 -0.13119556 0.17908281 -0.039511025 0.0895749 0.17822249
-0.051821854 -0.36747122 0.10114444 0.14526275 -0.10780836 0.1210162 -0.01958013 -0.08534047
0.17019355 0.075381935 -0.113829784 -0.21735081 0.08980287 0.22931688 0.076989435 -0.030495282
-0.08580507 0.055701777 -0.009776938 0.019220447 0.07593768 0.21195084 -0.18238926 0.3063351
0.109847255 0.09429477 -0.18213716 -0.40792105 -0.0649684 -0.036623307 0.1492942 -0.09443932
0.21586916 -0.258055 0.09042918 -0.27148023 -0.034268226 -0.3168435 -0.027060432 0.07581598
0.07820838 0.15653959 0.30415362 -0.17937717 0.0043104175 0.014974423 0.13704902 0.052185144
0.10012431 -0.0145586645 0.027633507 -0.041018225 0.036388393 -0.12270796 -0.1494298 0.00623383
0.037177715 -0.09064806 0.23810486 0.1412499 0.049846962 -0.32636127 0.3081114 -0.09667365
0.08456193 0.086537905 -0.04919285 0.12069688 0.20454377 -0.039213054 -0.16363177 -0.0022015243
-0.013091607 -0.0848863 0.12474283 -0.092944115 0.05964241 -0.009787975 0.073533855 -0.0015941011
-0.17565607 -0.099297225 -0.26443276 0.05522953 0.35372284 -0.13084206 -0.097901165 -0.10668042
0.18478839 -0.35412753 -0.055496044 -0.34976107 -0.09342299 0.092391625 -0.4547192 -0.11949984
-0.01795499 -0.10345538 -0.11187145 0.002838358 -0.016388694 0.22881407 -0.0087749995 -0.093284205
-0.115014166 0.12626822 -0.10067202 0.02250503 0.07338951 0.06919257 0.2746608 -0.25790966
0.14404729 0.24305928 0.06252266 0.14060387 -0.16753702 -0.12670407 0.2113782 0.022241162
-0.29211164 -0.06443015 -0.23697752 0.13317122 -0.13651858 -0.057721563 -0.0033100722 0.007673799
00000000: b74b 223d a796 17bc 17a7 58be 67cb b63d
00000010: d534 9a3d 559b 7c3e c68a 9abc 5166 5cbe
00000020: 7941 28bd 4165 3abc 485f a73c d48e 0ebd
00000030: 6b30 a4bd a782 40be dc3f 8d3d 6331 ce3d
00000040: 551d 04bd c8da 4e3e a233 873d 51f4 993d
00000050: eeaf c6bd 7193 6abe d394 d83d aad9 79be
00000060: fc2a 05be 7fd4 753d 5bb9 a83b 8de6 0a3e
00000070: c2dc 61be e2f9 503e 9990 5c3e ccc8 813e
00000080: 8327 d9bd 7fb7 85be 7d1a 353e a185 083e
00000090: d5e8 7f3d 7d98 16be 7ee1 6c3e 84b0 0dbe
000000a0: 9f71 103c aed1 8bbd a029 8bbe f389 c5bb
000000b0: 956e 9fbd dbe2 8ebd 66d0 923e fa0d a7be
000000c0: 69da 533c 711e aabd cf82 4f3b 48f5 493d
000000d0: c964 35bb 9f99 2d3d 2f26 533d a3c9 81bd
000000e0: 0af9 283e f8d0 c23b 95d4 c3bd b768 45be
000000f0: 405c c43d 8a10 a1bd 80d3 a7be 0960 23bd
00000100: 4f3a df3d ce9f 803d 8a5d 46bc e88e e1bd
00000110: 3c47 46be 3b74 31be 105e 873e 30e0 6e3d
00000120: f536 863d b573 41be 69fa 1bbe b0c8 a4be
00000130: 6a99 943e e13f a8bc 05dc efbd b52f babb
00000140: df23 253e c40b adbc 9abc bbbe 6bee cc3d
00000150: c56d eebd 0765 b6bd 69c4 46be c109 183c
00000160: dce7 c53d 8473 a4bd fc81 803e 4cbd 4cbe
00000170: 2284 febd 2ba3 f9bd baef 5ebe e566 b3bd
00000180: 15c7 d4be 103a cabd a6a7 bb3c c120 ce3c
00000190: 6d49 2bbc b71a 733d 30a9 233c 9492 03be
000001a0: 0ec3 823e ca8e 6b3c 3001 dc3d 6fe2 693e
000001b0: 194a 283e 16c0 28bf 52af 56be 4fde e03d
000001c0: bdc4 e93b 32b2 2ebd 2a72 1d3e dd88 663d
000001d0: 9222 2ebd e4cc 46be 5bcb c93c 05c1 07bd
000001e0: 9c3b 423e 0db3 ec3d 05ad acbd 2158 06be
000001f0: 7c61 373e 50d6 21bd 0c73 b73d f57f 363e
00000200: 2743 54bd 3025 bcbe d124 cf3d c2bf 143e
00000210: a1ca dcbd 57d7 f73d 8266 a0bc fcc6 aebd
00000220: 3847 2e3e d861 9a3d 971f e9bd 3691 5ebe
00000230: 91ea b73d 0bd2 6a3e a3ac 9d3d 3ed1 f9bc
00000240: 92ba afbd 8c27 643d 732f 20bc 3374 9d3c
00000250: 3785 9b3d a409 593e 40c4 3abe f4d7 9c3e
00000260: 99f7 e03d 9e1d c13d 2a82 3abe 07db d0be
00000270: 270e 85bd 5202 16bd 94e0 183e 6769 c1bd
00000280: ce0c 5d3e c91f 84be ef32 b93d 75ff 8abe
00000290: d75c 0cbd 5039 a2be d7ad ddbc 6945 9b3d
000002a0: b72b a03d ea4b 203e 06ba 9b3e a6ae 37be
000002b0: 673e 8d3b 4857 753c 9456 0c3e 17c0 553d
000002c0: f90d cd3d 7787 6ebc aa5f e23c ba02 28bd
000002d0: ff0b 153d 504e fbbd 2004 19be 2845 cc3b
000002e0: a947 183d b1a5 b9bd c3d1 733e d0a3 103e
000002f0: 542c 4c3d d318 a7be c7c0 9d3e d6fc c5bd
00000300: ce2e ad3d c93a b13d 717e 49bd ed2f f73d
00000310: ec73 513e de9d 20bd 168f 27be 7347 10bb
00000320: 2e7e 56bc ded8 adbd 2b79 ff3d 7c59 bebd
00000330: 9a4b 743d be5d 20bc eb98 963d 28f1 d0ba
00000340: 2fdf 33be 585c cbbd bb63 87be 5c38 623d
00000350: 291b b53e 76fb 05be 6880 c8bd 447b dabd
00000360: 2b39 3d3e 3450 b5be d24f 63bd e213 b3be
00000370: 8d54 bfbd d237 bd3d f4d0 e8be 55bc f4bd
00000380: 5816 93bc 6ae0 d3bd dc1c e5bd bf03 3a3b
00000390: 9541 86bc 3c4e 6a3e 04c5 0fbc ca0b bfbd
000003a0: 8c8c ebbd 754c 013e 222d cebd 785c b83c
000003b0: 3d4d 963d d6b4 8d3d 57a0 8c3e bc0c 84be
000003c0: 2281 133e 88e4 783e e10b 803d 76fa 0f3e
000003d0: d38e 2bbe b6be 01be 8773 583e 1933 b63c
000003e0: a88f 95be f4f3 83bd 3caa 72be 095e 083e
000003f0: 87cb 0bbe 726d 6cbd cced 58bb 7e74 fb3b

fc3.bias f4 [2]
-0.028231664 -0.08136069
00000000: 1746 e7bc 6fa0 a6bd

bn1.weight f4 [400]
0.4642556 0.5104323 0.3720714 0.14527914 0.1886173 0.16500223 0.20259462 0.7035095
0.41626072 0.5929756 0.58506274 0.3608501 0.6164425 0.61890304 0.7507999 0.60275745
0.039974265 0.3118879 0.86335367 0.6210689 0.7630395 0.4680751 0.35517216 0.17622308
0.84494394 0.4951036 0.41520125 0.27881044 0.7247185 0.71076864 0.8582781 0.76387227
0.54506093 0.6001902 0.250112 0.85539144 0.5357215 0.38270456 0.45106265 0.6443052
0.61960566 0.8180901 0.3850178 0.60109997 0.53423655 0.6494512 0.8411753 0.3289739
0.54629034 0.37470815 0.17625673 0.6302509 0.71816623 0.2658109 0.40186775 0.6635055
0.8384959 0.7244018 0.88263416 0.09739502 0.7701391 0.38725793 0.2368473 0.31007972
0.4936131 0.8711378 0.47186285 0.49920768 0.68327624 0.15642607 0.9008197 0.12852019
0.559748 0.5411274 0.25100392 0.44556484 0.2282861 0.31437334 0.25915584 0.41759798
0.5957167 0.6589766 0.18415566 0.3431571 0.7801221 0.8107558 0.7059353 0.49213818
0.49229088 0.10470324 0.6800992 0.96921176 0.8823825 0.6640672 0.87333894 0.82672864
0.4838884 0.8839893 0.7710231 0.29993472 0.6576488 0.7518986 0.3576829 0.61623776
0.39018813 0.65882754 0.09889467 0.66213 0.78501916 0.18106791 0.26167363 0.4707601
0.9562861 0.3502962 0.35540366 0.6109374 0.61342484 0.81263524 0.20179646 0.29997104
1.0069958 0.4896579 0.3232606 0.7949525 0.8724934 0.31076223 0.22869633 0.16994102
0.53995645 0.4514685 0.71238256 0.73304605 0.7251983 0.14715083 0.31087178 0.69629055
0.49330303 0.9149184 0.40034917 0.9120004 0.65642965 0.72601557 0.35074988 0.41204444
0.67214686 0.56388074 0.30689642 0.23751915 0.32495677 0.72298604 0.64681566 0.67933136
1.0178585 0.08329495 0.27151212 0.83195364 0.255189 0.8907947 0.5964711 0.79010963
0.8718995 0.36852488 0.5470514 0.82813615 0.25816157 0.21548723 0.69632065 0.6212691
0.19721548 0.8253883 0.7048109 0.8361114 0.5757069 0.20006329 0.22247754 0.53071785
0.09734728 0.93970525 0.1521838 0.016454102 0.116396405 0.31323013 0.34455392 0.9551457
0.493788 0.8206251 0.68161696 0.6278656 0.54585916 0.6989081 0.579681 0.7374595
0.8102199 0.56375974 0.8233554 0.8697969 0.45297244 0.24008463 0.7184966 0.483065
0.21442388 0.77687645 0.5446926 0.42046544 0.63788676 0.30827835 0.55054384 0.4374141
0.6868201 0.6615156 0.41364726 0.19394748 0.7810436 0.40511468 0.40754965 0.42678887
0.2454077 0.43211806 0.8051865 0.7686269 0.47371376 0.1967286 0.6311825 0.58654946
0.23070633 0.40599695 0.33117282 0.24542311 0.18553616 0.24158047 0.22736664 0.2940219
0.5237584 0.7945333 0.6252435 0.52841556 0.15894526 0.37904778 0.065550245 0.738156
0.85207283 0.27559924 0.45744887 0.70291185 0.5610595 0.05621657 0.22786596 0.27843478
0.5120425 0.6427544 0.63159865 0.15404916 0.64657044 0.924342 0.25207663 0.64786613
00000000: e9b2 ed3e b1ab 023f 2480 be3e 0ec4 143e
00000010: e524 413e 58f6 283e f774 4f3e 3319 343f
00000020: 2020 d53e 40cd 173f acc6 153f 58c1 b83e
00000030: 2dcf 1d3f 6e70 1e3f 6c34 403f 504e 1a3f
00000040: 0ebc 233d c5af 9f3e bf04 5d3f 5ffe 1e3f
00000050: 8f56 433f 8aa7 ef3e 20d9 b53e d373 343e
00000060: 3f4e 583f 387e fd3e 4295 d43e 3ec0 8e3e
00000070: 2787 393f eff4 353f 1db8 5b3f 228d 433f
00000080: 1d89 0b3f 11a6 193f ae0e 803e effa 5a3f
00000090: 0b25 093f daf1 c33e aff1 e63e 30f1 243f
000000a0: 7a9e 1e3f 5a6e 513f 0e21 c53e b0e1 193f
000000b0: bac3 083f 6f42 263f 4457 573f 446f a83e
000000c0: afd9 0b3f bfd9 bf3e a57c 343e 1f58 213f
000000d0: bed9 373f 5e18 883e 9cc1 cd3e 7fdb 293f
000000e0: aba7 563f 6572 393f 50f4 613f 0a77 c73d
000000f0: d627 453f ac46 c63e 1988 723e c5c2 9e3e
00000100: dbba fc3e e302 5f3f 0298 f13e 2698 ff3e
00000110: 31eb 2e3f 282e 203e 1f9c 663f cc9a 033e
00000120: a54b 0f3f 5387 0a3f 9683 803e 1321 e43e
00000130: d5c3 693e 8bf5 a03e 13b0 843e 67cf d53e
00000140: e480 183f b1b2 283f 4d93 3c3e 4ab2 af3e
00000150: 15b6 473f b18d 4f3f 2db8 343f 89f9 fb3e
00000160: 8d0d fc3e a76e d63d fb1a 2e3f 431e 783f
00000170: d2e3 613f 4f00 2a3f 2493 5f3f 7da4 533f
00000180: 38c0 f73e 1f4d 623f c561 453f 0b91 993e
00000190: ac5b 283f 6d7c 403f 3722 b73e c2c1 1d3f
000001a0: bdc6 c73e eca8 283f 4a89 ca3d 5a81 293f
000001b0: 04f7 483f de69 393e 16fa 853e 7807 f13e
000001c0: 2acf 743f 065a b33e 78f7 b53e 6566 1c3f
000001d0: 6909 1d3f dd08 503f bba3 4e3e ce95 993e
000001e0: 3de5 803f 71b4 fa3e 6a82 a53e 0282 4b3f
000001f0: ba5b 5f3f 3a1c 9f3e 5f2f 6a3e 0505 2e3e
00000200: 963a 0a3f e126 e73e b45e 363f e8a8 3b3f
00000210: 99a6 393f b5ae 163e 962a 9f3e 1940 323f
00000220: 3792 fc3e 1838 6a3f 91fa cc3e dc78 693f
00000230: c60b 283f 28dc 393f 7d95 b33e 7df7 d23e
00000240: d111 2c3f 7d5a 103f 8721 9d3e 3838 733e
00000250: bc60 a63e 9d15 393f b695 253f a9e8 2d3f
00000260: 3049 823f 8b96 aa3d a303 8b3e eafa 543f
00000270: 22a8 823e 1f0b 643f 54b2 183f a044 4a3f
00000280: ce34 5f3f 4baf bc3e 900b 0c3f bb00 543f
00000290: c12d 843e afa8 5c3e 1242 323f 7e0b 1f3f
000002a0: dbf2 493e a64c 533f 7d6e 343f 660b 563f
000002b0: 8761 133f 64dd 4c3e 27d1 633e 20dd 073f
000002c0: 035e c73d 8690 703f 12d6 1b3e c1ca 863c
000002d0: 3d61 ee3d b35f a03e 5f69 b03e 6e84 743f
000002e0: c8d1 fc3e 7d14 523f 737e 2e3f cdbb 203f
000002f0: 6dbd 0b3f a4eb 323f f965 143f 25ca 3c3f
00000300: 926a 4f3f 8f52 103f 6bc7 523f 02ab 5e3f
00000310: 01ec e73e bfd8 753e 65ef 373f 4c54 f73e
00000320: ef91 5b3e 60e1 463f f970 0b3f 3f47 d73e
00000330: 8c4c 233f a9d6 9d3e 71f0 0c3f bef4 df3e
00000340: 71d3 2f3f 1659 293f 93c9 d33e 2b9a 463e
00000350: 79f2 473f 316b cf3e 59aa d03e 1284 da3e
00000360: 284c 7b3e 943e dd3e b420 4e3f bcc4 443f
00000370: 9c8a f23e 3973 493e 2d95 213f 1b28 163f
00000380: 483e 6c3e d5de cf3e 7c8f a93e 3250 7b3e
00000390: 31fd 3d3e df60 773e cdd2 683e 0a8a 963e
000003a0: 0815 063f 8966 4b3f f50f 203f 3e46 073f
000003b0: 8cc2 223e 8d12 c23e 353f 863d cbf7 3c3f
000003c0: 7221 5a3f 581b 8d3e bd36 ea3e 08f2 333f
000003d0: 98a1 0f3f 5943 663d b255 693e 018f 8e3e
000003e0: 3815 033f 8d8b 243f 73b0 213f 10bf 1d3e
000003f0: a485 253f ada1 6c3f 3010 813e 8eda 253f

bn1.bias f4 [400]
0.008741049 0.043697894 -0.06532236 -0.0891408 0.05814554 0.20429184 -0.054499477 0.09691935
0.015904974 0.12759607 0.04681518 0.0102135185 0.09500182 0.16902527 0.0987467 -0.092965506
-0.24702452 0.041306958 -0.0315003 0.100338615 0.01774507 0.020666685 -0.12064663 -0.15770814
0.15661934 0.07862081 0.07583851 0.041827723 0.028799511 0.049147323 -0.021819076 0.019051807
-0.081704944 -0.140207 0.16891849 -0.038051438 0.028801838 0.21363427 0.047581606 -0.10772376
0.0047191414 -0.0384345 0.02698063 -0.024091117 0.00850469 0.07182785 0.022223206 0.0023824961
0.05875046 0.12823302 0.1106101 0.06803667 0.07428915 -0.16436501 0.007532196 -0.19260883
-0.047784112 0.15492576 0.00039510214 -0.10012244 0.14773986 0.06852799 -0.07042449 0.029120853
-0.07522692 0.03667874 0.030494478 0.029198056 0.09242122 0.19200018 0.04968889 -0.18580543
0.07887226 -0.034396138 0.09783508 0.18779168 0.24689431 0.17704315 0.100511834 -0.047843885
0.13149545 -0.06544078 -0.032002363 -0.1617907 0.09458024 0.004041637 0.058941253 -0.057947908
-0.09865117 -0.15708718 0.074036755 0.06457082 0.059507824 0.027406327 -0.14679977 -0.0030134886
0.01738783 0.087594934 0.025480239 0.1430348 0.0502804 -0.015145539 0.109831914 -0.06602543
-0.057445105 -0.012167131 -0.11050157 -0.042655017 -0.02084032 -0.12868255 0.04323643 -0.046234436
0.0394266 -0.07868337 -0.09135708 0.15070742 0.084196046 0.08889241 0.09585333 0.07569295
0.060138322 0.021954661 0.005124394 0.0720961 0.068210386 0.10680845 0.04127836 3.73878e-06
-0.07141219 -0.05825096 0.04381637 0.07930315 -0.109761275 -0.044999897 -0.0083206445 0.07604331
-0.0623547 0.10168627 0.0486973 -0.033535525 0.086176544 0.124982014 0.010494884 0.100966804
0.15916236 -0.026667414 -0.03545705 0.04676886 -0.12600297 -0.017854586 0.12695418 0.09081373
0.043907255 -0.21311083 0.17058069 -0.08718339 -0.1268406 0.054411247 0.03396349 0.05724244
0.08979995 0.04008961 -0.01258861 0.0033565527 -0.01773148 0.023319183 -0.01708559 0.015768135
-0.07052227 -0.027148392 0.13462324 -0.03503261 -0.035797488 0.13753085 -0.06307419 0.07757206
-0.23167753 0.18677017 0.20121989 -0.19827296 -0.08271092 0.14852276 0.0059090196 0.055459198
0.11357571 -0.09982323 -0.117901325 0.11872769 -0.008291985 0.10892763 0.03876709 -0.015908932
-0.081010446 0.10752975 0.012691588 0.03182608 0.01114046 0.12000696 0.1593644 -0.013870874
0.19917066 0.09502514 0.08143567 -0.012886766 -0.060045138 0.009979898 0.03387751 -0.0030374029
-0.02489422 -0.012190326 0.09624541 -0.14789821 -0.0027283137 0.07943941 -0.07914199 -0.13515355
-0.025097203 0.022305716 -0.018401429 0.07243941 0.05319183 -0.0152994925 -0.07491809 0.026409253
0.012915393 0.12184315 0.11470755 0.20255393 -0.06801604 0.108063996 -0.0760252 0.020444574
0.0052600857 -0.04129212 -0.040165197 -0.06422659 0.054949123 0.049263436 -0.077937745 0.060636338
0.04203738 -0.045652293 -0.060471643 -0.06702982 -0.050030567 -0.22419883 -0.053980183 0.045572493
0.074247904 -0.014104695 -0.0061824257 -0.08349651 -0.025325615 0.05717555 0.059639923 0.08198511
00000000: 9e36 0f3c 90fc 323d bbc7 85bd 748f b6bd
00000010: 052a 6e3d e131 513e d83a 5fbd a77d c63d
00000020: 264b 823c 8ba8 023e 46c1 3f3d 9a56 273c
00000030: 5090 c23d f614 2d3e b63b ca3d b364 bebd
00000040: fff3 7cbe 7c31 293d 7506 01bd 557e cd3d
00000050: 1c5e 913c 2e4d a93c 9515 f7bd 3e7e 21be
00000060: d260 203e f203 a13d 3951 9b3d 8c53 2b3d
00000070: f4ec eb3c b44e 493d ebbd b2bc 8912 9c3c
00000080: ec54 a7bd 6c92 0fbe f8f8 2c3e d3db 1bbd
00000090: d5f1 eb3c f1c2 5a3e eee4 423d 469e dcbd
000000a0: 07a3 9a3b 7f6d 1dbd 7b06 dd3c bc5a c5bc
000000b0: 4157 0b3c 7b1a 933d 710d b63c a723 1c3b
000000c0: 53a4 703d 844f 033e 8c87 e23d cf56 8b3d
000000d0: e924 983d 4d4f 28be a4d0 f63b 403b 45be
000000e0: 46b9 43bd dca4 1e3e b625 cf39 fe0c cdbd
000000f0: 1e49 173e 6758 8c3d b73a 90bd db8e ee3c
00000100: 9210 9abd 723c 163d 8ecf f93c c330 ef3c
00000110: 5647 bd3d b29b 443e 9486 4b3d c743 3ebe
00000120: c887 a13d f7e2 0cbd c25d c83d 764c 403e
00000130: ddd1 7c3e cd4a 353e 26d9 cd3d f3f7 43bd
00000140: bea6 063e d105 86bd e914 03bd 76ac 25be
00000150: 49b3 c13d b56f 843b 626c 713d c95a 6dbd
00000160: a009 cabd 76db 20be 95a0 973d b53d 843d
00000170: 7abe 733d 3c83 e03c ae52 16be f37d 45bb
00000180: ec70 8e3c f964 b33d efbb d03c b777 123e
00000190: d2f2 4d3d ff24 78bc 8eef e03d 5738 87bd
000001a0: 8f4b 6bbd a558 47bc a64e e2bd 07b7 2ebd
000001b0: 52b9 aabc 5cc5 03be af18 313d 5260 3dbd
000001c0: c97d 213d bf24 a1bd 6c19 bbbd 0c53 1a3e
000001d0: fa6e ac3d 390d b63d c04e c43d e804 9b3d
000001e0: 9a53 763d 43da b33c 88ea a73b 1fa7 933d
000001f0: e3b1 8b3d 63be da3d 7f13 293d c0e7 7a36
00000200: 8e40 92bd 8f98 6ebd cb78 333d b169 a23d
00000210: 85ca e0bd d051 38bd 5053 08bc 98bc 9b3d
00000220: a467 7fbd e440 d03d d276 473d 8c5c 09bd
00000230: 547d b03d 92f6 ff3d bcf2 2b3c afc7 ce3d
00000240: 75fb 223e 9f75 dabc 693b 11bd b490 3f3d
00000250: ec06 01be c843 92bc 4700 023e 8dfc b93d
00000260: 18d8 333d ba39 5abe b4ac 2e3e 358d b2bd
00000270: 81e2 01be 54de 5e3d 4d1d 0b3d 0c77 6a3d
00000280: 09e9 b73d 0135 243d 7540 4ebc 9cf9 5b3b
00000290: 9c41 91bc df07 bf3c 14f7 8bbc 2d2c 813c
000002a0: fb6d 90bd 4e66 debc adda 093e 5b7e 0fbd
000002b0: 63a0 12bd e3d4 0c3e 0a2d 81bd 1ade 9e3d
000002c0: e03c 6dbe ae40 3f3e 960c 4e3e 1108 4bbe
000002d0: 5864 a9bd 5a16 183e 73a0 c13b 2f29 633d
000002e0: 629a e83d 1f70 ccbd 4076 f1bd 8127 f33d
000002f0: 1bdb 07bc 7315 df3d 3dca 1e3d 7353 82bc
00000300: cee8 a5bd 8f38 dc3d 61f0 4f3c 105c 023d
00000310: 7a86 363c 36c6 f53d 6c30 233e aa42 63bc
00000320: 65f3 4b3e 8a9c c23d bfc7 a63d 0423 53bc
00000330: e4f1 75bd ba82 233c 25c3 0a3d 2a0f 47bb
00000340: f7ee cbbc efb9 47bc 501c c53d a172 17be
00000350: 82cd 32bb 21b1 a23d 3215 a2bd b165 0abe
00000360: a698 cdbc 7aba b63c 98be 96bc 1d5b 943d
00000370: addf 593d b9aa 7abc a86e 99bd 3858 d83c
00000380: 169b 533c e788 f93d cbeb ea3d 4c6a 4f3e
00000390: fe4b 8bbd a850 dd3d 1ab3 9bbd 617b a73c
000003a0: cc5c ac3b ed21 29bd 4384 24bd 3b89 83bd
000003b0: 5512 613d 75c8 493d d39d 9fbd cf5d 783d
000003c0: 632f 2c3d e6fd 3abd 1db1 77bd ee46 89bd
000003d0: daec 4cbd 6194 65be 531a 5dbd 39aa 3a3d
000003e0: 490f 983d 6117 67bc f295 cabb 3800 abbd
000003f0: aa77 cfbc e930 6a3d fe48 743d cfe7 a73d

bn1.running_mean f4 [400]
0.31463856 0.10893464 1.4082222 0.4474911 0.49297523 0.13606407 0.082199305 0.1684567
0.077245235 0.086147085 0.57389534 0.83950615 0.9138374 0.072024964 0.17882456 0.37923753
2.0713153 0.13379931 0.27377015 0.74749833 0.35407665 0.18882471 1.1464801 0.8574431
0.08924896 6e-45 0.2686509 0.65037537 0.05094931 0.07134986 0.19943471 0.06172104
0.7234281 0.99303764 0.69239503 0.12597972 1.8233008 0.07698672 0.65188694 0.046343695
0.10464585 0.61774266 0.0968926 0.11637675 0.33851588 0.11114279 0.2706608 0.38524714
0.9389445 0.038108446 0.6080693 0.8888969 0.8085053 0.11995318 0.14190027 1.0261015
0.72341394 0.2858374 1.005038 0.7858965 0.43771362 0.15204623 0.44949952 0.124638036
1.7252494 0.3913129 0.032039244 0.70191234 1.0287246 0.7620975 0.42889783 0.013106425
0.10822797 0.14268385 0.49242088 0.13256161 0.091047324 0.2612288 0.9742128 0.43726468
0.60352904 1.2404209 0.002517472 0.3524713 0.761775 0.5247438 0.0824338 2.0093915
1.1443653 0.20583703 0.8462191 0.022299308 1.3115757 0.12758532 0.7260393 0.18348743
0.10688082 0.070480786 0.056710735 0.3351797 0.54177004 0.35843053 0.36636323 0.8306226
0.28392893 0.17367426 0.65022326 0.42224008 0.36201584 0.010746947 0.34503186 0.1892122
0.19283229 1.396441 0.08859266 0.19971031 0.10132525 0.096657395 0.20151338 0.16674823
0.23084763 1.4189231 0.4873196 0.019444639 0.28430587 0.37427926 1.5693848 0.13982803
0.43815693 0.50843585 0.10208338 0.1879706 1.7203177 0.020905986 0.3682981 0.41528255
1.4993894 0.23574777 0.047461145 0.33770904 0.7376662 0.2552724 0.053034924 0.2506846
0.24431247 0.26608527 0.97454077 0.75498044 0.18587752 1.0838735 1.4498906 0.89393175
0.14897767 1.909421 0.04226879 0.7136553 1.534602 0.4708367 0.36166164 0.29202527
0.47142723 0.30276495 0.24169943 0.076945 2.3804517 0.4818082 0.117864005 0.093306534
0.08747278 0.16869521 0.12661907 1.3352412 2.3457212 0.4967192 0.016551603 0.41078532
0.6227083 0.16809325 0.3861914 2.2707813 0.21090561 0.07819 0.989347 0.14100769
0.5881259 0.3876376 0.2073029 0.15779676 0.29762644 0.81309116 1.3793755 0.12264603
0.6968478 0.3027853 0.17155908 1.1911992 0.050064024 0.89988744 0.1821934 0.4761726
0.47047737 1.0299858 0.21611771 0.04176163 0.3960778 0.6994701 0.30342016 0.6670592
0.2297553 0.21858585 0.20554747 0.6878016 0.046609007 0.11925924 0.17143027 1.1138881
0.8269001 0.3220643 0.07387262 0.87786376 1.1673052 0.5166354 0.15834072 1.0580219
0.13915923 1.1222613 0.58167624 0.014800706 0.10168205 0.40265253 0.34913862 0.518056
0.05746577 0.24325582 0.11100936 0.7329319 0.44414645 0.0194825 0.27471784 0.06316884
0.9929861 0.20940828 0.44347495 1.2348033 0.25847983 4.261188 0.1128353 0.07100456
0.13081291 0.006230272 0.08440451 0.095424876 0.4828186 0.8135639 0.57517487 0.1387332
00000000: 4e18 a13e 2019 df3d a040 b43f 8e1d e53e
00000010: 4067 fc3e 6154 0b3e 1c58 a83d ea7f 2c3e
00000020: c032 9e3d e26d b03d ceea 123f e0e9 563f
00000030: 3ff1 693f d381 933d c91d 373e 6c2b c23e
00000040: 6e90 0440 b002 093e 9a2b 8c3e 0d5c 3f3f
00000050: 8949 b53e 445b 413e dcbf 923f 6481 5b3f
00000060: 29c8 b63d 0400 0000 9c8c 893e 007f 263f
00000070: 39b0 503d e01f 923d 9d38 4c3e 34cf 7c3d
00000080: 9532 393f b737 7e3f cd40 313f d400 013e
00000090: ec61 e93f 37ab 9d3d 10e2 263f e3d2 3d3d
000000a0: 9050 d63d 6224 1e3f a16f c63d ef56 ee3d
000000b0: f451 ad3e d59e e33d 0d94 8a3e 1d3f c53e
000000c0: ab5e 703f 9a17 1c3d 6eaa 1b3f bf8e 633f
000000d0: 34fa 4e3f 03aa f53d 4e4e 113e 4b57 833f
000000e0: a831 393f 4859 923e 16a5 803f 8330 493f
000000f0: 001c e03e 02b2 1b3e cd24 e63e 3a42 ff3d
00000100: f9d4 dc3f 2a5a c83e 953b 033d 87b0 333f
00000110: 3fad 833f d218 433f 7f98 db3e 55bc 563c
00000120: a0a6 dd3d b71b 123e 971e fc3e 3bbe 073e
00000130: 0577 ba3d c8bf 853e 0366 793f 28e1 df3e
00000140: e180 1a3f 1dc6 9e3f 2cfc 243b 1e77 b43e
00000150: b003 433f 9c55 063f 0dd3 a83d df99 0040
00000160: 907a 923f f1c6 523e d1a1 583f 0aad b63c
00000170: b6e1 a73f baa5 023e b6dd 393f 21e4 3b3e
00000180: 55e4 da3d 3b58 903d 8449 683d ac9c ab3e
00000190: 71b1 0a3f 3584 b73e f693 bb3e afa3 543f
000001a0: 225f 913e aad7 313e 0875 263f da2f d83e
000001b0: 245a b93e f613 303c 04a8 b03e d8c0 413e
000001c0: d475 453e 94be b23f 1270 b53d dc80 4c3e
000001d0: 9d83 cf3d 50f4 c53d 8659 4e3e 0cc0 2a3e
000001e0: 5263 6c3e 469f b53f f481 f93e 5d4a 9f3c
000001f0: 8a90 913e 88a1 bf3e 9ae1 c83f 142f 0f3e
00000200: 1b56 e03e da28 023f 1711 d13d 5d7b 403e
00000210: 5f33 dc3f 0843 ab3c 9291 bc3e ea9f d43e
00000220: feeb bf3f dd67 713e 9e66 423d 33e8 ac3e
00000230: b1d7 3c3f 10b3 823e 263b 593d bb59 803e
00000240: 0c2d 7a3e 543c 883e 817b 793f 6646 413f
00000250: ad56 3e3e 5ebc 8a3f 0496 b93f b6d8 643f
00000260: 9a8d 183e e867 f43f 0a22 2d3d 1db2 363f
00000270: d76d c43f 8211 f13e b72b b93e 5684 953e
00000280: e95e f13e 0204 9b3e 0e80 773e 5795 9d3d
00000290: 5259 1840 90af f63e af62 f13d 7f17 bf3d
000002a0: ee24 b33d 70be 2c3e 6ea8 013e 2fe9 aa3f
000002b0: 4c20 1640 fb51 fe3e 3a97 873c 7452 d23e
000002c0: d069 1f3f a320 2c3e e1ba c53e 7b54 1140
000002d0: a4f7 573e 1422 a03d d845 7d3f 5264 103e
000002e0: 6b8f 163f 6f78 c63e 3647 543e 7995 213e
000002f0: 7e62 983e be26 503f 608f b03f d72d fb3d
00000300: 9e64 323f ad06 9b3e 2fad 2f3e 3779 983f
00000310: ef0f 4d3d 065f 663f e890 3a3e e5cc f33e
00000320: 69e2 f03e 93d6 833f f64d 5d3e 3e0e 2b3d
00000330: b6ca ca3e 7910 333f e359 9b3e 64c4 2a3f
00000340: f944 6b3e f8d4 5f3e 097b 523e c413 303f
00000350: 16e9 3e3d 303e f43d 6b8b 2f3e e393 8e3f
00000360: baaf 533f 9de5 a43e 874a 973d aebb 603f
00000370: 426a 953f 3842 043f 1224 223e 436d 873f
00000380: c27f 0e3e 42a6 8f3f bce8 143f a97e 723c
00000390: ae3e d03d 7928 ce3e 4cc2 b23e 519f 043f
000003a0: 3a61 6b3d 0e18 793e e058 e33d 6da1 3b3f
000003b0: 2a67 e33e c499 9f3c d1a7 8c3e aa5e 813d
000003c0: 5634 7e3f 206f 563e 260f e33e 090e 9e3f
000003d0: 7857 843e a75b 8840 3216 e73d d76a 913d
000003e0: d2f3 053e 4f27 cc3b 46dc ac3d 1e6e c33d
000003f0: 0034 f73e b945 503f a93e 133f 1310 0e3e
