collaboration_competition/models/critic1_10000.pth (torch_old, 545385 bytes, 21 tensors)

fcs1.weight f4 [400, 24]
3.6921692e-38 -1.3764885e-38 -3.18208e-40 -2.2249066e-38 2.0354913e-38 -3.196027e-38 -6.4949e-41 -2.2249066e-38
6.0459667e-38 -1.5176644e-38 -2.1218178e-38 -2.5398296e-38 -3.1702152e-38 -2.789239e-38 -2.442044e-38 -2.3900244e-38
-4.3204557e-38 -1.741028e-38 -1.7245239e-38 -4.3706202e-38 -1.8681695e-38 -2.7632832e-38 -1.6015314e-38 -4.5053175e-38
3.965501e-38 -1.4988061e-38 2.6700173e-38 -3.2273395e-38 2.397562e-38 -2.441391e-39 2.5135993e-38 -3.3345237e-38
3.3470325e-38 -1.2084977e-38 2.4962288e-38 -4.2805985e-38 -2.9434266e-38 8.464545e-39 2.634287e-38 -4.5204992e-38
3.1187265e-38 -1.223718e-38 -2.062779e-38 -2.3194026e-38 -1.9643436e-38 -2.485917e-39 -2.2050517e-38 -2.0705984e-38
5.7017355e-38 5.474599e-38 -2.4666844e-38 1.8324679e-38 -4.743589e-38 -7.123646e-39 -2.9862738e-38 3.292939e-39
5.8345264e-38 5.1946056e-38 -3.0907482e-38 5.161536e-38 -2.2408534e-38 2.649051e-38 -3.6439382e-38 6.2865354e-38
6.563243e-38 -1.590245e-38 -3.1293837e-38 2.7442827e-38 -6.5454e-39 1.8053595e-38 -3.517518e-38 3.824231e-38
2.704949e-39 -1.0155452e-38 -6.793927e-38 -1.51596e-39 2.6547322e-38 9.416109e-39 6.485885e-38 -1.4263726e-38
5.131961e-38 -1.4966203e-38 -3.109644e-39 -5.4431886e-38 -3.0878256e-38 3.4727637e-38 -3.0190964e-38 5.860943e-38
-3.9742741e-38 2.8838184e-38 6.531875e-38 1.691812e-38 -3.4034291e-38 -2.6598562e-38 3.8029346e-38 -4.5157387e-38
4.3842072e-38 -5.409121e-38 1.8887202e-38 -2.9236265e-38 1.7315381e-38 -7.273476e-39 2.839014e-38 2.49315e-38
1.8281899e-38 -3.2793453e-38 -8.6225e-41 3.9690097e-38 2.947545e-38 1.9187251e-38 -1.0430027e-38 1.6099922e-38
5.315397e-38 1.2440792e-38 4.3981176e-38 4.585962e-39 5.679611e-38 -3.6096933e-38 3.649562e-38 2.4031293e-38
-4.689793e-39 -5.197251e-38 -2.8026883e-38 1.5735742e-38 3.3332112e-38 -2.6503346e-38 1.9927973e-38 1.3192592e-38
4.3129837e-38 -2.144897e-39 2.769839e-38 -8.031468e-39 5.6754505e-38 -2.527866e-38 4.5591318e-38 1.0231135e-38
4.3434429e-38 -6.59003e-38 4.691317e-38 4.794669e-38 -2.192845e-38 1.2431531e-38 6.673662e-38 1.028332e-39
2.9050117e-38 1.4588156e-38 2.2266282e-38 6.8679846e-38 -6.235944e-38 6.573023e-39 9.146892e-39 5.4213883e-38
-4.448132e-38 2.4342763e-38 -3.2100575e-38 -4.617978e-38 -5.887352e-38 3.7700439e-38 -4.1227347e-38 -3.003135e-38
-5.3709366e-38 -6.7438156e-38 -1.9914419e-38 2.019663e-39 1.0003058e-38 3.959204e-38 -4.3758807e-38 -2.6538015e-38
-1.1590908e-38 6.10249e-40 3.6264066e-38 5.162469e-38 -8.0735e-39 3.7617465e-38 4.115938e-38 2.4106397e-38
-2.2501947e-38 -1.6956894e-38 4.750683e-38 -3.5323977e-38 -5.66012e-40 3.874984e-38 4.4547673e-38 3.406152e-38
-5.0010997e-38 -1.7848986e-38 4.594368e-38 2.2057884e-38 -1.2015851e-38 -3.4920473e-38 4.5322292e-38 7.356497e-39
-5.939511e-38 -4.935573e-38 -3.003871e-39 4.2375445e-38 -1.006009e-39 8.90517e-40 1.5260886e-38 6.8013624e-38
-1.9348297e-38 -2.88205e-38 -1.1571493e-38 2.6657764e-38 4.6656103e-38 1.1372812e-38 -8.043544e-39 -3.833966e-38
-2.4606902e-38 -1.21359e-38 5.1684215e-38 1.1841667e-38 5.855112e-38 -1.5713247e-38 5.691508e-38 -5.100334e-39
-2.4418203e-38 -6.143342e-38 -3.850517e-38 -3.029462e-39 5.179607e-38 5.454037e-38 -3.676668e-38 1.8750876e-38
-5.3906366e-38 -4.6798585e-38 -5.0882526e-38 1.0163579e-38 5.742479e-39 3.1179087e-38 -5.0050233e-38 5.1054757e-38
-6.752511e-38 -3.3954048e-38 -4.289591e-38 5.22019e-39 -4.6009315e-38 -3.8405082e-38 -4.0014596e-38 8.076283e-39
2.353887e-38 2.2620795e-38 5.1442575e-38 -4.498134e-39 2.8251063e-38 -4.915935e-38 5.5713205e-38 1.789559e-38
2.5501754e-38 2.506803e-38 2.877568e-38 -4.202235e-38 -3.4153012e-38 -4.0205097e-38 2.7901669e-38 2.6176e-41
00000000: 5405 4901 e6e2 9580 0977 0380 5845 f280
00000010: 37a5 dd00 1d02 2e81 0db5 0080 5845 f280
00000020: 3d96 a401 4f42 a580 a60b e780 0f48 0a81
00000030: 5a9a 2c81 51dc 1781 20f5 0481 1420 0281
00000040: 5d3a 6b81 c794 bd80 b6c8 bb80 8ef5 6d81
00000050: f76c cb80 8c72 1681 2e64 ae80 f64a 7581
00000060: 04e7 5701 9e34 a380 9c5e 1101 8cb6 2f81
00000070: 2389 0201 9b95 1a80 76da 0801 7a8c 3581
00000080: d33a 3601 0098 8380 5ae8 0701 d60e 6981
00000090: 6141 2081 b52b 5c00 9a6c 0f01 901e 7681
000000a0: b4cc 2901 4740 8580 e39d e080 828f fc80
000000b0: e8e5 d580 ba11 1b80 df1b f080 dc77 e180
000000c0: 4c37 9b01 6308 9501 904c 0681 c089 c700
000000d0: fe21 8181 d491 4d80 9596 2281 60db 2300
000000e0: b7d4 9e01 1e69 8d01 be46 2881 a882 8c01
000000f0: e001 f480 623a 1001 1665 4681 c222 ab01
00000100: 21ab b201 9029 ad80 3e61 2a81 b869 1501
00000110: ea45 4780 1496 c400 0c83 3f81 0036 5001
00000120: 4c74 1d00 4595 6e80 c3f2 b881 e181 1080
00000130: 9189 1001 4888 6600 0690 b001 7751 9b80
00000140: 8cb4 8b01 aff7 a280 6cdc 2180 7d2d 9481
00000150: 021e 2881 4313 3d01 1060 2481 d08c 9f01
00000160: 4c61 5881 9002 1d01 86d0 b101 d638 b800
00000170: e14c 3981 fcd0 1081 2c0d 4f01 36dc 7581
00000180: eeb2 6e01 1240 9381 d6a9 cd00 682d 1f81
00000190: 3d8c bc00 7e33 4f80 1492 1a01 70bd 0701
000001a0: 7f12 c700 678b 3281 5cf0 0080 ec17 5801
000001b0: c87a 2001 40ee d000 ac92 7180 0850 af00
000001c0: e9b2 9001 de77 8700 d074 6f01 ccef 3100
000001d0: 1d9d 9a01 c887 4481 78b3 4601 bcd6 0201
000001e0: 3c11 3380 8e7b 8d81 c697 1881 d958 ab00
000001f0: 2f7a 3501 464c 1081 15ff d800 94a7 8f00
00000200: 38d2 6a01 1a5b 1780 eccd 1601 7774 5780
00000210: 1e80 9a01 4fa1 0981 0639 7801 3e68 6f00
00000220: c27a 6c01 ce65 b381 6a6b 7f01 f785 8201
00000230: 99c7 ee80 0d5e 8700 a3ac b501 9232 0b00
00000240: f429 1e01 d8d9 9e00 5675 f200 def6 ba01
00000250: 30c2 a981 ea92 4700 d099 6300 9095 9301
00000260: e92d 7281 dc88 0401 acc5 2e81 386d 7b81
00000270: db44 a081 be42 4d01 8976 6081 9881 2381
00000280: f735 9281 8995 b781 4cd9 d880 00fe 1500
00000290: 75ec 6c00 408f 5701 e03e 6e81 987c 1081
000002a0: bc36 7e80 20a5 0600 bb70 4501 2889 8c01
000002b0: a2e9 5780 18cf 4c01 ce17 6001 6a3f 0301
000002c0: 4606 f580 eca4 b880 6e53 8101 7052 4081
000002d0: d029 0680 65f9 5201 658a 7201 d472 3901
000002e0: 9424 8881 b65b c280 2524 7a01 6830 f000
000002f0: 4ed7 8280 0920 3e81 0ec2 7601 ec1a 5000
00000300: 5ab0 a181 ec5b 8681 92b5 2080 c0b6 6601
00000310: 58f4 0a80 66b2 0900 242d a600 9426 b901
00000320: 2eaf d280 eae9 1c81 9d00 7e80 8023 1101
00000330: 1e05 7e01 c6d6 7b00 2196 5780 b0bd 5081
00000340: 04f9 0581 f425 8480 a4b2 8c01 c0f1 8000
00000350: 2d64 9f01 241a ab80 06f0 9a01 a889 3780
00000360: 02f2 0481 d83c a781 60a4 5181 e8fc 2080
00000370: 9800 8d01 1779 9401 462d 4881 d02d cc00
00000380: 41bf 9281 b5cb 7e81 f283 8a81 ecab 6e00
00000390: b287 3e00 4ec1 2901 ec3f 8881 f9fb 8a01
000003a0: 22d2 b781 09dd 3881 2c8c 6981 c4d7 3800
000003b0: a07f 7a81 df18 5181 35dc 5981 64f1 5700
000003c0: 6528 0001 9351 f600 3e0a 8c01 f8fa 3080
000003d0: 3cd0 1901 11d3 8581 70aa 9701 a0dd c200
000003e0: 42d8 0a01 bc7b 0801 72ab 1c01 9cca 6481
000003f0: 5af2 3981 bae5 5a81 40e9 1701 f848 0000

fcs1.bias f4 [400]
-2.4753887e-38 -3.1595488e-38 -2.984462e-38 6.3627666e-38 2.766855e-39 -2.8998336e-38 1.2491668e-38 -3.760205e-38
-4.247588e-39 4.2552053e-38 1.5159514e-38 8.32929e-40 -2.2388972e-38 4.036642e-38 2.2611739e-38 -3.204434e-38
2.3685683e-38 7.08616e-40 -3.4580518e-38 -5.6427756e-38 -3.5884723e-38 5.847972e-38 -3.1486812e-38 9.83411e-39
4.7640224e-38 5.030064e-38 8.19104e-39 2.0063451e-38 -3.100697e-39 -1.6293089e-38 5.007083e-38 -3.971415e-38
1.6390412e-38 -1.614629e-38 -5.161582e-39 4.017409e-38 5.280057e-38 3.3102767e-38 6.548566e-39 -4.127083e-38
-5.9271455e-38 -6.286078e-38 4.418665e-38 5.377109e-38 2.298471e-38 4.2169378e-38 -8.484435e-39 -3.5577073e-38
-0.016384104 -3.0866962e-38 4.292169e-38 -1.5561554e-38 2.2355787e-38 -4.323746e-39 3.640876e-38 5.076041e-38
5.70463e-40 3.4147962e-38 5.3375044e-38 -3.706308e-39 1.9316221e-38 -6.993694e-39 -3.1723245e-38 6.802092e-38
1.294126e-38 4.852737e-38 5.833049e-38 6.341301e-38 4.7289956e-38 -4.826368e-38 3.43801e-38 -1.1791393e-38
-6.851984e-39 -4.4574564e-38 2.8331365e-38 -4.344282e-39 -1.484107e-39 -3.3823018e-38 1.4858403e-38 3.3586027e-38
1.8300631e-38 -2.821364e-38 -3.770078e-38 -5.1898215e-38 3.8554642e-38 4.49371e-38 -2.556194e-39 -3.1242869e-38
1.0306015e-38 -2.472636e-38 3.8312963e-38 2.256343e-38 2.2393802e-38 -2.6666368e-38 4.797667e-38 5.847775e-39
-5.176096e-38 -1.2779563e-38 -1.9329948e-38 4.410834e-39 8.128813e-39 -4.6045003e-38 -3.1847675e-38 -2.3132233e-38
-3.171605e-39 1.910931e-39 3.319967e-38 1.453964e-38 1.548405e-39 1.162147e-39 -6.311999e-38 5.2259924e-38
5.576728e-38 -1.2753922e-38 6.00831e-39 -4.745937e-38 6.1219434e-38 4.0664132e-38 1.4286315e-38 8.9393e-40
-1.3601087e-38 2.5495025e-38 1.1946766e-38 -4.1494465e-38 5.361654e-38 5.4678397e-38 -4.2655464e-38 9.082969e-39
3.302328e-39 2.1968582e-38 7.859618e-39 8.30763e-40 1.0327361e-38 3.6733363e-38 -2.4772468e-38 1.2996127e-38
3.299016e-38 8.871056e-39 -6.0433905e-38 -9.31537e-39 -5.471963e-38 3.776181e-39 -6.2962375e-38 -8.6917e-40
4.4572922e-38 2.5182617e-38 -3.6469628e-38 -4.0479443e-38 3.9336107e-38 -2.9813984e-38 -5.246765e-38 -3.814223e-38
-4.356004e-38 3.780658e-39 -3.2442332e-38 -7.06874e-40 -1.2298017e-38 -1.0531265e-38 -2.486392e-38 9.963137e-39
4.0424574e-38 -2.804993e-39 5.141154e-38 -2.0782627e-38 -2.7469267e-38 2.4174072e-38 5.7301964e-38 2.3504516e-38
-3.0575996e-38 3.7756978e-38 -3.4199698e-38 -3.2364403e-38 2.8375795e-38 3.6958008e-38 -1.630867e-38 2.9909707e-38
-5.336008e-38 5.976901e-38 -2.0479722e-38 -1.3086398e-38 1.02883e-40 -4.3019672e-38 3.2535578e-38 -3.149022e-39
-3.9738779e-38 -1.6170051e-38 3.8738893e-38 2.2298526e-38 -4.1455308e-38 -6.2090223e-38 6.5083677e-38 9.524442e-39
6.7539346e-38 6.94924e-38 -2.466195e-38 -2.0914207e-38 -3.9997397e-38 -4.2623458e-38 4.0393538e-38 1.185987e-38
-2.7706462e-38 4.4596968e-38 8.85781e-39 -3.4304627e-38 -1.2832024e-38 8.708341e-39 7.572171e-39 5.007735e-38
-3.1833073e-38 -3.4852232e-38 4.839905e-38 -2.489873e-39 4.0023553e-38 -1.9609262e-38 -5.351973e-38 -1.1797242e-38
3.460986e-39 -3.4874555e-38 -4.6890342e-38 -3.183142e-39 -8.507894e-39 2.0066361e-38 -4.2122286e-38 1.130622e-38
4.137012e-38 -5.942705e-38 2.8258187e-38 8.402169e-39 6.7196275e-38 -6.032104e-38 -3.3903738e-38 3.5714558e-38
3.741538e-38 -2.1928969e-38 2.3274392e-38 -3.626154e-39 -1.9644152e-38 1.3753062e-38 4.690561e-39 5.700512e-39
2.755084e-38 -1.0590934e-38 6.00025e-40 -5.803287e-38 3.45967e-38 -4.9970847e-38 -2.562805e-39 2.7315085e-38
-2.4432527e-38 -3.4393397e-38 -5.038566e-38 1.0579918e-38 4.4153836e-38 3.8337598e-38 -4.364548e-38 -2.2139403e-38
00000000: e2c5 0681 af05 2c81 547d 2281 0336 ad01
00000010: de20 1e00 c8e1 1d81 b005 8800 9cb9 4c81
00000020: 8c40 2e80 e8ac 6701 8f12 a500 de11 0900
00000030: 58cb f380 94c6 5b01 5438 f600 4b77 2e81
00000040: 06f5 0001 55b7 0700 3546 3c81 689c 9981
00000050: 0160 4381 6b32 9f01 366e 2b81 7f15 6b00
00000060: 64b0 8101 6eee 8801 4931 5900 bd78 da00
00000070: 7bc3 2180 816a b180 474e 8801 7239 5881
00000080: cd79 b200 4ad1 af80 6434 3880 82ba 5a01
00000090: a0bc 8f01 863a 3401 bd4e 4700 24b3 6081
000000a0: 2d5a a181 921f ab81 3493 7001 fb60 9201
000000b0: 0548 fa00 8997 6501 2763 5c80 34b3 4181
000000c0: f537 86bc 440e 2881 1bb0 6901 4873 a980
000000d0: d76e f300 d814 2f80 683a 4601 d82e 8a01
000000e0: 3836 0600 50eb 3901 fa4c 9101 ae5b 2880
000000f0: c455 d200 9327 4c80 c0b7 2c81 aa2b b901
00000100: f8ea 8c00 a41a 8401 6bca 9e01 6ba0 ac01
00000110: 4abc 8001 e062 8381 de2e 3b01 9b65 8080
00000120: 8b9c 4a80 e0af 7281 2940 1a01 174e 2f80
00000130: 1629 1080 6826 3881 2fcb a100 17dc 3601
00000140: b746 c700 139c 1981 3843 4d81 c747 8d81
00000150: 54e9 5101 2da9 7401 a1d5 1b80 341a 2a81
00000160: fa38 7000 849f 0681 7a98 5001 aab1 f500
00000170: cfd8 f300 7e2f 1181 dc9a 8201 38ad 3f00
00000180: 20e8 8c81 3928 8b80 087c d280 9c07 3000
00000190: d383 5800 5eb1 7a81 2e65 2d81 41e3 fb80
000001a0: 2589 2280 e6ce 1400 96c1 3401 9a52 9e00
000001b0: 53dc 1000 98a7 0c00 37d4 ab81 da43 8e01
000001c0: 1fd0 9701 bfe0 8a80 b96c 4100 5b32 8181
000001d0: b8a7 a601 8765 5d01 6f90 9b00 eabb 0900
000001e0: 4c1a 9480 e1ce 0a01 b916 8200 d8ea 6181
000001f0: 46f5 9101 48d9 9401 0a3d 6881 9fe7 6200
00000200: 8cf5 2300 7837 ef00 6b95 5500 d40b 0900
00000210: 7b74 7000 d6fe 4701 c8df 0681 ea83 8d00
00000220: 929d 3301 e598 6000 4984 a481 766f 6580
00000230: 04f6 9481 751e 2900 5f66 ab81 e476 0980
00000240: 96ad 7201 721b 0901 3e8f 4681 1c64 5c81
00000250: 882a 5601 a152 2281 9ed4 8e81 82aa 4f81
00000260: d629 6d81 f02a 2900 03a2 3081 7ab2 0780
00000270: dee9 8580 e2ac 7280 3f5f 0781 2c7d 6c00
00000280: a217 5c01 2e8b 1e80 9df4 8b01 824d e280
00000290: 928e 1581 bd9d 0301 a4fd 9b01 07f1 ff00
000002a0: b878 2681 8c91 4d01 6c33 3a81 6535 3081
000002b0: 167e 1a01 f237 4901 f095 b180 0cd8 2201
000002c0: 8c42 9181 ecb4 a201 2201 df80 8e7f 8e80
000002d0: cc1e 0100 ac38 6a81 fa23 3101 314a 2280
000002e0: c65b 5881 8613 b080 23ea 5201 38cf f200
000002f0: 44b4 6181 9206 a981 b42c b101 45b6 6700
00000300: 0edc b701 222d bd01 be45 0681 4dbc e380
00000310: 3cc4 5981 6e10 6881 60ec 5b01 7e24 8100
00000320: 2cd9 1681 1acf 7201 f873 6000 acc5 3a81
00000330: 76ba 8b80 50d3 5e00 2274 5200 d252 8801
00000340: d450 2d81 ecc0 3d81 37c1 8301 c11c 1b80
00000350: b1e8 5901 a586 d580 cfb1 9181 e975 8080
00000360: d2af 2500 09e0 3d81 994b 7f81 4ea9 2280
00000370: 8ca4 5c80 da80 da00 e655 6581 241d 7b00
00000380: 883d 6101 9cc6 a181 2ada 1901 d47d 5b00
00000390: f8ec b601 a135 a481 ea96 3881 d472 4201
000003a0: 6eb5 4b01 0bc9 ee80 896f fd00 3e7c 2780
000003b0: e7e7 d580 f1c1 9500 6013 3300 b512 3e00
000003c0: 4400 1601 3753 7380 a088 0600 02fb 9d81
000003d0: c35c 3c01 9908 8881 0fe8 1b80 acb7 1401
000003e0: f905 0581 6641 3b81 ae29 8981 8234 7300
000003f0: 7765 7001 d0ba 5001 eca0 6d81 a613 f180

fc2.weight f4 [300, 402]
2.8395957e-38 5.022597e-38 -3.825148e-38 -8.184928e-39 2.1545098e-38 2.5517152e-38 5.319429e-38 -2.7383614e-38
-1.2223302e-38 -2.6019938e-38 -5.261213e-38 -5.50907e-39 -6.4657133e-38 2.0920674e-38 1.625199e-38 9.04207e-40
-1.6197396e-38 6.2446265e-38 1.659776e-39 2.199959e-38 4.758562e-38 -1.8283021e-38 -5.874815e-38 6.548086e-38
3.699789e-38 -5.465176e-39 4.5568735e-38 2.809989e-38 3.241283e-38 3.8855036e-38 -2.343935e-39 3.50171e-39
-3.3120048e-38 3.0103428e-38 -6.202989e-38 3.709024e-38 -3.566189e-38 -1.8649422e-38 -5.784152e-38 -3.7213532e-38
-1.2857777e-38 3.9825328e-38 -3.530752e-38 4.608321e-39 -3.1397535e-38 -4.543662e-38 -6.7077467e-38 3.306134e-38
1.2063044e-38 6.239009e-38 -1.0998803e-38 5.831978e-38 4.0515922e-38 -6.278261e-38 -3.3502703e-38 6.250614e-38
4.4738124e-38 6.607146e-38 -6.820911e-38 2.3263707e-38 -2.4180358e-38 -3.219164e-39 -6.008512e-38 -4.910976e-38
2.5921578e-38 3.6168623e-38 -2.186743e-39 1.3953727e-38 1.1178674e-38 -6.957484e-38 2.6992652e-38 4.7871405e-38
3.7352933e-38 5.6567796e-38 1.4983647e-38 1.5817857e-38 5.6467356e-38 -3.6481337e-38 -1.6052872e-38 4.957907e-38
7.906642e-39 -2.04288e-39 1.5254288e-38 5.731018e-38 -2.882916e-38 -4.0302958e-38 -1.5108038e-38 -4.4829376e-38
-8.565476e-39 -3.31198e-38 5.96942e-39 -4.440595e-38 -4.3269552e-38 -2.9686766e-38 -1.1949713e-38 2.8783147e-38
3.231743e-38 3.0833454e-38 -3.0251635e-38 2.1536253e-38 7.437543e-39 -4.659314e-38 3.035013e-38 5.6196777e-38
-3.7215e-38 3.330272e-38 -3.0832467e-38 -9.146398e-39 1.55988e-38 3.6628798e-38 4.2816383e-38 5.0308016e-38
-3.7117773e-38 -3.2550863e-38 3.6944617e-38 -1.7236846e-38 3.08124e-38 4.854395e-38 -6.469061e-38 -3.6153018e-38
-6.256377e-38 -1.5553494e-38 -4.07655e-38 -2.5274427e-38 3.854018e-38 -3.5099668e-38 -5.701952e-38 -1.9796536e-38
-2.358811e-39 -1.2414327e-38 1.3723286e-38 5.448531e-38 -4.39445e-39 -5.044698e-38 -3.0892353e-38 -5.838703e-38
4.681552e-38 -6.141826e-38 2.4875178e-38 -6.7545523e-38 6.788523e-38 -4.740772e-39 -5.564349e-38 -4.343718e-38
-1.7763269e-38 6.728309e-38 6.077134e-38 6.48931e-38 -6.464143e-38 5.5634094e-38 -7.21445e-40 -4.1741027e-38
-1.2895816e-38 -2.1518193e-38 3.91303e-39 -6.460383e-38 -4.306134e-38 -5.109634e-38 6.7976293e-38 -6.171259e-38
-5.523694e-39 4.3015984e-38 -2.932976e-38 -3.244433e-38 -2.7806604e-38 8.130166e-39 6.926515e-38 -8.24143e-40
-4.516376e-38 -1.251531e-38 1.64249e-38 -6.212324e-38 3.5050936e-38 -6.9697817e-38 6.6475335e-38 1.1849649e-38
-2.090197e-38 4.1279383e-38 -2.7285478e-38 2.69843e-39 3.9514184e-38 3.8260672e-38 -2.4083982e-38 -1.0208112e-38
1.5137857e-38 4.835732e-38 -6.496357e-38 -6.7189717e-38 -1.553345e-38 3.2172546e-38 8.104696e-39 -2.5673783e-38
-8.314408e-39 2.397004e-38 7.481409e-39 -5.0169063e-38 2.278242e-39 -2.486982e-38 4.203694e-39 6.170092e-38
2.3574033e-38 -1.2044272e-38 3.6491695e-38 6.722135e-38 8.134683e-39 -6.304843e-38 2.3922485e-38 -5.639286e-38
2.8260457e-38 -8.18995e-39 3.406996e-38 8.310305e-39 -1.885539e-38 2.0938695e-38 -3.487296e-38 -4.750561e-38
1.4145424e-38 -5.532326e-39 -4.812291e-38 5.2060884e-38 1.3875321e-38 4.2569822e-38 5.446281e-38 8.662592e-39
-4.611003e-38 -6.204629e-38 -6.335802e-38 -8.358913e-39 -4.7669147e-38 -5.7907034e-38 6.8242764e-38 2.80337e-39
2.940135e-38 6.778453e-38 -5.236659e-38 9.197742e-39 -6.919269e-38 -7.403732e-39 -1.3836331e-38 -4.334779e-38
5.386079e-38 9.00323e-39 9.97388e-40 5.427543e-39 4.305551e-39 -1.557522e-38 2.1914929e-38 3.9253464e-38
5.8914926e-38 6.240517e-38 1.1640228e-38 -4.3343742e-38 4.39408e-39 5.2439145e-38 6.6713096e-38 -2.335135e-39
00000000: 309a 1a01 64ba 8801 c842 5081 4020 5980
00000010: f89a ea00 b8ed 0a01 02cf 9001 3017 1581
00000020: 9819 8580 80aa 0d81 4e39 8f81 0cfd 3b80
00000030: 7203 b081 54ce e300 f0f7 b000 90d8 0900
00000040: c05f b080 b2fe a901 c812 1200 e88d ef00
00000050: 568a 8101 a015 c780 7ced 9f81 8041 b201
00000060: 886f 4901 b082 3b80 8c19 7801 88fd 1801
00000070: e478 3001 048c 5301 f085 1980 5821 2600
00000080: 9c52 3481 0ee6 2301 86dc a881 40f0 4901
00000090: 6c29 4281 0013 cb80 a875 9d81 189c 4a81
000000a0: 4002 8c80 68d4 5801 803b 4081 202e 3200
000000b0: c7f1 2a81 6861 7781 2c9a b681 c800 3401
000000c0: dc5a 8300 8cd7 a901 30c4 7780 f4c2 9e01
000000d0: f496 5c01 18e9 aa81 f467 3681 6c28 aa01
000000e0: d893 7301 16dd b301 d0ae b981 c051 fd00
000000f0: 80a6 0381 b80d 2380 3891 a381 82b0 8581
00000100: 6821 0d01 b4eb 4401 c0cf 1780 50f1 9700
00000110: 98b9 7900 9666 bd81 44f6 1201 8051 8201
00000120: 645e 4b01 00fe 9901 5028 a300 c03d ac00
00000130: 01b8 9901 909f 4681 e0cc ae80 92f7 8601
00000140: 8018 5600 b83e 1680 c01a a600 5e03 9c01
00000150: fcf5 1c81 206e 5b81 1083 a480 0813 7481
00000160: 1045 5d80 4452 3481 5000 4100 dcc4 7181
00000170: f494 6b81 50a1 2181 f01e 8280 dab5 1c01
00000180: ecf3 2f01 90df 2701 a0b4 2481 5082 ea00
00000190: d8fc 5000 5cad 7d81 e83d 2501 70fb 9801
000001a0: 249e 4a81 3851 3501 30de 2781 7098 6380
000001b0: 1cdb a900 186d 4701 541d 6901 92f3 8801
000001c0: a016 4a81 4839 3181 4825 4901 50b1 bb80
000001d0: 38c2 2701 3226 8401 c61a b081 f4d5 4481
000001e0: 9650 aa81 d05c a980 d0f2 5d81 699b 0981
000001f0: 2cd5 5101 cc19 3f81 ce38 9b81 b090 d780
00000200: 68af 1980 182e 8780 f06e 9500 b852 9401
00000210: f0d9 2f80 6a54 8981 a831 2881 d2f1 9e81
00000220: 50e3 7e01 4832 a781 f06e 0701 5ce0 b781
00000230: 1acd b801 589f 3380 da79 9781 987e 6c81
00000240: c46c c180 7829 b701 716f a501 e4a7 b001
00000250: 80f8 af81 4e73 9701 18db 0780 8042 6381
00000260: 4a6c 8c80 f84f ea80 f09b 2a00 4cde af81
00000270: c072 6a81 f418 8b81 900c b901 66ff a781
00000280: d025 3c80 8833 6a01 b8af 1f81 cca4 3081
00000290: c064 1781 9887 5800 c48e bc01 60f9 0880
000002a0: 18e5 7581 9847 8880 f0d9 b200 941d a981
000002b0: e0d5 3e01 4abc bd81 8cf6 b401 0008 8100
000002c0: 309a e380 10bf 6001 688e 1481 2062 1d00
000002d0: bc22 5701 984f 5001 2c20 0381 1028 6f80
000002e0: 30d6 a400 22a4 8301 00d9 b081 66e8 b681
000002f0: f024 a980 fc29 2f01 9840 5800 08c8 0b81
00000300: 3089 5a80 5c81 0201 2077 5100 bc92 8881
00000310: d0ce 1800 7867 0781 30c6 2d00 44f7 a701
00000320: 6859 0001 8826 8380 00ae 4601 72fe b601
00000330: 3094 5800 58a2 ab81 143f 0201 1684 9981
00000340: 54dd 1901 402e 5980 987e 3901 c07d 5a00
00000350: 2851 cd80 9000 e400 d0dd 3d81 9452 8181
00000360: b007 9a00 e03d 3c80 c600 8381 24b9 8d01
00000370: c016 9700 acc5 6701 0a43 9401 c853 5e00
00000380: 000c 7b81 f4e7 a881 187a ac81 4005 5b80
00000390: 8cc4 8181 50a3 9d81 44c6 b901 a886 1e00
000003a0: 8013 2001 ec86 b801 308e 8e81 9027 6400
000003b0: 445c bc81 989e 5080 10aa 9680 0002 6c81
000003c0: 7e9f 9201 5809 6200 50dc 0a00 c819 3b00
000003d0: 20e2 2e00 6099 a980 e8a1 ee00 58b7 5501
000003e0: b661 a001 0ee2 a901 38c0 7e00 5cfc 6b81
000003f0: e8d8 2f00 c0c0 8e01 3e9c b501 686d 1980

fc2.bias f4 [300]
-5.2896125e-38 -6.136988e-38 -4.6294316e-38 -2.873044e-38 -1.3214382e-38 -5.0002253e-38 -5.7355426e-38 -5.716027e-38
-3.8902837e-38 -5.5303264e-38 -4.6455348e-38 -3.2909848e-38 -6.855535e-38 -5.581116e-38 0.0034204386 -4.73952e-38
-3.2529137e-38 -4.7189185e-38 -1.4196817e-38 -2.2494786e-38 -5.149989e-38 -4.7880637e-38 -3.2752762e-38 -6.704184e-38
-2.7726927e-38 0.010857854 -6.1194267e-38 -1.7668822e-38 -1.8804813e-38 -4.6072622e-38 -3.837972e-38 -4.4294445e-38
-3.3590593e-38 -8.024665e-39 -1.1911047e-38 -3.6826168e-38 -1.6400464e-38 -4.239749e-38 -6.0208823e-38 -1.4110543e-38
-2.1880524e-38 -5.055506e-38 -1.4508248e-38 -1.5309502e-38 0.0075190896 0.013275637 -1.7651816e-38 -5.9153236e-38
-6.647955e-38 -3.1000943e-38 -3.361863e-38 -5.0741763e-38 -5.5313544e-38 -1.627995e-38 -5.9505265e-38 -3.8971122e-38
-3.819196e-38 -2.2980115e-38 -1.6288654e-38 -3.0018173e-38 -2.705691e-38 -3.2885658e-38 -5.2526103e-38 -4.6646922e-38
-2.760485e-38 -2.2058446e-38 -6.485597e-38 -6.2328764e-38 -1.4116742e-38 -2.3908904e-38 -3.873749e-38 -5.4396366e-38
-4.525832e-38 -2.3164478e-38 -1.6897367e-38 -6.8412574e-38 -4.962991e-38 -4.796091e-38 -6.3763575e-38 -2.8251166e-38
0.0068371594 -6.456672e-38 -3.1013997e-38 -4.0863982e-38 -4.5281256e-38 -2.4150594e-38 -3.604808e-38 -4.1383628e-38
-6.1224445e-38 -3.309868e-38 -3.9364893e-38 -6.2827957e-38 -1.7744317e-38 -2.070555e-38 -3.1374725e-38 -4.898916e-38
-6.0319145e-38 -5.0191383e-38 -1.4045866e-38 -5.9451926e-38 -5.039648e-38 0.00689717 -7.621952e-39 -3.006311e-38
-6.38571e-38 -4.9260495e-38 -5.29552e-38 -3.403835e-39 -6.4110324e-38 -5.323998e-38 -5.7170186e-38 -2.4169573e-38
-2.636802e-38 -3.1697338e-38 -4.5369964e-38 -3.5779768e-38 -3.6258559e-38 -1.0050931e-38 -2.0935719e-38 -2.8233524e-38
-3.3173858e-38 -3.991868e-38 -2.297381e-38 -6.575482e-38 -3.2941085e-38 -3.0124274e-38 -5.4958836e-38 -5.2503733e-38
-3.2978758e-38 -2.886547e-38 -5.680806e-38 -5.270663e-38 -1.9823365e-38 -3.3112038e-38 -2.368493e-39 -6.262332e-38
-5.3579263e-38 -2.9281124e-38 -4.0320912e-38 -3.8468238e-38 -5.6300434e-38 -4.5690755e-38 -1.1541321e-38 -1.2158631e-38
-1.3102048e-38 -3.5016403e-38 -4.354374e-38 -1.8161246e-38 -4.7213955e-38 -2.9006295e-38 -1.3479252e-38 -4.2656282e-38
-3.889038e-38 -4.2610818e-38 -4.2672823e-38 0.0076927487 -4.2882656e-38 -2.8551196e-38 -5.1768046e-38 -3.056875e-38
-2.3747057e-38 -6.3047254e-38 -2.9445378e-38 -4.5137514e-38 -4.037495e-38 -5.398047e-38 -6.042248e-38 -2.8746848e-38
-4.9972344e-38 -4.84657e-38 -5.520503e-38 -4.5139187e-38 -1.9897358e-38 -4.2567428e-38 -1.3517994e-38 -6.727415e-38
0.008806453 -2.7160785e-38 -6.150779e-38 -5.423275e-38 -3.0261861e-38 -6.5057327e-38 -4.2427327e-38 -1.7335924e-38
-2.0891461e-38 -4.751699e-38 -5.34106e-38 -4.991896e-38 -1.6754006e-38 -4.2262612e-38 -2.492842e-38 -2.830476e-38
-3.6151746e-38 -2.1980049e-38 -4.2578706e-38 -2.322402e-38 -3.565577e-38 -3.9982212e-38 0.008817173 -2.78525e-38
-5.545305e-38 -2.1452564e-38 -3.8701308e-38 -3.229562e-38 -3.5978714e-38 -1.1654231e-38 -2.0339602e-38 -6.410295e-38
-3.0344608e-38 -6.390643e-38 -2.6417822e-38 -5.436343e-38 -2.4092936e-38 -5.425462e-38 -5.4934975e-38 -4.260991e-38
-3.272887e-38 -5.821134e-38 -5.749518e-38 -2.363338e-38 -6.6282594e-38 -6.391527e-38 -3.1989766e-38 -3.5874922e-38
-3.1540843e-38 -1.9776049e-38 -4.4948005e-38 0.012998159 -2.906061e-38 -5.0042055e-38 -5.340367e-38 -2.8785033e-38
-6.0987984e-38 -6.9134803e-38 -6.438324e-38 -6.4815474e-38 -4.7398775e-38 -3.79747e-38 -3.659533e-38 -1.8449881e-38
-1.670667e-38 -3.678404e-38 -5.426793e-38 -4.5578048e-38 -3.2620003e-38 -5.726972e-39 -2.4786206e-38 -3.1745511e-38
-1.9019911e-38 -4.5364555e-38 -5.8519827e-38 -5.535554e-38 -3.9487912e-38 -2.3670111e-38 -5.240583e-38 -1.7132861e-38
00000000: 38ff 8f81 9010 a781 dc0c 7c81 646c 1c81
00000010: 52e4 8f80 7c1e 8881 e622 9c81 e59a 9b81
00000020: a4ce 5381 c08c 9681 4eed 7c81 a22d 3381
00000030: 1ba0 ba81 b4ee 9781 7029 603b a205 8181
00000040: 001b 3181 1076 8081 f396 9a80 50f2 f480
00000050: 2f32 8c81 ef57 8281 b052 3281 5881 b681
00000060: b2f5 1681 24e5 313c 2e96 a681 7d65 c080
00000070: 2bc4 cc80 ddd7 7a81 86f5 5081 7229 7181
00000080: 74e2 3681 8061 5780 27b3 8180 3080 4881
00000090: d295 b280 7ad5 6681 6de7 a381 74a6 9980
000000a0: 0042 ee80 bc9f 8981 18fb 9d80 aab4 a680
000000b0: b262 f63b 0f82 593c 1536 c080 ca07 a181
000000c0: 7cf9 b481 02c9 2881 8809 3781 d921 8a81
000000d0: ea93 9681 e145 b180 1efd a181 d12d 5481
000000e0: d3ef 4f81 363b fa80 245e b180 3a6f 2381
000000f0: d44f 1381 eb0b 3381 5afd 8e81 52f8 7d81
00000100: 8c4b 1681 f931 f080 048e b081 cfac a981
00000110: bcb7 9980 262c 0281 2ee8 5281 bc14 9481
00000120: e468 7681 243d fc80 fcfe b780 9b3c ba81
00000130: 001b 8781 e08f 8281 ba94 ad81 61d0 1981
00000140: 400a e03b 70c4 af81 34db 2881 147c 5e81
00000150: dc88 7681 047d 0381 b143 4481 5c50 6181
00000160: 36ab a681 d434 3481 a752 5681 b208 ab81
00000170: f037 c180 a676 e180 fcd1 2a81 765c 8581
00000180: 4f34 a481 4aa2 8881 29f2 9880 f2d7 a181
00000190: 3831 8981 a801 e23b e7fe 5280 dcad 2381
000001a0: e7d5 ad81 8e19 8681 6328 9081 8210 2580
000001b0: 6086 ae81 daee 9081 cea1 9b81 7897 0381
000001c0: a88f 0f81 a493 2c81 8004 7781 b8cd 4281
000001d0: 0e69 4581 e871 6d80 44f8 e380 cab7 1981
000001e0: 9c9d 3481 8556 5981 a329 fa80 6c00 b381
000001f0: 2c59 3381 1c03 2481 b89c 9581 c3ed 8e81
00000200: ae8d 3381 9828 1d81 71a5 9a81 297b 8f81
00000210: 7adb d780 7247 3481 65ca 1980 167a aa81
00000220: 4cdb 9181 ee6b 1f81 2687 5b81 e670 5181
00000230: ad43 9981 9ec3 7881 82ac 7d80 5165 8480
00000240: 2eab 8e80 bea5 3e81 1e13 6d81 2ac2 c580
00000250: 5387 8081 e0ec 1d81 acc6 9280 2e3e 6881
00000260: 47bd 5381 d0fe 6781 3c55 6881 7413 fc3b
00000270: b379 6981 8f72 1b81 10ed 8c81 9e6e 2681
00000280: 914a 0181 86a1 ab81 de50 2081 83c0 7581
00000290: 78d2 5b81 e6f2 9281 537c a481 4283 1c81
000002a0: a409 8881 aaef 8381 4a48 9681 d8c2 7581
000002b0: bda9 d880 56c2 6781 ab32 9380 3d23 b781
000002c0: f148 103c 9ce0 1381 ac70 a781 b6a2 9381
000002d0: e1c2 2481 571a b181 10ff 6681 81c5 bc80
000002e0: e57c e380 825a 8181 c165 9181 70e4 8781
000002f0: 5a6f b680 7c19 6681 25b9 0781 141b 1a81
00000300: 2ed4 4481 6f57 ef80 0ed2 6781 1ee3 fc80
00000310: e420 4281 12af 5981 e775 103c b8a4 1781
00000320: 23f5 9681 0599 e980 c0b5 5281 86d5 2f81
00000330: 02e3 4381 41e7 7e80 897a dd80 3c81 ae81
00000340: 3636 2581 48f8 ad81 12d5 0f81 c8fd 9381
00000350: a72c 0381 f4b1 9381 178c 9581 8cfd 6781
00000360: 6331 3281 6277 9e81 4b84 9c81 20ac 0081
00000370: 3a70 b481 71fe ad81 3a2b 2e81 5852 4381
00000380: 85b9 2b81 9457 d780 60b8 7481 3bf6 543c
00000390: 9438 1e81 393a 8881 ed60 9181 7bb8 1c81
000003a0: 6c06 a681 ed33 bc81 9244 af81 cb71 b081
000003b0: 2008 8181 02c1 4e81 723e 4781 c3e6 c880
000003c0: 66eb b580 7845 4881 3abb 9381 8726 7881
000003d0: a699 3181 785c 3e80 eef2 0681 c9d6 2c81
000003e0: c61b cf80 f6fc 7681 5e4e 9f81 2eb1 9681
000003f0: 1efe 5681 52df 0081 88a9 8e81 728f ba80

fc3.weight f4 [1, 300]
-3.7517446e-38 4.469233e-38 3.9556968e-38 -4.458217e-38 1.8947879e-38 -3.0440558e-38 1.0845427e-38 -1.7997916e-38
-6.2377e-41 -7.655731e-39 -6.805586e-38 -3.195459e-38 2.461934e-39 -3.422671e-39 0.016167637 -5.8757437e-38
1.2116686e-38 -2.0213217e-38 -1.5520057e-38 -1.022128e-38 -9.126796e-39 3.2699345e-38 3.2560257e-38 3.434053e-39
9.236492e-39 0.052089408 5.341517e-38 -2.2963917e-38 -3.946337e-38 -8.6927e-39 1.340434e-39 -5.907503e-38
3.5782072e-38 -5.266775e-39 -9.23677e-39 1.211865e-39 4.0929406e-38 -7.277879e-39 4.6328233e-38 4.95134e-38
2.3419156e-38 -1.152023e-38 1.8889896e-38 -7.439153e-39 0.035891775 0.06384017 -4.35399e-40 4.9538367e-38
-4.51143e-38 1.3414263e-38 -6.2652536e-38 6.622919e-38 -3.868101e-39 8.523684e-39 1.5090215e-38 -5.262826e-39
-5.387037e-38 -1.7765267e-38 -6.910181e-39 4.826293e-38 8.92446e-39 -3.3109818e-38 1.0404357e-38 -1.4942095e-38
-7.058497e-39 2.6077472e-38 -1.8916729e-38 -5.7833583e-38 -1.1115538e-38 -3.668823e-38 3.4716247e-38 -5.3027606e-38
5.631297e-38 2.0398e-39 1.20318e-40 1.181225e-38 -6.294749e-39 -3.506517e-39 -1.5937413e-38 2.0617569e-38
0.0325913 1.3318393e-38 -4.2131358e-38 5.6119963e-38 -5.433658e-39 3.954899e-39 1.48466e-39 3.2659043e-38
-5.369368e-39 4.82644e-40 9.45997e-39 1.1882633e-38 1.6998325e-38 7.087737e-39 9.99154e-40 -4.713269e-38
-4.2640671e-38 3.4920195e-38 1.910222e-39 3.8511087e-38 -4.1830174e-38 0.032885525 -2.845833e-39 2.4104727e-38
-5.661581e-39 1.4847358e-38 -4.596991e-38 -4.984231e-39 2.8030992e-38 1.2587835e-38 -3.9829941e-38 2.673958e-39
2.16792e-39 1.769334e-38 -2.0823638e-38 -4.980152e-39 -2.8032909e-38 -6.265261e-39 -3.094726e-39 1.063542e-38
1.853436e-39 -5.915673e-39 -1.6817724e-38 2.1130304e-38 3.7823747e-38 -2.532045e-38 -7.604536e-39 -6.429739e-39
-3.038931e-38 -1.0802907e-38 -8.613063e-39 3.4469835e-38 -5.045357e-39 3.852188e-38 -9.413447e-39 -8.046282e-39
4.2623783e-38 2.1247412e-38 -4.880792e-38 4.5368288e-38 -3.8941294e-38 1.8416009e-38 -1.6062225e-38 -3.146895e-39
1.1407187e-38 -9.95583e-39 5.001058e-39 -1.5748018e-38 -3.125361e-38 4.874527e-39 5.676328e-39 -1.1444161e-38
4.6371517e-38 -1.6831477e-38 -2.602339e-39 0.036718428 2.652954e-38 5.995906e-38 8.62297e-40 -5.558468e-39
-2.788161e-39 -1.1175692e-38 -1.3095696e-38 1.139352e-38 -3.98201e-39 2.1633164e-38 -2.4663167e-38 1.7135483e-38
1.6742704e-38 -2.9296793e-38 -2.131486e-38 -4.752412e-38 -6.817303e-38 5.007294e-38 2.921968e-39 -2.3588584e-38
0.042127207 -3.795893e-39 6.1212136e-38 -2.873186e-38 2.4918427e-38 1.8615824e-38 4.4608515e-38 1.9242333e-38
-1.133566e-39 2.2154115e-38 -2.2907699e-38 1.3322007e-38 -3.441465e-38 -2.71835e-39 -4.3470467e-38 -6.731462e-39
2.853182e-39 2.07374e-40 -2.955175e-39 3.0078406e-38 -1.0397836e-38 -1.6969479e-38 0.042171594 -3.9733947e-38
1.9215267e-38 -7.50208e-40 2.2286628e-38 3.954208e-38 -6.744126e-39 2.457998e-39 -3.3733744e-38 -1.2692353e-38
-9.660249e-39 4.6424334e-38 -1.5200103e-38 -4.86207e-38 -2.8784722e-38 4.24814e-39 -6.45444e-38 2.4235992e-38
1.40908e-38 7.13279e-40 3.7307358e-38 -1.7666482e-38 -1.5892398e-38 2.1081287e-38 1.4227896e-38 6.481241e-38
-5.9908424e-38 7.0417e-41 -4.0555937e-38 0.062517956 1.342726e-39 2.498248e-39 4.8017695e-38 -1.217597e-39
-5.993475e-38 -5.6209635e-38 -3.5895846e-38 -1.304911e-38 1.93645e-40 -2.858844e-39 2.0231025e-38 3.3093622e-38
1.4303237e-38 -3.7804566e-38 1.8427293e-38 4.411379e-39 6.506241e-38 -5.520197e-39 6.880485e-39 -1.5927394e-38
-1.804284e-39 2.81885e-39 3.476864e-38 5.668389e-38 -1.3480404e-38 -9.245146e-39 1.1931663e-38 2.7697513e-38
00000000: b043 4c81 0454 7301 5e5e 5701 7aba 7281
00000010: fa52 ce00 f2bb 2581 a318 7600 defa c380
00000020: e2ad 0080 105d 5380 0344 b981 33fa 2d81
00000030: dfce 1a00 0445 2580 fe71 843c f5f3 9f81
00000040: 64f0 8300 3a1a dc80 9bff a880 c54c 6f80
00000050: cb61 6380 3c08 3201 6046 3101 be64 2500
00000060: 9593 6400 b45b 553d f168 9101 0f0e fa80
00000070: e9db 5681 b6a7 5e80 9698 0e00 4ad1 a081
00000080: eed0 4201 a059 3980 5b94 6480 3032 0d00
00000090: 44d7 5e01 c43f 4f80 223c 7c01 cec9 8601
000000a0: 1403 ff00 b771 7d80 58b1 cd00 5501 5180
000000b0: 4103 133d a3be 823d b7bd 0480 34db 8601
000000c0: 28a0 7581 8211 9200 728e aa81 024b b401
000000d0: b11e 2a80 90d0 5c00 6151 a400 9e4e 3980
000000e0: 2ba6 9281 5672 c180 c63e 4b80 5a62 8301
000000f0: c32d 6100 5a44 3481 1d4b 7100 7bb4 a280
00000100: 38dc 4c80 b1fa 0d01 25fc cd80 2070 9d81
00000110: 9909 7980 eebf 4781 6303 3d01 d95a 9081
00000120: 6a4c 9901 2236 1600 664f 0100 bf9f 8000
00000130: 338b 4480 be2e 2680 068b ad80 6581 e000
00000140: 747e 053d 4306 9100 8b62 6581 e8c5 9801
00000150: d42a 3b80 a610 2b00 a12a 1000 10d0 3101
00000160: 9d77 3a80 6a41 0500 8c02 6700 f263 8100
00000170: 6a18 b900 ba2d 4d00 3ce1 0a00 b14e 8081
00000180: 6c28 6881 a61f 3e01 eccc 1400 9fac 5101
00000190: c1be 6381 f9b2 063d 06fd 1e80 163d 0301
000001a0: 2fa6 3d80 65ac a100 b448 7a81 0246 3680
000001b0: 809d 1801 c311 8900 d6da 5881 e81d 1d00
000001c0: 479b 1700 d5a9 c000 d5bf e280 a33a 3680
000001d0: 2ca0 1881 0039 4480 d6b2 2180 39cf 7300
000001e0: a02e 1400 7d6a 4080 f920 b780 b116 e600
000001f0: 9cee 4d01 8edb 0981 5ace 5280 7f03 4680
00000200: 8474 2581 1ca2 7580 b7c9 5d80 f0ab 3b01
00000210: 67f0 3680 aabb 5101 dc80 6680 c39d 5780
00000220: e210 6801 245d e700 28de 8481 2a02 7701
00000230: 3e04 5481 5788 c800 f3e6 ae80 4344 2280
00000240: 9936 7c00 ce68 6c80 ea74 3600 117b ab80
00000250: 2d29 2a81 3314 3500 4bcf 3d00 aa9d 7c80
00000260: 7678 7c01 4f47 b780 4356 1c80 1066 163d
00000270: c870 1001 5e39 a301 bc63 0900 bf86 3c80
00000280: 425c 1e80 48b1 7980 7999 8e80 8010 7c00
00000290: 395c 2b80 7690 eb00 7047 0681 c196 ba00
000002a0: d94f b600 c581 1f81 2819 e880 7a5f 8181
000002b0: ab95 b981 bf4f 8801 42d1 1f00 b06d 0081
000002c0: 948d 2c3d 6855 2980 a2a2 a601 5e6e 1c81
000002d0: 38ab 0701 58b5 ca00 32df 7201 cc87 d100
000002e0: ec57 0c80 a93c f100 5871 f980 5610 9100
000002f0: 055f 3b81 a799 1d80 fdac 6c81 944c 4980
00000300: 8311 1f00 1342 0200 d32d 2080 2ec3 2301
00000310: f038 7180 01c8 b880 1fbc 2c3d 0a55 5881
00000320: 593c d100 462b 0880 0dae f200 9e49 5701
00000330: e16f 4980 e6c3 1a00 faa9 3781 1e35 8a80
00000340: d830 6980 14c2 7c01 b483 a580 af5b 8481
00000350: 0cb8 1c81 1642 2e00 e2b4 af81 0bf4 0301
00000360: 6b6f 9900 55c4 0700 de1e 4b01 f75e c080
00000370: 8a0d ad80 0d8e e500 96ed 9a00 a86f b001
00000380: 1416 a381 4bc4 0000 bace 5c81 6a09 803d
00000390: f99e 0e00 1934 1b00 73b7 8201 2a42 0d80
000003a0: 6d28 a381 6604 9981 826f 4381 9c17 8e80
000003b0: ce1b 0200 4b21 1f80 de4b dc00 c72d 3401
000003c0: 9bbf 9b00 e0d3 4d81 cca7 c800 2109 3000
000003d0: e21d b101 101c 3c80 feeb 4a00 186f ad80
000003e0: 9ca5 1380 cfb1 1e00 694c 3d01 e84e 9a01
000003f0: e2c9 9280 b5ab 6480 9fec 8100 b3cc 1601

bn1_state.weight f4 [400]
-7.597318e-39 -2.0116671e-38 2.1094941e-38 4.2082747e-38 1.938167e-38 3.210376e-38 1.9358156e-38 2.0821064e-38
1.7726605e-38 1.4221715e-38 1.612516e-38 5.144588e-39 1.9480819e-38 8.652767e-39 1.6696548e-38 1.8504457e-38
-1.99583e-40 1.9819046e-38 1.751148e-38 4.802105e-38 2.0775177e-38 2.1095717e-38 1.5087973e-38 2.2079617e-38
1.5402648e-38 1.8533893e-38 -1.5662218e-38 -8.565536e-39 -6.261617e-39 -2.7341054e-38 3.0451197e-38 1.5080742e-38
-5.883162e-39 1.6343582e-38 -2.7125231e-38 1.7165627e-38 2.014229e-39 -4.4169393e-38 1.6505023e-38 1.321078e-38
2.9873368e-38 1.9553623e-38 1.8829819e-38 1.9813287e-38 3.309808e-38 1.8781804e-38 2.875989e-38 2.1476743e-38
0.019857967 -2.1879033e-38 6.037685e-38 8.694103e-39 -6.581944e-39 -2.6670317e-38 1.4705016e-38 2.5896427e-38
1.8973905e-38 5.285249e-38 1.5946697e-38 1.6962993e-38 1.9233013e-38 1.2872e-41 1.855801e-39 -1.3441427e-38
2.3557817e-38 1.4514847e-38 -5.315211e-38 1.744498e-38 1.640741e-38 1.5313704e-38 2.7752158e-38 2.4006219e-38
6.6941283e-38 1.7198845e-38 1.8890968e-38 2.037333e-38 -2.703321e-38 1.8835026e-38 2.654876e-38 2.1826552e-38
1.9724153e-38 1.0943173e-38 2.691629e-38 1.845887e-38 3.143094e-38 1.8968743e-38 1.9333321e-38 2.0472961e-38
1.9203653e-38 3.5081305e-38 1.8666764e-38 5.2326093e-38 2.1806527e-38 1.700375e-39 1.8563431e-38 1.9867646e-38
1.1350904e-38 6.64968e-38 4.519999e-39 1.9792937e-38 -4.89174e-39 -1.7328988e-38 -1.3075906e-38 1.6401976e-38
5.731329e-39 1.6519147e-38 8.811508e-39 1.6358002e-38 4.7598247e-38 1.8091621e-38 -3.2583538e-38 2.1196923e-38
1.9821157e-38 3.217471e-38 1.9233948e-38 1.7087051e-38 -2.662444e-38 2.8967418e-38 2.0253939e-38 1.8397598e-38
1.5062372e-38 1.6666722e-38 1.608954e-38 3.099916e-38 1.4733465e-38 1.9705945e-38 1.8204581e-38 -2.0990504e-38
1.6964528e-38 1.534731e-38 2.469817e-39 2.0673749e-38 2.9973483e-38 1.8629043e-38 1.7918996e-38 7.388313e-39
2.0565741e-38 6.746742e-39 1.47783e-38 2.2394964e-38 2.3559487e-38 1.7200262e-38 1.87659e-38 1.7102318e-38
3.6047969e-38 2.2917076e-38 -2.3643666e-38 6.197516e-38 1.4262284e-38 4.4855575e-38 1.8401284e-38 3.5763233e-38
1.864645e-38 2.9655413e-38 1.6673306e-38 1.7134199e-38 1.8572531e-38 2.2375057e-38 7.56106e-40 1.7559312e-38
2.5081768e-38 1.5853723e-38 3.5315524e-38 -1.930841e-39 1.6196936e-38 1.8690746e-38 -8.625967e-39 -1.6624328e-38
9.18752e-40 1.5417667e-38 3.81929e-38 3.7304367e-38 -3.602869e-39 6.258708e-38 1.7649927e-38 2.3596538e-38
2.0897302e-38 3.2904612e-38 -2.6612222e-38 1.4580579e-38 -4.9366433e-38 1.7569294e-38 1.9046283e-38 2.2212006e-38
1.9696063e-38 1.9626775e-38 -6.747295e-38 2.898782e-38 1.8258784e-38 1.7335913e-38 2.3038842e-38 -4.8436055e-38
3.3079416e-38 2.131542e-38 2.0692962e-38 2.6049045e-38 5.936319e-39 -3.4497886e-38 1.7696415e-38 1.365812e-39
1.6804538e-38 1.9235157e-38 5.398169e-39 3.27007e-38 1.6300536e-38 6.7659566e-38 1.6835998e-38 1.616048e-38
2.882037e-38 1.8713028e-38 3.0307255e-38 2.0232296e-38 -2.9947085e-38 6.168e-41 1.9728444e-38 3.0050083e-38
-3.512753e-39 3.910869e-38 2.1181393e-38 -4.87232e-38 1.00722e-38 4.048234e-38 1.6836301e-38 2.613176e-39
1.6336363e-38 2.149463e-38 8.064733e-39 1.548759e-38 1.9577971e-38 4.1732709e-38 3.4564888e-38 -2.4394516e-38
2.1848882e-38 1.832603e-38 -1.38425e-38 1.5177056e-38 4.317597e-39 1.9441581e-38 1.7122861e-38 2.1666658e-38
2.1021587e-38 2.912126e-38 1.728339e-38 2.5294522e-38 1.6424646e-38 1.9017757e-38 1.7525736e-38 1.7143e-38
2.1717235e-38 2.2252973e-38 1.8615991e-38 -5.273262e-38 2.7961874e-38 1.6704108e-38 4.0429075e-38 9.176119e-39
00000000: 3bba 5280 180d db80 1db4 e500 ca1e 6501
00000010: 360c d300 1cca 2e01 aaca d200 a8b8 e200
00000020: 9006 c100 5bdc 9a00 6396 af00 0505 3800
00000030: 9920 d400 6538 5e00 2fcf b500 e67e c900
00000040: 5b2c 0280 70cf d700 e2ae be00 cab9 8201
00000050: be38 e200 47b6 e500 214b a400 fd6c f000
00000060: 51b8 a700 f4d0 c900 e48b aa80 3b45 5d80
00000070: d72e 4480 dedb 1481 c6ca 2501 f936 a400
00000080: dd0f 4080 42f7 b100 0eaf 1381 c9ea ba00
00000090: daee 1500 267b 7081 4ab9 b300 48da 8f00
000000a0: 66a5 2201 8ceb d400 e009 cd00 62bf d700
000000b0: fe33 3401 0784 cc00 7095 1c01 6cdc e900
000000c0: 2dad a23c d83d ee80 865c a401 9fab 5e00
000000d0: c8ab 4780 ff34 1181 9a1f a000 5afe 0c01
000000e0: 879b ce00 cfe0 8f01 e7a4 ad00 ecb5 b800
000000f0: d16d d100 e223 0000 3835 1400 3b5d 9280
00000100: ce42 0001 7d0d 9e00 9db1 9081 82f5 bd00
00000110: 2fa9 b200 60c0 a600 dd18 1701 c9b3 0201
00000120: 443b b601 6247 bb00 55b4 cd00 8ed8 dd00
00000130: cc2e 1381 6418 cd00 928b 1001 8cab ed00
00000140: eac6 d600 1d29 7700 d58b 1201 d2ff c800
00000150: 5620 2b01 238d ce00 6f85 d200 49ee de00
00000160: f91b d100 3400 3f01 5843 cb00 f771 8e01
00000170: ba73 ed00 f483 1200 4b23 ca00 ea56 d800
00000180: b499 7b00 8205 b501 eb37 3100 a886 d700
00000190: 2e44 3580 2bb2 bc80 4e62 8e80 099a b200
000001a0: 9d68 3e00 a9e0 b300 e6f2 5f00 741f b200
000001b0: 2393 8101 1400 c500 d366 3181 66d0 e600
000001c0: 52d5 d700 002d 2f01 6c70 d100 bf0f ba00
000001d0: 0ef5 1081 b0b6 1d01 be8b dc00 0555 c800
000001e0: c403 a400 0a7c b500 1733 af00 86c6 2801
000001f0: e86e a000 2894 d600 f73a c600 fc90 e480
00000200: 34ba b800 0e1e a700 d8e4 1a00 001e e100
00000210: f030 2301 31da ca00 df1e c300 9c73 5000
00000220: ebf0 df00 2c77 4900 e3eb a000 0cdc f300
00000230: 2245 0001 554b bb00 b257 cc00 4e3a ba00
00000240: 8943 4401 7c8b f900 76ba 0081 62b6 a801
00000250: 724d 9b00 8c37 7401 4b5f c800 acb6 4201
00000260: b70a cb00 9d75 2101 658e b500 2d93 ba00
00000270: a93c ca00 8ea4 f300 b73b 0800 3834 bf00
00000280: e28e 0801 bba1 ac00 a846 4001 6606 1580
00000290: 785e b000 3286 cb00 b0ed 5d80 dd05 b580
000002a0: 1b01 0a00 2fe2 a700 22f1 4f01 b31a 4b01
000002b0: 553b 2780 d460 aa01 d130 c000 c678 0001
000002c0: 2d8d e300 5626 3301 06e4 1081 b9c4 9e00
000002d0: 6263 8681 0b50 bf00 4a65 cf00 09de f100
000002e0: 9c78 d600 77b7 d500 c9ad b781 20d3 1d01
000002f0: 10d2 c600 79c5 bc00 ebde fa00 01db 8381
00000300: fa19 3401 b81a e800 8f53 e100 12d3 0d01
00000310: 0ba4 4000 09d3 3b81 68b2 c000 54df 0e00
00000320: 37fc b600 cb73 d100 e6c7 3a00 200a 3201
00000330: 437f b100 d62f b801 ea53 b700 d8f8 af00
00000340: bce9 1c01 4fc4 cb00 2602 2501 694f dc00
00000350: 250c 2381 f0ab 0000 e0d2 d600 b49b 2301
00000360: 2040 2680 8fed 5401 1ba5 e600 1da3 8481
00000370: 32ad 6d00 2668 5c01 c254 b700 7974 1c00
00000380: 22e3 b100 490e ea00 32d1 5700 1aa5 a800
00000390: 6b2f d500 e836 6301 6c30 3c01 fed0 0481
000003a0: cbe9 ed00 848d c700 42bb 9680 7543 a500
000003b0: b403 2f00 38b3 d300 9273 ba00 d4ed eb00
000003c0: a2e7 e400 1d8d 1e01 0f33 bc00 6bb7 0901
000003d0: 3bd9 b200 c515 cf00 9fd6 be00 b6ab ba00
000003e0: d17a ec00 3c50 f200 cfb5 ca00 468d 8f81
000003f0: 2a3d 1801 42e4 b500 e81d 5c01 49eb 6300

bn1_state.bias f4 [400]
-2.4245692e-38 1.3663142e-38 2.1730238e-38 6.6039766e-38 -5.0773987e-38 5.056682e-38 5.0986615e-38 7.547281e-39
4.8771464e-38 -2.746119e-39 -1.503223e-39 -2.49178e-38 4.1440678e-38 4.8270595e-38 4.845865e-38 3.048286e-38
1.3898863e-38 2.6660073e-38 2.2160336e-38 -2.3455618e-38 -6.801768e-39 2.593277e-39 2.4508407e-38 5.636815e-38
2.8923047e-38 -2.842795e-38 -6.882077e-38 6.101795e-38 3.887157e-39 -6.3949545e-38 -6.8694453e-38 5.0757474e-38
-2.6730138e-38 -3.4023504e-38 4.1415948e-38 3.8192827e-38 -5.679057e-38 4.1141944e-38 3.0556737e-38 -1.9917384e-38
-2.5297652e-38 5.4606045e-38 -2.7142243e-38 -6.001923e-38 2.921705e-38 -1.0404316e-38 1.8826994e-38 -1.066848e-39
9.825814e-09 -1.2589333e-38 -6.791967e-38 -4.7851574e-38 1.5811467e-38 -2.302591e-39 -6.419733e-38 -4.0287196e-38
-4.922238e-38 3.3326487e-38 -4.2714268e-38 3.9407898e-38 -3.4335355e-38 4.4108055e-38 1.377436e-38 -6.553014e-38
-2.8174507e-38 -4.307966e-38 9.420212e-39 -2.0090069e-38 -3.9043718e-38 4.374004e-38 4.0085275e-38 2.360827e-38
-1.3886341e-38 -4.217056e-39 2.6218518e-38 1.3538561e-38 -5.489115e-38 5.9951136e-38 6.904952e-38 5.048979e-38
-1.7268302e-38 -5.0301055e-38 -5.4805343e-38 -4.1192525e-38 -2.2992505e-38 6.4763396e-38 -9.26135e-40 1.0122375e-38
-6.4651113e-38 5.614853e-38 5.4847674e-38 6.0251664e-38 3.4939034e-38 -1.4108026e-38 2.1186265e-38 -3.2696665e-38
3.5939102e-38 6.8011954e-38 -3.4389266e-38 -4.1287297e-38 4.720765e-38 -2.149726e-39 -4.4864084e-38 -3.3102504e-38
-2.5416886e-38 -6.4548426e-38 -3.350935e-38 -4.9548905e-38 -1.0260991e-38 -2.53552e-39 5.163129e-38 5.8303545e-38
-3.791593e-38 -2.3652887e-38 3.1520808e-38 2.8079174e-38 -2.265348e-38 3.2864664e-38 -2.0958111e-38 -3.65257e-40
-5.9866015e-38 2.2208047e-38 3.654981e-38 -2.9351463e-38 3.369698e-38 -1.1685327e-38 -6.7675283e-38 -2.2931722e-38
8.5378e-41 2.3783264e-38 -3.795076e-38 -4.8721735e-38 4.869568e-39 -4.036457e-38 3.6120049e-38 -5.3936124e-38
4.2131126e-38 7.65387e-39 1.5702525e-38 -3.6115654e-38 -1.9473318e-38 -6.508482e-38 1.2045517e-38 1.032948e-39
-1.3056481e-38 -2.9633057e-38 -4.2159735e-38 -5.8503875e-38 2.2473094e-38 -5.4226865e-38 -3.7363774e-38 5.93451e-38
3.5617756e-38 -3.0966297e-38 4.6795925e-38 3.0599516e-38 4.2454075e-38 -8.511711e-39 -6.091089e-38 2.6776123e-38
6.2692434e-38 6.8394486e-38 7.754292e-39 -3.9037305e-38 -1.0022333e-38 -3.135485e-38 -7.75198e-40 -1.4931519e-38
-5.1330583e-38 -6.222079e-38 -2.330263e-38 2.8109913e-38 -5.055571e-39 1.404471e-38 4.0372037e-38 -3.216527e-38
3.86929e-38 3.6516425e-38 -6.488097e-38 -7.201575e-39 7.257044e-39 -5.1474154e-38 6.54863e-38 -6.9049027e-38
-2.006832e-38 -6.673426e-38 -5.704972e-38 -4.191176e-38 -4.413523e-38 3.062857e-39 2.564273e-38 3.2483567e-38
-1.0916429e-38 4.2396946e-38 -5.5256e-38 -1.5054418e-38 -6.399712e-38 -1.4770964e-38 -2.0293201e-38 8.14995e-40
-5.957861e-39 5.736813e-38 4.744635e-38 -4.339763e-38 -2.3704387e-38 4.779728e-39 6.8692884e-38 -5.187486e-38
-4.244032e-38 -4.182172e-38 6.74038e-38 1.5508114e-38 -6.707646e-39 -3.9510182e-38 2.6859327e-38 -4.298213e-38
-5.998257e-38 5.416904e-38 -4.3588117e-38 -6.67221e-38 -5.3460377e-38 6.7030126e-38 6.6368724e-38 -5.0997096e-38
7.959353e-39 -1.7364039e-38 -2.6873967e-38 2.569959e-39 5.7333073e-38 -5.90313e-38 -4.2097764e-38 7.975765e-39
2.3464328e-38 3.101894e-38 -2.2021148e-38 -9.485961e-39 -1.2482408e-38 -5.862014e-38 5.8588177e-38 -6.0552483e-38
2.603413e-38 4.612616e-38 -2.2353558e-38 -1.0080762e-38 1.064068e-39 6.527674e-38 -5.723328e-38 -3.5606344e-38
4.9177975e-38 -6.022108e-39 -4.2879172e-38 6.2943356e-38 -2.3290006e-38 6.467945e-39 -2.359206e-38 -2.559645e-39
00000000: 9001 0481 48c7 9400 109f ec00 00c7 b301
00000010: 4e38 8a81 eea7 8901 7ccc 8a01 c02e 5200
00000020: c0c4 8401 10e7 1d80 605e 1080 58aa 0781
00000030: e09f 6101 b267 8301 c0ea 8301 e8f6 2501
00000040: 6058 9700 b826 1101 004e f100 b868 ff80
00000050: 9010 4a80 003d 1c00 bc6f 0501 de72 9901
00000060: d878 1d01 c8c6 1a81 1459 bb81 4e1b a601
00000070: d053 2a00 5416 ae81 0c01 bb81 cc2c 8a01
00000080: 6088 1181 d83d 3981 687d 6101 08f1 4f01
00000090: 4099 9a81 80ff 5f01 e05d 2601 90e1 d880
000000a0: c8bb 0981 dca6 9401 c4c6 1381 4c63 a381
000000b0: a012 1f01 004b 7180 0002 cd00 f09d 0b80
000000c0: 63ce 2832 f015 8980 1ae5 b881 ae43 8281
000000d0: f02b ac00 b012 1980 02c3 ae81 2858 5b81
000000e0: fefe 8581 5872 3501 008f 6881 988e 5601
000000f0: 80f0 3a81 a825 7001 50fd 9500 d863 b281
00000100: 8865 1981 488c 6a81 b893 6600 f0c2 da80
00000110: 0093 5481 b824 6e01 b83e 5a01 2089 0001
00000120: 7835 9780 70eb 2d80 48bf 0e01 006c 9300
00000130: 8c6d 9581 d833 a301 7ef8 bb01 4072 8901
00000140: 0009 bc80 b8ee 8881 c031 9581 0046 6081
00000150: c05d fa80 804d b001 b015 0a80 1039 6e00
00000160: 40ff af81 d0d9 9801 404f 9501 4805 a401
00000170: e839 3e01 709f 9980 b0b2 e600 8004 3281
00000180: ccab 4301 6a25 b901 a43b 3b81 18ca 6081
00000190: ee82 8001 9068 1780 6843 7481 283a 3481
000001a0: f861 0a81 b0b7 af81 3871 3681 8ce2 8681
000001b0: 78bb 6f80 009c 1b80 c28d 8c01 a4b7 9e01
000001c0: 186f 4e81 50c7 0081 989d 2b01 a8e0 1801
000001d0: b0ac f680 a8ee 3201 b036 e480 30fa 0380
000001e0: 86f8 a281 00d3 f100 00ff 4601 f8cd 1f81
000001f0: bc76 3701 f03d 7f80 ca3a b881 50b4 f980
00000200: 00ee 0000 087d 0101 a49f 4e81 18a2 8481
00000210: 6006 3500 00c4 5b81 00a8 4401 fed3 9281
00000220: 3862 6501 e057 5300 40fc aa00 e0a1 4481
00000230: b00b d480 802d b181 002a 8300 703f 0b00
00000240: 282c 8e80 7456 2181 188a 6581 4043 9f81
00000250: d8b5 f400 9c9e 9381 806d 4b81 808d a101
00000260: e8eb 4101 b898 2881 00c8 7e01 8099 2601
00000270: 5824 6701 30af 5c80 b2d0 a581 78c8 1101
00000280: 40aa aa01 0030 ba01 d06f 5400 108a 5481
00000290: 3022 6d80 48b6 2a81 f070 0880 0097 a280
000002a0: 32bc 8b81 9061 a981 40be fd80 800b 1901
000002b0: e00c 3780 f0ee 9800 68ce 5b01 d81f 2f81
000002c0: 08aa 5201 78d0 4601 709f b081 106b 4e80
000002d0: b005 4f00 4020 8c81 4a45 b201 26f8 bb81
000002e0: 5086 da80 feaa b581 da4d 9b81 7830 6481
000002f0: 884b 7081 005a 2100 c09c 0b01 7cdb 3001
00000300: 90de 7680 b8d4 6601 d06b 9681 98ed a380
00000310: 7c37 ae81 70d7 a080 30f9 dc80 e0df 0800
00000320: 18e0 4080 c02b 9c01 4829 8101 7847 6c81
00000330: 180f 0181 f00b 3400 f4ff ba01 8037 8d81
00000340: 2c11 6781 f8b2 6381 987d b701 50de a800
00000350: 300a 4980 281d 5781 703c 1201 5804 6a81
00000360: c049 a381 5076 9301 f850 6d81 84a2 b581
00000370: 7288 9181 2e79 b601 40ac b401 cad3 8a81
00000380: 70ab 5600 e013 bd80 d850 1281 00fc 1b00
00000390: 5213 9c01 d0b2 a081 b833 6581 30d9 5600
000003a0: 0081 ff00 18e2 2801 00ca ef80 004b 6780
000003b0: e0eb 8780 4694 9f81 007e 9f01 ecd6 a481
000003c0: 48be 0d01 7c22 7b01 a068 f380 10c5 6d80
000003d0: 3096 0b00 40b3 b101 c6cd 9b81 00dc 4181
000003e0: 0ce0 8501 3093 4180 d874 6981 1e59 ab01
000003f0: 109b fd80 006e 4600 8872 0081 40df 1b80
