collaboration_competition/models/critic2_10000.pth (torch_old, 545385 bytes, 21 tensors)

fcs1.weight f4 [400, 24]
0	0x2d096c28	7.811564e-12
1	0xab7570af	-8.7197865e-13
2	0xae1a5a72	-3.5095878e-11
3	0x2ce107a1	6.3957316e-12
4	0x2c935ee3	4.188526e-12
5	0x2c178b0f	2.1535584e-12
6	0xae1a5a72	-3.5095878e-11
7	0x2ce107a1	6.3957316e-12
8	0x2d0b4b2d	7.917928e-12
9	0x2a698ddc	2.0743775e-13
10	0xad191e88	-8.703822e-12
11	0x2cebaf9d	6.6985987e-12
12	0xacd44c2c	-6.033859e-12
13	0x2cc47223	5.5833268e-12
14	0xad191e88	-8.703822e-12
15	0x2cebaf9d	6.6985987e-12
16	0xac24cc0d	-2.3419073e-12
17	0xab54d95c	-7.5619177e-13
18	0xae20a4b3	-3.652607e-11
19	0x2d251390	9.383508e-12
20	0xade9e7a0	-2.6591895e-11
21	0x2d5cfb83	1.2561399e-11
22	0xae20a4b3	-3.652607e-11
23	0x2d251390	9.383508e-12
24	0x26494e3c	6.984191e-16
25	0xa429bbea	-3.6805203e-17
26	0xa71e0139	-2.1927568e-15
27	0x25503aae	1.8061006e-16
28	0xa47f5b84	-5.5371828e-17
29	0xa39692f0	-1.6325263e-17
30	0xa71e0139	-2.1927568e-15
31	0x25503aae	1.8061006e-16
32	0x253c0543	1.6308183e-16
33	0xa4d99f0b	-9.437818e-17
34	0x260a8ab8	4.8066367e-16
35	0x2426b5b5	3.6149424e-17
36	0xa6ccf3b0	-1.4221395e-15
37	0x25aef282	3.0348518e-16
38	0x260a8ab8	4.8066367e-16
39	0x2426b5b5	3.6149424e-17
40	0xa785ccc7	-3.7136936e-15
41	0xa67e0844	-8.8135155e-16
42	0xa7160b25	-2.0822723e-15
43	0x253dfdc5	1.6479117e-16
44	0xa7e53080	-6.361285e-15
45	0x2776f6cb	3.4273145e-15
46	0xa7160b25	-2.0822723e-15
47	0x253dfdc5	1.6479117e-16
48	0x2d61ecae	1.2842323e-11
49	0xac336ded	-2.549845e-12
50	0xaeae2a40	-7.920109e-11
51	0x2c84be06	3.7727625e-12
52	0x2e099a93	3.1287483e-11
53	0xad3c7290	-1.0712001e-11
54	0xaeae2a40	-7.920109e-11
55	0x2c84be06	3.7727625e-12
56	0x2d005458	7.294686e-12
57	0xabeacb85	-1.6683188e-12
58	0xadb2ba8e	-2.0319104e-11
59	0x2c90801c	4.106949e-12
60	0xac908cb2	-4.1083465e-12
61	0xad00bf70	-7.318465e-12
62	0xadb2ba8e	-2.0319104e-11
63	0x2c90801c	4.106949e-12
64	0xae800335	-5.821336e-11
65	0xacba684d	-5.2980177e-12
66	0xaebaab3c	-8.488718e-11
67	0x2cb5456c	5.152037e-12
68	0xaeec963b	-1.0758724e-10
69	0x2e5a64e3	4.9657067e-11
70	0xaebaab3c	-8.488718e-11
71	0x2cb5456c	5.152037e-12
72	0xa8c77966	-2.2146086e-14
73	0x298a7f24	6.1504865e-14
74	0xab30ee97	-6.285887e-13
75	0x2924d1cb	3.659728e-14
76	0xaa324372	-1.5832976e-13
77	0xaa4431f9	-1.7425635e-13
78	0xab30ee97	-6.285887e-13
79	0x2924d1cb	3.659728e-14
80	0xaa414f15	-1.716928e-13
81	0x288de130	1.5751804e-14
82	0xa8eb93dd	-2.6154367e-14
83	0xa8d44f90	-2.3571233e-14
84	0xab335f60	-6.3725934e-13
85	0xa92b4478	-3.8029015e-14
86	0xa8eb93dd	-2.6154367e-14
87	0xa8d44f90	-2.3571233e-14
88	0xabc0c55f	-1.3697202e-12
89	0xaaa96137	-3.0087887e-13
90	0xab1ed8d2	-5.6433775e-13
91	0x2937a30f	4.0775593e-14
92	0xac219d1c	-2.296669e-12
93	0x2b94937f	1.0556971e-12
94	0xab1ed8d2	-5.6433775e-13
95	0x2937a30f	4.0775593e-14
96	0xb3a8dc28	-7.863156e-08
97	0xb293ca81	-1.720514e-08
98	0x3326cf56	3.8838458e-08
99	0xb2b4783a	-2.100943e-08
100	0x33b9bd06	8.649117e-08
101	0x31fce47d	7.3601414e-09
102	0x3326cf56	3.8838458e-08
103	0xb2b4783a	-2.100943e-08
104	0xb3bf8486	-8.9182365e-08
105	0xb2f57a7a	-2.857745e-08
106	0xb103dc40	-1.9188207e-09
107	0xb245a144	-1.1503577e-08
108	0x341d7235	1.4663313e-07
109	0x326861ae	1.3526387e-08
110	0xb103dc40	-1.9188207e-09
111	0xb245a144	-1.1503577e-08
112	0xb44e15e7	-1.9193213e-07
113	0xb35c36e5	-5.1272668e-08
114	0x3327689a	3.8977852e-08
115	0xb22a411f	-9.910109e-09
116	0x348b65cc	2.5964835e-07
117	0x33c22c59	9.041896e-08
118	0x3327689a	3.8977852e-08
119	0xb22a411f	-9.910109e-09
120	0x1ec7acbc	2.1141386e-20
121	0x9fd9e1d7	-9.2276695e-20
122	0x22271ba5	2.2647355e-18
123	0x9ffc52da	-1.0686322e-19
124	0xa141acfe	-6.5619897e-19
125	0xa08acf81	-2.3515424e-19
126	0x22271ba5	2.2647355e-18
127	0x9ffc52da	-1.0686322e-19
128	0x203025dc	1.4920306e-19
129	0xa0107acc	-1.2237905e-19
130	0x220e3ce9	1.9276834e-18
131	0xa054426a	-1.7979073e-19
132	0xa18b3dc1	-9.435352e-19
133	0xa0bd61f4	-3.2082665e-19
134	0x220e3ce9	1.9276834e-18
135	0xa054426a	-1.7979073e-19
136	0xa1bf4832	-1.2961773e-18
137	0xa1302e9a	-5.9692796e-19
138	0x2230c6a3	2.3957605e-18
139	0xa0001000	-1.0847316e-19
140	0xa2569c6a	-2.9085213e-18
141	0x21a85617	1.1406911e-18
142	0x2230c6a3	2.3957605e-18
143	0xa0001000	-1.0847316e-19
144	0xa5e2cdde	-3.9344252e-16
145	0x252a19af	1.4753851e-16
146	0xa66cff68	-8.222509e-16
147	0xa592eaa6	-2.5485967e-16
148	0xa66344af	-7.884953e-16
149	0x24a4b363	7.1427555e-17
150	0xa66cff68	-8.222509e-16
151	0xa592eaa6	-2.5485967e-16
152	0xa5a6ecf4	-2.8956975e-16
153	0x249020e9	6.25058e-17
154	0x2535c8a8	1.5767232e-16
155	0xa5f31c5e	-4.2173003e-16
156	0xa657a656	-7.4818537e-16
157	0x25fb5976	4.360218e-16
158	0x2535c8a8	1.5767232e-16
159	0xa5f31c5e	-4.2173003e-16
160	0xa700dbbe	-1.788269e-15
161	0xa607289f	-4.6892586e-16
162	0xa6a21ea0	-1.1249309e-15
163	0xa601f6d6	-4.509039e-16
164	0xa7092c76	-1.9036672e-15
165	0x26916533	1.0088826e-15
166	0xa6a21ea0	-1.1249309e-15
167	0xa601f6d6	-4.509039e-16
168	0xac2abfa1	-2.4264828e-12
169	0xab0cb178	-4.998428e-13
170	0xac1a6c82	-2.194495e-12
171	0x2aa1e139	2.8755625e-13
172	0x2aed392c	4.2139328e-13
173	0x2be45dfd	1.6226461e-12
174	0xac1a6c82	-2.194495e-12
175	0x2aa1e139	2.8755625e-13
176	0xac2bf9c8	-2.4439218e-12
177	0xab520abc	-7.4621884e-13
178	0xacd39678	-6.013686e-12
179	0x299c6e91	6.946972e-14
180	0x2add33f8	3.9293547e-13
181	0x2c34e866	2.5708546e-12
182	0xacd39678	-6.013686e-12
183	0x299c6e91	6.946972e-14
184	0xaca124cf	-4.579982e-12
185	0xab48e4ec	-7.1371966e-13
186	0xab860463	-9.52249e-13
187	0x2b52a826	7.484034e-13
188	0x2cbbc276	5.336449e-12
189	0x2c67e0e2	3.295191e-12
190	0xab860463	-9.52249e-13
191	0x2b52a826	7.484034e-13
192	0xb72ec36e	-1.041671e-05
193	0xb62f9899	-2.6165856e-06
194	0x36b43720	5.3708354e-06
195	0xb67709ff	-3.6811687e-06
196	0x372552a6	9.8540095e-06
197	0x35bc2cba	1.4020109e-06
198	0x36b43720	5.3708354e-06
199	0xb67709ff	-3.6811687e-06
200	0xb754a9c3	-1.267571e-05
201	0xb68d7de3	-4.2167826e-06
202	0x35b37059	1.3369237e-06
203	0xb674bb09	-3.6467702e-06
204	0x37832433	1.5633274e-05
205	0x364acde1	3.0220183e-06
206	0x35b37059	1.3369237e-06
207	0xb674bb09	-3.6467702e-06
208	0xb7b0674b	-2.1028934e-05
209	0xb69f2a22	-4.743474e-06
210	0x365473fc	3.1657974e-06
211	0xb6890f59	-4.084705e-06
212	0x380b6657	3.3235494e-05
213	0x3714f1c0	8.877774e-06
214	0x365473fc	3.1657974e-06
215	0xb6890f59	-4.084705e-06
216	0x26e80dec	1.6102007e-15
217	0xa5643f7c	-1.9797357e-16
218	0xa7ce949c	-5.733761e-15
219	0x26256354	5.738049e-16
220	0x26ca76ac	1.4048732e-15
221	0x2513d248	1.2821464e-16
222	0xa7ce949c	-5.733761e-15
223	0x26256354	5.738049e-16
224	0x26e12564	1.5622646e-15
225	0xa57888c4	-2.1556909e-16
226	0xa6b49cbd	-1.2532493e-15
227	0x266b6961	8.167482e-16
228	0x26ed32af	1.6458916e-15
229	0x25d0c4f0	3.6215698e-16
230	0xa6b49cbd	-1.2532493e-15
231	0x266b6961	8.167482e-16
232	0x2797155e	4.1934086e-15
233	0x268dec4b	9.847888e-16
234	0xa7cf2352	-5.7492336e-15
235	0x269ddfb5	1.0954699e-15
236	0x273060d6	2.4477401e-15
237	0xa6dd619d	-1.5361414e-15
238	0xa7cf2352	-5.7492336e-15
239	0x269ddfb5	1.0954699e-15
240	0xa125469e	-5.5997636e-19
241	0xa0699228	-1.9784227e-19
242	0xa1b11b49	-1.2001209e-18
243	0x1f888d5a	5.783209e-20
244	0x20fa7e9d	4.2435433e-19
245	0x217c8c46	8.556657e-19
246	0xa1b11b49	-1.2001209e-18
247	0x1f888d5a	5.783209e-20
248	0xa132d5e1	-6.059181e-19
249	0xa05fe15f	-1.8963404e-19
250	0xa1d32da4	-1.4309997e-18
251	0x1fbae7ca	7.915753e-20
252	0x213d0e1e	6.4054375e-19
253	0x217c9cc7	8.5588414e-19
254	0xa1d32da4	-1.4309997e-18
255	0x1fbae7ca	7.915753e-20

fcs1.bias f4 [400]
0	0x2b39d4a4	6.60203e-13
1	0x265daeac	7.69115e-16
2	0x2d10b730	8.226128e-12
3	0x2a956b86	2.6542326e-13
4	0x332891de	3.9248214e-08
5	0x21031ad1	4.442002e-19
6	0x25f6ccbc	4.281293e-16
7	0x2ac67218	3.5251034e-13
8	0x3675de3f	3.663721e-06
9	0xa62dedc4	-6.0343665e-16
10	0xa01b98e4	-1.3179598e-19
11	0x33af015d	8.1493205e-08
12	0xad8eb05c	-1.622185e-11
13	0x39807d01	0.00024507198
14	0x2c570e10	3.0561144e-12
15	0x21a53009	1.119355e-18
16	0xaa7e14d6	-2.2566961e-13
17	0xad552352	-1.2115491e-11
18	0x37d2420f	2.5064712e-05
19	0x232d65f9	9.399942e-18
20	0x178511d4	8.599424e-25
21	0x1c954013	9.876556e-22
22	0x2f46ca9d	1.8079978e-10
23	0xb196aa01	-4.3849018e-09
24	0x1c9a58c7	1.0213814e-21
25	0x327342a5	1.4159615e-08
26	0x9e866763	-1.4230562e-20
27	0x25f63d56	4.271576e-16
28	0x279ad40d	4.2973492e-15
29	0x1f200e64	3.389322e-20
30	0x2e9ccdb7	7.130601e-11
31	0x327abfe4	1.4595546e-08
32	0x3233044e	1.042015e-08
33	0x1721b288	5.2247244e-25
34	0x373d84a0	1.1296157e-05
35	0x80baf8e6	-1.717069e-38
36	0x2a99f9d6	2.7351618e-13
37	0x35cba60d	1.5173006e-06
38	0x2685d4f1	9.286447e-16
39	0xa834e19b	-1.0040928e-14
40	0x36625f66	3.3732153e-06
41	0xb1c65e29	-5.773263e-09
42	0x29b15b99	7.876269e-14
43	0xa80dd415	-7.87306e-15
44	0x2e268ff7	3.7871897e-11
45	0x3589649f	1.023658e-06
46	0x2f69095b	2.119455e-10
47	0x323e8397	1.1089376e-08
48	0xab12a6c8	-5.2101075e-13
49	0x369976e4	4.573596e-06
50	0x2757aef6	2.993209e-15
51	0xa5127d45	-1.2705924e-16
52	0x34a4a86f	3.0669932e-07
53	0x27bdb7f8	5.2657497e-15
54	0x30ab915e	1.2483203e-09
55	0x2888fbd3	1.5208244e-14
56	0x9a315956	-3.6674907e-23
57	0x33987f47	7.101203e-08
58	0x351fbdda	5.9508386e-07
59	0x2fcdb800	3.7420023e-10
60	0x318d6bce	4.115896e-09
61	0x20de411a	3.7651343e-19
62	0x2a2984d5	1.50563e-13
63	0x9f661135	-4.8718628e-20
64	0x32e3a359	2.650056e-08
65	0xa542b4ce	-1.6888077e-16
66	0x33a34fa4	7.6047655e-08
67	0x36570ffc	3.20468e-06
68	0x345ed614	2.0753242e-07
69	0x1a6e7ba6	4.931713e-23
70	0x2f518284	1.9054808e-10
71	0x2f0a09d5	1.255452e-10
72	0x281b4928	8.620092e-15
73	0xa0953f53	-2.5283486e-19
74	0x32e962b4	2.7169655e-08
75	0x37369fad	1.0885223e-05
76	0x302c7b45	6.274841e-10
77	0x39070e55	0.00012879942
78	0x2e387eac	4.1949264e-11
79	0x251e3096	1.3720777e-16
80	0xb10f133e	-2.0820177e-09
81	0x36073950	2.0149928e-06
82	0x81127710	-2.6901388e-38
83	0x2e0219fa	2.958165e-11
84	0x2a907975	2.5663816e-13
85	0x99104e55	-7.4604445e-24
86	0x2f8d6f02	2.5726626e-10
87	0x1f2ce59a	3.661234e-20
88	0x2b459457	7.019432e-13
89	0x98816f91	-3.345837e-24
90	0x35e87b6d	1.7321269e-06
91	0x19c09abf	1.9914836e-23
92	0x9fae6148	-7.3852805e-20
93	0x3715b5a1	8.923381e-06
94	0x012626e8	3.0517299e-38
95	0x39ca61ec	0.000386014
96	0x2f4deb2c	1.8728191e-10
97	0x3711ecc1	8.697797e-06
98	0x3933c0b1	0.00017142553
99	0x36d50a96	6.349127e-06
100	0x0f935ea2	1.453177e-29
101	0x2ea0d255	7.31332e-11
102	0xb367dfe4	-5.3987506e-08
103	0x2ac88727	3.5620918e-13
104	0x136a97fa	2.9609883e-27
105	0x988c65f7	-3.629211e-24
106	0x2b069350	4.78108e-13
107	0x309f716c	1.1601009e-09
108	0x25bf1559	3.3147684e-16
109	0x0eee5ba5	5.875978e-30
110	0x328cc298	1.6386636e-08
111	0x2e502fee	4.7336295e-11
112	0x2f059107	1.2147804e-10
113	0x9f0c98de	-2.9772602e-20
114	0x3a113190	0.00055386964
115	0x39cbbb88	0.000388589
116	0x385d76ff	5.280133e-05
117	0xaf661441	-2.0925574e-10
118	0x26bab35a	1.2954956e-15
119	0xa6d18c68	-1.4540345e-15
120	0x32ba35e5	2.1677758e-08
121	0x2cc070b4	5.4694808e-12
122	0x2c093f01	1.9503845e-12
123	0x0cba1dab	2.8675693e-31
124	0x2e08a384	3.106805e-11
125	0xb25c5de6	-1.2827035e-08
126	0x9fb86cf2	-7.8107266e-20
127	0x353d7591	7.057907e-07
128	0x2fe3f3ca	4.1464282e-10
129	0x210c7e35	4.760088e-19
130	0xa5c4f0d3	-3.416377e-16
131	0x32fa19c8	2.9115554e-08
132	0x3085d2e5	9.736963e-10
133	0x2d8aff87	1.580226e-11
134	0x224b05e9	2.7514759e-18
135	0x2802b330	7.255305e-15
136	0x2eb44de9	8.199292e-11
137	0x37397c1c	1.1055756e-05
138	0xa03139ea	-1.5011645e-19
139	0x2b229f1a	5.777476e-13
140	0xa1771416	-8.371344e-19
141	0x95bdd9fd	-7.668042e-26
142	0x35c4d10d	1.466398e-06
143	0x2d3eb6bc	1.0840825e-11
144	0x29001964	2.8443732e-14
145	0x2d1c0563	8.8687694e-12
146	0x165bbd5c	1.775043e-25
147	0x2b77238e	8.780137e-13
148	0x2be38168	1.6165238e-12
149	0x320e058d	8.26675e-09
150	0x3590414d	1.0747841e-06
151	0x23bba664	2.034505e-17
152	0x3161b9d3	3.2847438e-09
153	0x31d2fd3c	6.140594e-09
154	0x9adf8db8	-9.24596e-23
155	0x337df9ca	5.9133335e-08
156	0x339a4b62	7.184896e-08
157	0x9cd36fda	-1.3991722e-21
158	0x1b1673f3	1.2445174e-22
159	0x25b2e485	3.103293e-16
160	0x1fbb6f25	7.9381454e-20
161	0x34bbd318	3.4985055e-07
162	0x1c2aa03b	5.6455375e-22
163	0x3ac53af9	0.0015047482
164	0x347a5b0d	2.3316188e-07
165	0x2e958608	6.799544e-11
166	0x80f56710	-2.2536668e-38
167	0x26df2380	1.5483356e-15
168	0x394f1047	0.00019747122
169	0xa382dcd8	-1.418816e-17
170	0x35844d13	9.857198e-07
171	0x281356ca	8.178959e-15
172	0x2d97e1b9	1.7266953e-11
173	0x390667bc	0.0001281788
174	0x33c9962d	9.387109e-08
175	0x2c2d39ea	2.4616927e-12
176	0x2dc3671e	2.2214727e-11
177	0x272b2752	2.3752333e-15
178	0x2dd8a1b5	2.462817e-11
179	0x17747f0f	7.9001023e-25
180	0x374e55c0	1.2298522e-05
181	0x2b10ecc4	5.1487655e-13
182	0x3699b513	4.580835e-06
183	0x31b4f8d7	5.2669793e-09
184	0x34fd54ec	4.718671e-07
185	0x163d4178	1.5287957e-25
186	0x372cd0ba	1.0300597e-05
187	0x1e1ca0b7	8.291806e-21
188	0x249771b2	6.567842e-17
189	0x335857fc	5.037144e-08
190	0x30e6518a	1.6757877e-09
191	0x2e5ad947	4.9760442e-11
192	0x24c0b711	8.3576853e-17
193	0x30c41b5b	1.4268652e-09
194	0x3075bf39	8.9402225e-10
195	0x013469ff	3.3136827e-38
196	0x2ff93638	4.533136e-10
197	0xb250006c	-1.2107289e-08
198	0xae094d0c	-3.1218625e-11
199	0x374c8976	1.2191353e-05
200	0x2b98a56d	1.0846164e-12
201	0x26a4b741	1.1429457e-15
202	0x2f3393d5	1.6332476e-10
203	0x2e52275a	4.7783423e-11
204	0x2676fa1a	8.5687346e-16
205	0x36824126	3.881886e-06
206	0x1fd12e38	8.8591405e-20
207	0x349b99d4	2.8982925e-07
208	0x270373d8	1.82427e-15
209	0x2e2a329b	3.869847e-11
210	0xadc93661	-2.2875203e-11
211	0x35b0ac9a	1.3163256e-06
212	0x814a724c	-3.7183544e-38
213	0x335358ee	4.9208147e-08
214	0x2224cd25	2.2334747e-18
215	0x9a127405	-3.0285812e-23
216	0x2b9366f5	1.0473555e-12
217	0x24c25499	8.42774e-17
218	0x327c830b	1.4698126e-08
219	0x80347088	-4.815814e-39
220	0x34a93a95	3.1521327e-07
221	0x1a3bcf33	3.8838068e-23
222	0x2a20599d	1.4241946e-13
223	0x2f321d24	1.6199359e-10
224	0xa0a512a6	-2.7964428e-19
225	0xa5de0228	-3.8512322e-16
226	0xa4f0e16b	-1.0446528e-16
227	0x9b3da82e	-1.5688055e-22
228	0x38ba980d	8.897493e-05
229	0xa8d7e07f	-2.3967155e-14
230	0x21f00925	1.6265453e-18
231	0x3451a20d	1.9523596e-07
232	0x97b7e080	-1.188277e-24
233	0x2f23283a	1.4839055e-10
234	0x32ac6993	2.0071445e-08
235	0x380bdc35	3.3345266e-05
236	0x349e4b65	2.948465e-07
237	0x319409e3	4.308491e-09
238	0x225a3f90	2.9578159e-18
239	0x34274837	1.5579359e-07
240	0x2233008f	2.425932e-18
241	0x1e530dd7	1.1173109e-20
242	0xb544d59a	-7.332652e-07
243	0x15f635a6	9.944325e-26
244	0x1bb899fe	3.0539762e-22
245	0x2bc743e2	1.4158642e-12
246	0x2cc702d8	5.656236e-12
247	0x337828e7	5.77792e-08
248	0x324e4fc1	1.2008912e-08
249	0xb19de955	-4.595828e-09
250	0x2aab5d34	3.0440375e-13
251	0x2510c696	1.2557293e-16
252	0x1aa2c446	6.7318726e-23
253	0x30fd6d8d	1.8439309e-09
254	0x27bdf4a0	5.272326e-15
255	0x2d606a4b	1.2756528e-11

fc2.weight f4 [300, 402]
0	0x803977f3	-5.277653e-39
1	0x0107192e	2.481365e-38
2	0x0124f9ca	3.0301258e-38
3	0x8027bc20	-3.649071e-39
4	0x00164716	2.045882e-39
5	0x8155377c	-3.916173e-38
6	0x80014570	-1.16745e-40
7	0x812b246a	-3.1433865e-38
8	0x00bd8fcf	1.7408498e-38
9	0x00d3886f	1.9426233e-38
10	0x81ae1b3b	-6.395658e-38
11	0x0058967e	8.13551e-39
12	0x0109863a	2.525923e-38
13	0x0159cce4	4.0003607e-38
14	0x812d3420	-3.181248e-38
15	0x0011d564	1.637754e-39
16	0x01679eee	4.2542026e-38
17	0x810b022c	-2.5531826e-38
18	0x81858d10	-4.90589e-38
19	0x8035fbe6	-4.957645e-39
20	0x8194db8a	-5.4681637e-38
21	0x015adb67	4.019769e-38
22	0x812f3424	-3.2179833e-38
23	0x80378c21	-5.101221e-39
24	0x019f218e	5.8455524e-38
25	0x005fbbe4	8.791775e-39
26	0x0157baae	3.96232e-38
27	0x00e9cb3a	2.1470575e-38
28	0x810f4770	-2.6316206e-38
29	0x8029f9a7	-3.854814e-39
30	0x0121d196	2.97214e-38
31	0x818ea59b	-5.2400194e-38
32	0x80a9fed8	-1.561162e-38
33	0x003f6769	5.822733e-39
34	0x81287183	-3.0938167e-38
35	0x00830032	1.203052e-38
36	0x812ec4fa	-3.2100076e-38
37	0x80f1a526	-2.2191599e-38
38	0x81053738	-2.446786e-38
39	0x01525a94	3.8635895e-38
40	0x80c7b9d2	-1.8341924e-38
41	0x802470c3	-3.346529e-39
42	0x005209d8	7.534042e-39
43	0x813d7f68	-3.4805227e-38
44	0x81746eb6	-4.4895153e-38
45	0x804dff3f	-7.162898e-39
46	0x0134b3e2	3.3189838e-38
47	0x818497fc	-4.870723e-38
48	0x812df564	-3.195114e-38
49	0x80649c60	-9.239646e-39
50	0x80e8d566	-2.1382388e-38
51	0x00fc2f97	2.3159617e-38
52	0x018aa678	5.0932065e-38
53	0x8062bc11	-9.067344e-39
54	0x001e754c	2.797143e-39
55	0x80d56d9b	-1.960028e-38
56	0x013bb795	3.447819e-38
57	0x01204bad	2.9441653e-38
58	0x0146c490	3.6507883e-38
59	0x81a4ba08	-6.051103e-38
60	0x013aaf01	3.4288364e-38
61	0x80bce7c1	-1.7348211e-38
62	0x8029969e	-3.819287e-39
63	0x81a4bc87	-6.051461e-38
64	0x8117620e	-2.780467e-38
65	0x012dcbbe	3.192126e-38
66	0x01742217	4.484018e-38
67	0x8181b024	-4.7639865e-38
68	0x805f1384	-8.731373e-39
69	0x80c11f04	-1.7735377e-38
70	0x0078eed2	1.1105932e-38
71	0x0102f8ce	2.4055738e-38
72	0x0110d76c	2.660318e-38
73	0x00751500	1.0752286e-38
74	0x800ef394	-1.373076e-39
75	0x81a5f6a5	-6.0965345e-38
76	0x00c1fc0d	1.781467e-38
77	0x81a82d91	-6.177884e-38
78	0x002ed468	4.30063e-39
79	0x80ccc5c3	-1.8805385e-38
80	0x005fd87c	8.802032e-39
81	0x8186e50c	-4.955249e-38
82	0x00fc82da	2.3189486e-38
83	0x80033e9c	-2.97967e-40
84	0x005044db	7.37154e-39
85	0x80c66ee6	-1.8223211e-38
86	0x8157710b	-3.9570368e-38
87	0x8091adba	-1.3378468e-38
88	0x005f4c71	8.751794e-39
89	0x00281e4d	3.68429e-39
90	0x81297440	-3.1123803e-38
91	0x8103a99c	-2.418259e-38
92	0x810e2c60	-2.6113118e-38
93	0x01ab138a	6.2843517e-38
94	0x8035d01d	-4.941938e-39
95	0x8149e2c8	-3.7080577e-38
96	0x01537e55	3.8845218e-38
97	0x813579c1	-3.3331804e-38
98	0x814adc35	-3.725953e-38
99	0x8160d64a	-4.1296047e-38
100	0x80b0609c	-1.6197704e-38
101	0x81b98259	-6.8145307e-38
102	0x019f14f2	5.843743e-38
103	0x0171178c	4.4281603e-38
104	0x8096d893	-1.3853017e-38
105	0x8085ba76	-1.228101e-38
106	0x8097958b	-1.3920806e-38
107	0x01507e10	3.8294012e-38
108	0x0004c245	4.37033e-40
109	0x010f16a4	2.6281196e-38
110	0x0130237c	3.2351553e-38
111	0x80004287	-2.3866e-41
112	0x00b5c71e	1.6693655e-38
113	0x80b7658d	-1.6842325e-38
114	0x011b6dc0	2.8547746e-38
115	0x0117e5f2	2.7899298e-38
116	0x801e60be	-2.78977e-39
117	0x81a0d7e4	-5.9084505e-38
118	0x011da5a4	2.8955187e-38
119	0x808f30d2	-1.314999e-38
120	0x81510a1c	-3.839449e-38
121	0x80936778	-1.3536936e-38
122	0x816aef1c	-4.3150565e-38
123	0x0015a234	1.986733e-39
124	0x818b43ee	-5.115801e-38
125	0x0085593a	1.224613e-38
126	0x010ca585	2.5832693e-38
127	0x0110131c	2.6462333e-38
128	0x803c2658	-5.523885e-39
129	0x815a4b20	-4.0094176e-38
130	0x0132a5d6	3.2812418e-38
131	0x804a3d7d	-6.817885e-39
132	0x805a4d84	-8.293002e-39
133	0x80c8d1ea	-1.8442402e-38
134	0x01336354	3.2948372e-38
135	0x00a58410	1.5200232e-38
136	0x811ed1f8	-2.9170662e-38
137	0x010d750c	2.5981587e-38
138	0x80d07b57	-1.9146029e-38
139	0x816eb7f4	-4.3845676e-38
140	0x006c9a17	9.97351e-39
141	0x8119d261	-2.82526e-38
142	0x009129bd	1.333112e-38
143	0x8121cd5c	-2.9718368e-38
144	0x814e8b3c	-3.793612e-38
145	0x00140012	1.836735e-39
146	0x00950f5d	1.3689e-38
147	0x013c3b06	3.4572494e-38
148	0x8102db66	-2.403464e-38
149	0x8182bf9c	-4.8029404e-38
150	0x0069cb34	9.715623e-39
151	0x807bb2eb	-1.135995e-38
152	0x006ef3ce	1.0189365e-38
153	0x813c464b	-3.458058e-38
154	0x80705423	-1.0315758e-38
155	0x016416a3	4.1893227e-38
156	0x01452350	3.620852e-38
157	0x8056b63f	-7.96323e-39
158	0x016b880e	4.3260298e-38
159	0x8101cf7c	-2.384242e-38
160	0x00ec3132	2.1690825e-38
161	0x002fa418	4.375134e-39
162	0x81368aaf	-3.352762e-38
163	0x816247b8	-4.15611e-38
164	0x01987ce2	5.601518e-38
165	0x80c46e12	-1.8039243e-38
166	0x00cc2258	1.8746761e-38
167	0x009da4e0	1.4477319e-38
168	0x802d4a30	-4.159211e-39
169	0x006acdd5	9.808401e-39
170	0x80d17630	-1.9236016e-38
171	0x8102bf20	-2.4014354e-38
172	0x01afdd58	6.460246e-38
173	0x80ce8be0	-1.896829e-38
174	0x81a8bcde	-6.1984465e-38
175	0x01517d4f	3.8477142e-38
176	0x81253e99	-3.0350625e-38
177	0x00bbb9ec	1.7239934e-38
178	0x8018a09d	-2.261669e-39
179	0x8082443e	-1.1963095e-38
180	0x819d69cf	-5.782452e-38
181	0x00f082cf	2.2087444e-38
182	0x802169fc	-3.068591e-39
183	0x0124d496	3.0274566e-38
184	0x801c7924	-2.614851e-39
185	0x01acfb9f	6.354388e-38
186	0x81bd4b0b	-6.9535316e-38
187	0x80f6f389	-2.2678896e-38
188	0x80aeb4c2	-1.604422e-38
189	0x00b16a2c	1.629297e-38
190	0x80feb79f	-2.3392087e-38
191	0x00a10ca7	1.4790054e-38
192	0x8130bf57	-3.2463374e-38
193	0x806523d7	-9.288242e-39
194	0x80286d20	-3.712567e-39
195	0x819bba95	-5.720574e-38
196	0x8041e7dc	-6.052483e-39
197	0x807a9154	-1.1256064e-38
198	0x81a5cf7c	-6.0909153e-38
199	0x8058123c	-8.088065e-39
200	0x01abee8a	6.3157766e-38
201	0x810c12a1	-2.5727305e-38
202	0x018fbf4a	5.280439e-38
203	0x80f5c3e0	-2.2569963e-38
204	0x8124c34d	-3.0262164e-38
205	0x8050992d	-7.401789e-39
206	0x81a66109	-6.111801e-38
207	0x0197ebcf	5.580701e-38
208	0x811a66ae	-2.8359002e-38
209	0x009aa6fd	1.420257e-38
210	0x810b1050	-2.5541972e-38
211	0x00bb96ec	1.7227378e-38
212	0x803116a4	-4.508061e-39
213	0x8134cf32	-3.3209434e-38
214	0x0196d1c4	5.5402297e-38
215	0x000036d3	1.9667e-41
216	0x81972fd3	-5.5537264e-38
217	0x0127ac70	3.0796774e-38
218	0x00a6f2c8	1.5331786e-38
219	0x006dfd4d	1.0100936e-38
220	0x00e4d910	2.101636e-38
221	0x81503aaa	-3.8245656e-38
222	0x003794c8	5.104325e-39
223	0x819c0972	-5.7318903e-38
224	0x80f7638a	-2.2719075e-38
225	0x00028b20	2.3358e-40
226	0x01a3e09c	6.019904e-38
227	0x8133a7b4	-3.299743e-38
228	0x8136a848	-3.3548856e-38
229	0x002df44c	4.220235e-39
230	0x80f848ae	-2.2801276e-38
231	0x0187e0f4	4.991396e-38
232	0x0001d72e	1.69027e-40
233	0x811eb792	-2.9151722e-38
234	0x80c193bb	-1.7777246e-38
235	0x012bbdfc	3.1544047e-38
236	0x00a1e50b	1.486768e-38
237	0x816ab93f	-4.311192e-38
238	0x0078ce78	1.1094327e-38
239	0x815a77f4	-4.0126338e-38
240	0x015ce53a	4.057208e-38
241	0x80997f40	-1.409648e-38
242	0x8003f7eb	-3.64443e-40
243	0x0127ca2a	3.08181e-38
244	0x8055e8f0	-7.88958e-39
245	0x01160485	2.7553891e-38
246	0x80cec9a6	-1.899045e-38
247	0x0134003a	3.306094e-38
248	0x8164dfff	-4.2037696e-38
249	0x8109c28c	-2.5302506e-38
250	0x002e8526	4.272197e-39
251	0x010e65f4	2.615443e-38
252	0x8076d187	-1.0911753e-38
253	0x809795a9	-1.3920848e-38
254	0x81ae3b18	-6.40023e-38
255	0x80074835	-6.68751e-40

fc2.bias f4 [300]
0	0x8146181c	-3.6384154e-38
1	0x819a9ef2	-5.679874e-38
2	0x81a09e40	-5.9001795e-38
3	0x815e8c00	-4.0875405e-38
4	0x80aed800	-1.6056863e-38
5	0x819fa3aa	-5.864222e-38
6	0x813aae00	-3.4287643e-38
7	0x808fb740	-1.3198214e-38
8	0x82eb50a0	-3.4576423e-37
9	0x80a7eb00	-1.542083e-38
10	0x8197e352	-5.579483e-38
11	0x00d98800	1.997709e-38
12	0x02b50a00	2.66013e-37
13	0x819414cc	-5.4396456e-38
14	0x816c5080	-4.340411e-38
15	0x818bc338	-5.134066e-38
16	0x8024a000	-3.363475e-39
17	0x81053f00	-2.4473442e-38
18	0x819e3580	-5.81168e-38
19	0x81430c00	-3.5824453e-38
20	0x81707f00	-4.4172156e-38
21	0x00042700	3.81333e-40
22	0x8150b880	-3.833594e-38
23	0x81a10a1f	-5.915658e-38
24	0x8188fc00	-5.032011e-38
25	0x00459c00	6.392611e-39
26	0x80fe76a8	-2.3368782e-38
27	0x8150ea9c	-3.837189e-38
28	0x815f5500	-4.1019616e-38
29	0x0312feb0	4.319791e-37
30	0x80a00c90	-1.4698186e-38
31	0x816a6880	-4.3053987e-38
32	0x81834918	-4.8226684e-38
33	0x819ad280	-5.687272e-38
34	0x81aa4c60	-6.255773e-38
35	0x81b2c440	-6.566848e-38
36	0x818fc00f	-5.2805494e-38
37	0x80f5a0a0	-2.2557318e-38
38	0x80b27611	-1.6389073e-38
39	0x81761680	-4.5199207e-38
40	0x815d0ca0	-4.0600347e-38
41	0x8120a800	-2.9507893e-38
42	0x81ad3b80	-6.363554e-38
43	0x812c9180	-3.1695802e-38
44	0x817e5cd7	-4.671904e-38
45	0x8135a000	-3.3359244e-38
46	0x01428680	3.5728672e-38
47	0x80d5c300	-1.9630914e-38
48	0x0085d670	1.2291047e-38
49	0x81001f00	-2.3532128e-38
50	0x81b73500	-6.7299634e-38
51	0x8103c018	-2.419872e-38
52	0x8184ed28	-4.8829445e-38
53	0x811f0852	-2.9209657e-38
54	0x815ef980	-4.0953968e-38
55	0x81a08680	-5.8967716e-38
56	0x00583e00	8.103765e-39
57	0x8196b2c0	-5.535779e-38
58	0x818aaf00	-5.0944307e-38
59	0x8100d210	-2.36606e-38
60	0x811c8a80	-2.8752044e-38
61	0x864259fe	-3.655346e-35
62	0x813c61af	-3.460023e-38
63	0x8259a9e0	-1.5991394e-37
64	0x805d0a08	-8.5443e-39
65	0x817d1e20	-4.6490375e-38
66	0x83692b58	-6.85223e-37
67	0x81a1d580	-5.9448417e-38
68	0x81563020	-3.934012e-38
69	0x80963d00	-1.3797207e-38
70	0x817b3a00	-4.6143032e-38
71	0x0081f500	1.1934668e-38
72	0x0283ff10	1.9395119e-37
73	0x815dfa80	-4.0771014e-38
74	0x00b82200	1.6909928e-38
75	0x8199a9b0	-5.6446813e-38
76	0x8174b034	-4.4942142e-38
77	0x84e62b28	-5.4112373e-36
78	0x02ddc9c0	3.258883e-37
79	0x81e845c0	-8.5323427e-38
80	0x837d7b58	-7.449161e-37
81	0x81a95880	-6.2207787e-38
82	0x81bdb3c0	-6.9685564e-38
83	0x80f45d08	-2.2441234e-38
84	0x005b6b00	8.395415e-39
85	0x81543300	-3.897484e-38
86	0x81aab780	-6.2711447e-38
87	0x8191d440	-5.356915e-38
88	0x028f8720	2.108952e-37
89	0x81396900	-3.4054467e-38
90	0x8113872e	-2.7096623e-38
91	0x81960000	-5.51013e-38
92	0x81b57468	-6.6655934e-38
93	0x810b5a00	-2.559484e-38
94	0x8021f3e8	-3.118068e-39
95	0x81a665c0	-6.1124774e-38
96	0x0046eb00	6.512787e-39
97	0x81807700	-4.719053e-38
98	0x81882aa8	-5.001972e-38
99	0x81975fe6	-5.5606247e-38
100	0x81a3b9ea	-6.0143517e-38
101	0x8000df00	-7.9997e-41
102	0x810f4880	-2.6316968e-38
103	0x004fae00	7.317424e-39
104	0x8194e500	-5.469521e-38
105	0x817e6ff8	-4.6732766e-38
106	0x81b0ad14	-6.4900544e-38
107	0x002ba700	4.008835e-39
108	0x8073bca8	-1.0628759e-38
109	0x81884ef8	-5.0071825e-38
110	0x81928330	-5.3820175e-38
111	0x81a9eb40	-6.241836e-38
112	0x82c6b340	-2.919637e-37
113	0x81a0a8e2	-5.901705e-38
114	0x80fc0e00	-2.3147567e-38
115	0x00feb100	2.3389712e-38
116	0x043ec300	2.2423932e-36
117	0x81a26080	-5.964787e-38
118	0x81511a00	-3.8405891e-38
119	0x8114afa8	-2.7309334e-38
120	0x8132c880	-3.2837288e-38
121	0x00fc7500	2.3184517e-38
122	0x018e8640	5.23552e-38
123	0x81981e40	-5.587939e-38
124	0x0043b400	6.21755e-39
125	0x00472700	6.534311e-39
126	0x81548c69	-3.903899e-38
127	0x81b64e2c	-6.696841e-38
128	0x81487a1a	-3.6821802e-38
129	0x3bb8b86e	0.00563722
130	0x81aba276	-6.30486e-38
131	0x81056196	-2.4498256e-38
132	0x818e8d71	-5.236552e-38
133	0x00048900	4.16488e-40
134	0x00c2c200	1.788568e-38
135	0x816a6afc	-4.305577e-38
136	0x81853af1	-4.894106e-38
137	0x81255728	-3.0368245e-38
138	0x00eae800	2.1572732e-38
139	0x83af61dc	-1.0308043e-36
140	0x81bddec0	-6.9747266e-38
141	0x81201980	-2.9405654e-38
142	0x03b150c8	1.04216715e-36
143	0x80b44d00	-1.6558012e-38
144	0x3bf1121f	0.0073568965
145	0x812c1172	-3.1603927e-38
146	0x818a7b48	-5.0870094e-38
147	0x816e3c80	-4.3757103e-38
148	0x82f2e3e0	-3.5689498e-37
149	0x807f3d00	-1.168499e-38
150	0x810c2aee	-2.574474e-38
151	0x80460400	-6.42992e-39
152	0x82969660	-2.212683e-37
153	0x81271d00	-3.0693862e-38
154	0x81808f80	-4.7225686e-38
155	0x00ee3400	2.1875502e-38
156	0x0281c190	1.9065946e-37
157	0x8136481e	-3.3479862e-38
158	0x819c6e80	-5.746391e-38
159	0x818c3240	-5.1499983e-38
160	0x822a7de0	-1.2525752e-37
161	0x0396c948	8.8624195e-37
162	0x80e8f800	-2.1394801e-38
163	0x82504ba0	-1.530313e-37
164	0x81974080	-5.556119e-38
165	0x80d83778	-1.9856366e-38
166	0x80f45c00	-2.2440864e-38
167	0x80473f00	-6.54292e-39
168	0x810da580	-2.601635e-38
169	0x81754a80	-4.5052844e-38
170	0x800b6500	-1.046422e-39
171	0x0139b080	3.4105766e-38
172	0x8199f300	-5.655201e-38
173	0x808999a3	-1.2636577e-38
174	0x00879300	1.2450526e-38
175	0x8134ad80	-3.318526e-38
176	0x81a27ec0	-5.969128e-38
177	0x81189460	-2.8024445e-38
178	0x8014ac00	-1.898412e-39
179	0x8100c680	-2.3652304e-38
180	0x81a1d0c0	-5.94416e-38
181	0x8187f640	-4.994452e-38
182	0x813c017a	-3.4531206e-38
183	0x81647f00	-4.1968104e-38
184	0x81154880	-2.7418994e-38
185	0x8501ff13	-6.1124006e-36
186	0x8157fd80	-3.967114e-38
187	0x80b54f00	-1.6650565e-38
188	0x8181fc27	-4.7748937e-38
189	0x0017f000	2.198312e-39
190	0x81ab76c0	-6.298588e-38
191	0x81231c00	-2.995846e-38
192	0x81887500	-5.0126397e-38
193	0x813ee700	-3.5063223e-38
194	0x817f628c	-4.6906807e-38
195	0x81ae04c0	-6.392432e-38
196	0x014d9080	3.7756227e-38
197	0x8093226b	-1.3512165e-38
198	0x819f2400	-5.8459033e-38
199	0x819d2890	-5.7730896e-38
200	0x819a8340	-5.6759e-38
201	0x81350900	-3.3250907e-38
202	0x812f2400	-3.2168252e-38
203	0x8054dd00	-7.793462e-39
204	0x8197eddc	-5.580995e-38
205	0x8125b480	-3.0435216e-38
206	0x813d6890	-3.4788837e-38
207	0x81154300	-2.7415048e-38
208	0x81a5c213	-6.088991e-38
209	0x80168700	-2.06881e-39
210	0x80d96100	-1.99631e-38
211	0x81762e96	-4.5216488e-38
212	0x81a66300	-6.112083e-38
213	0x8199b993	-5.646961e-38
214	0x8027c200	-3.651178e-39
215	0x821fb060	-1.1732092e-37
216	0x81349200	-3.3165528e-38
217	0x8195c540	-5.5016996e-38
218	0x815d7b20	-4.0679627e-38
219	0x000c5cc0	1.135298e-39
220	0x80fae800	-2.30421e-38
221	0x8192e7c0	-5.3964475e-38
222	0x80e98a00	-2.1447176e-38
223	0x03f1bdb8	1.4208264e-36
224	0x803f3c00	-5.80716e-39
225	0x81554360	-3.917026e-38
226	0x815f708a	-4.1039374e-38
227	0x815ef180	-4.0948228e-38
228	0x819349e3	-5.4105294e-38
229	0x81679280	-4.2533108e-38
230	0x8146de00	-3.6526134e-38
231	0x81247592	-3.0206395e-38
232	0x81963b80	-5.5186676e-38
233	0x020e1280	1.0437822e-37
234	0x80b08000	-1.6208965e-38
235	0x80b10000	-1.6254883e-38
236	0x8110544c	-2.6509103e-38
237	0x8116dfc0	-2.7711182e-38
238	0x8042ff00	-6.15262e-39
239	0x03e3c638	1.338737e-36
240	0x80b8bc98	-1.6965386e-38
241	0x81833d00	-4.820933e-38
242	0x81313580	-3.254815e-38
243	0x81af058a	-6.4292795e-38
244	0x01941740	5.4399976e-38
245	0x818ac87a	-5.0980864e-38
246	0x81b610b6	-6.688022e-38
247	0x8163fe2c	-4.1875675e-38
248	0x813c0c80	-3.4539115e-38
249	0x815bf664	-4.0400724e-38
250	0x80c5a700	-1.8151501e-38
251	0x81931dc0	-5.404196e-38
252	0x81944940	-5.447172e-38
253	0x8142ab48	-3.575506e-38
254	0x81a28a80	-5.970814e-38
255	0x3c38c686	0.0112778

fc3.weight f4 [1, 300]
0	0x80a48e00	-1.5111961e-38
1	0x0001f960	1.81294e-40
2	0x0043d400	6.22903e-39
3	0x8116d680	-2.7704545e-38
4	0x81770f80	-4.5377856e-38
5	0x002094b0	2.992075e-39
6	0x00433800	6.173067e-39
7	0x00615cb0	8.941293e-39
8	0x040170e4	1.5215714e-36
9	0x810330d8	-2.4095944e-38
10	0x804cf47a	-7.0672e-39
11	0x80869400	-1.2359049e-38
12	0x82638ac0	-1.6717145e-37
13	0x8181088e	-4.739939e-38
14	0x81052980	-2.4458017e-38
15	0x8126b048	-3.061586e-38
16	0x818e6dc0	-5.2320045e-38
17	0x810df180	-2.6070878e-38
18	0x01486a80	3.6810608e-38
19	0x80d48d00	-1.9519706e-38
20	0x00389900	5.197674e-39
21	0x8050cb00	-7.419662e-39
22	0x80f54500	-2.2524449e-38
23	0x81756e10	-4.507836e-38
24	0x815e8480	-4.0870024e-38
25	0x8117e600	-2.7899337e-38
26	0x80b350c0	-1.6467521e-38
27	0x00217f3e	3.076217e-39
28	0x801f8700	-2.895329e-39
29	0x83349c58	-5.307672e-37
30	0x811f1fb8	-2.9226445e-38
31	0x00366800	4.996425e-39
32	0x007f8800	1.1711896e-38
33	0x80319900	-4.554825e-39
34	0x01528624	3.866715e-38
35	0x01778000	4.545857e-38
36	0x81509804	-3.8312632e-38
37	0x0077b678	1.0993881e-38
38	0x805d6718	-8.577684e-39
39	0x80059800	-5.13705e-40
40	0x81542c10	-3.8969864e-38
41	0x01a0ee00	5.911623e-38
42	0x8081a300	-1.1905252e-38
43	0x81902f40	-5.2965046e-38
44	0x8065cdb0	-9.349172e-39
45	0x81336400	-3.2948854e-38
46	0x0007fa00	7.32532e-40
47	0x8239c740	-1.3648835e-37
48	0x8046a100	-6.48624e-39
49	0x81101900	-2.646656e-38
50	0x80082000	-7.46163e-40
51	0x809c2310	-1.4338915e-38
52	0x806b5088	-9.855287e-39
53	0x810286b6	-2.397388e-38
54	0x00226100	3.157204e-39
55	0x80786000	-1.1054698e-38
56	0x00466c00	6.467228e-39
57	0x01276600	3.0746237e-38
58	0x81639080	-4.179699e-38
59	0x00aafe84	1.5703337e-38
60	0x018fa540	5.2767026e-38
61	0x05714b5a	1.13456054e-35
62	0x80d3676e	-1.9414393e-38
63	0x02cfd3f0	3.0537562e-37
64	0x80c759c4	-1.8307466e-38
65	0x80633da0	-9.113821e-39
66	0x037d36a0	7.4412724e-37
67	0x801b9d00	-2.53588e-39
68	0x00513740	7.458495e-39
69	0x0054ff00	7.805658e-39
70	0x81b91440	-6.7987324e-38
71	0x01dea440	8.178561e-38
72	0x04e3da6c	5.3568032e-36
73	0x81a37880	-6.004965e-38
74	0x80319b00	-4.555543e-39
75	0x01486408	3.6805967e-38
76	0x00477c80	6.564982e-39
77	0x84a1f0c9	-3.8072044e-36
78	0x03609308	6.5996467e-37
79	0x81d2f940	-7.7499473e-38
80	0x828bd6b0	-2.054744e-37
81	0x8043cd00	-6.226518e-39
82	0x012ac100	3.136254e-38
83	0x00826304	1.1974135e-38
84	0x00446a00	6.28284e-39
85	0x80585900	-8.113451e-39
86	0x819cd380	-5.760884e-38
87	0x800efc00	-1.376098e-39
88	0x03807720	7.550514e-37
89	0x017de900	4.663593e-38
90	0x00625b03	9.032527e-39
91	0x00550000	7.806017e-39
92	0x804eb2c0	-7.227292e-39
93	0x002a8c00	3.907313e-39
94	0x009d79f8	1.4461927e-38
95	0x8043c400	-6.22329e-39
96	0x804b9c00	-6.943624e-39
97	0x80a6ab00	-1.5306036e-38
98	0x80a6afd0	-1.5307762e-38
99	0x805a379c	-8.285144e-39
100	0x812966d0	-3.1114162e-38
101	0x82999920	-2.256922e-37
102	0x802ef600	-4.312681e-39
103	0x80a4f300	-1.5148193e-38
104	0x80edfb00	-2.1855054e-38
105	0x80098846	-8.75405e-40
106	0x018cc898	5.1715716e-38
107	0x819f0740	-5.841778e-38
108	0x00530e20	7.627413e-39
109	0x8035dd12	-4.946586e-39
110	0x818cb000	-5.1680425e-38
111	0x80f02100	-2.2052357e-38
112	0x8239ea40	-1.365888e-37
113	0x016a0bb4	4.298741e-38
114	0x00351000	4.873021e-39
115	0x014a0400	3.710441e-38
116	0x84965328	-3.5341197e-36
117	0x0124f000	3.0294234e-38
118	0x01696300	4.286637e-38
119	0x007ceb10	1.1471926e-38
120	0x01483080	3.6768996e-38
121	0x020f5c20	1.0532419e-37
122	0x8041db00	-6.04787e-39
123	0x00095800	8.58088e-40
124	0x01299000	3.1143713e-38
125	0x80e78c00	-2.1264222e-38
126	0x0179add4	4.5858793e-38
127	0x00923990	1.3428632e-38
128	0x8155bd68	-3.9257814e-38
129	0xbce21a4a	-0.027600426
130	0x00cfd450	1.9086111e-38
131	0x002531d0	3.415783e-39
132	0x815315ec	-3.8770308e-38
133	0x00652100	9.287223e-39
134	0x00147400	1.878323e-39
135	0x01aaf120	6.2794135e-38
136	0x80b8c44f	-1.6968154e-38
137	0x803a7e40	-5.371749e-39
138	0x009ead00	1.4572069e-38
139	0x82fd1290	-3.7185663e-37
140	0x81601380	-4.1156293e-38
141	0x00526700	7.56746e-39
142	0x05117ff1	6.8413664e-36
143	0x008ef600	1.3128889e-38
144	0xbd13ca11	-0.036081377
145	0x80fe2f78	-2.3343245e-38
146	0x806bf060	-9.912628e-39
147	0x80cbaf00	-1.8705384e-38
148	0x82b6a8d0	-2.683939e-37
149	0x0146a480	3.648488e-38
150	0x00a924c1	1.5533384e-38
151	0x81899980	-5.0546114e-38
152	0x029fd640	2.3485924e-37
153	0x81868ac0	-4.942292e-38
154	0x00d59400	1.9614053e-38
155	0x807a8100	-1.1250207e-38
156	0x828a0db0	-2.0285134e-37
157	0x80344970	-4.80179e-39
158	0x816db300	-4.365845e-38
159	0x80f21400	-2.2231365e-38
160	0x025ccbe0	1.6221557e-37
161	0x83c96f58	-1.18392815e-36
162	0x81318180	-3.2602677e-38
163	0x022a1aa0	1.2497268e-37
164	0x815c0500	-4.0411206e-38
165	0x0091d0f0	1.33911e-38
166	0x0103bd80	2.419686e-38
167	0x806dcb00	-1.0082892e-38
168	0x00a75d00	1.536989e-38
169	0x01425e80	3.5699973e-38
170	0x80c81900	-1.8376068e-38
171	0x814d9980	-3.7762684e-38
172	0x00d93400	1.9946957e-38
173	0x0068fae7	9.640898e-39
174	0x803abc00	-5.3939e-39
175	0x819d35c0	-5.774982e-38
176	0x00166fa0	2.060424e-39
177	0x009ec778	1.4581564e-38
178	0x010ca780	2.5834114e-38
179	0x814eca40	-3.7981332e-38
180	0x80658100	-9.321662e-39
181	0x0225bd40	1.2176598e-37
182	0x01691e7c	4.2817213e-38
183	0x00643500	9.202562e-39
184	0x804a0800	-6.798697e-39
185	0x84ade94d	-4.0886357e-36
186	0x81af8b40	-6.448466e-38
187	0x001c8d00	2.621975e-39
188	0x00c9245c	1.8471978e-38
189	0x81fc9e40	-9.279726e-38
190	0x81ba86c0	-6.8518966e-38
191	0x80c84c00	-1.8394363e-38
192	0x00270f00	3.586965e-39
193	0x8005a300	-5.17651e-40
194	0x80db5a64	-2.01444e-38
195	0x00e2cf00	2.082908e-38
196	0x006dc400	1.008038e-38
197	0x800c6a52	-1.140166e-39
198	0x80487600	-6.654486e-39
199	0x01b71548	6.725412e-38
200	0x007e1500	1.1578806e-38
201	0x800f0600	-1.379685e-39
202	0x80334300	-4.707645e-39
203	0x802ce700	-4.123629e-39
204	0x804d81de	-7.117921e-39
205	0x00f55b00	2.2532341e-38
206	0x0194c470	5.464849e-38
207	0x81961ed0	-5.514551e-38
208	0x00271aa8	3.591147e-39
209	0x00521000	7.53625e-39
210	0x00a8ac00	1.5490065e-38
211	0x0023ea54	3.298303e-39
212	0x80c12300	-1.7736806e-38
213	0x80490352	-6.705182e-39
214	0x809bca00	-1.4306966e-38
215	0x0234dd00	1.3287735e-37
216	0x0069e200	9.7238e-39
217	0x81169780	-2.7659345e-38
218	0x00531d60	7.632884e-39
219	0x80bc9800	-1.73196e-38
220	0x81708f60	-4.4183905e-38
221	0x01aed940	6.4229244e-38
222	0x0003a100	3.33262e-40
223	0x0487ba14	3.1909233e-36
224	0x801e4100	-2.778382e-39
225	0x005ec250	8.702243e-39
226	0x001c98a8	2.626157e-39
227	0x01968a00	5.529932e-38
228	0x81371518	-3.3626926e-38
229	0x00298988	3.814592e-39
230	0x81060400	-2.4614783e-38
231	0x803d75b4	-5.644189e-39
232	0x00d12200	1.9205816e-38
233	0x03147a88	4.363395e-37
234	0x000c8bc0	1.152159e-39
235	0x80ecd800	-2.1750663e-38
236	0x00ae20d8	1.5991158e-38
237	0x00089648	7.88595e-40
238	0x00934800	1.3525647e-38
239	0x8349c478	-5.9294126e-37
240	0x00c77aac	1.831927e-38
241	0x00e8a900	2.1366461e-38
242	0x019c7200	5.746893e-38
243	0x0021c710	3.101982e-39
244	0x01a27340	5.9674777e-38
245	0x81b46f86	-6.6281586e-38
246	0x818f12a2	-5.255664e-38
247	0x0052d4b0	7.606809e-39
248	0x8034a500	-4.834637e-39
249	0x80782610	-1.1033914e-38
250	0x012e3c80	3.200216e-38
251	0x002b9a00	4.004171e-39
252	0x80fa0000	-2.2958874e-38
253	0x000a35b0	9.37614e-40
254	0x0198f440	5.6186463e-38
255	0xbd623b96	-0.055232607

bn1_state.weight f4 [400]
0	0x3eb410e8	0.35169148
1	0x3db40358	0.087897
2	0x3f35b805	0.70983917
3	0x3e3e7310	0.1859858
4	0x3f04e731	0.5191527
5	0x3cec8c40	0.02887547
6	0x3f46aa12	0.77603257
7	0x3ec6fc70	0.3886447
8	0x3f4bacb9	0.7956043
9	0x3f6df92b	0.92958325
10	0x3f4cd0a5	0.80005866
11	0x3ee78498	0.45218349
12	0x3f735210	0.9504709
13	0x3f53a433	0.82672423
14	0x3f6fa635	0.93612987
15	0x3f7a3914	0.97743344
16	0x3f0a0c42	0.53924954
17	0x3ec9343e	0.3929767
18	0x3ed63a66	0.4184143
19	0x3f05fd1c	0.5233934
20	0x3eadfee0	0.33983517
21	0x3eb7b19a	0.35877687
22	0x3f614428	0.87994623
23	0x3eaad140	0.3336277
24	0x3f51ea7e	0.8199843
25	0x3f577c11	0.84173685
26	0x3dbd04b0	0.0922941
27	0x3ea3225a	0.31862146
28	0x3f031628	0.5120568
29	0x3f7f0413	0.9961559
30	0x3e673890	0.2258017
31	0x3f4c57d3	0.7982151
32	0x3c738080	0.01486218
33	0x3f65ce2a	0.89767706
34	0x3cda0900	0.02661562
35	0x3f40ec83	0.7536089
36	0x3dafba60	0.0858047
37	0x3d4be220	0.049776196
38	0x3f320036	0.6953157
39	0x3e8e4f72	0.27794987
40	0x3f11cc13	0.5695202
41	0x3f01c90e	0.5069741
42	0x3f0d4e46	0.5519756
43	0x3f6ecb0d	0.9327858
44	0x3ef3a6aa	0.47588092
45	0x3f3bf4d8	0.73420477
46	0x3e86d85e	0.2633695
47	0x3ee77a04	0.45210278
48	0x3f349778	0.7054362
49	0x3e4787e4	0.19485432
50	0x3e158d84	0.14604765
51	0x3f723d42	0.9462472
52	0x3f19511a	0.59889376
53	0x3e087bf4	0.13328534
54	0x3f3eedc0	0.7458153
55	0x3f07355e	0.52815807
56	0x3f4a2c4a	0.7897383
57	0x3e0c07dc	0.13674873
58	0x3f79eec8	0.97629976
59	0x3f4c0fea	0.7971178
60	0x3f6c245f	0.92243
61	0x3eaad4ea	0.33365566
62	0x3f124b18	0.57145834
63	0x3c9ccbc0	0.019140124
64	0x3ee1f2ba	0.44130498
65	0x3f27bc4a	0.6552168
66	0x3e504178	0.20337474
67	0x3f27aa4c	0.6549423
68	0x3f25e785	0.64806396
69	0x3f7747cc	0.9659393
70	0x3e847ca2	0.25876337
71	0x3e3711f4	0.17877942
72	0x3e5ef40c	0.21772784
73	0x3f6fadf2	0.93624794
74	0x3f52aaaf	0.8229169
75	0x3f533963	0.8250944
76	0x3b49dd00	0.0030801892
77	0x3f28a06a	0.6586977
78	0x3f6052f5	0.8762658
79	0x3f2bb8c8	0.6707883
80	0x3f51fd3c	0.8202703
81	0x3f35749e	0.7088107
82	0x3e82d154	0.2555033
83	0x3ed96652	0.42460877
84	0x3b618500	0.003441155
85	0x3f56f967	0.8397431
86	0x3f67867a	0.9043957
87	0x3f25dcdd	0.64790136
88	0x3f60b616	0.8777784
89	0x3dfcf620	0.12351632
90	0x3f4eef83	0.80834216
91	0x3e134270	0.14380813
92	0x3e207da8	0.15672934
93	0x3cb06240	0.021531224
94	0x3f0315f8	0.51205397
95	0x3f66d8fa	0.9017483
96	0x3cece260	0.028916538
97	0x3f563d35	0.83687145
98	0x3f4e15b4	0.80501866
99	0x3f5736fc	0.84068274
100	0x3f1d31a2	0.6140386
101	0x3ca38260	0.019959629
102	0x3eab76b6	0.33489007
103	0x3f3a895d	0.7286585
104	0x3e92a916	0.28644627
105	0x3f02eebd	0.51145536
106	0x3cea2140	0.028580308
107	0x3f4945f4	0.78622365
108	0x3f180270	0.5937872
109	0x3f221c70	0.6332464
110	0x3f44107f	0.7658767
111	0x3f1b4d24	0.6066458
112	0x3f0c6571	0.5484229
113	0x3f10fd8c	0.5663688
114	0x3ef897bc	0.48553264
115	0x3f1358bb	0.57557267
116	0x3c712c80	0.014720082
117	0x3e8aa1d6	0.27076596
118	0x3e6b313c	0.22968
119	0x3ede7936	0.43451852
120	0x3f3b997d	0.7328108
121	0x3f6f1c70	0.9340277
122	0x3f105a35	0.56387645
123	0x3deb1300	0.11478233
124	0x3ee03fa6	0.4379856
125	0x3f70b2c8	0.940228
126	0x3f062bcd	0.52410585
127	0x3e002278	0.12513149
128	0x3ed190fa	0.4093092
129	0x3ee3f060	0.4451933
130	0x3f0df7fa	0.5545651
131	0x3f528428	0.82232904
132	0x3e99a3ea	0.3000787
133	0x3f7d83b1	0.9902907
134	0x3f7e8641	0.99423605
135	0x3e644c34	0.22294694
136	0x3ef37ade	0.47554678
137	0x3d18b320	0.037280202
138	0x3f56e3ff	0.83941644
139	0x3ee8c774	0.4546467
140	0x3e91c3de	0.28469747
141	0x3f793a48	0.97354555
142	0x3f5b784a	0.8573042
143	0x3f542a5f	0.82877153
144	0x3f6a3f77	0.9150309
145	0x3f5c2886	0.85999334
146	0x3f65547f	0.89582056
147	0x3e26d1f8	0.16291034
148	0x3f0993c4	0.537411
149	0x3e445ea0	0.19176722
150	0x3f576cf6	0.84150636
151	0x3dfc30a0	0.12313962
152	0x3e736c88	0.2377187
153	0x3e912f26	0.28356284
154	0x3f6b06e9	0.9180742
155	0x3f77c1f9	0.96780354
156	0x3f4fced8	0.81174994
157	0x3e8213ea	0.25405818
158	0x3f4d1449	0.8010908
159	0x3f7c4738	0.9854617
160	0x3e99f362	0.300685
161	0x3f79f9e1	0.9764691
162	0x3e3adb2c	0.1824767
163	0x3c8fbd60	0.017546356
164	0x3f4745d0	0.778409
165	0x3f7b7fcb	0.9824187
166	0x3e312444	0.1729899
167	0x3f0980a1	0.537119
168	0x3dd101a0	0.10205388
169	0x3f48f029	0.78491455
170	0x3f36ea23	0.71451014
171	0x3e589654	0.21151096
172	0x3ea69538	0.3253572
173	0x3e1941dc	0.1496653
174	0x3f0dcaec	0.5538776
175	0x3e749b48	0.2388736
176	0x3f21ec16	0.63250864
177	0x3e6fe120	0.23425722
178	0x3db18090	0.086670995
179	0x3f3390f2	0.70143044
180	0x3dd00d50	0.10158789
181	0x3f1075cc	0.56429744
182	0x3f6d0ec2	0.92600644
183	0x3e8813fe	0.26577753
184	0x3f702288	0.9380269
185	0x3c85a340	0.016313195
186	0x3f3f2724	0.746691
187	0x3e1b111c	0.15143245
188	0x3f31f6c9	0.6951719
189	0x3f41db7e	0.75725543
190	0x3da60e70	0.081082225
191	0x3f2290f1	0.63502413
192	0x3e201cd4	0.15635997
193	0x3ea9a07a	0.33130246
194	0x3ead7562	0.33878618
195	0x3eb405c8	0.3516066
196	0x3f2ababa	0.6669117
197	0x3d0edc90	0.034878314
198	0x3ec661e6	0.38746566
199	0x3e482990	0.19547105
200	0x3de21ff8	0.11041254
201	0x3f1b6837	0.60705894
202	0x3e456a10	0.19278741
203	0x3e62076c	0.22073144
204	0x3f6e572e	0.93101776
205	0x3f075a71	0.5287238
206	0x3ee514fa	0.44742566
207	0x3f795656	0.97397363
208	0x3ee87082	0.45398337
209	0x3f420680	0.7579117
210	0x3c246080	0.010032773
211	0x3ea2b242	0.31776625
212	0x3e094160	0.13403845
213	0x3f08017c	0.53127265
214	0x3f3fffd4	0.7499974
215	0x3ee2f724	0.44329178
216	0x3f62fa9f	0.8866367
217	0x3e4e1ad0	0.20127416
218	0x3e830fb6	0.25597924
219	0x3e6eb188	0.2330991
220	0x3c1bff40	0.009521306
221	0x3f64d1f7	0.8938288
222	0x3f7b5690	0.9817896
223	0x3f0454e3	0.51692027
224	0x3f6d9b7b	0.9281537
225	0x3ea10e98	0.31456447
226	0x3ebd61ce	0.36988682
227	0x3f34a4a7	0.7056374
228	0x3f791f54	0.9731343
229	0x3e553a58	0.20823038
230	0x3df52648	0.11970192
231	0x3db05f98	0.08611983
232	0x3f4c5bca	0.7982756
233	0x3f7db179	0.99098927
234	0x3e88cb4a	0.26717597
235	0x3f31ef28	0.6950555
236	0x3bf13580	0.007361114
237	0x3f274ed2	0.65354645
238	0x3f5cdb5d	0.8627222
239	0x3eb5eec8	0.35533738
240	0x3e9be964	0.304515
241	0x3e5f06dc	0.2177996
242	0x3f0c2e16	0.5475782
243	0x3dcb1798	0.099166095
244	0x3da95478	0.08268064
245	0x3f070858	0.52747107
246	0x3eda3312	0.4261709
247	0x3f07a6be	0.52988803
248	0x3ec61a86	0.3869211
249	0x3efeef8e	0.4979214
250	0x3f1b068e	0.60556877
251	0x3f477bb1	0.77923113
252	0x3e68d79c	0.22738498
253	0x3ef87868	0.48529363
254	0x3dac1398	0.08402175
255	0x3f1b81cf	0.6074495

bn1_state.bias f4 [400]
0	0x00000000	0.0
1	0x00000000	0.0
2	0x00000000	0.0
3	0x00000000	0.0
4	0x00000000	0.0
5	0x00000000	0.0
6	0x00000000	0.0
7	0x00000000	0.0
8	0x00000000	0.0
9	0x00000000	0.0
10	0x00000000	0.0
11	0x00000000	0.0
12	0x00000000	0.0
13	0x00000000	0.0
14	0x00000000	0.0
15	0x00000000	0.0
16	0x00000000	0.0
17	0x00000000	0.0
18	0x00000000	0.0
19	0x00000000	0.0
20	0x00000000	0.0
21	0x00000000	0.0
22	0x00000000	0.0
23	0x00000000	0.0
24	0x00000000	0.0
25	0x00000000	0.0
26	0x00000000	0.0
27	0x00000000	0.0
28	0x00000000	0.0
29	0x00000000	0.0
30	0x00000000	0.0
31	0x00000000	0.0
32	0x00000000	0.0
33	0x00000000	0.0
34	0x00000000	0.0
35	0x00000000	0.0
36	0x00000000	0.0
37	0x00000000	0.0
38	0x00000000	0.0
39	0x00000000	0.0
40	0x00000000	0.0
41	0x00000000	0.0
42	0x00000000	0.0
43	0x00000000	0.0
44	0x00000000	0.0
45	0x00000000	0.0
46	0x00000000	0.0
47	0x00000000	0.0
48	0x00000000	0.0
49	0x00000000	0.0
50	0x00000000	0.0
51	0x00000000	0.0
52	0x00000000	0.0
53	0x00000000	0.0
54	0x00000000	0.0
55	0x00000000	0.0
56	0x00000000	0.0
57	0x00000000	0.0
58	0x00000000	0.0
59	0x00000000	0.0
60	0x00000000	0.0
61	0x00000000	0.0
62	0x00000000	0.0
63	0x00000000	0.0
64	0x00000000	0.0
65	0x00000000	0.0
66	0x00000000	0.0
67	0x00000000	0.0
68	0x00000000	0.0
69	0x00000000	0.0
70	0x00000000	0.0
71	0x00000000	0.0
72	0x00000000	0.0
73	0x00000000	0.0
74	0x00000000	0.0
75	0x00000000	0.0
76	0x00000000	0.0
77	0x00000000	0.0
78	0x00000000	0.0
79	0x00000000	0.0
80	0x00000000	0.0
81	0x00000000	0.0
82	0x00000000	0.0
83	0x00000000	0.0
84	0x00000000	0.0
85	0x00000000	0.0
86	0x00000000	0.0
87	0x00000000	0.0
88	0x00000000	0.0
89	0x00000000	0.0
90	0x00000000	0.0
91	0x00000000	0.0
92	0x00000000	0.0
93	0x00000000	0.0
94	0x00000000	0.0
95	0x00000000	0.0
96	0x00000000	0.0
97	0x00000000	0.0
98	0x00000000	0.0
99	0x00000000	0.0
100	0x00000000	0.0
101	0x00000000	0.0
102	0x00000000	0.0
103	0x00000000	0.0
104	0x00000000	0.0
105	0x00000000	0.0
106	0x00000000	0.0
107	0x00000000	0.0
108	0x00000000	0.0
109	0x00000000	0.0
110	0x00000000	0.0
111	0x00000000	0.0
112	0x00000000	0.0
113	0x00000000	0.0
114	0x00000000	0.0
115	0x00000000	0.0
116	0x00000000	0.0
117	0x00000000	0.0
118	0x00000000	0.0
119	0x00000000	0.0
120	0x00000000	0.0
121	0x00000000	0.0
122	0x00000000	0.0
123	0x00000000	0.0
124	0x00000000	0.0
125	0x00000000	0.0
126	0x00000000	0.0
127	0x00000000	0.0
128	0x00000000	0.0
129	0x00000000	0.0
130	0x00000000	0.0
131	0x00000000	0.0
132	0x00000000	0.0
133	0x00000000	0.0
134	0x00000000	0.0
135	0x00000000	0.0
136	0x00000000	0.0
137	0x00000000	0.0
138	0x00000000	0.0
139	0x00000000	0.0
140	0x00000000	0.0
141	0x00000000	0.0
142	0x00000000	0.0
143	0x00000000	0.0
144	0x00000000	0.0
145	0x00000000	0.0
146	0x00000000	0.0
147	0x00000000	0.0
148	0x00000000	0.0
149	0x00000000	0.0
150	0x00000000	0.0
151	0x00000000	0.0
152	0x00000000	0.0
153	0x00000000	0.0
154	0x00000000	0.0
155	0x00000000	0.0
156	0x00000000	0.0
157	0x00000000	0.0
158	0x00000000	0.0
159	0x00000000	0.0
160	0x00000000	0.0
161	0x00000000	0.0
162	0x00000000	0.0
163	0x00000000	0.0
164	0x00000000	0.0
165	0x00000000	0.0
166	0x00000000	0.0
167	0x00000000	0.0
168	0x00000000	0.0
169	0x00000000	0.0
170	0x00000000	0.0
171	0x00000000	0.0
172	0x00000000	0.0
173	0x00000000	0.0
174	0x00000000	0.0
175	0x00000000	0.0
176	0x00000000	0.0
177	0x00000000	0.0
178	0x00000000	0.0
179	0x00000000	0.0
180	0x00000000	0.0
181	0x00000000	0.0
182	0x00000000	0.0
183	0x00000000	0.0
184	0x00000000	0.0
185	0x00000000	0.0
186	0x00000000	0.0
187	0x00000000	0.0
188	0x00000000	0.0
189	0x00000000	0.0
190	0x00000000	0.0
191	0x00000000	0.0
192	0x00000000	0.0
193	0x00000000	0.0
194	0x00000000	0.0
195	0x00000000	0.0
196	0x00000000	0.0
197	0x00000000	0.0
198	0x00000000	0.0
199	0x00000000	0.0
200	0x00000000	0.0
201	0x00000000	0.0
202	0x00000000	0.0
203	0x00000000	0.0
204	0x00000000	0.0
205	0x00000000	0.0
206	0x00000000	0.0
207	0x00000000	0.0
208	0x00000000	0.0
209	0x00000000	0.0
210	0x00000000	0.0
211	0x00000000	0.0
212	0x00000000	0.0
213	0x00000000	0.0
214	0x00000000	0.0
215	0x00000000	0.0
216	0x00000000	0.0
217	0x00000000	0.0
218	0x00000000	0.0
219	0x00000000	0.0
220	0x00000000	0.0
221	0x00000000	0.0
222	0x00000000	0.0
223	0x00000000	0.0
224	0x00000000	0.0
225	0x00000000	0.0
226	0x00000000	0.0
227	0x00000000	0.0
228	0x00000000	0.0
229	0x00000000	0.0
230	0x00000000	0.0
231	0x00000000	0.0
232	0x00000000	0.0
233	0x00000000	0.0
234	0x00000000	0.0
235	0x00000000	0.0
236	0x00000000	0.0
237	0x00000000	0.0
238	0x00000000	0.0
239	0x00000000	0.0
240	0x00000000	0.0
241	0x00000000	0.0
242	0x00000000	0.0
243	0x00000000	0.0
244	0x00000000	0.0
245	0x00000000	0.0
246	0x00000000	0.0
247	0x00000000	0.0
248	0x00000000	0.0
249	0x00000000	0.0
250	0x00000000	0.0
251	0x00000000	0.0
252	0x00000000	0.0
253	0x00000000	0.0
254	0x00000000	0.0
255	0x00000000	0.0
