collaboration_competition/models/critic_success.pth (torch_old, 545385 bytes, 21 tensors)

fcs1.weight f4 [400, 24]
0	0x3bb70fe3	0.0055866106
1	0xbd322728	-0.043494374
2	0xbc32de01	-0.010917188
3	0x3c5d2f3e	0.013500033
4	0x3d6b9554	0.057515457
5	0x3e40a176	0.18811592
6	0x3c2d43f1	0.0105752805
7	0xbb76d477	-0.003766326
8	0xbd4a072f	-0.049323257
9	0x3cb945ba	0.022616256
10	0x3d10276b	0.035193842
11	0xbcada6cb	-0.021197697
12	0xbd0dfc46	-0.034664415
13	0x3d6c361e	0.057668798
14	0xbd071ffd	-0.03298949
15	0xbb837c4e	-0.004012621
16	0x3d03e85b	0.032204013
17	0xbc439e49	-0.011939594
18	0xbc86cd7c	-0.016455404
19	0x3c207913	0.009794491
20	0xbd1000dd	-0.035157073
21	0xbea070e5	-0.31336132
22	0x3c38332d	0.01124267
23	0x3c990952	0.018681202
24	0x3cc7d75b	0.024394682
25	0x3d70aa1f	0.05875599
26	0xbce19670	-0.027537555
27	0xbc477b98	-0.012175463
28	0xbcd1893d	-0.025578136
29	0xbd9629be	-0.073321804
30	0x3d162e4c	0.036665246
31	0xbd0d0237	-0.03442594
32	0xbc7deae3	-0.015497896
33	0x3d1654d2	0.036701985
34	0xb9758136	-0.00023413156
35	0x3d432af2	0.047648378
36	0x3d8319cd	0.064014055
37	0xbd45e685	-0.048315544
38	0x3d1d083e	0.03833794
39	0xbcccb1cf	-0.02498713
40	0xbcff8fb4	-0.031196453
41	0x3d41062e	0.047125034
42	0x3c93e177	0.018051846
43	0xbdce151f	-0.10062622
44	0x3db1aec7	0.08675914
45	0xbe14161e	-0.14461562
46	0xbc88f007	-0.016716016
47	0xbd882d21	-0.06649233
48	0x3bf613c6	0.0075096814
49	0xbdafb5f4	-0.08579627
50	0x3d212885	0.039345283
51	0x3bdc3a79	0.0067208377
52	0x3dbd4175	0.092410006
53	0x3d673eae	0.05645626
54	0xbcef34d0	-0.029199988
55	0x3d3b7481	0.045765404
56	0x3d5c927f	0.053850647
57	0xbde03e6c	-0.10949406
58	0x3d3a3352	0.0454591
59	0xbae80547	-0.0017701768
60	0x3d52f88b	0.05150656
61	0x3d6ae687	0.057348754
62	0xbc49563f	-0.012288629
63	0xbd5b9499	-0.05360851
64	0x3d6591ce	0.056047253
65	0xbde54450	-0.1119467
66	0x3d05cdd5	0.032667
67	0xbc9dd893	-0.01926831
68	0xbd0cc40f	-0.034366664
69	0xbddb3914	-0.10704246
70	0x3bfbc15f	0.0076829637
71	0xbc9bc11d	-0.019012982
72	0xbc76414e	-0.015030218
73	0xbd460dd2	-0.048353024
74	0x3b4649cf	0.0030256396
75	0x3d2fe30f	0.04294115
76	0xbd1dce6a	-0.03852693
77	0x3e36684a	0.1781322
78	0xbb2c1c4a	-0.0026261979
79	0x3ce5f991	0.028073104
80	0x3c1ff49b	0.009762908
81	0x3baf9756	0.005358617
82	0x3c1f4552	0.009721117
83	0xbd00652a	-0.031346478
84	0xbc5b5611	-0.013387219
85	0x3dc4dd08	0.09612471
86	0xbc305f0e	-0.01076485
87	0xbcfb191b	-0.03065162
88	0xbbfc6225	-0.0077021294
89	0xbc0830b8	-0.008312397
90	0xbb8bb803	-0.0042638793
91	0x3c1ff304	0.009762529
92	0x3db486f1	0.088148005
93	0xbeb3d215	-0.35121217
94	0x3ba7c401	0.005119801
95	0xbc91c7af	-0.017795412
96	0x3dc8e304	0.09808925
97	0x3e465d8f	0.19371627
98	0xbd0f4479	-0.03497741
99	0x3b9f89a8	0.004868705
100	0x3ca457c1	0.020061376
101	0x3d38eac9	0.045145784
102	0xbc843c39	-0.016141998
103	0xbccc14c0	-0.024912238
104	0x3d2f048b	0.042728942
105	0x3e54fe9c	0.20800251
106	0xbcb723b1	-0.022355886
107	0x3bebd007	0.0071964297
108	0x3c24921f	0.010044604
109	0x3d08627b	0.033297043
110	0x3baea655	0.005329887
111	0xbd15f857	-0.03661379
112	0x3d51738e	0.051135592
113	0x3de9158c	0.11381063
114	0xbc81eae4	-0.015859075
115	0xbe1c2524	-0.15248543
116	0xbcb140fe	-0.021637436
117	0xbd5ce6aa	-0.053930916
118	0x3bef0f6b	0.007295539
119	0xbe30cb94	-0.17265159
120	0x3d0f8156	0.035035454
121	0x3c6d4011	0.014480607
122	0x3d3267ac	0.0435559
123	0xbe17dbad	-0.14829893
124	0x3c5832fa	0.0131957475
125	0xbe518fbf	-0.20464991
126	0xbca6963d	-0.020335311
127	0xbd7c84bf	-0.061650034
128	0x3d33535c	0.04378067
129	0xbce63923	-0.028103417
130	0xbbd19535	-0.0063959607
131	0xbdb785a8	-0.0896104
132	0x3bbbb2f9	0.0057281223
133	0xbdce3792	-0.10069193
134	0xbc9e762e	-0.019343462
135	0xbdd52d92	-0.104090825
136	0xbc45746b	-0.012051682
137	0x3c713ce2	0.014723988
138	0x3b71cf32	0.003689718
139	0xbc06b331	-0.0082214335
140	0xbbae2b3e	-0.0053152135
141	0xbdfea340	-0.12433481
142	0x3b968543	0.0045935228
143	0xbd921b54	-0.07134119
144	0x3d027286	0.0318475
145	0xbb3cc7d3	-0.0028805628
146	0xbd13f89c	-0.036125764
147	0x3d9e8213	0.077396534
148	0xbcc9f377	-0.024652226
149	0xbceb947d	-0.028757328
150	0x3ca7ad9a	0.020468522
151	0x3d73dc03	0.05953599
152	0x3da11879	0.07865996
153	0xbbb964e4	-0.005657779
154	0xbc1acd34	-0.009448338
155	0x3d150d35	0.03638955
156	0x3d4873ca	0.04893855
157	0x3da39939	0.07988209
158	0xbd428ae9	-0.047495756
159	0x3d5f7fc5	0.05456521
160	0x3d8405a4	0.06446388
161	0xbd13b79b	-0.03606377
162	0x3ae7a67d	0.0017673519
163	0x3d3aa216	0.045564733
164	0x3d926fe7	0.0715025
165	0x3d85e7a3	0.06538322
166	0x3d2137be	0.0393598
167	0x3da06065	0.07830886
168	0xbcb7d5d5	-0.02244083
169	0xbc861d0b	-0.01637127
170	0x3cf286b0	0.02960524
171	0x3ce9fe64	0.028563686
172	0x3d860bd1	0.065452226
173	0xbd8209bb	-0.06349512
174	0xbcd0de16	-0.025496524
175	0xbc6b8e46	-0.014377182
176	0x3c12f110	0.008968607
177	0xbd03c46c	-0.032169744
178	0xbc608556	-0.013703665
179	0xbc90b7a2	-0.017665688
180	0xbd56b557	-0.052419033
181	0x3d99c289	0.07507808
182	0x3c8f278b	0.01747491
183	0x3ce6ff04	0.028197773
184	0xbd12a366	-0.03580036
185	0x3d6ed1f2	0.05830569
186	0xbce7c112	-0.028290305
187	0xbcdab921	-0.026699604
188	0xbe698dcd	-0.22807999
189	0x3ca44267	0.020051194
190	0x3cfb7ac7	0.030698193
191	0x3cb1865f	0.021670518
192	0xbceee71e	-0.02916294
193	0x3c9801bd	0.018555516
194	0xbab1e1c2	-0.0013571309
195	0x3ce31205	0.027718553
196	0x3d862217	0.06549471
197	0xbd895a87	-0.0670672
198	0x3c35623d	0.011070785
199	0x3d36dcc0	0.044644117
200	0x3c078584	0.008271579
201	0x3cf26770	0.029590338
202	0xbb35f558	-0.0027764644
203	0x3c2db7a7	0.010602868
204	0xbcd9d1c7	-0.026589287
205	0xbe2ea702	-0.17055896
206	0xbb72afca	-0.0037031048
207	0xbb94e97e	-0.004544436
208	0xbbbab584	-0.005697908
209	0xbcbd4c5c	-0.0231077
210	0xbbd028d3	-0.006352523
211	0xbd113957	-0.035455074
212	0xbd053cf1	-0.03252882
213	0x3e06bbca	0.13157573
214	0x3ced28e8	0.02895017
215	0xbc8a7f3d	-0.016906375
216	0xbc9e183b	-0.019298663
217	0x3b05c2d7	0.0020410323
218	0xbcd10adc	-0.025517873
219	0x3c66ac06	0.0140790995
220	0xbc939348	-0.018014565
221	0x3c1db92d	0.009626669
222	0x3cdf1872	0.027233336
223	0xb9f2950c	-0.00046268885
224	0x3ce23097	0.02761106
225	0x3d9fd660	0.07804561
226	0xbc76b4ad	-0.015057725
227	0x3dcee399	0.101020046
228	0xbcde1f5c	-0.027114563
229	0xbd93840f	-0.072029226
230	0x3af00210	0.0018311162
231	0x3d9ddca9	0.07708103
232	0x3cd55064	0.02603931
233	0x3d6c4425	0.057682175
234	0x3d53d9a7	0.05172124
235	0x3da8a966	0.08235435
236	0xbd38ee90	-0.045149386
237	0xbe40b674	-0.188196
238	0x3c7d56a7	0.015462554
239	0x3dbb464c	0.091442674
240	0xbdaaa206	-0.08331685
241	0x3e1a9e6f	0.150995
242	0xbc58bdf5	-0.013228883
243	0xbcbecaba	-0.023290027
244	0xbb999af1	-0.00468766
245	0x3c9bae7d	0.019004101
246	0x3ba820bc	0.0051308554
247	0x3c8d3cae	0.017240848
248	0xbd11f581	-0.03563452
249	0x3dd10938	0.102068365
250	0xbd2715da	-0.040792324
251	0x3c7b4d49	0.01533825
252	0x3d0f782f	0.035026725
253	0xbdcd7c70	-0.100335
254	0x3d19cdf0	0.037549913
255	0x3b1d2d6e	0.0023983377

fcs1.bias f4 [400]
0	0x3e4291f5	0.1900099
1	0x3ac9880f	0.0015375632
2	0x3c7acccf	0.015307619
3	0x3e12910c	0.14313143
4	0x3bf0d55a	0.0073496522
5	0xbd979789	-0.0740195
6	0xbcb06d66	-0.02153654
7	0xbe333c2d	-0.17503424
8	0xbdd610ec	-0.10452446
9	0xbe715c83	-0.23570447
10	0x3c81c9c7	0.015843285
11	0xbe56d19d	-0.20978399
12	0xbbc04e92	-0.0058687413
13	0xbd6986b4	-0.05701323
14	0x3d8b9813	0.06816115
15	0xbe498efe	-0.19683453
16	0xbd178f5e	-0.03700196
17	0xbc49ee32	-0.012324857
18	0xbdf82367	-0.121161275
19	0x3e164772	0.14675692
20	0xbe4ab0ae	-0.1979396
21	0x3e321f56	0.17394766
22	0xbd152266	-0.036409758
23	0xbe313308	-0.17304623
24	0xbe7bd979	-0.24594678
25	0xbe6a0c6a	-0.22856298
26	0xbdac00af	-0.08398568
27	0x3e194980	0.14969444
28	0x3ad4a283	0.0016222749
29	0xbe398f80	-0.18121147
30	0x3e188ff5	0.14898665
31	0x3e270817	0.1631168
32	0x3d9f9529	0.07792122
33	0x3e1e7c2f	0.1547706
34	0x3e24a641	0.16079046
35	0xbc21e447	-0.009881086
36	0x3dda576b	0.10661205
37	0xbe5277ce	-0.20553514
38	0xbda5f7e5	-0.08103923
39	0xbdeaa362	-0.11456944
40	0xbd8573ba	-0.06516214
41	0xbe5b2a0b	-0.21402757
42	0x3e2398e8	0.15976298
43	0xbcd557ee	-0.026042905
44	0x3d641ba1	0.05569041
45	0x3e331efd	0.1749229
46	0x3c86dff7	0.016464217
47	0x3c302620	0.010751277
48	0x3e78a3a4	0.24281174
49	0xbe67e4fb	-0.22645943
50	0x3e0c2370	0.13685393
51	0xbe4a771c	-0.19771999
52	0x3e6c8bc8	0.23100197
53	0xbd8a5bcf	-0.06755792
54	0xbe32d3f1	-0.17463662
55	0xbde539e8	-0.11192685
56	0xbde94e28	-0.1139186
57	0x3e2f18d7	0.1709932
58	0x3e190c42	0.14946082
59	0x3d981ee7	0.07427769
60	0x3e482fe5	0.1954952
61	0x3e5f170c	0.21786135
62	0xbe64b2a7	-0.22333775
63	0x3da6aee6	0.08138828
64	0xbc0e30e6	-0.0086786505
65	0x3e11969f	0.14217614
66	0x3d5c1b14	0.05373676
67	0xbd4944a6	-0.049137734
68	0x3e26f091	0.16302706
69	0xbe33ee06	-0.17571267
70	0xbe5afdc0	-0.2138586
71	0xbe21b58e	-0.15791914
72	0x3d877336	0.066137716
73	0xbdb75c12	-0.08953108
74	0xbe71d5ef	-0.23616765
75	0x3d9dcb77	0.077048235
76	0x3d18eb91	0.03733403
77	0xbdbdb321	-0.09262682
78	0x3e403f7d	0.18774219
79	0x3e0f720c	0.14008349
80	0x3e41c2a8	0.18921912
81	0x3ba50695	0.005036185
82	0xbe03a264	-0.12854916
83	0xbe4a58f5	-0.19760497
84	0xbd0dca56	-0.03461679
85	0xbe20a534	-0.1568802
86	0x3d81a020	0.063293695
87	0xbe6e5a37	-0.23276602
88	0xbe407a08	-0.18796551
89	0x3cd93491	0.026514323
90	0x3d2d23f5	0.04227062
91	0xbd03c5e9	-0.032171164
92	0xbc8f13c5	-0.017465482
93	0xbd94ac35	-0.072594084
94	0xbddb70a1	-0.10714842
95	0xbc7c03b0	-0.015381739
96	0xbe8adb18	-0.2712028
97	0xbd804c9d	-0.06264613
98	0xbdeff25a	-0.11716147
99	0xbbdd93e5	-0.006762015
100	0x3e03ce9d	0.12871785
101	0xbe485ee9	-0.19567455
102	0x3dad759c	0.08469698
103	0x3d99029d	0.074712016
104	0x3db6c1a8	0.08923656
105	0xbd8fd49e	-0.070229754
106	0x3e20f10a	0.15716949
107	0xbe41d232	-0.1892784
108	0xbe07c8fe	-0.13260266
109	0x3ca0b267	0.019616319
110	0xbd06b2f3	-0.032885503
111	0xbe5790bc	-0.21051306
112	0x3dc43991	0.095812924
113	0x3e01b46d	0.12666483
114	0xbe38a611	-0.180321
115	0xbc92136f	-0.017831532
116	0xbe4db613	-0.20088987
117	0xbda0fcaa	-0.07860692
118	0x3cd3fa55	0.025876204
119	0x3e43e5f1	0.19130684
120	0x3df4aab8	0.119466245
121	0x3dcd6203	0.1002846
122	0x3dc1b233	0.09457817
123	0xbe383eb3	-0.17992668
124	0xbdfbffd9	-0.123046584
125	0x3de2e4cb	0.11078795
126	0xbce213bd	-0.027597303
127	0xbd8cf488	-0.06882578
128	0xbda7c645	-0.08192114
129	0x3d955b20	0.07292771
130	0x3dfa14b2	0.122109786
131	0xbc10f205	-0.008846764
132	0x3d14c88e	0.036324076
133	0x3e2751ed	0.16339846
134	0x3e48fbe7	0.19627343
135	0x3dc9e859	0.0985877
136	0x3df306e6	0.1186655
137	0x3bffeb4d	0.0078100325
138	0x3d29dda1	0.041471127
139	0xbe90c12c	-0.28272378
140	0xbd912b2b	-0.07088312
141	0xbd8907b3	-0.06690922
142	0x3d560258	0.05224833
143	0xbdfcb3f3	-0.1233901
144	0xbe6e1d18	-0.23253286
145	0x3e18d8f0	0.14926505
146	0xbdf79f65	-0.12090949
147	0xbe4f6124	-0.202519
148	0xbe0fc7d0	-0.14041066
149	0x3cd27f60	0.025695503
150	0xbe02ecc2	-0.12785628
151	0xbe84e3ab	-0.25954947
152	0x3e09b5fe	0.13448331
153	0xbb279b67	-0.0025574805
154	0x3e1c632a	0.15272203
155	0xbe779f48	-0.24181855
156	0xbc986e92	-0.018607412
157	0xbe1be8e8	-0.15225565
158	0xbe1de7ce	-0.15420458
159	0xbd4f38b5	-0.05059119
160	0x3e531017	0.20611607
161	0xbd540d0c	-0.051770255
162	0x3e3a835e	0.18214175
163	0xbd6e7c58	-0.058224052
164	0xbe23d510	-0.15999246
165	0xbd90d679	-0.070721574
166	0x3df6f393	0.12058177
167	0x3e221c58	0.15831125
168	0xbd9d3fef	-0.0767821
169	0xbd8349f6	-0.06410591
170	0xbe531351	-0.20612837
171	0xbe23f2a7	-0.16010533
172	0xbcf4acfe	-0.029867645
173	0x3d734bbd	0.0593984
174	0x3cd42f94	0.025901593
175	0x3df7efcb	0.12106284
176	0xbdf13aac	-0.11778769
177	0x3d3d4409	0.04620746
178	0xbe39c17f	-0.18140219
179	0xbde55188	-0.111971915
180	0x3e15c5c5	0.14626224
181	0x3c9d61af	0.019211618
182	0xbe1e4282	-0.15455058
183	0xbe7466d5	-0.23867352
184	0xbdcac709	-0.09901244
185	0xbd8c1cbc	-0.06841418
186	0xbe5d73e4	-0.2162624
187	0x3e2349c3	0.15946107
188	0x3c87b214	0.016564406
189	0xbda3183d	-0.079636075
190	0x3e476f7a	0.19476119
191	0xbde33f42	-0.1109605
192	0x3d07c6ec	0.03314869
193	0x3db4b377	0.08823293
194	0x3dea242e	0.11432682
195	0x3e0d5b8a	0.1380445
196	0xbdcf715d	-0.10129044
197	0xbe52f324	-0.20600563
198	0x3e385d84	0.18004423
199	0xbe63d94a	-0.22250858
200	0xbd983411	-0.07431806
201	0x3e06cab1	0.13163258
202	0xbdd26537	-0.102732114
203	0xbd27ca19	-0.04096422
204	0xbde40294	-0.11133304
205	0xbd0090a8	-0.031387955
206	0xbda6b4d6	-0.081399605
207	0x3a86aeb2	0.0010275452
208	0x3e5c45e2	0.21511033
209	0xbe5aefb8	-0.21380508
210	0x3ddfc691	0.109265454
211	0xbe069ba2	-0.13145307
212	0xbe88b0d6	-0.26697415
213	0x3d2b1988	0.041772395
214	0xbddac5ab	-0.106822334
215	0x3dd59f5d	0.10430787
216	0xbc64716d	-0.013943058
217	0xbe43dcb4	-0.1912716
218	0xbe756c27	-0.23967038
219	0x3c7fe656	0.015618881
220	0xbe71dffc	-0.236206
221	0x3e045930	0.12924647
222	0x3e193803	0.14962773
223	0xbe4942bc	-0.19654363
224	0x3e35da96	0.17759165
225	0xbe13f8a6	-0.1445032
226	0x3d0ddcfb	0.03463457
227	0xbd8e19cd	-0.06938515
228	0x3e1c8a56	0.15287146
229	0xbe1edd29	-0.15514053
230	0xbd8e2a65	-0.0694168
231	0xbdd0d199	-0.101962276
232	0xbdf6ad91	-0.12044824
233	0xbd1fc9fe	-0.039010994
234	0xbdf35017	-0.1188051
235	0x3d694b2d	0.05695646
236	0x3be3055f	0.0069281305
237	0xbe3961de	-0.1810374
238	0x3ba7d074	0.005121285
239	0x3e1cadc2	0.15300658
240	0x3df92de7	0.12166958
241	0x3d9818c8	0.07426602
242	0xbdaf7ad2	-0.08568348
243	0xbe5065a0	-0.20351267
244	0x3e0e2c81	0.13884164
245	0xbc7d8a9d	-0.0154749425
246	0xbd2577d0	-0.040397465
247	0x3d7c81a7	0.061647084
248	0xbd9bd6cd	-0.076093294
249	0xbe8a553b	-0.2701815
250	0xbe29f77c	-0.16598314
251	0xbe40d7e6	-0.18832359
252	0x3d80ccbe	0.062890515
253	0x3db2dbdd	0.08733342
254	0xbddf3b68	-0.10900003
255	0xbda6c051	-0.0814215

fc2.weight f4 [300, 402]
0	0x3d55fc00	0.05224228
1	0xbcba290d	-0.022724653
2	0x3bfb4883	0.007668556
3	0xbbdf831c	-0.0068210494
4	0xbc975ff3	-0.01847837
5	0x3ce37caa	0.027769405
6	0xbc0f66f8	-0.008752577
7	0xbcfacfc7	-0.030616654
8	0xbcfbf8dc	-0.030758314
9	0x3d1d5fab	0.038421314
10	0x3d06499f	0.032785054
11	0xbd79d568	-0.060994536
12	0xbd6ff64a	-0.05858449
13	0x3ad78d1a	0.001644525
14	0x3ae9fdcc	0.0017852127
15	0x3c75e601	0.0150084505
16	0xbd06d608	-0.03291896
17	0x3d591918	0.053002447
18	0xbb02cf9f	-0.0019960178
19	0x3d02ae59	0.031904552
20	0x3cfda545	0.030962596
21	0x3c63e97e	0.013910649
22	0x3ca55c51	0.020185621
23	0xbd3b1361	-0.045672778
24	0xbd25330c	-0.040331885
25	0xbce9403b	-0.02847301
26	0xbd92823c	-0.071537465
27	0xbd38ec65	-0.04514732
28	0x3d3169a6	0.043313645
29	0xbd4e78b6	-0.050408088
30	0xbd0c9a9b	-0.03432713
31	0xbd31f450	-0.043445885
32	0xbac1a2b1	-0.0014773217
33	0xbcdd8756	-0.027042072
34	0xbcc0d172	-0.023537371
35	0xbd45e67e	-0.048315518
36	0x3d143768	0.036185652
37	0xbcc9658f	-0.02458456
38	0x3ad6c89d	0.0016386692
39	0xbc8bf36f	-0.017083852
40	0x3bc94e2f	0.0061433534
41	0x3c947056	0.018119972
42	0x3d32d0f2	0.043656297
43	0xb903c563	-0.00012566666
44	0xbcf2f153	-0.029656088
45	0xbd7c3c19	-0.06158075
46	0xbd666155	-0.056245167
47	0x3d2c07de	0.04199969
48	0x3bfeca36	0.0077755703
49	0xbc65f4f3	-0.014035451
50	0xbd042b5e	-0.03226792
51	0xbd83a92b	-0.064287506
52	0xbd37f0fe	-0.044907562
53	0xbce086cc	-0.027408026
54	0xbbf7b3f1	-0.0075592925
55	0x3d47b040	0.04875207
56	0xbce26525	-0.02763612
57	0xbcaba186	-0.020951044
58	0x3cc47dc1	0.023985745
59	0x3c6992ba	0.014256174
60	0xbcb45a77	-0.022015793
61	0x3cddb813	0.027065312
62	0xbd535cf0	-0.051602304
63	0x3d0f5dd5	0.035001595
64	0xbd34035d	-0.04394852
65	0xbd5a6cd5	-0.053326447
66	0x3c81380f	0.015773801
67	0x3c943618	0.0180922
68	0xbd7772f4	-0.060412362
69	0xbd1b7245	-0.037950773
70	0xbd0d442f	-0.034488853
71	0xbc855fca	-0.016281027
72	0xbbfe802f	-0.0077667455
73	0xbd382dc0	-0.044965506
74	0x3c0d7bc4	0.008635465
75	0xbcffede4	-0.031241365
76	0x3d06f600	0.032949448
77	0x3cfcfa0c	0.03088095
78	0x3cc62460	0.024187267
79	0x3d038778	0.032111615
80	0x3b649887	0.0034880952
81	0x3cbc5f06	0.02299453
82	0xbd8141cf	-0.0631138
83	0x3c9ee571	0.019396516
84	0x3d1f763d	0.03893112
85	0xbce968cc	-0.028492354
86	0x3c9b0c74	0.018926837
87	0xbd517e8f	-0.051146086
88	0x3d1d4754	0.038398102
89	0x3ca032c4	0.019555457
90	0xbc546143	-0.012962642
91	0x3d339edd	0.043852676
92	0xbb948bd5	-0.004533271
93	0x3d0f4052	0.03497345
94	0x3d687d86	0.056760333
95	0xbd5117e6	-0.051048182
96	0x3d1f55e6	0.03890028
97	0x3d4e279d	0.050330747
98	0x3c83a388	0.016069189
99	0x3b8c578c	0.0042828973
100	0xbca56ffd	-0.020195002
101	0x3b4f071c	0.003158993
102	0xbcd694d4	-0.026194014
103	0xbaa4acd7	-0.0012563717
104	0x3d1573a9	0.036487255
105	0xbd1cedba	-0.03831265
106	0x3d5a133f	0.05324101
107	0xbd397c49	-0.045284543
108	0x3d7289f5	0.059213597
109	0xbbe1e0cf	-0.0068932544
110	0xbbd66488	-0.006542746
111	0x3b99b7d5	0.004691104
112	0xbd6e22a1	-0.058138493
113	0xbd04d2df	-0.032427665
114	0x3b134ff1	0.0022478069
115	0xbd153a45	-0.036432523
116	0x3c801957	0.015637083
117	0xbc1569eb	-0.009119491
118	0xbd52daa2	-0.051478036
119	0x3c7dd159	0.015491807
120	0xbb036015	-0.0020046283
121	0xbd39affb	-0.045333844
122	0xbd0487bc	-0.03235601
123	0xbcefdf2b	-0.02928122
124	0xba527340	-0.0008028038
125	0x3cd137b4	0.025539257
126	0x3d0ab3a0	0.03386271
127	0xbcd5ce4e	-0.02609935
128	0xbcd3daa6	-0.025861096
129	0x3d54217e	0.051789753
130	0xbd024c73	-0.03181119
131	0x3d2c241f	0.042026635
132	0x3c7015d9	0.014653646
133	0x3c93578d	0.017986083
134	0x3c7a9a02	0.015295507
135	0xbca10a73	-0.019658303
136	0xbd159729	-0.03652111
137	0xbd6f54e7	-0.05843058
138	0xbd3614fe	-0.044453613
139	0x3d06d065	0.032913584
140	0xbd394a18	-0.045236677
141	0x3d3fce89	0.046827827
142	0xbd6f0158	-0.05835089
143	0xbd50df67	-0.050994303
144	0x3c3187b9	0.010835581
145	0xbd34ee68	-0.044172674
146	0x3d49b90d	0.049248744
147	0xbd6b4475	-0.057438333
148	0x3d54b317	0.051928606
149	0x3cec9f4a	0.028884549
150	0x3c1372d2	0.008999543
151	0x3cdc7688	0.026911989
152	0x3cee43a1	0.029084982
153	0x3d1e6058	0.0386661
154	0xbd7d9f87	-0.061919715
155	0x3d2bdafe	0.041956894
156	0xbc0701b2	-0.00824015
157	0x3d1ca5e9	0.03824416
158	0x3c86881d	0.016422326
159	0x3d17ce43	0.03706194
160	0x3c19f315	0.009396334
161	0xbc086739	-0.008325391
162	0x3d26376e	0.040580206
163	0x3cb35f21	0.021895947
164	0xbcaddf5e	-0.021224674
165	0x3d2d43b9	0.042300913
166	0xb9ead4df	-0.0004479056
167	0xbbdaa22e	-0.0066721654
168	0xbc5067de	-0.012720076
169	0xbcde9a64	-0.027173229
170	0x3bd42097	0.0064736116
171	0xb90844ae	-0.00012995556
172	0xbc03a205	-0.008034234
173	0xba9c9669	-0.0011946681
174	0xbbc1e8a0	-0.0059176236
175	0x3c9e75c8	0.019343272
176	0x3c10363b	0.008801992
177	0xbb8fe767	-0.004391599
178	0x3d2b99a9	0.04189459
179	0xbd474598	-0.048650354
180	0xbce68156	-0.028137844
181	0xbd639dd0	-0.055570424
182	0xbc373fdb	-0.011184658
183	0x3c790735	0.015199472
184	0x3c9c495d	0.019077951
185	0x3cda445f	0.02664393
186	0x3b40592b	0.0029350023
187	0xbd8494ac	-0.064736694
188	0xbd6c5151	-0.057694737
189	0xbc78000a	-0.015136728
190	0xbd5129b8	-0.051065177
191	0xbd6f1a6c	-0.058374807
192	0x3d5bc359	0.053653095
193	0xbd88644d	-0.06659756
194	0x3b260675	0.0025333439
195	0xbd1d6dd7	-0.03843483
196	0x3d53e76b	0.05173437
197	0xbcca05a6	-0.024660897
198	0x3cf73af8	0.030179486
199	0x3d39136c	0.045184538
200	0x3ccd1b30	0.025037378
201	0xbc9bbab6	-0.01900993
202	0xbaccab98	-0.0015615104
203	0xbd2d1eb2	-0.0422656
204	0xbcf37b56	-0.029721897
205	0x3ceec633	0.029147243
206	0xbd1e2c93	-0.038616728
207	0x3b7d928c	0.0038692085
208	0xbd1b99f1	-0.037988607
209	0x3d052bd0	0.032512486
210	0xbd2d6fce	-0.042342953
211	0xbc181a92	-0.009283679
212	0x3c688044	0.014190737
213	0xbd51600f	-0.051117
214	0xb88020aa	-6.1096e-05
215	0xbd5c8af5	-0.053843457
216	0xbbd0caa2	-0.006371812
217	0xbd722632	-0.059118457
218	0xbc8580ee	-0.01629683
219	0xbd726956	-0.059182487
220	0xbac5c88d	-0.0015089676
221	0xbd729783	-0.059226524
222	0xbc59a6b7	-0.013284377
223	0x3cf5db9b	0.030011943
224	0x3d03f7ef	0.03221887
225	0x3c7f9548	0.015599556
226	0x3af74647	0.0018865549
227	0x3d3533a4	0.0442387
228	0x3d2379a3	0.039910924
229	0x3b97a704	0.004628064
230	0x3d421107	0.04737952
231	0xbca099d3	-0.0196046
232	0xbc15103f	-0.009098112
233	0xbcff0e6e	-0.03113481
234	0x3d41dfe3	0.047332656
235	0xbb4dad7a	-0.0031383918
236	0xbd6ad79e	-0.057334535
237	0xbcec3f47	-0.028838767
238	0xbd4d4bf4	-0.050121263
239	0xbcddd06e	-0.027076926
240	0xbc036758	-0.008020245
241	0xbb46edb8	-0.0030354094
242	0xbd8598da	-0.06523295
243	0x3b86cb6c	0.0041136052
244	0xbcab4b6c	-0.020909987
245	0xbd485996	-0.04891356
246	0xbceb1356	-0.028695744
247	0x3cb4bcf6	0.02206276
248	0x3c6cf3cc	0.014462423
249	0x3d4df9d8	0.050287098
250	0x3d3f2133	0.04666252
251	0xb8aa5366	-8.121766e-05
252	0xbd836600	-0.06415939
253	0x3cfa4a64	0.03055305
254	0xbd572a08	-0.05253032
255	0xbd25e1c7	-0.04049852

fc2.bias f4 [300]
0	0xbd5499a9	-0.051904354
1	0xbd1361f0	-0.035982072
2	0xbc16b923	-0.0091994135
3	0xbd7f7fda	-0.062377788
4	0xbda2fc77	-0.0795831
5	0xbc9e2dcc	-0.019308947
6	0xbca30ba1	-0.019903006
7	0x3d4b20aa	0.049591698
8	0x3c5afb64	0.0133656
9	0xb9234580	-0.00015570782
10	0xbd01e8e9	-0.03171626
11	0x3bb54c5d	0.005532785
12	0xbb82ecc1	-0.0039955084
13	0x3d792769	0.0608286
14	0x3cac36f7	0.021022303
15	0xbcd41d7d	-0.025892967
16	0xbce89014	-0.028389014
17	0x3d3fc85d	0.04682194
18	0xbd58d5ee	-0.052938394
19	0x3d2a1241	0.041521315
20	0xbcfb36a6	-0.030665707
21	0x3d0a962f	0.033834632
22	0x3d25bd60	0.040463805
23	0xbcad02ba	-0.021119464
24	0x3c92706b	0.01787587
25	0xbb8d4108	-0.004310731
26	0x3d4b60e7	0.04965296
27	0xbd5b9b8a	-0.05361513
28	0xbd9a7fc8	-0.075439036
29	0x3b229556	0.002480825
30	0xbd0543b9	-0.03253529
31	0xbda00c6d	-0.0781487
32	0xbd5deeb2	-0.054182716
33	0x3b47caa4	0.0030485773
34	0x3c7bb2d6	0.015362462
35	0x3d04de71	0.0324387
36	0x3d2902b8	0.04126236
37	0xbd09b6d8	-0.03362164
38	0x3bb06e5f	0.005384251
39	0xbb968d18	-0.0045944564
40	0x3d5510e2	0.052018054
41	0x3cf95c09	0.030439394
42	0x3da32f67	0.07968026
43	0xbd95a7a3	-0.07307365
44	0xbd546b31	-0.05186004
45	0x3cddd88e	0.0270808
46	0x3cd37ac6	0.025815379
47	0x3cc746d3	0.024325764
48	0xbdc79538	-0.09745258
49	0x3d4cdd02	0.050015457
50	0x3c4e1c65	0.012580012
51	0xbd95194a	-0.07280214
52	0xbcdc0f56	-0.026862781
53	0x3dc801e6	0.09765987
54	0xbc042c1c	-0.008067157
55	0x3c8f8f97	0.017524524
56	0x3c9929d4	0.018696703
57	0xbcb3f566	-0.021967601
58	0x3cdacabf	0.026708005
59	0xbcc1923b	-0.023629298
60	0xbcfcad1f	-0.03084427
61	0x3d51e7ea	0.05124656
62	0xbc15b2ba	-0.00913685
63	0xbcb3afaa	-0.02193435
64	0xbc20ca17	-0.009813807
65	0x3c881bd3	0.01661483
66	0xbdd5d9fc	-0.10441968
67	0x3d962b0c	0.07332429
68	0x3d4961e1	0.04916561
69	0xbd2c2335	-0.042025764
70	0x3d85a7ca	0.06526144
71	0x3ca10e51	0.019660147
72	0xbce193bb	-0.027536264
73	0x3dafc753	0.0858294
74	0xbcc3c773	-0.023898816
75	0x3d82a718	0.06379527
76	0xbd5e4c3a	-0.054271914
77	0xba35f3ec	-0.0006940949
78	0x3c079ab5	0.008276631
79	0xbce183ad	-0.027528608
80	0xbcd82d0b	-0.026388666
81	0xb9e4a76b	-0.00043612285
82	0xbd5ad3cd	-0.053424645
83	0x3d14df27	0.036345627
84	0xbd8ae4db	-0.06781932
85	0x3b8ec70d	0.004357225
86	0x3d2b9263	0.041887652
87	0x3d059bc3	0.03261925
88	0x3bd0c954	0.0063716564
89	0xbd2e8e08	-0.04261592
90	0x3cd805d5	0.026369968
91	0xbd089600	-0.033346176
92	0x3a45969b	0.00075373956
93	0x3bf2132c	0.0073875394
94	0x3d018562	0.031621344
95	0x3d407606	0.046987556
96	0xbcf011e4	-0.029305406
97	0x3d8ae9d6	0.06782882
98	0x3c7a4746	0.015275782
99	0x3d55f8ce	0.05223923
100	0xbd255e42	-0.040373094
101	0xbcb719a4	-0.022351094
102	0x3d866fc5	0.06564287
103	0xbd66d4e7	-0.056355383
104	0xbc2eb2a4	-0.010662708
105	0x3c9e90a6	0.019356083
106	0xbd17d192	-0.037065096
107	0x3d48c9f5	0.049020726
108	0xbad97709	-0.0016591261
109	0x3cec1f7d	0.028823609
110	0x3d203117	0.039109316
111	0x3d94e9e4	0.072711736
112	0x3d6f448e	0.05841499
113	0x3d3ae6e1	0.04563034
114	0x3d0aad71	0.033856813
115	0x3cddb4a0	0.027063668
116	0xbdd6a66c	-0.10480961
117	0x3b40c0cf	0.0029411798
118	0xbcd4cd6d	-0.02597686
119	0xbd468942	-0.048470743
120	0x3c871f96	0.016494554
121	0x3d09cfe1	0.033645514
122	0x3da6ee16	0.0815088
123	0x3d2dfb00	0.0424757
124	0xbd573e38	-0.05254957
125	0xbd05c201	-0.03265572
126	0x3ccc89c4	0.024968036
127	0x3d63fa49	0.055658612
128	0x3d8155e3	0.0631521
129	0x3c8108f1	0.015751334
130	0x3d838adc	0.0642297
131	0x3d319d2b	0.043362778
132	0x3c7b4ae1	0.015337677
133	0xbd77d1a0	-0.06050265
134	0x3dc2f7f1	0.09519947
135	0x3c800e25	0.015631745
136	0x3bbe46c4	0.0058067758
137	0x3ce078e2	0.027401391
138	0x38c00d26	9.1577225e-05
139	0xbc718b31	-0.0147426585
140	0xbcec42c8	-0.028840438
141	0x3d0e17cb	0.03469066
142	0xbb92d56e	-0.004481009
143	0xbd5e521b	-0.05427752
144	0xbd4a891e	-0.04944717
145	0xbb96aada	-0.004598004
146	0x3cec858f	0.02887228
147	0xbcf673a3	-0.030084437
148	0xbc5884f1	-0.013215289
149	0x3bf7c14b	0.007560884
150	0xbd72253b	-0.059117537
151	0xbca57547	-0.020197524
152	0x3d699cbc	0.05703424
153	0x3cb59ba4	0.022168942
154	0x3c92df60	0.01792878
155	0x3d7e43e6	0.06207647
156	0xbd510a14	-0.051035002
157	0x3cb10fc1	0.021613957
158	0x3c171dc9	0.00922341
159	0xbd079e90	-0.0331102
160	0xbc7019da	-0.014654601
161	0xbc064e77	-0.008197418
162	0xbd0e6d5a	-0.034772255
163	0x3d8229d0	0.06355631
164	0xbd60157c	-0.05470799
165	0xbd867024	-0.06564358
166	0xbc55bf8c	-0.013046157
167	0xbcfec5ae	-0.03110012
168	0xbd61bd77	-0.05511233
169	0xbc90f172	-0.017693255
170	0x3c7f9be5	0.015601133
171	0x3c16b39c	0.009198096
172	0x3c5a9862	0.013341995
173	0x3c2ce612	0.0105529
174	0x3cf47d02	0.029844765
175	0x3d577a44	0.052606836
176	0x3c97ac64	0.01851482
177	0x3cb3dbb8	0.021955356
178	0x3c7551be	0.014973102
179	0xbba77e60	-0.0051115006
180	0x3c887f25	0.01666219
181	0x3b490736	0.0030674464
182	0xbdcbaacb	-0.099446855
183	0x3d81e5ad	0.06342635
184	0xbcdc7a07	-0.026913656
185	0x3da211d5	0.079135574
186	0xbc17efb0	-0.009273455
187	0x3d2311ec	0.039812014
188	0x3c1690ab	0.009189765
189	0x3daae57e	0.083445534
190	0x3c7f4444	0.015580241
191	0x3d074d35	0.033032615
192	0xbd8fab83	-0.07015135
193	0x3dbfd2c3	0.093663715
194	0xbc563051	-0.013073043
195	0x3bd0375a	0.0063542547
196	0x3bcccf4a	0.0062502967
197	0x3b322c53	0.0027187064
198	0xbc3c7074	-0.01150142
199	0xbd31f0d5	-0.043442566
200	0xbbb208f0	-0.0054331943
201	0xbca9a687	-0.02070929
202	0xbc535c39	-0.012900406
203	0x3d516eae	0.051130943
204	0xbd5321ee	-0.05154603
205	0xbd96163c	-0.073284596
206	0xbd625815	-0.055259783
207	0x3d142c48	0.036175042
208	0x3ca1842e	0.019716348
209	0xbc35101d	-0.011051205
210	0xbc94988d	-0.018139148
211	0xba2b0e46	-0.0006525259
212	0xbd521390	-0.051288188
213	0xbc0304fa	-0.007996792
214	0x3d0f5057	0.034988727
215	0x3c74c8aa	0.01494042
216	0x3c4ec920	0.012621194
217	0xbd7d13f2	-0.0617866
218	0xbd5b7614	-0.053579405
219	0x3bb2789c	0.0054465067
220	0x3c39debf	0.011344611
221	0x3d902650	0.070385575
222	0xbd14e908	-0.03635505
223	0xbc2bd77d	-0.010488388
224	0xbc530455	-0.012879451
225	0xbe036535	-0.12831576
226	0x3c303281	0.010754229
227	0xbd00e81f	-0.031471368
228	0x3cf08bc4	0.02936352
229	0xbd3b49ef	-0.045724805
230	0xbd6d4671	-0.057928506
231	0x3c52036b	0.012818198
232	0xbd076bab	-0.033061665
233	0xbd6f8830	-0.058479488
234	0x3de80a08	0.11330038
235	0xbd0df633	-0.034658622
236	0x3d9ecc1c	0.077537745
237	0x3d1afa86	0.037836574
238	0x3cade5e2	0.02122778
239	0x3d3967a6	0.045264862
240	0xbdceda86	-0.10100274
241	0xbd1a7942	-0.037713297
242	0x3c9ff477	0.01952575
243	0x3ce0c1fb	0.027436247
244	0xbd14a8e9	-0.036293898
245	0xbc85ab38	-0.016316995
246	0xbd1b49d1	-0.037912194
247	0xbd4fce76	-0.050734006
248	0xbc9cf269	-0.019158559
249	0xbcf15409	-0.029459016
250	0xbd854b2d	-0.06508479
251	0x3d5fab3f	0.054606672
252	0x3d6435aa	0.05571524
253	0x3d18c1b2	0.037294097
254	0xbd6256b7	-0.05525848
255	0x3d82f0ea	0.06393607

fc3.weight f4 [1, 300]
0	0xba224a42	-0.0006190875
1	0x3cc5d530	0.024149507
2	0x3cfe62ac	0.03105291
3	0x3b1b62a2	0.0023709913
4	0xbcc1e964	-0.02367086
5	0x3de942da	0.11389704
6	0x3d1f67ac	0.03891723
7	0x3dadb8de	0.08482526
8	0x3d16faa4	0.036860123
9	0xbd8dcc19	-0.06923694
10	0x3d82e253	0.06390824
11	0x3c99548e	0.018717077
12	0x3d40b808	0.047050506
13	0x3d455776	0.048179112
14	0x3cc21433	0.023691272
15	0x3bd84da8	0.006601054
16	0xbdcba7ef	-0.0994414
17	0x3d2412af	0.04005688
18	0xbd9a483a	-0.075333074
19	0x3e48034f	0.19532512
20	0x3cdb2f37	0.026755912
21	0x3c8e155a	0.017344166
22	0xbd753675	-0.059866387
23	0xba78deef	-0.0009493669
24	0x3da0380b	0.07823189
25	0x3dd0fa9d	0.10204051
26	0x3d0ee14f	0.03488284
27	0xbd2c2668	-0.042028815
28	0xbd94e9f0	-0.072711825
29	0xbcb2c09c	-0.021820359
30	0xbbc474c0	-0.005995363
31	0xbd318203	-0.04333688
32	0xbc4fa441	-0.0126734385
33	0xbca5f89b	-0.020260146
34	0x3d161c75	0.036648232
35	0x3dae8555	0.08521525
36	0xbd16a4b3	-0.036778163
37	0x3d2ba3e3	0.04190434
38	0x3d2e5e1a	0.04257021
39	0x3d350ef1	0.044203702
40	0x3dd69ad5	0.104787506
41	0x3cf174c4	0.029474624
42	0x3ce7cec2	0.028296832
43	0xbdb42a4c	-0.0879713
44	0x3dc28659	0.09498281
45	0xbe0880f8	-0.13330448
46	0xbd401c91	-0.046902243
47	0x3d1560c5	0.03646924
48	0xbda6b681	-0.081402786
49	0xbdac13cb	-0.08402213
50	0xbdcf8122	-0.10132052
51	0xbd16d59a	-0.0368248
52	0xbd2699f8	-0.04067418
53	0x3c43be43	0.011947217
54	0x3acab670	0.0015465748
55	0x3e25f8a8	0.16208136
56	0x3c4cb61a	0.012494588
57	0x3cc8d086	0.024513494
58	0x3db34365	0.08753089
59	0xbd994e06	-0.07485585
60	0xbcda2482	-0.026628736
61	0x3dbd4103	0.092409156
62	0x3c942fc4	0.018089183
63	0xbd03ce70	-0.032179296
64	0x3e082a35	0.1329735
65	0x3d1bf2ce	0.038073353
66	0xbd614881	-0.055000786
67	0x3c8eb781	0.017421486
68	0x3d448d2c	0.047986194
69	0x3db103a0	0.086432695
70	0x3d288443	0.04114176
71	0x3d7a1b4b	0.061061185
72	0xbdca9646	-0.09891944
73	0x3c4ca3a1	0.012490184
74	0x3cde3491	0.027124675
75	0x3cde3449	0.02712454
76	0x3dc22b8b	0.094809614
77	0xbda97957	-0.08275097
78	0x3cd30066	0.025757026
79	0xbd03dac2	-0.032191046
80	0x3de40ed6	0.11135642
81	0x3d11e78a	0.035621203
82	0xbde541ba	-0.11194177
83	0x3d180d21	0.037121896
84	0x3d4c455b	0.04987083
85	0x3d57266c	0.052526876
86	0x3d34ab0b	0.04410843
87	0xbe02001e	-0.12695357
88	0xbddebad1	-0.10875476
89	0xbce4e9da	-0.02794354
90	0x3cf37873	0.02972052
91	0xbd0f13c4	-0.03493096
92	0x3d1583e9	0.036502752
93	0x3e40c6ed	0.18825884
94	0x3d073aa3	0.033014905
95	0x3d2de78f	0.04245716
96	0xbd6e7cbe	-0.058224432
97	0x3cf9db7a	0.030500162
98	0xbcd243fc	-0.025667183
99	0xbd580adf	-0.052744742
100	0xbd226312	-0.039645262
101	0x3caaa5fe	0.020831104
102	0x3cd77526	0.026300978
103	0xbd69ea0f	-0.05710798
104	0x3dbecbd3	0.0931622
105	0xbc78ea7c	-0.015192624
106	0xbd7290c5	-0.059220094
107	0x3dbcd6e2	0.09220673
108	0x3cb33d0d	0.021879697
109	0xbb4f1613	-0.003159885
110	0x3d6fe0a2	0.058563836
111	0x3c9bc4c8	0.019014731
112	0x3c638922	0.0138876755
113	0x3db4a7ca	0.08821066
114	0x3d020ced	0.03175061
115	0x3c69ca16	0.014269372
116	0xbd2655b7	-0.040609088
117	0xbd976c16	-0.07393663
118	0x3d8d26cc	0.068921655
119	0x3d181955	0.037133534
120	0x3d69439a	0.056949235
121	0x3b5e6631	0.0033935423
122	0x3d605a45	0.054773588
123	0x3cd28ac2	0.02570093
124	0x3b3165d6	0.0027068756
125	0xbd1357ea	-0.035972513
126	0x3c5dd4d6	0.013539514
127	0x3e3f0b21	0.18656589
128	0xbde514f0	-0.11185634
129	0x3d9b9873	0.07597437
130	0x3e803778	0.2504232
131	0x3d2d8da5	0.04237141
132	0xb9e4b896	-0.00043625076
133	0xbc2d701b	-0.01058581
134	0x3cbbe9f7	0.022938712
135	0x3a1aaa8e	0.00059000484
136	0xbd01d9c0	-0.031701803
137	0x3ba65546	0.0050760834
138	0xbd2f5fda	-0.04281602
139	0xbe23cb35	-0.15995486
140	0x3a1d1209	0.0005991762
141	0xbc964ff9	-0.01834868
142	0xbe2c6cf9	-0.16838445
143	0xbd71570d	-0.05892091
144	0xbd0a5ddd	-0.03378092
145	0x3d0d1ec7	0.03445318
146	0x3d9d90a5	0.076936044
147	0x3dbbecb8	0.0917601
148	0xbd60540a	-0.054767646
149	0x3a99313d	0.0011687648
150	0xbd6d7b13	-0.0579787
151	0xbdcd6fb1	-0.10031069
152	0xbd13f190	-0.036119044
153	0x3d8525b8	0.06501335
154	0xbd1d20f4	-0.038361505
155	0xbd6773a7	-0.05650678
156	0xbd905a16	-0.070484325
157	0x3dbf7245	0.09347967
158	0xbdc956b5	-0.09830991
159	0xbd631d81	-0.05544806
160	0x3e2624a5	0.16224916
161	0xbe07c691	-0.13259341
162	0x3d8d2a8b	0.0689288
163	0xbd887eeb	-0.06664833
164	0x3b3fa411	0.0029242078
165	0xbd4d200d	-0.050079394
166	0xbdb3b7e9	-0.087753125
167	0xbe9b4ba2	-0.3033114
168	0x3d5bda3f	0.053674933
169	0xbd0b7536	-0.034047328
170	0x3d601db5	0.05471583
171	0x3d08bdec	0.03338425
172	0x3d8eeb19	0.06978435
173	0xbd66022b	-0.05615441
174	0x3e8ac4ac	0.27103174
175	0x3d5cdfe0	0.05392444
176	0xbdaad7c8	-0.08341938
177	0xbe848763	-0.25884542
178	0xbe1000d4	-0.14062816
179	0xbe01df0e	-0.12682745
180	0x3d5215dd	0.05129038
181	0x3d6844bb	0.05670617
182	0xbcf1b381	-0.02950454
183	0x3c94b9fa	0.018155087
184	0xbdd5fc68	-0.10448533
185	0x3c81849d	0.015810305
186	0x3e4d049e	0.20021293
187	0x3d2d4f44	0.04231192
188	0xbda5221b	-0.08063146
189	0x3e6914f8	0.22761905
190	0xbea7ad39	-0.32749346
191	0xbdd8dfd4	-0.10589567
192	0xbda18679	-0.07886977
193	0x3caff58f	0.021479396
194	0x3d59c2ac	0.05316417
195	0x3e756153	0.23962907
196	0x3d3a9ffe	0.045562737
197	0xbe2a99c1	-0.16660215
198	0x3cf539db	0.029934814
199	0xbd8adf38	-0.06780857
200	0xba8bf8f1	-0.0010679049
201	0xbd823506	-0.0635777
202	0x3da22354	0.079168946
203	0x3cbef205	0.023308763
204	0x3cc29d28	0.023756579
205	0xbe005e0c	-0.12535876
206	0x3a501a0f	0.00079384533
207	0x3e88fcf5	0.2675549
208	0xbd28f7ee	-0.04125207
209	0x3d4559bf	0.04818129
210	0xbe03760a	-0.12837997
211	0x3b08d4c6	0.0020878776
212	0x3d8286cb	0.06373366
213	0x3cfe0cad	0.031011904
214	0x3d5d4832	0.05402393
215	0xbcb5da9a	-0.022198964
216	0x3e17c455	0.14820988
217	0xbcac859b	-0.021059802
218	0x3c42d32f	0.01189117
219	0xbdfc5d85	-0.12322525
220	0x3d31b36d	0.043384004
221	0x3ccf2bae	0.025289383
222	0xbe323b26	-0.17405376
223	0x3d5e91e4	0.05433835
224	0x391e9b6e	0.00015125956
225	0xbdd6a965	-0.10481528
226	0x3d16e0e1	0.036835555
227	0xbdde0654	-0.10841051
228	0xbc92964a	-0.017893929
229	0xbd980d4c	-0.07424411
230	0xb988a5c5	-0.0002606345
231	0xbdbe7a40	-0.09300661
232	0x3d289398	0.04115638
233	0xbdca4242	-0.09875919
234	0x3c8d9fd4	0.017288126
235	0xbd2329e6	-0.03983488
236	0x3cc67996	0.024227899
237	0xbd237b3f	-0.03991246
238	0xbd3d0efe	-0.046156876
239	0xbcc4d02a	-0.024025042
240	0xbce8c47d	-0.028414005
241	0xbdde1ec8	-0.10845715
242	0xbd269d09	-0.040677104
243	0xbd2afe52	-0.041746445
244	0xbd59d388	-0.053180248
245	0x3da2d3cc	0.07950553
246	0xbc2b8c13	-0.010470408
247	0xba102811	-0.00054991344
248	0xbd874213	-0.066043995
249	0x3da5d91e	0.080980524
250	0xbdb3daf0	-0.087819934
251	0x3dc28618	0.094982326
252	0x3e0655ca	0.13118663
253	0xbd229a9f	-0.03969824
254	0xbe01864a	-0.12648883
255	0x3d103381	0.035205368

bn1_state.weight f4 [400]
0	0x3eb410e8	0.35169148
1	0x3db40358	0.087897
2	0x3f35b805	0.70983917
3	0x3e3e7310	0.1859858
4	0x3f04e731	0.5191527
5	0x3cec8c40	0.02887547
6	0x3f46aa12	0.77603257
7	0x3ec6fc70	0.3886447
8	0x3f4bacb9	0.7956043
9	0x3f6df92b	0.92958325
10	0x3f4cd0a5	0.80005866
11	0x3ee78498	0.45218349
12	0x3f735210	0.9504709
13	0x3f53a433	0.82672423
14	0x3f6fa635	0.93612987
15	0x3f7a3914	0.97743344
16	0x3f0a0c42	0.53924954
17	0x3ec9343e	0.3929767
18	0x3ed63a66	0.4184143
19	0x3f05fd1c	0.5233934
20	0x3eadfee0	0.33983517
21	0x3eb7b19a	0.35877687
22	0x3f614428	0.87994623
23	0x3eaad140	0.3336277
24	0x3f51ea7e	0.8199843
25	0x3f577c11	0.84173685
26	0x3dbd04b0	0.0922941
27	0x3ea3225a	0.31862146
28	0x3f031628	0.5120568
29	0x3f7f0413	0.9961559
30	0x3e673890	0.2258017
31	0x3f4c57d3	0.7982151
32	0x3c738080	0.01486218
33	0x3f65ce2a	0.89767706
34	0x3cda0900	0.02661562
35	0x3f40ec83	0.7536089
36	0x3dafba60	0.0858047
37	0x3d4be220	0.049776196
38	0x3f320036	0.6953157
39	0x3e8e4f72	0.27794987
40	0x3f11cc13	0.5695202
41	0x3f01c90e	0.5069741
42	0x3f0d4e46	0.5519756
43	0x3f6ecb0d	0.9327858
44	0x3ef3a6aa	0.47588092
45	0x3f3bf4d8	0.73420477
46	0x3e86d85e	0.2633695
47	0x3ee77a04	0.45210278
48	0x3f349778	0.7054362
49	0x3e4787e4	0.19485432
50	0x3e158d84	0.14604765
51	0x3f723d42	0.9462472
52	0x3f19511a	0.59889376
53	0x3e087bf4	0.13328534
54	0x3f3eedc0	0.7458153
55	0x3f07355e	0.52815807
56	0x3f4a2c4a	0.7897383
57	0x3e0c07dc	0.13674873
58	0x3f79eec8	0.97629976
59	0x3f4c0fea	0.7971178
60	0x3f6c245f	0.92243
61	0x3eaad4ea	0.33365566
62	0x3f124b18	0.57145834
63	0x3c9ccbc0	0.019140124
64	0x3ee1f2ba	0.44130498
65	0x3f27bc4a	0.6552168
66	0x3e504178	0.20337474
67	0x3f27aa4c	0.6549423
68	0x3f25e785	0.64806396
69	0x3f7747cc	0.9659393
70	0x3e847ca2	0.25876337
71	0x3e3711f4	0.17877942
72	0x3e5ef40c	0.21772784
73	0x3f6fadf2	0.93624794
74	0x3f52aaaf	0.8229169
75	0x3f533963	0.8250944
76	0x3b49dd00	0.0030801892
77	0x3f28a06a	0.6586977
78	0x3f6052f5	0.8762658
79	0x3f2bb8c8	0.6707883
80	0x3f51fd3c	0.8202703
81	0x3f35749e	0.7088107
82	0x3e82d154	0.2555033
83	0x3ed96652	0.42460877
84	0x3b618500	0.003441155
85	0x3f56f967	0.8397431
86	0x3f67867a	0.9043957
87	0x3f25dcdd	0.64790136
88	0x3f60b616	0.8777784
89	0x3dfcf620	0.12351632
90	0x3f4eef83	0.80834216
91	0x3e134270	0.14380813
92	0x3e207da8	0.15672934
93	0x3cb06240	0.021531224
94	0x3f0315f8	0.51205397
95	0x3f66d8fa	0.9017483
96	0x3cece260	0.028916538
97	0x3f563d35	0.83687145
98	0x3f4e15b4	0.80501866
99	0x3f5736fc	0.84068274
100	0x3f1d31a2	0.6140386
101	0x3ca38260	0.019959629
102	0x3eab76b6	0.33489007
103	0x3f3a895d	0.7286585
104	0x3e92a916	0.28644627
105	0x3f02eebd	0.51145536
106	0x3cea2140	0.028580308
107	0x3f4945f4	0.78622365
108	0x3f180270	0.5937872
109	0x3f221c70	0.6332464
110	0x3f44107f	0.7658767
111	0x3f1b4d24	0.6066458
112	0x3f0c6571	0.5484229
113	0x3f10fd8c	0.5663688
114	0x3ef897bc	0.48553264
115	0x3f1358bb	0.57557267
116	0x3c712c80	0.014720082
117	0x3e8aa1d6	0.27076596
118	0x3e6b313c	0.22968
119	0x3ede7936	0.43451852
120	0x3f3b997d	0.7328108
121	0x3f6f1c70	0.9340277
122	0x3f105a35	0.56387645
123	0x3deb1300	0.11478233
124	0x3ee03fa6	0.4379856
125	0x3f70b2c8	0.940228
126	0x3f062bcd	0.52410585
127	0x3e002278	0.12513149
128	0x3ed190fa	0.4093092
129	0x3ee3f060	0.4451933
130	0x3f0df7fa	0.5545651
131	0x3f528428	0.82232904
132	0x3e99a3ea	0.3000787
133	0x3f7d83b1	0.9902907
134	0x3f7e8641	0.99423605
135	0x3e644c34	0.22294694
136	0x3ef37ade	0.47554678
137	0x3d18b320	0.037280202
138	0x3f56e3ff	0.83941644
139	0x3ee8c774	0.4546467
140	0x3e91c3de	0.28469747
141	0x3f793a48	0.97354555
142	0x3f5b784a	0.8573042
143	0x3f542a5f	0.82877153
144	0x3f6a3f77	0.9150309
145	0x3f5c2886	0.85999334
146	0x3f65547f	0.89582056
147	0x3e26d1f8	0.16291034
148	0x3f0993c4	0.537411
149	0x3e445ea0	0.19176722
150	0x3f576cf6	0.84150636
151	0x3dfc30a0	0.12313962
152	0x3e736c88	0.2377187
153	0x3e912f26	0.28356284
154	0x3f6b06e9	0.9180742
155	0x3f77c1f9	0.96780354
156	0x3f4fced8	0.81174994
157	0x3e8213ea	0.25405818
158	0x3f4d1449	0.8010908
159	0x3f7c4738	0.9854617
160	0x3e99f362	0.300685
161	0x3f79f9e1	0.9764691
162	0x3e3adb2c	0.1824767
163	0x3c8fbd60	0.017546356
164	0x3f4745d0	0.778409
165	0x3f7b7fcb	0.9824187
166	0x3e312444	0.1729899
167	0x3f0980a1	0.537119
168	0x3dd101a0	0.10205388
169	0x3f48f029	0.78491455
170	0x3f36ea23	0.71451014
171	0x3e589654	0.21151096
172	0x3ea69538	0.3253572
173	0x3e1941dc	0.1496653
174	0x3f0dcaec	0.5538776
175	0x3e749b48	0.2388736
176	0x3f21ec16	0.63250864
177	0x3e6fe120	0.23425722
178	0x3db18090	0.086670995
179	0x3f3390f2	0.70143044
180	0x3dd00d50	0.10158789
181	0x3f1075cc	0.56429744
182	0x3f6d0ec2	0.92600644
183	0x3e8813fe	0.26577753
184	0x3f702288	0.9380269
185	0x3c85a340	0.016313195
186	0x3f3f2724	0.746691
187	0x3e1b111c	0.15143245
188	0x3f31f6c9	0.6951719
189	0x3f41db7e	0.75725543
190	0x3da60e70	0.081082225
191	0x3f2290f1	0.63502413
192	0x3e201cd4	0.15635997
193	0x3ea9a07a	0.33130246
194	0x3ead7562	0.33878618
195	0x3eb405c8	0.3516066
196	0x3f2ababa	0.6669117
197	0x3d0edc90	0.034878314
198	0x3ec661e6	0.38746566
199	0x3e482990	0.19547105
200	0x3de21ff8	0.11041254
201	0x3f1b6837	0.60705894
202	0x3e456a10	0.19278741
203	0x3e62076c	0.22073144
204	0x3f6e572e	0.93101776
205	0x3f075a71	0.5287238
206	0x3ee514fa	0.44742566
207	0x3f795656	0.97397363
208	0x3ee87082	0.45398337
209	0x3f420680	0.7579117
210	0x3c246080	0.010032773
211	0x3ea2b242	0.31776625
212	0x3e094160	0.13403845
213	0x3f08017c	0.53127265
214	0x3f3fffd4	0.7499974
215	0x3ee2f724	0.44329178
216	0x3f62fa9f	0.8866367
217	0x3e4e1ad0	0.20127416
218	0x3e830fb6	0.25597924
219	0x3e6eb188	0.2330991
220	0x3c1bff40	0.009521306
221	0x3f64d1f7	0.8938288
222	0x3f7b5690	0.9817896
223	0x3f0454e3	0.51692027
224	0x3f6d9b7b	0.9281537
225	0x3ea10e98	0.31456447
226	0x3ebd61ce	0.36988682
227	0x3f34a4a7	0.7056374
228	0x3f791f54	0.9731343
229	0x3e553a58	0.20823038
230	0x3df52648	0.11970192
231	0x3db05f98	0.08611983
232	0x3f4c5bca	0.7982756
233	0x3f7db179	0.99098927
234	0x3e88cb4a	0.26717597
235	0x3f31ef28	0.6950555
236	0x3bf13580	0.007361114
237	0x3f274ed2	0.65354645
238	0x3f5cdb5d	0.8627222
239	0x3eb5eec8	0.35533738
240	0x3e9be964	0.304515
241	0x3e5f06dc	0.2177996
242	0x3f0c2e16	0.5475782
243	0x3dcb1798	0.099166095
244	0x3da95478	0.08268064
245	0x3f070858	0.52747107
246	0x3eda3312	0.4261709
247	0x3f07a6be	0.52988803
248	0x3ec61a86	0.3869211
249	0x3efeef8e	0.4979214
250	0x3f1b068e	0.60556877
251	0x3f477bb1	0.77923113
252	0x3e68d79c	0.22738498
253	0x3ef87868	0.48529363
254	0x3dac1398	0.08402175
255	0x3f1b81cf	0.6074495

bn1_state.bias f4 [400]
0	0x00000000	0.0
1	0x00000000	0.0
2	0x00000000	0.0
3	0x00000000	0.0
4	0x00000000	0.0
5	0x00000000	0.0
6	0x00000000	0.0
7	0x00000000	0.0
8	0x00000000	0.0
9	0x00000000	0.0
10	0x00000000	0.0
11	0x00000000	0.0
12	0x00000000	0.0
13	0x00000000	0.0
14	0x00000000	0.0
15	0x00000000	0.0
16	0x00000000	0.0
17	0x00000000	0.0
18	0x00000000	0.0
19	0x00000000	0.0
20	0x00000000	0.0
21	0x00000000	0.0
22	0x00000000	0.0
23	0x00000000	0.0
24	0x00000000	0.0
25	0x00000000	0.0
26	0x00000000	0.0
27	0x00000000	0.0
28	0x00000000	0.0
29	0x00000000	0.0
30	0x00000000	0.0
31	0x00000000	0.0
32	0x00000000	0.0
33	0x00000000	0.0
34	0x00000000	0.0
35	0x00000000	0.0
36	0x00000000	0.0
37	0x00000000	0.0
38	0x00000000	0.0
39	0x00000000	0.0
40	0x00000000	0.0
41	0x00000000	0.0
42	0x00000000	0.0
43	0x00000000	0.0
44	0x00000000	0.0
45	0x00000000	0.0
46	0x00000000	0.0
47	0x00000000	0.0
48	0x00000000	0.0
49	0x00000000	0.0
50	0x00000000	0.0
51	0x00000000	0.0
52	0x00000000	0.0
53	0x00000000	0.0
54	0x00000000	0.0
55	0x00000000	0.0
56	0x00000000	0.0
57	0x00000000	0.0
58	0x00000000	0.0
59	0x00000000	0.0
60	0x00000000	0.0
61	0x00000000	0.0
62	0x00000000	0.0
63	0x00000000	0.0
64	0x00000000	0.0
65	0x00000000	0.0
66	0x00000000	0.0
67	0x00000000	0.0
68	0x00000000	0.0
69	0x00000000	0.0
70	0x00000000	0.0
71	0x00000000	0.0
72	0x00000000	0.0
73	0x00000000	0.0
74	0x00000000	0.0
75	0x00000000	0.0
76	0x00000000	0.0
77	0x00000000	0.0
78	0x00000000	0.0
79	0x00000000	0.0
80	0x00000000	0.0
81	0x00000000	0.0
82	0x00000000	0.0
83	0x00000000	0.0
84	0x00000000	0.0
85	0x00000000	0.0
86	0x00000000	0.0
87	0x00000000	0.0
88	0x00000000	0.0
89	0x00000000	0.0
90	0x00000000	0.0
91	0x00000000	0.0
92	0x00000000	0.0
93	0x00000000	0.0
94	0x00000000	0.0
95	0x00000000	0.0
96	0x00000000	0.0
97	0x00000000	0.0
98	0x00000000	0.0
99	0x00000000	0.0
100	0x00000000	0.0
101	0x00000000	0.0
102	0x00000000	0.0
103	0x00000000	0.0
104	0x00000000	0.0
105	0x00000000	0.0
106	0x00000000	0.0
107	0x00000000	0.0
108	0x00000000	0.0
109	0x00000000	0.0
110	0x00000000	0.0
111	0x00000000	0.0
112	0x00000000	0.0
113	0x00000000	0.0
114	0x00000000	0.0
115	0x00000000	0.0
116	0x00000000	0.0
117	0x00000000	0.0
118	0x00000000	0.0
119	0x00000000	0.0
120	0x00000000	0.0
121	0x00000000	0.0
122	0x00000000	0.0
123	0x00000000	0.0
124	0x00000000	0.0
125	0x00000000	0.0
126	0x00000000	0.0
127	0x00000000	0.0
128	0x00000000	0.0
129	0x00000000	0.0
130	0x00000000	0.0
131	0x00000000	0.0
132	0x00000000	0.0
133	0x00000000	0.0
134	0x00000000	0.0
135	0x00000000	0.0
136	0x00000000	0.0
137	0x00000000	0.0
138	0x00000000	0.0
139	0x00000000	0.0
140	0x00000000	0.0
141	0x00000000	0.0
142	0x00000000	0.0
143	0x00000000	0.0
144	0x00000000	0.0
145	0x00000000	0.0
146	0x00000000	0.0
147	0x00000000	0.0
148	0x00000000	0.0
149	0x00000000	0.0
150	0x00000000	0.0
151	0x00000000	0.0
152	0x00000000	0.0
153	0x00000000	0.0
154	0x00000000	0.0
155	0x00000000	0.0
156	0x00000000	0.0
157	0x00000000	0.0
158	0x00000000	0.0
159	0x00000000	0.0
160	0x00000000	0.0
161	0x00000000	0.0
162	0x00000000	0.0
163	0x00000000	0.0
164	0x00000000	0.0
165	0x00000000	0.0
166	0x00000000	0.0
167	0x00000000	0.0
168	0x00000000	0.0
169	0x00000000	0.0
170	0x00000000	0.0
171	0x00000000	0.0
172	0x00000000	0.0
173	0x00000000	0.0
174	0x00000000	0.0
175	0x00000000	0.0
176	0x00000000	0.0
177	0x00000000	0.0
178	0x00000000	0.0
179	0x00000000	0.0
180	0x00000000	0.0
181	0x00000000	0.0
182	0x00000000	0.0
183	0x00000000	0.0
184	0x00000000	0.0
185	0x00000000	0.0
186	0x00000000	0.0
187	0x00000000	0.0
188	0x00000000	0.0
189	0x00000000	0.0
190	0x00000000	0.0
191	0x00000000	0.0
192	0x00000000	0.0
193	0x00000000	0.0
194	0x00000000	0.0
195	0x00000000	0.0
196	0x00000000	0.0
197	0x00000000	0.0
198	0x00000000	0.0
199	0x00000000	0.0
200	0x00000000	0.0
201	0x00000000	0.0
202	0x00000000	0.0
203	0x00000000	0.0
204	0x00000000	0.0
205	0x00000000	0.0
206	0x00000000	0.0
207	0x00000000	0.0
208	0x00000000	0.0
209	0x00000000	0.0
210	0x00000000	0.0
211	0x00000000	0.0
212	0x00000000	0.0
213	0x00000000	0.0
214	0x00000000	0.0
215	0x00000000	0.0
216	0x00000000	0.0
217	0x00000000	0.0
218	0x00000000	0.0
219	0x00000000	0.0
220	0x00000000	0.0
221	0x00000000	0.0
222	0x00000000	0.0
223	0x00000000	0.0
224	0x00000000	0.0
225	0x00000000	0.0
226	0x00000000	0.0
227	0x00000000	0.0
228	0x00000000	0.0
229	0x00000000	0.0
230	0x00000000	0.0
231	0x00000000	0.0
232	0x00000000	0.0
233	0x00000000	0.0
234	0x00000000	0.0
235	0x00000000	0.0
236	0x00000000	0.0
237	0x00000000	0.0
238	0x00000000	0.0
239	0x00000000	0.0
240	0x00000000	0.0
241	0x00000000	0.0
242	0x00000000	0.0
243	0x00000000	0.0
244	0x00000000	0.0
245	0x00000000	0.0
246	0x00000000	0.0
247	0x00000000	0.0
248	0x00000000	0.0
249	0x00000000	0.0
250	0x00000000	0.0
251	0x00000000	0.0
252	0x00000000	0.0
253	0x00000000	0.0
254	0x00000000	0.0
255	0x00000000	0.0
