collaboration_competition/models/critic1_10000.pth (torch_old, 545385 bytes, 21 tensors)

fcs1.weight f4 [400, 24]
-2.022696e-36 3.946321e-37 -3.5553972e-36 7.34308e-37 -1.0710931e-36 1.962964e-36 -3.5553972e-36 7.34308e-37
-1.8483895e-36 5.4407707e-37 -1.1750123e-36 8.564155e-37 -3.7211237e-36 1.8450817e-36 -1.1750123e-36 8.564155e-37
-9.9084926e-36 -7.7418695e-37 2.6217512e-37 3.3014128e-37 -1.3265765e-35 7.810749e-36 2.6217512e-37 3.3014128e-37
-5.1802007e-11 -7.5780056e-11 6.0944005e-10 1.3848125e-10 6.0514754e-10 5.5927526e-11 6.0944005e-10 1.3848125e-10
-6.05959e-10 -1.1229474e-10 -1.3175472e-10 1.6451485e-10 8.4198487e-10 2.2822527e-10 -1.3175472e-10 1.6451485e-10
-1.5948234e-09 -3.389763e-10 1.7766943e-09 2.3126934e-10 2.405774e-09 1.0639261e-09 1.7766943e-09 2.3126934e-10
-2.1492057e-18 9.679843e-19 -1.388299e-17 2.2861345e-18 -4.506247e-18 4.4999494e-18 -1.388299e-17 2.2861345e-18
-2.0281046e-18 1.3423322e-18 -6.4206954e-18 3.3541665e-18 -9.2473565e-18 4.2618488e-18 -6.4206954e-18 3.3541665e-18
-1.7348087e-17 -2.2209297e-18 -5.3702435e-18 1.7566605e-18 -2.906751e-17 1.9308227e-17 -5.3702435e-18 1.7566605e-18
-1.0555051e-13 1.3300876e-13 -3.7891825e-13 4.1079661e-13 -5.440162e-13 -8.082653e-14 -3.7891825e-13 4.1079661e-13
-5.437861e-13 1.4023007e-13 3.8886082e-13 5.010688e-13 -8.0002346e-13 1.4935548e-13 3.8886082e-13 5.010688e-13
-2.041915e-12 -8.010203e-14 -4.823397e-13 4.4442978e-13 -3.0035722e-12 1.0240569e-12 -4.823397e-13 4.4442978e-13
6.770856e-15 1.6087288e-15 -5.283108e-15 8.0311143e-16 7.815998e-15 -4.4518836e-15 -5.283108e-15 8.0311143e-16
9.4277215e-15 1.6336252e-15 2.6332728e-15 1.0270346e-15 8.525242e-15 -6.329143e-15 2.6332728e-15 1.0270346e-15
-3.680751e-15 -1.0379726e-15 -1.3413998e-14 4.9524396e-16 -3.0464713e-15 6.2378886e-15 -1.3413998e-14 4.9524396e-16
-4.1480183e-12 2.6392929e-13 -8.138887e-12 1.4533149e-12 -2.2231665e-12 4.287114e-12 -8.138887e-12 1.4533149e-12
-3.1045529e-12 5.4472225e-13 -3.3784447e-12 2.1176984e-12 -5.7412044e-12 3.5692404e-12 -3.3784447e-12 2.1176984e-12
-1.4183589e-11 -1.2908357e-12 3.8601224e-13 8.615511e-13 -1.8444208e-11 1.1662686e-11 3.8601224e-13 8.615511e-13
-1.6731772e-07 7.712595e-09 4.508895e-07 -1.8791123e-07 1.0782462e-06 7.659412e-08 4.508895e-07 -1.8791123e-07
-5.4008717e-07 2.719929e-08 1.023904e-06 -1.6766207e-07 1.415865e-06 2.4503086e-07 1.023904e-06 -1.6766207e-07
-1.5860753e-06 6.668765e-08 6.397762e-08 -3.1366784e-07 2.6468065e-06 5.815255e-07 6.397762e-08 -3.1366784e-07
-5.077716e-11 2.0248492e-11 -3.192523e-10 6.097735e-11 -9.703689e-11 2.1195788e-11 -3.192523e-10 6.097735e-11
-7.9701655e-11 2.6409437e-11 -1.2905896e-10 7.447868e-11 -2.2902619e-10 2.9328852e-11 -1.2905896e-10 7.447868e-11
-4.725968e-10 -5.3970235e-11 -1.5679935e-10 4.128768e-11 -7.6133705e-10 4.2187034e-10 -1.5679935e-10 4.128768e-11
-4.5837662e-24 -1.0230272e-24 4.0146905e-23 -1.930971e-24 1.146524e-23 -6.5762975e-24 4.0146905e-23 -1.930971e-24
-5.9603056e-24 -1.1948752e-24 -3.4498083e-23 -3.1086448e-24 1.4573484e-23 -8.442143e-24 -3.4498083e-23 -3.1086448e-24
-2.7977608e-23 -7.176182e-24 1.4120277e-23 -3.8716307e-24 3.9421655e-23 1.0627288e-23 1.4120277e-23 -3.8716307e-24
-5.6302214e-19 -8.344341e-20 2.8843434e-19 1.4416004e-19 2.1068603e-19 1.4611414e-19 2.8843434e-19 1.4416004e-19
-7.4241673e-19 -9.655075e-20 -2.559209e-19 1.0922674e-19 4.939661e-19 1.8552373e-19 -2.559209e-19 1.0922674e-19
-1.5658346e-18 -2.7308024e-19 7.0090637e-19 1.2389637e-19 1.9859457e-18 7.621679e-19 7.0090637e-19 1.2389637e-19
-2.1750556e-10 -1.43885286e-11 5.851188e-11 1.805154e-11 8.55822e-12 1.0701728e-10 5.851188e-11 1.805154e-11
-1.9977067e-10 -6.1327384e-12 -1.1480441e-10 3.8612766e-11 1.5717722e-10 6.9253714e-11 -1.1480441e-10 3.8612766e-11
00000000: 6b12 2c84 4e49 0603 d93a 9784 40df 7903
00000010: af3c b683 92fd 2604 d93a 9784 40df 7903
00000020: 5c3e 1d84 cc23 3903 01eb c783 28b6 9103
00000030: 7347 9e84 52f6 1c04 01eb c783 28b6 9103
00000040: f7ba 5285 99b8 8383 596d b202 b9ae e002
00000050: d910 8d85 c31d 2605 596d b202 b9ae e002
00000060: e0d3 63ae 61a4 a6ae 8885 2730 0243 182f
00000070: 7957 2630 ccf8 752e 8885 2730 0243 182f
00000080: 9390 26b0 52f0 f6ae a8dd 10af d0e2 342f
00000090: 6b71 6730 b4ef 7a2f a8dd 10af d0e2 342f
000000a0: dc30 dbb0 ac5a baaf e02f f430 8848 7e2f
000000b0: d352 2531 9239 9230 e02f f430 8848 7e2f
000000c0: 5995 1ea2 6ad9 8e21 490c 80a3 dcaf 2822
000000d0: 4d40 a6a2 d204 a622 490c 80a3 dcaf 2822
000000e0: d0a5 15a2 e017 c621 c1e1 eca2 6a7e 7722
000000f0: 6895 2aa3 063c 9d22 c1e1 eca2 6a7e 7722
00000100: 0302 a0a3 2de0 23a2 8420 c6a2 619e 0122
00000110: dc0c 06a4 4316 b223 8420 c6a2 619e 0122
00000120: baad eda9 2ac1 152a e04f d5aa 0842 e72a
00000130: 8020 19ab 5301 b6a9 e04f d5aa 0842 e72a
00000140: eb0f 19ab 91e2 1d2a c0e8 da2a d009 0d2b
00000150: c42f 61ab c928 282a c0e8 da2a d009 0d2b
00000160: dfaf 0fac ad5f b4a9 3dc4 07ab 1531 fa2a
00000170: 8c5b 53ac 8a1f 902b 3dc4 07ab 1531 fa2a
00000180: 20f2 f327 9ed7 e726 1258 bea7 2a7b 6726
00000190: eecc 0c28 6165 a0a7 1258 bea7 2a7b 6726
000001a0: b1d5 2928 226e eb26 4fbf 3d27 e402 9426
000001b0: bd93 1928 0a08 e4a7 4fbf 3d27 e402 9426
000001c0: f09c 84a7 6e96 95a6 26a5 71a8 8ebe 0e26
000001d0: 7a85 5ba7 5ebe e027 26a5 71a8 8ebe 0e26
000001e0: 07f2 91ac 3894 942a 4a2e 0fad 3089 cc2b
000001f0: 0271 1cac e4d6 962c 4a2e 0fad 3089 cc2b
00000200: a776 5aac 6053 192b a6bc 6dac 1005 152c
00000210: 2c00 caac b829 7b2c a6bc 6dac 1005 152c
00000220: 3585 79ad 42ab b5ab 3a4e d92a 4d81 722b
00000230: aa3c a2ad 112c 4d2d 3a4e d92a 4d81 722b
00000240: f2a7 33b4 5a80 0432 c811 f234 a5c4 49b4
00000250: 42b8 9035 107c a433 c811 f234 a5c4 49b4
00000260: 82fa 10b5 dfa3 e932 136d 8935 9906 34b4
00000270: c008 be35 c98c 8334 136d 8935 9906 34b4
00000280: 22e1 d4b5 ec35 8f33 1264 8933 2e66 a8b4
00000290: ca9f 3136 211a 1c35 1264 8933 2e66 a8b4
000002a0: 0052 5fae 8d1b b22d c482 afaf 3217 862e
000002b0: ea62 d5ae ac70 ba2d c482 afaf 3217 862e
000002c0: 0b44 afae c44c e82d dee6 0daf c5c7 a32e
000002d0: 24d1 7baf 5afd 002e dee6 0daf c5c7 a32e
000002e0: 0be8 01b0 155d 6dae 1867 2caf cc95 352e
000002f0: 5546 51b0 f9ec e72f 1867 2caf cc95 352e
00000300: 6c53 b198 484e 9e97 7623 421a d266 1598
00000310: 1ec5 5d19 7f68 fe98 7623 421a d266 1598
00000320: 0294 e698 e2e5 b897 8fd2 269a 0e85 7098
00000330: 33f2 8c19 784b 2399 8fd2 269a 0e85 7098
00000340: 9a4a 079a bbce 0a99 1d90 8819 c6c6 9598
00000350: a5a1 3e1a c88f 4d19 1d90 8819 c6c6 9598
00000360: c02c 26a1 7206 c59f f742 aa20 b331 2a20
00000370: f2bb 7820 4a80 2c20 f742 aa20 b331 2a20
00000380: 6c1f 5ba1 59f9 e39f ac11 97a0 c2f3 0020
00000390: 06cb 1121 1b07 5b20 ac11 97a0 c2f3 0020
000003a0: 8f13 e7a1 b832 a1a0 fdde 4e21 6145 1220
000003b0: 7489 1222 c7f3 6021 fdde 4e21 6145 1220
000003c0: 5f26 6faf 2c20 7dad 43ab 802e 74c8 9e2d
000003d0: cc8e 162d 5f55 eb2e 43ab 802e 74c8 9e2d
000003e0: 72a6 5baf ccc6 d7ac 2375 fcae 1cd2 292e
000003f0: 74d1 2c2f 604a 982e 2375 fcae 1cd2 292e

fcs1.bias f4 [400]
1.3262267e-36 2.4116478e-10 3.637937e-18 1.2589672e-13 2.4615603e-15 2.3476405e-12 2.479728e-08 7.28273e-11
3.9667255e-24 2.1603984e-19 1.5518512e-11 9.3551046e-07 2.9571275e-15 1.0377074e-13 2.6628512e-17 3.5869093e-38
4.5493277e-07 2.3898827e-29 2.3334582e-05 4.5674933e-05 2.1029052e-15 6.616249e-07 -1.2941928e-09 6.115935e-19
5.896325e-06 -5.9878213e-11 -3.4851366e-10 2.6922837e-07 6.444266e-17 1.7552302e-13 3.3255056e-08 2.7462646e-12
9.007438e-28 -1.0204085e-10 8.099049e-20 -7.903862e-09 2.9775225e-25 9.03777e-09 1.1335668e-08 8.801357e-38
3.7324654e-08 1.6807357e-18 1.168524e-18 4.0480063e-05 1.3952148e-08 8.5837866e-07 1.8944637e-14 1.9820341e-08
1.2437929e-31 5.623601e-10 5.3570453e-08 -2.3580987e-16 1.9016493e-08 9.887273e-19 6.231038e-07 0.00013022915
1.475503e-09 2.5483948e-28 1.4749127e-06 1.0274019e-11 2.0979681e-14 1.3856416e-23 1.0606102e-22 9.001616e-12
1.6864036e-06 7.1983384e-09 -3.2138937e-15 4.6378084e-08 6.1453163e-09 2.0458211e-08 5.1420436e-14 9.255438e-09
8.738648e-09 1.1564705e-28 2.0563946e-20 5.7475065e-28 1.7876948e-07 2.7509975e-23 1.905604e-22 -5.4388223e-09
8.694076e-07 8.751357e-15 3.9303656e-21 -4.359908e-08 4.1753574e-09 3.1447045e-25 1.8949322e-05 1.4065658e-24
6.321283e-13 8.750425e-18 4.7560274e-27 3.7758737e-11 2.3557243e-09 1.0710472e-06 4.5290666e-17 0.0056882976
4.4857754e-07 3.0300762e-06 5.6897727e-19 1.0441435e-06 1.2259431e-33 1.0418946e-14 -7.925959e-21 3.3675412e-16
7.0551665e-14 9.2111e-09 1.5094226e-19 2.4812891e-08 2.1444327e-10 2.4553682e-11 2.129799e-17 1.901762e-08
-1.51593e-08 1.8572976e-18 6.2574454e-06 3.7136628e-22 3.1467263e-07 2.5937583e-05 8.98494e-25 1.3101872e-14
1.6401746e-09 3.9061927e-25 1.5128102e-32 0.00011553593 1.3218984e-29 8.83207e-19 5.384263e-24 3.3345495e-05
8.645189e-24 5.9452084e-14 1.0601215e-09 6.229527e-07 1.2309863e-07 1.425321e-28 6.512695e-05 2.416229e-07
2.8546546e-08 2.7697096e-29 7.862888e-30 1.3994932e-06 -2.1414648e-08 8.78295e-19 5.164773e-10 5.6492127e-08
-1.8626301e-06 2.4855963e-19 -5.3840483e-09 2.6558035e-07 -9.2788544e-10 5.537662e-07 9.913139e-17 4.1443894e-19
6.285301e-08 1.4256329e-15 4.100219e-14 1.4128723e-07 1.5714122e-23 5.1785026e-12 1.510369e-13 7.192178e-07
3.2825532e-24 7.782579e-20 9.080776e-34 6.8752744e-22 8.556276e-05 6.835139e-17 3.6180286e-28 6.476193e-20
9.583831e-09 3.2427085e-09 4.264073e-11 1.4737741e-25 3.3530067e-14 1.831949e-07 4.765997e-10 3.0827534e-06
3.1917352e-08 5.167248e-08 4.3994024e-13 1.6865907e-07 7.924248e-08 4.7241073e-25 3.124367e-23 -7.7599733e-28
9.450274e-08 1.3561477e-07 2.2626299e-09 1.6929414e-08 4.062067e-17 2.8182548e-18 -1.3826605e-22 1.4580503e-06
-3.6537417e-16 3.4220493e-23 6.141947e-06 1.1443698e-38 8.77475e-33 6.453531e-22 3.2482866e-10 1.2454322e-08
5.164345e-07 2.3641332e-20 6.425641e-06 1.0313969e-20 -3.4181693e-09 2.454784e-25 -6.125988e-38 2.9301653e-31
1.2645616e-15 9.635759e-09 1.8475086e-09 3.424084e-13 3.2318152e-05 7.945097e-09 8.518717e-21 -2.4907251e-14
3.8493443e-08 1.8205429e-10 8.673179e-08 6.02583e-19 4.8711527e-23 9.752515e-30 -5.153535e-08 2.2896976e-13
-1.5902302e-38 2.0109712e-18 2.1380864e-19 1.1865891e-08 2.3859266e-05 2.1608839e-12 -3.941301e-38 8.0981183e-16
1.2209008e-15 3.3810812e-13 7.252675e-10 2.9391342e-17 3.5482574e-07 0.0014735943 4.8849266e-08 1.6084039e-15
1.5034492e-16 2.2250814e-17 2.4922526e-37 1.3854519e-05 1.357973e-13 7.339958e-09 5.639225e-17 7.269621e-29
1.5545822e-30 3.8274237e-29 2.6454805e-10 1.4132542e-06 2.4382425e-20 1.0992193e-21 5.2763255e-16 6.755171e-24
00000000: 52a5 e103 ed94 842f 5837 8622 42bf 0d2a
00000010: c65f 3127 5533 252c cc01 d532 2026 a02e
00000020: 8c74 9918 090e 7f20 9580 882d ca1f 7b35
00000030: 6015 5527 c2ab e929 cc9a f523 384a 4301
00000040: 7c3d f434 e75c f20f a2be c337 1693 3f38
00000050: c187 1727 849a 3135 5cdf b1b0 b382 3421
00000060: 0cd9 c536 70ac 83ae f098 bfaf 778a 9034
00000070: 3b98 9424 119f 452a 52d4 0e33 4e40 412c
00000080: 82ba 8e12 e463 e0ae bf3b bf1f 8dc9 07b2
00000090: ba4c b816 8844 1b32 ccbe 4232 8298 ef01
000000a0: e44e 2033 6608 f821 9771 ac21 23c9 2938
000000b0: 32b2 6f32 556b 6635 5ca3 aa28 6441 aa32
000000c0: 1c74 210c 9394 1a30 5615 6633 65ef 87a5
000000d0: b659 a332 10e9 9121 5e43 2735 1f8e 0839
000000e0: a6ca ca30 1286 a111 9df5 c535 11be 342d
000000f0: daf7 bc28 d302 8619 4c38 001b ad5b 1e2d
00000100: 6358 e235 4155 f731 e095 67a7 3e31 4733
00000110: c626 d331 15bc af32 ba93 6729 d901 1f32
00000120: fb20 1632 9d99 1211 9238 c21e 5025 3612
00000130: c8f3 3f34 b307 051a 965f 661b 63e0 bab1
00000140: 3c61 6935 83a6 1d28 2a7c 941d b241 3bb3
00000150: d576 8f31 d5a5 c216 5cf5 9e37 d0a7 d917
00000160: a5ed 312b b76a 2123 d967 bc13 8f10 262e
00000170: 57e2 2131 e7c0 8f35 c8dd 5024 e664 ba3b
00000180: 07d4 f034 5058 4b36 b5ee 2721 7f24 8c35
00000190: dab1 cb08 e8b0 3b28 96b7 159e 2320 c225
000001a0: 44de 9e29 d93e 1e32 8033 3220 2024 d532
000001b0: 6ac8 6b2f faf9 d72d 7570 c423 305c a332
000001c0: a737 82b2 5c0b 0922 0cf7 d136 267a e01b
000001d0: 47f0 a834 8994 d937 0409 8b17 b805 6c28
000001e0: 836c e130 18c8 f116 6519 9d0a e14b f238
000001f0: 720e 860f 9e56 8221 284b d018 74dc 0b38
00000200: e738 2719 cbdf 8529 b6b3 9130 fc38 2735
00000210: 182d 0434 50ae 3411 c494 8838 66b8 8134
00000220: 8536 f532 e370 0c10 737a 1f0f 38d6 bb35
00000230: 4ff3 b7b2 0c9d 8121 dcf7 0d30 c0a1 7233
00000240: 7cff f9b5 45b9 9220 97fe b8b1 1695 8e34
00000250: 220e 7fb0 86a6 1435 d894 e424 3ea4 f420
00000260: cff9 8633 9274 cd26 4ea8 3829 bdb4 1734
00000270: 48fa 9719 ce33 b62c 6c0d 2a2a 4510 4135
00000280: aaf9 7d18 cec2 b71f 59e1 9608 dcca 4f1c
00000290: 2870 b338 8a9b 9d24 df51 e511 2fea 981f
000002a0: 22a6 2432 55d6 5e31 3289 3b2e c471 3616
000002b0: 8901 1729 3bb4 4434 b901 0330 4de1 4e36
000002c0: 8015 0933 7eee 5d33 12aa f72a a718 3534
000002d0: 042c aa33 3c34 1217 ca15 171a 62ec 7592
000002e0: 6ef1 ca33 819d 1134 9b7c 1b31 2d6c 9132
000002f0: 6c54 3b24 54f3 4f22 4527 279b 3ab2 c335
00000300: b69f d2a5 eb7a 251a ec16 ce36 609c 7c00
00000310: 933e 360a c70b 431c 9293 b22f b0f6 5532
00000320: 1ca1 0a35 3c49 df1e d69b d736 4bd3 421e
00000330: 12e5 6ab1 9bf1 9716 e8c3 a681 b92d be0c
00000340: 173e b626 848a 2532 6eeb fd30 40c2 c02a
00000350: 5a8d 0738 e87e 0832 fde9 201e 3658 e0a8
00000360: fd53 2533 ba2b 482f 4e41 ba33 e2d9 3121
00000370: f38d 6b1a f4cd 450f b757 5db3 05e6 802a
00000380: 2629 ad80 2c62 1422 b26b 7c20 beda 4b32
00000390: 6225 c837 060f 182c b895 5681 9169 6926
000003a0: 4af3 af26 8456 be2a 2a5c 4730 2c8b 0724
000003b0: e17e be34 9f25 c13a 56ce 5133 a1cb e726
000003c0: fd55 2d25 403a cd23 2a9d a902 b570 6837
000003d0: e8e4 182a f432 fc31 1c08 8224 8a4e b810
000003e0: d13e fc0d cd12 4210 d46f 912f 0baf bd35
000003f0: 1649 e61e fd1b a61c 6914 1826 fda9 0219

fc2.weight f4 [300, 402]
-3.1226826e-38 2.7557297e-38 -6.34552e-38 -1.4931597e-38 4.237682e-38 -5.19558e-38 2.252425e-39 -4.9408355e-38
4.1614887e-38 1.9426233e-38 -6.4308053e-38 8.13551e-39 2.69919e-38 -5.8153006e-38 -5.8346884e-38 1.637754e-39
6.0074596e-38 4.6636976e-38 -4.4572916e-38 -5.9064596e-38 2.1862738e-38 -3.3220846e-38 -5.2359663e-38 1.7444969e-38
5.8455524e-38 8.791775e-39 3.6297487e-38 -3.498912e-38 -3.5338617e-38 -2.9949e-38 -3.8346572e-38 1.0689e-41
-2.4438348e-38 -2.8618332e-38 1.3554962e-38 -2.5034561e-38 4.73281e-39 3.827871e-38 1.68335e-40 4.0660656e-38
1.7957458e-38 -3.719723e-39 -1.2111099e-38 -3.4085038e-38 -3.092756e-38 -3.928998e-39 3.019837e-38 -9.383522e-39
-3.482218e-39 -2.4328725e-38 -4.2880103e-38 9.842436e-39 1.089071e-39 -1.0991407e-38 2.797143e-39 -2.0618116e-38
1.4768433e-38 -4.7820835e-38 -5.038453e-39 -1.4766027e-38 2.1583247e-38 -4.3629327e-38 -6.31902e-38 3.3820658e-38
-5.570621e-38 -2.953e-42 -8.501945e-39 -1.1034298e-38 -1.723762e-38 -3.7853284e-38 -2.2910913e-38 -5.7908345e-38
-1.3243986e-38 2.8953702e-38 -5.4543015e-38 -3.78412e-40 -2.829748e-38 -3.263593e-39 3.221635e-38 -6.126944e-38
7.694345e-39 6.3246575e-38 -2.13358e-40 -4.0807454e-38 -4.386835e-38 -1.2822364e-38 -4.247155e-38 -6.4812565e-38
2.9157955e-38 2.587498e-39 -5.90551e-38 2.92364e-40 -1.913512e-39 6.306967e-39 -5.313332e-38 -3.3325274e-38
3.8845218e-38 1.9719953e-38 4.435441e-38 -6.846353e-38 -3.240479e-39 -6.8145307e-38 9.088417e-39 2.3957372e-38
-3.331418e-39 1.8876634e-38 -2.3858637e-38 1.2906686e-38 1.5907522e-38 -2.4771986e-38 3.7010187e-38 -2.3866e-41
2.548486e-38 5.517413e-38 2.8547746e-38 -3.971255e-38 -4.848375e-38 -5.774213e-38 -3.8454929e-38 -5.176717e-38
-5.9805524e-38 -6.8180496e-38 5.495732e-38 1.986733e-39 6.9455157e-38 -1.7138707e-38 -3.070057e-39 -2.392986e-39
-5.328081e-38 -2.143233e-39 -1.5966955e-38 -2.337198e-38 -5.370774e-38 -1.5056345e-38 4.3949198e-38 -6.70122e-38
-4.3046056e-38 2.4474443e-38 2.482664e-39 -6.2951467e-38 -2.6958763e-38 -3.081099e-38 1.1331796e-38 2.2290962e-38
4.757683e-38 -2.7475152e-38 4.570475e-39 -2.6592856e-38 1.0788425e-38 3.050872e-39 3.3057965e-38 -3.9520106e-38
1.4833752e-38 -3.837805e-38 -3.3725857e-38 5.3175964e-38 1.7481008e-38 -1.1095205e-38 3.7204284e-38 1.0656988e-38
-2.470178e-39 -3.3229573e-38 -5.3744275e-38 3.4975465e-38 -2.3987354e-38 -2.3637086e-38 5.4756e-40 -1.9714341e-38
-3.0694148e-38 1.60339e-38 4.5553338e-38 4.9231163e-38 3.5878134e-38 -3.7430106e-38 5.6195196e-38 2.5412287e-38
6.3775346e-38 9.8661e-39 -3.2307303e-38 -3.7243077e-38 1.1641464e-38 -6.061994e-38 -1.5799623e-38 1.652777e-39
4.26364e-38 6.073141e-38 -6.9535316e-38 -3.93922e-38 -1.3654474e-38 -3.5838477e-38 -7.240017e-39 1.4790054e-38
-3.1372817e-38 -1.7921356e-38 -5.789319e-38 2.0830445e-38 -3.5137822e-38 -1.1256064e-38 3.477843e-38 -5.221793e-39
2.2304992e-38 4.915627e-38 -1.1541896e-38 -1.5177231e-38 5.146828e-38 -7.693685e-39 1.4214395e-38 -3.53621e-39
-2.986555e-38 -4.747735e-38 -2.802834e-38 -1.2078969e-38 8.62284e-39 -1.826486e-38 5.5402297e-38 -3.3548985e-38
-1.5069216e-38 3.0808662e-38 -1.1492528e-38 -2.115549e-38 2.101636e-38 1.7631737e-38 6.950215e-38 -5.7318903e-38
-2.1001127e-38 2.3358e-40 -5.427533e-38 2.506802e-38 -2.3901292e-38 4.220235e-39 -5.116477e-38 4.991396e-38
-4.2057762e-38 3.9178497e-38 -2.19609e-38 -6.9471154e-38 1.5879034e-38 -4.6295314e-38 -6.0826616e-38 3.600517e-39
6.7625117e-38 -3.9067786e-38 1.7957567e-38 1.2654454e-38 -6.1296713e-38 -7.920087e-39 8.85477e-39 -2.4273962e-38
1.2985442e-38 -6.77075e-39 4.272197e-39 2.615443e-38 -3.2214484e-38 -2.7432828e-38 1.0577958e-38 -5.604281e-38
00000000: d803 2a81 4409 1601 d2bd ac81 3897 a280
00000010: abb8 6601 e86f 8d81 d886 1800 9980 8681
00000020: b092 6201 6f88 d300 2c10 af81 7e96 5800
00000030: 38f5 1201 bb4e 9e81 d8d5 9e81 64d5 1100
00000040: e289 a301 75ea 7d01 94ad 7281 04ca a081
00000050: 6b10 ee00 1adf 3481 5c89 8e81 7af5 bd00
00000060: 8e21 9f01 e4bb 5f00 509f 4501 b77f 3e81
00000070: d866 4081 d00e 2381 52c7 5081 cc1d 0000
00000080: 160e 0581 22d0 1b81 b899 9300 164d 0881
00000090: 2689 3300 bc68 5001 40d5 0100 af60 5d01
000000a0: 168a c300 1381 2880 d1e0 8380 9c93 3981
000000b0: ba62 2881 73c8 2a80 626a 2401 712d 6680
000000c0: 02eb 2580 4b75 0481 2476 6981 b52c 6b00
000000d0: e3db 0b00 92af 7780 4c75 1e00 eb82 e080
000000e0: 62d0 a000 422e 8281 28dd 3680 adc9 a080
000000f0: 5005 eb00 688a 6d81 2405 ac81 1e23 3801
00000100: 90a5 9781 3b08 0080 f793 5c80 2227 7880
00000110: 79b3 bb80 c717 4e81 4e7a f980 3aa4 9d81
00000120: d836 9080 92a3 1d01 ef7a 9481 dc1e 0480
00000130: ee10 1a81 9289 2380 0a67 2f01 91ca a681
00000140: b4c8 5300 6e2c ac01 c152 0280 4a2d 5e81
00000150: 8ed7 6e81 899f 8b80 b33c 6781 c46f b081
00000160: 42c0 1e01 e42c 1c00 66c3 a081 fe2e 0300
00000170: 18d6 1480 42ad 4400 85a4 9081 a770 3581
00000180: 557e 5301 35bb d600 067d 7101 1e60 ba81
00000190: 2349 2380 5982 b981 cff6 6200 b46f 0201
000001a0: a346 2480 608c cd00 16e6 0181 978a 8c00
000001b0: b337 ad00 1cdf 0681 ac80 4901 8742 0080
000001c0: b6c0 0a01 c232 9601 c06d 1b01 3737 5881
000001d0: 3efc 8381 6430 9d81 595e 5181 74ec 8c81
000001e0: 5ece a281 df9a b981 aa9b 9501 34a2 1500
000001f0: 2e13 bd01 be9f ba80 126e 2180 ac0e 1a80
00000200: 4e0b 9181 7656 1780 60dd ad80 927f fe80
00000210: d534 9281 f7f2 a380 3e48 6f01 b06c b681
00000220: 725d 6a81 6540 0501 a808 1b00 c55e ab81
00000230: 08c7 1281 41c0 2781 7064 7b00 22ba f200
00000240: 3684 8101 c696 1581 a0c4 3100 08c9 1081
00000250: bd79 7500 9738 2100 14fc 3301 fd2a 5781
00000260: 7786 a100 32f3 5081 fc9e 3781 3dc2 9001
00000270: f059 be00 ebd0 7880 348f 4a01 590b 7400
00000280: dae5 1a80 44eb 3481 4b4e 9281 af6c 3e01
00000290: 7e99 0281 4ab1 0081 60f6 0500 90ab d680
000002a0: 661d 2781 fd97 ae00 1604 7801 1d05 8601
000002b0: d256 4301 f4c9 4b81 56fa 9801 8f5b 0a01
000002c0: ee9c ad01 ac6e 6b00 cfe5 2f81 46c5 4a81
000002d0: aac3 7e00 ef05 a581 ec0a ac80 45ff 1100
000002e0: 7822 6801 9e53 a501 0b4b bd81 b778 5681
000002f0: 1eaf 9480 8c1f 4381 39d6 4e80 a70c a100
00000300: 53cf 2a81 7325 c380 aa99 9d81 ced2 e200
00000310: fa4e 3f81 5491 7a80 0e5a 3d01 3cdc 3880
00000320: 3ee1 f200 ecd0 8501 1cae 7d80 f243 a580
00000330: 281c 8c01 ddc6 5380 f3c7 9a00 8481 2680
00000340: 809a 2281 e23e 8181 ce99 1881 4087 8380
00000350: f8e4 5d00 00e3 c680 c4d1 9601 76a8 3681
00000360: d816 a480 02bd 2701 7e24 7d80 e65c e680
00000370: 10d9 e400 1cfe bf00 ee33 bd01 7209 9c81
00000380: 99ae e480 208b 0200 62c0 9381 b87b 0801
00000390: 8a21 0281 4cf4 2d00 a448 8b81 f4e0 8701
000003a0: f7fb 6481 db4e 5501 0e22 ef80 541e bd81
000003b0: 49e8 ac00 400e 7c81 f795 a581 c734 2700
000003c0: d417 b801 8cb4 5481 648a c300 78cb 8900
000003d0: 93dd a681 fb3d 5680 7f6b 6000 f728 0481
000003e0: 2166 8d00 19ba 4980 2685 2e00 f465 0e01
000003f0: 7064 2f81 c85b 1581 0b2f 7300 2390 9881

fc2.bias f4 [300]
-2.0628885e-38 4.668628e-29 -6.522365e-38 -1.0607684e-38 -1.8267388e-38 2.259856e-35 -2.3445315e-38 -4.430714e-38
-1.4057288e-38 -6.412187e-38 5.9688768e-37 -5.5033856e-38 -1.8568953e-38 1.2189368e-38 6.838522e-32 -4.0892804e-38
2.076253e-39 -6.909294e-38 -6.0007737e-38 -9.577314e-39 -5.2592245e-38 -4.425574e-38 4.595159e-31 1.2545676e-35
-8.782975e-37 -5.438714e-38 -2.3849988e-38 0.00741562 3.5731302e-34 -3.105923e-38 -2.4880245e-38 7.161702e-34
1.5166847e-38 -2.3910936e-38 -2.1721247e-38 -3.044239e-38 2.5457804e-38 -2.7455142e-38 -6.172529e-38 -5.1623746e-38
9.514731e-38 5.280182e-39 -1.5530243e-38 2.0401776e-32 -6.490111e-38 -5.516085e-38 -4.2212132e-38 3.1095643e-32
-5.380448e-38 6.201048e-39 -5.7596954e-38 -4.599057e-38 -2.272785e-38 -3.2056328e-38 -5.314298e-38 4.6879472e-35
-8.789729e-39 3.8984253e-33 5.494406e-31 -6.540517e-38 -2.2677269e-38 -3.7688068e-38 -6.147087e-39 -5.9879176e-38
-3.7541705e-38 5.948447e-37 -6.269193e-38 -2.6407447e-38 -4.6880945e-38 -6.2757723e-38 -6.185659e-38 1.1989036e-31
-4.9272473e-38 1.5614587e-33 -4.1616188e-38 6.33342e-39 -4.248701e-38 -1.38277e-38 -6.0571944e-38 -4.606698e-38
-2.9823936e-38 -9.932605e-39 -6.492913e-38 -6.117464e-38 -5.9569153e-38 -1.199063e-38 -5.2798594e-38 2.9579646e-33
3.9272352e-36 -5.5039966e-38 -1.6391473e-38 -2.1519292e-38 2.680449e-39 1.8367196e-36 -3.8921468e-38 2.0074338e-31
-3.8603892e-38 -2.925104e-39 -6.788401e-38 2.534588e-38 -6.335916e-38 -2.854972e-38 -5.2875004e-38 1.1707297e-32
-6.467479e-38 -3.5492026e-38 -6.366689e-38 -7.914713e-39 -2.628027e-38 8.251915e-31 -6.8190726e-38 -3.3533285e-38
-5.215467e-38 3.5854945e-38 -6.337869e-38 2.3910434e-32 3.646034e-35 -3.441679e-39 1.1175112e-33 5.292257e-31
-6.5816366e-38 7.1029e-40 -2.3155818e-38 2.5854975e-34 -6.1338937e-38 -2.7843016e-38 -2.3876422e-38 -5.151541e-38
-2.225178e-38 0.009463138 -4.1401812e-38 4.479814e-35 -6.9756234e-38 1.2399156e-32 -3.9866134e-38 9.072253e-39
-2.7855846e-38 3.7724898e-33 -2.216952e-37 -4.2786732e-38 -3.0488309e-38 -6.079617e-39 -2.3453695e-38 1.4900309e-38
-2.159263e-38 -3.154908e-38 -1.065507e-38 -2.9884092e-34 7.08913e-37 -5.956625e-38 -1.4759686e-38 -7.603692e-39
-5.3619733e-38 -1.4400954e-38 0.009555348 -4.6340425e-38 7.573749e-33 -6.929957e-38 -2.5411556e-38 4.9154697e-35
1.4393779e-38 1.0726425e-32 -3.094249e-38 -4.0116641e-38 -4.6753236e-38 1.5901213e-34 -2.509656e-38 2.2817128e-33
-2.3060754e-38 2.1670956e-35 -4.2300896e-38 1.2194391e-38 -3.756825e-38 7.903885e-36 -7.317782e-39 -3.7644303e-38
8.031112e-34 -3.893723e-38 3.3220773e-38 -3.337792e-39 -8.752759e-35 -2.4911096e-38 -4.903047e-38 -6.529432e-38
1.8182746e-38 -8.21856e-40 -3.9647834e-38 -5.638217e-38 2.750509e-38 -5.115058e-38 -5.106291e-38 -2.9689411e-38
-1.5938481e-38 1.5149987e-38 1.3590464e-31 -6.117894e-38 2.6865994e-36 -6.1704485e-38 1.3619515e-29 -4.359102e-38
6.907249e-38 -1.3708869e-38 4.282301e-34 -5.0568714e-38 -5.354058e-38 -2.6188032e-38 2.901033e-38 -1.2641495e-38
-6.047152e-38 -6.0146056e-38 2.5141432e-32 -4.0097674e-38 -6.0430425e-38 -5.528594e-38 -2.3413954e-38 -4.5330862e-38
2.0864236e-38 -1.2898872e-33 -2.0951407e-38 3.6076722e-35 -9.791242e-39 -5.3715873e-38 -5.119004e-38 9.686481e-33
-2.315384e-38 4.199788e-38 3.5266025e-36 -4.1343192e-38 -6.431253e-38 -4.0236503e-38 -1.7475885e-38 1.0039164e-35
7.4933596e-34 -2.9146145e-38 -1.1161051e-36 9.5153476e-33 -3.1910683e-38 1.5490962e-37 -3.5930638e-38 -6.6127263e-38
-5.1091746e-38 8.391468e-39 -3.3200163e-38 6.3094228e-34 -3.0606573e-38 -4.8931795e-38 1.9015078e-37 -3.9917332e-38
-9.34211e-39 1.3822719e-33 -6.312816e-38 1.6495407e-32 2.4469534e-34 -1.637183e-38 -5.2637165e-38 -3.7538477e-38
00000000: f0a0 e080 42ba 6c10 408e b181 e881 7380
00000010: 0cea c680 224f f005 004c ff80 243b 7181
00000020: 0012 9980 6c8e ae81 401c 4b03 00d1 9581
00000030: b032 ca80 00bb 8400 c689 b10b 40a4 5e81
00000040: c09b 1600 c016 bc81 4a5b a381 a849 6880
00000050: 722b 8f81 80f3 7081 161f 150d 9468 8505
00000060: 406f 9583 4e0e 9481 08da 0181 bbfe f23b
00000070: a979 ed07 401a 2981 0076 0781 06fd 6d08
00000080: 0027 a500 fb2e 0281 0086 ec80 80be 2581
00000090: 009b 0a01 e27a 1581 4008 a881 8088 8c81
000000a0: 0082 0102 007f 3900 001c a980 39dd d30a
000000b0: 79ad b081 8029 9681 20d3 6581 3375 210b
000000c0: 4078 9281 0086 4300 38cb 9c81 8065 7a81
000000d0: 007c f780 0088 2e81 40ab 9081 0841 7906
000000e0: 30b6 5f80 2bef a109 bd4d 320d c00c b281
000000f0: 00ef f680 8031 4d81 94ef 4280 b201 a381
00000100: 8065 4c81 486a 4a03 e6a9 aa81 9cc6 0f81
00000110: 803e 7f81 c0d7 aa81 c063 a881 68a0 1b0c
00000120: e721 8681 8eb8 0109 8094 6281 00f7 4400
00000130: 4052 6781 0092 9680 7ce4 a481 00d0 7a81
00000140: 8060 2281 1028 6c80 00c1 b081 8088 a681
00000150: a429 a281 0091 8280 40bb 8f81 f3bc 7509
00000160: ce0b a704 42d5 9581 c27c b280 0853 ea80
00000170: 0030 1d00 3640 1c04 9ce8 5381 374a 820c
00000180: f92d 5281 00da 1f80 40cc b881 00ff 0901
00000190: e47a ac81 8070 1b81 80f0 8f81 ab26 730a
000001a0: c00f b081 aa3c 4181 5951 ad81 002f 5680
000001b0: 5a15 0f81 1de5 850d 00a2 b981 9492 3681
000001c0: 80fa 8d81 8036 4301 8088 ac81 d64c f80a
000001d0: 3edb 4106 007a 2580 abad b908 5abe 2b0d
000001e0: 502b b381 00bc 0700 0025 fc80 f6d5 ab07
000001f0: 00fb a681 8097 1781 e0fe 0181 003d 8c81
00000200: e94c f280 470b 1b3c b469 6181 1230 6e06
00000210: 00e5 bd81 9cc2 800a 480d 5981 c0c9 6200
00000220: 62a9 1781 feb3 9c09 c0e0 9682 00f4 6881
00000230: 80fe 2581 8033 4280 5c63 ff80 0040 a200
00000240: 781f eb80 00c5 2b81 0006 7480 269d c687
00000250: 083b 7103 9e27 a281 00b8 a080 00cc 5280
00000260: 80f7 9181 00d0 9c80 098e 1c3c 204d 7c81
00000270: f54c 1d0a c0a6 bc81 8a5a 0a81 f4ac 8206
00000280: 00bc 9c00 75c7 5e0a 8977 2881 706a 5a81
00000290: 808c 7e81 065d 5307 80a3 0881 aa8e 3d09
000002a0: 001c fb80 f471 e605 d84e 6681 00c9 8400
000002b0: 808a 4c81 d818 2805 00af 4f80 80f4 4c81
000002c0: 9370 8508 94fe 5381 00df 3401 6858 2480
000002d0: 31b0 e886 00a1 0781 4079 8581 80bf b181
000002e0: 19fe c500 00f3 0880 04dd 5781 a37c 9981
000002f0: 80c0 1501 c03e 8b81 a801 8b81 00a5 2181
00000300: 008e ad80 00f8 a400 106a 300c 808b a681
00000310: f48c 6404 c0f9 a781 481e 8a0f 0455 6d81
00000320: 8008 bc01 c046 9580 ca4d 0e08 40a9 8981
00000330: 57c0 9181 ca94 0e81 80f2 1d01 58a7 8980
00000340: 809e a481 afbb a381 b28a 020b 0050 5a81
00000350: dc81 a481 ad80 9681 94f4 fe80 00ce 7681
00000360: 0031 e300 bc51 d688 0024 e480 17d1 3f06
00000370: 009e 6a80 803a 9281 405a 8b81 2b2e 490a
00000380: 7c1f fc80 80a8 6401 4d01 9604 0018 6181
00000390: 4b13 af81 8011 5b81 a84b be80 6882 5505
000003a0: 7402 7908 ccaf 1e81 3ce5 bd83 44a0 450a
000003b0: 00bd 2d81 20da 5202 00a0 4381 fa03 b481
000003c0: c015 8b81 0060 5b00 46c2 3481 a2aa 5108
000003d0: 56a3 2681 7c34 8581 f068 8102 a454 5981
000003e0: 00ba 6580 58ab e508 e8d9 ab81 504c ab0a
000003f0: c1a0 a207 0046 b280 c04a 8f81 0061 4c81

fc3.weight f4 [1, 300]
-2.6354826e-38 -1.2149295e-28 3.822796e-38 -8.613891e-39 2.913378e-39 -5.4530156e-35 1.1468675e-38 -1.0199345e-38
-1.6305464e-38 -1.9691199e-38 -1.2781399e-36 -3.925788e-38 -2.1385227e-38 1.188875e-38 -1.9113518e-31 2.009027e-38
-8.570689e-39 3.5410476e-38 2.0615522e-38 -9.775447e-39 -9.1039e-39 -1.2325328e-38 -1.242513e-30 -4.0336833e-35
-1.778653e-36 1.642597e-38 -3.35258e-40 -0.03634915 -9.626968e-34 7.775346e-39 -8.224586e-38 -2.2737993e-33
1.5121647e-38 3.8375534e-38 -2.728124e-38 6.835036e-38 1.7249648e-38 -5.3565833e-38 -2.3191691e-38 1.2234927e-38
-2.8891088e-37 -2.8653034e-38 -6.738788e-39 -5.700304e-32 1.276426e-39 4.159502e-39 1.2776927e-38 -8.409556e-32
1.1669206e-38 5.480714e-39 6.94192e-40 3.7081093e-38 1.3748778e-38 1.7021853e-38 -6.435695e-38 -1.1361573e-34
-1.5028915e-38 -6.0012263e-33 -1.4859244e-30 2.1082345e-38 5.589948e-38 5.028711e-39 -1.685515e-39 -6.867708e-39
3.9033314e-38 -1.0851982e-36 -1.7199694e-38 1.3535288e-38 6.484447e-39 -1.9409934e-38 3.061422e-39 -2.8951652e-31
-3.4389406e-38 -2.7814312e-33 4.8683934e-38 -9.127229e-39 1.6247888e-38 2.2226701e-38 -2.1477309e-38 -7.94234e-40
-2.4642405e-38 -3.69113e-40 2.3393299e-38 4.4240315e-38 -1.0458933e-38 2.0248651e-38 3.960732e-38 -8.143106e-33
-1.2459376e-35 -2.312568e-39 3.475512e-39 -1.3015709e-38 -1.6549402e-38 -4.800581e-36 8.271876e-39 -5.6107544e-31
-1.349643e-38 -1.0419024e-38 -1.7816445e-38 -2.557511e-38 -1.102373e-39 -3.8150474e-38 3.313432e-38 -1.8258104e-32
-1.3512732e-38 -2.631079e-38 6.6399754e-38 5.224938e-39 3.634542e-39 -2.1474143e-30 3.5489038e-38 1.7829079e-38
3.337781e-39 -6.261674e-39 1.653577e-38 -2.1057916e-32 -9.4826406e-35 -1.6427792e-38 -2.9434682e-33 -1.3772173e-30
-2.4081706e-38 -1.4813855e-38 -4.884142e-39 -7.2536666e-34 3.6494565e-38 -3.600238e-39 -2.2246566e-38 2.0680923e-38
5.028973e-38 -0.046369094 -4.543155e-39 -1.2589028e-34 3.7947073e-38 -2.9929594e-32 1.5050181e-38 2.1932e-39
-1.3996662e-38 -5.8832185e-33 -4.1761797e-37 5.532479e-38 1.0882506e-38 2.0412053e-38 -2.4449228e-38 -4.86477e-39
-3.177315e-39 -2.4373715e-38 -3.675931e-38 4.7778165e-34 -1.7791926e-36 -6.105693e-39 2.0247575e-38 -1.190945e-37
5.675864e-38 -3.3229024e-38 -0.046838954 4.423204e-39 -1.8281691e-32 -3.4728526e-38 6.2491875e-38 -1.9208032e-34
-2.3809429e-38 -2.9022156e-32 1.019321e-38 5.624027e-39 -2.796642e-38 -5.979402e-34 -2.1173822e-38 -6.1487678e-33
-5.774516e-39 -5.787162e-35 4.3308676e-38 1.1660956e-38 2.0662628e-38 -2.3558716e-35 1.1256305e-38 9.703927e-38
-2.5456816e-33 1.856003e-39 2.0135291e-38 -5.137283e-39 -4.3920317e-35 -3.080435e-39 -1.844889e-38 -3.081153e-39
1.0380079e-38 -9.069473e-39 7.08474e-40 -8.141757e-39 -3.395761e-39 1.4288312e-38 -2.752279e-39 2.3024701e-38
-3.1056182e-38 1.2936608e-38 -2.119525e-31 1.6122152e-38 9.198057e-36 1.554249e-39 -3.544242e-29 -5.720644e-39
-6.009844e-39 2.2961071e-38 -1.3923839e-33 -3.861037e-38 -7.97972e-39 -4.512246e-39 2.323725e-38 -1.5116872e-38
-4.19143e-39 -1.5918291e-38 -3.920972e-32 2.38288e-38 -2.942693e-39 -6.927476e-39 1.461717e-39 -3.9443346e-38
-2.3778578e-38 2.0292576e-33 1.7722816e-38 -9.0618165e-35 -1.0889322e-38 -2.903616e-38 1.696087e-39 -1.5106595e-32
-5.493227e-39 2.4296228e-38 -1.0521484e-35 -2.3694993e-38 -2.4142e-38 -3.592418e-38 -3.4651e-41 -2.3146164e-35
-1.1532807e-33 5.121263e-38 5.2074995e-37 -1.4839936e-32 -6.839233e-39 -1.1687179e-37 8.630384e-39 -2.459891e-38
2.64386e-40 -2.6323067e-38 -6.796937e-39 -1.7069502e-33 -4.59173e-39 -1.3883045e-38 -1.8011423e-36 6.028811e-38
1.3757747e-38 -3.697764e-33 -1.0901945e-38 -4.461051e-32 -3.7237785e-34 -1.6448598e-38 -4.269992e-39 -3.8613598e-38
00000000: 447d 0f81 b702 1a91 0022 5001 06cc 5d80
00000010: 50b9 1f00 4df7 9086 00e2 7c00 a00f 6f80
00000020: 008d b180 0d6b d680 d876 d983 80bd 5581
00000030: 50dd e880 0075 8100 8f1b 788c 80c3 da00
00000040: 9853 5d80 00cb 4001 b07b e000 f871 6a80
00000050: f821 6380 0036 8680 f99b c98d a777 5686
00000060: a24f 1784 ecdc b200 90a6 0380 d9e2 14bd
00000070: 98f4 9f88 80aa 5400 00e5 df81 5de6 3c89
00000080: 00a9 a400 b0ef 5001 8088 1481 4011 ba01
00000090: 00d5 bb00 f0d1 9181 0089 fc80 003a 8500
000000a0: 609f c482 8000 1c81 0061 4980 05fd 938b
000000b0: 28e6 0d00 004b 2d00 e020 8b00 1653 da8b
000000c0: 0011 7f00 00ae 3b00 208f 0700 80e3 4901
000000d0: 00b6 9500 005a b900 4032 af81 6e05 1787
000000e0: 80a6 a380 fc47 f989 e21a f18d 0091 e500
000000f0: 402c 9801 00c2 3600 885a 1280 60c8 4a80
00000100: 8084 5401 0ca3 b883 c049 bb80 e062 9300
00000110: 009c 4600 005b d380 0056 2100 2fe8 bb8c
00000120: d63b 3b81 8012 6789 c087 8401 0063 6380
00000130: 80ec b000 0007 f200 00de e980 00a6 0880
00000140: 802a 0681 f004 0480 00bb fe00 00de 7001
00000150: 40e3 7180 007d dc00 8ca4 5701 2e20 298a
00000160: a67d 8485 802e 1980 50d8 2500 80ba 8d80
00000170: 0035 b480 b331 cc84 a012 5a00 5314 368d
00000180: 8ef6 9280 0074 7180 0001 c280 803e 0b81
00000190: f800 0c80 00b6 4f81 8066 3401 5e9a bd8a
000001a0: 0024 9380 e43f 0f81 e0c1 b401 00e5 3800
000001b0: a093 2700 0d38 2e8e 8038 4101 3824 c200
000001c0: 6058 2400 002f 4480 000f b400 8bad da8a
000001d0: 8217 fc86 00e2 b280 a588 7489 5e77 df8d
000001e0: 001d 0381 004f a180 002f 3580 5f0b 7188
000001f0: 00b2 4601 0034 2780 603e f280 0032 e100
00000200: d4e6 8801 85ed 3dbd 7878 3180 3e56 2787
00000210: 809a 4e01 4167 1b8b c8e1 a300 c0e1 1700
00000220: 0069 9880 1c61 f489 a81b 0e83 c09b 9601
00000230: 0080 7600 8044 de00 401d 0581 00f9 3480
00000240: 1099 2280 00b4 0481 0023 4881 2bc5 1e08
00000250: 625b 1784 307c 4280 007a dc00 601a 2282
00000260: 0083 9a01 80ea 3481 34da 3fbd 182a 3000
00000270: 12d9 bd8a 8014 3d81 7b1e aa01 8c51 7f87
00000280: 80a1 0181 10b1 168b 86fe 6e00 803d 3d00
00000290: 8043 1881 20b3 4688 0090 e680 ea68 ff89
000002a0: 00e1 3e80 62d9 9986 7ccb 6b01 00fa 7e00
000002b0: 00ff e000 ed84 fa85 0092 7a00 4015 0402
000002c0: a97c 5389 c835 1400 0041 db00 a8f0 3780
000002d0: 3d85 6986 008b 2180 00e4 c880 008d 2180
000002e0: 7007 7100 00c2 6280 f0b6 0700 e8a7 5880
000002f0: 00fa 2480 0096 9b00 3cf8 1d80 80b7 fa00
00000300: 0016 2981 00de 8c00 a690 898c 008e af00
00000310: fc9e 4305 9dec 1000 e4b6 3390 d44a 3e80
00000320: 0071 4180 2006 fa00 7659 e788 0037 5281
00000330: 36e4 5680 4e22 3180 0008 fd00 b09b a480
00000340: 00a4 2d80 b855 ad80 a896 4b8b 80bc 0101
00000350: 080b 2080 fc6e 4b80 acea 0f00 00c0 5681
00000360: 8076 0181 8995 2809 00fc c000 87e7 f086
00000370: 0093 7680 8016 1e81 0078 1200 38e0 9c8a
00000380: e2d0 3b80 0048 0401 68c4 5f85 0002 0181
00000390: 0971 0381 0097 4381 9860 0080 da21 f685
000003a0: 239f bf88 ff69 8b01 b833 3103 511b 9a8a
000003b0: 0079 4a80 e013 1f82 00fa 5d00 e0ed 0581
000003c0: 00e1 0200 0051 0f81 1803 4a80 d1ce 0d89
000003d0: e0ff 3180 482c 9780 6839 1984 ae1e a401
000003e0: 00cf 9500 5f99 9989 30b6 7680 8aa1 678b
000003f0: cf7c f787 001c b380 007f 2e80 803b 5281

bn1_state.weight f4 [400]
0.35169148 0.087897 0.70983917 0.1859858 0.5191527 0.02887547 0.77603257 0.3886447
0.7956043 0.92958325 0.80005866 0.45218349 0.9504709 0.82672423 0.93612987 0.97743344
0.53924954 0.3929767 0.4184143 0.5233934 0.33983517 0.35877687 0.87994623 0.3336277
0.8199843 0.84173685 0.0922941 0.31862146 0.5120568 0.9961559 0.2258017 0.7982151
0.01486218 0.89767706 0.02661562 0.7536089 0.0858047 0.049776196 0.6953157 0.27794987
0.5695202 0.5069741 0.5519756 0.9327858 0.47588092 0.73420477 0.2633695 0.45210278
0.7054362 0.19485432 0.14604765 0.9462472 0.59889376 0.13328534 0.7458153 0.52815807
0.7897383 0.13674873 0.97629976 0.7971178 0.92243 0.33365566 0.57145834 0.019140124
0.44130498 0.6552168 0.20337474 0.6549423 0.64806396 0.9659393 0.25876337 0.17877942
0.21772784 0.93624794 0.8229169 0.8250944 0.0030801892 0.6586977 0.8762658 0.6707883
0.8202703 0.7088107 0.2555033 0.42460877 0.003441155 0.8397431 0.9043957 0.64790136
0.8777784 0.12351632 0.80834216 0.14380813 0.15672934 0.021531224 0.51205397 0.9017483
0.028916538 0.83687145 0.80501866 0.84068274 0.6140386 0.019959629 0.33489007 0.7286585
0.28644627 0.51145536 0.028580308 0.78622365 0.5937872 0.6332464 0.7658767 0.6066458
0.5484229 0.5663688 0.48553264 0.57557267 0.014720082 0.27076596 0.22968 0.43451852
0.7328108 0.9340277 0.56387645 0.11478233 0.4379856 0.940228 0.52410585 0.12513149
0.4093092 0.4451933 0.5545651 0.82232904 0.3000787 0.9902907 0.99423605 0.22294694
0.47554678 0.037280202 0.83941644 0.4546467 0.28469747 0.97354555 0.8573042 0.82877153
0.9150309 0.85999334 0.89582056 0.16291034 0.537411 0.19176722 0.84150636 0.12313962
0.2377187 0.28356284 0.9180742 0.96780354 0.81174994 0.25405818 0.8010908 0.9854617
0.300685 0.9764691 0.1824767 0.017546356 0.778409 0.9824187 0.1729899 0.537119
0.10205388 0.78491455 0.71451014 0.21151096 0.3253572 0.1496653 0.5538776 0.2388736
0.63250864 0.23425722 0.086670995 0.70143044 0.10158789 0.56429744 0.92600644 0.26577753
0.9380269 0.016313195 0.746691 0.15143245 0.6951719 0.75725543 0.081082225 0.63502413
0.15635997 0.33130246 0.33878618 0.3516066 0.6669117 0.034878314 0.38746566 0.19547105
0.11041254 0.60705894 0.19278741 0.22073144 0.93101776 0.5287238 0.44742566 0.97397363
0.45398337 0.7579117 0.010032773 0.31776625 0.13403845 0.53127265 0.7499974 0.44329178
0.8866367 0.20127416 0.25597924 0.2330991 0.009521306 0.8938288 0.9817896 0.51692027
0.9281537 0.31456447 0.36988682 0.7056374 0.9731343 0.20823038 0.11970192 0.08611983
0.7982756 0.99098927 0.26717597 0.6950555 0.007361114 0.65354645 0.8627222 0.35533738
0.304515 0.2177996 0.5475782 0.099166095 0.08268064 0.52747107 0.4261709 0.52988803
0.3869211 0.4979214 0.60556877 0.77923113 0.22738498 0.48529363 0.08402175 0.6074495
00000000: e810 b43e 5803 b43d 05b8 353f 1073 3e3e
00000010: 31e7 043f 408c ec3c 12aa 463f 70fc c63e
00000020: b9ac 4b3f 2bf9 6d3f a5d0 4c3f 9884 e73e
00000030: 1052 733f 33a4 533f 35a6 6f3f 1439 7a3f
00000040: 420c 0a3f 3e34 c93e 663a d63e 1cfd 053f
00000050: e0fe ad3e 9ab1 b73e 2844 613f 40d1 aa3e
00000060: 7eea 513f 117c 573f b004 bd3d 5a22 a33e
00000070: 2816 033f 1304 7f3f 9038 673e d357 4c3f
00000080: 8080 733c 2ace 653f 0009 da3c 83ec 403f
00000090: 60ba af3d 20e2 4b3d 3600 323f 724f 8e3e
000000a0: 13cc 113f 0ec9 013f 464e 0d3f 0dcb 6e3f
000000b0: aaa6 f33e d8f4 3b3f 5ed8 863e 047a e73e
000000c0: 7897 343f e487 473e 848d 153e 423d 723f
000000d0: 1a51 193f f47b 083e c0ed 3e3f 5e35 073f
000000e0: 4a2c 4a3f dc07 0c3e c8ee 793f ea0f 4c3f
000000f0: 5f24 6c3f ead4 aa3e 184b 123f c0cb 9c3c
00000100: baf2 e13e 4abc 273f 7841 503e 4caa 273f
00000110: 85e7 253f cc47 773f a27c 843e f411 373e
00000120: 0cf4 5e3e f2ad 6f3f afaa 523f 6339 533f
00000130: 00dd 493b 6aa0 283f f552 603f c8b8 2b3f
00000140: 3cfd 513f 9e74 353f 54d1 823e 5266 d93e
00000150: 0085 613b 67f9 563f 7a86 673f dddc 253f
00000160: 16b6 603f 20f6 fc3d 83ef 4e3f 7042 133e
00000170: a87d 203e 4062 b03c f815 033f fad8 663f
00000180: 60e2 ec3c 353d 563f b415 4e3f fc36 573f
00000190: a231 1d3f 6082 a33c b676 ab3e 5d89 3a3f
000001a0: 16a9 923e bdee 023f 4021 ea3c f445 493f
000001b0: 7002 183f 701c 223f 7f10 443f 244d 1b3f
000001c0: 7165 0c3f 8cfd 103f bc97 f83e bb58 133f
000001d0: 802c 713c d6a1 8a3e 3c31 6b3e 3679 de3e
000001e0: 7d99 3b3f 701c 6f3f 355a 103f 0013 eb3d
000001f0: a63f e03e c8b2 703f cd2b 063f 7822 003e
00000200: fa90 d13e 60f0 e33e faf7 0d3f 2884 523f
00000210: eaa3 993e b183 7d3f 4186 7e3f 344c 643e
00000220: de7a f33e 20b3 183d ffe3 563f 74c7 e83e
00000230: dec3 913e 483a 793f 4a78 5b3f 5f2a 543f
00000240: 773f 6a3f 8628 5c3f 7f54 653f f8d1 263e
00000250: c493 093f a05e 443e f66c 573f a030 fc3d
00000260: 886c 733e 262f 913e e906 6b3f f9c1 773f
00000270: d8ce 4f3f ea13 823e 4914 4d3f 3847 7c3f
00000280: 62f3 993e e1f9 793f 2cdb 3a3e 60bd 8f3c
00000290: d045 473f cb7f 7b3f 4424 313e a180 093f
000002a0: a001 d13d 29f0 483f 23ea 363f 5496 583e
000002b0: 3895 a63e dc41 193e ecca 0d3f 489b 743e
000002c0: 16ec 213f 20e1 6f3e 9080 b13d f290 333f
000002d0: 500d d03d cc75 103f c20e 6d3f fe13 883e
000002e0: 8822 703f 40a3 853c 2427 3f3f 1c11 1b3e
000002f0: c9f6 313f 7edb 413f 700e a63d f190 223f
00000300: d41c 203e 7aa0 a93e 6275 ad3e c805 b43e
00000310: baba 2a3f 90dc 0e3d e661 c63e 9029 483e
00000320: f81f e23d 3768 1b3f 106a 453e 6c07 623e
00000330: 2e57 6e3f 715a 073f fa14 e53e 5656 793f
00000340: 8270 e83e 8006 423f 8060 243c 42b2 a23e
00000350: 6041 093e 7c01 083f d4ff 3f3f 24f7 e23e
00000360: 9ffa 623f d01a 4e3e b60f 833e 88b1 6e3e
00000370: 40ff 1b3c f7d1 643f 9056 7b3f e354 043f
00000380: 7b9b 6d3f 980e a13e ce61 bd3e a7a4 343f
00000390: 541f 793f 583a 553e 4826 f53d 985f b03d
000003a0: ca5b 4c3f 79b1 7d3f 4acb 883e 28ef 313f
000003b0: 8035 f13b d24e 273f 5ddb 5c3f c8ee b53e
000003c0: 64e9 9b3e dc06 5f3e 162e 0c3f 9817 cb3d
000003d0: 7854 a93d 5808 073f 1233 da3e bea6 073f
000003e0: 861a c63e 8eef fe3e 8e06 1b3f b17b 473f
000003f0: 9cd7 683e 6878 f83e 9813 ac3d cf81 1b3f

bn1_state.bias f4 [400]
0.0 0.0 0.0 0.0 0.0 0.0 0.0 0.0
0.0 0.0 0.0 0.0 0.0 0.0 0.0 0.0
0.0 0.0 0.0 0.0 0.0 0.0 0.0 0.0
0.0 0.0 0.0 0.0 0.0 0.0 0.0 0.0
0.0 0.0 0.0 0.0 0.0 0.0 0.0 0.0
0.0 0.0 0.0 0.0 0.0 0.0 0.0 0.0
0.0 0.0 0.0 0.0 0.0 0.0 0.0 0.0
0.0 0.0 0.0 0.0 0.0 0.0 0.0 0.0
0.0 0.0 0.0 0.0 0.0 0.0 0.0 0.0
0.0 0.0 0.0 0.0 0.0 0.0 0.0 0.0
0.0 0.0 0.0 0.0 0.0 0.0 0.0 0.0
0.0 0.0 0.0 0.0 0.0 0.0 0.0 0.0
0.0 0.0 0.0 0.0 0.0 0.0 0.0 0.0
0.0 0.0 0.0 0.0 0.0 0.0 0.0 0.0
0.0 0.0 0.0 0.0 0.0 0.0 0.0 0.0
0.0 0.0 0.0 0.0 0.0 0.0 0.0 0.0
0.0 0.0 0.0 0.0 0.0 0.0 0.0 0.0
0.0 0.0 0.0 0.0 0.0 0.0 0.0 0.0
0.0 0.0 0.0 0.0 0.0 0.0 0.0 0.0
0.0 0.0 0.0 0.0 0.0 0.0 0.0 0.0
0.0 0.0 0.0 0.0 0.0 0.0 0.0 0.0
0.0 0.0 0.0 0.0 0.0 0.0 0.0 0.0
0.0 0.0 0.0 0.0 0.0 0.0 0.0 0.0
0.0 0.0 0.0 0.0 0.0 0.0 0.0 0.0
0.0 0.0 0.0 0.0 0.0 0.0 0.0 0.0
0.0 0.0 0.0 0.0 0.0 0.0 0.0 0.0
0.0 0.0 0.0 0.0 0.0 0.0 0.0 0.0
0.0 0.0 0.0 0.0 0.0 0.0 0.0 0.0
0.0 0.0 0.0 0.0 0.0 0.0 0.0 0.0
0.0 0.0 0.0 0.0 0.0 0.0 0.0 0.0
0.0 0.0 0.0 0.0 0.0 0.0 0.0 0.0
0.0 0.0 0.0 0.0 0.0 0.0 0.0 0.0
00000000: 0000 0000 0000 0000 0000 0000 0000 0000
00000010: 0000 0000 0000 0000 0000 0000 0000 0000
00000020: 0000 0000 0000 0000 0000 0000 0000 0000
00000030: 0000 0000 0000 0000 0000 0000 0000 0000
00000040: 0000 0000 0000 0000 0000 0000 0000 0000
00000050: 0000 0000 0000 0000 0000 0000 0000 0000
00000060: 0000 0000 0000 0000 0000 0000 0000 0000
00000070: 0000 0000 0000 0000 0000 0000 0000 0000
00000080: 0000 0000 0000 0000 0000 0000 0000 0000
00000090: 0000 0000 0000 0000 0000 0000 0000 0000
000000a0: 0000 0000 0000 0000 0000 0000 0000 0000
000000b0: 0000 0000 0000 0000 0000 0000 0000 0000
000000c0: 0000 0000 0000 0000 0000 0000 0000 0000
000000d0: 0000 0000 0000 0000 0000 0000 0000 0000
000000e0: 0000 0000 0000 0000 0000 0000 0000 0000
000000f0: 0000 0000 0000 0000 0000 0000 0000 0000
00000100: 0000 0000 0000 0000 0000 0000 0000 0000
00000110: 0000 0000 0000 0000 0000 0000 0000 0000
00000120: 0000 0000 0000 0000 0000 0000 0000 0000
00000130: 0000 0000 0000 0000 0000 0000 0000 0000
00000140: 0000 0000 0000 0000 0000 0000 0000 0000
00000150: 0000 0000 0000 0000 0000 0000 0000 0000
00000160: 0000 0000 0000 0000 0000 0000 0000 0000
00000170: 0000 0000 0000 0000 0000 0000 0000 0000
00000180: 0000 0000 0000 0000 0000 0000 0000 0000
00000190: 0000 0000 0000 0000 0000 0000 0000 0000
000001a0: 0000 0000 0000 0000 0000 0000 0000 0000
000001b0: 0000 0000 0000 0000 0000 0000 0000 0000
000001c0: 0000 0000 0000 0000 0000 0000 0000 0000
000001d0: 0000 0000 0000 0000 0000 0000 0000 0000
000001e0: 0000 0000 0000 0000 0000 0000 0000 0000
000001f0: 0000 0000 0000 0000 0000 0000 0000 0000
00000200: 0000 0000 0000 0000 0000 0000 0000 0000
00000210: 0000 0000 0000 0000 0000 0000 0000 0000
00000220: 0000 0000 0000 0000 0000 0000 0000 0000
00000230: 0000 0000 0000 0000 0000 0000 0000 0000
00000240: 0000 0000 0000 0000 0000 0000 0000 0000
00000250: 0000 0000 0000 0000 0000 0000 0000 0000
00000260: 0000 0000 0000 0000 0000 0000 0000 0000
00000270: 0000 0000 0000 0000 0000 0000 0000 0000
00000280: 0000 0000 0000 0000 0000 0000 0000 0000
00000290: 0000 0000 0000 0000 0000 0000 0000 0000
000002a0: 0000 0000 0000 0000 0000 0000 0000 0000
000002b0: 0000 0000 0000 0000 0000 0000 0000 0000
000002c0: 0000 0000 0000 0000 0000 0000 0000 0000
000002d0: 0000 0000 0000 0000 0000 0000 0000 0000
000002e0: 0000 0000 0000 0000 0000 0000 0000 0000
000002f0: 0000 0000 0000 0000 0000 0000 0000 0000
00000300: 0000 0000 0000 0000 0000 0000 0000 0000
00000310: 0000 0000 0000 0000 0000 0000 0000 0000
00000320: 0000 0000 0000 0000 0000 0000 0000 0000
00000330: 0000 0000 0000 0000 0000 0000 0000 0000
00000340: 0000 0000 0000 0000 0000 0000 0000 0000
00000350: 0000 0000 0000 0000 0000 0000 0000 0000
00000360: 0000 0000 0000 0000 0000 0000 0000 0000
00000370: 0000 0000 0000 0000 0000 0000 0000 0000
00000380: 0000 0000 0000 0000 0000 0000 0000 0000
00000390: 0000 0000 0000 0000 0000 0000 0000 0000
000003a0: 0000 0000 0000 0000 0000 0000 0000 0000
000003b0: 0000 0000 0000 0000 0000 0000 0000 0000
000003c0: 0000 0000 0000 0000 0000 0000 0000 0000
000003d0: 0000 0000 0000 0000 0000 0000 0000 0000
000003e0: 0000 0000 0000 0000 0000 0000 0000 0000
000003f0: 0000 0000 0000 0000 0000 0000 0000 0000

bn1_state.running_mean f4 [400]
0.0 0.0 0.0 0.0 0.0 0.0 0.0 0.0
0.0 0.0 0.0 0.0 0.0 0.0 0.0 0.0
0.0 0.0 0.0 0.0 0.0 0.0 0.0 0.0
0.0 0.0 0.0 0.0 0.0 0.0 0.0 0.0
0.0 0.0 0.0 0.0 0.0 0.0 0.0 0.0
0.0 0.0 0.0 0.0 0.0 0.0 0.0 0.0
0.0 0.0 0.0 0.0 0.0 0.0 0.0 0.0
0.0 0.0 0.0 0.0 0.0 0.0 0.0 0.0
0.0 0.0 0.0 0.0 0.0 0.0 0.0 0.0
0.0 0.0 0.0 0.0 0.0 0.0 0.0 0.0
0.0 0.0 0.0 0.0 0.0 0.0 0.0 0.0
0.0 0.0 0.0 0.0 0.0 0.0 0.0 0.0
0.0 0.0 0.0 0.0 0.0 0.0 0.0 0.0
0.0 0.0 0.0 0.0 0.0 0.0 0.0 0.0
0.0 0.0 0.0 0.0 0.0 0.0 0.0 0.0
0.0 0.0 0.0 0.0 0.0 0.0 0.0 0.0
0.0 0.0 0.0 0.0 0.0 0.0 0.0 0.0
0.0 0.0 0.0 0.0 0.0 0.0 0.0 0.0
0.0 0.0 0.0 0.0 0.0 0.0 0.0 0.0
0.0 0.0 0.0 0.0 0.0 0.0 0.0 0.0
0.0 0.0 0.0 0.0 0.0 0.0 0.0 0.0
0.0 0.0 0.0 0.0 0.0 0.0 0.0 0.0
0.0 0.0 0.0 0.0 0.0 0.0 0.0 0.0
0.0 0.0 0.0 0.0 0.0 0.0 0.0 0.0
0.0 0.0 0.0 0.0 0.0 0.0 0.0 0.0
0.0 0.0 0.0 0.0 0.0 0.0 0.0 0.0
0.0 0.0 0.0 0.0 0.0 0.0 0.0 0.0
0.0 0.0 0.0 0.0 0.0 0.0 0.0 0.0
0.0 0.0 0.0 0.0 0.0 0.0 0.0 0.0
0.0 0.0 0.0 0.0 0.0 0.0 0.0 0.0
0.0 0.0 0.0 0.0 0.0 0.0 0.0 0.0
0.0 0.0 0.0 0.0 0.0 0.0 0.0 0.0
00000000: 0000 0000 0000 0000 0000 0000 0000 0000
00000010: 0000 0000 0000 0000 0000 0000 0000 0000
00000020: 0000 0000 0000 0000 0000 0000 0000 0000
00000030: 0000 0000 0000 0000 0000 0000 0000 0000
00000040: 0000 0000 0000 0000 0000 0000 0000 0000
00000050: 0000 0000 0000 0000 0000 0000 0000 0000
00000060: 0000 0000 0000 0000 0000 0000 0000 0000
00000070: 0000 0000 0000 0000 0000 0000 0000 0000
00000080: 0000 0000 0000 0000 0000 0000 0000 0000
00000090: 0000 0000 0000 0000 0000 0000 0000 0000
000000a0: 0000 0000 0000 0000 0000 0000 0000 0000
000000b0: 0000 0000 0000 0000 0000 0000 0000 0000
000000c0: 0000 0000 0000 0000 0000 0000 0000 0000
000000d0: 0000 0000 0000 0000 0000 0000 0000 0000
000000e0: 0000 0000 0000 0000 0000 0000 0000 0000
000000f0: 0000 0000 0000 0000 0000 0000 0000 0000
00000100: 0000 0000 0000 0000 0000 0000 0000 0000
00000110: 0000 0000 0000 0000 0000 0000 0000 0000
00000120: 0000 0000 0000 0000 0000 0000 0000 0000
00000130: 0000 0000 0000 0000 0000 0000 0000 0000
00000140: 0000 0000 0000 0000 0000 0000 0000 0000
00000150: 0000 0000 0000 0000 0000 0000 0000 0000
00000160: 0000 0000 0000 0000 0000 0000 0000 0000
00000170: 0000 0000 0000 0000 0000 0000 0000 0000
00000180: 0000 0000 0000 0000 0000 0000 0000 0000
00000190: 0000 0000 0000 0000 0000 0000 0000 0000
000001a0: 0000 0000 0000 0000 0000 0000 0000 0000
000001b0: 0000 0000 0000 0000 0000 0000 0000 0000
000001c0: 0000 0000 0000 0000 0000 0000 0000 0000
000001d0: 0000 0000 0000 0000 0000 0000 0000 0000
000001e0: 0000 0000 0000 0000 0000 0000 0000 0000
000001f0: 0000 0000 0000 0000 0000 0000 0000 0000
00000200: 0000 0000 0000 0000 0000 0000 0000 0000
00000210: 0000 0000 0000 0000 0000 0000 0000 0000
00000220: 0000 0000 0000 0000 0000 0000 0000 0000
00000230: 0000 0000 0000 0000 0000 0000 0000 0000
00000240: 0000 0000 0000 0000 0000 0000 0000 0000
00000250: 0000 0000 0000 0000 0000 0000 0000 0000
00000260: 0000 0000 0000 0000 0000 0000 0000 0000
00000270: 0000 0000 0000 0000 0000 0000 0000 0000
00000280: 0000 0000 0000 0000 0000 0000 0000 0000
00000290: 0000 0000 0000 0000 0000 0000 0000 0000
000002a0: 0000 0000 0000 0000 0000 0000 0000 0000
000002b0: 0000 0000 0000 0000 0000 0000 0000 0000
000002c0: 0000 0000 0000 0000 0000 0000 0000 0000
000002d0: 0000 0000 0000 0000 0000 0000 0000 0000
000002e0: 0000 0000 0000 0000 0000 0000 0000 0000
000002f0: 0000 0000 0000 0000 0000 0000 0000 0000
00000300: 0000 0000 0000 0000 0000 0000 0000 0000
00000310: 0000 0000 0000 0000 0000 0000 0000 0000
00000320: 0000 0000 0000 0000 0000 0000 0000 0000
00000330: 0000 0000 0000 0000 0000 0000 0000 0000
00000340: 0000 0000 0000 0000 0000 0000 0000 0000
00000350: 0000 0000 0000 0000 0000 0000 0000 0000
00000360: 0000 0000 0000 0000 0000 0000 0000 0000
00000370: 0000 0000 0000 0000 0000 0000 0000 0000
00000380: 0000 0000 0000 0000 0000 0000 0000 0000
00000390: 0000 0000 0000 0000 0000 0000 0000 0000
000003a0: 0000 0000 0000 0000 0000 0000 0000 0000
000003b0: 0000 0000 0000 0000 0000 0000 0000 0000
000003c0: 0000 0000 0000 0000 0000 0000 0000 0000
000003d0: 0000 0000 0000 0000 0000 0000 0000 0000
000003e0: 0000 0000 0000 0000 0000 0000 0000 0000
000003f0: 0000 0000 0000 0000 0000 0000 0000 0000
